artifacts/Physics/120_walkerPhysics.pt (torch, 59615 bytes, 20 tensors)

linear1.weight f4 [50, 24]
-0.16334064 -0.11352792 0.02193835 -0.053392053 0.03606626 0.1026584 -0.05050848 -0.023188515
0.03407275 -0.10535139 0.054851815 0.15469965 -0.028944205 -0.036600135 0.1618095 0.32111257
-0.3570322 -0.20309702 0.11341755 -0.07102301 -0.12025965 0.049295977 -0.08564294 0.04106437
-0.070458844 -0.04971556 0.031731196 0.049380276 0.035067677 0.08176556 -0.04029934 -0.05202084
-0.023969488 0.1627855 0.06802715 0.11398075 -0.059908472 -0.027006729 0.06330487 -0.27556187
0.17946422 0.009196337 -0.11900082 -0.17978807 -0.12020022 0.15545326 -0.0041079954 0.0959873
-0.06258552 -0.067943014 -0.16431908 -0.087338276 0.093652755 -0.16629231 0.2424953 0.23923002
-0.018169358 -0.18798718 0.08262859 -0.080444045 -0.03159228 0.033700243 0.22019683 0.08996246
-0.03231712 0.08855925 -0.26701957 -0.029736841 0.17919002 -0.053094935 -0.042365067 -0.17948876
0.052378576 -0.044443727 0.26076633 -0.1433832 -0.112414435 -0.4649415 0.06211273 0.11911363
0.085394174 -0.079446144 -0.05002423 -0.107478805 0.01095149 0.08424579 -0.01761779 0.11410118
0.10395225 0.18948184 0.04506137 -0.0801452 0.03992785 -0.1606763 -0.180353 0.067804456
-0.1255652 0.20120053 0.12773946 -0.14160138 0.09923829 -0.19243166 0.09263219 0.2214123
0.11765124 -0.13714367 -0.13464154 0.37715432 -0.026411496 0.020438427 0.31674054 0.027724737
-0.23279978 0.01702816 0.14248593 -0.07356629 -0.0713936 0.121263206 0.2681118 -0.14764833
-0.106886566 -0.399149 -0.17046238 0.18430951 0.241851 0.28642383 -0.10915043 -0.18450475
0.033118177 -0.14029281 -0.045801952 -0.1050183 -0.032574378 -0.0042116134 -0.013841776 -0.008336203
-0.01565173 0.0093748765 -0.0062696864 -0.0039759567 0.00013111826 -0.00059927575 -0.0015864414 -0.00043670938
0.28040877 -0.05954331 -0.20356928 0.21942678 0.048185915 -0.21372175 0.08932643 0.033062663
-0.118046276 0.22504357 0.08745426 -0.023246001 0.034245923 0.0972179 -0.14765468 0.33007812
-0.30045393 -0.16333057 -0.11011027 0.008619041 -0.05053179 0.1301163 0.11743234 0.07266867
0.18952194 0.3776918 0.03519706 -0.15977283 -0.09834152 -0.12110321 0.10861514 0.105081804
-0.050435558 0.07528142 -0.05703943 0.053704284 0.06319324 0.07110669 -0.22136404 0.114787534
-0.019241186 -0.28919274 -0.008815356 -0.15463431 0.10007123 0.007834921 0.17431901 0.073988594
-0.32990375 -0.24671112 0.054499254 -0.13977438 -0.04319764 -0.04442143 0.028932493 -0.007074262
0.06015876 -0.12288506 0.023728615 0.067413926 -0.015110426 -0.008005543 0.112648055 -0.22646712
-0.116070494 -0.20405087 -0.03611563 0.07987499 0.05196113 -0.008857172 -0.13197315 0.09450423
0.5568083 0.032748386 0.012040071 0.47534317 0.121143155 0.0313615 -0.15772568 -0.009847496
-0.074965306 0.24633169 0.0026625649 0.09438083 -0.07009006 -0.036783554 0.14008836 0.3581657
0.09526606 0.25415432 0.18040362 -0.08438036 -0.091735035 -0.021781169 0.22854172 -0.17668502
0.20168808 -0.02643562 -0.17478243 0.09719551 0.020445516 0.048832916 -0.007534912 0.014271791
-0.044181995 -0.071551114 -0.07217723 -0.04423295 0.03254712 0.0406004 -0.005840377 0.034710858
00000000: c542 27be 5381 e8bd 0eb8 b33c a0b1 5abd
00000010: 37ba 133d 913e d23d fbe1 4ebd d7f5 bdbc
00000020: de8f 0b3d 78c2 d7bd 4cac 603d 9669 1e3e
00000030: 661c edbc 06ea 15bd 64b1 253e de68 a43e
00000040: edcc b6be aaf8 4fbe 7647 e83d 8374 91bd
00000050: b14a f6bd 94ea 493d 9165 afbd 1d33 283d
00000060: ba4c 90bd 8ba2 4bbd 92f8 013d f942 4a3d
00000070: 20a3 0f3d b474 a73d ec10 25bd ce13 55bd
00000080: a95b c4bc 3eb1 263e d251 8b3d bd6e e93d
00000090: 9662 75bd 373d ddbc fca5 813d 7216 8dbe
000000a0: 78c5 373e 3cac 163c b4b6 f3bd 5d1a 38be
000000b0: 882b f6bd 242f 1f3e 5d9c 86bb fd94 c43d
000000c0: d62c 80bd b525 8bbd 4343 28be 69de b2bd
000000d0: 04cd bf3d 8848 2abe b050 783e b7f8 743e
000000e0: e8d7 94bc b67f 40be 2e39 a93d d9bf a4bd
000000f0: e866 01bd 4409 0a3d 477b 613e 3d3e b83d
00000100: f55e 04bd 8d5e b53d cab6 88be ad9a f3bc
00000110: 977d 373e 137a 59bd fe86 2dbd e7cb 37be
00000120: eb8a 563d a00a 36bd 2a83 853e 0cd3 12be
00000130: 8a39 e6bd d00c eebe eb69 7e3d d9f1 f33d
00000140: 24e3 ae3d a9b4 a2bd 35e6 4cbd d91d dcbd
00000150: e16d 333c 0f89 ac3d 2f53 90bc e1ad e93d
00000160: ebe4 d43d 8707 423e 4592 383d 2b23 a4bd
00000170: 638b 233d 5488 24be 75ae 38be 10dd 8a3d
00000180: 2a94 00be 8307 4e3e 22ce 023e f4ff 10be
00000190: 723d cb3d ce0c 45be f2b5 bd3d e8b9 623e
000001a0: 22f3 f03d 646f 0cbe 79df 09be 5f1a c13e
000001b0: ec5c d8bc 7d6e a73c d12b a23e fd1e e33c
000001c0: 1163 6ebe a47e 8b3c d5e7 113e eca9 96bd
000001d0: cf36 92bd d858 f83d f345 893e 2031 17be
000001e0: 58e7 dabd 425d ccbe b18d 2ebe a2bb 3c3e
000001f0: caa7 773e 25a6 923e 438a dfbd d0ee 3cbe
00000200: eda6 073d eba8 0fbe d49a 3bbd d613 d7bd
00000210: b66c 05bd 9301 8abb 9ec8 62bc 9294 08bc
00000220: 0f38 80bc 1599 193c f171 cdbb be48 82bb
00000230: ca7c 0939 b718 1dba 24f0 cfba 24f6 e4b9
00000240: bd91 8f3e b0e3 73bd 7774 50be 6ab1 603e
00000250: 985e 453d e0d9 5abe c6f0 b63d b76c 073d
00000260: 3fc2 f1bd d271 663e 381b b33d 666e bebc
00000270: 7445 0c3d 2e1a c73d ca32 17be 0000 a93e
00000280: 19d5 99be 2140 27be 7e81 e1bd e136 0d3c
00000290: 6cfa 4ebd 353d 053e 5e80 f03d 50d3 943d
000002a0: 0a12 423e d260 c13e cb2a 103d 7d9b 23be
000002b0: 4767 c9bd f604 f8bd 9d71 de3d 2135 d73d
000002c0: 8495 4ebd 252d 9a3d 2da2 69bd 06f9 5b3d
000002d0: 756b 813d 62a0 913d 41ad 62be ba15 eb3d
000002e0: b19f 9dbc 1211 94be 486e 10bc 7558 1ebe
000002f0: 25f2 cc3d 0a5e 003c af80 323e 5587 973d
00000300: 25e9 a8be d7a1 7cbe 9c3a 5f3d 0421 0fbe
00000310: 02f0 30bd 3ff3 35bd d603 ed3c 36cf e7bb
00000320: 0869 763d 2aab fbbd 8362 c23c 5010 8a3d
00000330: b891 77bc ae29 03bc 06b4 e63d ffe6 67be
00000340: 5eb6 edbd b6f2 50be fced 13bd 8095 a33d
00000350: 32d5 543d ac1d 11bc f823 07be 6f8b c13d
00000360: fd8a 0e3f 2c23 063d b843 453c 2e60 f33e
00000370: e719 f83d eb74 003d d782 21be 6457 21bc
00000380: 6987 99bd 603e 7c3e 6d7e 2e3b bd4a c13d
00000390: 618b 8fbd 5aaa 16bd 5373 0f3e 7f61 b73e
000003a0: da1a c33d 8420 823e babb 383e 9ccf acbd
000003b0: 94df bbbd 6c6e b2bc d706 6a3e ebec 34be
000003c0: 5287 4e3e 838f d8bc 2afa 32be 710e c73d
000003d0: 5b7d a73c 0605 483d 6ce7 f6bb 3bd4 693c
000003e0: 2ef8 34bd 6489 92bd a8d1 93bd 9c2d 35bd
000003f0: 2150 053d 9b4c 263d a260 bfbb f92c 0e3d

linear1.bias f4 [50]
0.18197784 -0.12632214 -0.09827354 -0.1365764 0.016603112 0.18995059 0.13011616 0.10023974
-0.008002358 0.049109716 0.16583887 -0.14544156 0.070276625 -0.18958908 0.06616118 -0.10282573
0.16561891 0.036141794 0.14885898 0.108716406 -0.09791952 0.19920704 0.05324974 -0.12706766
-0.05827715 0.006771523 0.07304234 0.098080344 -0.0867676 -0.022039145 -0.036016967 0.09588999
-0.123776354 -0.11622342 -0.07387806 0.19135927 -0.19960038 0.16185685 0.19894499 -0.051731076
-0.042836465 -0.12778595 0.022177367 -0.12982851 0.083183065 -0.107743375 0.15557486 -0.13540766
-0.038762897 -0.12364202
00000000: 6658 3a3e 975a 01be a343 c9bd afda 0bbe
00000010: 4003 883c 6882 423e 2c3d 053e 7e4a cd3d
00000020: 521c 03bc 4527 493d aad1 293e a2ee 14be
00000030: 31ed 8f3d a423 42be 837f 873d 4c96 d2bd
00000040: 0198 293e 6b09 143d 7d6e 183e b5a6 de3d
00000050: 088a c8bd eefc 4b3e 661c 5a3d 061e 02be
00000060: 05b4 6ebd a7e3 dd3b 3997 953d 59de c83d
00000070: 36b3 b1bd 708b b4bc 8786 13bd f961 c43d
00000080: 757e fdbd 8b06 eebd 614d 97bd aff3 433e
00000090: 0b64 4cbe cdbd 253e 3cb8 4b3e f7e3 53bd
000000a0: 4a75 2fbd 52da 02be 4fad b53c c4f1 04be
000000b0: e25b aa3d 8fa8 dcbd 044f 1f3e 4ea8 0abe
000000c0: d8c5 1ebd 0738 fdbd

bn1.weight f4 [50]
1.0988742 1.075232 0.8986504 1.0090442 0.9636151 0.9391638 0.87666965 0.8793402
1.0715268 0.99601364 0.9945796 0.9692322 0.93226415 0.80184263 1.0038192 1.0792187
0.9904531 1.020072 0.98734534 1.0441551 1.1080048 1.0677612 1.0672938 0.97611296
0.9616634 1.103856 1.01002 1.0248625 0.9783838 0.74161327 0.730142 0.9940478
0.9490832 0.9883945 1.0139974 0.9323094 1.0294033 1.1023514 0.858707 0.81593734
1.0240015 1.0311875 0.9612455 0.8285525 0.9439376 0.979881 1.0102092 1.0637045
1.0200596 0.99306846
00000000: e9a7 8c3f 34a1 893f f40d 663f 5c28 813f
00000010: 7baf 763f 0a6d 703f 6c6d 603f 701c 613f
00000020: ca27 893f c0fa 7e3f c59c 7e3f 9a1f 783f
00000030: dda8 6e3f 8f45 4d3f 267d 803f d723 8a3f
00000040: 568e 7d3f b891 823f aac2 7c3f e0a6 853f
00000050: 1ad3 8d3f 66ac 883f 159d 883f 8ae2 793f
00000060: 932f 763f 274b 8d3f 5648 813f b22e 833f
00000070: 5c77 7a3f 5eda 3d3f 96ea 3a3f eb79 7e3f
00000080: 1ef7 723f 6c07 7d3f abca 813f d4ab 6e3f
00000090: 7dc3 833f da19 8d3f 39d4 5b3f 45e1 503f
000000a0: 7b12 833f f4fd 833f 2f14 763f 041c 543f
000000b0: e5a5 713f 7bd9 7a3f 894e 813f 7827 883f
000000c0: 5091 823f bc39 7e3f

bn1.bias f4 [50]
0.04147254 0.063295715 0.27105308 0.06273188 0.013190194 0.11055702 0.15299281 0.22148907
-0.071562834 0.07927815 -0.08320789 0.05574369 0.027253661 0.22771905 0.00042222327 -0.009636813
0.047712404 -0.05889935 0.115723684 0.03641073 0.20529985 0.13864972 0.089567736 0.16281523
0.011897447 -0.08081165 -0.103950985 0.0022251084 -0.04554075 0.4977799 0.5035832 0.16602172
0.09087782 0.018313846 -0.056690834 0.000151646 -0.018894253 -0.020954432 0.23293814 0.17259051
0.0059757014 -0.026730265 0.26827878 0.31978613 -0.008208684 0.066777624 0.031158196 0.103486665
0.037216593 0.0064630555
00000000: 1cdf 293d 2fa1 813d 78c7 8a3e 9279 803d
00000010: af1b 583c b86b e23d 26aa 1c3e 08ce 623e
00000020: 898f 92bd 955c a23d e668 aabd 7f53 643d
00000030: 1243 df3c 2f2f 693e d95d dd39 b9e3 1dbc
00000040: 156e 433d 7240 71bd 8a00 ed3d 6b23 153d
00000050: 203a 523e 31fa 0d3e 4a6f b73d 09b9 263e
00000060: 82ed 423c 9480 a5bd 41e4 d4bd 20d3 113b
00000070: f088 3abd 02dd fe3e d4ea 003f 9901 2a3e
00000080: 271e ba3d eb06 963c a634 68bd 2a03 1f39
00000090: 1fc8 9abc a1a8 abbc 5687 6e3e 91bb 303e
000000a0: d1cf c33b 6ef9 dabc d65b 893e 02bb a33e
000000b0: b77d 06bc b5c2 883d 793f ff3c d1f0 d33d
000000c0: 6d70 183d 0ac8 d33b

bn1.running_mean f4 [50]
0.18581499 -0.063141555 -0.012937578 -0.25981474 0.043149017 0.22242773 0.2302879 0.03373753
-0.04636959 0.1818966 0.23207635 -0.13344416 0.042390358 -0.12730166 0.21306923 -0.16379666
-0.0008379806 0.15061839 0.08974796 -0.030248877 0.0441685 0.12313342 0.026369397 -0.094976164
-0.18831779 0.09098728 0.03580964 0.042905465 -0.07672996 -0.16361263 -0.28580287 0.14383508
-0.23339567 -0.196762 0.03376084 0.25504938 -0.19909567 0.17721878 0.27873027 -0.13543071
-0.033283543 -0.13958845 -0.11324568 -0.043246325 0.24932516 -0.1177022 0.3593869 -0.08869568
-0.06725634 -0.1219332
00000000: 4946 3e3e 5c50 81bd 23f8 53bc 7006 85be
00000010: 06bd 303d 18c4 633e 97d0 6b3e 5d30 0a3d
00000020: 0aee 3dbd 1a43 3a3e 6ca5 6d3e 96a5 08be
00000030: 83a1 2d3d 5e5b 02be d22e 5a3e 50ba 27be
00000040: edab 5bba b53b 1a3e c7cd b73d 7ecc f7bc
00000050: 07ea 343d 602d fc3d a204 d83c dd82 c2bd
00000060: 61d6 40be 8a57 ba3d 21ad 123d a4bd 2f3d
00000070: 9924 9dbd 128a 27be c154 92be 8149 133e
00000080: 46ff 6ebe fa7b 49be ce48 0a3d d595 823e
00000090: bcdf 4bbe d778 353e bcb5 8e3e 59ae 0abe
000000a0: 5354 08bd 46f0 0ebe 5aed e7bd 0f23 31bd
000000b0: 184f 7f3e da0d f1bd 8f01 b83e 15a6 b5bd
000000c0: b1bd 89bd 1db8 f9bd

bn1.running_var f4 [50]
3.45851 3.6207054 10.486506 2.0170083 7.2785697 0.21964125 1.7375298 4.5453877
3.1247816 10.353658 3.411522 2.5137122 2.3220308 7.853081 3.983342 4.3935513
6.0927706 3.4509647 3.6766582 5.448482 0.5092834 4.9324045 10.280904 2.6323159
2.2053177 7.4640517 2.5575447 6.8001003 2.0199335 3.1880403 1.2746269 1.9971864
6.750192 8.496591 1.4287695 4.665673 3.5964406 2.4562187 3.0466087 1.6191862
2.3284748 3.9196088 2.6018043 3.317807 3.105749 3.9104476 11.674364 4.9800634
2.8604772 2.9578428
00000000: 3a58 5d40 a3b9 6740 bbc8 2741 aa16 0140
00000010: 0bea e840 a3e9 603e 6067 de3f d173 9140
00000020: 6cfc 4740 95a8 2541 6056 5a40 a9e0 2040
00000030: 279c 1440 714c fb40 13ef 7e40 f997 8c40
00000040: faf7 c240 9bdc 5c40 5e4e 6b40 f759 ae40
00000050: 6660 023f 42d6 9d40 957e 2441 dd77 2840
00000060: ed23 0d40 83d9 ee40 d0ae 2340 6c9a d940
00000070: 9746 0140 da08 4c40 f926 a33f cea3 ff3f
00000080: 9301 d840 09f2 0741 ebe1 b63f 314d 9540
00000090: 152c 6640 b032 1d40 a3fb 4240 7e41 cf3f
000000a0: bb05 1540 dfda 7a40 f683 2640 f356 5440
000000b0: 97c4 4640 c644 7a40 32ca 3a41 ae5c 9f40
000000c0: 0f12 3740 4c4d 3d40

linear2.weight f4 [100, 50]
-0.039668225 -0.03603863 0.039461248 0.10151231 -0.06445385 -0.0074612712 0.016312271 -0.0018828409
0.0066420916 -0.041014634 0.07951939 -0.07995926 0.09485005 -0.014380399 -0.13979556 0.06525989
0.0073949364 -0.066335164 0.042106424 0.11584754 -0.057232708 -0.04956742 0.021121752 -0.02473976
-0.013682797 -0.1379852 0.15515083 0.039313484 -0.06978315 0.0031072856 0.044234704 -0.18623532
0.089156 0.021073502 -0.08384087 -0.074784994 -0.007835199 -0.12036754 -0.01572481 0.062578976
0.08406223 0.03899377 -0.009309145 -0.0035961336 0.008647688 0.087702155 -0.015600968 0.042307533
0.13968037 -0.07047047 -0.051635444 0.13650839 0.0776156 0.042772043 0.077905215 0.1571843
-0.037243113 -0.054499753 -0.062378738 0.050586246 -0.08273385 0.04759071 -0.0873004 0.11696866
-0.05969874 -0.18512459 -0.16440381 -0.018158007 -0.022976262 0.022020996 0.104405254 -0.011026235
-0.02894608 -0.00059596985 0.078486785 0.062248036 -0.067238785 0.033186905 -0.071310215 0.054192513
0.052805457 0.08368097 0.059982833 0.0022354533 -0.040582508 -0.05115971 0.088482745 -0.06942527
-0.044582147 0.23839416 -0.040274803 0.12347318 -0.15845585 -0.090203606 -0.039033607 0.12147281
-0.01753678 0.09981412 -0.03318126 0.092928566 0.18909924 -0.020913389 -0.037905354 -0.048003916
0.045395315 0.12825401 -0.0019623372 0.00945218 -0.057596877 0.10388832 -0.009857475 0.14851254
-0.014970773 -0.018739104 0.13101809 -0.07687226 -0.03153686 -0.13356057 -0.050988797 0.05969051
0.11343574 -0.09693003 0.15746005 0.0051367427 -0.007202121 0.14749397 0.05990839 -0.075022355
-0.09732453 -0.025646094 0.010239032 0.14508739 0.12525645 -0.14970239 -0.0360938 -0.02837233
0.047654267 -0.06409369 0.05686208 0.16923302 -0.039320324 -0.17832811 0.07010846 0.013381145
0.09991601 0.047842395 -0.026825631 -0.089588374 -0.007045998 -0.01949055 -0.1709362 -0.10078678
0.14594659 -0.06889488 0.08214474 0.052207343 -0.110608675 0.048247267 0.07400986 -0.031151535
-0.043792784 0.096634336 -0.056707356 -0.019680198 0.050912768 0.22693485 0.0890981 -0.03079052
0.07874735 -0.08833811 0.1191833 -0.0348354 -0.13047248 0.12737389 -0.05859603 -0.20698102
-0.02095137 0.032981668 -0.034554463 0.09061795 -0.0162496 -0.035998166 0.42143577 0.01984313
0.09629984 0.023157569 0.0433863 0.05861938 0.0016827253 0.020899517 0.13461342 0.11048417
-0.044280186 -0.017301245 0.037482616 0.048935052 0.085146286 -0.062340863 -0.03445112 0.07727705
-0.088730656 -0.11532643 -0.02243816 0.20103018 0.11479381 0.06837818 -0.052462015 0.035968814
-0.0013632997 -0.033089787 -0.03926217 -0.13801232 0.05789215 0.061476212 -0.13498925 0.070021994
0.005276642 0.001492453 0.109468885 0.08672591 0.060021095 0.07813194 -0.0766216 0.067941144
-0.04215196 0.15363203 -0.039610732 -0.07901491 -0.019175002 -0.08968393 -0.0009187189 0.06356638
-0.117601566 0.062012605 -0.16860862 0.1659679 -0.100927554 -0.04706244 0.04219624 -0.06967487
-0.053978205 0.10173039 -0.033540707 0.023527982 0.02998125 0.0075027114 0.004334082 -0.021681836
0.016339004 0.010265717 0.13324328 0.08762235 0.022248378 0.11409155 -0.096711725 0.09423277
00000000: 267b 22bd 3e9d 13bd 1ea2 213d b0e5 cf3d
00000010: 6100 84bd ae7d f4bb 50a1 853c a8c9 f6ba
00000020: e7a5 d93b f6fe 27bd 10db a23d aec1 a3bd
00000030: be40 c23d c49b 6bbc 9126 0fbe faa6 853d
00000040: 3951 f23b bbda 87bd c977 2c3d 7a41 ed3d
00000050: d86c 6abd 3507 4bbd 8607 ad3c 0aab cabc
00000060: cf2d 60bc fe4b 0dbe dcdf 1e3e 2d07 213d
00000070: 78ea 8ebd 9aa3 4b3b 732f 353d 79b4 3ebe
00000080: 6c97 b63d 56a2 ac3c c3b4 abbd e028 99bd
00000090: 355f 00bc 4283 f6bd 51d1 80bc 6829 803d
000000a0: d228 ac3d eeb7 1f3d 6285 18bc 1cad 6bbb
000000b0: 08af 0d3c 309d b33d 349b 7fbc aa4a 2d3d
000000c0: 5f08 0f3e d252 90bd b07f 53bd dbc8 0b3e
000000d0: edf4 9e3d bd31 2f3d c58c 9f3d ecf4 203e
000000e0: 3c8c 18bd 223b 5fbd d980 7fbd 8633 4f3d
000000f0: 5d70 a9bd 7aee 423d 8dca b2bd 448d ef3d
00000100: aa86 74bd 4d91 3dbe 7959 28be 1ac0 94bc
00000110: b738 bcbc 6065 b43c 6cd2 d53d 62a7 34bc
00000120: 5420 edbc dc3a 1cba aebd a03d ccf7 7e3d
00000130: 7db4 89bd feee 073d 170b 92bd f8f8 5d3d
00000140: 894a 583d ee60 ab3d 8fb0 753d af80 123b
00000150: d839 26bd d88c 51bd 7136 b53d d62e 8ebd
00000160: c59b 36bd 991d 743e 31f7 24bd 82df fc3d
00000170: 4042 22be abbc b8bd b4e1 1fbd bdc6 f83d
00000180: 4ba9 8fbc 586b cc3d 13e9 07bd 5551 be3d
00000190: 3ba3 413e 8e52 abbc a542 1bbd c19f 44bd
000001a0: 70f0 393d 0555 033e 8e9a 00bb 51dd 1a3c
000001b0: b4ea 6bbd 66c3 d43d 3f81 21bc ac13 183e
000001c0: f947 75bc c082 99bc 9b29 063e 346f 9dbd
000001d0: cb2c 01bd 1ac4 08be a1d9 50bd 097e 743d
000001e0: ff50 e83d 4083 c6bd 353d 213e 1f52 a83b
000001f0: c5ff ebbb a908 173e 8062 753d 52a5 99bd
00000200: 1552 c7bd c217 d2bc 9dc1 273c ca91 143e
00000210: 3a43 003e 954b 19be 18d7 13bd 176d e8bc
00000220: 1f31 433d 8d43 83bd 36e8 683d 6c4b 2d3e
00000230: 590e 21bd a59b 36be 0695 8f3d 973c 5b3c
00000240: c4a0 cc3d 63f6 433d 6dc1 dbbc 1c7a b7bd
00000250: 1de2 e6bb a5aa 9fbc e609 2fbe 4d69 cebd
00000260: 0673 153e c218 8dbd 803b a83d 5ed7 553d
00000270: cd86 e2bd ed9e 453d 7b92 973d 8131 ffbc
00000280: 1060 33bd 39e8 c53d f945 68bd 5e38 a1bc
00000290: e889 503d 9c61 683e 1179 b63d 673c fcbc
000002a0: 4a46 a13d 9cea b4bd 6016 f43d 90af 0ebd
000002b0: 949a 05be 4d6e 023e 6402 70bd d5f2 53be
000002c0: 35a2 abbc c917 073d fb88 0dbd e795 b93d
000002d0: e21d 85bc d072 13bd 6ec6 d73e 0f8e a23c
000002e0: da38 c53d f1b4 bd3c d5b5 313d e01a 703d
000002f0: e48e dc3a 7735 ab3c 1ad8 093e 8645 e23d
00000300: 245f 35bd 57bb 8dbc 5f87 193d 1f70 483d
00000310: 2d61 ae3d 2259 7fbd 9e1c 0dbd 6e43 9e3d
00000320: 6bb8 b5bd 4330 ecbd 3bd0 b7bc dbda 4d3e
00000330: 0419 eb3d dc09 8c3d 69e2 56bd 0954 133d
00000340: bfb0 b2ba 2889 07bd 5fd1 20bd 1a53 0dbe
00000350: 5220 6d3d 7bce 7b3d 9f3a 0abe b167 8f3d
00000360: aee7 ac3b 6a9e c33a 3931 e03d 5b9d b13d
00000370: aed8 753d a303 a03d c9eb 9cbd ba24 8b3d
00000380: 89a7 2cbd b751 1d3e dd3e 22bd 92d2 a1bd
00000390: e514 9dbc 35ac b7bd 2fd6 70ba 172f 823d
000003a0: 17d9 f0bd ee00 7e3d bda7 2cbe 7df3 293e
000003b0: 1bb3 cebd 8cc4 40bd f7d5 2c3d b3b1 8ebd
000003c0: 4018 5dbd 0658 d03d fb61 09bd c1bd c03c
000003d0: 3d9b f53c 4ed9 f53b ea04 8e3b 1b9e b1bc
000003e0: 60d9 853c 8a31 283c ed70 083e 5973 b33d
000003f0: 3b42 b63c d5a8 e93d cc10 c6bd 1cfd c03d

linear2.bias f4 [100]
-0.07624977 -0.032565024 -0.05161548 -0.013586904 0.0072113685 -0.118438594 -0.03247706 0.13379975
-0.082161754 0.07630378 -0.1144704 -0.10085071 0.07437143 -0.13144855 0.01890655 0.042388443
0.13475831 -0.13242641 0.11623766 0.12706421 0.092358336 -0.09010081 0.0036456604 -0.030023316
-0.050104804 0.016454363 0.009719086 0.13963518 0.08642166 -0.053146895 0.14004928 0.012371643
-0.09127633 0.0062631066 0.10457149 0.0019010757 -0.058680862 0.019516662 -0.03638812 -0.071340665
-0.09221489 0.08410198 -0.113308944 -0.08189166 0.08690421 0.13066402 -0.09356383 -0.1178339
-0.11873777 0.07637501 0.12154604 -0.01660338 -0.037817508 -0.1315096 -0.052126274 0.1383764
0.111005016 0.019833041 0.12346019 0.082178615 -0.032963417 0.016251644 -0.049957506 -0.0103967665
0.03340171 0.0050333138 0.04718773 0.11711936 0.012201413 0.009987419 -0.031909194 0.0033816877
0.06342802 -0.095626175 0.049651116 -0.009119107 -0.051132508 -0.015273816 0.025743756 -0.090157464
-0.08854046 -0.018992275 -0.13990377 0.09089572 -0.1115949 -0.093819894 -0.05805783 0.08221298
0.013350472 0.075645946 -0.11184836 -0.08872514 -0.13602002 -0.0094190035 0.01348711 -0.064267255
0.069176845 0.056081325 0.029914532 0.13006566
00000000: d728 9cbd e762 05bd c16a 53bd 9b9b 5ebc
00000010: 584d ec3b ef8f f2bd aa06 05bd cd02 093e
00000020: 6c44 a8bd 2845 9c3d 756f eabd d18a cebd
00000030: 0c50 983d 739a 06be e9e1 9a3c 819f 2d3d
00000040: 15fe 093e ca9a 07be 030e ee3d 1f1d 023e
00000050: 5e26 bd3d c686 b8bd 08ec 6e3b 75f3 f5bc
00000060: b23a 4dbd 4dcb 863c cd3c 1f3c 86fc 0e3e
00000070: d7fd b03d 8fb0 59bd 1469 0f3e 6fb2 4a3c
00000080: 16ef babd bf3a cd3b 9429 d63d 842d f93a
00000090: 585b 70bd 68e1 9f3c b60b 15bd 0e1b 92bd
000000a0: 29db bcbd a93d ac3d 850e e8bd d1b6 a7bd
000000b0: d6fa b13d cacc 053e 659e bfbd e652 f1bd
000000c0: ca2c f3bd 806a 9c3d 21ed f83d d003 88bc
000000d0: 88e6 1abd 74aa 06be 5c82 55bd 8bb2 0d3e
000000e0: 9956 e33d e778 a23c b2d8 fc3d 434d a83d
000000f0: a604 07bd 2b22 853c 3ea0 4cbd 3357 2abc
00000100: 3bd0 083d 7fee a43b ec47 413d 46dc ef3d
00000110: 6fe8 473c 45a2 233c 37b3 02bd 4e9f 5d3b
00000120: 8de6 813d a8d7 c3bd f85e 4b3d 4f68 15bc
00000130: 5270 51bd 073f 7abc 92e4 d23c 7aa4 b8bd
00000140: b354 b5bd b095 9bbc ef42 0fbe 8927 ba3d
00000150: de8b e4bd a524 c0bd 0cce 6dbd 475f a83d
00000160: f0bb 5a3c 43ec 9a3d c110 e5bd 87b5 b5bd
00000170: d548 0bbe 2a52 1abc 0af9 5c3c 8d9e 83bd
00000180: 97ac 8d3d 88b5 653d 520f f53c ef2f 053e

bn2.weight f4 [100]
1.1965289 0.8462063 0.95454496 0.96216744 0.9611588 0.9031156 0.93201184 0.9663481
1.0302404 0.95261294 1.047066 0.91317636 0.84495205 1.0184072 0.9271556 1.0173868
0.99891675 0.9465559 0.9026776 1.045108 0.97942275 1.0231825 0.9730122 1.0297674
0.96004725 1.0029535 0.9256333 0.9617751 0.8156012 0.9639395 0.9930667 1.022879
0.8436816 0.9979341 0.94676596 0.99707663 1.0322421 1.1032904 1.0469065 0.96784145
1.0040185 1.010572 0.9827502 0.85635597 0.92010206 0.91851956 1.0111682 0.9395079
1.0345854 0.9433746 0.9413585 1.0902535 0.84648114 1.0147996 0.95675594 1.0216496
0.927684 0.966105 1.0438657 0.93200254 1.0386527 1.0221198 1.024115 1.0026963
0.98698443 1.0705165 0.93411344 1.0316635 0.84468544 0.9904829 1.0088546 0.93482095
1.1821667 1.0379884 1.0427135 0.9045864 1.0900868 0.9815236 0.85745853 0.9771817
1.0067089 0.91198325 0.9712169 0.92439866 0.82453674 1.0314872 1.0126027 0.97436064
0.9763729 1.022101 0.969439 0.9088975 0.9210445 0.9197685 1.037613 0.9476876
0.8024359 0.99722147 1.036703 1.0164236
00000000: dc27 993f faa0 583f 0f5d 743f 9b50 763f
00000010: 810e 763f 9532 673f 5498 6e3f 9762 773f
00000020: ebde 833f 71de 733f 4206 863f edc5 693f
00000030: c74e 583f 2b5b 823f 125a 6d3f bb39 823f
00000040: 02b9 7f3f 7d51 723f e115 673f 19c6 853f
00000050: 73bb 7a3f a5f7 823f 5417 793f 6bcf 833f
00000060: a8c5 753f c860 803f 4ef6 6c3f e536 763f
00000070: 3ecb 503f bdc4 763f 9f39 7e3f b3ed 823f
00000080: 84fb 573f 9c78 7f3f 415f 723f 6a40 7f3f
00000090: 8220 843f 9f38 8d3f 0801 863f 75c4 773f
000000a0: ae83 803f 6c5a 813f 8495 7b3f 253a 5b3f
000000b0: cf8b 6b3f 1924 6b3f f66d 813f 9783 703f
000000c0: 4b6d 843f ff80 713f dffc 703f 6d8d 8b3f
000000d0: fdb2 583f f4e4 813f f5ed 743f 6ac5 823f
000000e0: b37c 6d3f a852 773f 649d 853f b897 6e3f
000000f0: 92f2 843f d2d4 823f 3316 833f 5a58 803f
00000100: 03ab 7c3f af06 893f 0f22 6f3f 8d0d 843f
00000110: 4e3d 583f 4a90 7d3f 2622 813f 6d50 6f3f
00000120: 3d51 973f cedc 843f a377 853f f992 673f
00000130: f787 8b3f 2145 7b3f 6782 5b3f 9428 7a3f
00000140: d6db 803f bc77 693f aca1 783f 64a5 6c3f
00000150: d714 533f c607 843f f79c 813f b36f 793f
00000160: 93f3 793f 35d4 823f 282d 783f 82ad 683f
00000170: 93c9 6b3f f375 6b3f 81d0 843f a89b 723f
00000180: 706c 4d3f e849 7f3f afb2 843f 2b1a 823f

bn2.bias f4 [100]
-0.1105588 0.19471952 0.08811452 0.14140622 0.19034772 0.21324754 0.16156575 0.26934215
0.15020351 0.11284738 0.05281331 0.25424206 0.39136058 0.21879192 0.20170462 0.16730045
0.19450392 0.12510857 0.40957475 0.20509247 0.1297848 0.27035263 0.2524497 0.39103338
0.4350228 0.1148488 0.48099205 0.07701728 0.51173985 0.11641504 0.24229078 0.087354824
0.16188829 -0.09348045 -0.0041783717 0.16219246 0.214435 0.07214538 0.02178281 0.1324801
0.19499332 0.24784464 0.085071966 0.6540652 0.2059167 0.1367 0.2333401 0.34684765
0.22501975 0.33711517 0.27259767 0.12876092 0.115286015 -0.15226115 0.3015844 0.34777743
0.15576269 0.15490188 0.10664174 0.1680609 -0.024610532 0.020928944 0.22396635 0.21779615
0.052721594 0.14461441 0.05688687 0.19994164 0.19617918 0.044281196 -0.070741184 0.12265286
0.09064581 0.017207444 0.23134811 0.3284207 0.22731847 0.287304 0.5587458 0.2853379
0.098105885 0.32221043 0.18448307 0.20672882 0.2802308 0.21292342 0.24084152 0.047934234
0.13858242 0.0728503 0.01279286 0.061613977 0.2726704 0.042166565 0.32664394 0.2562455
0.47728485 0.043106623 0.15312086 0.10741892
00000000: a76c e2bd 8e64 473e 6375 b43d cbcc 103e
00000010: 83ea 423e 905d 5a3e 7e71 253e 37e7 893e
00000020: f3ce 193e 871c e73d c552 583d 042c 823e
00000030: 6a60 c83e fd0a 603e a88b 4e3e cf50 2b3e
00000040: 092c 473e 761c 003e c8b3 d13e c303 523e
00000050: 4ee6 043e a96b 8a3e 1641 813e 8735 c83e
00000060: 4fbb de3e d935 eb3d 9744 f63e 3cbb 9d3d
00000070: 6201 033f 026b ee3d 131b 783e 16e7 b23d
00000080: 0bc6 253e ae72 bfbd b9ea 88bb c815 263e
00000090: d994 5b3e f5c0 933d dd71 b23c dda8 073e
000000a0: 54ac 473e fcca 7d3e 363a ae3d d170 273f
000000b0: d4db 523e 16fb 0b3e b5f0 6e3e 0496 b13e
000000c0: 946b 663e 5c9a ac3e ec91 8b3e e7d9 033e
000000d0: 131b ec3d 59ea 1bbe 4569 9a3e e20f b23e
000000e0: 4180 1f3e 999e 1e3e fc66 da3d 2818 2c3e
000000f0: 079c c9bc 2d73 ab3c 6f57 653e f405 5f3e
00000100: 99f2 573d cd15 143e 3502 693d 80bd 4c3e
00000110: 32e3 483e 3360 353d c1e0 90bd 6c31 fb3d
00000120: 83a4 b93d a0f6 8c3c 85e6 6c3e c226 a83e
00000130: 2cc6 683e 8319 933e f709 0f3f cf17 923e
00000140: bdeb c83d c4f8 a43e 21e9 3c3e b8b0 533e
00000150: 697a 8f3e 9908 5a3e 299f 763e b056 443d
00000160: 8de8 0d3e 8a32 953d 2599 513c f05e 7c3d
00000170: 749b 8b3e d9b6 2c3d e03d a73e 9c32 833e
00000180: ae5e f43e 9290 303d b7cb 1c3e 73fe db3d

bn2.running_mean f4 [100]
-0.096808866 0.19926742 0.26514366 0.45569125 0.061732296 -0.037317246 -0.14216694 0.049027953
-0.1534572 0.38362643 0.091048256 0.13503277 0.31984308 -0.17375797 -0.15337297 0.052827884
0.25967488 0.15278868 0.36623162 0.22363985 0.14571162 0.1437368 0.094451115 0.24975769
0.15321413 0.113399155 -0.03252588 0.25067303 0.21907319 0.09880102 0.36738816 0.16301322
0.021902895 -0.031708095 0.25679636 0.1599346 -0.13338807 -0.008377724 -0.14348282 0.010212121
0.026366731 0.1628444 -0.05241691 0.31719726 0.23134242 0.096832 -0.06227779 -0.18909633
0.096368864 0.3477477 0.339525 -0.27995223 0.12577051 -0.35000566 -0.07110403 0.2212037
0.41560608 0.22974543 0.20748915 0.2792946 0.018727535 0.24360065 0.20914222 -0.026584286
0.01165461 0.13596988 0.0970065 -0.019282483 0.2215259 -0.14764757 -0.116042264 -0.0029692347
-0.10310779 -0.27151656 0.06112821 0.06729015 -0.12130831 -0.02887578 0.2351828 -0.12101016
0.33234853 0.26671878 -0.066852584 0.25144005 0.21174964 0.01668085 0.14398935 0.0046239104
0.050230395 0.22270742 -0.3392182 0.13334219 0.0047077015 0.20083793 0.025463697 -0.12135946
0.25707713 0.15002406 0.18571444 0.27786922
00000000: ba43 c6bd c20c 4c3e e9c0 873e 5d50 e93e
00000010: 01db 7c3d f8d9 18bd 3694 11be 89d1 483d
00000020: e223 1dbe af6a c43e 8277 ba3d 0846 0a3e
00000030: 79c2 a33e 9ced 31be ce0d 1dbe 0d62 583d
00000040: 1bf4 843e a374 1c3e b682 bb3e d801 653e
00000050: 6d35 153e bd2f 133e 966f c13d 7bc0 7f3e
00000060: 2ae4 1c3e d13d e83d db39 05bd 3758 803e
00000070: b954 603e 3058 ca3d 4d1a bc3e f0ec 263e
00000080: b36d b33c 59e0 01bd d07a 833e e5c5 233e
00000090: e296 08be b942 09bc 29ed 12be bd50 273c
000000a0: 0bff d73c afc0 263e 1db3 56bd ae67 a23e
000000b0: 07e5 6c3e db4f c63d ff16 7fbd 78a2 41be
000000c0: 0a5d c53d fd0b b23e 39d6 ad3e e655 8fbe
000000d0: fcc9 003e f133 b3be fd9e 91bd 3983 623e
000000e0: 52ca d43e 6342 6b3e 0978 543e b4ff 8e3e
000000f0: 7d6a 993c 7372 793e 6129 563e 4ac7 d9bc
00000100: faf2 3e3c b03b 0b3e 58ab c63d 4cf6 9dbc
00000110: afd7 623e ed30 17be 91a7 edbd 7e97 42bb
00000120: 2d2a d3bd 3804 8bbe 9361 7a3d 6bcf 893d
00000130: 7e70 f8bd e68c ecbc c3d3 703e 2dd4 f7bd
00000140: 9629 aa3e 5d8f 883e 02ea 88bd c0bc 803e
00000150: e6d4 583e 47a6 883c f271 133e 2c84 973b
00000160: 63be 4d3d 6a0d 643e 02ae adbe db8a 083e
00000170: 1043 9a3b 75a8 4d3e 3e99 d03c 4f8b f8bd
00000180: 9d9f 833e e89f 193e ed2b 3e3e e044 8e3e

bn2.running_var f4 [100]
0.05903293 0.14660078 0.2699547 0.685441 0.052713677 0.25961402 0.105881914 0.14484093
0.38069198 0.4639815 0.35816583 0.19575705 0.090656236 0.22779717 0.116914324 0.22601964
0.45397982 0.3693082 0.1613106 0.45548472 0.32227403 0.039923098 0.23595276 0.16387889
0.14984238 0.39018288 0.026719354 0.2853564 0.09118 0.23829223 0.13292909 0.27764693
0.1531204 0.107442334 0.20067999 0.13026017 0.25134394 0.020587627 0.13800345 0.30225927
0.37490463 0.30802846 0.3300837 0.11910902 0.24394712 0.11630079 0.22754388 0.10833838
0.3840208 0.45758995 0.2876949 0.23147574 0.2904413 0.14342329 0.18912995 0.2022125
0.26353097 0.36778554 0.36279747 0.3433146 0.07548396 0.1421005 0.3763288 0.4391778
0.15967473 0.25926194 0.16045226 0.23332515 0.068017684 0.24387959 0.06520936 0.26317313
0.095017 0.1354283 0.051412746 0.10314341 0.05528937 0.11440357 0.07542754 0.29778984
0.24117762 0.068520606 0.39108709 0.13796121 0.07221032 0.22536512 0.30647242 0.19892491
0.5443696 0.1787878 0.18709788 0.15636325 0.1590628 0.46747264 0.48518017 0.03415157
0.067826346 0.42941937 0.45578545 0.22719754
00000000: 83cc 713d 841e 163e 8137 8a3e 1079 2f3f
00000010: 4cea 573d 21ec 843e 9ed8 d83d 2e51 143e
00000020: 0fea c23e fc8e ed3e 8361 b73e 8974 483e
00000030: faa9 b93d a943 693e c770 ef3d b171 673e
00000040: 0b70 e83e f715 bd3e 9b2e 253e 4b35 e93e
00000050: 1a01 a53e 6786 233d 9a9d 713e decf 273e
00000060: 4870 193e 0dc6 c73e 8ce2 da3c 3c1a 923e
00000070: 94bc ba3d e102 743e 901e 083e bd27 8e3e
00000080: 98cb 1c3e ba0a dc3d 0e7f 4d3e ec62 053e
00000090: 27b0 803e 62a7 a83c c750 0d3e bac1 9a3e
000000a0: 80f3 bf3e e8b5 9d3e bb00 a93e 6eef f33d
000000b0: 46cd 793e 1c2f ee3d 4301 693e 83e0 dd3d
000000c0: 609e c43e 3b49 ea3e bf4c 933e fa07 6d3e
000000d0: b9b4 943e 8edd 123e 48ab 413e cb10 4f3e
000000e0: 88ed 863e 634e bc3e 97c0 b93e eec6 af3e
000000f0: 5697 9a3d cb82 113e 2bae c03e eadb e03e
00000100: c681 233e fbbd 843e 994d 243e caec 6e3e
00000110: db4c 8b3d 92bb 793e 7c8c 853d a1be 863e
00000120: 4698 c23d b7ad 0a3e 2c96 523d da3c d33d
00000130: 1b77 623d 6b4c ea3d c179 9a3d e977 983e
00000140: 44f7 763e 8854 8c3d 913c c83e b445 0d3e
00000150: 01e3 933d 1dc6 663e f4e9 9c3e f9b2 4b3e
00000160: ce5b 0b3f 2614 373e 9696 3f3e b01d 203e
00000170: 5ce1 223e 9358 ef3e 8969 f83e 84e2 0b3d
00000180: 8ae8 8a3d dbdc db3e b65c e93e 79a6 683e

linear3.weight f4 [50, 100]
-0.06558291 0.07264025 -0.059705105 0.023642387 -0.06398106 -0.013600645 -0.0002766513 0.027400624
0.025631934 -0.0437085 0.028524233 -0.0012122695 0.06875485 0.0028465295 -0.039072175 -0.08828087
0.007688384 -0.011461854 -0.009692222 -0.024621557 0.108965635 -0.02117845 0.16566826 0.034881417
-0.030181516 -0.025884314 -0.068504855 0.0003771055 0.007586247 0.01705713 0.054416265 0.010062467
0.038026765 0.07934412 -0.0033859361 0.04476662 0.06896768 -0.12215915 0.011917388 -0.02988718
-0.066457205 0.004139729 0.042812057 0.056678485 -0.039343677 -0.08158371 0.023541695 0.028657109
0.05255758 0.039047 -0.048526336 -0.01659784 0.010980861 -0.01812558 0.008469055 -0.03359919
-0.06365917 -0.0070910254 -0.00012799511 0.010638473 0.35165054 0.07992625 -0.04999291 0.04626942
0.043708343 -0.05951522 -0.0716301 -0.0019226981 -0.022179924 -0.05890286 -0.0034069356 -0.014778339
-0.011758096 -0.03300856 -0.060681406 0.0030882654 -0.0107891355 0.018783204 0.03418669 0.016266657
0.09196288 -0.050150786 0.050071735 -0.116640456 -0.039618533 -0.025743324 -0.06645914 0.041379124
0.005716879 0.031425573 0.05601057 -0.017328186 -0.04876654 0.01565236 0.10367256 -0.023521861
-0.035160925 -0.03493525 -0.0994261 0.018367564 0.1484663 -0.046389777 0.002461271 0.007669716
-0.08121945 -0.05972107 0.00044147868 0.050306212 0.049526837 -0.08554233 0.05927043 0.23716834
-0.0589822 0.0663622 -0.04951218 -8.725057e-05 -0.017425392 -0.0073580947 -0.027474387 -0.062432356
-0.041893896 -0.014343296 0.026185311 0.017216919 0.027938917 -0.005334102 0.08728919 0.056679025
-0.0059077493 0.015196448 -0.05031202 -0.058237586 -0.051137146 -0.105405636 -0.09063555 0.0097261155
0.09585309 -0.047798846 -0.0077187987 0.012573099 -0.0392174 0.014924587 -0.03177473 -0.0037727111
0.023550043 -0.004591045 -0.025594896 0.030160543 -0.034374513 0.061933164 0.025389595 0.014078349
0.0074115084 0.042501938 0.1340962 0.05108774 -0.024216669 -0.048299674 0.07023287 0.029075319
0.059469458 0.06402124 -0.0844984 0.001795076 0.08449192 0.06797956 0.08942249 -0.00073969015
0.035640445 -0.019960655 -0.013378666 0.011371231 -0.041092902 -0.059277534 0.046687745 0.062214013
0.17395124 -0.04624893 -0.031332184 0.07812282 0.013037112 0.0105539765 -0.020657126 0.03695933
-0.008910534 -0.102915086 0.09775621 -0.07982232 0.0783151 0.4330089 -0.045486383 -0.029333238
0.013965442 -0.058875114 -0.011254824 0.08114129 -0.09684301 0.017569005 0.028486963 0.04850568
0.14569834 -0.017832654 -0.019570362 0.05151204 0.005633657 -0.015595159 0.03607827 0.02371521
-0.030649325 0.1048531 0.046462603 -0.046286214 -0.0007210846 0.04041009 -0.0226863 0.049778253
0.20161359 0.14461245 -0.03103448 -0.033000927 -0.04290753 -0.0040552025 -0.057755724 0.016942175
0.018670822 -0.09673025 -0.0680293 -0.020510206 -0.033480152 0.003706955 -0.0006089542 -0.04647791
-0.047417954 -0.073193446 -0.027643042 0.063777335 0.09909057 -0.059770368 -0.044375118 -0.019832382
0.04783501 -0.0022285492 -0.0460976 -0.036360003 -0.02322335 0.040690564 -0.0063857255 0.05701211
0.08844807 -0.04261839 -0.028799757 0.0460332 0.084792495 -0.06577184 0.040190578 0.030171849
00000000: 5550 86bd 69c4 943d 578d 74bd aead c13c
00000010: 8108 83bd 3dd5 5ebc 820b 91b9 4677 e03c
00000020: 10fa d13c af07 33bd a7ab e93c 04e5 9eba
00000030: 58cf 8c3d d78c 3a3b 250a 20bd 9acc b4bd
00000040: d7ee fb3b 80ca 3bbc 20cc 1ebc 26b3 c9bc
00000050: 6029 df3d 6e7e adbc f1a4 293e d1df 0e3d
00000060: 3a3f f7bc 570b d4bc 464c 8cbd 3eb6 c539
00000070: 0d96 f83b 65bb 8b3c 97e3 5e3d 0cdd 243c
00000080: f4c1 1b3d 2c7f a23d 95e6 5dbb 345d 373d
00000090: ed3e 8d3d 942e fabd 2641 433c f6d5 f4bc
000000a0: b71a 88bd 90a6 873b b25b 2f3d b327 683d
000000b0: d626 21bd 5c15 a7bd 83da c03c 50c2 ea3c
000000c0: 9e46 573d bfef 1f3d 8dc3 46bd 31f8 87bc
000000d0: 12e9 333c 197c 94bc cbc1 0a3c 4e9f 09bd
000000e0: bd5f 82bd d55b e8bb 6d36 06b9 fd4c 2e3c
000000f0: 8a0b b43e 60b0 a33d 5ec5 4cbd 0185 3d3d
00000100: 8507 333d 3bc6 73bd cdb2 92bd 0b03 fcba
00000110: acb2 b5bc 2044 71bd e546 5fbb d920 72bc
00000120: 07a5 40bc fc33 07bd 118d 78bd 7f64 4a3b
00000130: eac4 30bc 3cdf 993c 5807 0c3d a741 853c
00000140: 0957 bc3d e96a 4dbd 0518 4d3d 31e1 eebd
00000150: 0b47 22bd aae3 d2bc bb1b 88bd 287d 293d
00000160: a854 bb3b 1ab8 003d 576b 653d d7f3 8dbc
00000170: 6cbf 47bd 6139 803c 4752 d43d ebb0 c0bc
00000180: e704 10bd 4418 0fbd e99f cbbd 9377 963c
00000190: 8d07 183e 3503 3ebd 464d 213b 3e52 fb3b
000001a0: 6256 a6bd 159e 74bd 4476 e739 e30d 4e3d
000001b0: a7dc 4a3d d130 afbd 8dc5 723d 42dc 723e
000001c0: 5297 71bd e8e8 873d 49cd 4abd 4bfa b6b8
000001d0: b2bf 8ebc 2c1c f1bb f711 e1bc 12b9 7fbd
000001e0: ef98 2bbd 2500 6bbc 9482 d63c 7f0a 8d3c
000001f0: 28e0 e43c b1c9 aebb adc4 b23d 4428 683d
00000200: cb95 c1bb 86fa 783c fa13 4ebd 898a 6ebd
00000210: 2f75 51bd e9de d7bd 229f b9bd 495a 1f3c
00000220: a04e c43d b9c8 43bd faed fcbb 66ff 4d3c
00000230: 6da2 20bd 4186 743c 3826 02bd 973f 77bb
00000240: 05ec c03c 7a70 96bb 63ac d1bc 3e13 f73c
00000250: 4acc 0cbd a1ad 7d3d d7fd cf3c e0a8 663c
00000260: 3ddc f23b 8316 2e3d 8450 093e 6141 513d
00000270: 0962 c6bc e1d5 45bd 40d6 8f3d 5d2f ee3c
00000280: 3f96 733d 911d 833d 7f0d adbd c148 eb3a
00000290: 1a0a ad3d de38 8b3d 2323 b73d c4e7 41ba
000002a0: b7fb 113d 8784 a3bc 3132 5bbc 664e 3a3c
000002b0: 0851 28bd 00cd 72bd a63b 3f3d 1fd4 7e3d
000002c0: 4620 323e 856f 3dbd 2d56 00bd dbfe 9f3d
000002d0: 9c99 553c 96ea 2c3c 2239 a9bc ab62 173d
000002e0: 7dfd 11bc 25c5 d2bd 6834 c83d e279 a3bd
000002f0: ab63 a03d 58b3 dd3e ee4f 3abd 424c f0bc
00000300: 4fcf 643c 0827 71bd 2766 38bc 682d a63d
00000310: a155 c6bd e0ec 8f3c 7e5d e93c e4ad 463d
00000320: f231 153e c915 92bc 0652 a0bc 4afe 523d
00000330: 8a9a b83b d682 7fbc cfc6 133d 6646 c23c
00000340: 4b14 fbbc 39bd d63d 924f 3e3d 9d96 3dbd
00000350: 2b07 3dba 0d85 253d 9fd8 b9bc 48e4 4b3d
00000360: cb73 4e3e 4915 143e 063c febc fb2b 07bd
00000370: cebf 2fbd 81e1 84bb 4491 6cbd 51ca 8a3c
00000380: 8df3 983c 821a c6bd f252 8bbd 0505 a8bc
00000390: 7c22 09bd 62f0 723b 39a2 1fba 9f5f 3ebd
000003a0: 5439 42bd 72e6 95bd a973 e2bc b19d 823d
000003b0: ffef ca3d c6d1 74bd afc2 35bd 8577 a2bc
000003c0: a5ee 433d da0c 12bb d6d0 3cbd 3aee 14bd
000003d0: e53e bebc 26ab 263d 593f d1bb 8885 693d
000003e0: 4324 b53d 9f90 2ebd 78ed ebbc 4f8d 3c3d
000003f0: b0a7 ad3d 63b3 86bd e09e 243d f42a f73c

linear3.bias f4 [50]
-0.04182934 -0.09022466 -0.062477995 -0.059050146 -0.0421863 -0.095061414 0.03290235 0.042700365
0.0053562126 0.067741066 -0.0038120013 -0.034500953 -0.070298016 -0.006395272 0.048429478 -0.07796391
-0.096947014 0.08659082 0.05458701 0.056452643 0.0028266695 -0.03497768 -0.023503741 -0.056585327
-0.08189427 0.056722574 -0.019094994 0.06326265 0.0750932 -0.0112793185 0.0047497684 -0.06854188
-0.059982963 -0.101596005 -0.08040255 -0.011430408 -0.061411493 -0.04468481 0.065005586 -0.070906244
-0.00064063136 0.024107438 0.0121333925 -0.05298003 0.029704243 0.015136863 -0.08092368 0.0035831227
-0.00214233 -0.001202366
00000000: 3e55 2bbd b5c7 b8bd ede8 7fbd 91de 71bd
00000010: 8bcb 2cbd 8faf c2bd 9dc4 063d 94e6 2e3d
00000020: 2b83 af3b d4bb 8a3d c5d2 79bb df50 0dbd
00000030: 68f8 8fbd 6e8f d1bb fd5d 463d 8bab 9fbd
00000040: 288c c6bd 8756 b13d a196 5f3d e33a 673d
00000050: a53f 393b c144 0fbd eb8a c0bc 04c6 67bd
00000060: 2fb8 a7bd ee55 683d 1b6d 9cbc d98f 813d
00000070: 77ca 993d e4cc 38bc f2a3 9b3b af5f 8cbd
00000080: b2b0 75bd 9111 d0bd 18aa a4bd 9b46 3bbc
00000090: 9e8a 7bbd 6b07 37bd a621 853d 4b37 91bd
000000a0: 0bf0 27ba f67c c53c 23cb 463c 9701 59bd
000000b0: 5056 f33c 9b00 783c 50bb a5bd d3d2 6a3b
000000c0: 5566 0cbb b598 9dba

bn3.weight f4 [50]
1.495279 1.4522383 1.5102787 1.4567287 1.4884791 1.5036007 1.4783232 1.4452591
1.4298799 1.4631647 1.4305826 1.4117256 1.390392 1.4716179 1.5323958 1.4567227
1.4022822 1.4402815 1.381271 1.4230311 1.5017625 1.4068469 1.4258616 1.3819141
1.4997035 1.4807911 1.4356835 1.3981918 1.5246814 1.4798764 1.4331075 1.5300988
1.4952656 1.4632081 1.4194441 1.4688243 1.522123 1.4709636 1.441126 1.412322
1.4732444 1.4000399 1.3730893 1.4205228 1.3999629 1.4416473 1.3800073 1.388543
1.5054997 1.4376651
00000000: 4d65 bf3f f2e2 b93f d050 c13f 1676 ba3f
00000010: 7c86 be3f fd75 c03f b239 bd3f 40fe b83f
00000020: 4e06 b73f fb48 bb3f 551d b73f 6db3 b43f
00000030: 5df8 b13f fa5d bc3f 8c25 c43f e475 ba3f
00000040: fc7d b33f 255b b83f 7dcd b03f e225 b63f
00000050: c139 c03f 8f13 b43f a282 b63f 90e2 b03f
00000060: 49f6 bf3f 908a bd3f 7ac4 b73f f3f7 b23f
00000070: c328 c33f 976c bd3f 1170 b73f 47da c33f
00000080: dd64 bf3f 674a bb3f 58b0 b53f 6f02 bc3f
00000090: edd4 c23f 8948 bc3f d176 b83f f8c6 b43f
000000a0: 4693 bc3f 8234 b33f 64c1 af3f b1d3 b53f
000000b0: fc31 b33f e687 b83f 14a4 b03f c7bb b13f
000000c0: 37b4 c03f 6905 b83f

bn3.bias f4 [50]
0.49891755 0.45627794 0.4659098 0.45876944 0.4943688 0.46171325 0.4102596 0.4492935
0.43887344 0.5013137 0.52979743 0.4365253 0.5008206 0.50903803 0.5368238 0.39383793
0.42129192 0.47667527 0.4459148 0.48459384 0.4998866 0.40961853 0.41880518 0.54109675
0.4536259 0.5245477 0.45074123 0.45701995 0.41622114 0.42161345 0.5298355 0.5016845
0.48867157 0.47463965 0.49128222 0.46682236 0.49059463 0.5092721 0.4355287 0.3837477
0.4601365 0.49539945 0.4183616 0.4377131 0.4329758 0.43710604 0.4187019 0.4011321
0.572176 0.42431733
00000000: 1f72 ff3e 439d e93e bb8b ee3e d4e3 ea3e
00000010: e81d fd3e ae65 ec3e 8c0d d23e cc09 e63e
00000020: 05b4 e03e 1856 003f cea0 073f 3e80 df3e
00000030: c735 003f 5150 023f 496d 093f 20a5 c93e
00000040: 93b3 d73e c80e f43e f24e e43e af1c f83e
00000050: 23f1 ff3e 85b9 d13e a26d d63e 5185 0a3f
00000060: a741 e83e c248 063f 8ec7 e63e 85fe e93e
00000070: f01a d53e b8dd d73e 4da3 073f 656e 003f
00000080: 2933 fa3e f803 f33e 5889 fb3e 5703 ef3e
00000090: 382f fb3e a85f 023f 9efd de3e 947a c43e
000000a0: 0397 eb3e ffa4 fd3e 7e33 d63e ee1b e03e
000000b0: 01af dd3e 5dcc df3e 1860 d63e 3061 cd3e
000000c0: 207a 123f 1f40 d93e

bn3.running_mean f4 [50]
-0.019363394 0.5237357 0.44567713 -0.1525442 -0.18115084 0.30373657 0.18475956 0.29619113
0.2636457 0.51094466 0.039597314 0.6069016 0.14756307 0.27715752 0.14982249 0.31061122
-0.0770058 0.26890114 0.31795236 0.35100698 0.09921704 -0.2794982 0.114623986 0.20387246
0.2984691 0.43781617 0.018391754 0.28801385 0.6127593 0.20850055 0.1243532 0.30460158
0.0767506 -0.13344543 0.25080547 0.08223127 0.60267764 0.09537395 0.2933883 0.5953485
0.22389193 0.08320713 0.23532124 -0.048638858 0.3109732 0.37185413 0.23328513 0.39907536
0.29552093 -0.014549287
00000000: fb9f 9ebc 8b13 063f cb2f e43e 8c34 1cbe
00000010: 9b7f 39be 5c83 9b3e 9c31 3d3e 5da6 973e
00000020: 92fc 863e 45cd 023f cb30 223d e75d 1b3f
00000030: c61a 173e 97e7 8d3e 116b 193e 6f08 9f3e
00000040: 38b5 9dbd 69ad 893e a7ca a23e 30b7 b33e
00000050: 4e32 cb3d 631a 8fbe fbbf ea3d f1c3 503e
00000060: f1d0 983e 7129 e03e 4eaa 963c 8d76 933e
00000070: cbdd 1c3f 2b81 553e e4ac fe3d bdf4 9b3e
00000080: 6b2f 9d3d eba5 08be 9369 803e de68 a83d
00000090: 1549 1a3f 6b53 c33d fe36 963e c268 183f
000000a0: ed43 653e 8068 aa3d 0df8 703e 8a39 47bd
000000b0: e137 9f3e aa63 be3e 4ce2 6e3e 9b53 cc3e
000000c0: 854e 973e 2260 6ebc

bn3.running_var f4 [50]
0.27223313 0.67330915 0.35409066 0.32863554 0.3811807 0.38541052 0.32754958 0.55875796
0.31893712 0.6337787 0.24665682 0.37443224 0.25554895 0.3933813 0.4510683 0.3091156
0.32870424 0.2361498 0.35555744 0.20373969 0.34707832 0.40758324 0.48537824 0.23919499
0.30664906 0.42106253 0.45453006 0.3127642 0.31070882 0.2313793 0.53321654 0.33373478
0.434286 0.3881729 0.33167607 0.49664956 0.4366877 0.46430752 0.27413163 0.53599596
0.3978399 0.3457956 0.56041706 0.31830433 0.43810537 0.28971082 0.41181222 0.43804523
0.43869165 0.26746354
00000000: 2462 8b3e fd5d 2c3f 5f4b b53e eb42 a83e
00000010: 1e2a c33e 8754 c53e 94b4 a73e c30a 0f3f
00000020: ba4b a33e 523f 223f 9b93 7c3e 95b5 bf3e
00000030: 50d7 823e 4669 c93e 6df2 e63e 6644 9e3e
00000040: ec4b a83e 41d1 713e a00b b63e 23a1 503e
00000050: 40b4 b13e c0ae d03e 7f83 f83e 88ef 743e
00000060: 1b01 9d3e 8295 d73e 2ab8 e83e a122 a03e
00000070: 3a15 9f3e b2ee 6c3e e180 083f 49df aa3e
00000080: bc5a de3e 99be c63e 72d1 a93e da48 fe3e
00000090: 8895 df3e b7b9 ed3e fb5a 8c3e 0837 093f
000000a0: acb1 cb3e 1f0c b13e 7e77 0f3f c9f8 a23e
000000b0: 594f e03e fa54 943e 0dd9 d23e 7747 e03e
000000c0: 319c e03e fbf0 883e

linear4.weight f4 [18, 50]
0.06402441 -0.13343786 -0.008699273 0.02966472 0.12655555 -0.063756496 -0.06424822 0.069729686
0.051191248 -0.056612976 0.03299459 -0.052960202 0.0076013124 0.08747487 0.028182367 0.036765076
0.036051605 -0.08241297 -0.018234493 -0.03946156 -0.08854829 -0.059641536 -0.00890386 0.059368823
0.023083236 -0.05023107 0.096664794 -0.06093364 0.027753621 -0.02758004 0.012309136 -0.06972248
0.04671834 0.12277622 -0.005228223 0.08328213 -0.10771869 0.0881018 -0.08026261 -0.024408637
-0.0055100126 -0.054052673 0.00494573 -0.030906534 0.048326254 0.07556906 0.07403689 -0.025076376
0.026877018 -0.04408791 -0.040741652 -0.059257016 0.103283696 0.08545247 0.024687292 0.15266527
0.043036286 0.15157276 0.04931489 0.27145427 0.03086873 -0.030433778 0.05704071 -0.054723214
-0.26412323 -0.043995302 0.21326707 0.022789534 -0.42071396 -0.10990457 0.001533406 -0.2624914
0.0066547845 -0.04560315 0.059609696 -0.23566033 -0.0039040828 0.09260706 0.13281517 -0.08396629
0.33245653 0.07176909 -0.10659849 0.017027173 -0.3223668 0.18145388 -0.17538163 -0.31364283
-0.15993898 0.19567747 0.09930556 0.34393725 0.12705587 0.04643595 -0.16454226 -0.10108639
0.02172461 0.14671399 -0.104333304 -0.07538034 -0.08837184 -0.055820085 0.21820417 0.020645533
-0.083609976 0.1608666 -0.0829195 0.09607274 -0.030594744 0.3814098 -0.018143013 -0.040122062
-0.10581532 -0.04969481 -0.2282493 0.093453474 0.2801936 -0.041963022 -0.38997245 -0.110224254
-0.023445169 -0.42667797 -0.09286651 0.19669032 0.06229858 -0.33426842 0.07838151 -0.05343279
0.2176036 -0.18765117 0.32243013 -0.014913253 0.036986332 0.008983968 -0.30134645 0.30196047
-0.16358384 -0.30860728 -0.15120743 0.24648307 0.30928403 0.3070702 0.16248676 0.06898794
-0.04511931 0.044476144 -0.032852527 0.2774156 -0.2280793 -0.19740121 0.0318789 -0.04934808
0.22664143 -0.23142618 0.020046482 0.117316015 -0.30218935 0.024489839 -0.23939833 -0.019541292
-0.16102456 -0.034544792 -0.22673102 -0.2197995 0.21873207 0.20852667 -0.10820748 0.16481279
0.13479352 0.009945207 0.19076253 -0.10102486 -0.030002976 0.43060073 -0.17275359 0.09819696
0.13835238 -0.22408947 0.0115191685 -0.21817854 -0.14805855 -0.10129313 0.21941984 -0.16356912
0.10113628 0.1889456 0.21644615 -0.048852563 -0.18156812 -0.12463104 0.36841637 -0.13107868
0.08887578 0.23007867 0.22186871 0.11658978 -0.020806126 0.29212198 -0.092178814 -0.2557651
-0.015963174 0.24096097 -0.054793626 -0.0011551793 -0.31254473 -0.087133005 0.27595976 -0.04638008
0.33332258 0.025094517 -0.1116568 0.20922013 -0.070557 0.3222119 -0.5244677 0.47049263
-0.17174572 -0.2677201 0.075721204 -0.08653466 -0.15678445 -0.3849864 0.0943063 -0.3663161
-0.025878385 0.041970257 -0.24762583 -0.07115567 0.43173087 0.20189792 0.20066139 0.10179738
-0.0785067 0.275632 -0.04718196 -0.2265126 -0.27730227 0.019262392 0.47649255 0.31220895
-0.32896549 0.053024534 -0.33272249 -0.05296402 0.04350371 -0.35326627 -0.022947472 -0.007300285
0.090314694 -0.420822 0.23531511 -0.1367528 -0.066085964 0.10744114 0.120941624 -0.13704444
00000000: 3b1f 833d efa3 08be 6587 0ebc 6d03 f33c
00000010: c797 013e c492 82bd 9294 83bd 70ce 8e3d
00000020: eaad 513d 02e3 67bd 5625 073d ccec 58bd
00000030: 6e14 f93b 0626 b33d b5de e63c fa96 163d
00000040: d9aa 133d 22c8 a8bd 8160 95bc 72a2 21bd
00000050: ce58 b5bd af4a 74bd 7fe1 11bc b92c 733d
00000060: 0e19 bd3c 18bf 4dbd 31f8 c53d 8d95 79bd
00000070: 905b e33c 89ef e1bc 42ac 493c a9ca 8ebd
00000080: bb5b 3f3d 1972 fb3d 8351 abbb d28f aa3d
00000090: 9e9b dcbd b76e b43d b960 a4bd 9ff4 c7bc
000000a0: 568d b4bb 5666 5dbd ca0f a23b b32f fdbc
000000b0: c0f1 453d f4c3 9a3d a7a0 973d f96c cdbc
000000c0: 312d dc3c 8695 34bd b8e0 26bd 7cb7 72bd
000000d0: 6786 d33d b401 af3d 013d ca3c 4954 1c3e
000000e0: d146 303d e435 1b3e 69fe 493d 0efc 8a3e
000000f0: 6be0 fc3c 4250 f9bc 85a3 693d 7325 60bd
00000100: 293b 87be 6b34 34bd af62 5a3e 1eb1 ba3c
00000110: d267 d7be a615 e1bd 91fc c83a 4665 86be
00000120: 6110 da3b 5eca 3abd 4c29 743d f150 71be
00000130: a4db 7fbb c5a8 bd3d b300 083e 85f6 abbd
00000140: be37 aa3e acfb 923d 4f50 dabd 927c 8b3c
00000150: 430d a5be 0ccf 393e 3e97 33be cb95 a0be
00000160: 0bc7 23be ad5f 483e b760 cb3d 8b18 b03e
00000170: ef1a 023e 9f33 3e3d c47d 28be 6206 cfbd
00000180: cff7 b13c 313c 163e b3ac d5bd 0261 9abd
00000190: 4cfc b4bd 9aa3 64bd ea70 5f3e d220 a93c
000001a0: b53b abbd 37ba 243e b3d1 a9bd c9c1 c43d
000001b0: d4a1 fabc 2548 c33e a8a0 94bc 0857 24bd
000001c0: b4b5 d8bd c98c 4bbd 2fba 69be 8964 bf3d
000001d0: 8975 8f3e 6be1 2bbd 78aa c7be 41bd e1bd
000001e0: 1510 c0bc 8975 dabe cc30 bebd 3069 493e
000001f0: cc2c 7f3d 3b25 abbe 7c86 a03d 57dc 5abd
00000200: 7ad3 5e3e a127 40be 9015 a53e b756 74bc
00000210: fb7e 173d 7e31 133c 154a 9abe 909a 9a3e
00000220: 8682 27be c601 9ebe 1fd6 1abe 0f66 7c3e
00000230: 7a5a 9e3e 4e38 9d3e ee62 263e 8d49 8d3d
00000240: 07cf 38bd 9e2c 363d 5f90 06bd 6b09 8e3e
00000250: 9f8d 69be 8b23 4abe 7393 023d 3621 4abd
00000260: b114 683e fcfa 6cbe 8538 a43c 6143 f03d
00000270: 90b8 9abe ea9e c83c d624 75be 0f15 a0bc
00000280: 9fe3 24be d77e 0dbd 2d2c 68be 1f13 61be
00000290: 4dfb 5f3e 0488 553e e29b ddbd afc4 283e
000002a0: 5007 0a3e 39f1 223c 4157 433e 1fe6 cebd
000002b0: cdc8 f5bc b377 dc3e 51e6 30be 7d1b c93d
000002c0: 3fac 0d3e b677 65be e5ba 3c3c 326a 5fbe
000002d0: a99c 17be c672 cfbd 98af 603e aa7e 27be
000002e0: 8a20 cf3d f57a 413e 0fa4 5d3e a019 48bd
000002f0: feec 39be 8f3e ffbd 12a1 bc3e 7d39 06be
00000300: 8104 b63d be99 6b3e 8d31 633e 9fc6 ee3d
00000310: 9c71 aabc 0391 953e 3fc8 bcbd a5f3 82be
00000320: 34c5 82bc 79be 763e 486f 60bd 6369 97ba
00000330: dd05 a0be ca72 b2bd 994a 8d3e 0af9 3dbd
00000340: 42a9 aa3e 0493 cd3c 52ac e4bd cd3d 563e
00000350: 3080 90bd f5f8 a43e 8443 06bf 69e4 f03e
00000360: 1cde 2fbe 9c12 89be b813 9b3d 1539 b1bd
00000370: 1a8c 20be f01c c5be a923 c13d c98d bbbe
00000380: e8fe d3bc 01e9 2b3d a091 7dbe 10ba 91bd
00000390: d40b dd3e 54be 4e3e 2e7a 4d3e 257b d03d
000003a0: 1fc8 a0bd a31f 8d3e df41 41bd ebf2 67be
000003b0: 90fa 8dbe 2acc 9d3c d5f6 f33e dad9 9f3e
000003c0: 2a6e a8be 4130 593d 9a5a aabe cdf0 58bd
000003d0: f230 323d 51df b4be 56fc bbbc 3b37 efbb
000003e0: e9f6 b83d fb75 d7be 72f6 703e ed08 0cbe
000003f0: 1458 87bd 1a0a dc3d 3eb0 f73d 6155 0cbe

linear4.bias f4 [18]
-1.2110215 -0.01794362 0.099594094 0.25888863 -0.6248744 -0.11059569 0.16946425 -0.39849314
-0.1948673 0.28677008 -0.12897046 0.0089542195 -0.0044360445 -0.1461014 0.2049122 0.14818653
-0.24660452 0.41698158
00000000: c102 9bbf 80fe 92bc fdf7 cb3d 0d8d 843e
00000010: c5f7 1fbf fe7f e2bd 0988 2d3e 4b07 ccbe
00000020: 4b8b 47be 87d3 923e d510 04be b8b4 123c
00000030: 3d5c 91bb 9b9b 15be 81d4 513e 36be 173e
00000040: e585 7cbe 9c7e d53e
