artifacts/Physics/190_walkerPhysics.pt (torch, 59615 bytes, 20 tensors)

linear1.weight f4 [50, 24]
0	0xbe473bc1	-0.19456388
1	0xbe2d0b62	-0.16898873
2	0x3d8158eb	0.06315788
3	0xbd568229	-0.052370224
4	0x3d08607b	0.033295136
5	0x3e105fa7	0.14098988
6	0xbdd1833b	-0.10230108
7	0x3d8a3a86	0.06749444
8	0xbc407209	-0.011745938
9	0xbdb11cf6	-0.08648102
10	0x3d5bf684	0.053701892
11	0x3e0cb993	0.13742666
12	0x3cc1e5d3	0.023669159
13	0x3ce4f158	0.027947113
14	0x3e9c004d	0.3046898
15	0x3ea756d9	0.32683447
16	0xbeac45c6	-0.33646983
17	0xbe4faaa0	-0.20279932
18	0x3deceb09	0.11568267
19	0xbd978c4f	-0.073998086
20	0xbde8960f	-0.113567464
21	0x3d4dbf45	0.050231237
22	0xbd90534c	-0.070471376
23	0x3d40428b	0.04693846
24	0x3d268a47	0.040659215
25	0xbcd54d7b	-0.026037922
26	0xbc58afd5	-0.013225515
27	0x3d91d63f	0.07120942
28	0x3ce7e4e0	0.028307378
29	0x3dc69e5c	0.096981734
30	0xbd14d345	-0.036334295
31	0xbd561dc9	-0.0522745
32	0x3cad2cf9	0.021139609
33	0x3e0ad1fe	0.13556668
34	0x3dc257d4	0.09489408
35	0x3e863aa2	0.26216608
36	0xbe3b6bd9	-0.1830286
37	0xbe4b2022	-0.19836476
38	0x3d192677	0.0373902
39	0xbe9e11cb	-0.3087295
40	0x3e422143	0.18958001
41	0x3cb889f3	0.022526717
42	0xbde8605f	-0.11346506
43	0xbe2c7171	-0.1684015
44	0xbdf0d17f	-0.11758708
45	0x3e17c670	0.14821792
46	0xbbb4147f	-0.0054956074
47	0x3dc5a2e5	0.0965021
48	0xbdbf1183	-0.09329512
49	0xbe5733e5	-0.2101589
50	0xbe55b37a	-0.20869246
51	0xbd94ccac	-0.072656006
52	0xbd28fb9c	-0.04125558
53	0xbe83c50b	-0.2573627
54	0x3ea4bb31	0.32174066
55	0x3dec5bca	0.11540945
56	0xbcb59f8f	-0.02217081
57	0xbe734f9e	-0.2376084
58	0x3de18d78	0.11013311
59	0xbdba2ea5	-0.09090928
60	0xbe8b052c	-0.27152383
61	0xbe2aba76	-0.16672692
62	0xbda5ab92	-0.08089365
63	0x3d935e37	0.071957044
64	0xbdebea3d	-0.11519287
65	0x3d358441	0.04431558
66	0xbe7f8159	-0.24951686
67	0x3b0e6537	0.002172781
68	0x3e3f9ffb	0.18713371
69	0xbc9ae8ff	-0.01890993
70	0x3bcecdd3	0.0063111573
71	0xbe3a7d63	-0.18211894
72	0x3d76abe3	0.060222518
73	0x3b564bc0	0.003269896
74	0x3e957b93	0.29195842
75	0xbe583ec5	-0.21117695
76	0xbde78b7a	-0.113059
77	0xbef059cc	-0.4694351
78	0x3db58e73	0.08865061
79	0x3dd2c124	0.10290745
80	0x3c3d66a2	0.011560114
81	0x3c90ad95	0.017660895
82	0xbdab2e8d	-0.08358488
83	0xbe284b86	-0.1643506
84	0x3dd4ebf8	0.1039657
85	0x3e366256	0.1781095
86	0xbd6a0e2d	-0.057142425
87	0x3ddd39c6	0.10802035
88	0x3e0ab843	0.13546853
89	0x3e41eb2d	0.18937369
90	0x3d0c95b9	0.034322474
91	0xbd9faf32	-0.07797088
92	0x3d323de8	0.04351607
93	0xbe1c4e51	-0.1526425
94	0xbe381ef3	-0.17980556
95	0x3d881b6a	0.06645854
96	0xbf0aa3a4	-0.54155946
97	0x3e44b3ae	0.19209167
98	0x3dc2769d	0.0949528
99	0x3d66006b	0.056152742
100	0x3d50ab05	0.050944347
101	0xbe414bfb	-0.1887664
102	0x3db5ea5b	0.088825904
103	0x3ea8dc64	0.32980645
104	0x3dddf0ad	0.10836921
105	0xbd243803	-0.04009248
106	0xbe120b9f	-0.14262246
107	0x3ea8e172	0.329845
108	0x3d5c003c	0.05371116
109	0x3e0dbbc5	0.1384116
110	0x3d70e747	0.058814313
111	0x3ca2836e	0.019838061
112	0xbe965de2	-0.29368502
113	0x3d09850e	0.033574156
114	0x3e1fa98a	0.15592018
115	0xbd9a1748	-0.07523972
116	0xbd807700	-0.062726974
117	0x3de8e9ae	0.11372696
118	0x3e885634	0.26628268
119	0xbe14d91f	-0.1453595
120	0xbe36b03e	-0.17840669
121	0xbea1722b	-0.31532416
122	0xbe64eb7f	-0.2235546
123	0x3e0c0f9a	0.13677827
124	0x3e9df663	0.3085204
125	0x3e9b9c93	0.30392894
126	0xbc101c43	-0.008795801
127	0xbea029fa	-0.31282026
128	0x3d40ae4c	0.047041222
129	0xbdf67203	-0.12033465
130	0xbd9bb3da	-0.07602663
131	0xbe559978	-0.20859325
132	0xbcebce6c	-0.028784953
133	0x3c8fc543	0.017550116
134	0xbddc88b8	-0.107682645
135	0xbc7730d6	-0.015087327
136	0xbd15e38d	-0.036593962
137	0x3c0ecbd0	0.008715585
138	0xbb3d42e9	-0.0028878993
139	0xbb2da8fd	-0.002649843
140	0xb8850977	-6.343697e-05
141	0x39a04a1b	0.0003057279
142	0xbaabcf4c	-0.0013108044
143	0xb90702ad	-0.000128756
144	0x3e994494	0.29935133
145	0xbd22e501	-0.039769176
146	0xbd94b108	-0.072603285
147	0x3e0e22e5	0.13880499
148	0xbd84d384	-0.06485656
149	0xbe4eea71	-0.2020662
150	0x3e0fcfc0	0.14044094
151	0xbd2cc59e	-0.04218065
152	0xbdbc942d	-0.0920795
153	0x3e9b6e98	0.30357814
154	0xbcbf116e	-0.02332374
155	0xbd817303	-0.06320765
156	0x3da67c6b	0.081291996
157	0x3e0d2250	0.1378262
158	0xbdfdaf37	-0.12386935
159	0x3e94fea1	0.29100516
160	0xbe543b5a	-0.20725766
161	0xbe024ba3	-0.12724166
162	0xbdfb956a	-0.12284358
163	0x3bf003d6	0.007324676
164	0xbd7e6494	-0.062107638
165	0x3e0e28dc	0.13882774
166	0x3dfca875	0.12336818
167	0x3d9f1794	0.07768169
168	0xbdb57680	-0.08860493
169	0x3ed83444	0.42227376
170	0x3d9fe9fa	0.07808299
171	0xbdf7fbbf	-0.12108564
172	0xbe110a46	-0.14164075
173	0xbdcf1efc	-0.10113332
174	0x3d66b525	0.056325097
175	0x3e110aec	0.14164323
176	0xbd5cb578	-0.053884
177	0x3e3449be	0.17606255
178	0xbde11fd2	-0.10992397
179	0xbd7c14e0	-0.061543345
180	0x3e9298f3	0.28632316
181	0x3eb66f08	0.35631585
182	0xbe95ef41	-0.292841
183	0x3d8c3380	0.0684576
184	0xbc7d7af4	-0.015471209
185	0xbe70ad8a	-0.235037
186	0xb880d138	-6.142486e-05
187	0xbe056663	-0.13027339
188	0x3da8a49e	0.08234523
189	0xba88add7	-0.0010427785
190	0x3e15655f	0.14589451
191	0x3d9f4b1a	0.07777996
192	0xbef30004	-0.4746095
193	0xbe7e79ef	-0.24851201
194	0x3d8c4af9	0.068502374
195	0xbde91838	-0.113815725
196	0xbc2fc8b6	-0.010729006
197	0xbdafc522	-0.08582522
198	0x3d7cb954	0.06170018
199	0x3b7727e7	0.0037712993
200	0x3d26375a	0.04058013
201	0xbd984c54	-0.074364334
202	0xba490c13	-0.00076693407
203	0x3c5cf291	0.013485567
204	0x3dc1cca0	0.09462857
205	0x3db847e5	0.08998088
206	0x3d89c049	0.067261286
207	0xbe4ee521	-0.20204593
208	0xbe00160a	-0.12508407
209	0xbe58f021	-0.21185352
210	0xbd045fd2	-0.032317944
211	0x3d9932e1	0.074804075
212	0x3d46313d	0.0483868
213	0xbc1cab6a	-0.009562353
214	0xbe0ad922	-0.13559392
215	0x3daf7102	0.085664764
216	0x3f6d9a78	0.92813826
217	0x3dfacb25	0.12245778
218	0x3c89a913	0.016804254
219	0x3ef6a6d6	0.4817416
220	0x3cec0748	0.028812066
221	0x3da80024	0.08203152
222	0xbd7b45cd	-0.061345864
223	0xbc24e331	-0.010063932
224	0x3cc7cf4f	0.024390845
225	0x3e185998	0.14877927
226	0x3cb54c4b	0.022131106
227	0x3e4a0680	0.19729042
228	0xbe495ae2	-0.19663575
229	0xbeb7bd3e	-0.35886568
230	0x3da51a14	0.08061615
231	0x3eb2cc43	0.34921464
232	0x3e5b3cdb	0.21409933
233	0x3ea4a4a9	0.32156876
234	0x3dd6a7fb	0.104812585
235	0xbdd169ee	-0.102252826
236	0xbda9b956	-0.08287303
237	0xb9b2956a	-0.00034062128
238	0x3e623879	0.22091855
239	0xbe19647c	-0.14979738
240	0x3e4f5934	0.20248872
241	0xbdbe0ed2	-0.092801705
242	0xbe460ad9	-0.19340076
243	0x3df560e0	0.11981368
244	0x3c6d30d5	0.0144769745
245	0x3da80402	0.082038894
246	0xbc915886	-0.017742407
247	0xbc2f1204	-0.010685448
248	0x3c71af5c	0.014751282
249	0xbdac4912	-0.084123746
250	0xbdafb139	-0.085787244
251	0xbd97fbbe	-0.07421063
252	0xbc3f71cf	-0.011684849
253	0x3cbafa34	0.022824384
254	0xbc141ab0	-0.009039566
255	0x3b284746	0.0025677248

linear1.bias f4 [50]
0	0x3e3a037d	0.18165393
1	0xbe00e0ca	-0.1258575
2	0xbdc97230	-0.09836233
3	0xbe0b0566	-0.13576278
4	0x3c88ac8b	0.016683837
5	0x3e427a6f	0.18992017
6	0x3e04704f	0.12933467
7	0x3dcd43da	0.10022707
8	0xbbed43da	-0.0072407546
9	0x3d4892c4	0.04896809
10	0x3e29b830	0.16574168
11	0xbe155585	-0.14583404
12	0x3d8e9ff3	0.06964102
13	0xbe42155f	-0.18953465
14	0x3d883415	0.06650559
15	0xbdd15ea3	-0.10223129
16	0x3e295b83	0.16538815
17	0x3d1721a8	0.03689733
18	0x3e18a2a8	0.14905798
19	0x3de01df8	0.10943216
20	0xbdc6b5e2	-0.0970266
21	0x3e4c0c48	0.1992656
22	0x3d5c878a	0.053840198
23	0xbe019676	-0.12655053
24	0xbd6f94a6	-0.05849137
25	0x3c0a2f8f	0.00843419
26	0x3d96fca9	0.0737241
27	0x3dc84539	0.09778828
28	0xbdb233e9	-0.08701307
29	0xbcb6affe	-0.022300716
30	0xbd106899	-0.035256002
31	0x3dc46d2d	0.09591136
32	0xbdfde7da	-0.12397738
33	0xbdedb572	-0.116068736
34	0xbd982d81	-0.07430554
35	0x3e43c441	0.19117834
36	0xbe4be58f	-0.19911788
37	0x3e262e06	0.16228494
38	0x3e4bb360	0.19892645
39	0xbd52dc15	-0.051479418
40	0xbd308c5f	-0.04310262
41	0xbe02d3cc	-0.12776107
42	0x3cb45ff0	0.022018403
43	0xbe04a3e6	-0.12953147
44	0x3daa0203	0.08301165
45	0xbddc4631	-0.107555754
46	0x3e1f6d61	0.15569068
47	0xbe0adf4b	-0.13561742
48	0xbd21f161	-0.039536837
49	0xbdfcc9b0	-0.12343156

bn1.weight f4 [50]
0	0x3f8b4996	1.0881832
1	0x3f8ab299	1.0835754
2	0x3f5e6412	0.86871445
3	0x3f7ed107	0.995377
4	0x3f7b0595	0.9805539
5	0x3f707192	0.93923295
6	0x3f65bd89	0.8974233
7	0x3f5a702d	0.85327417
8	0x3f899ae0	1.0750389
9	0x3f7d3086	0.98902166
10	0x3f80ff31	1.0077878
11	0x3f7b7ad8	0.9823432
12	0x3f71ca73	0.9444954
13	0x3f41388a	0.75476897
14	0x3f81b324	1.0132794
15	0x3f8b1e50	1.0868626
16	0x3f7d2152	0.9887897
17	0x3f80c707	1.0060738
18	0x3f830ad9	1.0237685
19	0x3f85999c	1.0437503
20	0x3f8e9553	1.113932
21	0x3f88268d	1.0636765
22	0x3f8a0da1	1.0785409
23	0x3f7baabd	0.983074
24	0x3f730dfa	0.949432
25	0x3f8bce5a	1.0922348
26	0x3f81a28d	1.0127732
27	0x3f83d14b	1.0298246
28	0x3f79a221	0.97513014
29	0x3f1e38a4	0.61805177
30	0x3f07debe	0.5307425
31	0x3f81abe6	1.0130584
32	0x3f78fd1d	0.9726122
33	0x3f7b40f5	0.9814599
34	0x3f8195a9	1.0123798
35	0x3f6bcb8e	0.92107475
36	0x3f84daab	1.0379232
37	0x3f8d6a74	1.1048112
38	0x3f56f2ef	0.8396444
39	0x3f58a5ad	0.846278
40	0x3f84790e	1.0349443
41	0x3f83c11d	1.0293308
42	0x3f6dbc3c	0.9286535
43	0x3f3d3e14	0.7392285
44	0x3f6f9ea1	0.93601424
45	0x3f78e689	0.9722677
46	0x3f84400b	1.0332044
47	0x3f865c05	1.0496832
48	0x3f80f2ee	1.0074136
49	0x3f804f62	1.0024226

bn1.bias f4 [50]
0	0x3d16983c	0.036766276
1	0x3d75cf9b	0.06001244
2	0x3e428f0f	0.18999885
3	0x3d72869b	0.0592104
4	0x3cc89a4a	0.024487633
5	0x3d8829a4	0.06648567
6	0xbc61d961	-0.013784737
7	0x3e44f5e9	0.19234432
8	0xbdc7a328	-0.097479165
9	0x3dc51f88	0.09625155
10	0xbdfcd28a	-0.12344845
11	0x3b44444d	0.0029947937
12	0x3b2dc80d	0.0026516945
13	0x3e53d9ec	0.206886
14	0xbc9894e9	-0.018625693
15	0xbd1edd3c	-0.038785204
16	0xbb55e9eb	-0.0032640647
17	0xbd85c9bc	-0.065326184
18	0x3d984939	0.07435841
19	0x3d0618dd	0.032738555
20	0x3e3d0c33	0.18461685
21	0x3e1814d9	0.14851703
22	0x3d4adee0	0.049528956
23	0x3dbdfdb6	0.09276907
24	0x3ca660ef	0.020309893
25	0xbdd62b0e	-0.10457431
26	0xbe1d5f51	-0.15368392
27	0xbc77ae9a	-0.015117312
28	0xbd927b17	-0.07152384
29	0x3f5e515c	0.86842895
30	0x3fade956	1.3586833
31	0x3e26591c	0.1624493
32	0x3dc16ef2	0.09444989
33	0xbc720dce	-0.014773799
34	0xbd7895d8	-0.060689777
35	0x3c3fd6b2	0.011708902
36	0xbd1e4862	-0.03864325
37	0xbc37ad61	-0.01121077
38	0x3e093081	0.13397409
39	0x3cc7b0ab	0.024376234
40	0xbc1cd222	-0.009571584
41	0xbcd4c172	-0.025971148
42	0x3e87e30a	0.26540405
43	0x3eb0a929	0.3450406
44	0xbc8b9d5d	-0.01704281
45	0x3da33b69	0.07970316
46	0x3d0c7055	0.034286816
47	0x3de6c791	0.11268533
48	0x3c92f702	0.017940048
49	0x3c596070	0.013267621

bn1.running_mean f4 [50]
0	0x3e6f092a	0.2334334
1	0xbdbb0055	-0.09130923
2	0xbe01b7b0	-0.12667727
3	0xbe851b14	-0.2599722
4	0x3dda233c	0.10651252
5	0x3e62a3e1	0.22132827
6	0x3e5d06a4	0.21584564
7	0x3dcd0cb0	0.100121856
8	0xbb11f21c	-0.0022269553
9	0x3d9a2983	0.07527449
10	0x3e3b6ac7	0.18302451
11	0xbe00ef0a	-0.12591186
12	0x3ced5381	0.028970482
13	0xbe077090	-0.13226533
14	0x3e31b0ae	0.17352554
15	0xbdfb7535	-0.12278215
16	0xbc3abf89	-0.011398205
17	0x3e262abd	0.16227241
18	0x3e02fc0a	0.12791458
19	0xbb7ef3bb	-0.00389026
20	0x3d0857b1	0.033286754
21	0x3e34b813	0.17648344
22	0xbdb1b93d	-0.086779095
23	0xbe22d5ea	-0.15901914
24	0xbe75daac	-0.24009198
25	0x3da9c6b5	0.082898535
26	0x3dd8c93c	0.105852574
27	0x3c4b8096	0.012420794
28	0xbd981c18	-0.074272335
29	0xbd548cd8	-0.05189213
30	0xbecc7122	-0.39930063
31	0x3da1dfc8	0.07904011
32	0xbe43c83f	-0.19119357
33	0xbdb42099	-0.0879528
34	0x3d0ef692	0.034903117
35	0x3e93b017	0.28845283
36	0xbe37b0ad	-0.1793849
37	0x3e55fbbe	0.20896813
38	0x3e7ce438	0.24696434
39	0xbdd0edc4	-0.102016
40	0xbd467bff	-0.048458096
41	0xbe402073	-0.18762378
42	0xbd1b8e03	-0.03797723
43	0xbcde69af	-0.027150003
44	0x3e9b5a6f	0.30342433
45	0xbdef7844	-0.11692861
46	0x3eb87909	0.36029842
47	0xbe10810b	-0.14111726
48	0xbdea3914	-0.11436668
49	0xbde531fd	-0.11191175

bn1.running_var f4 [50]
0	0x404de920	3.2173538
1	0x406147ac	3.5199995
2	0x41368416	11.407248
3	0x3ff8e6a6	1.9445388
4	0x40f3610d	7.605597
5	0x3ebb4ad1	0.36580518
6	0x3fe3a243	1.7783893
7	0x406c5520	3.6926956
8	0x40375ef5	2.8651707
9	0x4108e961	8.556977
10	0x40605fd5	3.5058491
11	0x3fdaa582	1.7081759
12	0x3fea80c4	1.8320546
13	0x40fbae88	7.865055
14	0x4086f7b2	4.2177362
15	0x4087be74	4.2419987
16	0x40d0f828	6.5302925
17	0x40715be1	3.7712328
18	0x4067dea7	3.6229646
19	0x40b2b21f	5.5842433
20	0x3f087b44	0.5331309
21	0x40ab3c48	5.3511086
22	0x412bb8b4	10.732594
23	0x401863a5	2.3810818
24	0x3fff7656	1.9957988
25	0x40f50062	7.6562967
26	0x3fd5d560	1.6705742
27	0x40d8f738	6.780178
28	0x400082b4	2.0079775
29	0x3f958101	1.1679994
30	0x3f73f9dc	0.9530313
31	0x3fabc762	1.3420222
32	0x40e38ec6	7.1111784
33	0x410e66bf	8.9000845
34	0x3fb3a5ae	1.4034936
35	0x408d8461	4.4224095
36	0x4047a8eb	3.119685
37	0x4024d20e	2.5753207
38	0x405b3ab6	3.4254584
39	0x3ff67f7b	1.9257654
40	0x401afc85	2.4216626
41	0x406ce153	3.7012527
42	0x40268ecf	2.6024663
43	0x403bb1fc	2.9327383
44	0x403a7733	2.9135253
45	0x4073ec25	3.811288
46	0x413aaa36	11.666555
47	0x4098efcf	4.7792735
48	0x405245a6	3.285501
49	0x4043581a	3.0522523

linear2.weight f4 [100, 50]
0	0xbcbc9312	-0.023019347
1	0xbd7df98b	-0.06200556
2	0x3ba36bc9	0.004987214
3	0x3d9084b2	0.070565596
4	0xbdbebd3c	-0.09313437
5	0xbc151d86	-0.009101277
6	0x3c814c4a	0.015783448
7	0x3c8426d2	0.016131792
8	0xbcb1e7dd	-0.021717006
9	0xbca5dad8	-0.020245954
10	0x3dcc4ef5	0.09975997
11	0xbdebe874	-0.11518946
12	0x3df0c72b	0.11756738
13	0x3c11082c	0.008852046
14	0xbe11858e	-0.14211103
15	0x3d61724a	0.055040635
16	0xbc78dd1c	-0.015189435
17	0xbd0000a5	-0.031250615
18	0x3d212c26	0.039348744
19	0x3df5e2f3	0.12006178
20	0xbd53fc25	-0.051754136
21	0xbd9ff425	-0.07810239
22	0x395c5d98	0.00021015701
23	0xbca75a0d	-0.020428682
24	0xbcd64a4e	-0.026158478
25	0xbda4396a	-0.08018763
26	0x3e3a7c5d	0.18211503
27	0x3da688b0	0.0813154
28	0xbd7cdd46	-0.06173446
29	0xbc323f82	-0.010879399
30	0x3d88ee94	0.0668613
31	0xbe3b948d	-0.18318386
32	0x3db878d1	0.09007419
33	0x3c69b1cb	0.014263581
34	0xbd84bc74	-0.06481257
35	0xbd51899e	-0.051156633
36	0xbcf38d62	-0.029730503
37	0xbe05045e	-0.12989947
38	0xbc5173e1	-0.012783975
39	0x3d6a19ef	0.05715364
40	0x3d984e27	0.074367814
41	0x3d12d7b7	0.035850253
42	0xbbc7c0da	-0.0060959877
43	0xb9123f03	-0.00013947119
44	0x3ccec169	0.02523871
45	0x3d97a9f9	0.074054666
46	0x3c01c029	0.00791935
47	0x3d590014	0.05297859
48	0x3e1aabaf	0.15104555
49	0xbda53595	-0.080668606
50	0xbdae6366	-0.085150525
51	0x3df37607	0.11887746
52	0x3da21ad1	0.07915271
53	0x3d3f1739	0.046653006
54	0x3d1b3e08	0.037900954
55	0x3dec67b0	0.11543214
56	0x3c785ceb	0.015158872
57	0xbdb65344	-0.089026004
58	0xbdbb2bc3	-0.09139206
59	0x3dd624a4	0.104562074
60	0xbd8d29dc	-0.0689275
61	0x3d451e99	0.048124883
62	0xbd38f6aa	-0.045157112
63	0x3df58048	0.11987358
64	0xbd40ca23	-0.047067773
65	0xbe393999	-0.18088378
66	0xbd81fad9	-0.063466735
67	0xbcf67e17	-0.030089421
68	0xbd9b005d	-0.07568429
69	0x3cab9688	0.020945802
70	0x3d0af622	0.033926137
71	0x3d895260	0.06705165
72	0xbc8b1e4e	-0.016982224
73	0x3ce96b60	0.028493583
74	0x3d451c89	0.048122916
75	0x3c87f7b5	0.016597608
76	0xbda4a1de	-0.08038686
77	0xbba540f8	-0.0050431453
78	0xbda0e53d	-0.07856224
79	0x3e0de3fe	0.13856503
80	0x39849233	0.0002528593
81	0x3defa6d3	0.11701741
82	0x3d21450a	0.03937248
83	0xbae68cd4	-0.0017589577
84	0xbd3a2e79	-0.045454476
85	0xbd9ed3a4	-0.07755211
86	0x3df6af35	0.12045137
87	0xbd9748b8	-0.07386917
88	0xbd27e8c2	-0.04099346
89	0x3e82826b	0.25490126
90	0xbd36d40f	-0.04463583
91	0x3dc6ef2f	0.097135894
92	0xbe415786	-0.18881044
93	0xbdcd0618	-0.10010928
94	0xbd0d83a2	-0.034549363
95	0x3df7b6e6	0.12095432
96	0xbd1aa854	-0.037758186
97	0x3dda5764	0.106612
98	0xbb88e408	-0.004177574
99	0x3d4df89d	0.050285924
100	0x3e45ad0c	0.19304293
101	0xbc8b4578	-0.017000899
102	0xbca8aabf	-0.02058923
103	0x3c073d28	0.008254327
104	0x3d887661	0.06663204
105	0x3e38946b	0.18025367
106	0x3c50401b	0.012710596
107	0x3ccb3d02	0.024809364
108	0xbd373499	-0.044727895
109	0x3df40b04	0.119161636
110	0x3bbbf127	0.0057355347
111	0x3e032cc0	0.1281004
112	0xbd0915dd	-0.033468116
113	0xbd570857	-0.052498188
114	0x3da9ebc1	0.082969196
115	0xbdc232f6	-0.09482376
116	0xbc6d1c72	-0.014472114
117	0xbe22f7dc	-0.15914863
118	0xbd759316	-0.059954725
119	0x3d559a6f	0.052149232
120	0x3db68869	0.08912737
121	0xbdb27c36	-0.087150976
122	0x3e3cb12c	0.1842696
123	0x3cd448f9	0.025913702
124	0xbd089d71	-0.033353273
125	0x3dc349f7	0.09535592
126	0xbc172736	-0.009225657
127	0xbd237700	-0.03990841
128	0xbe265fa3	-0.1624742
129	0xba3d47a4	-0.0007220453
130	0xbd28d6cf	-0.041220482
131	0x3e0b0815	0.13577302
132	0x3ddc9a32	0.10771598
133	0xbe1bbc7e	-0.15208623
134	0xbd90f7b5	-0.07078496
135	0xbd58110a	-0.052750625
136	0x3da49c4e	0.08037625
137	0xbc8920b1	-0.016739221
138	0x3d891ace	0.06694566
139	0x3e3a6d5f	0.18205784
140	0xbdb61fb1	-0.088927634
141	0xbe376e6f	-0.17913221
142	0x3d8a8930	0.06764448
143	0x3c9627c5	0.01832951
144	0x3db59fe2	0.08868386
145	0x3d1d908b	0.038467925
146	0xbcde817f	-0.027161358
147	0xbdc422b3	-0.09576931
148	0xbccaa40c	-0.024736427
149	0x3cba1804	0.02271653
150	0xbe1bb7dc	-0.15206856
151	0xbe2e0a61	-0.16996147
152	0x3dacd00d	0.0843812
153	0xbd0a3bb9	-0.033748362
154	0x3d6dfaaf	0.0581004
155	0x3d95e987	0.073199324
156	0xbdf63cd3	-0.1202332
157	0x3d146e9b	0.036238294
158	0x3d8400ee	0.0644549
159	0xbd2ab129	-0.04167286
160	0xbd1053fd	-0.035236347
161	0x3dd31f81	0.10308743
162	0xbdc6979b	-0.09696885
163	0xbcb69b42	-0.02229083
164	0x3d504502	0.05084706
165	0x3e481da7	0.19542561
166	0x3df99ab0	0.121877074
167	0xbd1fff1a	-0.039061643
168	0x3db01434	0.085976034
169	0xbdc83ac6	-0.09776835
170	0x3e0bc341	0.13648702
171	0x3ce8a63d	0.028399581
172	0xbdc7acf7	-0.09749787
173	0x3de90fc7	0.113799624
174	0xbd2cbd89	-0.042172942
175	0xbe747e0e	-0.23876211
176	0x3c04b54d	0.008099866
177	0x3d05ebf9	0.032695744
178	0xbd4a65f7	-0.049413648
179	0x3e12ffd8	0.14355409
180	0x3c912887	0.01771952
181	0xbcf4e01c	-0.02989202
182	0x3ee2fac1	0.44331935
183	0x3ca01022	0.019538943
184	0x3d7ded4d	0.061993886
185	0x3d165078	0.036697835
186	0x3cd5903c	0.026069753
187	0x3d710cef	0.058850225
188	0xbc3da5de	-0.01157519
189	0x3d5bb1db	0.053636413
190	0x3d9ff8cc	0.07811126
191	0x3dd2ced2	0.10293354
192	0xbd4bf13e	-0.049790613
193	0xbcf6c012	-0.030120883
194	0x3d30a4f7	0.043126073
195	0x3cbea105	0.02327014
196	0x3d475c16	0.048671804
197	0xbd9041ca	-0.07043798
198	0xbd2eaf40	-0.0426476
199	0x3d85e1d1	0.06537212
200	0xbdae9fee	-0.08526598
201	0xbde8e3c1	-0.113715656
202	0xbc82ea1c	-0.015980773
203	0x3e4bffa5	0.1992174
204	0x3e0f070e	0.13967535
205	0x3d4fd91e	0.05074417
206	0xbd379e44	-0.04482867
207	0x3da1a4ba	0.07892747
208	0xbc80abd7	-0.01570694
209	0xbd3f8eb7	-0.046766963
210	0xbda5200b	-0.08062752
211	0xbdf029e8	-0.11726743
212	0x3da06d7b	0.07833382
213	0x3d448d7e	0.0479865
214	0xbe145348	-0.14484894
215	0x3d4c2aa9	0.04984537
216	0xbc301b11	-0.010748641
217	0x3c358ed2	0.011081414
218	0x3dc868d8	0.09785622
219	0x3dc12a76	0.09431927
220	0xbb31e332	-0.0027143476
221	0x3d92f5ff	0.07175826
222	0xbdab5f3b	-0.08367773
223	0x3d896fbe	0.06710766
224	0xbd09ea4e	-0.033670716
225	0x3e2a3cb1	0.16624714
226	0xbcc27a1c	-0.023739867
227	0xbdd28588	-0.10279375
228	0xbcdd878d	-0.027042175
229	0xbd5c0243	-0.053713094
230	0xbc28bb4f	-0.010298564
231	0x3c4ac2d6	0.012375554
232	0xbdd68a3b	-0.10475584
233	0x3daa5d17	0.08318537
234	0xbe353e4c	-0.17699546
235	0x3e3b555a	0.18294278
236	0xbdca1d98	-0.09868926
237	0xbcbf5d21	-0.023359837
238	0x3d202840	0.039100885
239	0xbde38e35	-0.11111108
240	0xbd22220b	-0.039583247
241	0x3dd3553d	0.10318992
242	0xbc3dca64	-0.011583898
243	0x3cbbbbd2	0.022916708
244	0x3cb35594	0.021891393
245	0xbc82e2be	-0.01597726
246	0x3c83f4e2	0.01610798
247	0xbc86765b	-0.016413858
248	0x3c29ebb3	0.0103711365
249	0xbb80cf4f	-0.003930963
250	0x3dfb7c40	0.12279558
251	0x3dbfb9c2	0.09361602
252	0x3d60ce03	0.054883968
253	0x3d750a22	0.059824117
254	0xbdc3ac55	-0.09554354
255	0x3e2c99d8	0.16855562

linear2.bias f4 [100]
0	0xbd9d267e	-0.076733574
1	0xbd04fcee	-0.032467775
2	0xbd56435a	-0.052310325
3	0xbc565f85	-0.013084297
4	0x3bf3d5b8	0.0074412487
5	0xbdf1a08b	-0.11798199
6	0xbd0b824c	-0.034059808
7	0x3e07fe21	0.13280536
8	0xbda6e088	-0.08148295
9	0x3d9c879b	0.07643052
10	0xbdeb82e9	-0.114995785
11	0xbdce7522	-0.10080935
12	0x3d98eff4	0.074676424
13	0xbe0625d3	-0.13100366
14	0x3c9386af	0.018008558
15	0x3d2ffdbd	0.042966593
16	0x3e097768	0.13424456
17	0xbe073ee6	-0.13207588
18	0x3ded3f37	0.11584323
19	0x3e029928	0.12753737
20	0x3dbf123b	0.09329649
21	0xbdb4a3cb	-0.088203035
22	0x3b6d9ee1	0.003625803
23	0xbcf72063	-0.03016681
24	0xbd4f91b9	-0.05067608
25	0x3c89705c	0.01677721
26	0x3bdb6600	0.006695509
27	0x3e0ff89b	0.14059679
28	0x3db09b61	0.08623386
29	0xbd5a5676	-0.05330511
30	0x3e0e11d5	0.1387399
31	0x3c48696b	0.012232165
32	0xbdba5c6f	-0.090996616
33	0x3bf15cfc	0.007365821
34	0x3dd65c0a	0.10466774
35	0x3ac816fa	0.0015265637
36	0xbd6ed89f	-0.058312055
37	0x3c92a5ee	0.017901387
38	0xbd178094	-0.036987856
39	0xbd91e3d5	-0.07123534
40	0xbdbd0744	-0.092299014
41	0x3dabeee9	0.08395178
42	0xbde63fd1	-0.11242641
43	0xbda94cdb	-0.08266612
44	0x3db241c6	0.087039515
45	0x3e05e401	0.13075258
46	0xbdbb0d47	-0.09133392
47	0xbdf17c9a	-0.11791344
48	0xbdf15a88	-0.117848456
49	0x3d9ad870	0.075608134
50	0x3df7f441	0.121071346
51	0xbc959ac2	-0.01826227
52	0xbd1ca47b	-0.0382428
53	0xbe06bc5b	-0.1315779
54	0xbd548d43	-0.05189253
55	0x3e0c5832	0.13705519
56	0x3de3bb81	0.11119748
57	0x3c9bf679	0.019038426
58	0x3dfc3733	0.12315216
59	0x3da6532d	0.08121333
60	0xbd05063e	-0.032476656
61	0x3c87c7c3	0.016574746
62	0xbd4e588b	-0.05037741
63	0xbc36137d	-0.011113045
64	0x3d09196d	0.033471514
65	0x3ba20e23	0.004945533
66	0x3d40530b	0.046954196
67	0x3deaca97	0.11464422
68	0x3c4db870	0.01255618
69	0x3c1eabd0	0.009684518
70	0xbd026906	-0.03183844
71	0x3b3c5c9c	0.0028741723
72	0x3d7ccf5b	0.061721187
73	0xbdc2aaf9	-0.09505267
74	0x3d42087f	0.047371384
75	0xbc278898	-0.010225438
76	0xbd548ff7	-0.051895108
77	0xbc876d4c	-0.016531609
78	0x3ccf67d4	0.025318064
79	0xbdb97565	-0.09055594
80	0xbdb8c58d	-0.09022055
81	0xbc9078c2	-0.017635707
82	0xbe0fa0c4	-0.14026171
83	0x3db9639e	0.090522036
84	0xbde61e5d	-0.1123626
85	0xbdbdd090	-0.09268296
86	0xbd6f9d2f	-0.05849951
87	0x3da7d1d1	0.08194316
88	0x3c5dedb5	0.013545443
89	0x3d9bdf2d	0.07610927
90	0xbde58a45	-0.112080134
91	0xbdb56232	-0.0885662
92	0xbe0bd94b	-0.1365711
93	0xbc14d8bd	-0.009084878
94	0x3c5bc291	0.013413087
95	0xbd77b833	-0.0604784
96	0x3d8c0505	0.06836895
97	0x3d668a4b	0.05628423
98	0x3cf3c59c	0.029757313
99	0x3e076b71	0.1322458

bn2.weight f4 [100]
0	0x3f9891ea	1.191953
1	0x3f480351	0.7813006
2	0x3f6e8e6a	0.93186057
3	0x3f70100c	0.93774486
4	0x3f77d05d	0.9680231
5	0x3f6a59e2	0.915434
6	0x3f6ff47f	0.93732446
7	0x3f71beed	0.94431955
8	0x3f846f40	1.0346451
9	0x3f6fa5e9	0.93612534
10	0x3f84b16b	1.0366644
11	0x3f5a3436	0.8523592
12	0x3f3c0037	0.7343783
13	0x3f857d1b	1.0428804
14	0x3f60fe5c	0.8788812
15	0x3f81a925	1.0129744
16	0x3f7be97a	0.9840313
17	0x3f6dde85	0.9291766
18	0x3f56f420	0.83966255
19	0x3f84f0be	1.0385969
20	0x3f793665	0.97348624
21	0x3f86be07	1.0526742
22	0x3f7290b2	0.9475204
23	0x3f839d1a	1.0282319
24	0x3f75c635	0.96005565
25	0x3f7e0c3a	0.99237406
26	0x3f7660fb	0.9624173
27	0x3f7853e1	0.9700299
28	0x3f38215d	0.7192591
29	0x3f774bf1	0.9660025
30	0x3f7735cc	0.9656646
31	0x3f83239c	1.0245242
32	0x3f4a4513	0.7901165
33	0x3f7faf4c	0.99876857
34	0x3f7eb383	0.99492663
35	0x3f80d025	1.0063521
36	0x3f7e8bf5	0.9943231
37	0x3f983794	1.1891961
38	0x3f848998	1.035449
39	0x3f739aed	0.95158273
40	0x3f814d60	1.0101738
41	0x3f8025b1	1.0011503
42	0x3f754aad	0.9581707
43	0x3f4e6fa5	0.80639106
44	0x3f63bde1	0.8896161
45	0x3f62508e	0.88404167
46	0x3f80c1c6	1.0059135
47	0x3f6bf061	0.92163664
48	0x3f834e3c	1.025825
49	0x3f725fe1	0.9467755
50	0x3f6e12c6	0.92997396
51	0x3f8a277d	1.0793301
52	0x3f4ac200	0.7920227
53	0x3f820fa8	1.0161028
54	0x3f6cacc5	0.92451125
55	0x3f818417	1.0118436
56	0x3f6b0e05	0.9181827
57	0x3f7a5eab	0.978007
58	0x3f858d57	1.0433758
59	0x3f651591	0.8948603
60	0x3f840d50	1.0316563
61	0x3f821be8	1.0164766
62	0x3f814684	1.0099645
63	0x3f80f70d	1.0075394
64	0x3f7e6f8e	0.9938897
65	0x3f877d7f	1.0585173
66	0x3f6902ed	0.9102009
67	0x3f8333c7	1.0250176
68	0x3f543266	0.828894
69	0x3f740567	0.95320743
70	0x3f8566f6	1.0422046
71	0x3f71dafb	0.9447476
72	0x3f987c31	1.19129
73	0x3f82f734	1.023169
74	0x3f8c1f8c	1.0947127
75	0x3f51b19e	0.8191165
76	0x3f91e0e9	1.1396762
77	0x3f7bcd09	0.98359734
78	0x3f58e094	0.8471768
79	0x3f7570e5	0.9587539
80	0x3f80810d	1.0039383
81	0x3f5ca8ef	0.8619527
82	0x3f751ff2	0.9575187
83	0x3f6061f5	0.8764947
84	0x3f3a6c81	0.72821814
85	0x3f83673b	1.0265878
86	0x3f7a06eb	0.97666806
87	0x3f76b5fa	0.96371424
88	0x3f72801d	0.94726735
89	0x3f8226a7	1.0168046
90	0x3f776d1d	0.9665087
91	0x3f6c1a78	0.9222789
92	0x3f6d0d44	0.92598367
93	0x3f640246	0.8906597
94	0x3f860bd8	1.0472364
95	0x3f9f148f	1.2428149
96	0x3f34cc68	0.706244
97	0x3f7edda8	0.9955697
98	0x3f8561dd	1.042049
99	0x3f815b0b	1.0105909

bn2.bias f4 [100]
0	0xbde81edb	-0.1133401
1	0x3e849ea8	0.25902295
2	0x3d0e00b8	0.034668654
3	0x3e30cc03	0.17265324
4	0x3e0f4e70	0.13994765
5	0x3e3b57ed	0.1829526
6	0x3e146093	0.14489965
7	0x3e8850fd	0.2662429
8	0x3da1217b	0.07867714
9	0x3da79759	0.08183164
10	0x3d338cb5	0.04383536
11	0x3e95e438	0.2927568
12	0x3f1422be	0.5786551
13	0x3e3bc772	0.18337801
14	0x3e3b3e26	0.18285426
15	0x3e24e534	0.16103059
16	0x3e9c5724	0.30535233
17	0x3dde55d8	0.10856217
18	0x3efa47d7	0.48882934
19	0x3e43e9d1	0.19132163
20	0x3da43ac3	0.080190204
21	0x3e46304f	0.19354366
22	0x3e8ad1d8	0.27113223
23	0x3ee44115	0.44580904
24	0x3efd178a	0.4943202
25	0x3e3614cd	0.17781372
26	0x3f08c0ab	0.5341899
27	0x3d2fb667	0.04289856
28	0x3f2b59cc	0.66933894
29	0x3d81fdc0	0.06347227
30	0x3e9b56e5	0.30339733
31	0x3db3d063	0.08779981
32	0x3e612f3a	0.21990672
33	0xbe6f4908	-0.23367703
34	0x3d3a4c14	0.04548271
35	0x3e2bb46e	0.16768047
36	0x3e5ceb40	0.21574116
37	0xbe0c8cd9	-0.13725604
38	0x3b691800	0.0035567284
39	0x3de5a90e	0.11213885
40	0x3e43110f	0.19049476
41	0x3e9e22d3	0.30885944
42	0x3d17c77f	0.03705549
43	0x3f3e8e33	0.7443573
44	0x3e59f465	0.21284635
45	0x3de8aa3d	0.113605954
46	0x3e8d7017	0.2762458
47	0x3ea7d0d3	0.32776508
48	0x3e70e176	0.23523507
49	0x3e8eb502	0.27872473
50	0x3e7ad12d	0.24493857
51	0x3e225d43	0.15855889
52	0x3e5bca19	0.21463813
53	0xbe6ab417	-0.22920261
54	0x3ea526f6	0.32256287
55	0x3ebecdb1	0.37266305
56	0x3e2a40c9	0.16626276
57	0x3e34f2bd	0.17670722
58	0x3d88aef3	0.06673994
59	0x3e56a2eb	0.20960586
60	0xbb9ce518	-0.0047880523
61	0x3c4e9448	0.012608595
62	0x3e31dc51	0.173692
63	0x3e8260ec	0.2546457
64	0x3bf260bd	0.007396786
65	0x3e1bb4c0	0.1520567
66	0x3db10921	0.08644319
67	0x3e5261f4	0.20545179
68	0x3e6b73e7	0.22993432
69	0x3cee7990	0.0291107
70	0xbe0e98a5	-0.13925417
71	0x3d8c8b99	0.06862564
72	0x3c400a14	0.011721153
73	0x3b51335c	0.0031921482
74	0x3d9773ae	0.07395111
75	0x3edcd9ea	0.43135005
76	0x3e3294a3	0.17439513
77	0x3e92bcc4	0.28659642
78	0x3f485376	0.7825235
79	0x3e78130c	0.24226016
80	0x3df56846	0.11982779
81	0x3ec9953a	0.39371663
82	0x3df14d32	0.11782302
83	0x3e4be231	0.19910504
84	0x3ef23bcc	0.47311246
85	0x3e216019	0.15759315
86	0x3e7314e8	0.23738444
87	0x3c986870	0.018604487
88	0x3e18d021	0.14923145
89	0x3e1b0103	0.15137105
90	0x3d446fa4	0.04795803
91	0x3c8c4dd3	0.017126953
92	0x3eb84602	0.35990912
93	0x3d6918fb	0.05690859
94	0x3ea22066	0.31665343
95	0x3e28be85	0.16478927
96	0x3f48e28d	0.7847069
97	0x3cf7d492	0.030252729
98	0x3e29cb06	0.16581354
99	0x3decd96f	0.1156491

bn2.running_mean f4 [100]
0	0xbd2f3e42	-0.042783983
1	0x3e43edf0	0.19133735
2	0x3e2e9b0f	0.17051338
3	0x3ef43a85	0.47700897
4	0xba29192d	-0.000645059
5	0x3d49044d	0.049076367
6	0xbe09dcc4	-0.13463122
7	0x3d68ca60	0.056833625
8	0xbe90be6b	-0.28270277
9	0x3ea850df	0.328742
10	0x3db00639	0.08594937
11	0x3d5b8fd4	0.053603962
12	0x3f061242	0.5237161
13	0xbe80aaa4	-0.25130188
14	0xbcaf6dce	-0.021414664
15	0x3da5f849	0.08103997
16	0x3eb136c4	0.34612095
17	0x3e8257fe	0.25457758
18	0x3f000b8f	0.50017637
19	0x3e82eda9	0.25571945
20	0x3d9ee5ca	0.077586725
21	0x3e0acafc	0.13553995
22	0x3db603c4	0.08887437
23	0x3e5690e8	0.20953715
24	0x3e5b2000	0.21398926
25	0x3e4355de	0.19075724
26	0xbe1d63a4	-0.15370041
27	0x3e17e649	0.1483394
28	0x3e911c78	0.28342032
29	0x3d0407ae	0.032233886
30	0x3ea183fe	0.31546015
31	0x3dd28361	0.10278965
32	0x3c2397a2	0.009984883
33	0xbc48ebab	-0.012263219
34	0x3e788d5d	0.24272676
35	0x3e15f806	0.14645395
36	0xbe6b3688	-0.22970021
37	0x3e6cb037	0.23114096
38	0xbe38ca0d	-0.18045826
39	0x3d908cca	0.070581034
40	0xbcf4aeb5	-0.029868463
41	0x3e14a210	0.14514947
42	0xbded992c	-0.11601481
43	0x3e7dc11d	0.24780698
44	0x3e5c030c	0.21485537
45	0x3cbdcddb	0.023169449
46	0xbc25c7ff	-0.010118484
47	0xbe7ece74	-0.24883443
48	0x3de3e074	0.111267954
49	0x3eca20b5	0.39478078
50	0x3e7c9ca4	0.24669129
51	0xbe92166a	-0.28532726
52	0x3e65e4e5	0.22450598
53	0xbeb79753	-0.3585764
54	0x3dcecc45	0.10097555
55	0x3e52609a	0.20544663
56	0x3ea4f88f	0.32220885
57	0x3e44b7b5	0.19210704
58	0xbca560d6	-0.020187777
59	0x3e4eabee	0.20182773
60	0x3ba64f3f	0.005075365
61	0x3dc60c5b	0.09670325
62	0x3ea1e786	0.3162195
63	0xbdf3582a	-0.1188205
64	0x3c557385	0.01302803
65	0x3deb58b0	0.11491525
66	0x3dd6c0f3	0.10486021
67	0x3d22875a	0.039679863
68	0xba8c6edd	-0.0010714192
69	0xbe5473fb	-0.20747368
70	0xbe178d5b	-0.14800017
71	0x3cdd78cc	0.02703514
72	0xbe3c4ba0	-0.18388224
73	0xbe2d3b93	-0.16917257
74	0xbdbe1751	-0.09281791
75	0x3e14604b	0.14489858
76	0xbdf1708e	-0.11789046
77	0x3b4af6d7	0.0030969882
78	0x3e602f32	0.21893004
79	0xbdaf6e0f	-0.08565914
80	0x3e772683	0.24135785
81	0x3ebf117e	0.37318033
82	0xbe0398a5	-0.12851198
83	0x3e881c16	0.26583928
84	0x3d950a66	0.07277374
85	0x3a3b659e	0.0007148626
86	0x3e1f7902	0.15573505
87	0xbc3f0e44	-0.011661116
88	0x3e053dcb	0.13011853
89	0x3e5af2c8	0.21381676
90	0xbe6e2b0f	-0.23258613
91	0x3d88cdf3	0.06679907
92	0xbd5e82d8	-0.054324
93	0x3da999e1	0.08281303
94	0xba33afcc	-0.0006854504
95	0xbd5a35e8	-0.053274065
96	0x3e62b205	0.22138222
97	0x3e6c320a	0.23065963
98	0x3decf67d	0.115704514
99	0x3e064c16	0.13114962

bn2.running_var f4 [100]
0	0x3d62be12	0.055357046
1	0x3d88bdff	0.06676864
2	0x3e840014	0.2578131
3	0x3f229dcc	0.6352203
4	0x3d7f47b5	0.062324245
5	0x3e4b2593	0.19838552
6	0x3da7b731	0.08189238
7	0x3de8328b	0.11337765
8	0x3eab4ac6	0.33455485
9	0x3f01be32	0.5068084
10	0x3ed26eed	0.41100255
11	0x3e621aec	0.22080582
12	0x3da3ea17	0.080036335
13	0x3e3acc63	0.1824203
14	0x3e2601bd	0.162116
15	0x3e695ca7	0.2278925
16	0x3ec53b7b	0.38521942
17	0x3eb78ba0	0.35848713
18	0x3e335a7d	0.17514987
19	0x3eb9ce8a	0.3629039
20	0x3ea469eb	0.3211206
21	0x3d625604	0.055257812
22	0x3e3ddcdc	0.18541282
23	0x3e022f9d	0.12713476
24	0x3e0e0ead	0.13872786
25	0x3eab03db	0.3340138
26	0x3cd37a90	0.025815278
27	0x3e8f95f4	0.28044093
28	0x3deb062e	0.11475788
29	0x3e5e39e6	0.21701774
30	0x3e26b334	0.16279298
31	0x3e98d78a	0.29851943
32	0x3e33477c	0.17507738
33	0x3e34659b	0.17616884
34	0x3e5e5691	0.2171271
35	0x3df6c020	0.12048364
36	0x3e96f37e	0.29482645
37	0x3cdf67e6	0.027271222
38	0x3e2c8eac	0.168513
39	0x3e749f1a	0.23888817
40	0x3eb20ca8	0.3477528
41	0x3ea1ddb7	0.31614468
42	0x3ec7badc	0.3900975
43	0x3dda8161	0.10669208
44	0x3e8e21e7	0.2776024
45	0x3e14b8f6	0.14523682
46	0x3e742afb	0.23844521
47	0x3e134758	0.14382684
48	0x3ea99e80	0.33128738
49	0x3f3c9085	0.7365802
50	0x3e907a0a	0.28218108
51	0x3e2a6736	0.16640934
52	0x3e792239	0.24329461
53	0x3de39a54	0.1111342
54	0x3e7361e9	0.23767819
55	0x3e5f894a	0.21829715
56	0x3e54a53f	0.20766161
57	0x3ea411dd	0.3204488
58	0x3eb700c4	0.35742772
59	0x3e94f6bf	0.29094502
60	0x3db78ec6	0.08962779
61	0x3e01999c	0.12656254
62	0x3eb1d60f	0.34733626
63	0x3ebc2cbb	0.36752877
64	0x3e04e431	0.12977673
65	0x3e8b8190	0.27247286
66	0x3e7a1f3c	0.24425977
67	0x3e785a68	0.24253237
68	0x3d4fcab7	0.050730433
69	0x3e6293b7	0.22126661
70	0x3d8e4dd8	0.06948441
71	0x3e63faa4	0.2226358
72	0x3defff0f	0.117185704
73	0x3ded0964	0.11574057
74	0x3d6193c1	0.05507255
75	0x3d9499d7	0.07255905
76	0x3d845313	0.06461158
77	0x3df4a70e	0.11945926
78	0x3d363907	0.04448798
79	0x3ee0f1ff	0.43934628
80	0x3e30911e	0.17242858
81	0x3d8f6a42	0.07002689
82	0x3eeb2b04	0.45931256
83	0x3e1edf8e	0.15514967
84	0x3d23b813	0.03997047
85	0x3e88d2b3	0.2672325
86	0x3eaaa49c	0.33328712
87	0x3e4b9470	0.19880843
88	0x3f191d47	0.598103
89	0x3e36a834	0.17837602
90	0x3e1eafc6	0.1549674
91	0x3e25c2ed	0.1618764
92	0x3e1a5806	0.15072641
93	0x3f07b986	0.5301746
94	0x3f09d436	0.53839433
95	0x3d3585f2	0.044317193
96	0x3cf6593e	0.03007185
97	0x3ef2cf87	0.47423956
98	0x3eda9bdc	0.42697036
99	0x3e65ceb1	0.22442128

linear3.weight f4 [50, 100]
0	0x3c606f37	0.013698391
1	0x3d36fe86	0.044676326
2	0xbd228e77	-0.039686646
3	0x3bf3ded7	0.007442336
4	0xbd817bba	-0.06322427
5	0x3b1e026b	0.0024110328
6	0x3a174ef9	0.0005771961
7	0x3b620101	0.0034485462
8	0x3c27c432	0.010239648
9	0xbd0acc8f	-0.03388649
10	0x3d084a6a	0.03327409
11	0x3b87f434	0.0041489843
12	0x3d7d72d3	0.061877083
13	0x3ae286f9	0.0017282657
14	0xbcd6ecd2	-0.026235972
15	0xbdad05ba	-0.08448358
16	0x3cdb53d7	0.026773376
17	0xbb2a5f35	-0.002599669
18	0xbcb79883	-0.02241159
19	0xbce80ad6	-0.02832548
20	0x3dd65197	0.10464781
21	0xbc81d938	-0.015850648
22	0x3e31d78c	0.17367381
23	0x3c90dc80	0.017683268
24	0xbd1fe550	-0.03903705
25	0xbcb87618	-0.022517249
26	0xbdff5aad	-0.12468467
27	0x3c8b69d0	0.017018229
28	0x3bb77d55	0.0055996575
29	0x3cee5eac	0.029097877
30	0x3c373903	0.011183026
31	0xbb58a189	-0.0033055267
32	0x3d0dd125	0.034623284
33	0x3d6f07ca	0.058357038
34	0x3b03c426	0.0020105927
35	0x3cb39cf6	0.02192543
36	0x3d5fdee7	0.054655936
37	0xbe3780ad	-0.1792018
38	0x3d26315f	0.040574428
39	0xbc848e59	-0.016181158
40	0xbda839bb	-0.08214136
41	0xbc1384a6	-0.009003794
42	0x3d22b027	0.039718773
43	0xbb499abc	-0.0030762395
44	0xbce11f04	-0.02748061
45	0xbd180124	-0.037110463
46	0xbc1506b2	-0.009095835
47	0x3cf1d059	0.029518293
48	0x3d80b969	0.06285364
49	0x3d3d6424	0.04623808
50	0xbd391aae	-0.04519146
51	0xbcb3d419	-0.021951722
52	0x3cd84afb	0.026402941
53	0x3c111d12	0.008857029
54	0x3b519a1c	0.0031982725
55	0xbd3022a8	-0.0430018
56	0xbd6bed19	-0.05759916
57	0x3ce51583	0.02796436
58	0x3ce1d6d5	0.02756826
59	0x3c9677d2	0.018367682
60	0x3edc59f0	0.43037367
61	0x3c821a66	0.015881728
62	0xbd10e495	-0.035374243
63	0x3cae5a1b	0.0212832
64	0x3cd250bc	0.025673263
65	0xbcac394f	-0.02102342
66	0xbd7bab04	-0.06144239
67	0xbc82760f	-0.015925435
68	0xbd403869	-0.046928797
69	0xbd2e398f	-0.04253536
70	0xbb33bd3c	-0.0027426025
71	0xbc34129a	-0.010990763
72	0xbd8ecb9a	-0.06972428
73	0xba77ac1e	-0.00094479497
74	0xbddedc3f	-0.10881852
75	0x3bd9eb1b	0.006650341
76	0x3d2a8f1c	0.041640386
77	0x3ca6ccaa	0.020361263
78	0x3d503b8a	0.05083803
79	0x3ced6552	0.028978977
80	0x3d4dbee1	0.050230864
81	0xbca89d35	-0.020582775
82	0x3d161772	0.036643453
83	0xbdb9074c	-0.09034595
84	0xbb40bed0	-0.0029410608
85	0xbc9f62fa	-0.019456375
86	0xbd5055b0	-0.050862968
87	0x3c7338f3	0.014845121
88	0x3c657893	0.014005798
89	0x3d55cbbd	0.052196253
90	0x3d4e4266	0.05035629
91	0xbd051c09	-0.03249744
92	0xbd4e7133	-0.050400924
93	0x3d1d4838	0.03839895
94	0x3de915d0	0.113811135
95	0xbdcfca26	-0.10145979
96	0xbd427aee	-0.047480516
97	0xbd6cb305	-0.057787914
98	0xbdd89cad	-0.105767585
99	0xbcc1354c	-0.023584984
100	0x3de74985	0.112933196
101	0x3c865b2b	0.016400894
102	0x3ca4548d	0.020059848
103	0x3bb3d851	0.0054884334
104	0xbdb05596	-0.08610074
105	0xbccd5454	-0.025064625
106	0x3c81af28	0.015830591
107	0x3d4ef358	0.05052504
108	0x3cb0c7ca	0.021579642
109	0xbd9fe167	-0.07806664
110	0x3d77126a	0.060320295
111	0x3e89ffb9	0.26952913
112	0xbd72a214	-0.0592366
113	0x3cf1d457	0.029520197
114	0xbd215891	-0.039391104
115	0x3c9d1927	0.019177033
116	0xbce5bf2f	-0.028045265
117	0x3c9f47c1	0.019443395
118	0xbcde552c	-0.027140222
119	0xbd7fc8ad	-0.06244724
120	0xbcbc2e02	-0.022971157
121	0xbd0de431	-0.03464145
122	0x3c74b115	0.014934798
123	0x3bec409a	0.0072098495
124	0x3d16c86a	0.036812223
125	0x3c09bf1b	0.0084073795
126	0x3def8322	0.116949335
127	0x3cde2be0	0.02712053
128	0xbcdd40d6	-0.027008455
129	0x3d06d9ac	0.03292243
130	0xbd24f3ca	-0.040271558
131	0xbd11fa85	-0.035639305
132	0xbc96a6bf	-0.018390058
133	0xbdb711d1	-0.08938945
134	0xbd9ba0de	-0.07599042
135	0x3d2a73cb	0.041614335
136	0x3d6f33d7	0.058399048
137	0xbd3485af	-0.044072803
138	0x3bbf475d	0.0058373646
139	0xbc86f82a	-0.016475756
140	0xba32034a	-0.0006790651
141	0x3c916794	0.017749585
142	0xbc2a9e17	-0.010413668
143	0xbc1a87df	-0.009431808
144	0xbb281314	-0.0025646137
145	0xbceeddaa	-0.029158432
146	0xbbfd70b5	-0.007734383
147	0x3c239ad6	0.009985646
148	0xbc7eee8a	-0.015559802
149	0x3d05a546	0.03262832
150	0x3cc19c36	0.023634057
151	0x3c80fc33	0.015745258
152	0xbc9119a4	-0.017712422
153	0x3d0cbdab	0.03436057
154	0x3da96b33	0.082724
155	0x3dabfccd	0.08397827
156	0xbc46f1ca	-0.012142608
157	0xbd37820b	-0.044801753
158	0x3d298412	0.041385718
159	0x3ca4d1bf	0.020119546
160	0x3d3f095c	0.046639785
161	0x3c997fd1	0.018737705
162	0xbd24cb01	-0.040232662
163	0xbd2ae593	-0.041722845
164	0x3da20e6f	0.07912909
165	0x3d304651	0.04303581
166	0x3d813aea	0.06310065
167	0x3c0dac7e	0.008647082
168	0x3db1005d	0.086426474
169	0xbd0e20e9	-0.034699354
170	0xbc092e47	-0.00837285
171	0xbc19ab7f	-0.009379267
172	0xbca66d5d	-0.02031582
173	0xbcf12007	-0.029434217
174	0x3e056e67	0.13030396
175	0x3d99e2d8	0.0751397
176	0x3e376d60	0.17912817
177	0xbd2e586b	-0.04256479
178	0xbd33d882	-0.04390765
179	0x3d930636	0.07178919
180	0x3d3b5213	0.04573257
181	0x3cdd6393	0.02702502
182	0xbcda4bf8	-0.026647553
183	0x3ce4f1bc	0.0279473
184	0xbcf80ee6	-0.030280542
185	0xbd9874c1	-0.07444144
186	0x3dc8e3da	0.09809084
187	0xbda647f1	-0.081191905
188	0x3d8da5e4	0.06916407
189	0x3ef93794	0.48675215
190	0xbd60dab9	-0.05489609
191	0xbd52b6aa	-0.051443733
192	0x3d5914f7	0.05299851
193	0xbda57543	-0.080790065
194	0x3c386561	0.011254639
195	0x3e278423	0.16359
196	0xbdf72a8b	-0.12068661
197	0x3cde6f54	0.027152695
198	0x3cbb0b10	0.022832423
199	0x3c8fbe8d	0.017546916
200	0x3e5c5d47	0.21519957
201	0xbd91565d	-0.070965506
202	0xbcc91dca	-0.024550337
203	0x3d2891fc	0.041154847
204	0x3c0ba38b	0.008522878
205	0xbc17a39f	-0.009255319
206	0x3d8d048b	0.06885632
207	0x3cae04f7	0.021242602
208	0xbd6703b3	-0.056400012
209	0x3db305df	0.08741354
210	0x3d38019d	0.044923414
211	0xbd1e4624	-0.03864111
212	0xbb94ed0e	-0.0045448607
213	0x3d2d9a6b	0.042383593
214	0xbd23151e	-0.03981506
215	0x3d527e10	0.051389754
216	0x3e988a0d	0.29792824
217	0x3e13724c	0.1439907
218	0xbc94a77e	-0.018146273
219	0xbd046d40	-0.03233075
220	0xbd11e474	-0.03561826
221	0xbc94580c	-0.01810839
222	0xbc46ea89	-0.0121408785
223	0xbbb78173	-0.0056001483
224	0xbcd97b14	-0.026547946
225	0xbdb453ab	-0.08805021
226	0xbd097f96	-0.03356894
227	0xbc472461	-0.0121546695
228	0xbce044fe	-0.027376648
229	0x3c207bd8	0.009795152
230	0xbcabc7b3	-0.020969247
231	0xbd680fde	-0.056655757
232	0xbd06b838	-0.03289053
233	0xbd9cffb9	-0.07665963
234	0xbcbaef8e	-0.022819307
235	0x3cfe7537	0.031061752
236	0x3dde6ba1	0.10860372
237	0x3a7397a3	0.000929231
238	0xbd70ee7b	-0.058821183
239	0x3c64124b	0.013920377
240	0x3caca7ce	0.02107611
241	0xbc82d7ab	-0.01597198
242	0xbd33bed2	-0.043883152
243	0xbd3a594b	-0.045495313
244	0xbcdd240a	-0.026994724
245	0x3d6a82e6	0.05725374
246	0x3c826281	0.015916111
247	0x3d1e6fb6	0.038680755
248	0x3d85bf99	0.06530685
249	0xbcdd30c5	-0.027000794
250	0xbc976ba5	-0.018483946
251	0x3cbdced1	0.023169907
252	0x3e0efbcd	0.13963242
253	0xbcc46636	-0.02397452
254	0x3d755d87	0.059903648
255	0x3cc56d16	0.024099868

linear3.bias f4 [50]
0	0xbd13e510	-0.036107123
1	0xbdbd1747	-0.092329554
2	0xbd817961	-0.06321979
3	0xbd619993	-0.0550781
4	0xbd41fc50	-0.047359765
5	0xbdb9c7d3	-0.090713166
6	0x3d08ad8c	0.033368632
7	0x3d29509d	0.041336644
8	0x3ba25634	0.004954124
9	0x3d867080	0.065644264
10	0xbbc9d88e	-0.0061598485
11	0xbd07fea8	-0.033201844
12	0xbd8fe69a	-0.07026406
13	0xbb9dbf1f	-0.004814043
14	0x3d35cbc8	0.044383794
15	0xbd9ab35e	-0.07553743
16	0xbdc55196	-0.09634702
17	0x3db1463f	0.086559765
18	0x3d5eda57	0.054407444
19	0x3d6151a3	0.055009495
20	0x3b789e0b	0.0037935998
21	0xbd164031	-0.03668231
22	0xbcc614b2	-0.02417979
23	0xbd5788ab	-0.05262057
24	0xbdb3fb17	-0.08788126
25	0x3d5ac375	0.05340906
26	0xbc903618	-0.017603919
27	0x3d7938d2	0.060845204
28	0x3d954b67	0.072897725
29	0xbc69e458	-0.014275633
30	0x3b84d200	0.0040533543
31	0xbd9129fe	-0.070880875
32	0xbd6dce29	-0.058057938
33	0xbdd2b7b0	-0.10288942
34	0xbda428f1	-0.080156215
35	0xbc3d709c	-0.011562493
36	0xbd80a0d1	-0.06280673
37	0xbd387f7b	-0.04504345
38	0x3d72ca5c	0.059275016
39	0xbd937e05	-0.07201771
40	0xbacd9ea2	-0.0015687535
41	0x3cd7905b	0.026313951
42	0x3c33a548	0.010964699
43	0xbd55230d	-0.05203538
44	0x3ce69afb	0.028150072
45	0x3c1b238c	0.009468924
46	0xbda2b9d8	-0.07945603
47	0x3bc6ecc7	0.0060707065
48	0xbb67f16f	-0.0035391708
49	0xbbe08ad3	-0.0068524866

bn3.weight f4 [50]
0	0x3fc22c54	1.5169778
1	0x3fbcea64	1.475903
2	0x3fc3101c	1.5239291
3	0x3fbd7ad6	1.4803112
4	0x3fc1ebaf	1.515005
5	0x3fc44591	1.533373
6	0x3fbe1fa2	1.4853404
7	0x3fb9c6cf	1.4513797
8	0x3fb7e36f	1.4366282
9	0x3fbc20c9	1.4697505
10	0x3fb550f6	1.4165332
11	0x3fb32ea2	1.3998606
12	0x3faefd0f	1.3670977
13	0x3fbd0e17	1.4769925
14	0x3fc818b2	1.5632536
15	0x3fbd587d	1.479263
16	0x3fb4fa69	1.4138919
17	0x3fb98624	1.4494061
18	0x3fafd913	1.3738121
19	0x3fb821ba	1.4385293
20	0x3fc3f43a	1.5308907
21	0x3fb549c9	1.4163142
22	0x3fb7bb6c	1.4354072
23	0x3fb26a43	1.3938679
24	0x3fc2d188	1.5220194
25	0x3fbf59d5	1.494929
26	0x3fb9212d	1.446325
27	0x3fb377d7	1.4020947
28	0x3fc72e11	1.5560933
29	0x3fc16e0a	1.5111706
30	0x3fb726db	1.4308733
31	0x3fc785d9	1.5587722
32	0x3fc44602	1.5333865
33	0x3fbded3d	1.4838024
34	0x3fb4cf53	1.412577
35	0x3fbedd4b	1.4911283
36	0x3fc5420e	1.5410783
37	0x3fbed003	1.490723
38	0x3fba74ae	1.4566858
39	0x3fb52cd3	1.4154304
40	0x3fc1197a	1.50859
41	0x3fb3aa6f	1.4036387
42	0x3fae9c14	1.3641381
43	0x3fb8895d	1.441692
44	0x3fb14fc3	1.3852466
45	0x3fba8cd1	1.4574224
46	0x3fb09f70	1.3798656
47	0x3fb25516	1.3932216
48	0x3fc1aca7	1.5130814
49	0x3fbabef4	1.4589524

bn3.bias f4 [50]
0	0x3ef3668c	0.47539175
1	0x3ee4c349	0.4468024
2	0x3ede36b9	0.43401125
3	0x3ee22df1	0.44175676
4	0x3efbf630	0.49211264
5	0x3ee75f6b	0.45189986
6	0x3ec53730	0.38518667
7	0x3ee2ceba	0.44298345
8	0x3edb4b6b	0.42830977
9	0x3f008f9d	0.50219136
10	0x3f0d2d32	0.5514709
11	0x3ee2671e	0.44219297
12	0x3f053040	0.5202675
13	0x3f02074d	0.5079239
14	0x3f0a8312	0.5410625
15	0x3eb3f411	0.35147145
16	0x3ecbe9f4	0.3982693
17	0x3ef11ea4	0.4709369
18	0x3ee90465	0.45511165
19	0x3ef06abc	0.46956432
20	0x3efe3210	0.4964757
21	0x3ec9c77e	0.39410013
22	0x3ed13312	0.40859276
23	0x3f0715a6	0.5276741
24	0x3ee76156	0.4519145
25	0x3f040039	0.5156284
26	0x3ee9c685	0.4565927
27	0x3eeb55ba	0.45963842
28	0x3ebf514c	0.37366712
29	0x3ebf3b35	0.3734986
30	0x3f0a97d8	0.54137945
31	0x3f016e40	0.50558853
32	0x3f00db42	0.5033456
33	0x3ef077d2	0.46966416
34	0x3f01004c	0.5039108
35	0x3eecc22a	0.46241885
36	0x3ef2d7f5	0.47430387
37	0x3f013441	0.5047036
38	0x3edaf3a3	0.42764005
39	0x3ebf701d	0.37390223
40	0x3edf1830	0.4357314
41	0x3efe825e	0.49708837
42	0x3ed1cdbf	0.40977284
43	0x3ee3b02d	0.4447035
44	0x3ee751f5	0.45179716
45	0x3eda36cd	0.42619935
46	0x3ed30d66	0.4122116
47	0x3ec24291	0.3794141
48	0x3f121531	0.57063586
49	0x3ec84b5d	0.39119998

bn3.running_mean f4 [50]
0	0xbdda43cc	-0.106574625
1	0x3f2cc3af	0.6748609
2	0x3ea03696	0.31291646
3	0x3d2a3ed2	0.041563816
4	0xbe5678bf	-0.20944498
5	0x3ee8343b	0.4535235
6	0x3e8aba56	0.27095288
7	0x3ec07620	0.37590122
8	0x3e968e92	0.29405648
9	0x3efa3a76	0.48872727
10	0x3e1c238a	0.15247932
11	0x3f206b6f	0.6266393
12	0x3db4ade0	0.088222265
13	0x3e64c2ff	0.2234001
14	0x3e874a29	0.26423767
15	0x3e97e637	0.29667827
16	0xbd88b9a4	-0.06676033
17	0x3e9f55f0	0.31120253
18	0x3e61562e	0.22005531
19	0x3ecf9368	0.4054215
20	0x3e1aa128	0.15100539
21	0xbe6513bc	-0.2237081
22	0x3e21f553	0.1581624
23	0x3e473acb	0.19456021
24	0x3da4e780	0.080519676
25	0x3efcc367	0.4936783
26	0x3d469ce8	0.04848948
27	0x3ec9b876	0.39398545
28	0x3f2d7b92	0.6776668
29	0x3e2d070f	0.16897224
30	0x3e159287	0.14606677
31	0x3ec8218d	0.39088097
32	0x3cf01dcd	0.029311085
33	0xbda79532	-0.081827536
34	0x3e397791	0.18112017
35	0x3c2fe6e1	0.010736198
36	0x3f1bcf02	0.60862744
37	0xbdb727d2	-0.08943142
38	0x3ed9d842	0.42547804
39	0x3ee8eb23	0.45491895
40	0x3e1f4a99	0.155558
41	0x3e2e7629	0.17037262
42	0x3dc2b1b9	0.09506554
43	0x3e2cf73d	0.16891189
44	0x3e79f138	0.24408424
45	0x3ea992e2	0.33119875
46	0x3e481c9e	0.19542167
47	0x3ed3ceba	0.41368657
48	0x3eaa00a4	0.33203614
49	0x3cb2223b	0.021744838

bn3.running_var f4 [50]
0	0x3e8598a2	0.26093012
1	0x3f1611f8	0.5862117
2	0x3e9f7173	0.31141242
3	0x3e9c8fb4	0.30578387
4	0x3ee3d0df	0.44495293
5	0x3ebe1b04	0.37129986
6	0x3e9eed25	0.31040302
7	0x3f062acf	0.5240907
8	0x3eae85dd	0.34086505
9	0x3f3406a2	0.7032262
10	0x3e80b774	0.25139964
11	0x3ece7b60	0.40328503
12	0x3e86f75f	0.26360604
13	0x3ed2b787	0.41155645
14	0x3ea62ce7	0.32456133
15	0x3e88ad8a	0.266949
16	0x3eb1728c	0.34657705
17	0x3e76451d	0.24049802
18	0x3ec7e9e7	0.3904564
19	0x3e58e84f	0.21182369
20	0x3eaefd5d	0.34177676
21	0x3edf9940	0.43671608
22	0x3efb2bb6	0.49056786
23	0x3e8663b1	0.26247934
24	0x3e719e07	0.23595439
25	0x3ebfb020	0.3743906
26	0x3f11a572	0.56893075
27	0x3e965236	0.29359597
28	0x3eb716bc	0.35759532
29	0x3e2b5f41	0.16735555
30	0x3f0b179f	0.5433292
31	0x3ec74ec5	0.38927284
32	0x3ed5cc5e	0.41757482
33	0x3ecc1d73	0.39866218
34	0x3ec5e8fc	0.38654315
35	0x3ed084c3	0.4072629
36	0x3ef2f98a	0.47456008
37	0x3eb6333b	0.3558596
38	0x3e93d761	0.2887526
39	0x3f2139ff	0.6297912
40	0x3e95b75f	0.29241464
41	0x3ecde161	0.40211013
42	0x3f194550	0.5987139
43	0x3e4bde05	0.19908912
44	0x3eb40d12	0.35166222
45	0x3eb0de14	0.34544432
46	0x3ed0ea83	0.40803918
47	0x3ebb712a	0.36609775
48	0x3ef2324d	0.47304
49	0x3e5c81ee	0.21533939
