artifacts/Physics/260_walkerPhysics.pt (torch, 59615 bytes, 20 tensors)

linear1.weight f4 [50, 24]
00000000: 1738 3dbe 17be 38be b10c 963d 0934 1ebd
00000010: a83b 523d 7fff 0a3e f767 ddbd a4d2 903d
00000020: af38 cfbc ff6b 99bd 8702 123d 6b52 033e
00000030: 48ee 8c3c 85b4 f03c 9918 bc3e e7d8 ac3e
00000040: 7288 a3be 869e 4ebe 7536 ed3d a092 99bd
00000050: f340 ebbd 45b3 503d d231 85bd ab29 543d
00000060: ed7f ff3c 7779 f4bc 4e13 fabc b54b 5f3d
00000070: 48bc e53b 52c8 e23d eff8 47bd 644b 20bd
00000080: 1d15 da3c c694 063e 87d1 c63d be5b 923e
00000090: e573 3dbe bc70 35be 7ed2 87bc 71b0 a4be
000000a0: 56b7 473e 14a5 d13c f4ad e3bd 4fa7 2cbe
000000b0: bbcb f1bd e4fa 163e d6ea ecbb 93b3 c63d
000000c0: e4f1 acbc 7413 82be 6fc9 5bbe 5f02 03be
000000d0: 38d7 a4bd 6263 66be 5d4d 9b3e 34d9 d03d
000000e0: ec93 f1bb c45a 6bbe dc85 013e 81dc a9bd
000000f0: 3036 90be ab71 06be 87b2 27be 18c4 8e3d
00000100: 2042 05be 907b df3c 1784 75be b600 ba3c
00000110: 115b 473e ed00 1cbc 983b b13c fb6b 3dbe
00000120: 614c a43d 74c3 de3c 8f6c 993e b147 6abe
00000130: ccd6 debd 15ce f0be 9618 a13d 0633 c33d
00000140: 0d42 623a bbe2 213d ceb3 c5bd 4cbe 2dbe
00000150: 2633 e83d d0b0 2d3e 4c27 adbd 9098 e63d
00000160: 2038 123e 1c8c 413e 8c3c fc3c 0b87 9ebd
00000170: a3d6 3c3d 3789 18be 73df 39be e86d 8b3d
00000180: 40df 10bf ac01 3b3e 8fbe ea3d 8a48 dd3d
00000190: c6a6 553d 72e2 31be c28a a73d 2c73 b23e
000001a0: 4d9f 013e 89be 0dbd bcdf 02be 965f a03e
000001b0: 8262 e13c b21b 083e 3791 cbbc 38b2 b83c
000001c0: 9af5 97be b820 2c3d 72e3 233e 7ded 9abd
000001d0: 10e7 77bd 39c3 ed3d 7d72 873e b51a 15be
000001e0: 70aa 2ebe bbfa 9cbe 38d4 68be c491 e03d
000001f0: e3cb 893e aeea a93e bdbc c43c ccdc aebe
00000200: 3f53 773d c61e cfbd c4ed 9bbd e26d 6abe
00000210: b76e fcbc b350 0e3c 9f60 c6bd 47d6 79bc
00000220: e286 29bd 1091 af3b d25b d8ba 9eeb 13bb
00000230: 31a9 93b9 9767 563a da40 8bba ecc7 70b9
00000240: 0689 8b3e 2ff1 a1bc 0791 41bd cf3c b13d
00000250: f569 94bd 3a14 3dbe 821e fd3d 0c01 2abd
00000260: 1560 afbd 88df a03e 02c4 26bd 7205 9abd
00000270: 4a5c cf3d e915 103e cd6d 24be 9d13 933e
00000280: cfdd 31be 762e efbd 1b5f 05be 87ca 653b
00000290: 83c3 82bd 6d54 103e 91ab 013e a9a0 a13d
000002a0: 593e 97bd a1f7 e13e ee89 a73d 4fd6 cdbd
000002b0: b593 14be 4e16 d8bd 7ed8 ad3d e5b6 193e
000002c0: 45f8 65bd 4997 393e b76d edbd 134d d0bd
000002d0: 6369 993e cb2f b23e e536 4bbe 60d8 a53d
000002e0: 1214 6a3c 4e34 67be d6b0 adba 0e25 fabd
000002f0: aa55 aa3d fbef bdbb 2e54 163e 75b6 9d3d
00000300: 505f fcbe c152 71be 0020 843d fd94 e1bd
00000310: 6736 67bb e01a c9bd 7098 933d 2bb9 8d3c
00000320: fbe6 ba3c a5b8 8cbd 68d7 1b3c b55c 8ebc
00000330: 42e1 e33d 4946 b33d afd3 403d 8d2d 4abe
00000340: 0ec7 05be cf06 5ebe 5065 03bd 3e80 983d
00000350: d874 4a3d e8a5 06bc 8a62 0bbe d0e2 ad3d
00000360: b089 703f bdf6 f53d e3e9 36bc db28 ed3e
00000370: 4656 06bb 7e9d 003e 4e20 aabd 6d48 6fbd
00000380: acf8 4e3d 3c19 123e a5f7 86bc f52b 603e
00000390: 8398 2abe 08e6 aabe 1881 903d b650 b03e
000003a0: 0236 783e 3666 b03e 5e0e af3d 22d2 e0bd
000003b0: 776d aabd de22 6c3a 0f63 623e 5d64 15be
000003c0: 0ddd 4f3e d149 b9bd 4cc9 43be 77a1 e63d
000003d0: 2b14 2d3c 19b0 9a3d efd6 9bbb d223 3abc
000003e0: f6cd 123d f6da 8abd 97e0 abbd 6119 c0bd
000003f0: 7ab4 8bbc 2983 bf3c 4bec 96bc 4538 2e3b
-0.18478428 -0.18041264 0.073266394 -0.038623843 0.051326424 0.13574027 -0.10810845 0.070714265
-0.025295584 -0.07491302 0.03564694 0.12824409 0.017203465 0.029382953 0.36737517 0.33759233
-0.31940037 -0.2017766 0.115826525 -0.074986696 -0.114869975 0.050952215 -0.06503643 0.05179755
0.03118893 -0.029843075 -0.030526783 0.05451556 0.0070109703 0.11073364 -0.048821386 -0.039134398
0.026621396 0.1314269 0.09707933 0.2858562 -0.18501242 -0.17718786 -0.016579863 -0.32165864
0.19503531 0.02559141 -0.11117163 -0.16860698 -0.11806437 0.14744145 -0.007230143 0.0970222
-0.021111436 -0.25405467 -0.2146356 -0.12793873 -0.08048862 -0.22498849 0.3033246 0.10197678
-0.00737237 -0.22983843 0.1264872 -0.08294011 -0.28166342 -0.13129298 -0.16376697 0.06970996
-0.13013506 0.027280599 -0.2397617 0.022705417 0.19468333 -0.009521705 0.021634862 -0.18498223
0.080223806 0.027192809 0.29965636 -0.2287891 -0.10880813 -0.47032228 0.078660175 0.09531216
0.0008631058 0.039522868 -0.09653436 -0.16967124 0.11337881 0.1696198 -0.08454761 0.11259568
0.14279222 0.18901104 0.03079059 -0.07740601 0.04610313 -0.14896093 -0.18151645 0.06808072
-0.5659065 0.18262357 0.114621274 0.10804851 0.052161 -0.17371538 0.08180763 0.34853494
0.12658425 -0.034605537 -0.1278066 0.31322926 0.027512792 0.13291815 -0.024849517 0.022545919
-0.29679567 0.04202339 0.16004732 -0.075648285 -0.060523093 0.116095014 0.26454535 -0.14560969
-0.17057204 -0.30660042 -0.22737205 0.109653026 0.26913366 0.3318686 0.024015779 -0.3415283
0.060382124 -0.101132914 -0.076137096 -0.2289348 -0.030814512 0.008686232 -0.09686398 -0.015248842
-0.0413884 0.005357869 -0.0016506857 -0.0022570859 -0.00028164082 0.0008178888 -0.0010624186 -0.0002296266
0.27252978 -0.019768326 -0.04725745 0.086541764 -0.07246772 -0.18464747 0.123593345 -0.041504905
-0.08563248 0.3142054 -0.04071427 -0.0752057 0.101250246 0.14070858 -0.1605751 0.287259
-0.1736977 -0.116787836 -0.13024561 0.0035063343 -0.06384947 0.14094706 0.12663104 0.078919716
-0.07384939 0.44134238 0.08180605 -0.10050642 -0.14509471 -0.10551129 0.08488558 0.15011175
-0.05614497 0.18124117 -0.11593192 -0.10170951 0.29963216 0.34802088 -0.1984516 0.08097911
0.014287012 -0.22578546 -0.0013251554 -0.12214099 0.083171204 -0.00579643 0.1468055 0.077008165
-0.49291468 -0.23566724 0.06451416 -0.110147454 -0.003528023 -0.09819579 0.072068095 0.017300209
0.022815218 -0.06871156 0.009511806 -0.01737819 0.11126949 0.0875364 0.047076877 -0.19743939
-0.13064215 -0.21682285 -0.03207904 0.07446335 0.049427837 -0.008218266 -0.13611808 0.08490527
0.93960094 0.12009952 -0.011164161 0.46320233 -0.00204982 0.12560079 -0.08306943 -0.05841868
0.05053012 0.14267439 -0.016475508 0.21891768 -0.16659741 -0.33378625 0.07055873 0.34436578
0.24239352 0.3445298 0.08547662 -0.1097758 -0.0832166 0.0009007881 0.221081 -0.14589067
0.20299168 -0.090472825 -0.19119757 0.11261266 0.01056389 0.07553119 -0.0047558467 -0.011361079
0.03584095 -0.06780045 -0.083924465 -0.09379841 -0.017053831 0.023377972 -0.01842322 0.0026583832

linear1.bias f4 [50]
00000000: 4e20 3a3e 1fd9 00be ffba c9bd 35fd 0abe
00000010: 743a 893c e8fa 423e a8b4 043e bc8d cd3d
00000020: 0545 dfbb b0b5 483d eb71 293e d19c 15be
00000030: 06d1 8e3d 08f6 41be 1778 883d a063 d1bd
00000040: 3aff 283e c663 163d 818c 183e 6cd5 df3d
00000050: ab77 c4bd 03e1 4b3e 6102 5c3d a278 01be
00000060: 8708 6fbd 1f99 023c bf60 963d 3b24 c83d
00000070: 77e4 b3bd 0646 b8bc 63c2 10bd c89d c33d
00000080: 7d6e febd d96c edbd 6c13 98bd 4cec 433e
00000090: b1d5 4bbe 1547 263e 0ba2 4b3e 4671 52bd
000000a0: 0e58 2fbd 3778 02be 95ae b73c 06c3 04be
000000b0: a5c3 a93d fac5 dcbd 3344 1f3e dcbf 0abe
000000c0: ad82 22bd 1635 fdbd
0.18176386 -0.12582825 -0.0985012 -0.13573153 0.016751505 0.19041026 0.1295954 0.10036799
-0.0068136477 0.049001396 0.16547363 -0.14610602 0.06973462 -0.1894151 0.0666353 -0.1022408
0.16503611 0.036716245 0.14897348 0.10929379 -0.09593137 0.19910054 0.053713206 -0.12643674
-0.05835774 0.007971077 0.073426716 0.097725354 -0.087838106 -0.022494327 -0.03534163 0.09551579
-0.12423418 -0.11593027 -0.074255794 0.19133109 -0.19905736 0.16238053 0.19886033 -0.051377557
-0.042808585 -0.12741171 0.022422114 -0.1296502 0.08289269 -0.107799485 0.1555336 -0.13549751
-0.039675403 -0.12363641

bn1.weight f4 [50]
00000000: 927d 8a3f fcf3 8a3f b0e5 5d3f 6de2 7d3f
00000010: 7a9c 7b3f 4d8b 6e3f c4b1 663f f57f 563f
00000020: ec4e 893f 961b 7b3f 59db 813f 839f 7c3f
00000030: d09e 743f 6abe 3e3f 672a 823f 724b 8b3f
00000040: dd71 7e3f 0063 7f3f 2327 843f 6d14 863f
00000050: 0823 8e3f ebe1 873f d6cd 8a3f d13d 7c3f
00000060: 0cba 713f c692 8b3f a1f0 813f 6397 833f
00000070: b794 793f cf8d 153f f133 0a3f 0814 813f
00000080: ce17 7a3f 3455 7b3f 4c3f 813f f723 6b3f
00000090: d02e 863f 16a7 8d3f a3fa 563f 93b0 5b3f
000000a0: 3909 853f 8a23 833f 7865 693f 8401 343f
000000b0: cefb 6e3f 67ab 783f 432d 853f d82d 853f
000000c0: fa64 803f 93ab 803f
1.0819571 1.0855708 0.866786 0.99173623 0.9828564 0.93181306 0.90115 0.83788997
1.072721 0.9808897 1.0145065 0.98680896 0.9555483 0.745093 1.016919 1.0882399
0.9939249 0.99760437 1.0324444 1.0474983 1.1104441 1.061582 1.0844066 0.98531824
0.9442451 1.0904167 1.0151559 1.0280575 0.97492546 0.5841951 0.53985506 1.0084238
0.97692573 0.98176885 1.0097442 0.91851753 1.0483036 1.1066616 0.8397619 0.85816306
1.039344 1.0245221 0.91170454 0.7031481 0.93352973 0.9713654 1.0404438 1.0404615
1.0030816 1.005236

bn1.bias f4 [50]
00000000: 4492 083d 5c11 6a3d 68c0 2b3e 188a 6f3d
00000010: 9c0f f13c 34ae 4f3d 200b 47bd 5abb 353e
00000020: f8cc cebd 13ba c33d bb76 05be 5c2e 88bb
00000030: 7454 163c 1bf1 4e3e 9f93 b5bc dc82 31bd
00000040: f96a 71bc 5433 80bd 7a62 933d 2de8 053d
00000050: f1c6 3e3e e82f 163e c38c 2e3d 69a5 b93d
00000060: 3044 b03c 2f04 d6bd 125b 1dbe ebb7 c8bc
00000070: 4b90 b7bd 68f2 893f 15d8 c73f c0cd 233e
00000080: 2e0f bd3d 492d b1bc d15a 78bd 5cb6 7b3c
00000090: b44f 4cbd 49d8 5ebc 6231 fc3d 0c53 163c
000000a0: 0388 27bc 6526 cbbc 02f1 873e 30f5 bb3e
000000b0: 794b 95bc 8127 c43d 7df9 0d3d a6d3 e73d
000000c0: 6bab 8c3c c782 7b3c
0.033342615 0.05714546 0.16772616 0.058481306 0.029426388 0.050703242 -0.048594594 0.1774725
-0.100976884 0.09556975 -0.13033573 -0.004155917 0.009175409 0.20209162 -0.022165118 -0.043337688
-0.014734977 -0.0625979 0.07196517 0.032692123 0.18630578 0.14666712 0.04261471 0.090647526
0.02151689 -0.10450017 -0.15366772 -0.024501761 -0.089630686 1.0777102 1.5612818 0.15996456
0.09231411 -0.021628039 -0.060633484 0.015363302 -0.0498807 -0.013601371 0.123141065 0.009175073
-0.010225299 -0.024798581 0.26551062 0.367105 -0.018224465 0.09577847 0.03466176 0.113196656
0.017171582 0.015351004

bn1.running_mean f4 [50]
00000000: f80b 803e a1e6 b8bd 33bb 4abe 02ce 7bbe
00000010: 1e67 733d 2bb4 653e cf26 563e 4719 033e
00000020: d17f ba3c 30d7 113d 90be 1c3e eaa6 0cbe
00000030: 1c63 0c3d 8e5d 64bd f5a5 443e 5548 f4bd
00000040: 18f8 673c a977 343e aedf e83d 8372 a3bc
00000050: 986a f43c 2a8d 603e 9da6 e7bd c586 30be
00000060: 7b2c 64be d1e2 ff3d 1ff5 f53d 9b54 753d
00000070: 1883 75bd c1f5 9f3b cf50 e8be 2ec6 683d
00000080: 237b 6bbe db89 52bd 2750 c63c e725 8f3e
00000090: 3a76 26be 1154 253e 3aac 703e c8cc b8bd
000000a0: 9929 dfbc 2430 4dbe 882c b8bb 8824 67bd
000000b0: 9f19 913e 61bb 10be 594f ad3e 4151 34be
000000c0: a8e0 7dbd 32b0 0fbe
0.2500913 -0.09028364 -0.19797973 -0.24590304 0.059424512 0.2243201 0.20913242 0.12802611
0.022766026 0.03560561 0.15307069 -0.13735548 0.034274206 -0.055753283 0.19203933 -0.11927859
0.014158271 0.17623772 0.113707885 -0.019952064 0.029835984 0.2192885 -0.11311076 -0.1723891
-0.22282593 0.12494434 0.12009644 0.05989514 -0.059939474 0.004881591 -0.45374152 0.056829624
-0.22996192 -0.051401 0.024208141 0.27958605 -0.16256037 0.1614535 0.23503199 -0.09023434
-0.027241515 -0.20037895 -0.005620543 -0.056431323 0.2833986 -0.1413398 0.338496 -0.17609121
-0.061981827 -0.14032057

bn1.running_var f4 [50]
00000000: 1c56 4e40 8d7d 6540 0a5e 3f41 5fe2 0040
00000010: d009 f640 c91b bb3e 6c1a e43f ccc5 6840
00000020: 07b7 3640 6e68 0441 8f1b 6540 dd7b d23f
00000030: 7f56 e33f f1ba 0241 0693 8b40 b86a 8b40
00000040: 14d8 cd40 8e3c 8040 4145 6540 5dea b740
00000050: 6007 103f 4580 b040 32d0 2b41 60c8 1640
00000060: 9a5e 0140 4dae f840 99b0 d23f 5171 d840
00000070: 9c78 0340 66c4 6f3f 852b 603f 3428 ac3f
00000080: f3a7 e940 80af 1141 bff9 ba3f c222 9140
00000090: 862e 3f40 8b3e 2d40 05c7 6140 ca2e 0140
000000a0: 9b66 2440 e32c 6d40 29b6 2740 09dc 2f40
000000b0: 3635 3d40 f146 7540 6744 3641 d214 9740
000000c0: 5818 5e40 7a6b 4f40
3.2240057 3.585788 11.960459 2.0138166 7.688698 0.36544636 1.7820563 3.6370726
2.854921 8.275496 3.579807 1.644405 1.7760772 8.17064 4.361697 4.356777
6.4326267 4.007392 3.582352 5.747359 0.56261253 5.515658 10.738329 2.35598
2.021399 7.771277 1.6460143 6.7638326 2.0542364 0.93659055 0.87566406 1.3449769
7.3017516 9.105347 1.4607466 4.535493 2.9872146 2.7069423 3.5277722 2.0184808
2.5687625 3.7058647 2.6204932 2.7478049 2.9563727 3.832455 11.3917 4.7212915
3.4702358 3.2409348

linear2.weight f4 [100, 50]
00000000: 40b6 8fbc 2057 75bd 086f a5bb ff66 6b3d
00000010: 63a4 cfbd ce48 d7bb 9a25 983c b1f7 3d3c
00000020: 1bac ecbc c600 04bc a18a df3d ebe2 f5bd
00000030: b3d3 f63d 03ef 3f3c e397 14be 1458 443d
00000040: fb99 adbc 8544 75bc eaef 103d d75c 003e
00000050: efcf 89bd dfd6 adbd 4e28 27bc 50d6 6fbc
00000060: ad08 f9bc e65f 8bbd 0017 3c3e d019 b63d
00000070: 3094 64bd 92f8 25ba 2a92 8a3d 1f7f 3abe
00000080: 24ce b23d f8a0 5f3c ece1 53bd e244 31bd
00000090: 3da9 0cbd af6f 0cbe 18a1 89bc 426f 513d
000000a0: bc47 993d e737 d73c 073d 63bc dee1 31bc
000000b0: e256 f73c 4b1a 8d3d 60d3 633c e384 413d
000000c0: 0179 1f3e eb2a 9fbd 8cff b5bd 34c8 dd3d
000000d0: 5cc0 a73d 3429 613d 7d63 193d 0c88 d03d
000000e0: 4a4b 483d c859 92bd c137 cabd e36f e83d
000000f0: 8cb4 82bd 6544 653d 4e2b 3fbd bb74 fe3d
00000100: 2aec 1cbd 15f7 28be 04d5 a6bc 5cb7 20bd
00000110: 1ad7 b1bd c72b 943c 2f54 ba3c 429a df3d
00000120: 4acc 0dbc 8c6a 0b3d b91b 0e3d 4d57 38bb
00000130: b549 c7bd 4ddb 67bc dc0b a9bd 6cfe 2d3e
00000140: 28d7 e2bc ca8e d63d 982b 293d bf4d ee3a
00000150: 9250 55bd 4b29 adbd 6151 f33d 1ccb 94bd
00000160: 6d4b 23bd 4091 7e3e 3ac2 1cbd eab9 b73d
00000170: 0c14 48be ab59 d4bd a0c3 11bd 6890 fc3d
00000180: 1679 40bd ea80 d53d 72e4 4a3c 7b50 203d
00000190: f661 413e afb3 08bc 9dd7 55bc badc cd3c
000001a0: ff89 883d bd55 483e c0f7 973c 6157 2c3d
000001b0: 41be 4ebd 634d f43d f9e6 3f3c 0e3e d53d
000001c0: a954 d6bc 5adf 8ebd 8f77 8b3d 0b12 b6bd
000001d0: 1042 5dbc bcaa 28be 2385 2ebd dd09 523d
000001e0: bbd7 9a3d c6e4 abbd 541e 4b3e 3947 e03c
000001f0: 7b36 08bd 086a b13d 9780 00bd cc54 01bd
00000200: 285c 38be c57f 39bb ddba 8ebd d1d1 073e
00000210: 44c5 e43d 8401 16be fda3 a0bd 7b6a 7fbd
00000220: 8574 a43d 3e32 df3a 2ecf 983d b73c 383e
00000230: 42f3 ccbd 1d8a 33be 6b88 8e3d 6969 e03c
00000240: 653e 9e3d a783 1d3d ff37 e6bc 7061 cabd
00000250: 3556 a4bc 9649 0f3d fada 16be b3e5 3abe
00000260: 88ef a23d a183 85bc 1e2b 4e3d bb90 a23d
00000270: 1bf6 fabd 85ed ee3c 6702 6b3d 8f48 0cbd
00000280: 9a47 1bbd dfe1 ca3d 2c30 efbd e3ba d6bc
00000290: f4f8 653d 846e 413e 46f7 023e b17f 20bd
000002a0: cdda b53d 8bf2 c6bd df89 0f3e 60fd 3d3d
000002b0: 3028 b1bd 3300 d53d 69dd 0cbd 812e 76be
000002c0: 5738 8b3c daba 113d 425f 48bd 833d 1e3e
000002d0: e1b6 fa3c 6cc3 1fbd abcf e63e de99 6a3c
000002e0: a520 623d 6176 173d 287c 9d3c a5a9 7c3d
000002f0: a955 5fbc 3511 6d3d a4f2 6b3d 56bc e53d
00000300: 5fb0 62bd 9645 03bd 8f7d 1d3d 1e4d 093c
00000310: d184 043d 800a 87bd dd2b 22bd c2ef 803d
00000320: 790e babd c702 e9bd ecf9 e8bb 7c8c 4d3e
00000330: fd64 113e 9a37 653d 9aab 35bd 7a25 8c3d
00000340: 0c64 9bbc f122 3bbd 09ce aebd 7d0c eebd
00000350: 3875 a73d c544 353d 5dee 17be d120 2e3d
00000360: 269f 0abc b712 403c 5aa9 b73d 9ea5 cd3d
00000370: d3de a1bc ca78 883d 48e9 b5bd 96be 893d
00000380: 2569 ffbc 09ad 1e3e 91d0 c5bc e14a d5bd
00000390: b592 0cbd c1af 28bd 7767 2ebc d7ca 903b
000003a0: 3a02 e0bd 1789 c93d c557 35be 7f39 463e
000003b0: 1214 bdbd 36a4 a7bc c979 403d 2b81 f8bd
000003c0: 7e94 d8bc 8533 d73d 6c2b 42bc af78 4e3c
000003d0: a091 6e3c 6c91 a5bc 7dee c43c a3c9 1cbc
000003e0: be14 483c 4f1e 5cbc 4ea3 e93d cc70 c23d
000003f0: b381 823d 68be 713d a95d aebd 8bfc 343e
-0.017542958 -0.059897542 -0.0050486363 0.05747127 -0.10138776 -0.0065699583 0.018572617 0.011594699
-0.02889066 -0.008056825 0.10915113 -0.12006172 0.12052097 0.0117147 -0.14511065 0.04793556
-0.021191588 -0.01496995 0.03538505 0.12535416 -0.06729113 -0.08488249 -0.0102024805 -0.014638498
-0.030399645 -0.068054006 0.18368149 0.08891642 -0.055805385 -0.00063312904 0.0676616 -0.18212555
0.087307245 0.013649218 -0.051729128 -0.043278582 -0.034341086 -0.13714479 -0.016800448 0.051131494
0.07484385 0.026271774 -0.0138695305 -0.010857074 0.030192796 0.068897806 0.013905376 0.04724587
0.15573503 -0.07771858 -0.08886632 0.10829201 0.081909865 0.054970935 0.037448395 0.10182199
0.048899926 -0.07146031 -0.098739155 0.11349466 -0.06382093 0.05597343 -0.046672158 0.12424608
-0.03831116 -0.16500504 -0.020365246 -0.039237365 -0.086836055 0.01808728 0.02274522 0.10918094
-0.008654663 0.034037158 0.034694407 -0.0028128207 -0.097308554 -0.0141514065 -0.08254215 0.16991585
-0.027690485 0.104764536 0.04130134 0.0018181129 -0.05207879 -0.08455142 0.11880756 -0.072653025
-0.039866854 0.24860096 -0.038271166 0.08971007 -0.19538897 -0.10368665 -0.035586953 0.12332231
-0.046990477 0.10424979 0.012383567 0.039139252 0.18885025 -0.008343621 -0.0130518945 0.025129665
0.06666946 0.19563957 0.018550754 0.04207552 -0.05047441 0.11928823 0.011712783 0.104122266
-0.026163416 -0.06976195 0.06809913 -0.0889016 -0.01350452 -0.1647138 -0.042607438 0.051278938
0.075606786 -0.083932444 0.19835788 0.027377712 -0.03325508 0.08662802 -0.031372633 -0.03157501
-0.18003905 -0.0028304916 -0.06969235 0.13263632 0.11170438 -0.14649016 -0.07843778 -0.062357407
0.08030037 0.0017028523 0.074613914 0.17991911 -0.10007335 -0.17533155 0.069596134 0.027394013
0.077267446 0.03845563 -0.028102873 -0.09881866 -0.020060638 0.034982286 -0.1473197 -0.18251686
0.07955843 -0.016298117 0.05033409 0.079377614 -0.12253972 0.029165993 0.057375338 -0.034248885
-0.03791008 0.09906363 -0.1167911 -0.026212161 0.056145623 0.18889815 0.1278964 -0.039184276
0.088796236 -0.0971423 0.14017437 0.046384215 -0.08650243 0.104004286 -0.03439084 -0.24041177
0.016994638 0.035578586 -0.04891897 0.15453152 0.030604782 -0.03900473 0.45080313 0.014318911
0.055206914 0.03697813 0.019224241 0.061685223 -0.013631263 0.057877738 0.057604447 0.11217563
-0.05534398 -0.032048784 0.03844982 0.008380203 0.032353226 -0.065937996 -0.039592613 0.0629573
-0.09084792 -0.11377483 -0.007109871 0.20073122 0.1419868 0.05596123 -0.044353105 0.068430856
-0.018968605 -0.04568762 -0.08535392 -0.11623476 0.081766546 0.044255037 -0.14837022 0.042511765
-0.0084607955 0.011723212 0.08967848 0.100413546 -0.019759571 0.06663664 -0.088823855 0.067258045
-0.031178067 0.15495695 -0.024147304 -0.10414673 -0.0343196 -0.041183237 -0.010644785 0.0044187116
-0.10937925 0.09840601 -0.17709263 0.1935787 -0.09232344 -0.020464044 0.046991143 -0.12134012
-0.026437994 0.105078734 -0.011851173 0.012602015 0.014561087 -0.020210944 0.024039501 -0.009569558
0.012211977 -0.0134349605 0.11408101 0.094941705 0.063723944 0.059019476 -0.08513958 0.17674462

linear2.bias f4 [100]
00000000: 9e12 9dbd 5c16 04bd d052 56bd 1d96 54bc
00000010: b886 023c 2fce f1bd 9859 06bd a283 073e
00000020: d1a0 a6bd c095 9c3d f689 ecbd 9ff0 cdbd
00000030: de53 9a3d bf89 06be a39b 923c eab8 303d
00000040: e73e 093e 2472 07be 3674 ec3d 7b56 023e
00000050: 08ce bf3d 12dd b2bd dca8 673b 1a0b f0bc
00000060: a2da 4cbd e747 823c 3fea ee3b d83f 103e
00000070: d18d b03d c1c4 5bbd 9a41 0c3e 4f30 493c
00000080: f200 bbbd 3260 f83b e2cc d63d 829e dc3a
00000090: 5248 6fbd a87e 8b3c bc57 15bd 2c92 90bd
000000a0: e48c bcbd 89dc ab3d 9372 e6bd 42bb a7bd
000000b0: 272d b23d fe81 053e c785 bdbd 68d3 f0bd
000000c0: 0d42 f1bd 3f24 9b3d 73ce f73d 54d9 99bc
000000d0: 43f4 1bbd c9ef 06be be29 53bd 6b88 0b3e
000000e0: 68ce e33d a6ab a93c c872 fc3d dd51 a63d
000000f0: f98b 03bd 18c5 883c 3265 50bd a9bf 3bbc
00000100: 5d3a 0a3d 4c8c 913b edb3 3f3d 9a40 eb3d
00000110: 6809 4e3c c5f9 233c c808 04bd c0c6 2e3b
00000120: cc35 773d 364d c1bd e688 4c3d 0cbf 2fbc
00000130: be97 50bd f83b 7cbc ae4c c83c 5aae b9bd
00000140: 6278 b7bd d2e2 8dbc e4f0 0ebe 9a98 b93d
00000150: 50b1 e5bd 73d7 c0bd 827f 70bd cee9 a73d
00000160: d600 603c cfc8 993d 855c e5bd 867a b5bd
00000170: 99a3 0cbe ad97 11bc 51be 5a3c 6067 6ebd
00000180: 0b92 8c3d 1127 663d bd02 f23c eec2 073e
-0.076695666 -0.032247886 -0.05232507 -0.012975243 0.00796669 -0.118069045 -0.032800287 0.13233808
-0.08136142 0.0764575 -0.115497515 -0.100556605 0.07535528 -0.13138483 0.017896479 0.043145098
0.13402902 -0.13227135 0.11545603 0.12728302 0.09365469 -0.08733572 0.003534845 -0.029302169
-0.050013192 0.015903426 0.007291108 0.14086854 0.08620799 -0.053654436 0.136969 0.012279584
-0.0913104 0.0075798267 0.10488297 0.0016831907 -0.05841858 0.017028168 -0.036460623 -0.0705913
-0.0920656 0.08391673 -0.11252322 -0.081900135 0.087000184 0.1303787 -0.09254032 -0.117590725
-0.11780176 0.07575273 0.12099924 -0.018780388 -0.038074743 -0.13177408 -0.05155348 0.13626258
0.11123353 0.020711731 0.1232658 0.08121083 -0.03211591 0.016695544 -0.050877757 -0.01145927
0.033747066 0.0044417735 0.04680245 0.11486931 0.012575485 0.01000828 -0.032234937 0.0026668757
0.06035404 -0.09438555 0.049935244 -0.0107267015 -0.050925963 -0.015395157 0.024450626 -0.09066458
-0.08958508 -0.01732007 -0.1395908 0.090623096 -0.1121546 -0.09416094 -0.05871535 0.081988916
0.013672074 0.07509004 -0.11199287 -0.0886126 -0.13734283 -0.00888626 0.013351039 -0.058204055
0.06863793 0.0561896 0.029542321 0.13257954

bn2.weight f4 [100]
00000000: bcfb 993f 605e 383f a31d 6e3f fcac 6e3f
00000010: d656 783f 8ea6 6b3f 0602 713f cf31 6f3f
00000020: f5d4 843f b68f 6e3f 990c 843f 2bea 553f
00000030: d262 353f 6804 873f 9a90 5a3f 63cc 803f
00000040: cf3d 7a3f 2630 6d3f 9c31 513f a2c3 843f
00000050: 73ce 793f b692 883f e4ad 6d3f c35c 823f
00000060: b6b6 753f 531a 7e3f 0aaa 723f b033 793f
00000070: 44eb 303f ab0d 793f 0888 753f 17ad 823f
00000080: 9fb4 453f 8061 803f 684b 833f fbb6 803f
00000090: 5fd0 783f 73fe 973f 19b3 833f 71f3 713f
000000a0: e5df 813f 43f2 7f3f ef18 743f ccea 4a3f
000000b0: 1126 613f b2ce 603f 14fb 803f b3e9 6b3f
000000c0: 5f0e 833f 61eb 723f 3c4e 6d3f 95a7 8a3f
000000d0: 854f 413f 5b06 833f 696a 6b3f 9af4 803f
000000e0: 7560 6c3f b829 7b3f 1e0c 863f fce7 603f
000000f0: f733 843f e5f2 813f 9782 813f 7685 813f
00000100: 983a 7e3f a721 863f cf75 673f 1cd8 813f
00000110: b777 623f a7a8 703f 68ea 853f cb32 743f
00000120: 28d0 983f e264 823f 3fae 8b3f 2c77 4d3f
00000130: 1348 943f a8a4 7b3f d709 573f 3b8c 743f
00000140: a6c3 813f 9886 593f fbe9 733f 6493 5b3f
00000150: 8f2c 373f 9ed7 833f 8652 783f d0bd 743f
00000160: 36b9 6f3f 32cf 813f 0fac 783f 7c91 6d3f
00000170: 3c10 6c3f 216d 613f b2cb 853f 0e2c a03f
00000180: 4033 333f c7cb 7f3f 77cc 853f 65e9 803f
1.2029948 0.72019005 0.9301397 0.93232703 0.970075 0.9205102 0.9414371 0.93435377
1.0377489 0.93188035 1.0316344 0.83560437 0.7085391 1.054822 0.85376894 1.0062374
0.9775056 0.92651594 0.8171632 1.0372202 0.9758064 1.0669773 0.9284346 1.0184559
0.9598192 0.9925892 0.9479071 0.97344494 0.69108987 0.9728648 0.9591069 1.0209073
0.7722873 1.0029755 1.0257387 1.0055841 0.9719295 1.1874527 1.0289031 0.9451209
1.0146452 0.9997904 0.95350546 0.7926452 0.8794871 0.8781539 1.0076623 0.9215347
1.0238761 0.9489041 0.926975 1.0832392 0.7551196 1.0236315 0.91959244 1.0074646
0.9233468 0.9811053 1.0472448 0.8785398 1.0328358 1.015225 1.0117978 1.0118854
0.99308157 1.047902 0.90414137 1.0144076 0.8846392 0.94007343 1.046216 0.95390004
1.1938524 1.0187037 1.0912551 0.80259967 1.1584495 0.9829812 0.8399939 0.95526475
1.0137832 0.84971 0.952789 0.85771775 0.71552366 1.0300176 0.9700092 0.9560213
0.93641984 1.0141356 0.9713754 0.92800117 0.9221227 0.8805714 1.0452788 1.2513444
0.70000076 0.99920315 1.0453023 1.0071226

bn2.bias f4 [100]
00000000: e5b7 05be 73c8 a53e c134 043c 1af0 2e3e
00000010: 634c e13d 8a52 2d3e 1bbc 023e ea4d 8c3e
00000020: d53c 433d b464 843d 12b3 243d 0c92 9b3e
00000030: 2eda 293f 065f 273e 8c66 403e 6421 293e
00000040: 8012 aa3e 996e d33d 79e5 033f b7d7 3b3e
00000050: 7fc2 743d 5c60 123e a391 963e a4e6 f13e
00000060: 4948 063f d6c5 453e 140c 0a3f cee8 fb3c
00000070: 2369 433f b624 503d acf3 9f3e 2f6c be3d
00000080: d257 673e d350 8dbe 672e 7b3d 3fc0 243e
00000090: 3179 623e 7487 0cbe a2bd 973b 8a6b cb3d
000000a0: c84a 3f3e e8f8 a93e fda9 813c 806c 453f
000000b0: c427 513e 0cd8 c03d 55a9 943e f324 993e
000000c0: 14fd 6b3e 8004 873e ba2c 6c3e 0dcd 253e
000000d0: 1d10 873e ddbd 82be 429d aa3e 8e75 c03e
000000e0: 9a22 243e dc37 303e 955d 4a3d da38 5f3e
000000f0: 58eb f83a 32e5 6b3c ba08 373e 9bf8 853e
00000100: 43e1 03bd de80 1f3e f1bd be3d c800 533e
00000110: 1eec 453e 0287 073c 70c9 28be aea5 323d
00000120: f6b9 bebb 3d2a 3cbb a673 ca3c 195a e63e
00000130: a49b 373e 2fb6 8e3e 0243 7b3f 684d 693e
00000140: b8dd 053e d1e8 d33e 4710 de3d b52d 2f3e
00000150: acfb fe3e 5fd9 0c3e 361a 6c3e 16b4 acb7
00000160: 470c 193e 9d94 2f3e d827 6e3d 20a3 763c
00000170: 96f9 ae3e 5700 253d c25d a63e 7a7b 413e
00000180: 1c60 643f 8ce1 dd3c 59b7 1f3e 684e ef3d
-0.13058431 0.32379493 0.008069218 0.17083779 0.11000898 0.16926017 0.12767069 0.27403194
0.047665436 0.0646452 0.040209837 0.30384862 0.6634854 0.16344842 0.18789119 0.16516644
0.3321724 0.10323829 0.5152202 0.18344007 0.0597558 0.1429457 0.29407987 0.47246277
0.5245405 0.1931375 0.5392468 0.030750658 0.763323 0.05081626 0.31240594 0.09297978
0.22592095 -0.27600726 0.06132355 0.16088961 0.22116543 -0.13723546 0.0046307603 0.09932621
0.1868087 0.33197713 0.015828127 0.7711868 0.20425326 0.09416208 0.2903544 0.29911003
0.2304576 0.2637062 0.23063937 0.16191502 0.2637948 -0.2553548 0.33323103 0.37589687
0.16028824 0.17208809 0.049405653 0.21799031 0.0018991036 0.014397906 0.17874423 0.26166233
-0.03219725 0.15576503 0.09313572 0.20605767 0.19328353 0.008271934 -0.16483092 0.043615036
-0.005820508 -0.00287117 0.024713349 0.44990614 0.17930466 0.2787337 0.9814912 0.22783434
0.1307286 0.41388562 0.108429484 0.1710728 0.49801385 0.13754795 0.23056874 -2.0587857e-05
0.1494609 0.17146535 0.058143467 0.0150535405 0.34174794 0.040283527 0.32493407 0.18894759
0.8920915 0.027085088 0.15597285 0.11684877

bn2.running_mean f4 [100]
00000000: fe88 1cbd 7583 613e f890 023e 5692 053f
00000010: 06ee 80bc 07c9 0d3d 8fe5 0bbe 8f4f 413d
00000020: a121 a6be 61b5 983e 5ca8 ba3d ea82 e23c
00000030: 89e6 0a3f eedb 86be 6f29 4c3b 6b5e 033e
00000040: ba78 bc3e cc4e 963e e742 0d3f 8574 823e
00000050: 1c25 223d 5ba8 0b3e df30 b73d 28b9 443e
00000060: 0bf7 5f3e 7bcb 5b3e 5422 07be 99ed 053e
00000070: f7a0 6d3e 7690 d2bc 1d6d 903e 31e7 b43d
00000080: ebe0 1f3d a4c4 6dbc c563 503e 45f0 fb3d
00000090: b8e6 94be d7d1 913e 2d11 53be 5c23 b43d
000000a0: dd51 23bd 411c 093e 2894 24be 3c55 7e3e
000000b0: c94d 513e 7931 8e3c 11cf 1e3c f4fe 87be
000000c0: 69da c53d 9056 ca3e 1172 563e 8a63 90be
000000d0: f9c0 833e d042 b7be f561 0f3e 8caa 5b3e
000000e0: 9043 873e 3fbc 5d3e 1752 cdbd ec4c 3e3e
000000f0: e5a1 433c 2ddd a53d 5c9f c53e 07ed 0dbe
00000100: bfa8 f339 cbc4 e23d 3b92 e83d e1fb 523d
00000110: ff2a 89bd 1419 77be 2ec6 23be b9cb 183b
00000120: 5ede 35be 0211 19be 6bde 19be 42a4 6c3e
00000130: 7fdc c8bd c0dd c2bb 64a7 623e e589 b1bd
00000140: 3890 673e 2c12 c53e b5fc 05be 9630 873e
00000150: 6a16 153c 67fa f7bc 913a 203e 2685 0ebb
00000160: 3d89 103e 2b89 3e3e 7ce9 4abe d640 ae3d
00000170: a941 82bd 2632 5f3d 636d 92bc e418 33bd
00000180: 8e5b 593e 4a14 633e 565e b63d d69c cd3d
-0.038216583 0.22022803 0.12750614 0.52176416 -0.015738498 0.034615543 -0.13661788 0.047195014
-0.32447532 0.2982588 0.09114143 0.027650315 0.5425802 -0.26339668 0.0031152626 0.12828986
0.36810857 0.29356992 0.5518021 0.25479522 0.03958617 0.13638441 0.08944868 0.19211257
0.21871583 0.2146434 -0.13196689 0.13078918 0.23205934 -0.02570365 0.28208247 0.08833159
0.039032858 -0.014512215 0.20350559 0.12301687 -0.29082274 0.28480408 -0.20612021 0.08795807
-0.039872993 0.13389684 -0.16072142 0.24837202 0.20439829 0.017357575 0.009692923 -0.265617
0.09660799 0.39519167 0.2094195 -0.28200942 0.25733164 -0.3579316 0.14002211 0.21451777
0.26418734 0.21653841 -0.10025423 0.18584031 0.011940454 0.080988266 0.38598144 -0.1385995
0.00046474297 0.110726915 0.11356016 0.05150974 -0.06697654 -0.2413066 -0.15993568 0.0023314788
-0.17760608 -0.14947894 -0.15026252 0.23109534 -0.09807681 -0.005946845 0.22134167 -0.086688794
0.22613609 0.38490427 -0.13084681 0.26404256 0.009099582 -0.030270768 0.15647341 -0.0021746843
0.14114852 0.18607013 -0.1981563 0.0850846 -0.0636018 0.054491185 -0.017874425 -0.04372491
0.21226332 0.22175708 0.08904712 0.1003968

bn2.running_var f4 [100]
00000000: fcc9 7e3d 6703 3e3d fe83 853e f852 203f
00000010: c4b0 873d a05b 413e fc98 a93d e9c7 de3d
00000020: 3b69 973e e83a 003f 3f47 d43e 3f47 4c3e
00000030: acb7 6d3d 7339 393e 016e 373e 6ae0 5d3e
00000040: e0e1 c13e 5dd2 b23e 2de2 403e 4eda a63e
00000050: b2b6 a63e 009a 6f3d 716e 293e 881c e93d
00000060: 9095 fe3d 99a5 9e3e 1e34 913c 9780 953e
00000070: 31b4 ca3d 6bf5 473e 9009 2c3e fc3b 9d3e
00000080: a6e0 4e3e d9cd 363e 0742 5b3e 73a2 ee3d
00000090: 6466 9d3e 4014 c73c a771 2f3e a90d 513e
000000a0: 3175 a73e 4998 9d3e 2f07 c13e 79e4 cc3d
000000b0: c2b1 923e 4834 fb3d 0508 7a3e 3d3d 183e
000000c0: faff a63e 89ad 483f 0ebe 883e 8679 103e
000000d0: d273 783e 078f cf3d 00db 763e 6741 543e
000000e0: 79c9 463e 5e71 a43e 0edf ad3e d223 863e
000000f0: ac4c bb3d ce32 f13d 50ba ac3e 3ba1 a63e
00000100: 690b f03d a79c 883e 5a44 8e3e ccaf 813e
00000110: 5eec 653d 9525 553e 936f 9b3d feb7 383e
00000120: bd16 ea3d 8b88 da3d 2658 6d3d 48ec 6f3d
00000130: 1cc1 813d 9e66 f03d 42e2 e93c 79c2 e53e
00000140: 658e 0e3e ffd5 953d fb54 e83e 6cb1 123e
00000150: 2971 023d 7d00 8a3e ca47 ab3e 740d 383e
00000160: 699c 163f 3c9d 2c3e de46 1a3e 9c32 2b3e
00000170: b797 283e 5d1b 033f 6f0d 043f 05f4 5c3d
00000180: 42f8 b13c bef2 e93e 79bc ca3e cbed 513e
0.062204346 0.046389963 0.26077265 0.626266 0.06625512 0.18882608 0.082811326 0.108779736
0.29572472 0.50089884 0.41460606 0.19949053 0.05803649 0.18088321 0.17913057 0.21667638
0.3786764 0.3492612 0.18836279 0.32588428 0.3256126 0.058496475 0.16546036 0.11382395
0.124308705 0.30985716 0.017725047 0.2919967 0.0989765 0.19527213 0.16800523 0.30709827
0.20202884 0.17851962 0.21411906 0.116520785 0.3074218 0.024301648 0.17133199 0.20415367
0.32706597 0.30780247 0.37700793 0.10004515 0.28651243 0.12265831 0.24417122 0.1486711
0.3261717 0.78389794 0.267075 0.14108858 0.24262932 0.10134702 0.2410698 0.20728074
0.19412793 0.32117742 0.3395924 0.26199204 0.091454834 0.11777268 0.33735895 0.32544884
0.11720926 0.26682016 0.27786523 0.25329435 0.05613362 0.20815118 0.075896405 0.18038937
0.11430118 0.10670575 0.057945393 0.058574945 0.06335661 0.11738323 0.028550271 0.44874933
0.13921507 0.07316207 0.45377335 0.14325494 0.0318462 0.26953498 0.33453208 0.17973882
0.5883241 0.16856855 0.15066096 0.16718525 0.16464125 0.5121363 0.51583 0.053943653
0.021724824 0.4569301 0.39596918 0.20500867

linear3.weight f4 [50, 100]
00000000: 0631 183d 1536 103d 2ea4 07bd a9a7 ffba
00000010: e013 84bd aa8b 1b3c 59a8 82bb 8e3e 8b3a
00000020: 5e2c 1e3c 5395 e7bc 054c 1b3d 25d6 8c3b
00000030: 47cb 983d b797 dd3b 2652 eabc bb7e a4bd
00000040: 1fd9 083d e0a6 4bbb a515 05bd 64e1 cdbc
00000050: dd69 d93d 2d18 edbb 2ddc 303e 457f fd3b
00000060: 70d5 3dbd aaa8 dabc 0c40 11be 3e88 ac3c
00000070: 9f99 b83b 5271 db3c 8376 b5ba a1d8 43bc
00000080: 734e 083d 34a4 5d3d 7162 afba 200a 1f3c
00000090: f5ab 473d ce0f 28be 3ced 2d3d c9af a1bc
000000a0: 7827 b2bd 0c7b 48bc 6cee 2d3d 824b c3bc
000000b0: 904a a1bc 2b7f 81bc dd68 9bbc b062 e53c
000000c0: 91fa 6e3d fa29 393d f6c2 45bd e705 ddbc
000000d0: 6e1f de3c cb1c 6c3c 996b e53a fb37 2bbd
000000e0: 6d72 67bd 4c0f f63c eb8b 0f3d 8d7a 733c
000000f0: 564a ec3e 4cf5 05bc 364d d1bc 9b35 6f3c
00000100: a8dc a03c 0b0b 83bc fa07 7bbd 630d 68bc
00000110: 7471 5bbd 2182 0dbd 4804 c2b9 4fcc 83bb
00000120: a8a1 a6bd 0291 a13c 9d93 d6bd 53ce b33b
00000130: b5c2 5f3d 3b6b 6d3c 2d5a 593d 2873 173d
00000140: 84b4 0f3d 5c0f b4bc 26b9 f23c c8fc 99bd
00000150: a47b 893b 4b15 5ebc 637c 4fbd c1c9 093c
00000160: 488f 383c 6a74 673d 6f57 513d 96e1 1ebd
00000170: 2bfd 48bd 2c16 4a3d 5a6f e43d 4e52 c6bd
00000180: 9e04 f9bc cfc2 7cbd 69f5 e4bd bf5e fabc
00000190: 444d 9f3d 5da5 433d f694 e93c 6536 f73b
000001a0: 4b9f adbd eda7 89bc 1666 bc3c 4f66 373d
000001b0: cced bb3b db04 9dbd 9009 713d 9bb4 8e3e
000001c0: 3719 85bd 56af 6e3c 1fdd 20bd 642b d43c
000001d0: 9e9a e2bc f2c2 e13c 292d e3bc 61b2 80bd
000001e0: f3c2 85bc 245f 35bd 1b87 4e3c bea8 aa3b
000001f0: 961b 213d ef1f ba3c b38f 023e bc75 983c
00000200: 6419 0cbd 04e1 253d b7d1 1fbd 308b d1bc
00000210: 6c5a 06bc a7e1 a7bd 9e21 8fbd 9fca 693d
00000220: 184a 263d 92d2 56bd 1a5a 7d3c 8872 b9bc
00000230: 83de b3b9 d5ba 843c 4daa d3bb 4443 13bc
00000240: 16d0 66bb 2560 93bc 0a65 ed38 d3d8 f13a
00000250: 9c64 56bc fe57 ce3c 3047 e53c 5ace 2d3c
00000260: fe0e c7bc 4305 f83c 0ddb 9e3d b47a b13d
00000270: 4360 12bc ff99 38bd 0133 ed3c cc3b 9e3c
00000280: e16f 083d d266 963c d5f3 efbc b526 4bbd
00000290: edd3 8c3d 8ec1 183d d547 763d a930 fc3b
000002a0: d971 b93d 14ad 1ebd b209 d23a 616c 53bc
000002b0: abdd b53b 2598 02bd c518 083e 8f74 813d
000002c0: 4af8 263e 541b f7bc 5236 44bd d4e7 7d3d
000002d0: 04f1 603d 0c8d fd3c e705 d2bc 564f c13c
000002e0: 6216 26bd c1b4 84bd b5f1 ca3d 190c a1bd
000002f0: 15db 7b3d d3a4 003f 5ba4 5dbd 7fc7 36bd
00000300: fd01 7e3d 33db aebd aea9 663c 0913 263e
00000310: f192 0dbe 217f de3c d98a e73c c17c 9a3b
00000320: bb66 713e 3f89 6ebd 30bd a1bc 428b fb3c
00000330: 3d4f 223c 648d fdbb b40f 903d 6adb 913c
00000340: c2b8 7abd 1b43 ab3d 9406 2e3d 3f2a f9bc
00000350: e4c3 84bb b7f2 223d dcad 20bd 4ddf 363d
00000360: bf26 a63e 6b4f 1f3e 9d92 0cbc 3fd9 eebc
00000370: 5f99 0dbd f136 b2bc 3615 103b fb36 46bc
00000380: fa7e 2fbd 2280 9fbd 62bf 75bc 884d 0ebc
00000390: d298 d1bc 883b f53b 76b2 0ebd 8ad1 58bd
000003a0: caa3 bdbc 5633 a5bd fc69 80bc 58f1 8f3c
000003b0: c83d c93d 3f9c da3b 2713 7dbd a35c b73c
000003c0: b781 533c 5ebb 73bc 9c3f 2cbd 4d5b 3bbd
000003d0: 604b a4bc cadd 503d eefa 7f3c 41ac 2e3d
000003e0: 5034 703d 2020 96bc 842a 93bc 9f6e 6e3c
000003f0: 8feb 113e 22f6 3fbc 7cd2 833d 041b af3c
0.037156127 0.035207827 -0.03311556 -0.0019504923 -0.06449103 0.009493748 -0.0039873538 0.0010623501
0.009654133 -0.028269446 0.037914295 0.004297989 0.07460647 0.0067624706 -0.028603625 -0.080319844
0.033410188 -0.0031074807 -0.032491345 -0.025131889 0.10615895 -0.007235548 0.1727149 0.007736119
-0.046346128 -0.026691753 -0.14184588 0.02106106 0.0056335474 0.026787434 -0.0013844523 -0.011953504
0.03327794 0.054111674 -0.0013380778 0.009707004 0.048747975 -0.16412279 0.042462572 -0.019737141
-0.08698934 -0.012236368 0.042463705 -0.023839716 -0.019688874 -0.015807709 -0.018970901 0.02800116
0.058344427 0.045206048 -0.048281632 -0.026980354 0.027114596 0.014411162 0.001750338 -0.041801434
-0.05650561 0.030036591 0.035045546 0.014860761 0.46150464 -0.008176159 -0.025549512 0.014600183
0.019636467 -0.015996477 -0.061286904 -0.014163348 -0.053574994 -0.03454793 -0.00037005753 -0.004022158
-0.08136302 0.019722465 -0.10477374 0.0054872422 0.054629046 0.014490898 0.053064514 0.036975056
0.035084262 -0.02197998 0.029629301 -0.07518917 0.0041956473 -0.013554881 -0.050655734 0.008409918
0.01126463 0.056507505 0.051108774 -0.038789354 -0.049069565 0.04933755 0.11154051 -0.09683667
-0.03039771 -0.06170922 -0.11179621 -0.030562757 0.07778409 0.047765125 0.028513413 0.007544326
-0.08477648 -0.016803706 0.022997897 0.044775303 0.0057351347 -0.07666942 0.05884701 0.27872166
-0.0649895 0.0145681705 -0.039273378 0.025899597 -0.027661618 0.027558777 -0.027731495 -0.06284023
-0.01632831 -0.044280186 0.012605454 0.005208104 0.03933295 0.022720305 0.1275013 0.018610828
-0.034203902 0.040497795 -0.03901836 -0.025579065 -0.008200269 -0.08197337 -0.06988834 0.057078
0.040598005 -0.05244691 0.015463376 -0.02263762 -0.00034307325 0.01620237 -0.0064595104 -0.008988205
-0.0035219244 -0.017990181 0.00011319861 0.001845146 -0.013085511 0.025188442 0.027988046 0.01060828
-0.024299141 0.030275946 0.07756624 0.08665982 -0.008934083 -0.045068737 0.028954985 0.019315623
0.03330982 0.018359575 -0.029291073 -0.04959746 0.06876359 0.037293963 0.060127098 0.0076962304
0.09054918 -0.03873928 0.0016024618 -0.0129042575 0.0055501065 -0.031883378 0.13290699 0.0632106
0.16305652 -0.030164398 -0.047903366 0.061988667 0.05491735 0.030951045 -0.02563758 0.0235974
-0.04054869 -0.064797886 0.09909383 -0.078636356 0.06148823 0.502515 -0.05411182 -0.044623848
0.062013615 -0.08537903 0.014078541 0.16218199 -0.13825585 0.02716023 0.02826445 0.004714579
0.23574345 -0.058236357 -0.019743532 0.030706052 0.009906587 -0.0077378023 0.07034245 0.01780482
-0.061211355 0.08362409 0.042486742 -0.030415652 -0.0040516723 0.039782252 -0.039228305 0.04464655
0.32451436 0.1555764 -0.008579877 -0.029156325 -0.034570094 -0.021754714 0.00219853 -0.012098069
-0.042845704 -0.07788111 -0.0149992425 -0.008685477 -0.025585566 0.0074839033 -0.034838162 -0.052934207
-0.02314939 -0.08066432 -0.015675537 0.017571136 0.09826237 0.006671458 -0.061785843 0.02238304
0.012909344 -0.014876215 -0.04205285 -0.045741368 -0.020055473 0.050992765 0.015623791 0.042644743
0.05864364 -0.018325865 -0.017964609 0.014552741 0.14250015 -0.0117163975 0.06436631 0.021375187

linear3.bias f4 [50]
00000000: c573 0ebd 3876 c0bd 8c03 88bd c87c 58bd
00000010: 7479 39bd 4f1d adbd 6ecd 113d 8d4f 253d
00000020: c197 5b3b 8421 843d 1ff2 bcbb 8a3b 1abd
00000030: 0de1 90bd 266b f8bb 2aa1 3b3d 29b1 a2bd
00000040: 7619 c2bd 2e17 aa3d cdda 553d ae63 5c3d
00000050: 5aef cd3b ddba 0dbd 08cc cfbc d3f3 49bd
00000060: 29b9 bbbd 61e9 4a3d 5c26 9dbc 6909 823d
00000070: 1540 993d a2ec 3dbc dfad c43b 86ce 96bd
00000080: faeb 7bbd c43e d0bd 85cc a8bd 5af8 32bc
00000090: 8e2e 82bd 1897 3abd f0d8 683d 7548 93bd
000000a0: 838d 82bb fdca c93c 73a3 3f3c deef 51bd
000000b0: 7781 013d 6779 0c3c 0490 9fbd 03b0 d03b
000000c0: c524 b6bb 22e4 b9bb
-0.034778375 -0.093975484 -0.066413015 -0.052853376 -0.045281842 -0.08452856 0.035596304 0.04035907
0.00335072 0.06451705 -0.005766168 -0.037654437 -0.07074175 -0.0075811325 0.045807995 -0.07943947
-0.094775125 0.083052024 0.052210618 0.053806 0.0062846364 -0.034602035 -0.025365844 -0.049304795
-0.09166176 0.049538974 -0.01918333 0.06349451 0.07482926 -0.011592062 0.0060021724 -0.0736361
-0.06150434 -0.101682216 -0.08242134 -0.010923469 -0.06356536 -0.04555425 0.056847513 -0.071915545
-0.0039841547 0.024632925 0.011696684 -0.051254146 0.031617608 0.008573866 -0.07791141 0.0063686385
-0.0055585825 -0.0056729475

bn3.weight f4 [50]
00000000: 673b c33f 7934 be3f 8fef c33f f7c6 be3f
00000010: bbad c33f 30fa c53f fb5e be3f a80d ba3f
00000020: a676 b83f 374d bc3f 92f8 b43f 89f5 b23f
00000030: a5a8 ad3f bf94 bd3f dbba c93f 334d be3f
00000040: 1408 b63f f71b ba3f 685b af3f d2e2 b83f
00000050: a7a4 c53f ecd1 b53f b95b b83f d1f4 b23f
00000060: f4c9 c33f 8efe bf3f 4cc1 b93f 907f b33f
00000070: 8598 c83f 16de c23f b405 b73f bb4d c93f
00000080: 50a7 c63f 6c53 bf3f 9db3 b43f 2d26 c03f
00000090: 7c0a c63f 7805 c03f b0fd bb3f d85e b53f
000000a0: 6df1 c23f f83a b43f 3b7b ae3f d8d5 b93f
000000b0: 5436 b03f e74b bb3f 5ea0 b03f a5a8 b23f
000000c0: db3e c23f a7db bb3f
1.5252503 1.4859763 1.5307482 1.4904469 1.5287393 1.5466976 1.4872736 1.4535418
1.4411209 1.4711064 1.4138358 1.3981181 1.3567091 1.4811019 1.5760149 1.4867309
1.4221215 1.4539784 1.369977 1.444422 1.5440873 1.4204688 1.4402992 1.3980962
1.5296006 1.4999559 1.4512115 1.4023304 1.5671545 1.5224025 1.4298615 1.5726846
1.551981 1.4947333 1.4117314 1.501165 1.547195 1.5001669 1.4686794 1.4169569
1.5229927 1.4080496 1.3631357 1.4518385 1.376658 1.4632539 1.379894 1.3957716
1.5175432 1.4676408

bn3.bias f4 [50]
00000000: fa59 ed3e 1340 e13e 8d94 d63e 9065 dc3e
00000010: 4a89 f83e 0704 e43e 3912 c03e 2a20 e13e
00000020: b280 d73e 5aab 003f 82d7 0d3f dcff e13e
00000030: 92d6 063f 0bf7 003f 7e44 0a3f 4c3a aa3e
00000040: 3964 c73e 2166 ef3e 3b19 e93e 94ab ed3e
00000050: ffff fa3e 52bf c73e 01ee cd3e 1e47 053f
00000060: 2f0d e53e 1d7d 023f 18a0 e93e c858 eb3e
00000070: 5e70 b73e ce2e b23e d649 0b3f 822f 023f
00000080: c927 023f 6ed2 ef3e c336 023f 165d e93e
00000090: 0624 ef3e 9428 003f 10e5 d63e 437f bc3e
000000a0: fcf5 d73e 8702 fe3e 5943 d03e 7989 e43e
000000b0: cb21 eb3e 3312 d73e 7a48 d13e bb37 bc3e
000000c0: 6563 113f 9eeb be3e
0.4635771 0.43994197 0.4191021 0.43046236 0.48542243 0.44534323 0.37513903 0.43969852
0.42090374 0.5026146 0.55406964 0.44140518 0.5267116 0.5037696 0.5401076 0.33247602
0.3894365 0.46757606 0.45527062 0.46419966 0.49023435 0.39013153 0.40220645 0.5206164
0.4473662 0.5097216 0.45629954 0.45966172 0.35827917 0.34801334 0.5440954 0.5085374
0.5084196 0.46840233 0.5086481 0.4557883 0.4670717 0.5006192 0.41971636 0.36815843
0.4217986 0.49611303 0.40676382 0.44636133 0.4592422 0.42006072 0.40875608 0.3676127
0.5679229 0.37289137

bn3.running_mean f4 [50]
00000000: 6e5c a9bd 8bb4 243f 60a1 a93e 8749 143d
00000010: 065b 34be cc1d e23e 3e72 8e3e dea4 d93e
00000020: b375 963e e2c0 ff3e 9376 313e 50d0 0c3f
00000030: 3b03 bb3d 2f6a 523e ab66 783e 11d5 983e
00000040: 83a2 ffbc 7d63 ac3e c83a 5f3e 75c2 c13e
00000050: c6d9 333e ec1f 5dbe 7f36 483e 4552 513e
00000060: 1823 e73c bf13 013f 3809 b23d 1733 c13e
00000070: 8d36 2f3f 1ff9 183e 79fb 043e 6e2c dc3e
00000080: 6012 213b 6acd 8bbd 8074 2a3e c77b ca3b
00000090: 555a 153f e3d1 dfbd 5868 de3e 4697 df3e
000000a0: 619d 183e bd5f 4c3e 1308 a63d e206 683e
000000b0: 99f3 843e c427 a53e 31ae 593e 3a18 c93e
000000c0: 39a8 9a3e 65bb 813c
-0.08269583 0.64337987 0.33130932 0.036202934 -0.17612848 0.44163358 0.27821535 0.42508596
0.29386672 0.49951845 0.17330389 0.5500536 0.091314755 0.20548318 0.24257915 0.29850057
-0.031205421 0.33669654 0.21799767 0.3784367 0.17563543 -0.21594208 0.19552039 0.2044154
0.028214976 0.50420755 0.086931646 0.3773429 0.6844261 0.14938782 0.12986554 0.43002647
0.0024577603 -0.06826289 0.16646004 0.006179306 0.5834096 -0.109287046 0.43438983 0.436701
0.14903785 0.19958396 0.08107009 0.22658876 0.259671 0.322569 0.21257855 0.39276296
0.3020647 0.015836427

bn3.running_var f4 [50]
00000000: 8e6d 843e bc4a 103f 4f04 9b3e 9002 9d3e
00000010: db09 e83e 3683 b23e 7b62 a73e 9fbf 043f
00000020: f7fa b23e d665 313f cbb0 8b3e 9b92 c63e
00000030: 3710 8e3e ed29 ca3e df52 a43e 85a8 923e
00000040: 691e b63e f5e6 7c3e 9bf6 d63e 2bf4 633e
00000050: 1c8f b23e e3ab dd3e 33e8 003f d29f 8a3e
00000060: a29d 6e3e 9b42 b33e fad5 153f 8e26 9d3e
00000070: 11b8 b73e 30fa 273e b915 073f d8f2 d33e
00000080: 59e8 ca3e d8ca d03e f003 d13e 01fc c83e
00000090: df18 f63e c544 b03e 3347 953e 9860 203f
000000a0: b300 953e 8f21 d43e a8f4 183f 6a27 453e
000000b0: 3b72 a83e d1ab ba3e fe34 db3e 48f2 b13e
000000c0: 8974 fd3e ecb0 653e
0.25864834 0.56364036 0.30276725 0.30666018 0.4532002 0.3486573 0.32692322 0.5185489
0.34957096 0.69296014 0.2728332 0.38783726 0.27746746 0.39485112 0.32094476 0.28644195
0.35570076 0.24697478 0.4198502 0.22261111 0.3487481 0.43295202 0.5035431 0.27075058
0.2330232 0.35011753 0.5852963 0.30693477 0.3588262 0.16404033 0.5276752 0.41396213
0.39630392 0.40779757 0.40823317 0.39254764 0.4806585 0.34427467 0.29155883 0.6264739
0.29102096 0.41431853 0.59748316 0.19253317 0.3289965 0.3645921 0.42813867 0.34755158
0.49502972 0.22430772

linear4.weight f4 [18, 50]
00000000: d293 6f3c a189 d5bd 31cd 78bd 6758 903d
00000010: 2b7c d43d cca4 c1bd 88f5 f8bd 9d2e ee3d
00000020: 7159 9d3d 66a6 81bd da0f 4b3d 97e5 d5bc
00000030: f239 a43c ed01 ea3c 9326 3e3e 2301 4f3d
00000040: ebc3 683d ff23 83bd 9ea2 dbbd ad71 473c
00000050: 4864 22be c621 a7bc 8500 00be cfd9 f93d
00000060: 6b11 453c 57cd 47bd b4b0 663d c741 803c
00000070: b152 0f3d 02b4 8a3c 2868 f2bc 7aaf 44bd
00000080: fb67 1f3d df3c 1d3d 235f 593c 488c 3e3c
00000090: 49c2 40bd 2f7a b63d f7fc cdbb 0cd1 4fbd
000000a0: f488 7fbd 83f2 7ebc a9b4 64bd 107c cabc
000000b0: 26ed 02bd 4b25 243e 9a19 963d 0f55 bebc
000000c0: c6f3 8e3d 479c 41bd ab70 17bd 6da5 96bc
000000d0: ea77 2c3d 04d7 0d3d b5a1 9f3c d73a 383e
000000e0: 8fb5 9c3c 3182 1f3e 6176 2d3d 5381 813e
000000f0: 4579 1a3d e9fb 60bd c027 9c3d 2c3e 45bd
00000100: dc5c 57be fdc9 85bd 3b58 633e 5d63 b93c
00000110: 4c08 c1be 22e9 aabc 02c3 a43b acce 84be
00000120: f8d1 2a3d 73fe 95bd bd04 813d 7fd0 6ebe
00000130: 287c 82bd 229a f13d 1caa f33d d0ec acbd
00000140: 98d4 a63e 06b5 833d 14a9 c9bd 6bc9 983d
00000150: 3a6a acbe 2e75 3f3e 85ad 16be 77f1 93be
00000160: ab20 52be 1656 443e 8511 563d aaf2 a43e
00000170: f658 033e 3af4 b5bc 378a 3ebe 2c64 dfbd
00000180: 7704 283d ba87 023e 89dd f4bd 7094 f03c
00000190: 7d16 2dbd da51 713b be86 173e 9f80 57bd
000001a0: 810e 9dbd 8902 3d3e 160a 08be b5f0 ec3d
000001b0: 23a1 b7bc 4f84 bd3e 7769 ebbc 9e30 f4ba
000001c0: 7ed5 edbd 5833 62bd e330 31be 6624 133e
000001d0: 2d6d a33e e1e0 d0bc 66ed b2be 4dbb 8ebd
000001e0: 9da5 45bb ca49 dfbe f314 50bd 912f 4c3e
000001f0: 0c26 883d 2e82 c6be 1773 563c d0bf dcbc
00000200: 64c7 733e 375d 47be f3ba a63e 5c95 debc
00000210: fd0d a63c 9f01 873d 8b75 a5be faba a43e
00000220: 043d 0bbe d0ea 95be 6513 4dbe 8ac0 803e
00000230: b344 723e 0839 953e cf80 143e e76c 19bc
00000240: 8aa4 91bd dcb5 a03c 8545 d7bc e00c 953e
00000250: 18e3 78be 09cc 1fbe 9c52 5a3d 3bba b5bd
00000260: 67a5 8a3e 4aba 8bbe ab30 943d dda2 173e
00000270: 7f81 b7be 5d4f de3b b132 71be b3a0 1bbd
00000280: acc1 3cbe d49f 8ebd 3c34 28be 40e2 43be
00000290: 5528 df3d 540d 5a3e 8dbf 2bbd 813f 1a3e
000002a0: 56a7 4f3e 4264 573c 671e 423e 7568 f8bd
000002b0: a6f6 e43c afca e43e 5c5b c6bd ec01 623d
000002c0: 141b 273e 574e 81be 5782 613d 146e b2be
000002d0: 918e f8bd 03af 09be 515a 403e eb4b 20be
000002e0: 4dba 923d a819 8f3e 496c 3a3e c2ec cabd
000002f0: d043 8dbe 30c5 09be 55ff f53e ccf7 cabd
00000300: 2d28 833d f7dc 2b3e b118 6c3e 26aa 713d
00000310: d530 62bd ff23 853e c5dc 3cbd 2626 4fbe
00000320: 3bfa 2abd 9eea 8f3e c80a cebd b5e6 9e3d
00000330: b355 a1be 8b9d e2bd 02a0 913e da28 aabd
00000340: b114 a33e 3d63 53bd b313 20be 4fcf 4e3e
00000350: 4904 36bd b7b5 c93e a8e0 13bf 4346 073f
00000360: 7654 1cbe 9595 b4be 6f51 093e 502a 81bd
00000370: 8303 9ebd ffe9 f0be 5f8c 4a3e 0552 c7be
00000380: fd15 a43c 3f1e 943d f030 69be 0b54 c3bd
00000390: 5c6f db3e c28f ac3e a5cf 2e3e 10e3 1a3d
000003a0: 3f76 c9bc 2190 833e 31e7 27bc 375d bebe
000003b0: 0257 8bbe 410d ed3d 3a51 e23e d4e4 ae3e
000003c0: deac d0be 8623 b03d 77a7 96be 7c58 4bbd
000003d0: 6d2f d23d 8619 bebe 604e 3a3b 4d1d 203d
000003e0: 29b6 8e3d a781 0abf 6b8f d53e e922 b6bd
000003f0: a98d 13bc e56f e83c a626 b23d e17a ccbd
0.014622645 -0.10426641 -0.06074256 0.070481114 0.10375246 -0.09455261 -0.12156206 0.116299845
0.07683075 -0.06330566 0.049575664 -0.026110454 0.020047162 0.028565371 0.18569402 0.050538193
0.056827467 -0.0640335 -0.10724376 0.0121730985 -0.15858567 -0.020401847 -0.12500198 0.12199747
0.012028079 -0.04877981 0.05632086 0.015656365 0.03499097 0.016931538 -0.029590681 -0.04801891
0.038917523 0.03838813 0.013267311 0.011630125 -0.047060285 0.089100234 -0.0062862593 -0.050736472
-0.062386468 -0.015560749 -0.055836353 -0.02471736 -0.031964444 0.16029851 0.07329102 -0.023233918
0.0698009 -0.04726818 -0.036972683 -0.018389428 0.042106546 0.034628883 0.019486288 0.17991196
0.019129543 0.15577008 0.042349223 0.2529398 0.037713308 -0.05492774 0.07624769 -0.048154995
-0.21031517 -0.06532667 0.22201626 0.022630388 -0.37701643 -0.02086312 0.0050281296 -0.25938928
0.041704148 -0.07323923 0.06299732 -0.23321722 -0.06371337 0.117969766 0.1189768 -0.08443606
0.3258407 0.06431012 -0.09846702 0.074602924 -0.33674794 0.18697044 -0.1471463 -0.2889516
-0.20520274 0.19173464 0.0522628 0.32216388 0.12826905 -0.022211183 -0.18607412 -0.10907778
0.041019883 0.12747088 -0.11956317 0.029367656 -0.042257775 0.003682247 0.14797494 -0.052612897
-0.07668782 0.18457998 -0.13285097 0.11569349 -0.022415703 0.37015006 -0.028736813 -0.0018630212
-0.11612986 -0.055224746 -0.17303805 0.14369354 0.31919232 -0.025497856 -0.34946746 -0.069693185
-0.0030158528 -0.43610984 -0.05080123 0.1994002 0.06647882 -0.38771194 0.013088963 -0.026946932
0.2380653 -0.19469152 0.32564506 -0.02717083 0.020270342 0.06592106 -0.3231624 0.32173902
-0.13597494 -0.2928071 -0.2002693 0.25146896 0.23659019 0.29145074 0.14502262 -0.009364343
-0.071114615 0.019617967 -0.026278267 0.29111385 -0.2430538 -0.15605177 0.05330144 -0.08873411
0.27079317 -0.27290565 0.07235845 0.14808221 -0.35840985 0.006784363 -0.23554493 -0.03799505
-0.18433255 -0.069640785 -0.16426176 -0.19129276 0.108963646 0.21294147 -0.041930724 0.15063287
0.20278677 0.013146462 0.1895691 -0.121292986 0.027949642 0.44685885 -0.09685394 0.055177614
0.16318923 -0.2525508 0.055055942 -0.34849608 -0.121365674 -0.13445668 0.18784453 -0.1565396
0.0716444 0.27949262 0.1820537 -0.09908439 -0.275908 -0.13454127 0.48046365 -0.09910545
0.06404147 0.1678351 0.23056294 0.059000157 -0.05522235 0.26004025 -0.04610898 -0.20229396
-0.041742545 0.28108686 -0.1006065 0.077588476 -0.31510696 -0.11065205 0.2844239 -0.08308573
0.31851724 -0.051608313 -0.15632515 0.2019627 -0.04443768 0.3939645 -0.57764673 0.52841586
-0.15266594 -0.35270372 0.1340997 -0.063068986 -0.077155136 -0.47053525 0.1978011 -0.38929763
0.020030016 0.072323315 -0.22772574 -0.09537514 0.42858398 0.33703429 0.17071398 0.0378142
-0.024592517 0.256959 -0.010247991 -0.37180492 -0.2721482 0.115747936 0.44202596 0.34158957
-0.40756887 0.086005256 -0.2942464 -0.049644932 0.10262952 -0.37128848 0.0028428063 0.039090443
0.06968338 -0.54104084 0.41710982 -0.08893377 -0.009005942 0.028373668 0.08698778 -0.09984375

linear4.bias f4 [18]
00000000: e3d7 9ebf 89de c8bc 9c1b c73d d6aa a63e
00000010: 0f26 34bf b0e4 94bd e82c 783e cab6 e9be
00000020: 6280 f0bd c468 803e 3c7d d4bd 4657 f73c
00000030: 2442 c23b d0b5 12be 85b5 513e 4d2d 153e
00000040: 832b 78be 450c d83e
-1.2409633 -0.024520176 0.09722063 0.32552212 -0.7037057 -0.07270181 0.2423588 -0.4564727
-0.11743237 0.2507993 -0.10375449 0.030192982 0.0059282947 -0.14327168 0.204794 0.14568062
-0.24235348 0.4219686
