artifacts/Physics/30_walkerPhysics.pt (torch, 59588 bytes, 20 tensors)

linear1.weight f4 [50, 24]
0	0x3d0897a9	0.03334776
1	0xbd5930a1	-0.05302489
2	0xbdcfff98	-0.101561725
3	0x3c2e4dc9	0.010638663
4	0x3a34fffd	0.00069046003
5	0xbc0fdc2b	-0.0087805195
6	0xbc99dd2f	-0.018782226
7	0x3c2a4263	0.010391804
8	0x3d4ccd14	0.050000265
9	0xbd4faedf	-0.05070388
10	0x3dcb3ab9	0.0992331
11	0xbbd0a84f	-0.00636772
12	0xbd0436bb	-0.032278758
13	0x3d0a5930	0.033776462
14	0xbd6f6168	-0.058442503
15	0x3e6acfb4	0.22930795
16	0xbe5da617	-0.2164539
17	0xbe26a358	-0.16273248
18	0x3de91e13	0.11382689
19	0xbd9d7ea5	-0.07690171
20	0xbe1eaa88	-0.1549474
21	0x3cfbeaaa	0.030751545
22	0xbe0df08b	-0.13861291
23	0x3cd5fc54	0.026121296
24	0x3d06d870	0.032921255
25	0xbe32af12	-0.17449597
26	0x3cbd8037	0.023132427
27	0xbcd909db	-0.026493957
28	0x3d041d4a	0.032254495
29	0x3d013f3b	0.031554442
30	0xbc18d440	-0.009327948
31	0x3c3cea51	0.011530475
32	0xbcd7f5c7	-0.026362313
33	0x3da1ec52	0.07906403
34	0x3b0d014c	0.0021515666
35	0x3b91daa8	0.0044511147
36	0xbc86629f	-0.016404448
37	0x3b45d773	0.0030188232
38	0x3c936296	0.017991345
39	0xbe0385a8	-0.12843955
40	0x3d655136	0.055985652
41	0xbc209117	-0.009800217
42	0xbe0d1d46	-0.13780698
43	0xbe29b03d	-0.16571136
44	0xbdc1dcbf	-0.09465932
45	0x3e345ad1	0.17612769
46	0x3c944ed6	0.018103998
47	0x3dbeeb7f	0.09322261
48	0xbd7b4382	-0.061343677
49	0x3ce4265d	0.027850324
50	0xbdc49f9c	-0.096007556
51	0xbe0c4e0e	-0.1370165
52	0xbc466a6b	-0.012110333
53	0xbd3df278	-0.046373814
54	0x3cda21d0	0.026627451
55	0xbd7ae444	-0.061252847
56	0xbcd81a14	-0.026379623
57	0xbe5ee568	-0.21767199
58	0x3da7682e	0.081741676
59	0xbdadcf28	-0.084867775
60	0xbd20a278	-0.039217442
61	0x3c876b88	0.016530767
62	0x3dc877a8	0.097884476
63	0x3cd9a909	0.02656986
64	0xbd9dcdc3	-0.077052616
65	0x3de33e75	0.11095897
66	0xbe8b97d0	-0.2726426
67	0xbd61ec17	-0.055156793
68	0x3e2219fa	0.15830222
69	0xbd80398f	-0.062609784
70	0xbdbcfb71	-0.09227646
71	0xbe3d4cfe	-0.18486401
72	0xbde6b734	-0.11265412
73	0xbd2a93d2	-0.04164488
74	0x3dd301ec	0.10303101
75	0xbd05c643	-0.03265978
76	0x3cf01171	0.029305192
77	0xbe233cd6	-0.15941176
78	0x3ccb0a05	0.024785051
79	0xbd62dae0	-0.055384517
80	0x3e8010b6	0.2501275
81	0xbe0c1d7d	-0.13683124
82	0x3a91f13e	0.0011134518
83	0xbdd9c2ca	-0.10632856
84	0x3b9cb1aa	0.0047819214
85	0x3bc444af	0.005989633
86	0x3e6e8b68	0.23295367
87	0x3d8fa5ad	0.07014022
88	0xbd620ee2	-0.055189975
89	0x3e2a77fa	0.1664733
90	0x3d9f905b	0.077912055
91	0xbe27864d	-0.16359825
92	0x3d3b57be	0.045737974
93	0xbe14e709	-0.14541258
94	0xbe4251cf	-0.1897652
95	0x3db099a2	0.08623053
96	0x3dd2175b	0.10258361
97	0x3e17364b	0.14766805
98	0xbdb6d613	-0.0892755
99	0x3ceff3a2	0.029290978
100	0x3e10f631	0.14156415
101	0xbe814f71	-0.2525592
102	0xbd66b681	-0.056326393
103	0x3c8e0d68	0.017340377
104	0x3e700f6f	0.23443387
105	0xbd3eb61f	-0.046560403
106	0xbdc8c3c8	-0.09802967
107	0x3e7df9eb	0.24802367
108	0x3d494de6	0.049146555
109	0xbcd3e7c6	-0.025867354
110	0x3d951ce0	0.07280898
111	0xbe822754	-0.2542063
112	0xbe114e70	-0.14190078
113	0x3d55a08f	0.052155074
114	0x3d8d34c8	0.06894833
115	0xbdb5e373	-0.08881273
116	0xbdba5032	-0.09097327
117	0x3df247f6	0.11830132
118	0x3e861a83	0.26192102
119	0xbe3bee36	-0.18352589
120	0x3d045aee	0.03231328
121	0xbdab29d3	-0.08357587
122	0xbe720905	-0.23636253
123	0x3debabfc	0.11507413
124	0x3e855f6f	0.26049373
125	0x3d0fc314	0.03509815
126	0x3d04b27c	0.03239678
127	0xbcda08db	-0.02661555
128	0xbe941aff	-0.28926846
129	0x3d5d427f	0.054018494
130	0x3e1ee86b	0.15518348
131	0xbd77a368	-0.06045857
132	0x3cf2b02d	0.029625023
133	0x3cc46eed	0.023978675
134	0x3d0b3558	0.03398642
135	0x3e0f9bbc	0.14024252
136	0xbe1aab08	-0.15104306
137	0xbb362785	-0.0027794552
138	0x3c4a98c3	0.012365523
139	0xbda250bd	-0.07925556
140	0x3d6bb304	0.05754377
141	0xbb9e30da	-0.004827601
142	0xbd249710	-0.040183127
143	0xbd996d93	-0.07491603
144	0x3e2d8083	0.16943555
145	0xbdb3ca76	-0.08778851
146	0xbe913fad	-0.28368893
147	0x3e0769f2	0.13224009
148	0x3be720d0	0.007053472
149	0x3d53a9d1	0.05167562
150	0x3d5643fb	0.052310925
151	0x3b5c530d	0.0033618838
152	0xbe06d69c	-0.13167804
153	0x3ac90360	0.0015336089
154	0x3ddd70f7	0.10812562
155	0x3c6d53f1	0.014485345
156	0x3b5a98be	0.0033355202
157	0x3db12f2f	0.08651578
158	0xbbb8e681	-0.0056427126
159	0x3e97c39a	0.2964142
160	0xbe8a6f9a	-0.2703827
161	0xbe804aca	-0.2505706
162	0xbde7c978	-0.11317724
163	0xbcc5cfae	-0.024146881
164	0xbd03d542	-0.0321858
165	0x3e05ae96	0.1305488
166	0x3e028db8	0.12749374
167	0x3cb2c6bf	0.021823285
168	0xbca5942b	-0.020212254
169	0x3e970840	0.29498482
170	0x3d060607	0.032720592
171	0xbe42b9bc	-0.19016165
172	0x3c1a4758	0.009416424
173	0xbd4a4efd	-0.049391735
174	0x3cbf4f17	0.023353143
175	0x3b69ef51	0.0035695622
176	0x3d97c4e1	0.074105985
177	0xbd09c75f	-0.0336374
178	0xbdd51675	-0.10404674
179	0x3d1bc527	0.038029816
180	0xbc5caf9a	-0.013469601
181	0xbbf51d33	-0.0074802875
182	0xbe50a2f5	-0.20374663
183	0x3db337ef	0.08750903
184	0x3e2ff904	0.17184836
185	0xbe83c6ca	-0.25737602
186	0xbccfc444	-0.025362141
187	0xbe1e9657	-0.15487038
188	0x3e12d39e	0.14338538
189	0xbc1bb86f	-0.009504422
190	0x3e44deda	0.19225636
191	0x3d186388	0.037204295
192	0xbde25e52	-0.110531464
193	0xbe50c670	-0.20388198
194	0xbdda87dd	-0.10670445
195	0xbde5aca3	-0.112145685
196	0xbd9e00df	-0.0771501
197	0xbc0df66a	-0.008664707
198	0xbb8bab52	-0.0042623663
199	0xbcf5e82e	-0.030017938
200	0x3c9fa986	0.019490015
201	0xbe153314	-0.14570266
202	0x3ba773b7	0.00511023
203	0x3d8b27d3	0.06794705
204	0xbbdedc97	-0.0068011987
205	0xbbe25b34	-0.006907845
206	0x3dfdf490	0.12400162
207	0xbe68e7d6	-0.22744688
208	0xbd3e3dc5	-0.046445627
209	0xbe1563b3	-0.14588813
210	0xbd6a49d7	-0.057199325
211	0x3d8d0541	0.06885768
212	0x3da1299e	0.07869266
213	0xbb578ba6	-0.0032889633
214	0xbe0a2398	-0.1349014
215	0x3de8cfee	0.113677844
216	0x3d30ae3f	0.043134924
217	0xbdd4df86	-0.10394196
218	0x3db1d095	0.08682362
219	0x3de8a47d	0.11359499
220	0x3dab5911	0.083665974
221	0x3d97828b	0.07397946
222	0x3bb3e8b9	0.005490389
223	0x3d6d1293	0.057879042
224	0xbcee06c4	-0.02905596
225	0x3ce52273	0.027970528
226	0xbe0ac8ef	-0.13553213
227	0x3d041388	0.03224519
228	0xbd545fa3	-0.05184902
229	0x3de4663b	0.111523114
230	0xbe274e88	-0.16338551
231	0x3ea2c067	0.31787416
232	0x3e22c483	0.15895276
233	0x3e35e2d8	0.17762315
234	0x3e6e536f	0.23274015
235	0xbca4abf9	-0.020101534
236	0xbe09f601	-0.1347275
237	0xbd609021	-0.054824952
238	0x3e6a9b75	0.22910865
239	0xbe3a52c0	-0.18195629
240	0x3ddf83a8	0.10913783
241	0x3d8fb516	0.07016961
242	0xbe251b0f	-0.16123603
243	0xbd5b526c	-0.0535454
244	0xbc871f0f	-0.016494302
245	0x3bbd0c7a	0.0057693096
246	0xbbbac313	-0.005699524
247	0xbcaf98fa	-0.02143525
248	0xbd007193	-0.031358313
249	0xbe208247	-0.15674697
250	0xbe1acda0	-0.15117502
251	0x3e40b1a2	0.18817762
252	0xbc8be55a	-0.017077137
253	0x3cd58550	0.026064545
254	0xbe8a27e7	-0.26983568
255	0x3db66e21	0.08907724

linear1.bias f4 [50]
0	0x3e3a9d10	0.18223977
1	0xbe020c0e	-0.12699911
2	0xbdc8b057	-0.09799259
3	0xbe0c94de	-0.13728663
4	0x3c88c3a8	0.016694859
5	0x3e4201fb	0.18946068
6	0x3e04f38d	0.12983532
7	0x3dccb776	0.0999593
8	0xbc12a9bb	-0.0089516
9	0x3d483947	0.04888275
10	0x3e29e669	0.16591801
11	0xbe16579f	-0.14681862
12	0x3d8e1935	0.069384016
13	0xbe4275ae	-0.18990204
14	0x3d87eeb5	0.06637327
15	0xbdd39b98	-0.103324115
16	0x3e2915d6	0.16512236
17	0x3d14d040	0.036331415
18	0x3e184641	0.1487055
19	0x3ddf4327	0.1090148
20	0xbdcd2709	-0.10017211
21	0x3e4c03d6	0.19923338
22	0x3d58b839	0.052910063
23	0xbe02b5cb	-0.12764661
24	0xbd6f388c	-0.058403537
25	0x3bdbb031	0.0067043533
26	0x3d95342f	0.07285344
27	0x3dc90c0a	0.098167494
28	0xbdb33434	-0.08750191
29	0xbcb38174	-0.021912314
30	0xbd13dd01	-0.036099438
31	0x3dc5b436	0.09653513
32	0xbdfda95a	-0.12385817
33	0xbdedfa99	-0.11620063
34	0xbd97325c	-0.07382652
35	0x3e43f8c0	0.1913786
36	0xbe4c3555	-0.1994222
37	0x3e2490d8	0.16070879
38	0x3e4bd0aa	0.19903818
39	0xbd54b48b	-0.05192999
40	0xbd2db285	-0.042406578
41	0xbe026b44	-0.12736231
42	0x3cafc956	0.02145831
43	0xbe0523ec	-0.13001984
44	0x3da9ba05	0.082874335
45	0xbddcd89a	-0.10783501
46	0x3e1f0444	0.15528971
47	0xbe0ac782	-0.13552669
48	0xbd1e5609	-0.03865627
49	0xbdfcf7f1	-0.123519786

bn1.weight f4 [50]
0	0x3f898a8a	1.0745404
1	0x3f86b4de	1.0523946
2	0x3f7ccfd7	0.9875464
3	0x3f827a26	1.0193527
4	0x3f72ac5d	0.94794255
5	0x3f6f75f6	0.9353937
6	0x3f704345	0.93852645
7	0x3f6cd6ce	0.92515266
8	0x3f8734d2	1.0562994
9	0x3f82b22e	1.0210626
10	0x3f7a27d6	0.97717035
11	0x3f78737e	0.9705123
12	0x3f742446	0.9536785
13	0x3f69f521	0.9138966
14	0x3f7add54	0.9799397
15	0x3f871439	1.0553046
16	0x3f81e6a9	1.0148517
17	0x3f832914	1.0246911
18	0x3f779d49	0.96724373
19	0x3f85978e	1.0436876
20	0x3f769c67	0.963324
21	0x3f87e00d	1.061525
22	0x3f86d69f	1.0534247
23	0x3f7f4267	0.99710697
24	0x3f78f6ee	0.97251785
25	0x3f89fd25	1.0780379
26	0x3f7da21f	0.990755
27	0x3f8087c8	1.0041437
28	0x3f7781a4	0.9668219
29	0x3f63157d	0.88704664
30	0x3f65ceef	0.8976888
31	0x3f802224	1.0010419
32	0x3f6aa1bb	0.9165303
33	0x3f81eea6	1.0150955
34	0x3f79c346	0.9756359
35	0x3f72dc51	0.94867426
36	0x3f84e495	1.0382258
37	0x3f8860d9	1.0654556
38	0x3f727811	0.94714457
39	0x3f6f52d3	0.93485755
40	0x3f80164a	1.0006802
41	0x3f825190	1.0181141
42	0x3f7c1ac6	0.98478353
43	0x3f7a410e	0.97755516
44	0x3f70d58b	0.9407584
45	0x3f749d97	0.95552963
46	0x3f7f8bc4	0.9982264
47	0x3f867638	1.0504827
48	0x3f8183b7	1.0118321
49	0x3f7b9f2e	0.98289764

bn1.bias f4 [50]
0	0x3d4cb0b7	0.049973216
1	0x3e37d17c	0.17951006
2	0x3e601d9c	0.21886295
3	0x3da3a74e	0.07990895
4	0x3d2fdaf5	0.042933423
5	0x3d702a61	0.058634166
6	0x3e3f6848	0.18692124
7	0x3e5d3b02	0.21604541
8	0x3d6b6b13	0.05747516
9	0x3dbcc2dd	0.09216855
10	0x3db15275	0.086583056
11	0x3ddf1f6b	0.108946644
12	0x3e127b02	0.14304736
13	0x3e1436f8	0.14474094
14	0x3e286993	0.16446523
15	0x3e31ce9c	0.17363971
16	0x3e243bbb	0.1603841
17	0x3db895d4	0.090129524
18	0x3e81d34c	0.2535652
19	0x3e254c57	0.16142403
20	0x3e4e9a39	0.20176019
21	0x3e23cdd1	0.15996481
22	0x3dedb579	0.11606879
23	0x3e70b202	0.23505405
24	0x3d0c727e	0.034288876
25	0x3da50b95	0.0805885
26	0x3de21924	0.110399514
27	0x3ccdcba1	0.025121512
28	0x3d7688f1	0.06018919
29	0x3e7535ce	0.23946306
30	0x3e898d91	0.2686582
31	0x3e5a8e4e	0.21343347
32	0x3e0f589d	0.13998647
33	0x3de1e5d1	0.11030162
34	0x3a516b5e	0.0007988716
35	0x3e1bcf12	0.1521571
36	0x3d990626	0.07471876
37	0x3dd630b5	0.10458509
38	0x3e2de6b7	0.16982542
39	0x3e669762	0.22518685
40	0x3e1be6bc	0.15224737
41	0x3c61f473	0.013791191
42	0x3e52d418	0.2058872
43	0x3e7ed60a	0.24886337
44	0x3d3681eb	0.044557493
45	0x3d8f81ef	0.07007205
46	0x3dae96c0	0.08524847
47	0x3e12d4d5	0.14339001
48	0x3e1b0211	0.15137507
49	0x3e12f89e	0.14352652

bn1.running_mean f4 [50]
0	0x3e304a8b	0.17215936
1	0xbdf38350	-0.1189028
2	0xbde232b6	-0.110448286
3	0xbe599b94	-0.21250755
4	0x3d22c833	0.039741706
5	0x3ec0e586	0.37675112
6	0x3e7a1ddf	0.24425457
7	0xbca04804	-0.01956559
8	0xbd0342cb	-0.03204612
9	0x3d4f42df	0.050600883
10	0x3db5d2a9	0.08878071
11	0xbe24d349	-0.16096224
12	0x3c37fa4b	0.011229108
13	0xbe1e9b1b	-0.15488856
14	0x3dcb4580	0.099253654
15	0xbd8869f6	-0.066608354
16	0x3dba092e	0.09083782
17	0x3da7fd02	0.08202554
18	0x3e72cd63	0.23711161
19	0x3e122fff	0.14276122
20	0xbd3a1d67	-0.045438197
21	0x3e2322fb	0.15931313
22	0x3cdec77d	0.027194733
23	0xbe0bbaf1	-0.13645531
24	0xbdf10fdb	-0.11770602
25	0xbb1a6b83	-0.0023562617
26	0x3dc47bbf	0.09593915
27	0x3e0af476	0.13569817
28	0xbe249533	-0.1607254
29	0xbd241ea0	-0.04006827
30	0xbdf68aa1	-0.1203816
31	0x3d581b14	0.0527602
32	0xbeb41876	-0.35174912
33	0xbe00dcfe	-0.12584302
34	0xbd4de693	-0.05026872
35	0x3e12c9c9	0.14334787
36	0xbe93d004	-0.2886964
37	0x3e072dcc	0.13201064
38	0x3e890a60	0.26765728
39	0xbd75189f	-0.059837934
40	0x3c682358	0.014168583
41	0xbd754c90	-0.05988747
42	0x3cf1def7	0.029525263
43	0xbd44b0c5	-0.048020143
44	0x3e3259c6	0.17417058
45	0xbdcbc227	-0.09949141
46	0x3e860bce	0.2618088
47	0xbdf00bcb	-0.11720999
48	0xbd687f5f	-0.056762096
49	0xbdfae3dc	-0.12250492

bn1.running_var f4 [50]
0	0x409d4eca	4.915868
1	0x402255d4	2.5364885
2	0x410deeec	8.870831
3	0x407dc1b9	3.964949
4	0x40f8e9a8	7.7785225
5	0x3fd4ea57	1.6634015
6	0x3fbe9d02	1.4891665
7	0x40b765aa	5.73116
8	0x406f7e8a	3.7420983
9	0x41268166	10.406591
10	0x403681f7	2.8516824
11	0x4092d268	4.5881844
12	0x4044ceb0	3.0751152
13	0x40e27903	7.077272
14	0x408014ec	4.002554
15	0x40a1a566	5.0514402
16	0x40a5f567	5.1862063
17	0x406c5cab	3.693156
18	0x4099f4e2	4.811143
19	0x40cb7920	6.358536
20	0x3e806a74	0.25081217
21	0x40acb0fa	5.3966036
22	0x41235975	10.20934
23	0x4066cdd3	3.6063125
24	0x402ebc2f	2.7302358
25	0x410dda8d	8.865857
26	0x40986608	4.762455
27	0x40bf6983	5.98163
28	0x3ffdb4fb	1.9820856
29	0x40a242e7	5.070667
30	0x406526a5	3.5804837
31	0x40225e28	2.5369968
32	0x40b1e926	5.5597105
33	0x411e25f5	9.884267
34	0x404ada3a	3.1695695
35	0x409b544e	4.854041
36	0x40b8e925	5.77846
37	0x40727392	3.7883039
38	0x400110c1	2.0166476
39	0x3fff15fd	1.9928585
40	0x405888fa	3.3833604
41	0x40b0c141	5.5235906
42	0x4043b31b	3.0578067
43	0x402ffaa1	2.7496722
44	0x4099338a	4.7875414
45	0x408abab2	4.33529
46	0x4146705a	12.40243
47	0x40a630d2	5.1934595
48	0x4020f862	2.51516
49	0x4097f61f	4.748794

linear2.weight f4 [100, 50]
0	0xbabeb74c	-0.0014550476
1	0xbdda5e79	-0.106625505
2	0x3d6eebc8	0.058330327
3	0x3d750673	0.059820604
4	0xbd90b636	-0.07066004
5	0xbd04478b	-0.03229479
6	0xbca5391a	-0.02016883
7	0x3bd2e557	0.006436031
8	0x3df3fac3	0.119130634
9	0xbd5e6299	-0.05429325
10	0x3d7d672e	0.061865978
11	0x3c765c85	0.015036707
12	0x3dde9b5e	0.10869478
13	0xbd89ef01	-0.067350395
14	0xbde76fce	-0.11300622
15	0x3c60cf84	0.013721351
16	0x3d8f211b	0.06988736
17	0x3cb1af68	0.021690086
18	0xbd130d55	-0.035901386
19	0x3dc67742	0.096907154
20	0xbbefbb31	-0.007316016
21	0xbc55f1b7	-0.013058118
22	0xbcde61e2	-0.027146284
23	0xbdd45264	-0.10367277
24	0xbd34c368	-0.044131666
25	0xbe1a8bfd	-0.15092464
26	0x3e0d083f	0.13772677
27	0x3d3429ed	0.043985296
28	0xbd0b7fd9	-0.034057472
29	0x3be1c3d7	0.006889801
30	0x3c5afaef	0.013365491
31	0xbe09f624	-0.13472801
32	0x3cf09e5c	0.029372387
33	0x3e00cf9a	0.12579194
34	0x3b25a22c	0.0025273664
35	0xbc684455	-0.014176448
36	0x3d900d2f	0.070337646
37	0xbcd2e2ae	-0.025742855
38	0x3b811ad7	0.003939967
39	0x3d101af1	0.035181943
40	0x3ddf1b8a	0.108939245
41	0xbc9e6d2a	-0.019339163
42	0xbd90e572	-0.07075013
43	0xbd3a6d74	-0.04551454
44	0x3dd61102	0.10452463
45	0x3d49d2ae	0.049273185
46	0xbd365c9e	-0.04452192
47	0xbd874075	-0.06604091
48	0x3d9fb063	0.07797315
49	0xbd04671e	-0.032324903
50	0x3ba86fd2	0.005140283
51	0x3e0cf8ec	0.13766831
52	0x3dda6d83	0.10665419
53	0x3d1c91b3	0.038224887
54	0x3d660c6f	0.0561642
55	0xbd22bc3a	-0.039730288
56	0xbda5a16b	-0.08087429
57	0xbc2b5368	-0.010456897
58	0x3c9cc082	0.019134764
59	0x3a742075	0.0009312698
60	0xbd4e2fd2	-0.050338574
61	0x3d4d02c4	0.050051466
62	0xbdb98c89	-0.09060008
63	0x3dd1452d	0.10218272
64	0xbdaecd44	-0.08535245
65	0xbe1dcaf1	-0.15409447
66	0xbde2e714	-0.11079231
67	0xbd3b9bf3	-0.04580302
68	0xbd719cf3	-0.05898757
69	0xb9b56917	-0.00034601308
70	0x3dc813ca	0.097693995
71	0xbda87f51	-0.08227409
72	0xbd064dd3	-0.032789063
73	0xbdd7587e	-0.105149254
74	0x3db1cbf9	0.08681483
75	0x3db4ec0c	0.08834085
76	0xbe3f6ca3	-0.18693785
77	0x3ddaaf0f	0.10677921
78	0xbdc7ef13	-0.09762397
79	0xbafa1e44	-0.0019082506
80	0x3d5d88c2	0.0540855
81	0x3cd6ded6	0.026229303
82	0x3e1163b4	0.1419819
83	0x3b1af8eb	0.0023646902
84	0xbd047997	-0.03234252
85	0xbcbe38ec	-0.023220502
86	0x3da43fcb	0.0801998
87	0xbda5c25a	-0.0809371
88	0xbd5af002	-0.053451546
89	0x3e47e5b3	0.19521217
90	0x3cec5c98	0.028852746
91	0x3dc66d23	0.09688785
92	0xbdbde2a3	-0.09271743
93	0xbdd72903	-0.10505869
94	0xbd40e790	-0.047095835
95	0x3e071347	0.13190947
96	0xbcf93050	-0.030418545
97	0x3d8c13d2	0.06839718
98	0xbcf36c96	-0.029714864
99	0x3da1db22	0.079031244
100	0x3dfbe95b	0.123003684
101	0xbc194cac	-0.009356659
102	0xbdac3bac	-0.08409819
103	0xbe1226d1	-0.1427262
104	0x3d4ae0a2	0.049530633
105	0x3db375f8	0.08762735
106	0x3d1bdf77	0.03805491
107	0x3d41ba62	0.04729689
108	0xbdd37d85	-0.10326675
109	0x3dac25a5	0.084056176
110	0xbd7fa722	-0.06241525
111	0x3dfeed16	0.12447564
112	0xbbce0cb8	-0.0062881373
113	0xbd97c6c9	-0.07410962
114	0x3dfe9b0e	0.12431918
115	0xbd35cc80	-0.04438448
116	0xbd9c5602	-0.07633592
117	0xbde73229	-0.11288864
118	0xbd844b60	-0.06459689
119	0x3d9a3ae9	0.075307675
120	0x3d3afc6e	0.045650892
121	0xbe0bc4bd	-0.13649268
122	0x3e04f180	0.1298275
123	0xbd2660f9	-0.040619824
124	0x3ca8f40f	0.020624189
125	0x3e18f51d	0.14937253
126	0x3ddba03b	0.10723921
127	0xbd91a41c	-0.071113795
128	0xbdadcd01	-0.08486367
129	0xbd4e739e	-0.05040323
130	0xbd319151	-0.043351475
131	0x3dbc1217	0.09183138
132	0x3dd7658b	0.10517415
133	0xbe120ce6	-0.14262733
134	0x3d5a8264	0.053347006
135	0xbcc305fd	-0.023806566
136	0xb76ca8d6	-1.4106006e-05
137	0xbdb1bc00	-0.08678436
138	0x3cf60868	0.030033305
139	0x3e07d074	0.13263112
140	0xbc9bfcbf	-0.019041417
141	0xbe27cd7e	-0.16386983
142	0x3dc9b516	0.098489925
143	0xbbabd580	-0.005243957
144	0x3dc7c69b	0.09754678
145	0x3dc42f12	0.095792904
146	0xbd7c3aa2	-0.061579354
147	0xbd88b0b7	-0.06674331
148	0x3d916007	0.07098394
149	0xbd7f97be	-0.062400572
150	0xbe4e95fb	-0.201744
151	0x3c19e8fc	0.009393927
152	0x3e091f72	0.13390902
153	0xbe0f7d68	-0.14012682
154	0x3dd03f4b	0.10168322
155	0xbba56dc4	-0.0050484855
156	0xbdd99451	-0.10623992
157	0x3dcd3504	0.100198776
158	0x3d56ee6d	0.052473474
159	0xbd528e2f	-0.051405128
160	0xbd574480	-0.05255556
161	0x3ddbf870	0.10740745
162	0xbc77e22f	-0.01512961
163	0xbdb7443a	-0.0894856
164	0x3d1d6c11	0.03843314
165	0x3e000b33	0.12504272
166	0x3dae098a	0.08497913
167	0xbc0d8613	-0.008637923
168	0x3dc2f8c4	0.095201045
169	0xbcb35d17	-0.021894975
170	0x3d9820b0	0.0742811
171	0xbdc577e0	-0.09642005
172	0xbe0bee62	-0.13665155
173	0x3e07e49c	0.13270801
174	0xbdc9ed87	-0.09859758
175	0xbe39f7cd	-0.18160935
176	0xbd1b4733	-0.037909698
177	0x3d917798	0.07102889
178	0x3b9dd967	0.004817176
179	0x3d4b7b0e	0.0496779
180	0xbc013aaa	-0.007887522
181	0xbbc21cc2	-0.0059238384
182	0x3e849ae0	0.2589941
183	0x3d1c9303	0.03822614
184	0x3dd6237c	0.10455987
185	0x3c249eff	0.010047673
186	0x3dc165a0	0.094432116
187	0x3d8cfac8	0.0688377
188	0xbb70f2eb	-0.0036765884
189	0x3d19f018	0.037582487
190	0x3dde7e16	0.10863893
191	0x3dbd2d1b	0.09237119
192	0x3b11fa2c	0.0022274358
193	0x3d11ae9f	0.035566922
194	0x3b8fece7	0.0043922546
195	0x3d454b5f	0.048167583
196	0x3e0409bb	0.12894337
197	0xbd95408b	-0.07287701
198	0xbdbfb923	-0.09361484
199	0x3daa02f8	0.083013475
200	0xbd38a982	-0.04508353
201	0xbe0caa20	-0.13736773
202	0xbdb0c666	-0.086315915
203	0x3ded8415	0.11597458
204	0x3d8cd019	0.06875629
205	0x3d76f59e	0.060292833
206	0xbda9e3d2	-0.082954064
207	0x3b693014	0.0035581635
208	0x3d64aa2c	0.05582635
209	0xbbbb023c	-0.0057070535
210	0xbcb8c6c1	-0.02255571
211	0xbe1573fe	-0.14595029
212	0x3da7d32d	0.081945755
213	0x3db953de	0.090491995
214	0xbd88da6f	-0.06682288
215	0x3ddc9c39	0.107719846
216	0xbc33605b	-0.010948266
217	0xbbdfa140	-0.0068246424
218	0x3e20ca54	0.15702182
219	0x3db01618	0.08597964
220	0x3bd972e2	0.0066360096
221	0x3cc00c21	0.023443284
222	0xbe206bef	-0.15666173
223	0x3e18891c	0.14896053
224	0xbde17705	-0.11009029
225	0x3df8dc83	0.12151434
226	0xbcc9d5f4	-0.024638154
227	0xbd30bc51	-0.043148343
228	0xbd85dfa1	-0.065367945
229	0xbdad18d4	-0.08452001
230	0xbc83646b	-0.016039094
231	0x3e07ebb2	0.13273504
232	0xbdb111fb	-0.086460076
233	0x3d8bd978	0.06828588
234	0xbdcc8e4f	-0.09988081
235	0x3da464ad	0.08027015
236	0xbdf3665c	-0.11884758
237	0xbde02d19	-0.10946102
238	0x3d101e46	0.03518512
239	0xbcc5e87f	-0.024158714
240	0x3d0093e2	0.031391032
241	0x3d4756f3	0.048666906
242	0xbd60307c	-0.05473374
243	0xbb9f4365	-0.004860329
244	0x3d9c9c7b	0.07647034
245	0x3d989054	0.074494034
246	0xbbd3426d	-0.0064471276
247	0xbd8e21ff	-0.06940078
248	0x3cbbbb42	0.02291644
249	0xbc45d27d	-0.01207411
250	0x3db547d8	0.08851594
251	0x3d8b013b	0.06787344
252	0x3cd485d4	0.02594272
253	0x3dc93c49	0.098259516
254	0xbe0121dc	-0.12610573
255	0x3e1a95fe	0.1509628

linear2.bias f4 [100]
0	0xbd9d8be0	-0.07692695
1	0xbd034261	-0.032045726
2	0xbd564f93	-0.05232198
3	0xbc5b0e35	-0.013370086
4	0x3bca5054	0.0061741266
5	0xbdf6a1fb	-0.12042614
6	0xbd083968	-0.033257872
7	0x3e095d5a	0.13414517
8	0xbda8b3a5	-0.082373895
9	0x3d9e7663	0.07737424
10	0xbdee719d	-0.11642764
11	0xbdccb5fe	-0.0999565
12	0x3d95792b	0.072985016
13	0xbe087a44	-0.1332789
14	0x3c9a6836	0.01884852
15	0x3d2fcad3	0.042918038
16	0x3e0b6ad5	0.13614972
17	0xbe08137d	-0.13288684
18	0x3deb818c	0.114993185
19	0x3e00aca8	0.12565863
20	0x3dbcef06	0.092252776
21	0xbdb47d53	-0.08812966
22	0x3b7740f1	0.0037727917
23	0xbcf3a1c4	-0.029740222
24	0xbd4c827b	-0.049929123
25	0x3c826b24	0.01592023
26	0x3c11b816	0.008893987
27	0x3e0ffa39	0.14060296
28	0x3dafdfd3	0.08587613
29	0xbd583eed	-0.052794386
30	0x3e0f0e77	0.13970362
31	0x3c484912	0.012224453
32	0xbdbbeb08	-0.09175688
33	0x3c003147	0.007824249
34	0x3dd670c1	0.10470725
35	0x3b513a82	0.0031925743
36	0xbd6dbaa6	-0.05803933
37	0x3cacc68b	0.021090766
38	0xbd12a59a	-0.03580246
39	0xbd91a6a8	-0.07111865
40	0xbdbf6c7c	-0.093468636
41	0x3dabb9f6	0.083850786
42	0xbde4bd26	-0.1116889
43	0xbda64a43	-0.08119633
44	0x3db1478e	0.08656226
45	0x3e0543f1	0.13014199
46	0xbdbcc309	-0.092168875
47	0xbdf0ecb7	-0.117639
48	0xbdf033ff	-0.117286675
49	0x3d9bdacf	0.07610094
50	0x3dfa455d	0.12220261
51	0xbc8c3e30	-0.017119497
52	0xbd1b8716	-0.037970625
53	0xbe0720b4	-0.13196069
54	0xbd5938d8	-0.053032726
55	0x3e0da866	0.1383377
56	0x3de4c34b	0.11170062
57	0x3cb2cedd	0.021827156
58	0x3dfdb6ea	0.12388404
59	0x3da9e033	0.08294716
60	0xbd051e67	-0.032499697
61	0x3c93e81a	0.01805501
62	0xbd4b0cf5	-0.049572904
63	0xbc2f1209	-0.010685452
64	0x3d0784a8	0.033085495
65	0x3bdaaade	0.006673201
66	0x3d3fa813	0.046791147
67	0x3df15826	0.11784391
68	0x3c401284	0.0117231645
69	0x3c11efea	0.008907298
70	0xbd064a2b	-0.032785576
71	0x3b868cfe	0.004106163
72	0x3d8bf65b	0.06834098
73	0xbdc7735a	-0.097387984
74	0x3d4ea8ec	0.050454065
75	0xbc0b7875	-0.008512606
76	0xbd50b8dd	-0.05095755
77	0xbc83f85e	-0.016109642
78	0x3ccbca2b	0.024876675
79	0xbdb89167	-0.09012108
80	0xbdb47e4d	-0.088131525
81	0xbc96db3a	-0.018415082
82	0xbe0f1bb8	-0.13975418
83	0x3dba7b7a	0.091055825
84	0xbde56f0b	-0.112028204
85	0xbdbb5614	-0.091472775
86	0xbd6ea925	-0.058266778
87	0x3da9e0d2	0.08294834
88	0x3c53649d	0.012902406
89	0x3d9da9f7	0.07698434
90	0xbde2fb01	-0.110830314
91	0xbdb49a56	-0.088185
92	0xbe0b84ec	-0.13624924
93	0xbc25b6e8	-0.010114409
94	0x3c536608	0.012902744
95	0xbd86ba0a	-0.06578453
96	0x3d900384	0.070319206
97	0x3d656a66	0.056009673
98	0x3cf1b530	0.029505342
99	0x3e05b489	0.1305715

bn2.weight f4 [100]
0	0x3f822bba	1.0169594
1	0x3f639035	0.8889192
2	0x3f81bd5a	1.013591
3	0x3f7b5023	0.98169154
4	0x3f81e9ff	1.0149535
5	0x3f7e5991	0.9935542
6	0x3f6d008c	0.9257896
7	0x3f7fc391	0.99907786
8	0x3f854bcb	1.0413755
9	0x3f7a697e	0.9781722
10	0x3f825df8	1.0184927
11	0x3f7a346b	0.97736233
12	0x3f804159	1.0019943
13	0x3f886404	1.0655522
14	0x3f727c9c	0.9472139
15	0x3f813de9	1.0097018
16	0x3f80655f	1.0030936
17	0x3f7958a8	0.97400904
18	0x3f80e838	1.0070868
19	0x3f86dfd3	1.0537056
20	0x3f81e5c0	1.0148239
21	0x3f84b81a	1.0368683
22	0x3f80e019	1.0068389
23	0x3f7edb9e	0.9955386
24	0x3f75e0f4	0.96046376
25	0x3f807803	1.0036625
26	0x3f840027	1.0312546
27	0x3f7b7f41	0.9824105
28	0x3f78e67e	0.97226703
29	0x3f7c0fef	0.9846181
30	0x3f7ae0d4	0.9799931
31	0x3f7faec8	0.9987607
32	0x3f6cc318	0.9248519
33	0x3f775ade	0.9662303
34	0x3f797e9f	0.97458833
35	0x3f7f818d	0.99807054
36	0x3f858a0a	1.0432751
37	0x3f813bdd	1.0096394
38	0x3f8265ce	1.0187318
39	0x3f7b7add	0.9823435
40	0x3f7cd073	0.9875557
41	0x3f827bcc	1.019403
42	0x3f7d4336	0.9893068
43	0x3f802b37	1.0013188
44	0x3f6ec545	0.9326976
45	0x3f80b69f	1.0055732
46	0x3f83670a	1.026582
47	0x3f6cf66c	0.9256351
48	0x3f84eba2	1.038441
49	0x3f7bf5b9	0.9842182
50	0x3f7e732f	0.99394506
51	0x3f80df23	1.0068096
52	0x3f6c8cdc	0.92402434
53	0x3f824cc4	1.0179677
54	0x3f84bc91	1.0370046
55	0x3f829bb9	1.0203773
56	0x3f7424c4	0.953686
57	0x3f77c075	0.9677804
58	0x3f868d69	1.0511905
59	0x3f79af5a	0.9753319
60	0x3f839d8d	1.0282456
61	0x3f820f5c	1.0160937
62	0x3f8428f5	1.0324999
63	0x3f8386aa	1.0275471
64	0x3f7ace40	0.9797096
65	0x3f83d301	1.0298768
66	0x3f7672e3	0.96269053
67	0x3f77b565	0.9676116
68	0x3f68fb7f	0.9100875
69	0x3f860143	1.0469135
70	0x3f6a23a7	0.9146065
71	0x3f6f5b46	0.9349865
72	0x3f83d914	1.0300622
73	0x3f864345	1.0489279
74	0x3f5fba52	0.8739368
75	0x3f81f1c9	1.0151912
76	0x3f6a9989	0.91640526
77	0x3f840f77	1.031722
78	0x3f69b829	0.9129663
79	0x3f7a8a3b	0.9786717
80	0x3f6aa34d	0.9165543
81	0x3f7ffb96	0.99993265
82	0x3f7cf92b	0.988177
83	0x3f80de39	1.0067817
84	0x3f6c5b38	0.9232669
85	0x3f83994f	1.0281161
86	0x3f86ef4b	1.0541776
87	0x3f75ade3	0.95968455
88	0x3f8443b6	1.0333164
89	0x3f838da6	1.0277603
90	0x3f7815ac	0.9690807
91	0x3f6a6281	0.91556555
92	0x3f72c8f9	0.9483791
93	0x3f7dc56d	0.9912937
94	0x3f861cff	1.0477599
95	0x3f7b4569	0.98152786
96	0x3f786759	0.97032696
97	0x3f825abf	1.0183944
98	0x3f8406fe	1.0314634
99	0x3f82364e	1.0172822

bn2.bias f4 [100]
0	0x3d477b79	0.048701737
1	0x3df46a87	0.11934381
2	0x3dc7272f	0.097242706
3	0x3e28e657	0.16494118
4	0x3dbb31d4	0.09140363
5	0x3e269678	0.16268337
6	0x3de898e6	0.11357288
7	0x3e2a6dc2	0.16643432
8	0x3e1e1e10	0.15441155
9	0x3ded4a7e	0.11586474
10	0x3d8cae33	0.06869163
11	0x3e1795a7	0.14803182
12	0x3ddce64b	0.107861124
13	0x3e6729fd	0.22574611
14	0x3df2f221	0.11862589
15	0x3e0b0617	0.13576542
16	0x3dd297e6	0.102828786
17	0x3da5ce1b	0.08095952
18	0x3e7f5e3b	0.2493829
19	0x3e1ee649	0.15517534
20	0x3dffd045	0.12490896
21	0x3d70b67a	0.058767773
22	0x3e39c7a3	0.18142562
23	0x3e270185	0.16309173
24	0x3e905aba	0.2819422
25	0x3b470d92	0.0030373079
26	0x3de5734e	0.11203633
27	0x3dac2cc5	0.084069766
28	0x3e05ec2b	0.13078372
29	0x3db1c5d6	0.08680312
30	0x3e58aa1d	0.21158643
31	0x3e018a7c	0.12650484
32	0x3d9193f3	0.07108297
33	0xbc487d3e	-0.012236891
34	0xbd069d55	-0.032864887
35	0x3dd39bd2	0.10332455
36	0x3e38ae4e	0.18035242
37	0x3c860f85	0.016364822
38	0x3cf30c47	0.02966894
39	0x3cca7db5	0.024718145
40	0x3dc643aa	0.09680875
41	0x3e05ddc3	0.13072877
42	0x3df38ff9	0.11892695
43	0x3e90c7a2	0.28277308
44	0x3d8f4ca2	0.069970384
45	0x3db27281	0.08713246
46	0x3e0a1dfc	0.13488
47	0x3e070774	0.13186437
48	0x3e148922	0.14505437
49	0x3e70e770	0.23525786
50	0x3e3d3d32	0.18480375
51	0x3dca1ee6	0.09869175
52	0x3d8d9bc7	0.06914478
53	0x3c6bcc8e	0.014392031
54	0x3e0b34f2	0.13594416
55	0x3e6d0106	0.23144922
56	0x3deb14d7	0.11478584
57	0x3d8ff9fb	0.07030102
58	0x3df023c3	0.11725571
59	0x3e2482b5	0.16065486
60	0x3d17a54b	0.03702287
61	0x3da933cd	0.08261833
62	0x3e4e135e	0.20124575
63	0x3df1ebc1	0.118125446
64	0x3d540af7	0.05176827
65	0x3da95b6c	0.082693905
66	0xbd147172	-0.036241002
67	0x3e481d7b	0.19542496
68	0x3dab6978	0.08369726
69	0x3d2d2114	0.042267874
70	0x3c132297	0.008980415
71	0x3e3284bc	0.17433447
72	0x3dea67c5	0.11445574
73	0x3d851dc2	0.064998165
74	0x3e15825e	0.14600512
75	0x3e1cf7dd	0.15328927
76	0x3e0374aa	0.12837473
77	0x3e393563	0.18086772
78	0x3e724522	0.23659185
79	0x3eb6bf1f	0.3569269
80	0x3dfcb931	0.1234001
81	0x3e335edf	0.17516659
82	0x3e707f0c	0.23485965
83	0x3d9a44ca	0.07532652
84	0x3da82c24	0.08211544
85	0x3e17022c	0.14746922
86	0x3e23dcf0	0.1600225
87	0x3dfab9d9	0.12242479
88	0x3de933cb	0.11386832
89	0x3bb73b4c	0.0055917855
90	0xbd86c77f	-0.065810196
91	0x3d19128a	0.037371196
92	0x3e1403a9	0.14454521
93	0x3d0dd051	0.034622494
94	0x3e581ecc	0.21105498
95	0x3d3f8033	0.04675312
96	0x3df041f5	0.1173133
97	0x3cbf40e4	0.023346372
98	0x3de74cf4	0.112939745
99	0x3d9632ff	0.073339455

bn2.running_mean f4 [100]
0	0xbd6ff978	-0.05858752
1	0xbcd2fa9d	-0.025754267
2	0x3b70e1ed	0.0036755756
3	0x3ec6779e	0.38763136
4	0x3cae0602	0.0212431
5	0xbdbbe47f	-0.091744415
6	0xbbcc0766	-0.006226468
7	0x3df989e8	0.12184507
8	0x3de40bee	0.11135088
9	0x3e4d2f19	0.20037498
10	0xbcd2b239	-0.025719749
11	0x3dbe57b2	0.0929407
12	0x3dbf1c2c	0.09331545
13	0xbd6df218	-0.058092207
14	0x3e0ce81b	0.13760416
15	0x3e4c825d	0.19971605
16	0x3e8ff8c9	0.28119496
17	0xbc0d445c	-0.008622255
18	0x3e538e3e	0.2065973
19	0x3e3af22e	0.18256447
20	0x3e35efcf	0.17767261
21	0xbd88fc58	-0.06688756
22	0x3e1a90e3	0.15094332
23	0x3e0e2f1e	0.13885161
24	0x3e01f654	0.12691623
25	0xbce7de97	-0.028304381
26	0x3d0f1b04	0.034937873
27	0x3e0a1d0d	0.13487644
28	0x3e192bd7	0.1495813
29	0x3dabfa64	0.083973676
30	0x3e66efdc	0.22552437
31	0x3cc3e583	0.02391315
32	0x3e012fb4	0.12615854
33	0x3c7e2bba	0.015513355
34	0x3df5ed2c	0.120081276
35	0x3d8fc677	0.07020276
36	0xbdebb8c1	-0.115098484
37	0x3c65231c	0.0139854215
38	0xbe2d74f9	-0.16939153
39	0x3b9e4ca7	0.004830915
40	0xbc0dfd60	-0.008666366
41	0x3db27535	0.08713762
42	0xbe462da1	-0.19353344
43	0x3e16e14a	0.14734378
44	0x3de50b9d	0.11183856
45	0x3d8c2cc0	0.06844473
46	0x3c5318b1	0.012884305
47	0x3c326cbc	0.010890182
48	0x3c8acb00	0.016942501
49	0x3e40ce4e	0.18828699
50	0x3e9d68c4	0.30743992
51	0xbe8bb2c4	-0.27284825
52	0x3da45387	0.08023744
53	0xbe3bd975	-0.18344672
54	0xbd9ff153	-0.07809701
55	0x3e21f7af	0.1581714
56	0x3e709678	0.234949
57	0x3e2e05c0	0.16994381
58	0x3ea0331a	0.31288987
59	0x3e2fd1ff	0.17169951
60	0xbd89b1ae	-0.06723343
61	0x3e951d1f	0.2912378
62	0x3c82ed9c	0.015982442
63	0x3dcb66dc	0.09931728
64	0x3e321dd5	0.17394193
65	0x3e427f2a	0.18993822
66	0xbd63e940	-0.055642366
67	0x3e59cbf5	0.2126921
68	0x3c0ddeb4	0.008659054
69	0x3c9b61af	0.018967478
70	0xbd44b7f5	-0.048026998
71	0x3d3280c1	0.04357982
72	0x3d956027	0.0729373
73	0xbe503161	-0.20331337
74	0xbd5fe595	-0.054662306
75	0xbc642cd3	-0.013926703
76	0x3b9bc495	0.004753659
77	0xbcc1af10	-0.023643047
78	0x3de94efa	0.11392017
79	0xbe0b975d	-0.1363196
80	0x3ee79262	0.4522887
81	0x3dd89c39	0.10576672
82	0xbd5e3a0c	-0.054254577
83	0x3e750b83	0.23930173
84	0x3d582f69	0.05277959
85	0x3ce8f9ec	0.028439485
86	0x3b07a6c6	0.002069877
87	0x3c8b0a7c	0.016972773
88	0x3dbdc7dc	0.09266636
89	0x3da80ff6	0.08206169
90	0xbe82f78f	-0.25579497
91	0x3dd50bf7	0.10402673
92	0xbdb52939	-0.08845753
93	0x3df17644	0.117901355
94	0xbc966f8f	-0.018363742
95	0xbe471b8a	-0.19444099
96	0x3e3f0158	0.18652856
97	0x3dad48f0	0.08461177
98	0x3e7a3803	0.2443543
99	0x3e7bfde3	0.24608569

bn2.running_var f4 [100]
0	0x3e269b8b	0.16270272
1	0x3de3192e	0.11088787
2	0x3e910f19	0.2833183
3	0x3f189091	0.5959559
4	0x3d36cf61	0.044631366
5	0x3e91b074	0.28454936
6	0x3e286205	0.16443641
7	0x3e42dbf1	0.19029213
8	0x3eac2146	0.33619136
9	0x3eb0baac	0.3451742
10	0x3e730ae2	0.2373462
11	0x3e472c5b	0.19450514
12	0x3e141a85	0.14463241
13	0x3e326d23	0.17424445
14	0x3de8adcf	0.11361276
15	0x3dd00232	0.10156669
16	0x3ec020bb	0.3752497
17	0x3ec82814	0.39093077
18	0x3e02eb0e	0.12784979
19	0x3ee91d4b	0.4553016
20	0x3e501703	0.20321278
21	0x3d699ced	0.05703442
22	0x3e9b5239	0.30336168
23	0x3e2ba7c0	0.1676321
24	0x3dfa5aac	0.122243255
25	0x3e77f386	0.2421399
26	0x3d928e22	0.07156016
27	0x3e7ce549	0.2469684
28	0x3db7bd0b	0.08971604
29	0x3e73992a	0.23788896
30	0x3e575a6f	0.21030591
31	0x3e6bd908	0.2303201
32	0x3dee7a7e	0.11644457
33	0x3de9506a	0.11392291
34	0x3e3b54c0	0.18294048
35	0x3e137e94	0.14403754
36	0x3e34041c	0.17579693
37	0x3d61378b	0.05498461
38	0x3dd80b30	0.10549009
39	0x3ec258e1	0.37958434
40	0x3e593a92	0.21213749
41	0x3e790d43	0.24321465
42	0x3e929599	0.2862976
43	0x3de2fdad	0.11083541
44	0x3e5c2981	0.21500207
45	0x3e111b7d	0.14170642
46	0x3e50c139	0.20386209
47	0x3dcc50b5	0.09976331
48	0x3eb10e77	0.34581348
49	0x3e5be31c	0.21473354
50	0x3dee9f3f	0.116514675
51	0x3e8b01e0	0.27149868
52	0x3e85a0e6	0.26099318
53	0x3e009654	0.12557346
54	0x3dde5d5f	0.10857653
55	0x3dfa2b91	0.12215341
56	0x3e7ae236	0.24500355
57	0x3e9312a1	0.2872515
58	0x3eaf4e27	0.34239313
59	0x3e3ae936	0.18253025
60	0x3d10f2bf	0.03538775
61	0x3e46f413	0.19429044
62	0x3e7948c0	0.24344158
63	0x3ec6dd03	0.38840494
64	0x3ea81700	0.32830048
65	0x3e3d7666	0.18502197
66	0x3e4ed60b	0.20198838
67	0x3e241f5d	0.16027589
68	0x3e258daf	0.16167329
69	0x3e06fbf6	0.13182053
70	0x3db7405b	0.08947822
71	0x3e645c0f	0.22300743
72	0x3d33c2ce	0.043886952
73	0x3e0e2d9f	0.1388459
74	0x3d9360d4	0.07196203
75	0x3e259cd1	0.16173102
76	0x3dcfc28f	0.10144531
77	0x3e00c161	0.12573768
78	0x3dca5fbb	0.098815404
79	0x3e012d83	0.12615018
80	0x3e8d5ddb	0.2761067
81	0x3df8b1e2	0.121433035
82	0x3e1b849d	0.15187307
83	0x3dc725bd	0.09723995
84	0x3e31b17a	0.17352858
85	0x3e45703b	0.19281094
86	0x3e9c6aa1	0.305501
87	0x3e5be38d	0.21473522
88	0x3eb55553	0.3541666
89	0x3e0f8d87	0.14018832
90	0x3e2cbb5b	0.16868345
91	0x3e26fb03	0.16306691
92	0x3e0de0f9	0.13855352
93	0x3f0199db	0.5062539
94	0x3eb5fc51	0.35544065
95	0x3d94f26c	0.07272801
96	0x3de92b19	0.11385173
97	0x3ea3094d	0.31843033
98	0x3e83f8d4	0.25775778
99	0x3e627b90	0.22117448

linear3.weight f4 [50, 100]
0	0x3be8a467	0.0070996764
1	0x3d37da12	0.044885702
2	0xbd525eb2	-0.05135984
3	0x3d550cc2	0.05201412
4	0xbcbc0c3f	-0.022955058
5	0x3ca057c3	0.019573098
6	0xbc52e358	-0.012871586
7	0x3b3ffc1c	0.0029294556
8	0x3d484a19	0.04889879
9	0xbd221e3e	-0.039579622
10	0x3d81d9ac	0.06340346
11	0x3d91e277	0.07123273
12	0x3cd94cd1	0.026525887
13	0x3d21d32c	0.03950803
14	0xbd075acd	-0.03304558
15	0xbd4c743c	-0.049915537
16	0xbb7725ae	-0.0037711668
17	0x3bc9fd52	0.0061642313
18	0xbd05e32d	-0.032687355
19	0x3cdce77d	0.026965851
20	0x3dffd759	0.12492246
21	0xbaf17ecf	-0.0018424633
22	0x3e0f5a12	0.13999203
23	0x3c21035a	0.009827459
24	0xbd7d178d	-0.061790038
25	0xbd5c8bb2	-0.05384416
26	0x3ced7dbc	0.028990619
27	0xbbea0acb	-0.0071424
28	0xba1d6115	-0.0006003541
29	0xbd1ab784	-0.03777267
30	0x3c81fcd3	0.015867626
31	0x3d90fc12	0.070793286
32	0x3cdf735c	0.027276687
33	0x3d754a81	0.059885506
34	0xbd56b37f	-0.052417275
35	0x3d8c0aec	0.06838021
36	0x3d9a341b	0.075294696
37	0xbd9540c8	-0.07287747
38	0xbd205057	-0.039139118
39	0xbccd00bb	-0.025024762
40	0xbcc4721f	-0.023980198
41	0xbd2e8467	-0.042606737
42	0x3d2304b1	0.039799396
43	0x3d33b9ea	0.043878473
44	0xbd37c319	-0.044863794
45	0xbde526da	-0.11189051
46	0x3d11da8e	0.03560882
47	0xbd421cfb	-0.04739092
48	0x3c953d26	0.018217634
49	0x3db54593	0.08851161
50	0xbcffb4d6	-0.031214159
51	0xbc4bc418	-0.012436889
52	0xbcab6b91	-0.020925315
53	0xbdc0b6a5	-0.09409837
54	0xbc9210c9	-0.01783027
55	0xbbf13627	-0.007361192
56	0xbd571b19	-0.052516077
57	0x3c0be6ab	0.008538882
58	0xbc8457f2	-0.016155217
59	0x3c8e60e2	0.017380182
60	0x3e574c8a	0.21025291
61	0x3de140f1	0.10998715
62	0xbae15d8b	-0.0017194016
63	0x3d7d3579	0.061818574
64	0x3d06d476	0.032917462
65	0xbd07a344	-0.033114687
66	0xbd54fcee	-0.051999025
67	0x3cc1e2f8	0.023667797
68	0x3d30d1b6	0.043168746
69	0xbd46c6e4	-0.04852952
70	0xbcaa95b2	-0.020823333
71	0xbba182b6	-0.004928912
72	0xbd762ddd	-0.060102332
73	0xbd3bd8c2	-0.045861013
74	0xbcacfd55	-0.021116892
75	0x3cc5e030	0.024154752
76	0x3c1af423	0.009457621
77	0x3d87ec5b	0.06636878
78	0x3b9cf345	0.004789742
79	0x3d4faf6d	0.05070441
80	0x3e10da65	0.14145811
81	0xbd2b67df	-0.041847106
82	0x3c97e4c8	0.018541709
83	0xbdf74eff	-0.12075614
84	0xbd83e863	-0.064408086
85	0xbd821674	-0.06351939
86	0xbd72c2d1	-0.059267823
87	0x3d5f9024	0.054580823
88	0x3b980c15	0.004640112
89	0x3d8ef5af	0.06980454
90	0x3ced299c	0.028950505
91	0xbcfe507c	-0.031044237
92	0xbd521372	-0.051288076
93	0x3d5c006f	0.05371135
94	0x3d8a9ead	0.06768546
95	0x3da42ece	0.0801674
96	0xbd02f44e	-0.03197127
97	0xbc7851ff	-0.015156268
98	0xbca8818d	-0.020569587
99	0x3cca8da9	0.024725752
100	0x3d6f6df0	0.058454454
101	0xbd924467	-0.07141953
102	0x3c772395	0.015084167
103	0x3d346379	0.044040177
104	0xbe0a4ddb	-0.13506262
105	0xbc03c331	-0.008042143
106	0x3c16037e	0.009156106
107	0x3d51ac12	0.05118949
108	0x3da71939	0.08159108
109	0xbd9f623f	-0.07782411
110	0x3cb7ae25	0.022421906
111	0x3e1a86f7	0.15090548
112	0xbc4fa8f3	-0.012674558
113	0x3dc9024e	0.09814893
114	0xbd671c81	-0.056423668
115	0x3c77c47d	0.01512253
116	0xbd08f0ed	-0.03343289
117	0xbd8808b7	-0.06642287
118	0x3bfce527	0.007717747
119	0xbd64643f	-0.055759665
120	0xbd60626f	-0.054781374
121	0x3cc01f37	0.023452384
122	0x3ca8fceb	0.020628413
123	0xbbc447e0	-0.0059900135
124	0x3cf89d4f	0.030348448
125	0xbd61f0da	-0.055161335
126	0x3b9e4d50	0.0048309937
127	0x3d91bdeb	0.07116302
128	0x3cfe6d63	0.031058019
129	0xbb7c34e8	-0.0038483683
130	0xbc9d00fb	-0.019165507
131	0xbd076846	-0.033058427
132	0xbd606e17	-0.05479249
133	0xbd952225	-0.07281903
134	0xbddf6c2d	-0.10909305
135	0x3d05afee	0.032638483
136	0x3dfb1152	0.12259163
137	0xbde4e45e	-0.1117637
138	0xbd496031	-0.049164
139	0xbc4aabfb	-0.012370105
140	0xbd1ca4fa	-0.03824327
141	0xbca6bf80	-0.020354986
142	0xbcbf4aa9	-0.02335103
143	0x3ddcfda2	0.10790564
144	0x3d50e796	0.051002108
145	0xbd392304	-0.04519941
146	0xbd230607	-0.03980067
147	0x3d87e00b	0.0663453
148	0xbd2ce70f	-0.042212542
149	0x3dc282ec	0.094976276
150	0x39538eef	0.00020175775
151	0xbbd08aea	-0.006364216
152	0x3d27d803	0.04097749
153	0xbbba3796	-0.005682896
154	0x3e2115eb	0.15731017
155	0x3c5cde58	0.013480745
156	0xbd4560de	-0.048188083
157	0xbd027d1f	-0.031857606
158	0x3dc5bece	0.09655534
159	0x3d915a4f	0.07097303
160	0x3d8e95b6	0.06962149
161	0x3dc32764	0.095289975
162	0xbdaa4ad4	-0.083150536
163	0x3ca204cc	0.019777678
164	0x3d9375fc	0.07200238
165	0x3d902d07	0.07039838
166	0x3cba5b05	0.02274848
167	0xbd35a0cd	-0.044342805
168	0xbca0eb4a	-0.019643445
169	0xba41a4d8	-0.00073869294
170	0xbd6aedd4	-0.057355717
171	0xb99ba5e8	-0.00029687514
172	0xbd23ab3a	-0.039958216
173	0xbdb88102	-0.09008981
174	0x3d3124eb	0.0432481
175	0xbc2b3558	-0.01044973
176	0x3bc8bb68	0.006125856
177	0xbd86fea5	-0.06591538
178	0x3cecaa27	0.028889729
179	0x3df99af4	0.12187758
180	0xbcb93f7d	-0.022613281
181	0xbd34456b	-0.044011515
182	0x3cbd0c6c	0.023077212
183	0x3d0beb5f	0.034160014
184	0xbd8df2fb	-0.069311105
185	0xbe00cea6	-0.1257883
186	0x3dcfc4a2	0.101449266
187	0xbd51cede	-0.051222675
188	0x3dc8caab	0.09804281
189	0x3e165391	0.14680316
190	0xbd8e792a	-0.06956704
191	0xbbaa8fbf	-0.005205124
192	0xbc6d87c1	-0.014497698
193	0xbd6f12f3	-0.05836768
194	0xbd3e6f24	-0.04649271
195	0x3d199609	0.0374966
196	0x3c8349e5	0.016026447
197	0x3d2d7e45	0.042356748
198	0x3d74791a	0.059685804
199	0x3da40698	0.0800907
200	0xbc90f680	-0.017695665
201	0x3c63b9fe	0.013899324
202	0xbd50701b	-0.050888162
203	0x3d876662	0.06611325
204	0x3d7f501c	0.062332258
205	0xbd9587b6	-0.073012754
206	0xbc97d9cf	-0.018536476
207	0x3cddc5c5	0.027071843
208	0xbc5a6677	-0.013330094
209	0x3e036d2f	0.12834619
210	0x3cdec575	0.027193764
211	0xbd7d82c3	-0.061892282
212	0xbc929c53	-0.017896807
213	0x3d2f2ab0	0.04276532
214	0x3bd31326	0.0064414917
215	0x3dad9a65	0.08476714
216	0x3decdc0c	0.11565408
217	0x3e06c8c8	0.1316253
218	0x3d05463b	0.03253768
219	0xbb55c688	-0.0032619555
220	0xbcae5b1e	-0.021283682
221	0x3cb19117	0.02167563
222	0xbdcef094	-0.101044804
223	0x3d53642b	0.0516092
224	0x3d97aaae	0.074056014
225	0xbc41317c	-0.011791583
226	0xbdad6cbc	-0.08468005
227	0xbc2226c0	-0.009896934
228	0xbcefc913	-0.029270684
229	0xbb8baf24	-0.0042628217
230	0x3b556219	0.0032559691
231	0xbcf336cc	-0.029689215
232	0xbdc168f3	-0.094438456
233	0xbcdab860	-0.026699245
234	0xba086770	-0.00052034017
235	0x3d33c66a	0.043890394
236	0x3d820c12	0.063499585
237	0xbcb79131	-0.0224081
238	0xbcd2148b	-0.025644561
239	0xbd221723	-0.039572846
240	0x3ad9bc0d	0.001661183
241	0x3d1b08af	0.03785008
242	0xbdc5ae58	-0.09652394
243	0xbcbcb040	-0.023033261
244	0xbd201198	-0.03907928
245	0xbd0fac99	-0.03507671
246	0xba0eb500	-0.0005443841
247	0x3d3b4fd1	0.045730416
248	0x3dc0ee1d	0.094204165
249	0x3a9b9611	0.0011870285
250	0xbd35b456	-0.044361435
251	0x3cf45091	0.029823573
252	0x3cfad14d	0.03061738
253	0xbd86cc00	-0.06581879
254	0x3cd82341	0.026383998
255	0x3c810bfa	0.015752781

linear3.bias f4 [50]
0	0xbd2d2772	-0.042273946
1	0xbdb8ca8a	-0.09023006
2	0xbd8279de	-0.063709006
3	0xbd7b873f	-0.061408278
4	0xbd4052a2	-0.046953805
5	0xbdbe65b4	-0.09296742
6	0x3ce9233d	0.028459186
7	0x3d359e76	0.044340573
8	0x3b53a4db	0.0032294306
9	0x3d8a66ee	0.067579135
10	0xb9646215	-0.00021780313
11	0xbd0b66f8	-0.034033746
12	0xbd8ebf35	-0.069700636
13	0xbbe77aa3	-0.00706418
14	0x3d339edd	0.043852676
15	0xbda560f5	-0.08075134
16	0xbdc1bc72	-0.09459771
17	0x3db65aae	0.089040145
18	0x3d6dda24	0.058069363
19	0x3d7ff3b2	0.062488265
20	0x39863b57	0.00025602683
21	0xbd20d394	-0.039264277
22	0xbcdb2691	-0.026751788
23	0xbd53cf21	-0.051711205
24	0xbda4261b	-0.080150805
25	0x3d5dfb8e	0.05419498
26	0xbc67de05	-0.014152055
27	0x3d6dc449	0.05804852
28	0x3d88e500	0.06684303
29	0xbc4690dd	-0.012119499
30	0x3c08fa14	0.0083604045
31	0xbd751cc4	-0.059841886
32	0xbd7c7cfe	-0.06164264
33	0xbdd48942	-0.10377742
34	0xbd9f4a7b	-0.07777878
35	0xbc78af39	-0.015178495
36	0xbd7a6eba	-0.061140753
37	0xbd29faae	-0.041498832
38	0x3d7a95e7	0.061178114
39	0xbd8b7668	-0.068096936
40	0xbb602991	-0.0034204463
41	0x3cba0dc6	0.022711646
42	0x3c2634a5	0.010144387
43	0xbd54d624	-0.051962033
44	0x3d0c414a	0.034241952
45	0x3c72eea5	0.014827405
46	0xbd99546a	-0.07486804
47	0x39c32e72	0.00037227903
48	0xbb68a16d	-0.0035496608
49	0xbb14544e	-0.0022633257

bn3.weight f4 [50]
0	0x3fbc3b7d	1.4705654
1	0x3fb76e09	1.4330455
2	0x3fbc8686	1.4728553
3	0x3fb80d14	1.4378991
4	0x3fb9c4a9	1.4513141
5	0x3fbb8201	1.4649049
6	0x3fb98ea2	1.4496653
7	0x3fb76d0b	1.4330152
8	0x3fb667de	1.4250448
9	0x3fb9e166	1.4521911
10	0x3fb9bc3d	1.4510571
11	0x3fb55344	1.4166036
12	0x3fb7185f	1.4304312
13	0x3fbc0188	1.4687967
14	0x3fbdf531	1.4840451
15	0x3fb65b80	1.4246674
16	0x3fb35a55	1.4011942
17	0x3fb744ea	1.4317906
18	0x3fb2f00a	1.3979504
19	0x3fb78bdf	1.433956
20	0x3fbb3ac6	1.4627311
21	0x3fb4c9a3	1.4124035
22	0x3fb4091f	1.4065284
23	0x3fb53af0	1.4158611
24	0x3fbb3c87	1.4627846
25	0x3fbd4baf	1.4788722
26	0x3fb61802	1.4226077
27	0x3fb4c24b	1.4121794
28	0x3fbd9c49	1.481332
29	0x3fb97cef	1.4491252
30	0x3fb7fa8b	1.4373335
31	0x3fbda9d4	1.4817452
32	0x3fb7538b	1.432237
33	0x3fb7b858	1.4353132
34	0x3fb6d63e	1.4284132
35	0x3fb8edf6	1.444762
36	0x3fbdaa15	1.481753
37	0x3fbbc050	1.4668064
38	0x3fb6a3c4	1.4268727
39	0x3fb2fc3b	1.3983225
40	0x3fb930c7	1.4468011
41	0x3fb5a59e	1.4191167
42	0x3fb3666b	1.401563
43	0x3fb283ca	1.3946469
44	0x3fb2d861	1.3972284
45	0x3fb63327	1.423436
46	0x3fb1ae6e	1.3881357
47	0x3fb1d40f	1.389284
48	0x3fbd7b11	1.4803182
49	0x3fb583c8	1.4180841

bn3.bias f4 [50]
0	0x3ef32d7c	0.4749564
1	0x3ee6c952	0.4507547
2	0x3ef696b8	0.48161864
3	0x3ee84762	0.4536696
4	0x3eef628a	0.46754867
5	0x3eea5d15	0.4577414
6	0x3ee699e2	0.45039278
7	0x3ee0fa5d	0.43941012
8	0x3ed866e9	0.42266014
9	0x3ef2ce36	0.4742295
10	0x3ef3b107	0.47596
11	0x3ed54947	0.4165747
12	0x3ee662bf	0.44997212
13	0x3ef3f9cc	0.47651517
14	0x3f0357fd	0.51306134
15	0x3ed4a1e5	0.41529766
16	0x3ed58d81	0.4170952
17	0x3ee5b41b	0.44863972
18	0x3ed7edac	0.42173517
19	0x3ee89b1e	0.45430845
20	0x3ef314dd	0.47476855
21	0x3edaf4c2	0.4276486
22	0x3ed4e278	0.41579032
23	0x3ef7a0f2	0.4836498
24	0x3eefb34b	0.46816477
25	0x3f018257	0.5058951
26	0x3ee38778	0.44439292
27	0x3edf2d04	0.43589032
28	0x3ef4d233	0.4781662
29	0x3ede79b0	0.43452215
30	0x3ef7e9c2	0.4842053
31	0x3efd0a10	0.4942174
32	0x3ee5f618	0.44914317
33	0x3eec76f0	0.46184492
34	0x3ee6f7d3	0.4511095
35	0x3ee9f69b	0.45695958
36	0x3f007f25	0.5019401
37	0x3efa4c45	0.48886314
38	0x3edd15f4	0.4318081
39	0x3ecabcfe	0.39597315
40	0x3eebada4	0.46030915
41	0x3eea7cd9	0.45798376
42	0x3ecf9962	0.4054671
43	0x3ede767d	0.43449774
44	0x3ed0561f	0.40690705
45	0x3ed69dba	0.4191721
46	0x3ecf5ecb	0.4050201
47	0x3ecf8a6d	0.40535298
48	0x3f051ab1	0.5199385
49	0x3ee0762e	0.43840164

bn3.running_mean f4 [50]
0	0x3e7402f9	0.23829259
1	0x3e467bbd	0.1938314
2	0x3e431eab	0.19054668
3	0x3c46d959	0.012136781
4	0x3d3d395d	0.046197284
5	0x3e75be84	0.23998457
6	0x3f0e0b25	0.55485755
7	0x3eae5e65	0.34056392
8	0x3e7ee913	0.24893598
9	0x3e937ccb	0.28806147
10	0x3e1ec196	0.15503535
11	0x3ec14574	0.377483
12	0x3e45bf1d	0.19311185
13	0x3f1106b0	0.5665083
14	0x3e1e88b0	0.1548183
15	0x3f00fcf8	0.50386
16	0x3c58d100	0.013233423
17	0x3e0134d7	0.12617813
18	0x3e3f7ae3	0.18699221
19	0xbb936a5d	-0.0044987635
20	0x3e260d38	0.1621598
21	0xbbf2827e	-0.00740081
22	0x3e2e3936	0.17014012
23	0xbcf3c340	-0.029756188
24	0x3e6cdef7	0.2313193
25	0x3edc481f	0.43023774
26	0x3b79b5ea	0.0038102814
27	0x3e87070f	0.26372573
28	0x3e99a988	0.30012155
29	0x3e8df66d	0.2772707
30	0x3ebf86a4	0.3740741
31	0x3e66d84a	0.22543445
32	0x3ddd7e5f	0.10815119
33	0x3db2252c	0.08698496
34	0x3db8fc70	0.09032524
35	0x3e3d81d4	0.18506557
36	0x3e5ed99f	0.21762703
37	0x3e7a6c9b	0.24455492
38	0x3e4c8c46	0.19975385
39	0x3ebf5f4f	0.37377402
40	0xbdb73c0d	-0.08947001
41	0xbddcdb17	-0.107839756
42	0x3e2f5505	0.17122276
43	0x3d48c811	0.049018923
44	0x3ea6d6a1	0.32585624
45	0x3e7ab336	0.24482426
46	0x3e9b0bf8	0.3028257
47	0x3eadcf93	0.3394743
48	0x3e546442	0.2074137
49	0xbe0154fc	-0.12630075

bn3.running_var f4 [50]
0	0x3e7923e5	0.24330099
1	0x3f009f8d	0.50243455
2	0x3e879279	0.26478937
3	0x3ea2f237	0.3182542
4	0x3e8bed39	0.27329424
5	0x3e9439e2	0.2895041
6	0x3eeb2abb	0.45931038
7	0x3ed8a524	0.42313492
8	0x3e65b8a3	0.22433715
9	0x3eab49ab	0.33454642
10	0x3e4759e4	0.19467884
11	0x3ea21995	0.31660143
12	0x3e2b6d6d	0.16740961
13	0x3ee4b2f6	0.44667786
14	0x3ed75ef2	0.42064625
15	0x3eb6d81f	0.35711762
16	0x3ec642a2	0.38722712
17	0x3e87178c	0.26385152
18	0x3e844126	0.25830954
19	0x3e28b47b	0.16475098
20	0x3ea4493d	0.32087126
21	0x3ea4f9d2	0.32221848
22	0x3e955faa	0.29174548
23	0x3dde79cc	0.10863075
24	0x3e98c307	0.29836294
25	0x3ee846f9	0.45366648
26	0x3e8efa91	0.27925542
27	0x3e561a50	0.20908475
28	0x3ebb6602	0.36601263
29	0x3e854004	0.26025403
30	0x3edd11a1	0.43177512
31	0x3e8bf506	0.27335376
32	0x3e946a2e	0.2898726
33	0x3e7d3a22	0.24729207
34	0x3e4b8a7d	0.19877048
35	0x3ea75e79	0.32689264
36	0x3eb7766a	0.3583253
37	0x3eae1fa2	0.3400851
38	0x3e3bc094	0.18335181
39	0x3ebb065b	0.36528286
40	0x3e8fcb40	0.28084755
41	0x3ea1b6c3	0.3158475
42	0x3eacf09b	0.33777317
43	0x3eb3fc1a	0.35153276
44	0x3e941298	0.28920436
45	0x3ea11f6b	0.31469283
46	0x3ed847f0	0.42242384
47	0x3eb69423	0.35659894
48	0x3e4c666c	0.19960946
49	0x3eccfd8b	0.40037188
