artifacts/Physics/310_walkerPhysics.pt (torch, 59615 bytes, 20 tensors)

linear1.weight f4 [50, 24]
000000 3d 37 3d be 9c bd 38 be bd 0f 96 3d 3b 28 1e bd
       -0.18478103 -0.1804108 0.073272206 -0.038612586
000010 2e 3b 52 3d 11 00 0b 3e 5f 6b dd bd 76 d4 90 3d
       0.05132597 0.13574244 -0.10811495 0.07071774
000020 be 3a cf bc 7b 68 99 bd c1 f3 11 3d 60 53 03 3e
       -0.025296565 -0.07490631 0.035632852 0.12824774
000030 d5 c7 8c 3c 41 cf f0 3c 86 19 bc 3e e8 d8 ac 3e
       0.017185131 0.029395701 0.36738223 0.33759236
000040 4c 87 a3 be 29 9e 4e be 58 37 ed 3d f3 90 99 bd
       -0.3193916 -0.20177521 0.115828216 -0.0749835
000050 ba 42 eb bd c3 b5 50 3d c8 31 85 bd ee 29 54 3d
       -0.114873365 0.05095459 -0.06503636 0.0517978
000060 a8 6b ff 3c de 78 f4 bc a7 19 fa bc c1 44 5f 3d
       0.031179264 -0.02984279 -0.03052981 0.05450893
000070 ff 4e e5 3b 73 cb e2 3d 47 fe 47 bd b6 42 20 bd
       0.0069979425 0.11073961 -0.048826482 -0.03912612
000080 aa 23 da 3c 83 94 06 3e e4 ce c6 3d 45 5c 92 3e
       0.026628334 0.1314259 0.0970743 0.2858602
000090 9a 74 3d be f6 6d 35 be 4a fc 87 bc c9 b0 a4 be
       -0.18501511 -0.17717728 -0.016599793 -0.32166126
0000a0 1d b8 47 3e 5a ac d1 3c 6b ac e3 bd b2 a6 2c be
       0.19503827 0.025594879 -0.111168705 -0.16860464
0000b0 21 ce f1 bd 3f fb 16 3e ec eb ec bb b2 b2 c6 3d
       -0.11806894 0.1474428 -0.0072302725 0.09702052
0000c0 04 d1 ac bc 97 14 82 be f0 c9 5b be 93 05 03 be
       -0.02109576 -0.25406334 -0.21463752 -0.12795095
0000d0 43 de a4 bd bc 61 66 be a3 4c 9b 3e 3e d6 d0 3d
       -0.080502056 -0.2249822 0.30331907 0.101971135
0000e0 25 3a f1 bb 39 59 6b be 55 86 01 3e d4 dd a9 bd
       -0.0073616677 -0.22983254 0.126489 -0.082942635
0000f0 97 35 90 be bf 70 06 be f1 b7 27 be ec c2 8e 3d
       -0.28165886 -0.13128947 -0.16378762 0.06970772
000100 b1 41 05 be a5 5e df 3c a7 84 75 be 17 18 ba 3c
       -0.1301334 0.02726681 -0.23976384 0.022716565
000110 5d 5b 47 3e ae 17 1c bc ee 53 b1 3c 57 6b 3d be
       0.19468446 -0.00952713 0.021646466 -0.18497978
000120 5a 4d a4 3d ea d3 de 3c 7b 6c 99 3e 9b 48 6a be
       0.08022566 0.027200658 0.29965577 -0.2287926
000130 a4 d4 de bd 43 ce f0 be 88 17 a1 3d 41 32 c3 3d
       -0.10880402 -0.47032365 0.07865816 0.095310695
000140 12 17 61 3a d1 e4 21 3d 91 b4 c5 bd 8b be 2d be
       0.00085865066 0.039524857 -0.09653581 -0.16967218
000150 b3 36 e8 3d a4 ae 2d 3e 32 2e ad bd 5f 98 e6 3d
       0.11338558 0.16961151 -0.08456077 0.11259531
000160 e4 38 12 3e 3d 8c 41 3e 43 3a fc 3c 16 85 9e bd
       0.14279515 0.18901153 0.0307895 -0.07740228
000170 a0 d8 3c 3d c9 88 18 be 95 df 39 be 92 6f 8b 3d
       0.046105027 -0.1489593 -0.18151696 0.0680839
000180 8c df 10 bf f0 01 3b 3e 88 c3 ea 3d 95 52 dd 3d
       -0.56591105 0.18262458 0.11463076 0.10806767
000190 7e a6 55 3d ef df 31 be e6 86 a7 3d 0e 74 b2 3e
       0.052160732 -0.1737058 0.08180027 0.34854168
0001a0 ca a1 01 3e 3f b9 0d bd 00 df 02 be b5 5f a0 3e
       0.12659374 -0.034600493 -0.1278038 0.3132302
0001b0 8e 4f e1 3c a9 1b 08 3e 36 d4 cb bc 94 b8 b8 3c
       0.027503755 0.13291802 -0.024881463 0.022548951
0001c0 0f f5 97 be 91 22 2c 3d e6 e2 23 3e f4 ed 9a bd
       -0.29679152 0.042025153 0.16004524 -0.07564917
0001d0 87 e8 77 bd b7 bf ed 3d 6c 73 87 3e 3b 19 15 be
       -0.06052449 0.11608832 0.26455247 -0.14560406
0001e0 0c a8 2e be b4 fa 9c be c6 d4 68 be a2 8a e0 3d
       -0.17056292 -0.3066002 -0.22737417 0.10963942
0001f0 e0 c9 89 3e a3 eb a9 3e 5e d3 c4 3c de dc ae be
       0.2691183 0.3318759 0.024026569 -0.34152883
000200 85 55 77 3d 75 18 cf bd 10 ed 9b bd da 6f 6a be
       0.060384292 -0.10112087 -0.076135755 -0.2289423
000210 83 68 fc bc 63 4c 0e 3c 1a 59 c6 bd 69 d8 79 bc
       -0.030811554 0.008685204 -0.096849635 -0.01524935
000220 9e 86 29 bd 23 a5 af 3b 09 c4 d7 ba ad 04 14 bb
       -0.041388147 0.005360262 -0.0016461621 -0.0022585795
000230 ab 9d 93 b9 f8 e9 56 3a b6 36 8b ba dd d7 70 b9
       -0.00028155497 0.0008198316 -0.0010621164 -0.00022968599
000240 57 88 8b 3e e9 d9 a1 bc b3 8b 41 bd c1 36 b1 3d
       0.27252457 -0.019757228 -0.04725237 0.086530216
000250 69 6a 94 bd eb 12 3d be 91 1b fd 3d e3 f9 29 bd
       -0.072468586 -0.18464248 0.123587735 -0.041498076
000260 a0 5e af bd 11 e0 a0 3e 38 c8 26 bd 1c 08 9a bd
       -0.0856297 0.3142095 -0.040718287 -0.07521078
000270 f1 5e cf 3d c4 13 10 3e 2c 6f 24 be 5b 13 93 3e
       0.101255305 0.1407004 -0.16058034 0.28725705
000280 00 dc 31 be b7 2d ef bd 85 5f 05 be d0 a4 65 3b
       -0.1736908 -0.11678641 -0.13024719 0.0035040863
000290 ad c3 82 bd 87 53 10 3e ee ac 01 3e aa a0 a1 3d
       -0.063849784 0.14094363 0.12663624 0.07891972
0002a0 c3 38 97 bd 2f f8 e1 3e a9 88 a7 3d 6f d3 cd bd
       -0.07383873 0.44134662 0.08180363 -0.100500934
0002b0 7c 93 14 be 7e 19 d8 bd 19 de ad 3d 46 b6 19 3e
       -0.14509386 -0.10551737 0.084896274 0.15010938
0002c0 41 f8 65 bd cc 96 39 3e 70 6e ed bd 2f 52 d0 bd
       -0.056144956 0.1812393 -0.1159333 -0.10171925
0002d0 1c 6a 99 3e ca 2e b2 3e 71 2f 4b be 79 db a5 3d
       0.29963768 0.34801322 -0.19842316 0.08098502
0002e0 ce 56 6a 3c ab 33 67 be 17 c6 ad ba 1e 23 fa bd
       0.014302922 -0.22578304 -0.0013257888 -0.12213729
0002f0 6a 56 aa 3d bf f6 bd bb c5 53 16 3e 17 b8 9d 3d
       0.083172634 -0.0057972367 0.14680393 0.07701128
000300 2e 5f fc be 21 51 71 be 73 20 84 3d bf 91 e1 bd
       -0.49291366 -0.23566104 0.06451502 -0.11014127
000310 95 22 67 bb f0 1a c9 bd ad 97 93 3d 60 c5 8d 3c
       -0.0035268415 -0.09819591 0.07206664 0.01730603
000320 6d da ba 3c ad b5 8c bd fd df 1b 3c 77 66 8e bc
       0.022809232 -0.068705894 0.009513852 -0.017382843
000330 c5 e1 e3 3d bd 46 b3 3d b6 c6 40 3d c6 2c 4a be
       0.111270465 0.08753727 0.047064506 -0.19743642
000340 63 c6 05 be 82 07 5e be d5 64 03 bd 90 7f 98 3d
       -0.1306396 -0.21682552 -0.032078583 0.074462056
000350 cd 75 4a 3d 5b a9 06 bc c7 62 0b be 33 e3 ad 3d
       0.04942875 -0.008219088 -0.136119 0.084906004
000360 17 89 70 3f 6c f4 f5 3d 31 fa 36 bc 22 28 ed 3e
       0.9395918 0.120095104 -0.011168049 0.4631968
000370 6d 71 07 bb ed a0 00 3e d4 26 aa bd 2a 53 6f bd
       -0.0020666972 0.12561388 -0.08308187 -0.05842892
000380 16 02 4f 3d 06 1a 12 3e 80 21 87 bc a9 2d 60 3e
       0.0505391 0.1426774 -0.016495466 0.21892418
000390 c7 97 2a be 36 e4 aa be 9b 7e 90 3d 11 50 b0 3e
       -0.16659461 -0.33377236 0.07055398 0.34436086
0003a0 a6 36 78 3e 54 67 b0 3e 52 0d af 3d 26 d5 e0 bd
       0.24239597 0.34453833 0.085474625 -0.10978155
0003b0 fd 6c aa bd e9 07 6d 3a a2 62 62 3e 75 64 15 be
       -0.08321569 0.0009042011 0.22107938 -0.14589103
0003c0 0a dc 4f 3e 15 49 b9 bd 3d c8 43 be ff 9e e6 3d
       0.20298782 -0.090471424 -0.19119354 0.11260795
0003d0 ba 0c 2d 3c ba ad 9a 3d 68 7c 9b bb 01 15 3a bc
       0.010562116 0.07552667 -0.004745055 -0.011357547
0003e0 f7 d7 12 3d d2 d8 8a bd 51 df ab bd b2 1c c0 bd
       0.03585049 -0.067796364 -0.083922036 -0.09380473
0003f0 73 9f 8b bc 37 7a bf 3c 22 e5 96 bc 59 2c 2e 3b
       -0.017043805 0.023373706 -0.018419806 0.0026576726

linear1.bias f4 [50]
000000 4e 20 3a 3e 1f d9 00 be ff ba c9 bd 35 fd 0a be
       0.18176386 -0.12582825 -0.0985012 -0.13573153
000010 7b 3a 89 3c e8 fa 42 3e a8 b4 04 3e bc 8d cd 3d
       0.016751518 0.19041026 0.1295954 0.10036799
000020 0e 43 df bb b0 b5 48 3d eb 71 29 3e d1 9c 15 be
       -0.0068134135 0.049001396 0.16547363 -0.14610602
000030 06 d1 8e 3d 08 f6 41 be 17 78 88 3d a0 63 d1 bd
       0.06973462 -0.1894151 0.0666353 -0.1022408
000040 3a ff 28 3e c6 63 16 3d 81 8c 18 3e 6c d5 df 3d
       0.16503611 0.036716245 0.14897348 0.10929379
000050 df 77 c4 bd 03 e1 4b 3e 61 02 5c 3d a2 78 01 be
       -0.09593176 0.19910054 0.053713206 -0.12643674
000060 87 08 6f bd 99 99 02 3c bf 60 96 3d 3b 24 c8 3d
       -0.05835774 0.007971191 0.073426716 0.097725354
000070 77 e4 b3 bd fb 45 b8 bc 63 c2 10 bd cc 9d c3 3d
       -0.087838106 -0.022494307 -0.03534163 0.09551582
000080 7d 6e fe bd d9 6c ed bd 6c 13 98 bd 4c ec 43 3e
       -0.12423418 -0.11593027 -0.074255794 0.19133109
000090 b1 d5 4b be 15 47 26 3e 0b a2 4b 3e 46 71 52 bd
       -0.19905736 0.16238053 0.19886033 -0.051377557
0000a0 0a 58 2f bd 37 78 02 be db ae b7 3c 06 c3 04 be
       -0.04280857 -0.12741171 0.022422245 -0.1296502
0000b0 a5 c3 a9 3d fa c5 dc bd 33 44 1f 3e dc bf 0a be
       0.08289269 -0.107799485 0.1555336 -0.13549751
0000c0 ad 82 22 bd 16 35 fd bd
       -0.039675403 -0.12363641

bn1.weight f4 [50]
000000 9c 7d 8a 3f 04 f4 8a 3f e4 e5 5d 3f 71 e2 7d 3f
       1.0819583 1.0855718 0.8667891 0.9917365
000010 51 9c 7b 3f 3c 8b 6e 3f e6 b1 66 3f 3d 80 56 3f
       0.98285395 0.93181205 0.901152 0.83789426
000020 e6 4e 89 3f 98 1b 7b 3f 64 db 81 3f 92 9f 7c 3f
       1.0727203 0.9808898 1.0145078 0.98680985
000030 13 9f 74 3f 55 be 3e 3f 5e 2a 82 3f 67 4b 8b 3f
       0.9555523 0.74509174 1.016918 1.0882386
000040 cd 71 7e 3f ee 62 7f 3f 27 27 84 3f 70 14 86 3f
       0.99392396 0.9976033 1.0324448 1.0474987
000050 fa 22 8e 3f f0 e1 87 3f de cd 8a 3f f2 3d 7c 3f
       1.1104424 1.0615826 1.0844076 0.9853202
000060 12 ba 71 3f c9 92 8b 3f a4 f0 81 3f 67 97 83 3f
       0.94424546 1.090417 1.0151563 1.0280579
000070 cd 94 79 3f 7c 8d 15 3f 0e 34 0a 3f 0a 14 81 3f
       0.97492677 0.58419013 0.5398568 1.008424
000080 d6 17 7a 3f 12 55 7b 3f 5b 3f 81 3f b9 23 6b 3f
       0.9769262 0.9817668 1.009746 0.91851383
000090 ca 2e 86 3f 2b a7 8d 3f c0 fa 56 3f a7 b0 5b 3f
       1.0483029 1.1066641 0.83976364 0.85816425
0000a0 41 09 85 3f 8b 23 83 3f 6d 65 69 3f 32 01 34 3f
       1.0393449 1.0245222 0.9117039 0.70314324
0000b0 f4 fb 6e 3f 6d ab 78 3f 4b 2d 85 3f d8 2d 85 3f
       0.933532 0.97136575 1.0404447 1.0404615
0000c0 fe 64 80 3f 90 ab 80 3f
       1.003082 1.0052357

bn1.bias f4 [50]
000000 d2 91 08 3d 5b 12 6a 3d 24 bf 2b 3e ad 87 6f 3d
       0.03334219 0.05714641 0.16772133 0.058479
000010 16 0b f1 3c b5 a7 4f 3d 6f 14 47 bd 46 bb 35 3e
       0.029424231 0.050697047 -0.04860347 0.1774722
000020 1f cd ce bd 21 bb c3 3d ee 76 05 be 30 43 88 bb
       -0.100977175 0.095571764 -0.1303365 -0.0041584
000030 0f 57 16 3c 41 f1 4e 3e cc 9b b5 bc 7a 82 31 bd
       0.00917603 0.20209219 -0.022169016 -0.043337323
000040 1b 6f 71 bc 38 31 80 bd 1c 61 93 3d 6f e6 05 3d
       -0.014735962 -0.06259388 0.071962565 0.03269046
000050 99 c7 3e 3e 08 30 16 3e 4b 8a 2e 3d 15 a6 b9 3d
       0.18630828 0.1466676 0.042612355 0.09064881
000060 79 49 b0 3c a5 04 d6 bd 4e 5b 1d be d1 c6 c8 bc
       0.02151941 -0.104501046 -0.15366861 -0.024508866
000070 2b 93 b7 bd e0 f2 89 3f ad d8 c7 3f 6c cd 23 3e
       -0.08963617 1.0777245 1.5612999 0.15996331
000080 6c 0f bd 3d 27 38 b1 bc d3 5c 78 bd 60 ae 7b 3c
       0.09231457 -0.02163322 -0.0606354 0.015361398
000090 dc 56 4c bd 7e e2 5e bc 20 32 fc 3d a6 3a 16 3c
       -0.049887523 -0.013603805 0.12314248 0.009169256
0000a0 a6 98 27 bc ad 23 cb bc 83 f1 87 3e 99 f6 bb 3e
       -0.010229265 -0.024797285 0.26551446 0.36711577
0000b0 e1 45 95 bc 4c 2a c4 3d 63 fd 0d 3d 99 d4 e7 3d
       -0.018221797 0.0957838 0.034665477 0.11319847
0000c0 7e a7 8c 3c 70 77 7b 3c
       0.01716971 0.0153483

bn1.running_mean f4 [50]
000000 5e a1 6e 3e 1e d7 d4 bd 92 8d 12 be c4 bd 7a be
       0.23303744 -0.10392593 -0.14311817 -0.24486452
000010 86 c4 4d 3d 36 f1 61 3e 98 66 41 3e 7c eb fd 3d
       0.050236247 0.22064671 0.18886793 0.12398431
000020 66 33 e7 3c 4c af d3 3c 95 60 4c 3e bc 72 0d be
       0.02822275 0.025840424 0.19958718 -0.13813299
000030 82 b8 0e 3d 48 fe 9d bd e0 ba 4a 3e 82 b0 d5 bd
       0.03484393 -0.07714516 0.1979785 -0.10434057
000040 18 18 28 bd cd 4c 29 3e e0 a2 f6 3d 9b d7 dc bc
       -0.041038603 0.16533203 0.12042785 -0.026958277
000050 6c 32 21 3d 36 7f 25 3e 34 43 bc bd c5 f4 17 be
       0.039354727 0.16161808 -0.091925055 -0.14839466
000060 a9 20 5f be a8 83 b1 3d 94 74 b5 3d 17 dc 8b 3d
       -0.21789803 0.086676896 0.08860126 0.06829088
000070 f2 0d 50 bd cc 37 d4 3c 58 13 e3 be 06 75 ae 3d
       -0.05079455 0.025905512 -0.44350696 0.08518414
000080 d4 ab 45 be 82 ae 94 bd c0 12 be 3c 16 99 86 3e
       -0.19303828 -0.07259847 0.0232023 0.2628867
000090 50 61 2c be 74 02 30 3e c0 41 63 3e dd 85 a3 bd
       -0.16833997 0.17188436 0.2219305 -0.07984517
0000a0 b6 0b 83 bd cc 88 3a be 02 0b 15 bd e4 d5 35 bc
       -0.06398718 -0.18216246 -0.03638745 -0.011098359
0000b0 f9 33 8e 3e 80 13 1d be 31 ba d3 3e 7a ce 3a be
       0.27774027 -0.1533947 0.4135299 -0.18242827
0000c0 8f 1c 96 bd 36 55 ca bd
       -0.07329666 -0.09879534

bn1.running_var f4 [50]
000000 aa 63 4e 40 46 26 67 40 29 1a 3e 41 13 5e 01 40
       3.224833 3.611711 11.881387 2.0213668
000010 14 ea f9 40 56 83 bb 3e 1a 30 e9 3f 54 0d 65 40
       7.809824 0.3662364 1.8217804 3.5789385
000020 c0 92 38 40 b5 c9 05 41 d3 1d 68 40 de 37 d4 3f
       2.883957 8.361745 3.6268203 1.6579549
000030 7b 38 e5 3f 3f c3 02 41 26 1c 8b 40 6e 71 8c 40
       1.7907861 8.1726675 4.347186 4.3888464
000040 3f 38 d1 40 2d 57 7e 40 fa 89 63 40 6e 5d b7 40
       6.538116 3.9740708 3.5552964 5.730155
000050 86 b4 0f 3f f4 af b2 40 4a 2e 2a 41 28 1b 1a 40
       0.5613483 5.5839787 10.636301 2.4079075
000060 39 a7 01 40 69 73 f8 40 f7 11 d1 3f 04 f1 db 40
       2.0258315 7.764088 1.6333607 6.873171
000070 9a ea 03 40 79 44 6d 3f 33 f6 60 3f ac eb aa 3f
       2.061194 0.92682606 0.8787567 1.3353171
000080 42 82 e9 40 1d 2a 10 41 4a 9f bb 3f 22 4c 8e 40
       7.2971506 9.010282 1.4657986 4.4467936
000090 55 b2 3d 40 6b c8 2d 40 6b d9 62 40 6c 15 fd 3f
       2.9640095 2.7153575 3.5445201 1.9772162
0000a0 5c ea 1e 40 39 33 6d 40 62 6a 2b 40 1b 33 2f 40
       2.4830542 3.7062514 2.678368 2.7374942
0000b0 dc 92 3d 40 bc 11 76 40 e3 48 39 41 d9 8d 98 40
       2.9620886 3.8448324 11.580295 4.7673154
0000c0 c3 dd 5e 40 f2 78 48 40
       3.4822853 3.132382

linear2.weight f4 [100, 50]
000000 75 b1 8f bc 6d 57 75 bd 04 8a a5 bb 29 65 6b 3d
       -0.017540673 -0.05989783 -0.005051853 0.05746952
000010 27 a5 cf bd 14 4d d7 bb 9b 25 98 3c 08 f9 3d 3c
       -0.10138922 -0.0065704677 0.01857262 0.011595018
000020 14 b4 ec bc 5a f7 03 bc 2d 8d df 3d 90 e1 f5 bd
       -0.028894462 -0.008054579 0.10915599 -0.12005913
000030 c4 d1 f6 3d cb e9 3f 3c 6e 98 14 be b6 51 44 3d
       0.12051728 0.011713455 -0.14511272 0.047929488
000040 e8 9d ad bc 18 2a 75 bc 19 e8 10 3d 43 5d 00 3e
       -0.02119346 -0.014963649 0.035377596 0.12535577
000050 d6 d5 89 bd e9 d8 ad bd 24 46 27 bc a6 d1 6f bc
       -0.06730239 -0.08488638 -0.010209594 -0.014637386
000060 d8 07 f9 bc 97 5f 8b bd 4f 16 3c 3e 8e 19 b6 3d
       -0.030399248 -0.06805342 0.18367885 0.08891593
000070 18 95 64 bd 9e c2 23 ba 6d 8f 8a 3d 2a 7f 3a be
       -0.05580625 -0.0006246957 0.067656375 -0.18212572
000080 8f cd b2 3d 15 a9 5f 3c 8f e1 53 bd 01 3f 31 bd
       0.087306134 0.013651152 -0.05172878 -0.043272976
000090 04 a9 0c bd a0 70 0c be d1 a1 89 bc 06 68 51 3d
       -0.034340873 -0.13714838 -0.016800793 0.051124595
0000a0 fc 45 99 3d cc 25 d7 3c ab 56 63 bc 05 f2 31 bc
       0.074840516 0.02626314 -0.013875644 -0.010860925
0000b0 42 56 f7 3c ed 1a 8d 3d 2e d5 63 3c a8 82 41 3d
       0.030192498 0.06889901 0.0139058065 0.047243744
0000c0 54 79 1f 3e 67 2c 9f bd 7b fe b5 bd f7 c6 dd 3d
       0.15573627 -0.07772141 -0.08886429 0.10828965
0000d0 f8 c0 a7 3d 26 2e 61 3d 87 64 19 3d ac 86 d0 3d
       0.08191103 0.05497565 0.037449386 0.101819366
0000e0 d6 54 48 3d b3 56 92 bd 8d 39 ca bd 55 6f e8 3d
       0.04890903 -0.07145443 -0.09874258 0.1134936
0000f0 e7 b3 82 bd de 40 65 3d 69 30 3f bd bd 73 fe 3d
       -0.0638197 0.055970065 -0.046677027 0.12424419
000100 14 e9 1c bd d4 f5 28 be 4d b8 a6 bc d3 bc 20 bd
       -0.038308218 -0.16500026 -0.020351553 -0.039242577
000110 85 d8 b1 bd 11 26 94 3c 9e 50 ba 3c f6 a0 df 3d
       -0.08683876 0.018084558 0.02274352 0.10919373
000120 06 c5 0d bc 92 6c 0b 3d ff 17 0e 3d f7 c1 38 bb
       -0.008652931 0.034039088 0.034690853 -0.0028191784
000130 90 4d c7 bd dc fb 67 bc fa 0d a9 bd 72 00 2e 3e
       -0.09731591 -0.014159169 -0.08254619 0.16992357
000140 93 e3 e2 bc f6 8c d6 3d d2 2c 29 3d 47 6e ee 3a
       -0.027696406 0.10476105 0.04130251 0.0018190824
000150 cf 53 55 bd f6 29 ad bd 05 50 f3 3d cc c9 94 bd
       -0.05208188 -0.08455269 0.11880497 -0.07265052
000160 e8 48 23 bd 2b 90 7e 3e 27 c0 1c bd 10 b9 b7 3d
       -0.03986445 0.24859683 -0.03826919 0.08970845
000170 a5 14 48 be 6e 5a d4 bd 59 c4 11 bd f5 91 fc 3d
       -0.19539125 -0.103688106 -0.035587642 0.123325266
000180 65 7c 40 bd 30 7f d5 3d a5 f6 4a 3c 4c 4d 20 3d
       -0.046993632 0.1042465 0.012387906 0.039136216
000190 9f 61 41 3e 1e a7 08 bc ce dd 55 bc a0 eb cd 3c
       0.18884896 -0.008340625 -0.013053371 0.025136769
0001a0 e5 89 88 3d 7a 56 48 3e e9 fa 97 3c 71 60 2c 3d
       0.06666926 0.19564238 0.01855226 0.04208416
0001b0 22 bd 4e bd 98 4c f4 3d 09 e7 3f 3c 48 39 d5 3d
       -0.05047334 0.119286716 0.011712798 0.10411316
0001c0 65 4c d6 bc c5 e1 8e bd 3b 76 8b 3d f8 12 b6 bd
       -0.026159475 -0.06976656 0.0680966 -0.08890337
0001d0 9f 41 5d bc d2 aa 28 be 6c 7e 2e bd 45 0a 52 3d
       -0.013504415 -0.16471413 -0.042601034 0.051279325
0001e0 61 d5 9a 3d c5 e3 ab bd 06 1f 4b 3e d4 42 e0 3c
       0.0756023 -0.08393053 0.19836053 0.027375616
0001f0 9f 32 08 bd e9 68 b1 3d 8d 88 00 bd a0 51 01 bd
       -0.0332514 0.08662588 -0.031380225 -0.031571984
000200 cf 5c 38 be 5d 89 39 bb 7a bc 8e bd b1 d1 07 3e
       -0.18004154 -0.0028310635 -0.06969543 0.13263585
000210 4f c4 e4 3d da 00 16 be 5b a4 a0 bd a7 6a 7f bd
       0.111702554 -0.14648762 -0.07843848 -0.06235757
000220 3e 73 a4 3d c8 18 e0 3a 86 d0 98 3d 78 3c 38 3e
       0.08029793 0.0017097229 0.07461648 0.17991817
000230 e9 f4 cc bd 8c 8a 33 be c9 89 8e 3d 9a 6f e0 3c
       -0.100076504 -0.1753332 0.06959874 0.027396966
000240 94 3c 9e 3d 60 83 1d 3d cf 3c e6 bc 93 62 ca bd
       0.07726398 0.038455367 -0.028105168 -0.09882083
000250 26 51 a4 bc 1c 4b 0f 3d 24 db 16 be aa e6 3a be
       -0.020058226 0.03498374 -0.14732033 -0.18252054
000260 23 ee a2 3d 50 77 85 bc a7 20 4e 3d 83 90 a2 3d
       0.07955577 -0.016292244 0.05032411 0.0793772
000270 d2 f5 fa bd 0a eb ee 3c 84 01 6b 3d 07 4e 0c bd
       -0.12253918 0.02916481 0.057374492 -0.0342541
000280 c3 4e 1b bd 1b dd ca 3d fd 31 ef bd 9d be d6 bc
       -0.03791691 0.09905454 -0.116794564 -0.026213938
000290 46 fa 65 3d eb 6d 41 3e 5e f7 02 3e e0 7e 20 bd
       0.056146882 0.18889587 0.12789676 -0.039183497
0002a0 a8 d7 b5 3d ef f2 c6 bd 9c 89 0f 3e a7 04 3e 3d
       0.08879024 -0.09714305 0.14017338 0.046391156
0002b0 77 29 b1 bd 02 fc d4 3d a9 db 0c bd e1 2e 76 be
       -0.08650487 0.10399629 -0.03438917 -0.2404132
0002c0 fe 35 8b 3c 7e bf 11 3d 93 5b 48 bd 74 3e 1e 3e
       0.016993519 0.03558301 -0.048915457 0.15453511
0002d0 10 c2 fa 3c 30 c6 1f bd bc cf e6 3e 7f 90 6a 3c
       0.030610114 -0.039007366 0.45080364 0.014316677
0002e0 17 1e 62 3d 77 75 17 3d af 76 9d 3c 54 a9 7c 3d
       0.055204477 0.036977258 0.019221632 0.06168492
0002f0 9b 5f 5f bc 48 0d 6d 3d 93 eb 6b 3d 5c c0 e5 3d
       -0.013633634 0.057873994 0.057597708 0.1121833
000300 19 b1 62 bd 8d 48 03 bd c9 7a 1d 3d 53 2a 09 3c
       -0.055344675 -0.03205161 0.038447175 0.008371907
000310 3e 79 04 3d b8 0d 87 bd 70 2c 22 bd 9f ef 80 3d
       0.032342188 -0.065944135 -0.03959316 0.06295704
000320 46 0f ba bd ca 01 e9 bd 2c d6 e8 bb 42 8d 4d 3e
       -0.090849444 -0.11377294 -0.0071056094 0.20073417
000330 d6 64 11 3e a3 3c 65 3d 98 ac 35 bd 42 23 8c 3d
       0.14198622 0.05596603 -0.04435405 0.068426624
000340 8f 5e 9b bc 96 23 3b bd 43 cd ae bd 72 0c ee bd
       -0.018965987 -0.045688234 -0.08535244 -0.116234675
000350 d4 75 a7 3d 51 49 35 3d 7c ed 17 be b5 1f 2e 3d
       0.08176771 0.044259373 -0.14836687 0.042510707
000360 ad 99 0a bc 58 19 40 3c f6 a6 b7 3d c4 a4 cd 3d
       -0.008459491 0.011724792 0.08967392 0.10041192
000370 dd ec a1 bc cf 77 88 3d e8 ea b5 bd b2 bf 89 3d
       -0.019766266 0.06663477 -0.088826954 0.06726016
000380 bd 5d ff bc 3e ac 1e 3e 60 ce c5 bc 05 4a d5 bd
       -0.031172628 0.15495393 -0.024146259 -0.10414509
000390 b7 90 0c bd 8d ab 28 bd f5 74 2e bc 9d bc 90 3b
       -0.0343177 -0.04117923 -0.010648002 0.0044170157
0003a0 78 02 e0 bd 0d 8c c9 3d d3 57 35 be 23 3a 46 3e
       -0.10937971 0.09841166 -0.17709284 0.19358115
0003b0 ec 11 bd bd 22 ac a7 bc d5 75 40 3d 44 83 f8 bd
       -0.09231934 -0.020467822 0.046987373 -0.12134412
0003c0 6b 85 d8 bc 14 35 d7 3d aa 31 42 bc 41 74 4e 3c
       -0.026430806 0.10508171 -0.011852661 0.012600959
0003d0 ab 76 6e 3c 31 a2 a5 bc 22 fa c4 3c 16 c3 1c bc
       0.01455466 -0.02021894 0.024045054 -0.0095679965
0003e0 a0 30 48 3c ac 2c 5c bc 12 a3 e9 3d 2b 72 c2 3d
       0.012218624 -0.013438385 0.11408056 0.09494432
0003f0 34 82 82 3d 8e bf 71 3d 34 5c ae bd b4 fc 34 3e
       0.063724905 0.05902057 -0.0851368 0.17674524

linear2.bias f4 [100]
000000 21 12 9d bd 47 16 04 bd da 52 56 bd 25 96 54 bc
       -0.076694734 -0.032247808 -0.052325107 -0.01297525
000010 b4 84 02 3c 2f ce f1 bd 08 59 06 bd a2 83 07 3e
       0.007966209 -0.118069045 -0.03279975 0.13233808
000020 d3 a0 a6 bd c0 95 9c 3d f6 89 ec bd 9f f0 cd bd
       -0.081361435 0.0764575 -0.115497515 -0.100556605
000030 db 53 9a 3d bf 89 06 be 7e 9b 92 3c 07 b9 30 3d
       0.075355254 -0.13138483 0.01789641 0.043145206
000040 e7 3e 09 3e 24 72 07 be 36 74 ec 3d 7b 56 02 3e
       0.13402902 -0.13227135 0.11545603 0.12728302
000050 08 ce bf 3d 67 dd b2 bd 13 a5 67 3b c9 0a f0 bc
       0.09365469 -0.087336354 0.0035346195 -0.029302018
000060 85 da 4c bd 1f 48 82 3c 17 eb ee 3b d8 3f 10 3e
       -0.050013084 0.01590353 0.0072912085 0.14086854
000070 d1 8d b0 3d b2 c4 5b bd 9a 41 0c 3e 85 30 49 3c
       0.08620799 -0.05365438 0.136969 0.012279634
000080 f2 00 bb bd 3e 62 f8 3b e2 cc d6 3d 56 bf dc 3a
       -0.0913104 0.0075800708 0.10488297 0.001684169
000090 7a 48 6f bd f5 7d 8b 3c b1 57 15 bd 2c 92 90 bd
       -0.05841873 0.017027834 -0.036460582 -0.0705913
0000a0 e4 8c bc bd 89 dc ab 3d 93 72 e6 bd 40 bb a7 bd
       -0.0920656 0.08391673 -0.11252322 -0.08190012
0000b0 27 2d b2 3d fe 81 05 3e b6 85 bd bd 68 d3 f0 bd
       0.087000184 0.1303787 -0.09254019 -0.117590725
0000c0 0e 42 f1 bd 3f 24 9b 3d 73 ce f7 3d af d8 99 bc
       -0.11780177 0.07575273 0.12099924 -0.01878008
0000d0 43 f4 1b bd c9 ef 06 be bd 29 53 bd 6b 88 0b 3e
       -0.038074743 -0.13177408 -0.051553477 0.13626258
0000e0 68 ce e3 3d da ab a9 3c c8 72 fc 3d dd 51 a6 3d
       0.11123353 0.020711828 0.1232658 0.08121083
0000f0 fb 8b 03 bd 0f c5 88 3c 36 65 50 bd 34 bf 3b bc
       -0.032115918 0.016695527 -0.050877772 -0.011459161
000100 1b 3a 0a 3d 1c 8d 91 3b ef b3 3f 3d 9c 40 eb 3d
       0.03374682 0.0044418704 0.046802457 0.11486933
000110 2c 0a 4e 3c 9d f9 23 3c 7b 08 04 bd 32 c6 2e 3b
       0.012575667 0.010008243 -0.03223465 0.0026668427
000120 88 34 77 3d 2c 4d c1 bd 13 88 4c 3d bd be 2f bc
       0.060352832 -0.094385475 0.049934458 -0.010726628
000130 83 98 50 bd a3 3b 7c bc f7 4c c8 3c 5a ae b9 bd
       -0.050926697 -0.015395078 0.024450762 -0.09066458
000140 79 78 b7 bd ad e3 8d bc e4 f0 0e be 9a 98 b9 3d
       -0.08958525 -0.017320478 -0.1395908 0.090623096
000150 55 b1 e5 bd 9d d7 c0 bd 7f 7f 70 bd ce e9 a7 3d
       -0.11215464 -0.09416125 -0.05871534 0.081988916
000160 ee 00 60 3c c4 c8 99 3d 83 5c e5 bd 86 7a b5 bd
       0.013672097 0.07508996 -0.11199286 -0.0886126
000170 99 a3 0c be 8f 97 11 bc c8 bd 5a 3c de 67 6e bd
       -0.13734283 -0.008886232 0.013350911 -0.058204524
000180 0c 92 8c 3d 0e 27 66 3d 85 02 f2 3c ee c2 07 3e
       0.06863794 0.05618959 0.029542217 0.13257954

bn2.weight f4 [100]
000000 d3 fb 99 3f 69 5d 38 3f 58 1d 6e 3f e3 ac 6e 3f
       1.2029976 0.7201753 0.93013525 0.93232554
000010 a9 56 78 3f 7b a6 6b 3f 1c 02 71 3f bd 31 6f 3f
       0.9700723 0.92050904 0.94143844 0.9343527
000020 f7 d4 84 3f 9e 8f 6e 3f a0 0c 84 3f 1e ea 55 3f
       1.0377492 0.9318789 1.0316353 0.8356036
000030 ac 62 35 3f 6a 04 87 3f 39 90 5a 3f 65 cc 80 3f
       0.70853686 1.0548222 0.85376316 1.0062376
000040 b0 3d 7a 3f 02 30 6d 3f 5f 31 51 3f 9b c3 84 3f
       0.9775038 0.9265138 0.8171596 1.0372194
000050 86 ce 79 3f c0 92 88 3f ad ad 6d 3f bb 5c 82 3f
       0.97580755 1.0669785 0.92843133 1.0184549
000060 b0 b6 75 3f 4e 1a 7e 3f b5 a9 72 3f a6 33 79 3f
       0.95981884 0.9925889 0.947902 0.97344434
000070 2a eb 30 3f d1 0d 79 3f ca 87 75 3f 19 ad 82 3f
       0.6910883 0.9728671 0.9591032 1.0209075
000080 6c b4 45 3f 8b 61 80 3f 70 4b 83 3f fe b6 80 3f
       0.77228427 1.0029768 1.0257397 1.0055845
000090 e2 cf 78 3f 73 fe 97 3f fb b2 83 3f 89 f3 71 3f
       0.97192204 1.1874527 1.0288996 0.9451223
0000a0 f0 df 81 3f 58 f2 7f 3f de 18 74 3f b8 ea 4a 3f
       1.0146465 0.9997916 0.95350444 0.792644
0000b0 20 26 61 3f 72 ce 60 3f 0c fb 80 3f fa e9 6b 3f
       0.879488 0.8781501 1.0076613 0.92153895
0000c0 6a 0e 83 3f 92 eb 72 3f 47 4e 6d 3f a5 a7 8a 3f
       1.0238774 0.948907 0.92697567 1.0832411
0000d0 08 4f 41 3f 54 06 83 3f 62 6a 6b 3f a1 f4 80 3f
       0.7551122 1.0236306 0.919592 1.0074655
0000e0 7e 60 6c 3f 94 29 7b 3f 20 0c 86 3f f1 e7 60 3f
       0.92334735 0.9811032 1.047245 0.87853914
0000f0 f1 33 84 3f d6 f2 81 3f 9e 82 81 3f 88 85 81 3f
       1.0328351 1.0152233 1.0117986 1.0118876
000100 7b 3a 7e 3f a1 21 86 3f d0 75 67 3f 29 d8 81 3f
       0.99307984 1.0479013 0.9041414 1.0144092
000110 b9 78 62 3f 66 a8 70 3f 63 ea 85 3f fb 32 74 3f
       0.8846546 0.94006956 1.0462154 0.9539029
000120 24 d0 98 3f ee 64 82 3f 25 ae 8b 3f 0c 77 4d 3f
       1.193852 1.0187051 1.091252 0.80259776
000130 0e 48 94 3f 96 a4 7b 3f 1b 0a 57 3f 16 8c 74 3f
       1.1584489 0.98298013 0.83999795 0.95526254
000140 9a c3 81 3f 71 86 59 3f 13 ea 73 3f 17 93 5b 3f
       1.0137818 0.84970766 0.95279044 0.85771316
000150 86 2c 37 3f a2 d7 83 3f 87 52 78 3f 8c bd 74 3f
       0.7155231 1.0300181 0.97000927 0.95601726
000160 1b b9 6f 3f 2d cf 81 3f 42 ac 78 3f 66 91 6d 3f
       0.93641824 1.014135 0.97137845 0.92799985
000170 59 10 6c 3f 1e 6d 61 3f a3 cb 85 3f 0b 2c a0 3f
       0.92212445 0.88057125 1.045277 1.2513441
000180 48 33 33 3f e1 cb 7f 3f 86 cc 85 3f 5e e9 80 3f
       0.70000124 0.9992047 1.0453041 1.0071218

bn2.bias f4 [100]
000000 d5 b9 05 be 79 cb a5 3e 74 07 04 3c cc f0 2e 3e
       -0.1305917 0.323818 0.008058418 0.17084044
000010 16 47 e1 3d b6 51 2d 3e 5d bb 02 3e c3 4e 8c 3e
       0.10999887 0.16925701 0.12766786 0.2740384
000020 99 35 43 3d b6 5f 84 3d a3 b4 24 3d 63 92 9b 3e
       0.047658537 0.06463568 0.04021133 0.30385122
000030 70 db 29 3f ba 5d 27 3e 62 67 40 3e a4 21 29 3e
       0.6635046 0.16344348 0.18789437 0.16516739
000040 2a 13 aa 3e cf 6c d3 3d e3 e5 03 3f b0 d6 3b 3e
       0.33217746 0.10323488 0.51522654 0.18343616
000050 df ba 74 3d 59 5d 12 3e d4 92 96 3e 4b e7 f1 3e
       0.059748527 0.14293422 0.29408896 0.47246775
000060 b5 48 06 3f 7a c6 45 3e 02 0c 0a 3f 6a d7 fb 3c
       0.5245469 0.19313994 0.5392457 0.030742366
000070 d7 6a 43 3f 3f 24 50 3d eb f3 9f 3e f9 6c be 3d
       0.763349 0.050815817 0.31240782 0.09298129
000080 0d 58 67 3e cd 51 8d be 4f 31 7b 3d 5b bf 24 3e
       0.22592182 -0.27601472 0.06132632 0.16088621
000090 b2 79 62 3e b6 86 0c be e8 b0 97 3b f8 6b cb 3d
       0.22116736 -0.13723263 0.004629243 0.09932703
0000a0 59 4b 3f 3e d7 f9 a9 3e 51 95 81 3c e8 6c 45 3f
       0.18681087 0.33198425 0.01581827 0.771193
0000b0 a8 27 51 3e 4b d2 c0 3d bc a9 94 3e 50 24 99 3e
       0.20425284 0.0941511 0.29035747 0.29910517
0000c0 7e fc 6b 3e 9a 04 87 3e ba 2b 6c 3e 70 cd 25 3e
       0.23045537 0.26370698 0.23063555 0.1619165
0000d0 a3 11 87 3e 7e bf 82 be 8f 9d aa 3e b0 75 c0 3e
       0.26380643 -0.25536722 0.33323333 0.37589788
0000e0 23 22 24 3e 6f 36 30 3e 16 55 4a 3d 5b 39 5f 3e
       0.16028647 0.17208265 0.04939755 0.21799223
0000f0 39 e5 f8 3a f7 ec 6b 3c 1c 09 37 3e e5 f8 85 3e
       0.0018989212 0.014399759 0.17874569 0.26166454
000100 3d f1 03 bd 13 81 1f 3e 67 bd be 3d 95 00 53 3e
       -0.032212485 0.15576582 0.093134694 0.20605691
000110 a1 e8 45 3e d7 51 07 3c 6d ca 28 be c5 9e 32 3d
       0.19327022 0.008259258 -0.1648347 0.043608446
000120 9c db be bb 13 47 3c bb b9 3f ca 3c 1a 5b e6 3e
       -0.0058245193 -0.0028728887 0.024688588 0.4499138
000130 a3 9c 37 3e 0a b6 8e 3e 2f 47 7b 3f 27 4b 69 3e
       0.17930846 0.2787326 0.9815549 0.22782575
000140 81 de 05 3e 7e e9 d3 3e 9c 0f de 3d c5 2c 2f 3e
       0.1307316 0.41389078 0.10842821 0.17106922
000150 6f fc fe 3e 3f d8 0c 3e 70 19 6c 3e cd eb e7 b7
       0.49801967 0.13754366 0.23056579 -2.764715e-05
000160 a3 0b 19 3e 9d 95 2f 3e 7a 29 6e 3d 8f 96 76 3c
       0.14945845 0.17146917 0.058145024 0.015050544
000170 e3 f8 ae 3e e4 fa 24 3d 68 5e a6 3e 51 7e 41 3e
       0.3417426 0.04027833 0.324939 0.18895842
000180 7b 61 64 3f 5d e4 dd 3c c7 b7 1f 3e a5 4d ef 3d
       0.89211243 0.027086431 0.15597449 0.116847314

bn2.running_mean f4 [100]
000000 a7 d8 1c bd 52 b3 61 3e 53 ab 02 3e af a0 05 3f
       -0.038292553 0.22041062 0.12760668 0.5219831
000010 8b 09 77 bc f3 00 0d 3d db 30 0c be 80 c0 3f 3d
       -0.015077959 0.034424733 -0.13690512 0.04681444
000020 7f 40 a6 be fa a9 98 3e 46 ff bb 3d e0 e9 dd 3c
       -0.32471082 0.29817182 0.09179549 0.02708906
000030 d2 e5 0a 3f 21 e1 86 be 1c 7f 45 3b 41 8c 03 3e
       0.5425693 -0.26343635 0.0030135578 0.12846471
000040 fd 80 bc 3e 97 6b 96 3e 84 20 0d 3f d4 40 82 3e
       0.3681716 0.2937896 0.5512774 0.25440085
000050 8f d2 22 3d d6 e7 0b 3e 6d 9b b7 3d 4f 1d 45 3e
       0.039751586 0.13662657 0.08965192 0.19249462
000060 fd 4c 60 3e 2a c1 5b 3e de 1d 07 be 6c b3 05 3e
       0.21904369 0.21460405 -0.13194987 0.13056725
000070 59 25 6d 3e bb fa d5 bc 85 47 90 3e 40 73 b5 3d
       0.23158778 -0.026120534 0.28179565 0.08859873
000080 65 ea 1d 3d 32 10 6a bc ba 65 50 3e 74 f1 fb 3d
       0.038553614 -0.014286088 0.20351306 0.12301913
000090 0f fc 94 be 7f d5 91 3e 81 0a 53 be f8 d0 b4 3d
       -0.29098555 0.28483197 -0.20609476 0.0882892
0000a0 5c e2 24 bd c9 23 09 3e 53 0a 25 be 58 18 7e 3e
       -0.040254936 0.13392557 -0.1611722 0.24813974
0000b0 43 06 51 3e bc 55 8f 3c 31 90 1b 3c 04 24 88 be
       0.20412545 0.017496936 0.009494827 -0.26589978
0000c0 e1 4b c6 3d ce 47 cb 3e b0 fa 55 3e 67 79 90 be
       0.096824415 0.3970322 0.20896411 -0.28217623
0000d0 a4 07 84 3e c0 48 b7 be 61 1d 0f 3e 6b e6 5b 3e
       0.2578708 -0.3579769 0.13976051 0.21474616
0000e0 f1 60 87 3e 95 68 5d 3e 76 99 cd bd 4f ca 3d 3e
       0.26441148 0.21621926 -0.10039036 0.18534206
0000f0 57 4c 47 3c 8a fd a5 3d ae b2 c5 3e a6 25 0e be
       0.012164197 0.08104999 0.38612884 -0.13881549
000100 ff 49 63 39 eb ba e2 3d 37 09 e8 3d 3f a2 52 3d
       0.00021675973 0.11070808 0.113298826 0.05142426
000110 94 7a 88 bd c5 5e 77 be 6e 1d 24 be b3 db 26 3b
       -0.06664005 -0.24157245 -0.16026852 0.002546054
000120 1e 24 36 be fe 22 19 be a0 f3 19 be 7f fe 6b 3e
       -0.17787215 -0.14954755 -0.15034342 0.23046301
000130 d3 a3 c8 bd 5b 09 c8 bb a3 cd 62 3e 1f ec b1 bd
       -0.09796872 -0.006104631 0.22148757 -0.08687615
000140 07 e0 67 3e 0e 22 c5 3e bb b9 05 be 36 2e 87 3e
       0.22644053 0.38502544 -0.13059132 0.26402444
000150 5e c7 1d 3c de 29 fb bc 6f 30 20 3e c8 7c d5 ba
       0.009630052 -0.030659612 0.15643476 -0.0016287798
000160 bd 93 10 3e 63 51 3e 3e 4b 02 4b be 11 33 ae 3d
       0.14118858 0.18585734 -0.19825093 0.08505834
000170 25 4e 82 bd 05 6f 5f 3d 4d 86 91 bc cc ee 32 bd
       -0.06362561 0.054549236 -0.017764235 -0.043684766
000180 07 ce 59 3e 62 d2 62 3e 3d 71 b7 3d df 8b cd 3d
       0.2127 0.22150567 0.08957145 0.10036444

bn2.running_var f4 [100]
000000 09 c3 7f 3d 61 3e 43 3d 3e 3e 86 3e c7 7a 20 3f
       0.06244186 0.04766691 0.26219362 0.62687343
000010 b5 53 88 3d b3 c4 40 3e 02 fc a7 3d 2f 11 dc 3d
       0.06656591 0.18825035 0.082023636 0.10745465
000020 52 a3 98 3e a2 2d 01 3f 1b 4b d5 3e 2b 22 4b 3e
       0.29812104 0.50460255 0.41658863 0.19837253
000030 73 65 74 3d 44 4f 3a 3e 6f 56 38 3e 7e 0a 5d 3e
       0.059667062 0.181943 0.18001722 0.21586034
000040 98 3a c2 3e 5e ac b3 3e 3e 66 40 3e 86 76 a5 3e
       0.37935328 0.35092443 0.18789002 0.3231699
000050 dd c2 a6 3e 7c 30 6d 3d e3 26 29 3e 44 ae eb 3d
       0.32570544 0.057907566 0.1651874 0.11507848
000060 4b a0 ff 3d d2 c6 9d 3e 83 82 91 3c 3e 60 95 3e
       0.12481745 0.3081575 0.017762428 0.2917499
000070 47 62 cc 3d db 12 4b 3e f8 d0 2c 3e 9f 20 9e 3e
       0.099796824 0.19831412 0.1687659 0.30884263
000080 13 e8 4d 3e e3 a8 36 3e ad 1a 5a 3e e9 d4 ec 3d
       0.2010806 0.17837863 0.21299239 0.11564047
000090 83 0d 9e 3e 21 77 c8 3c e2 9d 30 3e 7b 00 53 3e
       0.30869684 0.024470868 0.17247728 0.20605652
0000a0 58 2f aa 3e f5 63 9e 3e cf c1 bf 3e df 0b cc 3d
       0.33239245 0.30935636 0.37452552 0.09963202
0000b0 60 98 92 3e 69 f4 fa 3d 44 57 7c 3e 22 3e 18 3e
       0.28631878 0.12253649 0.24642664 0.14867452
0000c0 ad 87 a6 3e a6 2a 48 3f 08 77 89 3e 68 bb 11 3e
       0.32525387 0.78190076 0.26848626 0.14231646
0000d0 1c e8 79 3e 01 37 cf 3d ab f6 76 3e 62 56 55 3e
       0.24404949 0.10117913 0.24117534 0.20833734
0000e0 e6 d4 45 3e 62 fa a4 3e d9 fc ab 3e 45 e8 87 3e
       0.19319496 0.32222277 0.33591345 0.26544395
0000f0 e1 da ba 3d 42 72 f2 3d 51 e3 ab 3e 9e 86 a7 3e
       0.09123779 0.11838199 0.33571866 0.32719892
000100 7b ff ee 3d 36 39 8a 3e 26 07 8f 3e 5f 7f 82 3e
       0.11669823 0.26996773 0.2793514 0.254878
000110 02 02 67 3d 48 40 55 3e 92 c0 97 3d 37 ca 35 3e
       0.0563984 0.20825303 0.07409777 0.1775292
000120 7e 78 eb 3d e1 92 db 3d 3c f3 6f 3d 17 5e 74 3d
       0.114975914 0.10721374 0.058581576 0.059660044
000130 bb 95 80 3d 6f b1 ef 3d c3 13 ea 3c bd 09 e6 3e
       0.06278559 0.11703765 0.028573876 0.44929305
000140 62 3c 0f 3e f1 b9 8f 3d 40 75 e8 3e 9d 17 15 3e
       0.13987878 0.070178874 0.45401955 0.14559789
000150 27 13 04 3d 37 3a 8b 3e 78 ae aa 3e 20 3e 38 3e
       0.032244828 0.27192852 0.33336234 0.17992449
000160 8c 97 16 3f fb 0e 2a 3e 20 5c 1a 3e f6 a9 2b 3e
       0.5882499 0.16607277 0.15074205 0.16764054
000170 78 3b 27 3e 0d 43 03 3f 8e 36 04 3f c1 dc 5e 3d
       0.1633128 0.51274186 0.51645744 0.054409746
000180 58 d7 ae 3c 75 b8 e8 3e 27 fa ca 3e c6 87 51 3e
       0.021342918 0.4545323 0.39643976 0.2046195

linear3.weight f4 [50, 100]
000000 bc 38 18 3d ac 31 10 3d e3 a0 07 bd c8 cd ff ba
       0.03716348 0.03520362 -0.033112418 -0.0019516284
000010 b9 12 84 bd fb 8d 1b 3c 5a b2 82 bb ad 31 8b 3a
       -0.064488836 0.0094943 -0.0039885463 0.0010619663
000020 d7 29 1e 3c 95 8e e7 bc a1 4e 1b 3d e6 e0 8c 3b
       0.00965353 -0.02826623 0.037916783 0.004299271
000030 e5 cf 98 3d 8d d3 dd 3b 9b 4a ea bc 7b 7c a4 bd
       0.07461528 0.0067696036 -0.028600028 -0.08031555
000040 7a db 08 3d 32 8c 4b bb 87 16 05 bd 24 d9 cd bc
       0.033412434 -0.0031058905 -0.032492187 -0.025127955
000050 4a 6b d9 3d 4e f4 ec bb 69 dc 30 3e 34 62 fd 3b
       0.10616167 -0.007231272 0.1727158 0.007732654
000060 02 d6 3d bd 6d a3 da bc 28 41 11 be 74 8f ac 3c
       -0.046346672 -0.026689256 -0.14185011 0.021064498
000070 2e 99 b8 3b dc 69 db 3c 3f ac b5 ba 98 ec 43 bc
       0.005633495 0.026783876 -0.0013860537 -0.011958264
000080 fa 50 08 3d 5d a7 5d 3d 7a 86 af ba cc 0c 1f 3c
       0.03328035 0.05411469 -0.0013391518 0.009707641
000090 b9 a7 47 3d b6 0d 28 be a3 f3 2d 3d 31 ab a1 bc
       0.048743937 -0.1641148 0.04246868 -0.01973495
0000a0 82 27 b2 bd d7 75 48 bc dd f0 2d 3d 3f 58 c3 bc
       -0.08698942 -0.012235126 0.042466033 -0.02384579
0000b0 d4 42 a1 bc 91 69 81 bc ae 6f 9b bc 68 60 e5 3c
       -0.019685186 -0.015797408 -0.018974151 0.028000072
0000c0 1e fd 6e 3d 18 2c 39 3d b9 c1 45 bd d6 01 dd bc
       0.05834686 0.045208067 -0.04828045 -0.026978415
0000d0 7c 20 de 3c ae 2f 6c 3c 92 c2 e5 3a e7 38 2b bd
       0.0271151 0.014415665 0.00175293 -0.041802313
0000e0 b4 6c 67 bd 93 09 f6 3c c4 89 0f 3d a9 7a 73 3c
       -0.05650015 0.030033862 0.035043493 0.014860787
0000f0 db 4a ec 3e 89 f9 05 bc a3 3d d1 bc 4d 35 6f 3c
       0.4615086 -0.00817717 -0.025542086 0.01460011
000100 3c d9 a0 3c 8d 02 83 bc 02 06 7b bd e5 08 68 bc
       0.019634835 -0.015992427 -0.061285026 -0.014162277
000110 c2 76 5b bd b4 80 0d bd 61 18 c5 b9 a4 95 83 bb
       -0.053580053 -0.03454657 -0.00037592932 -0.0040156413
000120 38 a5 a6 bd e9 98 a1 3c 31 92 d6 bd 9e c7 b3 3b
       -0.08136982 0.019726234 -0.104771025 0.0054864427
000130 42 ce 5f 3d f5 6b 6d 3c 02 5b 59 3d 8a 78 17 3d
       0.054640062 0.014491071 0.053065307 0.03698019
000140 90 b3 0f 3d 8c 04 b4 bc ee b8 f2 3c ad f7 99 bd
       0.035083354 -0.021974824 0.029629197 -0.075179435
000150 08 9e 89 3b 84 ff 5d bc 7b 77 4f bd 98 d2 09 3c
       0.004199747 -0.013549689 -0.050651055 0.008412026
000160 43 88 38 3c 23 77 67 3d 3b 5a 51 3d fb df 1e bd
       0.011262956 0.056510102 0.05111144 -0.038787823
000170 10 fb 48 bd 94 19 4a 3d 5a 6f e4 3d 1a 51 c6 bd
       -0.049067557 0.0493408 0.11154051 -0.09683438
000180 cd fa f8 bc 46 c2 7c bd 3d f5 e4 bd 42 5e fa bc
       -0.030393029 -0.06170871 -0.11179588 -0.030562524
000190 18 45 9f 3d 04 b0 43 3d ed 95 e9 3c 93 47 f7 3b
       0.077768505 0.047775283 0.028513873 0.007546374
0001a0 1b 9c ad bd 48 a7 89 bc 44 6e bc 3c c7 61 37 3d
       -0.084770404 -0.016803399 0.023001797 0.044770982
0001b0 9c b9 bb 3b 6c 04 9d bd ee 02 71 3d 70 b4 8e 3e
       0.0057289135 -0.07666859 0.058840685 0.27872038
0001c0 fb 1b 85 bd f0 9e 6e 3c e6 db 20 bd 6e 33 d4 3c
       -0.064994775 0.014564261 -0.03927221 0.02590343
0001d0 20 99 e2 bc 20 ca e1 3c 47 35 e3 bc ba b1 80 bd
       -0.027660906 0.027562201 -0.027735366 -0.06283899
0001e0 83 ba 85 bc cf 62 35 bd 52 84 4e 3c af 6f aa 3b
       -0.016324287 -0.044283684 0.01260479 0.005201302
0001f0 04 1f 21 3d 4c 25 ba 3c ee 8f 02 3e a1 6d 98 3c
       0.03933622 0.022722863 0.12750217 0.018606963
000200 8c 1e 0c bd b9 e5 25 3d 9d d2 1f bd d3 88 d1 bc
       -0.03420882 0.040502284 -0.039019216 -0.025577938
000210 86 48 06 bc 4c e0 a7 bd 83 23 8f bd 04 ce 69 3d
       -0.008196002 -0.08197078 -0.06989195 0.057081237
000220 24 3f 26 3d 11 d8 56 bd d7 69 7d 3c 16 78 b9 bc
       0.04058756 -0.05245215 0.015467129 -0.02264027
000230 33 1e b4 b9 f2 bb 84 3c 26 ae d3 bb c2 40 13 bc
       -0.00034354776 0.0162029 -0.006459969 -0.008987607
000240 79 14 67 bb 2c 57 93 bc 0e 22 ef 38 35 be f1 3a
       -0.0035260005 -0.017985903 0.00011402751 0.0018443527
000250 fa 5e 56 bc 2b 5b ce 3c ab 41 e5 3c e3 b9 2d 3c
       -0.013084168 0.025189957 0.027985414 0.010603401
000260 69 11 c7 bc ba f0 f7 3c 97 d8 9e 3d 78 7d b1 3d
       -0.024300294 0.030266155 0.07756155 0.086665094
000270 f6 5b 12 bc 55 98 38 bd 59 2c ed 3c 03 3d 9e 3c
       -0.008933058 -0.04506715 0.02895181 0.019316202
000280 f4 6d 08 3d 33 66 96 3c 3a ed ef bc b0 2a 4b bd
       0.033307984 0.01835928 -0.029287923 -0.049601257
000290 05 d2 8c 3d e9 bb 18 3d 14 49 76 3d 91 32 fc 3b
       0.068759955 0.03728858 0.060128286 0.0076964577
0002a0 e3 79 b9 3d fe b1 1e bd 79 b8 d2 3a 87 76 53 bc
       0.09056451 -0.038743965 0.0016076706 -0.012906677
0002b0 1c 2d b6 3b 6a 9a 02 bd 96 1a 08 3e 58 72 81 3d
       0.0055595767 -0.031885542 0.13291392 0.063206375
0002c0 bc f7 26 3e dd 16 f7 bc 7d 3d 44 bd 6f e0 7d 3d
       0.1630544 -0.03016227 -0.047910202 0.061981615
0002d0 73 f4 60 3d 0c 8e fd 3c e5 06 d2 bc cd 49 c1 3c
       0.054920625 0.030951522 -0.025638053 0.023594761
0002e0 ac 14 26 bd cd b2 84 bd 75 f2 ca 3d 71 09 a1 bd
       -0.040547058 -0.06479416 0.09909526 -0.07863129
0002f0 ba d6 7b 3d b8 a4 00 3f 95 a5 5d bd 15 c6 36 bd
       0.061484076 0.5025134 -0.05411299 -0.0446225
000300 2b 03 7e 3d 7d db ae bd a5 bb 66 3c 1a 12 26 3e
       0.06201474 -0.08537958 0.014082824 0.16217843
000310 97 94 0d be b5 78 de 3c 5f 85 e7 3c d3 5c 9a 3b
       -0.13826214 0.027157167 0.028261838 0.0047107725
000320 5c 68 71 3e c1 8f 6e bd 0d c4 a1 bc 05 7f fb 3c
       0.23574966 -0.058242563 -0.019746805 0.030700216
000330 d7 69 22 3c 76 b3 fd bb c1 0f 90 3d 2a d0 91 3c
       0.0099129295 -0.0077423407 0.07034255 0.017799456
000340 f9 b9 7a bd cf 40 ab 3d 35 01 2e 3d 1c 1e f9 bc
       -0.061212514 0.08361971 0.04248162 -0.030409865
000350 de c9 84 bb 48 f7 22 3d 68 a5 20 bd 78 da 36 3d
       -0.0040523848 0.039786607 -0.039220244 0.04464194
000360 56 27 a6 3e d2 4e 1f 3e 97 78 0c bc 8c d1 ee bc
       0.32451886 0.15557411 -0.008573673 -0.029152654
000370 7e 99 0d bd eb 38 b2 bc b0 c1 10 3b 85 57 46 bc
       -0.03457021 -0.021755656 0.0022088103 -0.012105827
000380 6b 84 2f bd 36 7d 9f bd 70 a1 75 bc 12 54 0e bc
       -0.042850893 -0.07787554 -0.014992103 -0.008687036
000390 7f 9a d1 bc 14 23 f5 3b d6 bb 0e bd 4d ce 58 bd
       -0.025586365 0.0074809883 -0.034847103 -0.05293112
0003a0 a4 9f bd bc 8b 31 a5 bd a3 63 80 bc 09 ed 8f 3c
       -0.023147412 -0.0806609 -0.01567251 0.017569082
0003b0 7b 3c c9 3d c3 ba da 3b a3 0e 7d bd 69 6f b7 3c
       0.09825989 0.0066750958 -0.061781537 0.022391992
0003c0 2c 6d 53 3c 1c b7 73 bc 54 3f 2c bd b9 5c 3b bd
       0.012904447 -0.0148752 -0.042052582 -0.045742724
0003d0 30 50 a4 bc ef db 50 3d cd f3 7f 3c 6f ac 2e 3d
       -0.020057768 0.050990995 0.0156220915 0.042644914
0003e0 1d 35 70 3d 3d 0b 96 bc 32 37 93 bc 23 62 6e 3c
       0.058644403 -0.018315906 -0.017970655 0.014549765
0003f0 d3 ea 11 3e 3f e2 3f bc f3 d4 83 3d f3 12 af 3c
       0.14249735 -0.011711656 0.06437101 0.02137134

linear3.bias f4 [50]
000000 64 76 0e bd 5a 75 c0 bd d6 03 88 bd 6a 7c 58 bd
       -0.034780875 -0.09397383 -0.06641357 -0.052853025
000010 59 7a 39 bd 99 1d ad bd 6e ce 11 3d 39 4f 25 3d
       -0.045282695 -0.08452911 0.035597257 0.040358756
000020 58 9f 5b 3b eb 20 84 3d 7b f1 bc bb 13 38 1a bd
       0.0033511724 0.06451591 -0.0057660914 -0.037651133
000030 87 e1 90 bd ef 6f f8 bb da a2 3b 3d 11 b1 a2 bd
       -0.07074266 -0.007581703 0.045809604 -0.07943929
000040 e5 18 c2 bd 36 17 aa 3d dc d9 55 3d fa 63 5c 3d
       -0.094774045 0.083052084 0.05220972 0.053806283
000050 cb e5 cd 3b 6c ba 0d bd 54 cf cf bc 47 f5 49 bd
       0.006283497 -0.034601614 -0.025367416 -0.04930618
000060 38 b9 bb bd f4 e9 4a 3d 3d 27 9d bc 64 09 82 3d
       -0.09166187 0.04953952 -0.01918375 0.06349447
000070 80 40 99 3d d8 e4 3d bc 10 b1 c4 3b 96 ce 96 bd
       0.074830055 -0.011590205 0.006002553 -0.07363622
000080 26 ec 7b bd 10 3e d0 bd df cb a8 bd c3 fa 32 bc
       -0.061504506 -0.101680875 -0.0824201 -0.010924044
000090 7e 2f 82 bd a8 98 3a bd 60 d8 68 3d a4 48 93 bd
       -0.06356715 -0.04555574 0.056846976 -0.071915895
0000a0 b1 8c 82 bb 36 ca c9 3c f6 a2 3f 3c 84 f3 51 bd
       -0.003984057 0.024632555 0.011696568 -0.051257625
0000b0 3f 80 01 3d 8e 74 0c 3c 16 8f 9f bd c7 b0 d0 3b
       0.031616446 0.008572711 -0.07790963 0.0063687298
0000c0 b3 23 b6 bb b1 e9 b9 bb
       -0.005558455 -0.00567361

bn3.weight f4 [50]
000000 74 3b c3 3f 88 34 be 3f 89 ef c3 3f 01 c7 be 3f
       1.5252519 1.4859781 1.5307475 1.4904481
000010 be ad c3 3f 2f fa c5 3f fa 5e be 3f a7 0d ba 3f
       1.5287397 1.5466975 1.4872735 1.4535416
000020 a3 76 b8 3f 31 4d bc 3f 91 f8 b4 3f 81 f5 b2 3f
       1.4411205 1.4711057 1.4138356 1.3981172
000030 a2 a8 ad 3f c2 94 bd 3f df ba c9 3f 34 4d be 3f
       1.3567088 1.4811022 1.5760154 1.486731
000040 10 08 b6 3f f1 1b ba 3f 67 5b af 3f cf e2 b8 3f
       1.422121 1.4539777 1.3699769 1.4444216
000050 ac a4 c5 3f e4 d1 b5 3f bb 5b b8 3f c8 f4 b2 3f
       1.5440879 1.4204679 1.4402994 1.3980951
000060 ef c9 c3 3f 9b fe bf 3f 55 c1 b9 3f 94 7f b3 3f
       1.5296 1.4999574 1.4512125 1.4023309
000070 92 98 c8 3f 19 de c2 3f b2 05 b7 3f ce 4d c9 3f
       1.5671561 1.5224029 1.4298613 1.5726869
000080 63 a7 c6 3f 6c 53 bf 3f 98 b3 b4 3f 39 26 c0 3f
       1.5519832 1.4947333 1.4117308 1.5011665
000090 86 0a c6 3f 81 05 c0 3f b3 fd bb 3f d2 5e b5 3f
       1.5471961 1.500168 1.4686798 1.4169562
0000a0 6d f1 c2 3f f5 3a b4 3f 38 7b ae 3f d4 d5 b9 3f
       1.5229927 1.4080492 1.3631353 1.451838
0000b0 54 36 b0 3f e4 4b bb 3f 5c a0 b0 3f 9d a8 b2 3f
       1.376658 1.4632535 1.3798938 1.3957707
0000c0 d8 3e c2 3f b0 db bb 3f
       1.5175428 1.4676418

bn3.bias f4 [50]
000000 a5 59 ed 3e cf 3f e1 3e 22 94 d6 3e 50 65 dc 3e
       0.46357456 0.43993995 0.4190989 0.43046045
000010 fd 88 f8 3e a8 03 e4 3e df 11 c0 3e 2e 20 e1 3e
       0.48542014 0.4453404 0.37513635 0.43969864
000020 a2 80 d7 3e 73 ab 00 3f 57 d7 0d 3f e7 ff e1 3e
       0.42090327 0.5026161 0.5540671 0.4414055
000030 d3 d6 06 3f fe f6 00 3f 4f 44 0a 3f b5 39 aa 3e
       0.52671546 0.5037688 0.5401048 0.33247152
000040 0e 64 c7 3e 36 66 ef 3e 55 19 e9 3e 88 ab ed 3e
       0.38943523 0.46757668 0.4552714 0.4641993
000050 a9 ff fa 3e 39 bf c7 3e f9 ed cd 3e 16 47 05 3f
       0.49023178 0.3901308 0.4022062 0.52061594
000060 06 0d e5 3e 23 7d 02 3f 11 a0 e9 3e dc 58 eb 3e
       0.447365 0.50972193 0.45629933 0.45966232
000070 eb 6f b7 3e 0d 2e b2 3e ef 49 0b 3f 70 2f 02 3f
       0.35827574 0.3480076 0.5440969 0.50853634
000080 dc 27 02 3f 7e d2 ef 3e ff 36 02 3f ca 5c e9 3e
       0.5084207 0.4684028 0.5086517 0.45578605
000090 e5 23 ef 3e 6d 28 00 3f a8 e4 d6 3e 34 7f bc 3e
       0.46707073 0.50061685 0.41971326 0.36815798
0000a0 80 f5 d7 3e 90 02 fe 3e 68 43 d0 3e a7 89 e4 3e
       0.4217949 0.4961133 0.40676427 0.4463627
0000b0 10 22 eb 3e 22 12 d7 3e 70 48 d1 3e 82 37 bc 3e
       0.45924425 0.42006022 0.40875578 0.367611
0000c0 50 63 11 3f ff ea be 3e
       0.56792164 0.37288663

bn3.running_mean f4 [50]
000000 25 ba a9 bd 36 c0 24 3f 16 03 aa 3e b9 7b 16 3d
       -0.082874574 0.6435579 0.3320548 0.036739085
000010 a8 4d 35 be 76 65 e1 3e 9b 88 8e 3e a4 7f d9 3e
       -0.17705405 0.4402272 0.27838597 0.42480195
000020 41 e1 95 3e bc 48 00 3f d2 46 31 3e 10 bd 0c 3f
       0.29273418 0.50110984 0.17312172 0.54975986
000030 b5 9a bb 3d c0 d9 52 3e 41 5a 78 3e bb 29 99 3e
       0.091603674 0.20590878 0.24253179 0.2991465
000040 39 1f f8 bc da 4c ac 3e 1c cf 5e 3e 93 1e c1 3e
       -0.030288326 0.33652383 0.21758693 0.3771864
000050 09 98 34 3e 8a e9 5d be af f7 47 3e 36 36 4f 3e
       0.17636122 -0.2167112 0.19528078 0.20235524
000060 f8 b2 e9 3c 12 2c 01 3f 9c c5 b3 3d 2a 0e c1 3e
       0.028527722 0.5045787 0.08777925 0.3770612
000070 a1 7f 2f 3f a4 83 18 3e 5e af 04 3e c9 07 dc 3e
       0.6855412 0.14893967 0.12957522 0.4297469
000080 e5 1b 50 3b 5a c4 8a bd 37 c5 29 3e 9c e2 ef 3b
       0.0031754908 -0.06775732 0.16579138 0.007320715
000090 09 b5 15 3f 72 30 de bd 54 68 dd 3e e8 d3 de 3e
       0.5847936 -0.10849084 0.4324366 0.43521047
0000a0 8c 29 19 3e af 8b 4b 3e 1e 8f a5 3d 70 c1 66 3e
       0.14957255 0.19877504 0.08083938 0.22534728
0000b0 fc 73 85 3e 8d 49 a4 3e 42 82 59 3e b6 5c c9 3e
       0.26065052 0.32087365 0.21241096 0.39328545
0000c0 d3 ff 9a 3e 35 79 7e 3c
       0.30273303 0.015531828

bn3.running_var f4 [50]
000000 e4 e8 84 3e af a1 0d 3f 0c 4e 9b 3e 91 f0 9b 3e
       0.2595893 0.55324835 0.30332983 0.30456975
000010 42 0d e6 3e ce 27 b1 3e 63 ac a5 3e 8a 77 05 3f
       0.4493199 0.3460068 0.32358083 0.5213553
000020 0e ff b3 3e d4 03 30 3f e7 89 8b 3e 77 04 c7 3e
       0.3515553 0.6875584 0.2725365 0.38870594
000030 a9 a8 8b 3e 39 26 c9 3e fb b3 a3 3e 5a 51 94 3e
       0.27277115 0.39286974 0.31973252 0.28968316
000040 a1 41 b8 3e 27 9b 7a 3e a2 a1 d7 3e af 2d 65 3e
       0.3598757 0.24473248 0.42115504 0.22380708
000050 36 4b ae 3e d1 a9 dd 3e 3c 62 02 3f a8 16 8c 3e
       0.34041756 0.43293622 0.50931144 0.27361035
000060 5a b4 6d 3e 51 98 b4 3e d9 60 14 3f 7a d9 9b 3e
       0.2321333 0.35272458 0.5796028 0.3043936
000070 e8 c2 b7 3e 65 9b 2b 3e c4 d3 07 3f f0 bd d0 3e
       0.3589089 0.16758497 0.53057504 0.4076991
000080 70 da ca 3e 16 e7 d1 3e 49 30 d0 3e eb 6c c4 3e
       0.3961978 0.40996617 0.4066184 0.38364348
000090 04 0d f6 3e 7e cf ae 3e e8 13 94 3e 14 d0 21 3f
       0.48056805 0.3414268 0.28921437 0.6320813
0000a0 2b 1b 96 3e e6 c4 d4 3e 9b 76 19 3f 91 83 45 3e
       0.29317603 0.41556472 0.599466 0.1928847
0000b0 93 28 a6 3e 97 fa b9 3e 4d 7e de 3e 04 0f b5 3e
       0.3245283 0.36323997 0.43455735 0.3536302
0000c0 b3 2c fd 3e ec a7 67 3e
       0.49448165 0.22622651
