pytorch_models_dynaPhysics/TD3_walker_stand_072_actor.pth (torch, 521670 bytes, 6 tensors)

layer_1.weight f4 [400, 18]
00000000: 8fb9 67be bad6 073e 5f4a b1be 9bca cebb
00000010: 66fe 31bd 6591 753d 80c6 3a3e e83c 8d3e
00000020: 9b11 963c 4334 0abd fe04 bfbd aaf0 83bd
00000030: 63a9 65be 7f24 eebd 3d11 a6bd be6a 873c
00000040: 2380 c93d df90 1b3e 4ea4 84be cb98 f7bd
00000050: 85e4 c53d f704 bd3e 9b13 f3bd 8a2e 873e
00000060: 4023 143c af70 a33d 18d8 413e 21e5 4bbe
00000070: 7ee2 8fbe a013 e8bd 627f 04be 3796 613e
00000080: a637 9fbd 9eb5 20be bb3d 01be 9852 64be
00000090: 9d3f 33be 2fe3 8c3e ab95 393e 3642 083d
000000a0: 61ef 73bc 9bcb 14be 79a6 24be 2838 a6be
000000b0: ff62 cabe 08f2 b3be 0fff 893e 99e1 313e
000000c0: dd4c eebd 0771 18bc 1ad3 513d 870b 883e
000000d0: 9e4a bc3d 5c53 a53d b24b f53d b916 9cbe
000000e0: 77b5 293e 85e9 debe 2243 91be 601d 20be
000000f0: 2e68 803e 8cd4 283e a106 c5bc ab46 513e
00000100: c7f8 463e 3232 45bd 56af 903b 2026 983d
00000110: adf4 ec3d e21c 4a3e a029 4cbe 1419 8cbd
00000120: 39da 6e3d 78a9 943e 071e 203e e24d 8c3e
00000130: a660 da3d 6e56 bbbd d5b8 f0bd 771c c3be
00000140: 5714 8dbe 7dbd 233e 7e68 263e dade 91be
00000150: 5361 203d 7653 c0bd e8a2 38bd fa37 28be
00000160: 6824 003e fb85 bdbd 5892 6dbd 0b40 ad3d
00000170: 3213 463e ad71 723e 3a18 c9be 9180 30be
00000180: d5c9 a93d 9610 9e3c cc87 bebd 452f 23be
00000190: 0d61 873e a147 363e b9d6 dfbd 0784 e9bd
000001a0: bfd6 4ebe 43b6 92bc b551 3dbe ad25 36be
000001b0: 9e8e 123e c351 61bd 9cd4 2ebe cdc6 823e
000001c0: 1b83 66be cfd7 a03e 9a74 133e 3aed a6be
000001d0: 7341 edbc 352c 20bd 9a36 0b3e 858b 823d
000001e0: fde8 bc3d 57f9 b7bc 15a9 a4bd 1ed4 0f3e
000001f0: 30d5 59be d465 1ebe 286f 63be d505 15be
00000200: 38b3 e43c bf1d 3fbe b7f6 00be aedb 17be
00000210: 328b a93d b4f0 07be 0648 703e a183 eabd
00000220: 80b2 43bc f5f7 89bd 08f8 d83c 7f42 123e
00000230: 2f20 773e 2ca9 1f3e fd96 563e 2f9a ccbc
00000240: 60c9 98be acf0 3ebd 2ef6 f23d 0a4c adbd
00000250: de4f 91be e2a8 77be 3329 dabe ec15 39be
00000260: 594a 053e f5fe 83bd f09d 97bd 2f75 90be
00000270: f0b1 1f3e 8382 68be 11d4 3cbd 0d67 d8bd
00000280: 7a79 45bd 1de4 e2bc 1dc1 bcbe af2f 763a
00000290: b11e 9dbd 9e5a 533c fede 07be e304 aabd
000002a0: f914 80be 4656 bdbd 95ca ed3e 9d94 d53d
000002b0: 7f97 653e afe5 d83d 5a30 63be f2dd 133e
000002c0: 82db 1f3c 0703 c3bd 16c8 363e 147f 30be
000002d0: e5cf 863e ca60 abbd 35b8 443e 5181 223c
000002e0: 9277 593e da62 fd3d 0937 c5bc a9b4 bdbc
000002f0: 003b 19be bb25 d23e b249 693e 7d36 1b3e
00000300: 10e9 6ebe 05f8 3c3c 6139 07be a5a8 4bbe
00000310: 741d b4bd 49f3 8e3d c1f5 77be 5390 533d
00000320: 731d 573d afb7 2f3d 400d 76be 7e2a 8cbe
00000330: c403 77be aa4d 953e 1f9f 0bbe 4f55 ab3e
00000340: 4a11 13bd 4568 703d ca51 9e3b c8cc 12bd
00000350: 1214 9b3c f1bf 47bd 7e6b 38bd 97b6 043a
00000360: 86ce 95be 516a a33c b80c ae3e 842f 01be
00000370: 217d 29bd 43dc b83e 66b6 793e 3b0e a5bc
00000380: 592a d7bd 2328 723e d642 8bbe d787 d6bd
00000390: 84d0 cdbd 0641 00bd 6574 20bc 72aa 7c3e
000003a0: 923a cb3c bb35 423e 9b0f 30bc cd6d 27be
000003b0: 86d0 383e 1f98 c4be 4f4b 87be dcb4 a03b
000003c0: 9aa4 833e b6c6 173e e302 4b3e 2eb1 28bd
000003d0: f044 223d c02d 99be 6ed2 ee3d 4a35 66be
000003e0: a39f e6bb 7218 85bd 57db 84bd 1a66 f23b
000003f0: e212 6a3e 099c 0abe c966 85be 0d53 d3bd
-0.22629379 0.13265505 -0.34627053 -0.0063107735 -0.043455504 0.059953112 0.18239784 0.2758553
0.018318942 -0.033741247 -0.09327124 -0.064423874 -0.22427897 -0.11628055 -0.08108757 0.01653039
0.09838893 0.15191983 -0.25906605 -0.1208969 0.09662727 0.3691785 -0.11868974 0.26402694
0.009041607 0.07980477 0.1893009 -0.19911624 -0.28102487 -0.11331868 -0.12939218 0.22029959
-0.07774286 -0.15694281 -0.12621205 -0.22297132 -0.17504735 0.27517077 0.181235 0.03326627
-0.014888615 -0.14530794 -0.1607913 -0.3246472 -0.39528653 -0.35145593 0.26952407 0.17371215
-0.11635754 -0.009304292 0.051226713 0.26571295 0.091939196 0.0807254 0.11977328 -0.30486086
0.1657313 -0.43537536 -0.2837153 -0.15636206 0.25079483 0.1648733 -0.024051012 0.20437114
0.19430839 -0.048143573 0.004415433 0.07429147 0.11570106 0.1973758 -0.19937754 -0.06840721
0.058313582 0.29035544 0.15636455 0.2740317 0.106629655 -0.091473445 -0.11754004 -0.38107654
-0.2755458 0.15990253 0.16250798 -0.28490335 0.039155316 -0.09390919 -0.045077235 -0.16427603
0.12513888 -0.0925407 -0.058000892 0.08459481 0.1934326 0.23676176 -0.39276296 -0.17236544
0.082904495 0.019295018 -0.09303245 -0.15936 0.2644123 0.17800762 -0.10929627 -0.11402135
-0.20199107 -0.017909175 -0.184882 -0.1778781 0.14312217 -0.055009615 -0.17073292 0.25542298
-0.2251095 0.3141465 0.14399949 -0.32602865 -0.028961873 -0.03910466 0.13595048 0.063742675
0.092241265 -0.022457762 -0.08040062 0.1404576 -0.21272731 -0.15468532 -0.22210371 -0.14553006
0.02791749 -0.18663691 -0.12594114 -0.14829895 0.082785025 -0.13275415 0.23464975 -0.114508875
-0.011944413 -0.06736747 0.026485458 0.14283179 0.24133371 0.15591878 0.20956035 -0.024975864
-0.29841137 -0.04661624 0.11863361 -0.08461769 -0.28381246 -0.24185517 -0.42609558 -0.18074769
0.13016643 -0.064451136 -0.07403171 -0.28214404 0.15595222 -0.22706036 -0.04610068 -0.105665304
-0.048211552 -0.027696664 -0.36866084 0.00093912607 -0.076718695 0.012900023 -0.13268659 -0.08301713
-0.25016 -0.09244971 0.4644362 0.10428736 0.22421072 0.10590684 -0.22186413 0.14440134
0.009756925 -0.09522062 0.17849764 -0.17235976 0.26330486 -0.083680704 0.19210894 0.009918527
0.21237019 0.1237237 -0.024074094 -0.023157435 -0.14963913 0.4104441 0.22782019 0.15157504
-0.23331094 0.011533742 -0.13205482 -0.19888552 -0.0879468 0.06979997 -0.24214841 0.05165131
0.05251832 0.042899784 -0.24028492 -0.2737617 -0.2412253 0.29160815 -0.13634919 0.33463523
-0.03590516 0.05869319 0.0048315274 -0.035839826 0.018930469 -0.048767034 -0.045024388 0.00050626084
-0.29259127 0.019948157 0.3399408 -0.12615782 -0.041379098 0.36105546 0.24385986 -0.020148387
-0.10506124 0.23648123 -0.2719943 -0.10475128 -0.10049537 -0.03131201 -0.009793376 0.24674395
0.024808202 0.18965809 -0.010745908 -0.1635048 0.18048295 -0.3839731 -0.26424643 0.0049043726
0.2571152 0.14821896 0.1982532 -0.041184597 0.039616525 -0.29917717 0.1166123 -0.22481266
-0.007038073 -0.06498803 -0.06487148 0.0073974254 0.22858766 -0.13536085 -0.2605498 -0.10318575

layer_1.bias f4 [400]
00000000: c983 8e3e a99c 193e dea6 92b9 5eff 453d
00000010: 3561 9d3d 28f8 0f3d bb82 5fbb de1d 2e3e
00000020: f146 9f3c 4ce8 5a3d 8a34 98be ee82 9e3e
00000030: 84b6 9a3d 47ee 7b3e cc5b 3abe 9131 4ebd
00000040: 874c ecbd 2acf 84bd ad0f 843e 003d e43e
00000050: 5dea 25bd bcb0 08be 82e9 223d 34d9 79be
00000060: 53d7 873e 9cf2 72bd a858 713e 428c edbd
00000070: 94d2 c23e 92cd 37be 06bb 913d 0d21 463e
00000080: 4387 a93e 83e5 c53e 200c c43e e03c d6bd
00000090: 7be4 553e d150 18be 4e4c a53e 1793 b43e
000000a0: 4458 adbd 5862 623e 87f4 253e c2f7 053e
000000b0: d9a8 0b3e 50df a53c 5266 6c3d 0868 0b3e
000000c0: 77e1 aa3d b4fe cfbd d193 303e 0759 3abe
000000d0: efb5 4a3e d097 d43e 5d7f 583e 5345 613e
000000e0: b063 713d 7067 ba3e ffeb 643e 2831 3bbe
000000f0: 004f debd 15b2 8dbd 21fd 4c3e b384 dfbc
00000100: 8ba7 393d e460 863e e432 e73e 1895 f43d
00000110: 321f b93d 3635 833d 81d9 f93d 35b8 5cbe
00000120: ef01 40be 8337 bbbd 829c 91bd 2401 713e
00000130: 5bf9 7fbd 2a70 1cbb 1b13 86bd b2bb 803d
00000140: 06ea 2bbe 103a 31be 90d1 123e d01e dfbb
00000150: 7d7f 8e3c ce08 c3bd 0b1c 48bc d6e4 4e3e
00000160: eca3 05be 2eec 2d3c 2e73 ebbd 62fb ac3e
00000170: b86e 38bd 33f8 573e 7562 633e cce0 cc3d
00000180: dc1d 153e 45db e5bc 8f62 993e 3d6f ca3e
00000190: 15f1 213e 7a0a a43e ac96 f0bd f1cd b93e
000001a0: b2be 693d 8b98 0b3e fb31 fe3b 42a8 aa3d
000001b0: dd24 6b3e 06dc 1abe 72d0 8d3e fd8f 133c
000001c0: 0a7e 933e 6f85 003d bd78 893d ca1a 5f3e
000001d0: f97f 47be 37a5 e43c 2a25 7d3d 5c3b 81be
000001e0: d438 27be 6d17 3abe 4e5d 093d f0da 31be
000001f0: b01e 9e3d 8c82 febd bec6 a6bd 960f b0bc
00000200: df87 933d 89d9 d13d 6c3c 883b 8e4b dc3e
00000210: 9250 19be 0cb8 30bb a13c 26be e092 b73e
00000220: c399 c1bd cf88 923e b923 9a3d 0c3d 333e
00000230: fb85 793d ecc6 36bd fbd4 063e 57d1 a43e
00000240: 699b bd3e 4480 093d e6da 05bb 36a7 ccbd
00000250: 9de8 d63c 68ae 173d 4ae8 ba3d cc3b 31be
00000260: 8b37 0d3e 7c0f 1f3d deb2 d6bd 9181 983c
00000270: 584c e53d 64b9 69be 3f09 3abc 3c86 123e
00000280: a7cc 813d 2b51 6abd c9ac 89bc 5cbb 613e
00000290: 320f 5ebe ae8d 2dbc d725 5b3e c527 8fbc
000002a0: 652c 1f3a df04 43be 069e babc cb76 14bc
000002b0: 6ff3 04be d440 343e 4134 463d e5b7 62be
000002c0: 4d8a 193e 382c 19be d442 243e 07ce 253d
000002d0: 68df 473e 5758 8dbe 0d20 d13e 5a79 163e
000002e0: 95e6 efbc 576c 31be ec0d 833d a5be 65be
000002f0: d7ed 973e 51b4 753e ea57 7f3e af33 b83e
00000300: 4bfb 09be a84e b6bd 9354 a33e 05bc 973e
00000310: da56 973e 5db7 40bd b6e6 af3d 1430 cabd
00000320: 304b 913e b33a 22be 453f 933e 4e5f b9bd
00000330: 5d8b 373e 2880 a23e 93e7 14be c157 5f3e
00000340: 0156 5cbe 5ace 093e 7c30 ac3e 3753 c9bd
00000350: bae4 cabd 0039 bdbc a7ac 8d3e c92e 8bbd
00000360: e194 a1bb 2024 a73e 0c0d 053e bc4b 92bc
00000370: 514e 283e 8195 1e3e 6492 d33e 59af 9d3e
00000380: ccfa a53d 2cac df3c e4a7 aa3d ed3b cdbc
00000390: 11e7 453e 49c4 3a3e 1275 863e 39b5 353e
000003a0: 8cf7 2e3d a1e1 6cbe e981 69be d10b c13e
000003b0: e52e 5f3c 2f23 aebd 9677 a73e 2c68 84be
000003c0: fa0a 793e ab6b e63e cba6 a73d 691a a33e
000003d0: fda3 ab3e dc38 20be 28f7 d1bd 0887 4b3e
000003e0: 1ad1 bb3d d020 0ebe 9353 debd bfa8 c83e
000003f0: 4653 283d 2e26 16be e831 3c3e 2ecb 933c
0.2783492 0.15001167 -0.00027971616 0.04833924 0.076845564 0.03514877 -0.003410502 0.17003581
0.019443007 0.05344419 -0.29727584 0.30959266 0.07554343 0.24602614 -0.1819908 -0.05034024
-0.11538034 -0.06484826 0.2579321 0.4457779 -0.04050671 -0.13348669 0.03977347 -0.24399263
0.26531467 -0.0593134 0.23568976 -0.11599018 0.38051283 -0.17949513 0.0711575 0.19348545
0.3311101 0.38651666 0.382905 -0.1046083 0.2088794 -0.14874579 0.32284778 0.3526847
-0.08464101 0.22107828 0.16206561 0.13082793 0.13638629 0.020248085 0.057714768 0.13613904
0.08343785 -0.10156003 0.17243887 -0.18198024 0.19795965 0.41522074 0.21142335 0.21999101
0.05893296 0.36407042 0.2235565 -0.1828047 -0.10854912 -0.06918732 0.20018436 -0.027284956
0.045325797 0.26245797 0.45156014 0.119425 0.09039153 0.064066336 0.12199689 -0.21554644
-0.18750738 -0.091414474 -0.071099296 0.23535591 -0.062493663 -0.0023870566 -0.06546613 0.062858
-0.16788492 -0.17307305 0.14337754 -0.006809093 0.017394776 -0.09523164 -0.012213717 0.20204481
-0.13050812 0.010615392 -0.11496578 0.3378554 -0.045027465 0.21090774 0.22205527 0.10003814
0.14562172 -0.028058657 0.29958007 0.39537993 0.15814622 0.32039243 -0.117474884 0.36289933
0.057066627 0.1363241 0.007757423 0.08332874 0.22963281 -0.15122995 0.27698094 0.009006497
0.28807098 0.031377252 0.06712482 0.21787563 -0.19482411 0.027910812 0.06180302 -0.252406
-0.16330272 -0.18172999 0.033536248 -0.17368674 0.07720697 -0.124272436 -0.08143376 -0.021491807
0.0720365 0.1024657 0.0041575935 0.43026394 -0.14972141 -0.002696517 -0.16234066 0.35854244
-0.09453156 0.28620002 0.07526345 0.17503756 0.06091879 -0.0446233 0.13167183 0.32190964
0.3703263 0.03356959 -0.0020424663 -0.099928305 0.026233966 0.03703156 0.09126337 -0.17307967
0.13790719 0.038833126 -0.10483335 0.01861647 0.11196202 -0.22824627 -0.0113547435 0.14309019
0.063378625 -0.057206314 -0.016806023 0.22044128 -0.21685484 -0.010592861 0.21401154 -0.017475018
0.0006071984 -0.19044827 -0.02278043 -0.009061526 -0.12983488 0.17602855 0.048389677 -0.22140463
0.14994164 -0.14958274 0.16041118 0.040479686 0.19518816 -0.2760646 0.40844765 0.1469473
-0.029284755 -0.17326485 0.0639914 -0.22436006 0.29673645 0.23994567 0.2493588 0.3597693
-0.13474767 -0.08901721 0.31900463 0.29635635 0.2955845 -0.04704987 0.085889265 -0.098724514
0.28377676 -0.15842704 0.28759208 -0.09051381 0.17924257 0.317384 -0.14541464 0.21810819
-0.21517183 0.13457623 0.3363074 -0.09830325 -0.099069074 -0.023098469 0.27670786 -0.06796033
-0.004931078 0.3264475 0.12993258 -0.017858379 0.16436125 0.15486719 0.41322625 0.30797842
0.08104476 0.027303778 0.08332804 -0.025052989 0.19326426 0.1823894 0.26261193 0.17744912
0.042716548 -0.23132946 -0.22803463 0.37704328 0.01362202 -0.085028045 0.32708424 -0.25860727
0.24320593 0.4500402 0.0818611 0.31856087 0.3352355 -0.1564669 -0.102522194 0.19875729
0.09170742 -0.13879704 -0.10855784 0.39191243 0.04109504 -0.14663002 0.18378413 0.01804122

layer_2.weight f4 [300, 400]
00000000: 6bd5 663c ea46 d8bc f4d6 683d df10 ccbc
00000010: fa71 5b3d 39f8 17bb 8866 b4bd 1fd5 a5bd
00000020: ce1c 773d 47c6 923a 2498 3d3d 8eb7 463c
00000030: 5e97 51bb 54c4 8f3a 8711 e8bd cc2e 56bd
00000040: d148 0fbe 79bc c13b 848b 873d 61e5 c4bd
00000050: 858f c7bc ef09 9bbd b2e4 28be a8b4 39bd
00000060: 94f4 46bd 0efd 513d 636c 933c 8396 7fbd
00000070: e0c1 4bbd d28d a0bd cf00 143d bcac 8cbc
00000080: 5813 d03b 15a8 0ebd a008 4dbd 7afc 933c
00000090: a0f7 c43d 9be5 5139 b8d5 cfbc 564a 423d
000000a0: f164 cabd c523 e83c 9c33 ccbc 0aaa 0d3d
000000b0: 7264 7cbd 8abd e0bd c0ee ea3d e82b 683c
000000c0: 0999 81bd 27f5 1f3e dd9f f43c 3be3 20bd
000000d0: 47b9 c43c 8d8e 07bb f937 c8bd 2bf3 b83d
000000e0: 15f5 c1bc 939f bdbc 20dc d93c a167 2dbc
000000f0: a825 4b3d cf36 e43a 3628 65bd c332 d53d
00000100: 326d 143d e8b6 b13a 9354 d2bd 675a 8d3c
00000110: af99 3dbd 769f 0bbd 3f27 593d d7c3 05bd
00000120: 917b d0bd 01fe 523d 554e a83c a03e 753d
00000130: 8a70 59bc 894e 3dbc 1145 193d c80a 94bd
00000140: ca34 303c d0d7 81bc 8516 643d 3537 8a3d
00000150: d5ec 57bd ca6d c4bd a6be f73d 8a1f f4bd
00000160: d549 97bd 6e0c 113c b48e 8abc f930 903d
00000170: 0b19 073d 0c44 e13d 794a 13bd 2fce 02bd
00000180: 05e4 d0bc 0f82 89bd 27b4 66bd e09f a0bb
00000190: 9070 acbd 1f87 f1bd 6c15 833b 009a 833d
000001a0: 4898 18bb 7ec4 e43d a291 75bd 293b 223b
000001b0: c0af 67bc 3d28 763d 6b36 9fbc 96a2 5cbd
000001c0: 891c 87bd 9b2c 533d 0b7c d03c 47ab 013d
000001d0: 507f 59bc 861a 4a3d 5685 b83c 24f4 ac3d
000001e0: 80c9 c3bd 8fbb 41bd ec57 363c 378b 323c
000001f0: d600 aabc 7902 833d 4c23 f13d 411c fc3b
00000200: c349 e4bc ceb5 393c b615 443a 18e0 2d3d
00000210: 8b88 9c3b bb07 ebbc 608b 14bd 262a 69bd
00000220: 9697 5fbd 6034 f6bd dcf5 98bc 122a b9bb
00000230: 2bba a339 a69a 30bd b4c3 8f3d 24c3 92bd
00000240: d357 12bc 62ac 75bd 8db1 64bd eeee 9cbb
00000250: cb64 fc3b 2752 9cbd 8ed2 d83b 9995 cbba
00000260: a934 033e b6b8 d8bc 9dd9 98ba 8d0c b4bb
00000270: 4925 bf3c 1e86 c1bd 64dd f63c ed95 3e3e
00000280: c515 f23c ba18 9ebb 91d2 b6bb 5d0d a13d
00000290: 2b5b 0dbc 035f 9cbd bd51 523d 220c 443d
000002a0: 5036 abbc 6003 1a3d 6f88 d1bd 4c98 213c
000002b0: b98c 223c 4715 323d d852 2dbd 8de6 f2bc
000002c0: 16a0 61bc 59d1 babd cd60 17bc 99a7 8e3c
000002d0: ec03 043b aa31 26bd 44ed 9abd f332 aabd
000002e0: 6629 0abc c491 fbbc 2fee d5bc 29e5 303d
000002f0: 84f4 b23d 2cc3 dcbc a3a4 99bd d920 c43b
00000300: e62f 07be 2f28 d7bd f5de 043d be03 483c
00000310: 4849 37bd 9e36 833d 96ff cdb9 e044 cfbb
00000320: 781d 7f3c e7f6 873d e420 b2bc 310e 193e
00000330: 0f75 aebb 6f11 b03b 9802 ce3d c4ab de3c
00000340: 578b 6f3d 7a64 ce3d de87 02bd fd8e 3a3d
00000350: eb8d 513d ead8 f43d 696f 283d a79b 51bd
00000360: 4bf9 593d cbee 11be 4fe9 84bd bb54 0f3d
00000370: e3ab 33bd b7fa 0cbd ab12 17bd 3633 483e
00000380: 01d3 553d 88af 0d3d 7fd6 46bd 2a34 b1ba
00000390: e0ee 673d b521 483d 4e1e 833c 4e45 74bd
000003a0: 208e ab3d 8e60 5a3d 4162 4fbd d5c8 0f3e
000003b0: 4c2f 413d 5e1e 0dbd 3b63 bd3b ae57 9b3d
000003c0: 3825 4eba 10e5 c43c 456f 61bd 0e4d dbbd
000003d0: 20e5 7c3d 3e0d e9bd 5b5c 943d c8fd ab3d
000003e0: 9830 2c3e 8fa8 b6bc 7f0d c33b e5ef aabd
000003f0: 5eff 10bd 438c d5bd 1743 1bbd 267f ef3c
0.014088969 -0.026401002 0.05684562 -0.024910389 0.053575493 -0.0023188724 -0.08808619 -0.0809729
0.060330205 0.0011198007 0.04628767 0.012128724 -0.003198109 0.0010968545 -0.11331468 -0.052290723
-0.13992621 0.0059123603 0.06618407 -0.09614063 -0.024360428 -0.07570254 -0.1649349 -0.045338303
-0.04857309 0.051266722 0.017996019 -0.0623994 -0.04974544 -0.0783955 0.036133584 -0.01717221
0.006349962 -0.034828264 -0.050057054 0.018064726 0.09617543 0.00020017328 -0.025370464 0.047434174
-0.09882534 0.028337369 -0.024926953 0.03458599 -0.06161923 -0.10973652 0.11471319 0.014170624
-0.06328017 0.15620862 0.029861385 -0.039279204 0.024014128 -0.0020684332 -0.09776301 0.090307556
-0.023676435 -0.02314738 0.026594222 -0.010583789 0.04959646 0.0017411354 -0.05594655 0.10410073
0.03623695 0.0013558539 -0.102700375 0.017255021 -0.046289142 -0.03408762 0.053015944 -0.03265747
-0.101798184 0.05151177 0.020545164 0.059874177 -0.01327146 -0.011554369 0.037419382 -0.07228619
0.010754773 -0.015849978 0.05568554 0.06748811 -0.052716095 -0.09591253 0.1209691 -0.11920078
-0.07387129 0.008853061 -0.01691375 0.07040591 0.032982867 0.10999307 -0.035959695 -0.031934913
-0.025499353 -0.0671426 -0.05632415 -0.004901871 -0.08419907 -0.117933504 0.0040003564 0.064258575
-0.0023284126 0.111702904 -0.05995334 0.00247545 -0.014141023 0.060096968 -0.019435128 -0.05386599
-0.065972395 0.05155621 0.025449773 0.031657483 -0.013274983 0.0493417 0.022524517 0.08445004
-0.095599174 -0.04729801 0.011129361 0.010897449 -0.020752352 0.06396956 0.117743105 0.007693798
-0.027867204 0.0113348495 0.0007480042 0.04245004 0.0047770194 -0.02869021 -0.03626573 -0.05692496
-0.054587923 -0.120217085 -0.018671922 -0.005650767 0.0003122849 -0.043116234 0.07019749 -0.07166126
-0.008932072 -0.05997885 -0.055833388 -0.004789225 0.007702445 -0.07632857 0.006616897 -0.0015532254
0.12813057 -0.026455265 -0.0011661533 -0.00549466 0.023333209 -0.09449409 0.030134864 0.1861188
0.029551396 -0.004824725 -0.0055793007 0.07863877 -0.008627693 -0.076353095 0.051347483 0.047863133
-0.020899922 0.037600875 -0.10231101 0.009862971 0.009921246 0.043477323 -0.042315334 -0.02965095
-0.013771078 -0.09121961 -0.009239388 0.017413901 0.002014394 -0.040574707 -0.07564786 -0.08310499
-0.008432722 -0.030709155 -0.026114551 0.043187294 0.08738044 -0.026948534 -0.07502105 0.005985361
-0.13201866 -0.10505711 0.03243919 0.012207923 -0.04474762 0.06406902 -0.00039291073 -0.006325349
0.015570991 0.0663889 -0.0217442 0.1494682 -0.005324013 0.005373172 0.100590885 0.027181514
0.058482494 0.10077758 -0.031867854 0.04554652 0.051160734 0.119554356 0.041121874 -0.051173832
0.05321626 -0.14251249 -0.064898126 0.034992915 -0.043865096 -0.034418788 -0.036883038 0.19550785
0.052203182 0.034591228 -0.048544403 -0.0013519574 0.056624293 0.04886027 0.016005661 -0.059636407
0.083767176 0.053314738 -0.05063081 0.14041455 0.047164246 -0.03445279 0.0057796515 0.07585083
-0.00078638224 0.024035007 -0.055037756 -0.107080564 0.061741948 -0.11379479 0.07244178 0.08398014
0.16815412 -0.022297172 0.0059525366 -0.083465375 -0.035399787 -0.104271434 -0.03790578 0.029235434

layer_2.bias f4 [300]
00000000: 7f80 a33c fb11 7cbc dd2a 843a bdc2 953d
00000010: ee23 52bd 38bf 6ebc c0f4 ecbd f3ef a6bd
00000020: f2d4 8d3c 571d 263d a5dd 37bd e281 193d
00000030: b9a7 933d 6fe4 4c3d dc28 273d 8b00 b6bc
00000040: f985 96bb eb33 853d ecb1 d33d 09a4 b6bd
00000050: f170 17bd c71b 34bd 4f04 103d 9398 153d
00000060: 25d8 90bd f2c2 753c bd0d eabd 5b13 37bd
00000070: 85c1 21bb 1ed8 033d 7d67 e03d 31f6 debc
00000080: 15ba 9abc d13d e03d 3a8d ac3d 7d8b b7bc
00000090: 4b50 a6bd 4b5b 73bd daba b43d 70fb 243d
000000a0: 1cd2 4abd c637 29bc 23dd 723d fc8f b8bd
000000b0: 7993 bb3d c52e ae3d 765e a8bc 5a0e 213e
000000c0: 8ef4 273d f7b2 143d fd3f f03b f22f 36bb
000000d0: 174f 973d 3293 d0bd 4225 c83c 8034 073c
000000e0: 8b2e 3dbd 6a34 033d dc5b 62bd d0fd c93d
000000f0: 881c 203d 0eb2 023d 8cf8 abbb c43b 8a3c
00000100: 86d8 803d e4a6 3dbd 6137 50bc 22e2 f2bd
00000110: e5b9 efbc d73d 90bd d1cf 0f3d 5462 aabd
00000120: f203 a6bd 74c6 903d 846c 6b3d 2188 843d
00000130: fdaf 943d 5517 ddbd 0c58 1ebc 06c0 0fbd
00000140: 1957 d6bd b9dc cebc 7146 863d b917 0d3d
00000150: a6ed 013d 3e38 083d 2e61 85ba 2ccf c23d
00000160: 009c e3bd 5272 ba3c ec26 abbd 3259 09bd
00000170: 36fa 453d eebf 683d 0148 a73d 4334 ab3d
00000180: f0d0 bdbc 5f70 6dbb d88c bf3b 65cc cc3d
00000190: 7aae 69bd ce00 183c a72e ae3d ca1b 37bc
000001a0: ca51 5e3d 532a f03a 9729 933a ab62 f23c
000001b0: e19b 8bbd a013 bbbd 9ebb 053d 121b 1cbe
000001c0: 377a 8d3c 9ec2 d0bb c617 103e 40c7 72bd
000001d0: a934 753b 31e9 d03d dd7c be3d 2c02 993d
000001e0: 639b c93c a44f 483d bcbb 643d a4fc 293c
000001f0: 027b 733d bc91 f8bb 060e a2bd 01d5 e13c
00000200: 2422 8a3d 5e64 9ebd 4e59 443d f435 1e3d
00000210: 5617 4cbc 5fb0 d0bd fdf2 863d 3f6c 28bb
00000220: 070d 20bd f91e a4bc 65dc 653d 1277 923c
00000230: 7b87 c43b 1373 173c c10e be3b e1fd 513c
00000240: ba79 883c f422 b9bd 210f 7a3c dcf9 20bc
00000250: 7ec8 053d c845 343b b47d 033d 4296 66bd
00000260: fed1 04be e086 bc3c fa1b 3abd 20f7 31bc
00000270: 90f8 613d dea4 b33b 2144 ff3d 370f 113d
00000280: 7fcb 9abd c809 a03d d49a c73c 3330 233e
00000290: f58c 9fbc 97f8 89bd 5dbe 28bc d6cb b9bc
000002a0: dcc1 98bb 242c 5e3c 8860 5dba dce3 0c3e
000002b0: ee3b 30bd 93d5 d7bc 1414 86bd a1d6 483d
000002c0: 33ce e9bd 826c 77bd a899 c53d 8466 963d
000002d0: a230 043d 2bc2 2f3c 01d3 88bd ff69 43bd
000002e0: 86f9 f4bd e0cc e4bc c1f6 223c 4bf8 b53b
000002f0: ce54 d1bd d69c d63d 920b bc3c 6f4f 4e3c
00000300: 1eab 81be ccbf 01bc b774 153d 336d fe3c
00000310: 3e6d da3c 98f1 f53d 0f5b 5c3d 6bb5 7e3d
00000320: cdd2 013c f949 033c 9d44 643d 961f ee3c
00000330: db3f 6f3d 812f f13c ce0a 82bd 579c 263b
00000340: b455 bd3d 76cc 94bb 9655 c63c 53c8 6ebd
00000350: b4da ac3c caaf 9c3b a793 c5bd 2152 443d
00000360: 59f9 253d 1066 7f3d 2e12 903d 15b5 8c3d
00000370: b5e0 b73d bbce 0abe 0712 c03c 776d 06bc
00000380: f0cf fe3d 3b0e b9bb 2841 d93c 947e 5b3c
00000390: 8085 6bbd 37e1 3b3e d98c 4f3b 4d61 41bc
000003a0: c34e 46bc 6a65 7d3d 78cf d93d db37 553d
000003b0: b6f1 0a3e ce86 cb3d 4b5d d03c 74cb de3d
000003c0: 0470 623d ba5e cd3d 7913 7ebd fdbc 5e3d
000003d0: 2475 4b3d d20b 6ebd f9e3 2c3d 06d7 ca3b
000003e0: d2cf 1ebd c819 ae3c 1872 c93c 9229 3b3d
000003f0: 21fb f8bc 5d0b ae3b 2dd1 e53c 8bba 733b
0.019958733 -0.015385146 0.0010083575 0.07312534 -0.051303796 -0.014571957 -0.1157012 -0.081512354
0.017313454 0.040555324 -0.04488911 0.03747738 0.07209725 0.05002254 0.04081045 -0.022217056
-0.0045936075 0.06504043 0.1033667 -0.08918006 -0.036972944 -0.043971803 0.03516036 0.03652246
-0.07072476 0.015000092 -0.114284016 -0.044696193 -0.0024681997 0.032188527 0.10957239 -0.027217003
-0.018887559 0.109492905 0.08425374 -0.02240538 -0.081207834 -0.059413236 0.088247016 0.040278852
-0.049516782 -0.010328239 0.059292924 -0.09011838 0.091589876 0.08505014 -0.020552855 0.15728131
0.04100471 0.036303487 0.0073318467 -0.0027799574 0.07388132 -0.10184325 0.024431828 0.008252263
-0.046186965 0.032032408 -0.055263385 0.09862864 0.03908971 0.031908087 -0.005248135 0.016874202
0.062912986 -0.046301737 -0.012708516 -0.11859538 -0.029263446 -0.07043045 0.0351103 -0.08319536
-0.08106221 0.07069102 0.057476535 0.06471277 0.072601296 -0.10795466 -0.009664547 -0.035095237
-0.10465831 -0.025251733 0.065564044 0.03444645 0.03172078 0.03325676 -0.0010176057 0.09512171
-0.11113739 0.02275959 -0.08357033 -0.03353233 0.048334323 0.056823663 0.081680305 0.083595775
-0.023170918 -0.0036230308 0.0058456473 0.09999923 -0.05705116 0.009277536 0.08504992 -0.011176059
0.05427722 0.001832316 0.0011227605 0.029588064 -0.06816841 -0.091346025 0.03264963 -0.15244702
0.01727019 -0.0063708564 0.14071569 -0.05927205 0.003741542 0.10200728 0.093011595 0.074711174
0.024610227 0.048904076 0.0558431 0.010375176 0.05944348 -0.0075857323 -0.07912831 0.027567388
0.06744793 -0.07733987 0.04793673 0.038625672 -0.012456736 -0.1018989 0.06589315 -0.0025699285
-0.039074924 -0.0200343 0.056118388 0.017879043 0.005997596 0.009243744 0.0058000986 0.012816877
0.016659606 -0.0903987 0.015262396 -0.009825196 0.032661907 0.0027507413 0.0321023 -0.05629564
-0.1297073 0.023013532 -0.045436837 -0.010862142 0.05516869 0.0054823 0.124641664 0.0354149
-0.07558345 0.078143656 0.02436582 0.15936355 -0.019476393 -0.06736868 -0.010299292 -0.022680204
-0.0046617817 0.013560329 -0.0008444865 0.13758796 -0.043025903 -0.026346957 -0.06546798 0.04903281
-0.114162825 -0.060406215 0.09648448 0.07343772 0.032272942 0.010727446 -0.06680871 -0.047708508
-0.11961655 -0.027929723 0.009946526 0.0055532805 -0.10221253 0.10479133 0.022954736 0.012592181
-0.25325865 -0.007919263 0.03648826 0.03105793 0.026663419 0.12008971 0.053797778 0.062184732
0.007923794 0.008013242 0.055729497 0.029067796 0.058410507 0.029441597 -0.06349717 0.0025422776
0.09244862 -0.004540975 0.024210732 -0.058296513 0.02110038 0.004781698 -0.09647303 0.047929887
0.040521 0.062353194 0.070347175 0.06870476 0.08978406 -0.13555424 0.023446096 -0.008204809
0.12442005 -0.0056474484 0.026520327 0.013396878 -0.057500362 0.18347631 0.0031669645 -0.0118029835
-0.012103739 0.061864294 0.10635275 0.05205522 0.13568768 0.09937821 0.02543511 0.10878649
0.055282608 0.10027833 -0.06203029 0.054379452 0.04967226 -0.05811674 0.0422096 0.0061901836
-0.03877241 0.021252528 0.024590537 0.04569394 -0.030393185 0.005311413 0.028053844 0.0037190046

layer_3.weight f4 [6, 300]
00000000: 0297 f6bd 5c6d 8ebd 03c5 d53c f157 82bd
00000010: f282 f8bd c4ea 193e 2b54 b1bc 42c6 25bd
00000020: 6517 b53b ea9e a03d 83f4 9e3e 9140 46be
00000030: 6a4d 0c3d e1e8 f83c 1a19 00be bcb3 483e
00000040: 2743 a8bd 729b dc3d 4914 36be 573b 853e
00000050: 9f44 2d3e dfe4 8fb8 024e a83c 97bb b8bd
00000060: 07a7 4e3e 5525 a1bd 6bc4 c83d 580c dabd
00000070: 7891 4b3c f1fa 64bd b1d8 30bb 035b 00bc
00000080: 17bb cb3d 1f72 343d 2849 123d 2412 c83e
00000090: 0493 ad3d bff1 323d cc83 ccbc 5456 cdbd
000000a0: 4f85 60bd 8767 acbd d275 f4bd b5f3 90bd
000000b0: 8c49 d13d 08e8 5f3c 7048 85bd 3183 3fbe
000000c0: 6c09 fc3d 0189 693d 849e 273e 2add b7bd
000000d0: 56b6 653b c19c 0fbe 293b 783c 678e b23d
000000e0: 751a 85bd 291a e73d 5c92 223d 6051 8ebe
000000f0: 96e2 babd 3c29 093e e376 7a3d b6ed 8a3d
00000100: 8492 87bd 3717 f3bd face a03c 20cb 6a3e
00000110: e120 6dbb c07e 9dbc 59e6 a23b 0621 923e
00000120: ecc4 b0bd add9 e9bc 5d5f 203d 4433 a9bc
00000130: fe68 5dbc 4d5d 89bd 9945 8c3d 88a5 1a3e
00000140: 0981 003d 57c9 593a 4cbf a93c c0e4 cd3c
00000150: 78c0 e8bc e5ad 65bd 63e3 5cbd 6e86 12bd
00000160: 9798 91bd ab0e d0bb 2854 0fbe 5535 2e3e
00000170: 0c6b fe3d b320 28bd 1b1a b03c 50ea e13d
00000180: 8f6b d0be 440b debd bcf3 af3d 7b57 c7bb
00000190: 127c 893e 8da2 a3bd 87fe 443c 78e6 7ebd
000001a0: 19a8 863d 4d40 b83e 813f 493e 15cf 44bd
000001b0: e3d9 113e 1cca 74be d11c b5bd b9b1 26bb
000001c0: d500 a23d 81c0 1a3e 43e2 d0bd 180d 353e
000001d0: 7d36 e4bd 4e79 983b 995f bb3b 713b 89bc
000001e0: aa39 95bd dd02 943c c88b dcbd 1441 013e
000001f0: 6716 27bd 1f1e c0bd 28be 4fbd 8b02 bcbc
00000200: bb8e b3bd a87a 363b ed61 40be baa0 453d
00000210: 5e8d aebd b11d 00be d977 5e3d 869c 51bd
00000220: 3395 cdbc 0134 a53d 9b5a 0cbd 5909 bb3e
00000230: 6c44 86bd 8bf9 30bd 36ec 903d e6a1 3e3d
00000240: c2c3 303b 5e5e f1bc 974f c03d 9e44 2e3e
00000250: a35b f73b c47a 9cbd 34e1 84bc 1ac2 b3bd
00000260: 47f9 69bd f969 363d 5f1f 17bd 1676 03bd
00000270: 7352 54bd 693b a0bc 105d d6bc 2b5b 9f3e
00000280: 0966 413d 112c 74bd 59cb 6c3c ab93 97bb
00000290: c377 06bd c873 4fbd 9b5f 9fbd 869d 8abd
000002a0: f1a9 273d 20d0 093b c3ba 60bd f4d3 d93c
000002b0: adc5 d23e 16aa 993d d38d 62be b946 b83d
000002c0: 4f68 06be 61ca 8cbd 4410 ce3d 7357 b33d
000002d0: af2c 4f3e 4009 bbbd 22db 103e 3732 25be
000002e0: 7936 4d3e d5a8 a93d c78a 4b3e 1d55 133c
000002f0: 147b 43bd c0cf 9d3d dabc 9abd a9af a23d
00000300: 9207 83be a239 9bbd 673c d9bd cc56 483d
00000310: c493 323d 2bb7 a5bc fb30 69be b8c9 9dbb
00000320: 6926 23bb 835e 983c b19c b83c 2cfb edbc
00000330: f1ce 26bb 0cd7 8c3d c27c 0fbe d64b 133d
00000340: b941 9abd f2f9 fb3d 257c adbd 3406 c6bd
00000350: cae7 8a3d 8bc4 f13d 6c86 52be 84b0 b03d
00000360: 7a5a 8eba 5e68 e43b 5dc3 bdbd 6595 283d
00000370: 3c16 5a3d 0c1f 5a3d 6944 a4bd 4e7b 253e
00000380: a4b9 29bd a7c5 87bd ca4f c03c b74c 25be
00000390: db92 cf3d f1de 94bd 9d40 3a3c d872 d6bd
000003a0: 9000 19bd 9da2 55bd 1b3e 7e3d e8cd ea3c
000003b0: dd46 983b d1ab fd3c ac6f 72bd 7c95 aebd
000003c0: 8638 f33d 35a6 d1bc 3cbc 8e3d 3dba 753d
000003d0: f798 e9bd d9b3 ac3d 8dd1 60be e76e 4b3d
000003e0: 5ff2 e03e 63bc 8c3e 0a63 9a3d 103a 513d
000003f0: 29ee 343d a0a3 1c3e 5b0a dfbc 2713 53bd
-0.12040521 -0.069544524 0.02609492 -0.0636443 -0.12134351 0.15030962 -0.02164658 -0.040472277
0.0055264705 0.078428105 0.31045923 -0.19360568 0.034253515 0.030384483 -0.12509575 0.19599813
-0.08215933 0.10771836 -0.17781176 0.26021835 0.16920708 -6.861402e-05 0.02054501 -0.09020155
0.20180903 -0.07868449 0.09803089 -0.10646886 0.012424819 -0.05590338 -0.0026984627 -0.007834199
0.09947794 0.044054147 0.0357143 0.3907634 0.08475307 0.04368758 -0.02496519 -0.100262314
-0.054814633 -0.08418184 -0.11936535 -0.070777334 0.10219106 0.01366616 -0.06507957 -0.1870239
0.123064846 0.057015423 0.16369063 -0.089777306 0.0035051308 -0.1402464 0.015150824 0.08718567
-0.06499187 0.112842865 0.03969036 -0.2779646 -0.09125249 0.13394636 0.061148535 0.06783621
-0.066197425 -0.11869662 0.019629944 0.22929049 -0.0036182927 -0.019225478 0.0049713072 0.2854082
-0.0863131 -0.028546179 0.039153446 -0.020654328 -0.013513802 -0.06707249 0.06849212 0.15102208
0.031373058 0.0008307895 0.0207211 0.02513349 -0.028412089 -0.056074042 -0.05392779 -0.035772733
-0.07109182 -0.006349405 -0.13996947 0.17012532 0.12422761 -0.04104681 0.021496823 0.1103102
-0.4070706 -0.108419925 0.085914105 -0.0060834265 0.2685247 -0.079899885 0.012023575 -0.06223151
0.06575031 0.35986558 0.19653131 -0.04804905 0.14243273 -0.23905224 -0.08843387 -0.002543552
0.07910315 0.15112497 -0.10199406 0.17680776 -0.11143205 0.0046531325 0.0057181832 -0.016751977
-0.07286389 0.018067772 -0.10768849 0.12622482 -0.04079285 -0.09380745 -0.050718457 -0.022950431
-0.08767458 0.0027844105 -0.18787356 0.048248984 -0.085230574 -0.12511326 0.054313514 -0.051174663
-0.025095558 0.080665596 -0.034266096 0.3653057 -0.06556019 -0.043206733 0.07076304 0.046541117
0.002697215 -0.029463943 0.093901806 0.17018363 0.0075487657 -0.07640603 -0.016220666 -0.08777256
-0.057122495 0.044534657 -0.036895152 -0.032095037 -0.051836442 -0.019559579 -0.026167423 0.31124243
0.04721645 -0.059612337 0.014452779 -0.0046257577 -0.032829057 -0.050647527 -0.07781907 -0.067683265
0.040933553 0.0021028593 -0.05486561 0.026590325 0.4116644 0.075031444 -0.22124414 0.08997864
-0.13125728 -0.06874538 0.10061696 0.08756914 0.20231889 -0.09132624 0.14146093 -0.16132437
0.20040311 0.08284155 0.19877158 0.008992461 -0.0477248 0.07705641 -0.07555552 0.07943661
-0.25591713 -0.07579352 -0.10607224 0.0489109 0.04359795 -0.020228943 -0.22772591 -0.0048153065
-0.002489472 0.018599754 0.022535654 -0.029050432 -0.0025452937 0.068769544 -0.14012435 0.035960995
-0.07532067 0.12303533 -0.08470944 -0.09669152 0.067824915 0.11805066 -0.2055909 0.08627418
-0.0010860704 0.0069704494 -0.09265778 0.0411581 0.05324386 0.053252265 -0.08020861 0.16160318
-0.041436806 -0.06629496 0.023475546 -0.16142546 0.10135432 -0.07269085 0.011367944 -0.104711235
-0.037354052 -0.052157033 0.062070947 0.028662637 0.0046471194 0.030965718 -0.05918853 -0.08524606
0.11876015 -0.025591949 0.069694966 0.059992064 -0.11406129 0.08432741 -0.21954937 0.04966631
0.43934914 0.27487478 0.075384215 0.051080763 0.04417244 0.15296793 -0.027226618 -0.051531937

layer_3.bias f4 [6]
00000000: db9f 25bd 2f5a 26bd 48a2 183d d6a5 ecbb
00000010: 792b a73d d6b4 e3bd
-0.040435653 -0.04061335 0.03726414 -0.0072219176 0.081625886 -0.11118476
