pytorch_models_dynaPhysics/TD3_walker_stand_087_actor.pth (torch, 521670 bytes, 6 tensors)

layer_1.weight f4 [400, 18]
000000 3c 56 90 be 5f a7 dc 3d 78 4c ad be f0 56 15 bd
       -0.28190792 0.10774111 -0.33847404 -0.036459863
000010 e0 77 5f bd af b3 0d 3d 31 6a 1a 3e 66 92 9f 3e
       -0.05455768 0.034595188 0.15079571 0.3116638
000020 c5 bb 3b 3d 6d b8 54 bd 7c b7 3b bd 08 ea 60 bd
       0.045833368 -0.051933695 -0.04582928 -0.05491069
000030 4f 96 6a be 65 b2 f6 bd 79 24 a1 bd e0 ec b2 3b
       -0.229089 -0.12045745 -0.07868285 0.0054603666
000040 a8 e8 cd 3d 41 8c 11 3e 26 13 9a be a1 8b d8 bd
       0.10054141 0.14213659 -0.30092734 -0.10573507
000050 17 9f eb 3d 83 49 e9 3e 06 92 d1 bd 52 30 a2 3e
       0.11504953 0.45563897 -0.1023293 0.3167749
000060 03 73 2e bd 9a bb c2 3d f6 1d 52 3e 1a 02 5e be
       -0.042590152 0.095084384 0.20519242 -0.21680489
000070 e6 71 69 be 9b 1e de bd af bb f3 bd fe 25 57 3e
       -0.22797355 -0.10845681 -0.11901032 0.21010587
000080 0b 66 97 bd 91 b5 21 be 3b 41 f1 bd 2d 53 60 be
       -0.0739251 -0.15791918 -0.1178002 -0.21906729
000090 fd 60 28 be 49 8f 75 3e 5d 39 3a 3e 89 ff e0 ba
       -0.16443248 0.2398044 0.18185945 -0.0017165999
0000a0 cc e6 ca bc fe cb 0c be b3 dd 07 be f0 df a3 be
       -0.024768256 -0.13749692 -0.13268165 -0.32006788
0000b0 6f 30 e0 be 89 31 c4 be 75 da 89 3e 9b a5 2a 3e
       -0.43786952 -0.38319042 0.26924482 0.16664736
0000c0 1f 91 ef bd 0c 2a af 3b 14 e6 3c 3d fe 42 84 3e
       -0.116976015 0.0053455885 0.046117857 0.2583236
0000d0 fa 98 b2 3d 2d 01 aa 3d 7b 72 fb 3d 6c 2f af be
       0.08720584 0.083010055 0.12277695 -0.34215868
0000e0 09 bc de 3d cd e4 d6 be bc 01 9d be 99 4a 74 be
       0.108757086 -0.41971436 -0.30665386 -0.23856582
0000f0 6b d4 87 3e ea d1 00 3e 6c 4f ef 3c 3e 34 6b 3e
       0.2652925 0.12580076 0.029212676 0.22969148
000100 b3 25 4f 3e 88 a0 62 bd d9 b4 0b bc 9f 2a a4 3d
       0.20229225 -0.055328876 -0.008527004 0.08015942
000110 9f a3 ee 3d 41 9e 41 3e 51 9a 48 be c6 9a 8e bd
       0.11652302 0.18908025 -0.19590117 -0.069631144
000120 8b 71 01 3e 82 ab 9e 3e 9e 59 0d 3e f3 c8 75 3e
       0.1264097 0.30990225 0.13803717 0.24002437
000130 fa 8f b4 3d f8 e1 a2 bd 61 32 28 bc b6 87 c3 be
       0.08816524 -0.07953256 -0.0102659175 -0.38189477
000140 44 e7 a2 be 6b 1a 68 3e ea d0 df 3d af 6e 98 be
       -0.31817067 0.22666328 0.10928519 -0.29771945
000150 59 f6 40 3d d0 6f b3 bd e5 0d 07 bd 16 ef 27 be
       0.047109935 -0.08761561 -0.032972235 -0.16399798
000160 99 5b 04 3e 47 1f aa bd bb 07 94 bd 5d 49 85 3d
       0.12925567 -0.08306747 -0.07228037 0.065081336
000170 76 47 46 3e 1e b5 9b 3e 2c 2c ba be d6 7f 23 be
       0.19363198 0.3041162 -0.36361825 -0.15966734
000180 07 ee 19 3d be 04 2c 3d a3 70 05 bd 3c ce 43 be
       0.037580516 0.04199671 -0.032578122 -0.19121641
000190 7d d3 8c 3e 3c 47 29 3e 86 b5 e6 bd 08 35 d7 bd
       0.27505103 0.1653108 -0.112650916 -0.10508162
0001a0 db 54 47 be d0 8a c0 bc 58 75 41 be 4a 0b 3e be
       -0.19465964 -0.023503691 -0.1889242 -0.18558994
0001b0 aa 47 53 3e 95 08 d4 bb dc 95 81 be f2 ac 4f 3e
       0.20632806 -0.0064707496 -0.25309646 0.20280817
0001c0 e6 b6 62 be e3 e1 be 3e 37 cc 05 3e 99 e8 96 be
       -0.22140083 0.37281713 0.13066183 -0.29474333
0001d0 41 d2 6e bd 77 a1 43 bd 5c 64 dd 3d 77 73 6f 3d
       -0.058305983 -0.047761407 0.10810158 0.058459725
0001e0 cf d5 c5 3d 24 f4 bf bb d6 80 8b bd b1 de 0c 3e
       0.096599214 -0.0058579613 -0.06811683 0.13756825
0001f0 b3 45 5e be 63 e1 2a be 92 63 6b be 02 3c 3b be
       -0.21706276 -0.1668754 -0.22987202 -0.1828461
000200 ae 87 89 3d 8e f4 41 be 30 08 0a be a7 f5 59 be
       0.06715332 -0.18940946 -0.13479686 -0.21285115
000210 37 d5 cb 3d 99 23 46 be 6b 28 5c 3e 58 a8 04 be
       0.09952777 -0.19349517 0.21499793 -0.12954843
000220 07 e6 16 bd 08 17 91 bd 58 52 ca 3c d7 b1 18 3e
       -0.036840465 -0.07084471 0.024697468 0.1491159
000230 a4 f7 71 3e d8 a1 1a 3e a8 a9 68 3e 6b c9 51 bc
       0.23629624 0.15100801 0.22720969 -0.012804369
000240 fb c2 a4 be f8 12 8f bb bb 11 31 3e 0c 3f 81 bd
       -0.32180008 -0.004366275 0.1729192 -0.06310853
000250 37 36 a0 be 0d 1f 6f be ba 80 de be 26 60 42 be
       -0.31291363 -0.23351689 -0.43457586 -0.1898199
000260 49 2a 08 3e b4 65 a0 bd c0 45 ed bc 6b c4 94 be
       0.1329738 -0.07831898 -0.028963923 -0.29056105
000270 4e f7 17 3e 5b 9b 68 be f9 84 2f bd 12 58 e2 bd
       0.14840433 -0.22715513 -0.042851422 -0.11051954
000280 85 59 43 bd 0e ab 6b bc 94 da b1 be c8 54 a4 3c
       -0.047692794 -0.014384044 -0.34737074 0.020059958
000290 79 69 53 bd ec a2 14 bd 8f 41 16 be e6 4a 8f bd
       -0.05161426 -0.036288187 -0.14673446 -0.069967076
0002a0 e0 bd 28 be d4 72 0c be 2a 73 ec 3e 61 6d fe 3d
       -0.16478682 -0.13715678 0.46181613 0.12423206
0002b0 07 3a 72 3e e0 be e8 3d 0d e9 5c be 53 5e 07 3e
       0.23654948 0.113645315 -0.21573277 0.13219576
0002c0 45 e0 df ba f7 1d b0 bd 3a ae 30 3e fe 15 34 be
       -0.0017080387 -0.08599465 0.17253962 -0.17586514
0002d0 ea fd a9 3e 40 7f 9a bd e9 b4 5e 3e 45 44 2e 3d
       0.33201534 -0.07543802 0.21748699 0.042545576
0002e0 b9 db 7c 3e af af 5d 3e d7 0e 54 bd 81 51 63 bc
       0.24693193 0.21649049 -0.051771965 -0.0138744125
0002f0 50 b4 6c be 9f 7a c9 3e e0 b3 64 3e 70 04 1f 3e
       -0.23115659 0.39351365 0.22334242 0.15529037
000300 62 14 6a be 76 e9 4e 3c da 16 09 be 12 a3 46 be
       -0.22859338 0.012628904 -0.13387623 -0.19398144
000310 92 99 b8 bd e2 e7 98 3d 07 11 89 be 9c d8 39 3d
       -0.09013666 0.07466103 -0.26770803 0.04537259
000320 00 a4 6b 3d c7 7a 5a 3d a4 ab 7e be 3f d3 89 be
       0.05752945 0.053339746 -0.24870163 -0.2691898
000330 34 88 8b be 2d e6 aa 3e 6e 4d 05 be 16 8a b8 3e
       -0.27252352 0.33378735 -0.13017818 0.3604285
000340 be c1 f1 bb da ab 89 3d 93 0a 33 3b d8 43 de bc
       -0.007377832 0.06722231 0.0027319535 -0.02713196
000350 3f 4d 90 3a 7c c2 56 bd 6a c3 3a bd 67 a6 05 3b
       0.0011009349 -0.05243157 -0.045596518 0.0020393373
000360 5a c2 8f be 3a 99 6e bc 2e a3 b6 3e ed de 0f be
       -0.28077966 -0.014562899 0.3567137 -0.14049883
000370 68 d5 cb bb ff 79 b1 3e a0 6d 7a 3e da 33 4c bd
       -0.0062205084 0.34663388 0.24455881 -0.049854137
000380 35 88 f4 bd 18 38 74 3e fe dd 9b be 63 8c d8 bd
       -0.11940042 0.23849523 -0.30442804 -0.10573652
000390 20 6f d1 bd 01 50 e0 bc d0 f5 66 bb 01 8e 7d 3e
       -0.102262735 -0.027381899 -0.003524173 0.24761201
0003a0 1a 66 9e 3c d9 a2 39 3e 49 e8 77 bd 5a 9a 5d be
       0.019335795 0.18128528 -0.06052426 -0.21640912
0003b0 5f ad 40 3e 80 80 b4 be 02 1c 9f be 91 ad 84 bd
       0.18816136 -0.35254288 -0.31076056 -0.06478418
0003c0 29 8f 8e 3e a3 b8 0b 3e 8a 92 a8 3e 46 b2 80 bd
       0.27843598 0.13644652 0.329243 -0.06284003
0003d0 a6 b0 ff 3c 80 cf 9c be 21 ba c7 3d 46 39 5b be
       0.031212162 -0.3062706 0.09752298 -0.21408567
0003e0 58 5e c4 bb 8a 58 a4 bd 8f cb 50 bd 6f 43 2d 3b
       -0.005992692 -0.080247 -0.05097538 0.0026437899
0003f0 d3 9e a2 3e c0 2f ed bd 7f f1 7e be 8b 70 97 bd
       0.31761798 -0.11581373 -0.24896811 -0.07394513

layer_1.bias f4 [400]
000000 93 ee 8d 3e a3 3c ed 3d 58 8b 05 3c 64 c0 60 3d
       0.2772108 0.11583831 0.008150898 0.054870978
000010 86 6d d5 3d 3f 55 70 3d 81 ec f4 3c 7b 9a 1d 3e
       0.104212806 0.058675047 0.02989793 0.15390961
000020 f8 88 8a bc 89 7a 9d 3c 40 5e 64 be 4c bc 95 3e
       -0.016911015 0.019223468 -0.22301579 0.29245222
000030 89 e3 93 3d 56 c5 70 3e 23 9c 14 be 3c 1d 98 bc
       0.07221133 0.23512778 -0.14512686 -0.018568628
000040 76 47 eb bd b6 91 39 bc d3 87 7b 3e 46 48 e0 3e
       -0.114882395 -0.011326244 0.24563532 0.4380514
000050 7b 46 8c bd 8f 83 d4 bd e2 40 24 3d c2 94 69 be
       -0.068493806 -0.10376655 0.04010094 -0.22810653
000060 7d af a1 3e e4 4e cd bd 59 1e 4f 3e f1 66 f5 bc
       0.315792 -0.10024813 0.2022642 -0.029956313
000070 f9 9e da 3e aa 49 3e be 98 d8 85 3d 1f 13 61 3e
       0.42699412 -0.18582788 0.065354526 0.2197995
000080 a3 4f b1 3e 30 e1 cf 3e 47 40 da 3e 89 3c 3b be
       0.3463107 0.40601492 0.42627165 -0.18284811
000090 40 19 2c 3e ff ce 51 be e0 b7 b4 3e bf 01 a9 3e
       0.16806507 -0.20489119 0.35296535 0.33009145
0000a0 d0 cf bc bd 42 be 7a 3e 3a 26 60 3e 56 3a 34 3e
       -0.092193246 0.2448664 0.21889582 0.17600378
0000b0 da ce 20 3e 10 68 dd 3d e2 46 3c 3d 6a 86 d7 3d
       0.15703908 0.10810864 0.045966037 0.10523684
0000c0 ea 03 88 3d f0 b7 c0 bd 12 3b 3b 3e 48 57 50 be
       0.066413715 -0.09410083 0.18284252 -0.20345795
0000d0 be a3 78 3e 48 64 d9 3e 17 3a 8a 3e cd a0 6d 3e
       0.24281213 0.4245932 0.26997444 0.23205872
0000e0 e4 cd 63 3d 83 fb c7 3e 45 66 52 3e a0 2b 3c be
       0.055616274 0.39059076 0.20546825 -0.18376017
0000f0 7a 9e 1c be 58 74 d1 bd f4 9c 32 3e f1 c9 9a bd
       -0.15294829 -0.10227269 0.17442685 -0.075580485
000100 6c 03 a8 3d b3 ad 73 3e 9d fb 00 3f eb 51 0e 3e
       0.08203778 0.2379673 0.5038393 0.13898437
000110 0e 87 08 3e 66 e3 85 3d 17 34 bf 3d 91 6f 11 be
       0.1333277 0.065375134 0.09336107 -0.14202715
000120 ee 80 30 be a3 56 22 be b4 71 88 bc 88 15 80 3e
       -0.17236683 -0.15853362 -0.01665578 0.25016427
000130 73 fc b1 bd 5f 2a c0 bb 40 6a 01 be 7e 04 80 3d
       -0.08690729 -0.005864426 -0.12638187 0.06250857
000140 fd f3 29 be e7 0e 80 be 48 29 22 3e ae cc ae 3b
       -0.1659698 -0.2501137 0.1583606 0.0053344583
000150 f9 28 cd 3d 12 bc 3a bd c3 25 8c bc e9 7d 3a 3e
       0.100175805 -0.045589514 -0.01710785 0.18212093
000160 9f 2f 1b be 29 43 14 bc a8 bc cd bd d8 0a bd 3e
       -0.15154885 -0.009049215 -0.10045749 0.36922336
000170 01 ef b0 3b f6 01 79 3e 86 49 7c 3e d8 c7 c1 3d
       0.0053995852 0.24317154 0.24637422 0.09461945
000180 47 a6 26 3e 2a 54 18 b9 70 03 a4 3e 37 5f d3 3e
       0.16274367 -0.00014527203 0.32033873 0.4128358
000190 75 4f 07 3e 3d 84 b4 3e e6 fe 01 be c5 59 bc 3e
       0.13213904 0.3525714 -0.12694892 0.3678724
0001a0 ea 59 03 3d fd 36 40 3e b1 0c 5b bd 4a 98 bd 3d
       0.03206817 0.18770976 -0.0534789 0.092575625
0001b0 90 47 70 3e db a8 65 be 22 26 88 3e ee d7 31 3d
       0.23464799 -0.22427694 0.26591593 0.043418817
0001c0 93 38 9f 3e f2 4d d3 3c b2 48 ab 3d 98 f6 4f 3e
       0.3109785 0.025794003 0.08363475 0.20308912
0001d0 13 16 59 be 51 aa 1b bd 59 53 88 3d 8c 1f 7a be
       -0.21199827 -0.038004223 0.06656522 -0.24426097
0001e0 80 a8 22 be 4f 33 22 be 15 56 b6 3d ac 50 2a be
       -0.1588459 -0.15839885 0.089031376 -0.16632336
0001f0 12 7f 9a 3d 51 78 15 be 12 de 36 bd 0c 26 cb bc
       0.07543768 -0.14596678 -0.044645377 -0.024798416
000200 b2 8d b7 3d 9b 39 85 3d 34 01 35 3a e4 96 d4 3e
       0.08962573 0.06505128 0.00069047813 0.4152137
000210 57 d0 0c be cb 9f 4d 3c 92 43 eb bd 7e 33 d5 3e
       -0.1375135 0.012550305 -0.114874974 0.41640848
000220 0f 16 ed bd 22 53 a3 3e 2c f2 c2 3d c6 b5 69 3e
       -0.11576473 0.31899363 0.09518847 0.22823247
000230 57 d0 83 3d 22 74 0e be 81 94 a6 3d af 81 9c 3e
       0.06436222 -0.13911489 0.081337936 0.3056769
000240 c7 c8 bf 3e 18 90 1c 3a 65 1a f1 3a 3b ed 9f bd
       0.37457868 0.00059723994 0.0018394707 -0.0780892
000250 15 cc 83 3c ee 05 2a 3d cc b4 2a 3e 4c 98 22 be
       0.016088525 0.04150956 0.16670531 -0.15878409
000260 4e 93 dd 3d 16 96 27 3c d9 4e e4 bd 68 da a0 bc
       0.10819112 0.010228654 -0.111478515 -0.019635394
000270 bf c9 96 3d 92 bb 6b be 2b f4 9f bd 82 3c cb 3d
       0.07362699 -0.23020771 -0.07810243 0.0992365
000280 68 ea 03 3d 80 00 b0 bc b4 38 0a 3d cf 57 3b 3e
       0.03220597 -0.021484613 0.033745483 0.18295215
000290 fd b9 3c be 99 bb 5a bd a0 c7 7f 3e d4 c3 9a 3c
       -0.18430324 -0.053401563 0.24978495 0.018892206
0002a0 34 c3 00 3d f0 26 6b be 9c b7 ea bb bd 85 06 3d
       0.03143616 -0.22964072 -0.007163001 0.032842387
0002b0 03 8b 19 be 62 60 4d 3e 74 8f 83 3d 68 1e 84 be
       -0.14994435 0.20056298 0.06423846 -0.25804448
0002c0 60 d7 47 3e 68 5e 2c be 2b c6 ba 3d ec 42 12 bc
       0.19515753 -0.16832888 0.09119829 -0.008927088
0002d0 08 a7 79 3e 01 f1 49 be 72 28 e1 3e fe 9e 84 3e
       0.24380124 -0.19720842 0.4397617 0.2590255
0002e0 71 66 9c 3c 3d 6e 45 be c2 4e fd 3c 29 cf 05 be
       0.019091817 -0.19280334 0.030921344 -0.13067307
0002f0 ca 88 8e 3e 79 2d 48 3e 57 96 99 3e 39 3e b1 3e
       0.27838737 0.19548596 0.29997513 0.34617785
000300 b8 e2 24 be 12 df a5 bd 1c fd a2 3e 9f 94 86 3e
       -0.16102111 -0.08099188 0.31833732 0.26285264
000310 94 45 a7 3e 23 aa 52 bd 13 ea e9 3d 4f 15 0b be
       0.3267027 -0.051431786 0.11421599 -0.13582347
000320 e0 44 7a 3e 7d 97 5c be 77 33 9a 3e 4f 5e 2c bd
       0.24440336 -0.21542163 0.3011739 -0.042082127
000330 69 4d 55 3e f9 c2 9c 3e f0 ea 23 be ef 8a 6e 3e
       0.20830311 0.30617502 -0.1600759 0.23295186
000340 f1 18 6a be 3b 5c 18 3e 21 46 ac 3e 52 17 b7 bd
       -0.22861077 0.14878933 0.33647254 -0.08939995
000350 05 f3 b9 bd b3 8b 4d bd 54 1a 9f 3e 8f 3e a1 bd
       -0.090795554 -0.050182056 0.31074774 -0.0787326
000360 2a 5b 80 3b 83 82 b8 3e 3d 3e f9 3d e7 32 74 bd
       0.0039171176 0.36037073 0.12170074 -0.059618857
000370 b9 47 35 3e 9d 33 0b 3e 34 f4 e3 3e 74 4e ab 3e
       0.17703141 0.13593908 0.4452225 0.33458292
000380 fe 62 31 3d 22 f3 74 bc eb 37 b0 3d 87 5d fe bc
       0.043307297 -0.0149505455 0.086044155 -0.031050457
000390 19 87 6c 3e e4 4c 24 3e 64 ee 8d 3e 5c 0d 24 3e
       0.2309841 0.16044956 0.2772094 0.16020721
0003a0 34 83 c7 bc e5 66 87 be 1d c4 62 be 9b 72 c9 3e
       -0.024354555 -0.2644569 -0.22145124 0.3934525
0003b0 3d 75 8f 3d 9c ab ea bd b6 ec bf 3e 85 64 9c be
       0.07004783 -0.11458513 0.37485284 -0.3054544
0003c0 4c 13 89 3e 54 e8 cd 3e 1d 2e 0c 3d 12 ef 80 3e
       0.26772535 0.40216315 0.034223665 0.25182396
0003d0 b3 be ae 3e 8c 7e 2a be 10 00 da bd 60 88 25 3e
       0.34129867 -0.16649836 -0.10644543 0.16165304
0003e0 b7 64 af 3d 10 47 df bd e7 78 01 be a6 0d e3 3e
       0.08564132 -0.10902226 -0.12643777 0.4434635
0003f0 d0 e2 69 3d b4 c8 36 be 77 7e 7b 3e 4b ee 66 3d
       0.05710107 -0.1785 0.24559961 0.056379598

layer_2.weight f4 [300, 400]
000000 79 85 cf 3b 0a 56 8e bc 73 11 a4 3d 95 e8 a0 bc
       0.00633305 -0.017375011 0.08011141 -0.019642154
000010 a0 ce 8c 3d 09 9e db ba 55 59 b6 bd b8 10 b4 bd
       0.06875348 -0.0016755472 -0.089037575 -0.08792251
000020 9b d4 46 3d 3d d6 b0 3b 29 51 49 3d 3b d2 e1 bc
       0.0485426 0.005396633 0.049149666 -0.027566066
000030 e7 10 ac 3c fa 8e 61 bb 8e 11 08 be 95 aa 3f bd
       0.021004153 -0.0034417496 -0.13287947 -0.04679354
000040 72 62 fe bd b1 80 1a 3a ca cb 86 3d e5 bc d4 bd
       -0.12421121 0.00058938103 0.065818384 -0.10387591
000050 90 8e 5d bc 89 dc 7c bd 5e 2d 1f be ca 96 39 bd
       -0.013522759 -0.061733756 -0.1554465 -0.04530982
000060 cb b4 58 bd 83 e2 78 3d 1a 89 c1 3c 81 a5 71 bd
       -0.052906793 0.060762893 0.023624945 -0.058995727
000070 3d 5e 79 bd 57 43 90 bd e9 ea 0e 3d c1 5b 61 bd
       -0.06088089 -0.07044094 0.034891997 -0.055019144
000080 97 ad 0f 3c 2c 37 ff bc 8f b9 61 bd cd 5d ea 3c
       0.008769414 -0.031154238 -0.055108603 0.02860918
000090 09 8d e2 3d f7 84 93 3b da cb de bc c8 cb 4b 3d
       0.110620566 0.0045019346 -0.027196813 0.049754888
0000a0 06 29 ea bd 2f a9 0a 3d 30 3b ec bc 66 a3 3f 3d
       -0.11433606 0.033852752 -0.028836817 0.04678669
0000b0 b8 3d 70 bd 9f e6 e9 bd d4 17 0b 3e d9 60 9e 3c
       -0.05865261 -0.114209406 0.13583308 0.01933329
0000c0 96 d6 b1 bd b0 ab 32 3e 8d 90 f6 3c e9 ec 8e bd
       -0.08683507 0.17448306 0.030098224 -0.06978781
0000d0 a5 43 c1 3c 58 52 b7 bc 1f 5c de bd 64 19 a8 3d
       0.023591826 -0.022378132 -0.108574145 0.08207968
0000e0 b4 ef 0d bd bc 1f b7 bc d9 04 f0 3c b2 d6 ec bc
       -0.034652427 -0.022354 0.029299187 -0.028910968
0000f0 2e c2 4c 3d 8f be cd bb 59 80 8d bd db a5 c3 3d
       0.04998987 -0.00627882 -0.06909246 0.09553119
000100 24 ef 3e 3d e6 17 d1 bc d6 45 f4 bd 6a 83 29 3d
       0.04661478 -0.025524091 -0.11927383 0.04138509
000110 f3 c6 2a bd 48 ff 08 bd 1f 55 82 3d f6 c0 08 bd
       -0.04169364 -0.03344658 0.06363892 -0.033387147
000120 fc 6e b4 bd 32 4c 50 3d f8 a9 10 3d 9f 2c 71 3d
       -0.08810231 0.050853916 0.035318345 0.058880445
000130 e5 00 b0 bc b4 24 97 bc 9e a4 f9 3c f6 6d 89 bd
       -0.021484802 -0.018450119 0.030474003 -0.067104265
000140 14 f1 e7 ba 57 02 a7 bc 51 b8 8a 3d b6 42 a1 3d
       -0.0017695748 -0.020386858 0.06773437 0.07874052
000150 9b e7 ac bd ef 27 e0 bd a8 3e 0d 3e 3a e7 11 be
       -0.08442613 -0.10945117 0.13793433 -0.14248362
000160 19 76 88 bd fa 18 01 3d f4 d9 a4 bc 46 11 6d 3d
       -0.0666315 0.03151796 -0.02012346 0.0578778
000170 fc 6c 1d 3d 1a 78 04 3e 11 2e cb bc a4 05 31 bd
       0.038434014 0.1293644 -0.02480224 -0.04321827
000180 1a 30 30 bd 1c 0a 97 bd a2 df af bd 7e 1e 8e bc
       -0.043014623 -0.07374975 -0.085875764 -0.017348524
000190 d6 5c b8 bd d6 a5 09 be 4b 78 8f ba 1e 26 92 3d
       -0.09002082 -0.13442168 -0.0010945884 0.071361765
0001a0 51 7b ae 3b ab a5 e0 3d b2 fa 81 bd d3 18 00 bc
       0.005324759 0.10969099 -0.063466445 -0.007818419
0001b0 13 80 b7 3a ae a8 9e 3d dc 62 c5 bc f3 91 12 bd
       0.0013999961 0.07747017 -0.024094991 -0.03578372
0001c0 81 f7 b7 bd ac 96 3c 3d 76 86 0e 3d c3 0e 4c 3d
       -0.089827545 0.04604213 0.0347962 0.049818765
0001d0 d3 8b e6 3a 49 ef 7d 3d 46 11 13 3d b2 3f c5 3d
       0.0017589278 0.06199578 0.035905145 0.096312895
0001e0 b1 aa f3 bd 0f df b1 bc 00 19 fb 3a 43 24 9e 3c
       -0.11897791 -0.021712808 0.0019157231 0.0193044
0001f0 60 80 21 3c 3f 1d a3 3d ed a0 f5 3d c9 55 d0 3a
       0.009857267 0.079645626 0.11993585 0.0015894707
000200 22 c2 71 bc 1d da a3 bb f9 df 53 3a 02 b3 66 3d
       -0.0147557575 -0.0050003664 0.0008082386 0.05632306
000210 c2 84 cd 3c 96 47 dc bc 41 f9 59 bd 59 3c 75 bd
       0.025087718 -0.026889604 -0.053216223 -0.059872005
000220 93 97 67 bd c8 17 e1 bd bf 4d 4b bc 2b 55 04 bc
       -0.056541037 -0.10990864 -0.012408673 -0.008076946
000230 00 01 6a 3c c2 5d 90 bc bf be 5b 3d ad 29 c3 bd
       0.014282465 -0.017622832 0.053648707 -0.095294334
000240 54 ea 0e 3c 46 5a 92 bd be a4 63 bd b0 10 08 3d
       0.00872286 -0.071461245 -0.055577032 0.03321904
000250 1d a5 7f 3b 87 26 8e bd 03 14 95 3b 76 69 96 ba
       0.0039008327 -0.06940942 0.0045495047 -0.0011475522
000260 cd a7 1a 3e d1 81 8f bc 6e 9b 7d 3c 72 99 5a 3a
       0.15103073 -0.017517956 0.015478952 0.0008338905
000270 56 b7 22 3d 60 dc b1 bd 63 c9 0c 3d 9b 29 3c 3e
       0.039725624 -0.08684611 0.034371745 0.18375246
000280 cf cc 98 3c 83 42 89 3b 56 47 70 3b 4e 0b af 3d
       0.018652348 0.004188837 0.0036663613 0.08547078
000290 ef 93 86 bb d9 94 9e bd e7 2e 61 3d 9a c7 71 3d
       -0.0041069905 -0.07743234 0.05497637 0.059028246
0002a0 e9 bc 96 bc e5 b6 43 3d da c7 f7 bd 1b 16 a6 3c
       -0.018400626 0.047781844 -0.120986655 0.020274213
0002b0 af 6a eb bc ce 82 36 3d c0 76 53 bd e3 14 2b bd
       -0.028737394 0.04455834 -0.05162692 -0.041767966
0002c0 25 fb 1c bc d0 bb f3 bd 59 83 2b 3c d3 68 e5 3b
       -0.009581362 -0.11901057 0.010468327 0.0070010214
0002d0 e0 2f 25 bc 6a d8 3b bd 71 9f a5 bd e6 18 bf bd
       -0.010082215 -0.045860685 -0.08087052 -0.09330921
0002e0 69 86 d2 3b 3e e2 1e bd df 2e 1b bd 97 b2 fc 3c
       0.0064247143 -0.03878998 -0.037886497 0.030846877
0002f0 96 01 c1 3d d0 cc d3 bc d8 cf c6 bd f2 ce 9e b9
       0.094241306 -0.025854498 -0.09707612 -0.00030290295
000300 36 f9 f0 bd b7 e1 e7 bd 06 8e 96 3c e4 46 a9 3c
       -0.11766283 -0.113223486 0.018378269 0.020663686
000310 ce d6 6f bd 66 66 af 3d d8 a3 69 3c 17 e7 86 bc
       -0.058554463 0.08564453 0.014260255 -0.016467614
000320 35 94 a5 3c 7f 92 8d 3d 16 8a 86 bc 87 d8 00 3e
       0.020212272 0.069127075 -0.016423266 0.12582599
000330 cd 0e 04 3c a7 ea c6 39 c1 27 da 3d b3 61 1e 3d
       0.008060169 0.00037940333 0.10652114 0.038667392
000340 7a ea 7e 3d dd 60 e3 3d dd b8 e2 bc d0 d3 66 3d
       0.062235333 0.111024596 -0.02767604 0.056354344
000350 61 00 83 3d a4 d9 13 3e 15 6d 2f 3d 05 37 5b bd
       0.06396557 0.14438492 0.042828638 -0.053519268
000360 22 f4 71 3d e3 e6 16 be 3f 3c 9c bd b6 3d 06 3d
       0.059070714 -0.14736514 -0.076286785 0.032773696
000370 e2 4a eb bc fc 11 2e bd d5 bc 19 bd 0e 54 56 3e
       -0.02872223 -0.04249762 -0.0375336 0.20930502
000380 be 8c 47 3d 89 78 27 3c 33 1a 40 bd 66 bc 66 bc
       0.048718207 0.010221609 -0.046899986 -0.014083004
000390 4d 48 73 3d 50 b6 2d 3d 2f e9 8b 3c 20 ab 41 bd
       0.059395123 0.042410195 0.017078964 -0.04728234
0003a0 7f 26 ce 3d ad ae 46 3d 72 9b 43 bd 47 bf 19 3e
       0.10065936 0.048506428 -0.047755666 0.15014373
0003b0 a9 38 84 3d e4 22 69 bc e3 e0 b8 bb 7a 02 b9 3d
       0.064561196 -0.01422951 -0.005642043 0.090336755
0003c0 e7 63 68 3c 9d 87 12 3d 9f b8 9d bd 11 1c e0 bd
       0.014183975 0.035773862 -0.07701229 -0.10942853
0003d0 c6 15 3b 3d 44 6d ce bd 9e 1f aa 3d 89 34 d0 3d
       0.04567506 -0.100794345 0.08306812 0.1016627
0003e0 df 0e 44 3e c7 99 7d bd 62 3b 86 3c 0f e8 c6 bd
       0.19146298 -0.06191423 0.016385738 -0.097122304
0003f0 84 b1 23 bd 14 d0 f0 bd 4f c2 19 bd 88 e1 09 3d
       -0.039964214 -0.11758438 -0.037538823 0.03366235

layer_2.bias f4 [300]
000000 41 c3 06 bd 85 bb 24 3c 9f 2d 07 bd f2 84 ab 3d
       -0.032901052 0.010054474 -0.033002492 0.08374967
000010 e2 5a 9f bd 1e ef 45 bd dd 83 05 be 47 66 90 bd
       -0.077810064 -0.048323743 -0.13038583 -0.07050758
000020 82 57 f4 bc ea a6 e8 3d 19 42 b5 bc 24 05 78 3c
       -0.029826883 0.11359961 -0.022126244 0.015137944
000030 2d 46 93 3d 88 33 99 3d f9 49 96 b9 42 39 f6 bc
       0.07191119 0.07480532 -0.00028665343 -0.0300566
000040 6e eb 92 bd 8d 58 c7 3d cc 5a a9 3c 9a e2 03 be
       -0.07173811 0.097336866 0.020673178 -0.1287941
000050 8b bf 72 3c f0 06 84 3b d6 f3 41 3c 1a 08 a5 3c
       0.014816175 0.0040291473 0.01183792 0.020145465
000060 76 a2 ee bd 7f ad 3e bd 10 71 04 be 55 a6 4e bd
       -0.11652081 -0.046552178 -0.12933755 -0.050451595
000070 7a 26 3d 3d 33 6e df 3c 1f 65 8e 3d 41 2d e0 bd
       0.046179272 0.027274227 0.06952881 -0.109461315
000080 71 4a 47 bd 7f 9b f9 3d aa d6 9c 3d a1 ea 43 bd
       -0.048654977 0.12187862 0.076581314 -0.04783118
000090 50 36 ac bd 97 ba cf ba 3e 01 9e 3d 1c c8 0d 3b
       -0.08408797 -0.0015848455 0.07715081 0.0021634167
0000a0 16 e1 51 bd ab 9e 72 bd f1 ab 80 3d 01 c8 dc bd
       -0.05124005 -0.05923335 0.06282795 -0.10780335
0000b0 30 fe bd 3d c2 9e 96 3d 71 d2 4b bd 26 26 13 3e
       0.09276998 0.073544994 -0.04976124 0.14370021
0000c0 db 22 d3 3c 1a ee 13 3d 25 b7 48 bd 26 e8 b3 3b
       0.025773456 0.036115743 -0.049002785 0.0054903207
0000d0 3e fe 4c 3d 2e 3a c9 bd 77 83 e7 3c 94 7e 90 3c
       0.05004715 -0.0982555 0.02826093 0.017638482
0000e0 e6 56 3d bd 44 b1 47 3d 0f 43 b5 bd 72 4e b2 3d
       -0.04622545 0.048753038 -0.08850681 0.087063685
0000f0 7d 16 c6 bb 7b 74 1e 3d 13 b9 66 3c ac 82 d7 3c
       -0.0060451613 0.038685303 0.014082211 0.026307426
000100 02 69 8a 3c 56 5a 4d bd 9e 20 19 b9 2f d0 23 be
       0.016895775 -0.05013498 -0.00014603368 -0.15997384
000110 23 16 91 bd c0 6c 81 bd 2b 66 1f 3c 5e 02 b2 bd
       -0.070843 -0.063195705 0.009728949 -0.08691858
000120 8f a9 83 bd d3 57 3e 3d cd 8c f9 3c 02 83 dc 3d
       -0.06428825 0.046470474 0.030462647 0.10767175
000130 61 4e 22 3d 4b aa a1 bd 23 a1 51 bc 9a 6f d6 bb
       0.03962553 -0.07893809 -0.012794766 -0.0065440657
000140 93 09 9e bd 22 ff 41 bc c9 f2 61 3d b9 17 0d 3d
       -0.0771667 -0.011840614 0.05516318 0.03444645
000150 f1 b0 9d 3d b1 8d 06 3d 02 0c 99 3a 4f f1 63 3d
       0.076997645 0.03284997 0.0011676552 0.05565005
000160 fe cd fc bd f9 bb 3d 3c 92 a3 1e be cf 0e 1a bd
       -0.123439774 0.011580461 -0.15492085 -0.03761178
000170 1b 1b 10 3d ce 47 98 3d c0 5a a8 3d c3 48 99 3d
       0.0351821 0.07435571 0.08220434 0.07484581
000180 ef a6 66 bd 71 4a 12 bd 53 59 8a 3d 49 1d 95 3d
       -0.056311544 -0.035715524 0.067553185 0.07280976
000190 c9 27 5d bd 59 a7 fa 3b ce bd b7 3d 95 fa 93 bd
       -0.05399302 0.007649344 0.08971749 -0.07225529
0001a0 95 4e db 3d cb 7d 7b bb 97 71 d8 3b 22 1b 04 3d
       0.10708348 -0.003837454 0.006605338 0.03225244
0001b0 67 95 be bd e1 c1 f8 bd 4f d0 1e bd 9f 01 68 be
       -0.0930584 -0.121463545 -0.038772877 -0.22656868
0001c0 f5 78 df 3c c5 25 78 bd 19 81 9e 3d 13 d5 8e bd
       0.027279356 -0.060582895 0.07739467 -0.069742344
0001d0 cf c0 45 3b 91 04 cd 3d 83 57 5f 3d 6f 92 8c 3c
       0.0030174737 0.100106366 0.054526817 0.017159669
0001e0 b2 d7 b5 3c 29 8c d7 3d 8d 80 ff 3c 29 90 a5 3c
       0.022197578 0.1052478 0.031189227 0.020210342
0001f0 73 e9 25 bb 0b 0c fb bc 68 fb 6f bd 8a a7 5e 3d
       -0.0025316149 -0.030645391 -0.05858937 0.054358996
000200 c0 3a 99 3d 20 4a 9f bd 15 db 5c 3d 5a 57 d7 3c
       0.07481909 -0.0777781 0.05391987 0.02628677
000210 89 c7 88 bb 87 4c 0c be a6 ae a2 3d 95 32 8c 3c
       -0.004174177 -0.13701068 0.07943468 0.017113963
000220 c2 09 44 ba d4 5a 39 3c cc 92 9b 3d 26 ed fe bb
       -0.00074782607 0.011313159 0.07596359 -0.007779735
000230 af 62 95 bd 49 a1 86 bc ca 96 89 3d 78 2b 86 3c
       -0.07294213 -0.016434329 0.06718214 0.01637815
000240 9a 46 17 bd c6 c0 82 bd 3a 5d b0 bc 30 98 ad 3d
       -0.036932565 -0.06384425 -0.021528829 0.08476293
000250 69 17 b9 3d cb 5e 42 bc 47 fa b2 3d d4 4e af bd
       0.09037668 -0.011863421 0.08739143 -0.08559957
000260 f8 e4 0e be 2e 16 c6 3d fa 1b 3a bd 88 8d 30 bd
       -0.13954532 0.09672199 -0.045436837 -0.043103725
000270 01 05 11 3d db 20 8f 3c 59 dd 10 3e 5a 35 1c 3d
       0.035405163 0.017471721 0.14146937 0.038136818
000280 9a af a3 bb 61 36 2a 3d 53 ae a9 3d 87 91 47 3e
       -0.0049952986 0.041555766 0.08285203 0.19489108
000290 fc 8e 3b bd 5e f9 86 bd 21 b7 84 bd 3c cc ed bc
       -0.045790657 -0.06590532 -0.064802416 -0.02902805
0002a0 e1 52 b8 3c b3 d4 88 3d 57 65 5e bc b1 d6 df 3d
       0.022500457 0.06681194 -0.013573966 0.10929621
0002b0 c1 0c 2f 3d 4f e4 3d 3d 5e 40 ba bd 4d c7 4e 3d
       0.042736772 0.04636031 -0.09094308 0.050483037
0002c0 73 1e 18 be f5 a5 b3 bd 37 4e 25 3e 93 b9 b3 3d
       -0.14855365 -0.08771888 0.16143118 0.0877563
0002d0 39 d3 c5 bc 7c 68 66 bd 9b f4 aa bd 1c 42 95 bd
       -0.02414857 -0.056251988 -0.08347436 -0.07288
0002e0 bc 73 4b be b8 fe 92 bd b8 33 c1 3c 32 8c a1 3d
       -0.19868368 -0.0717749 0.023584232 0.07888068
0002f0 f8 b8 b4 bd a1 de 80 3d fb 8b e6 3c ec 1d 6b 3c
       -0.088243425 0.06292463 0.02814292 0.014350396
000300 1c 9a 8e be 09 a1 e0 bb 69 33 35 3d e4 0e d3 3d
       -0.2785195 -0.0068551344 0.04423848 0.103055745
000310 2f 05 3f bd f7 8d da 3d 6b cf 84 3d 28 20 98 3a
       -0.046635803 0.10671609 0.06484874 0.0011606263
000320 47 48 29 3d 7c 27 4e 3d d1 c1 80 3c a2 fd 6a bc
       0.041328695 0.050330624 0.015717419 -0.014342697
000330 c2 43 f9 3d 4c 6f 78 3c 1a ed ca bd 34 84 93 3c
       0.12171127 0.015163254 -0.09908505 0.018007375
000340 ea a0 00 3e 21 e3 fc bc 85 12 a0 3b f5 3b aa bd
       0.12561384 -0.030870022 0.00488502 -0.08312217
000350 84 9a 45 3c 6b 54 1d 3d e1 28 e1 bd 51 89 d1 3d
       0.012060765 0.038410585 -0.10994125 0.10231269
000360 50 46 5c 3d 63 43 76 3d 40 99 98 3d f3 d1 65 3d
       0.053777993 0.06012286 0.07451105 0.056108426
000370 e0 a0 9a 3d bb ce 0a be 0a db 27 3c 2d 36 0e 3b
       0.07550216 -0.13555424 0.010245094 0.0021699772
000380 a7 12 9c 3d 1d 5e d3 3c 98 a2 94 3d c6 75 fa 3c
       0.07620745 0.025801713 0.07257575 0.030573737
000390 ed 08 5f bd be c6 33 3e a4 04 f0 3c f5 72 d9 bc
       -0.05445187 0.17556283 0.029299088 -0.026544074
0003a0 95 72 e0 bb a9 00 89 3d 9b 0c aa 3d 6b 41 a1 3d
       -0.0068495967 0.06689579 0.083031856 0.078738056
0003b0 02 34 d9 3d 06 5d 1a 3e 89 c8 e9 bb cb ed dd 3d
       0.10605623 0.15074548 -0.0071345014 0.10836371
0003c0 71 89 99 3d 5f 22 a0 3d e3 3a 99 bc 33 0b e4 3d
       0.07496918 0.07819056 -0.018704837 0.111349486
0003d0 17 dd 50 3d 58 78 a6 bd 61 13 4a 3d e7 2f c7 bc
       0.050992098 -0.081284225 0.049334887 -0.024314834
0003e0 3f 6e 57 bd 63 80 e9 3c 6b 2c 2a 3d 47 e7 43 3d
       -0.052595373 0.028503602 0.041546267 0.047827985
0003f0 4c 30 bc bd 88 57 50 3d 82 2c c3 3c d3 7d 39 bd
       -0.091888994 0.050864726 0.023824934 -0.04528601

layer_3.weight f4 [6, 300]
000000 3b c6 18 be 47 f9 8a bd 39 dc d1 3c e9 87 5f bd
       -0.14919369 -0.06785827 0.025617706 -0.054572973
000010 56 03 f0 bd df 44 21 3e fa 96 eb bc 2f 3a c2 3a
       -0.11719386 0.15748928 -0.028758515 0.0014818365
000020 07 ed d6 bb 4b 98 bd 3d b2 bb 98 3e 89 c9 36 be
       -0.0065590176 0.09257563 0.298307 -0.17850317
000030 45 87 01 3d 5c d2 5c 3d 1e 96 00 be dd 9f 82 3e
       0.031623144 0.05391155 -0.12557265 0.2551259
000040 84 e7 ad bd 21 cc e9 3d bd 5f 45 be 55 27 8f 3e
       -0.08491424 0.114158876 -0.19274803 0.27959695
000050 ef 9c 2a 3e cc a0 77 3b 46 c8 89 3c ff 24 bc bd
       0.16661428 0.0037785051 0.01681913 -0.09186744
000060 e7 9e 35 3e b5 fc a7 bd 27 15 fc 3d e9 47 bb bd
       0.17736398 -0.08202497 0.12308722 -0.09144575
000070 eb 45 d7 3c 4d da a1 bd 7b 1e af bb 61 b2 a5 bc
       0.026278457 -0.07902966 -0.0053442097 -0.02022666
000080 e4 2e d1 3d e6 60 36 3d 76 c3 11 3d 3b d3 cb 3e
       0.10214022 0.044526003 0.035586797 0.39809594
000090 26 a0 bd 3d b7 29 20 3d 25 f4 3c bd d8 b0 be bd
       0.092590615 0.039102282 -0.046131272 -0.09311074
0000a0 0e 52 49 bd 7a be ad bd 3c 5a e4 bd 5b 56 b7 bd
       -0.04915052 -0.08483596 -0.11150023 -0.08952018
0000b0 3e af c3 3d 94 8e 2b 3c e5 bb 70 bd 82 87 40 be
       0.09554909 0.010471005 -0.05877294 -0.18801692
0000c0 fc 5b 18 3e 05 30 61 3d 49 a4 3f 3e 0f 7c b1 bd
       0.14878839 0.054977436 0.18715014 -0.086662404
0000d0 04 d2 d5 3a cb 74 0c be 61 22 87 3c 1a 09 b6 3d
       0.00163132 -0.13716428 0.016495885 0.08888455
0000e0 44 c3 85 bd 27 8a ff 3d e8 b3 38 3d b4 74 8c be
       -0.065313846 0.12477522 0.045093447 -0.27432787
0000f0 8c e5 ba bd 17 bc 02 3e da 3a 89 3d 11 cb 91 3d
       -0.09125814 0.12767063 0.06700678 0.0711881
000100 17 78 8a bd 12 2e d4 bd 79 5d ab 3c cb 6b 63 3e
       -0.067611866 -0.1036035 0.020918595 0.22209089
000110 67 66 a9 bb 82 0c 85 bc 4c 84 10 3b 30 d5 8a 3e
       -0.005169678 -0.016241316 0.0022051511 0.27115774
000120 83 a7 8c bd 4d a2 10 bd 9e 28 03 3d 25 19 ba bb
       -0.06867888 -0.035311032 0.032021157 -0.005679267
000130 49 52 11 bc f3 79 97 bd 17 b1 65 3d 2a 20 25 3e
       -0.008869716 -0.07396307 0.05607709 0.16125551
000140 4b 11 01 3d df 3c 7f 3b 86 d7 17 3c c0 e4 cd 3c
       0.031510632 0.0038946194 0.009267693 0.02513349
000150 9b 20 95 bc 0a af 7a bd 00 85 b9 bd fd 19 32 bd
       -0.018204024 -0.061202087 -0.09058571 -0.043481816
000160 14 af 80 bd fe fe bc b9 a1 25 21 be 1d e2 0e 3e
       -0.062833935 -0.00036048138 -0.1573701 0.13953443
000170 bd cc f1 3d be b6 44 bd a2 69 b7 3c 9a 29 fd 3d
       0.11806629 -0.04802584 0.022389237 0.123614505
000180 80 e5 d6 be fd 2b fa bd e5 0f b0 3d a2 8b 85 b9
       -0.4197197 -0.12215421 0.08596782 -0.0002547177
000190 84 db 8a 3e 4a 56 98 bd ec 98 61 3c a9 ab 87 bd
       0.27120602 -0.07438333 0.01376937 -0.066245385
0001a0 4c 66 8d 3d bc d9 a4 3e 96 78 45 3e 00 23 46 bd
       0.06904277 0.32197368 0.19284281 -0.048373222
0001b0 16 6a 11 3e ea 25 64 be 15 46 b5 bd 4e 85 86 3c
       0.14200625 -0.22280088 -0.08851258 0.016420987
0001c0 e8 dc 9e 3d 3d f2 40 3e 20 8d dc bd d7 70 36 3e
       0.07756978 0.18842407 -0.10769105 0.17816482
0001d0 58 02 df bd 20 3f 03 3c 86 f0 04 3c bc 72 9c bc
       -0.10889119 0.008010656 0.008113986 -0.019097678
0001e0 e7 d8 98 bd 40 de 1f 3c ad b1 d2 bd 58 16 ed 3d
       -0.07463246 0.009757578 -0.10287795 0.11576527
0001f0 da 13 52 bd ba f2 a2 bd de 95 00 bd 98 a2 91 bc
       -0.051288463 -0.07956453 -0.031392924 -0.017777726
000200 df 02 97 bd 31 9c 97 bc 9f 36 3c be 2e dd 30 3d
       -0.073735945 -0.018507095 -0.18380211 0.043179683
000210 f9 46 9a bd 99 b8 0c be 71 a7 6d 3d 23 a8 4f bd
       -0.07533068 -0.13742293 0.058021013 -0.050697457
000220 ae 58 98 bc e2 a8 bc 3d da dc 31 bd 00 d4 c2 3e
       -0.018596973 0.09211899 -0.04342351 0.38052368
000230 72 f8 b3 bd d7 ee 2b bd de b7 8f 3d ea a2 3d 3d
       -0.087876216 -0.041975822 0.07017492 0.046297945
000240 25 c8 e9 bb a1 30 d3 bc d1 0d c5 3d 0b dc 43 3e
       -0.007134455 -0.025780024 0.09621776 0.19126908
000250 96 1a 14 3c 7e 3c a2 bd 21 54 8e 3c 3d 63 ab bd
       0.009039542 -0.07921694 0.0173741 -0.083685376
000260 0c ca b4 bd 05 3d 42 3d 5f 1f 17 bd 0d b8 01 bd
       -0.088276 0.047421474 -0.036895152 -0.031669665
000270 40 04 87 bd 8b 09 a4 bc 5c db 52 bb 03 c3 9e 3e
       -0.065926075 -0.020024082 -0.0032174205 0.31008157
000280 2c 10 41 3d 2f 9a 86 bd 87 62 91 3c 42 b2 27 3c
       0.047134563 -0.06572377 0.017747177 0.010235371
000290 d3 b0 e3 bc a9 8a 5f bd 8e f6 a4 bd 79 af 86 bd
       -0.027794277 -0.054575596 -0.08054839 -0.065764375
0002a0 9f 99 2e 3d 2c 99 88 bb 42 6f 51 bd 57 08 8a 3c
       0.042626973 -0.00416865 -0.051131494 0.01684968
0002b0 cf d7 c8 3e 9a 82 9c 3d 5c 09 52 be 99 60 a5 3d
       0.3922715 0.07642098 -0.20511383 0.08075065
0002c0 33 e6 07 be 91 34 8d bd 85 34 f1 3d 05 5a b2 3d
       -0.13271408 -0.06894792 0.117775954 0.08708576
0002d0 73 19 53 3e 00 45 cc bd dc ee 10 3e 3a 0b 1d be
       0.20615177 -0.09974098 0.14153618 -0.15336314
0002e0 89 15 7f 3e 90 97 c1 3d 63 7e 43 3e 15 f7 a7 3c
       0.24910559 0.094527364 0.19091181 0.02050356
0002f0 bc 7b 48 bd 5f 20 90 3d 92 dc 94 bd 4b 72 a2 3d
       -0.048946127 0.07037424 -0.07268633 0.07931956
000300 41 61 95 be e4 94 98 bd bc 79 d4 bd f1 af 56 3d
       -0.2917576 -0.07450274 -0.103747815 0.052413885
000310 af 6f 5a 3d b0 c5 fc bc db 10 76 be ec 04 d5 bb
       0.053329166 -0.030855983 -0.24029867 -0.006500831
000320 84 c6 c9 b9 69 0c fd 3c 28 07 8c 3c 7a 59 e2 bc
       -0.00038485613 0.030889707 0.017093256 -0.027630556
000330 81 9d c2 bb e0 05 a2 3d 9a ca 05 be 69 56 02 3d
       -0.005939186 0.07911277 -0.13065568 0.03182069
000340 dd 7e 8e bd 96 3e 22 3e ba ca c8 bd 52 4d c6 bd
       -0.06957791 0.15844187 -0.09804292 -0.096827164
000350 5f 92 7d 3d 49 20 fa 3d cb cf 5a be db e6 be 3d
       0.06190717 0.12213189 -0.21368329 0.09321376
000360 3d 5c 2d 3b e1 b7 4d 3c 66 52 39 be cc 85 10 3d
       0.0026452683 0.012556047 -0.18097839 0.03528385
000370 8d 8a 47 3d 0c 1f 5a 3d 1b e0 a3 bd 2d 89 48 3e
       0.048716117 0.053252265 -0.08001729 0.19583578
000380 b3 cf 32 bd 6f 31 62 bd 64 9f db 3c 47 9e 46 be
       -0.04365511 -0.055222925 0.026809402 -0.19396316
000390 74 0a d9 3d 55 d8 6e bd 6e 0c 6f 3c 77 0f d5 bd
       0.10597697 -0.05831178 0.014590366 -0.1040334
0003a0 95 e2 87 bd f3 3b 59 bd d3 01 9d 3d e2 cd bc 3d
       -0.06635014 -0.053035688 0.076663636 0.092189565
0003b0 2d f7 84 3b 3c b3 0c 3d ab 37 66 bd 0b 0e b3 bd
       0.004057786 0.03435062 -0.056205433 -0.08742913
0003c0 7e 46 cf 3d 1a 0a f8 bc fb b9 8d 3d 56 8a a6 3d
       0.10120867 -0.030278254 0.069202386 0.08131854
0003d0 87 1c e5 bd f3 97 a9 3d 72 7e 5a be 51 8b 35 3d
       -0.11187082 0.08280935 -0.21337298 0.044322316
0003e0 db 79 e3 3e 96 5d 9c 3e 48 d2 97 3d de 81 3f 3d
       0.44428906 0.3054015 0.07413155 0.04675471
0003f0 c7 c5 37 3d a0 67 1f 3e 72 31 d5 bc 66 0b 6c bd
       0.04486635 0.15566874 -0.026024554 -0.057628058

layer_3.bias f4 [6]
000000 a6 90 53 3c 80 11 83 bc 9e 9b 4d 3d 14 d9 61 bd
       0.012912905 -0.015999556 0.050197236 -0.055138662
000010 69 c4 a5 3d 26 f9 99 bd
       0.08094103 -0.075182244
