pytorch_models_dynaPhysics/TD3_walker_stand_0129_actor.pth (torch, 521680 bytes, 6 tensors)

layer_1.weight f4 [400, 18]
-0.30868262 0.04534393 -0.4104827 -0.11938885 -0.096461855 -0.01364979 0.10025378 0.31515142
0.062307265 -0.053527154 -0.043349035 -0.056373864 -0.22925068 -0.13956764 -0.07854011 0.006259497
0.0896451 0.12774995 -0.33165476 -0.13733707 0.18814525 0.43565568 -0.06284734 0.30902216
-0.11310897 0.17172812 0.27652177 -0.22423907 -0.1559302 -0.11117997 -0.10309891 0.21124281
-0.060178064 -0.15798351 -0.10814957 -0.23714475 -0.2237953 0.14538634 0.1770593 0.016658569
-0.037736516 -0.124240175 -0.09541111 -0.37888956 -0.46119726 -0.4702667 0.2728202 0.16484772
-0.11828144 -0.0019615027 0.05831836 0.2511055 0.0801021 0.08698591 0.19066247 -0.40739992
0.10105312 -0.43148148 -0.36911008 -0.17077604 0.23674306 0.10548836 0.03557985 0.26779148
0.20379353 -0.041822728 -0.019059263 0.069759056 0.12683766 0.17109576 -0.18699871 -0.040997293
0.14852113 0.28805482 0.12655985 0.28660485 0.042709995 -0.073727764 -0.045860093 -0.4057846
-0.26393837 0.25520906 0.22370383 -0.3047601 0.052004628 -0.067167126 -0.02230873 -0.149623
0.13356255 -0.095831245 -0.15259442 0.05594659 0.18796903 0.37629163 -0.38523453 -0.057438113
0.06496858 -0.029845549 0.10886561 -0.21938 0.33155796 0.16585454 -0.11620667 -0.12331608
-0.16755539 -0.024442757 -0.18891186 -0.17717674 0.24841586 -0.06772476 -0.30543226 0.1303906
-0.21713693 0.39019728 0.11837039 -0.29711598 -0.11942087 -0.07716094 0.1440944 0.060495194
0.09671208 -0.0123961745 -0.061362382 0.1397038 -0.21679339 -0.13975523 -0.26938194 -0.24790983
0.08955856 -0.1676684 -0.14570393 -0.19581202 0.121677 -0.2754101 0.123593 -0.15259044
-0.0062350747 -0.092105106 0.0035008623 0.13770004 0.23068641 0.14794403 0.24185024 -0.014833589
-0.41044673 -0.106025055 0.30889657 0.02127186 -0.39347175 -0.11251467 -0.45028812 -0.17067173
0.21059005 -0.07409633 -0.0072919508 -0.29059914 0.14337108 -0.21230371 -0.026581887 -0.10235607
-0.06337506 -0.01196074 -0.43360066 -0.03419371 -0.09157547 -0.021598784 -0.13965139 -0.05686316
-0.19360761 -0.1865815 0.5377708 0.034037884 0.30905092 0.14541475 -0.18488812 0.12723285
-0.014965795 -0.07834081 0.17392637 -0.14595604 0.4568482 -0.15061738 0.2918425 -0.0058242856
0.19841494 0.29816347 -0.0017734015 0.07720774 -0.29228497 0.36773437 0.22796182 0.16381463
-0.2193143 0.014599215 -0.11372145 -0.19381537 -0.118584 0.08294901 -0.2920911 0.033213258
0.16227388 0.031169424 -0.269873 -0.20678608 -0.28837046 0.34091783 -0.2084071 0.40580046
-0.02331607 0.07676999 -0.0042902525 -0.0043559563 -0.003682545 -0.044959158 -0.034902483 0.00037748934
-0.21047057 0.052693497 0.38400215 -0.14364666 0.06535489 0.3827259 0.27769035 -0.018590873
-0.15952343 0.26469687 -0.2764306 -0.08451863 -0.09418125 -0.021961858 -0.0074195173 0.24009494
0.002021333 0.17106318 -0.028637834 -0.27887982 0.15776046 -0.34067893 -0.4076415 -0.033758733
0.28341785 0.13990308 0.2702638 -0.07060062 0.026171494 -0.29794797 0.07919148 -0.17636937
-0.017857848 -0.082521 -0.045161176 0.0078739235 0.37721667 -0.17389639 -0.24973778 -0.017268881
00000000: a60b 9ebe 8fba 393d ca2a d2be 2482 f4bd
00000010: cb8d c5bd 5ea3 5fbc db51 cd3d 875b a13e
00000020: e735 7f3d 4a3f 5bbd c28e 31bd 48e8 66bd
00000030: b1c0 6abe d2ea 0ebe a3d9 a0bd 771c cd3b
00000040: da97 b73d e2d0 023e a7ce a9be 17a2 0cbe
00000050: 26a9 403e 430e df3e 1bb6 80bd 2738 9e3e
00000060: ada5 e7bd 7fd9 2f3e 4394 8d3e ed9e 65be
00000070: 2bac 1fbe 53b2 e3bd 8525 d3bd 0950 583e
00000080: 467d 76bd 6ec6 21be 867d ddbd 13d6 72be
00000090: 982a 65be 28e0 143e 084f 353e 8d77 883c
000000a0: 9b91 1abd a271 febd e666 c3bd d0fd c1be
000000b0: 0c22 ecbe ccc6 f0be 17af 8b3e d7cd 283e
000000c0: 8a3d f2bd 8e8c 00bb 3cdf 6e3d e690 803e
000000d0: 920c a43d ab25 b23d 063d 433e b996 d0be
000000e0: f0f4 ce3d 24eb dcbe fffb bcbe eadf 2ebe
000000f0: c66c 723e 480a d83d 2dbc 113d f71b 893e
00000100: 40af 503e 4f4e 2bbd 2c22 9cbc d6dd 8e3d
00000110: bbe1 013e ba33 2f3e 977c 3fbe c7ec 27bd
00000120: ec15 183e ec7b 933e e898 013e dfbd 923e
00000130: adf0 2e3d 95fe 96bd cbd7 3bbd 00c3 cfbe
00000140: ee22 87be c3aa 823e 9e12 653e 8409 9cbe
00000150: ce02 553d eb8e 89bd ccc0 b6bc c636 19be
00000160: 9fc4 083e 2c43 c4bd b641 1cbe 4028 653d
00000170: f47a 403e 4ca9 c03e 763d c5be 3a44 6bbd
00000180: 3f0e 853d a77e f4bc eff4 de3d 27a5 60be
00000190: f7c1 a93e c6d5 293e c3fd edbd 248d fcbd
000001a0: a493 2bbe 2d3c c8bc 1c72 41be d26d 35be
000001b0: ba60 7e3e 47b3 8abd 9e61 9cbe 1d85 053e
000001c0: 2559 5ebe f0c7 c73e 2d6c f23d 961f 98be
000001d0: ee92 f4bd 8e06 9ebd 7b8d 133e cfc9 773d
000001e0: fc10 c63d 5319 4bbc 1f57 7bbd 830e 0f3e
000001f0: 16ff 5dbe ff1b 0fbe 6eec 89be 13dc 7dbe
00000200: 7a6a b73d 44b1 2bbe 6933 15be f282 48be
00000210: ca31 f93d 8d02 8dbe 541e fd3d ab40 1cbe
00000220: 994f ccbb 9aa1 bcbd b96e 653b 3d01 0d3e
00000230: 0f39 6c3e a47e 173e 97a7 773e 9508 73bc
00000240: 1326 d2be aa23 d9bd b127 9e3e 5342 ae3c
00000250: 2175 c9be 176e e6bd 2a8c e6be 92c4 2ebe
00000260: eba4 573e d1bf 97bd 51f1 eebb 69c9 94be
00000270: decf 123e 2566 59be 42c2 d9bc 0fa0 d1bd
00000280: c9ca 81bd fbf6 43bc e800 debe b40e 0cbd
00000290: ec8b bbbd efef b0bc c600 0fbe 58e9 68bd
000002a0: 1341 46be 390f 3fbe 59ab 093f 4f6b 0b3d
000002b0: ec3b 9e3e 9be7 143e 5053 3dbe 5449 023e
000002c0: 1833 75bc 2671 a0bd c119 323e 8075 15be
000002d0: 02e8 e93e 713b 1abe 616c 953e a6d9 bebb
000002e0: 492d 4b3e e2a8 983e 7b71 e8ba 171f 9e3d
000002f0: 60a6 95be ae47 bc3e d36e 693e 06bf 273e
00000300: ee93 60be 8c31 6f3c cbe6 e8bd 8977 46be
00000310: 2bdc f2bd 2ce1 a93d f78c 95be a00a 083d
00000320: 202b 263e 0557 ff3c cb2c 8abe bbbf 53be
00000330: 4ba5 93be c88c ae3e ac68 55be 14c5 cf3e
00000340: 5801 bfbc 9639 9d3d 3f95 8cbb 69bc 8ebb
00000350: da56 71bb 1827 38bd e8f5 0ebd c3e9 c539
00000360: 9985 57be 23d5 573d ee9b c43e 1c18 13be
00000370: c9d8 853d a6f4 c33e 6e2d 8e3e e34b 98bc
00000380: 1c5a 23be 5986 873e 5088 8dbe 1a18 adbd
00000390: 19e2 c0bd 5be9 b3bc 6c1f f3bb 73db 753e
000003a0: 5778 043b 302b 2f3e e499 eabc 56c9 8ebe
000003b0: f58b 213e 786d aebe 63b6 d0be 9946 0abd
000003c0: 251c 913e c142 0f3e 0460 8a3e 0f97 90bd
000003d0: 9a65 d63c a38c 98be 252f a23d 2c9a 34be
000003e0: 9f4a 92bc c500 a9bd edfa 38bd a101 013c
000003f0: 8b22 c13e e511 32be 43bb 7fbe 7877 8dbc

layer_1.bias f4 [400]
0.3369612 -0.011564926 0.0598939 0.106159285 0.15000862 0.12656331 0.010113511 0.21926573
-0.03537505 0.12709063 -0.20101307 0.39516598 0.07633162 0.3298575 -0.20377195 -0.08123766
-0.07547508 0.114208594 0.23670118 0.4550062 -0.09882764 -0.09622761 -0.01725458 -0.23847394
0.31902054 -0.013621941 0.14542788 -0.04432036 0.42507502 -0.2162717 0.06182895 0.26243982
0.37732098 0.4373356 0.44915816 -0.16588412 0.103772946 -0.14021157 0.36854148 0.34986556
0.021744896 0.30572838 0.33384794 0.2301513 0.14970905 0.14587337 0.07468902 0.18385987
0.011332111 -0.17107128 0.20407647 -0.34261858 0.28404096 0.44161084 0.28062353 0.33636367
0.031725887 0.40069687 0.20148982 -0.21318944 -0.107673705 0.015265354 0.22311111 -0.14583772
0.049547985 0.26771122 0.52449054 0.25258192 0.04361549 0.025635488 0.08238796 -0.11200687
-0.12840478 -0.15214503 -0.09516889 0.32020828 -0.042885326 -0.04307967 -0.19115748 0.058056645
-0.24153943 -0.26356423 0.17972842 0.022245646 0.12403352 -0.03435838 -0.031571746 0.085719876
-0.10151676 -0.01826819 -0.1120944 0.46486947 0.004332133 0.29787052 0.294458 0.08197053
0.1436429 -0.007963291 0.3647146 0.44361973 0.2258835 0.40331957 -0.17989841 0.5031956
0.09028134 0.31157386 -0.09446689 0.1675985 0.25294143 -0.23563112 0.24131145 0.038675778
0.32221365 0.029732069 0.053971596 0.18839352 -0.25318077 -0.124601535 -0.0018588596 -0.23437308
-0.21133627 -0.2174771 0.15193868 -0.19696566 0.055868816 -0.004320624 -0.08374919 -0.13001253
0.06952395 0.15100096 -0.07539459 0.42636037 -0.22373456 0.019520294 -0.09694875 0.47591442
-0.07332662 0.34387994 0.036062494 0.3336307 0.03328611 -0.1392416 -0.077433966 0.2972946
0.38946748 -0.047838904 0.0038303726 -0.10090195 0.03153302 0.036056947 0.21302673 -0.2118963
0.05911592 -0.0006149574 -0.18978642 0.14627841 0.115821846 -0.20420931 -0.14851661 0.030200928
-0.0015640006 0.01655148 0.104013115 0.17321251 -0.23879203 -0.07176142 0.2285325 0.07495789
0.112670094 -0.28744403 0.04542479 -0.005897923 -0.21424003 0.18301293 0.07368127 -0.2480671
0.2782551 -0.21710616 -0.0040649166 -0.10193196 0.2652283 -0.123622715 0.4983759 0.2989691
-0.022767266 -0.181479 0.016262721 -0.114220664 0.3104959 0.1820925 0.35648224 0.33218348
-0.14778323 -0.08554432 0.3985074 0.29412824 0.35534117 -0.09276455 0.12819703 -0.20380801
0.21873549 -0.27996424 0.41751787 -0.1556041 0.19257952 0.3511283 -0.1715874 0.2734408
-0.24636325 0.14836098 0.33526736 -0.019637467 -0.095219225 -0.08256774 0.32832608 0.04045862
0.1650143 0.3832787 0.04450823 -0.17565194 0.2276741 0.11181286 0.45968232 0.33944795
0.034117524 -0.12531579 0.16660625 -0.11827029 0.26097795 0.19772884 0.3439273 0.2160622
-0.050274964 -0.3853171 -0.23641123 0.4393149 0.15607625 -0.20554645 0.41989592 -0.44149897
0.3099777 0.4217052 -0.0067708003 0.14886117 0.42668635 -0.027502563 -0.16508515 0.17151515
0.10795445 -0.08158179 -0.13535838 0.52812576 0.096008725 -0.16537185 0.30046916 0.13576561
00000000: 2e86 ac3e d17a 3dbc 4e53 753d 0a6a d93d
00000010: dc9b 193e d099 013e 24b3 253c 3287 603e
00000020: 6ee5 10bd 0c24 023e 5fd6 4dbe 3253 ca3e
00000030: c153 9c3d 15e3 a83e 98a9 50be ee5f a6bd
00000040: ae92 9abd 32e6 e93d cb61 723e 93f6 e83e
00000050: 2566 cabd fb12 c5bd 7a59 8dbc 8332 74be
00000060: a956 a33e 902e 5fbc 0ceb 143e 4489 35bd
00000070: 6fa3 d93e 5476 5dbe 5a40 7d3d 835e 863e
00000080: 3730 c13e 74ea df3e 0ff8 e53e 87dd 29be
00000090: e986 d43d 9f93 0fbe 78b1 bc3e 9421 b33e
000000a0: 5a22 b23c 6e88 9c3e 1eee aa3e c8ac 6b3e
000000b0: 544d 193e d45f 153e 8ff6 983d c345 3c3e
000000c0: 52aa 393c 4f2d 2fbe 6cf9 503e b46b afbe
000000d0: d16d 913e d11a e23e e3ad 8f3e dc37 ac3e
000000e0: 01f3 013d 2428 cd3e 5953 4e3e 554e 5abe
000000f0: 0884 dcbd 891b 7a3c 3d77 643e 7c56 15be
00000100: d4f2 4a3d 7211 893e 0345 063f 6b52 813e
00000110: 28a6 323d 8401 d23c 05bb a83d dc63 e5bd
00000120: 8b7c 03be e8cb 1bbe e8e7 c2bd 57f2 a33e
00000130: 86a8 2fbd 4f74 30bd c9be 43be cecc 6d3d
00000140: 1d56 77be e4f1 86be ba0a 383e 803c b63c
00000150: 4905 fe3d 5fbb 0cbd 6051 01bd e78d af3d
00000160: 05e8 cfbd 2ca7 95bc c091 e5bd 5f03 ee3e
00000170: 91f4 8d3b 7c82 983e 33c3 963e 2ae0 a73d
00000180: 2017 133e 7778 02bc dfbb ba3e 2022 e33e
00000190: 014e 673e e77f ce3e 4a37 38be 6dd1 003f
000001a0: 6ce5 b83d 9c86 9f3e db77 c1bd f19e 2b3e
000001b0: 8a81 813e 4949 71be 591a 773e 7e6a 1e3d
000001c0: 30f9 a43e ab90 f33c 5211 5d3d 3bea 403e
000001d0: e9a0 81be 172f ffbd faa4 f3ba 7fff 6fbe
000001e0: 8968 58be 51b2 5ebe d095 1b3e 5eb1 49be
000001f0: b3d6 643d 0594 8dbb b284 abbd 0122 05be
00000200: 9362 8e3d ff9f 1a3e 7b68 9abd e84b da3e
00000210: ac1a 65be 06e9 9f3c 118d c6bd 0eab f33e
00000220: 442c 96bd 0811 b03e 44b6 133d a5d1 aa3e
00000230: 0457 083d 5a95 0ebe b395 9ebd ff36 983e
00000240: 4868 c73e baf2 43bd fd06 7b3b aea5 cebd
00000250: c528 013d 73b0 133d ae23 5a3e 58fb 58be
00000260: 8923 723d 1835 21ba 5f57 42be 02ca 153e
00000270: 0134 ed3d 3f1c 51be bd14 18be f067 f73c
00000280: 27ff ccba f896 873c d404 d53d 9f5e 313e
00000290: e685 74be a7f7 92bd 6c04 6a3e 8683 993d
000002a0: 94bf e63d dd2b 93be 580f 3a3d 5d43 c1bb
000002b0: bd61 5bbe be67 3b3e 35e6 963d 4d05 7ebe
000002c0: 7477 8e3e 1451 5ebe fe32 85bb b4c1 d0bd
000002d0: 01cc 873e e82d fdbd 202b ff3e 7a12 993e
000002e0: 6b82 babc a2d5 39be 6639 853c 86ec e9bd
000002f0: 52f9 9e3e 7576 3a3e d784 b63e f413 aa3e
00000300: 7d54 17be dc31 afbd 2909 cc3e fa97 963e
00000310: 47ef b53e 57fb bdbd 1546 033e 0cb3 50be
00000320: 32fc 5f3e 7957 8fbe e7c4 d53e ae56 1fbe
00000330: 9133 453e 17c7 b33e 9bb4 2fbe 6f00 8c3e
00000340: a646 7cbe f1eb 173e 2aa8 ab3e c1de a0bc
00000350: 4c02 c3bd 4619 a9bd 5b1a a83e f0b7 253d
00000360: 82f9 283e 1b3d c43e 434e 363d 1ade 33be
00000370: 6623 693e 24fe e43d 7b5b eb3e 1fcc ad3e
00000380: d1be 0b3d c852 00be d49a 2a3e b237 f2bd
00000390: e79e 853e 6e79 4a3e 3d17 b03e 693f 5d3e
000003a0: 1fed 4dbd 4848 c5be c915 72be e2ed e03e
000003b0: 74d2 1f3e c57a 52be 99fc d63e 270c e2be
000003c0: 66b5 9e3e bee9 d73e 97dd ddbb 106f 183e
000003d0: a276 da3e 0e4d e1bc 150c 29be aba1 2f3e
000003e0: 3917 dd3d 5a14 a7bd 639b 0abe 4033 073f
000003f0: 39a0 c43d 3d57 29be 18d7 993e 2406 0b3e

layer_2.weight f4 [300, 400]
0.030242126 0.010437423 -0.056151476 -0.06560903 0.020454252 0.03296364 -0.12044689 -0.09451531
0.046834145 0.02189449 0.029508868 0.031987578 -0.013675741 -0.021894354 -0.16268013 -0.09582062
-0.123055294 -0.045561064 0.08823476 -0.2035581 -0.07185366 0.016914766 -0.12467502 -0.03719657
-0.09671754 0.03232291 -0.014366077 -0.038846746 -0.053539813 -0.096678525 -0.0069720233 0.060903974
0.044741727 -0.084058344 -0.08448897 0.006691331 0.119062975 0.051450007 -0.04786369 0.06212593
-0.12808405 0.019730024 -0.01319729 0.008790744 -0.047892362 -0.03875768 0.120584585 -0.007844012
-0.08057522 0.18730626 0.019590674 -0.0917161 0.045189787 -0.017927617 -0.10267309 0.0782472
0.023002116 -0.1252139 0.018590616 -0.042818442 0.052850794 0.0029254954 -0.11175923 0.10553998
0.01486935 -0.029589586 -0.109230764 -0.023862632 -0.054140236 -0.0334667 0.063950665 -0.046256535
-0.09031747 0.039401308 0.013860553 0.08186121 -0.017373329 0.07598056 0.018618641 -0.10065075
-0.003132005 -0.033908 0.08981875 0.009261031 -0.031758092 -0.12315969 0.13807917 -0.23508811
-0.06313069 0.017445099 0.014009717 0.0482312 0.027537689 0.135233 -7.35856e-05 -0.027432548
-0.057385035 -0.1582575 -0.13192573 -0.03759493 -0.06760139 -0.13751402 0.026601935 0.08602905
0.016309004 0.07249319 -0.08366319 0.07813136 0.00807464 0.017650614 -0.0565742 -0.029647617
-0.11719084 0.09791779 0.0364812 0.0127797015 -0.024559 0.119148366 0.04281767 0.076019436
-0.11678777 -0.016432367 -0.0046090474 0.018335499 -0.016455824 0.04821816 0.101338066 0.012002511
0.018486846 -0.02125188 -0.017844653 0.046147212 0.021713901 -0.034670424 -0.06361706 -0.09950193
-0.093749344 -0.13199294 0.060245648 0.0031017847 -0.026280895 -0.013513634 0.035823293 -0.06265214
0.024533266 -0.057505555 -0.031872287 0.047651555 0.0009971738 -0.081148885 0.0072850185 -0.0031526985
0.128477 -0.06871433 -0.08033014 0.023843111 0.020002568 -0.087256834 0.04401414 0.13878247
0.07106809 0.011119836 0.00027360517 0.14899516 -0.015942879 -0.047819115 0.021833431 0.07762729
-0.043730434 0.056214605 -0.08035836 0.03805231 0.043465864 0.02760079 -0.043545797 -0.02977636
-0.028365856 -0.118315905 0.019184982 -0.011268741 -0.029575925 -0.039379045 -0.1020416 -0.09566771
-0.020252865 -0.051875636 -0.057787463 -0.0071139773 0.022093441 -0.008663474 -0.11391761 0.03180376
-0.16998246 -0.12882353 0.029704198 0.036927145 -0.06401292 0.09896175 0.026051609 -0.0046396293
-0.08124834 0.04959567 0.0048245112 0.11578057 -0.055298645 -0.035654597 0.077782676 0.033155948
0.071079694 0.030670192 -0.020960769 0.07245016 0.05328861 0.11060055 0.045776702 -0.0627799
-0.021304006 -0.15544796 -0.06958019 -0.0039223055 -0.05173875 -0.13863629 -0.044818982 0.1817553
0.04370702 0.014119779 -0.043137625 0.003248832 0.040175837 0.014054311 0.057199504 -0.09896503
0.08401575 -0.004991193 -0.06211116 0.17674023 0.023286434 -0.03687479 -0.006051898 0.09956761
-0.041923523 0.018013334 -0.06265259 -0.12289876 0.015508668 -0.08577971 0.066569686 0.07452812
0.13051058 -0.054741636 0.013197274 -0.15963377 -0.05686334 -0.12293029 -0.020521183 0.045623064
00000000: 56be f73c ba01 2b3c 17ff 65bd 075e 86bd
00000010: ad8f a73c e204 073d dcac f6bd 3e91 c1bd
00000020: 29d5 3f3d 135c b33c 95bc f13c 6805 033d
00000030: 3710 60bc ca5b b3bc 9f95 26be 9a3d c4bd
00000040: 6a04 fcbd 3d9e 3abd 6db4 b43d 8971 50be
00000050: 0328 93bd d690 8a3c 9e55 ffbd 6e5b 18bd
00000060: d813 c6bd 0765 043d b25f 6bbc c41d 1fbd
00000070: 904c 5bbd 64ff c5bd 9275 e4bb 7276 793d
00000080: 1a43 373d c826 acbd 8e08 adbd f442 db3b
00000090: 4ad7 f33d 3ebd 523d b70c 44bd c277 7e3d
000000a0: 7728 03be dca0 a13c 7239 58bc 0d07 103c
000000b0: c82a 44bd 60c0 1ebd 0df5 f63d 2c84 00bc
000000c0: 9f04 a5bd 36cd 3f3e 9f7c a03c a7d5 bbbd
000000d0: ed18 393d f0dc 92bc 4546 d2bd 1140 a03d
000000e0: ef6e bc3c 1338 00be 594b 983c 6462 2fbd
000000f0: 137a 583d abb9 3f3b 06e2 e4bd 5825 d83d
00000100: 939e 733c dc65 f2bc 61b4 dfbd 917b c3bc
00000110: 27c2 5dbd 6114 09bd 91f8 823d 7e77 3dbd
00000120: 5ef8 b8bd 4463 213d 5f17 633c daa6 a73d
00000130: 8352 8ebc b29b 9b3d 1f86 983c fb21 cebd
00000140: 5342 4dbb 1de3 0abd e5f2 b73d 94bb 173c
00000150: c614 02bd 263b fcbd a064 0d3e f0ba 70be
00000160: aa4a 81bd 06e9 8e3c 0389 653c 148e 453d
00000170: b896 e13c 857a 0a3e f851 9ab8 39ba e0bc
00000180: 920c 6bbd 410e 22be 8a17 07be 24fd 19bd
00000190: 9972 8abd 7ad0 0cbe 4dec d93c 0030 b03d
000001a0: 769a 853c 4f77 943d 9b57 abbd 5603 a03d
000001b0: 7f4b 043c 0598 903c 59ba 67bd 8fdf f2bc
000001c0: c001 f0bd 1f89 c83d 506d 153d f461 513c
000001d0: f52f c9bc 0f04 f43d 9561 2f3d 14b0 9b3d
000001e0: 6d2e efbd 2c9d 86bc 7e07 97bb 5434 963c
000001f0: 5dce 86bc 6880 453d 558a cf3d 2ea6 443c
00000200: ba71 973c 6c18 aebc f32e 92bc dc04 3d3d
00000210: 5ae1 b13c 9302 0ebd a949 82bd abc7 cbbd
00000220: a8ff bfbd 2829 07be 24c4 763d 5047 4b3b
00000230: 084b d7bc 4a68 5dbc 72bb 123d c44f 80bd
00000240: fdf9 c83c f28a 6bbd 848c 02bd 472e 433d
00000250: 9ab3 823a 6331 a6bd 2ab7 ee3b 819d 4ebb
00000260: 7a8f 033e 19ba 8cbd 2184 a4bd a152 c33c
00000270: 6ddc a33c b6b3 b2bd 2c48 343d fe1c 0e3e
00000280: 268c 913d f92f 363c aa72 8f39 3092 183e
00000290: a49a 82bc fadd 43bd 06dc b23c 0efb 9e3d
000002a0: af1e 33bd 4941 663d ed92 a4bd bddc 1b3d
000002b0: 4309 323d 0d1b e23c 145d 32bd 8eed f3bc
000002c0: 835f e8bc 9c4f f2bd d329 9d3c 87a0 38bc
000002d0: 3649 f2bc ec4b 21bd 30fb d0bd 6fed c3bd
000002e0: 56e9 a5bc 8c7b 54bd 8cb2 6cbd 5e1c e9bb
000002f0: 4efd b43c 3ef1 0dbc a34d e9bd a944 023d
00000300: e20f 2ebe 51ea 03be 3856 f33c eb40 173d
00000310: 3519 83bd 75ac ca3d 2f6a d53c 0808 98bb
00000320: 8865 a6bd d424 4b3d ef16 9e3b 5d1e ed3d
00000330: d580 62bd 8e0a 12bd 864c 9f3d 88ce 073d
00000340: 3b92 913d 0e40 fb3c ebb5 abbc c060 943d
00000350: 2845 5a3d 8b82 e23d 5a80 3b3d c092 80bd
00000360: bd85 aebc c02d 1fbe 0f80 8ebd af86 80bb
00000370: 03ec 53bd acf6 0dbe 1c94 37bd 101e 3a3e
00000380: 2206 333d a556 673c 14b1 30bd 5bea 543b
00000390: 6b8f 243d 0e44 663c 074a 6a3d 2dae cabd
000003a0: 7310 ac3d 298d a3bb 4668 7ebd 64fb 343e
000003b0: 31c3 be3c 050a 17bd 004f c6bb 1aea cb3d
000003c0: 00b8 2bbd b390 933c 0050 80bd 58b2 fbbd
000003d0: 1118 7e3c 46ad afbd b055 883d 33a2 983d
000003e0: 91a4 053e c438 60bd 6139 583c 0977 23be
000003f0: 89e9 68bd e0c2 fbbd 0a1c a8bc 40df 3a3d

layer_2.bias f4 [300]
-0.026513388 -0.021920383 -0.052253086 0.083487645 -0.10790832 -0.16384764 -0.25447744 -0.090969436
-0.030532261 0.12253003 -0.042467453 0.022420598 0.076787926 0.07155224 -0.035328735 -0.08578774
-0.07371737 0.15711348 0.007542395 -0.2591228 0.021812145 0.016906293 0.022424081 0.028977484
-0.1405376 -0.030747376 -0.10777088 -0.08057807 0.08878464 0.025941575 0.061356165 -0.1414726
-0.10452855 0.11452775 0.057937637 -0.08967331 -0.081404865 0.008827817 0.06440447 -0.016193839
-0.07777733 -0.07971428 0.064689025 -0.10729956 0.086289376 0.083288394 -0.077673 0.15229405
0.03320657 0.033730537 -0.06834193 -0.012704376 0.034814816 -0.09229335 0.013077386 0.016277349
-0.036765616 0.087350175 -0.14830084 0.079292476 -0.04437751 0.034342922 0.08715839 -0.10577506
0.004943488 -0.087960176 0.03026735 -0.24766763 -0.053928427 -0.07881586 -0.103908956 -0.10567317
-0.092400454 0.059440155 0.038302526 0.07812545 -0.009655017 -0.1741707 0.0054786447 0.058076717
-0.12887427 -0.010292792 0.07198826 0.03444645 0.09393344 0.06635388 0.014396674 0.038059093
-0.18784964 -0.010000325 -0.22545463 -0.04680416 0.02489179 0.11899364 0.068578035 0.09618648
-0.13595697 -0.042258557 0.099875934 0.04555678 -0.051251933 0.023254057 0.09134936 -0.07920622
0.087311946 -0.044633847 0.0041549494 0.055973295 -0.107742324 -0.13654678 -0.06066272 -0.20832963
-0.0031429806 -0.13045567 0.040099446 -0.074226186 -0.0004908228 0.0601464 0.020384109 -0.011808084
0.046969432 0.13681017 0.025187746 0.0021346842 0.010537994 -0.04402348 -0.025477245 0.03500528
0.10080028 0.019840606 0.034736216 0.034511507 0.003247502 -0.16692033 0.01054687 0.027848335
-0.080617346 0.015696421 0.05806839 -0.028395781 -0.028272714 -0.016107727 0.08608317 0.033064786
-0.05397206 -0.040515006 0.041102916 0.11375902 0.10721687 0.0032652214 0.12877196 -0.10720773
-0.07442704 0.10752008 -0.045436837 -0.07366738 0.051288854 0.036218844 0.14271845 0.019037796
0.0025214376 0.115476534 0.10207182 0.19107458 -0.064754024 -0.12395759 -0.13247314 0.0051812986
0.036585327 0.09207247 -0.0882097 0.11530401 0.12453221 0.039871328 -0.06599832 0.047450904
-0.18374227 -0.084297225 0.16646372 0.10236733 0.02736983 -0.06810748 -0.15336542 -0.055846535
-0.34140012 -0.11842636 0.019108323 0.13584124 -0.085430555 -0.007767082 0.014394878 0.010166188
-0.324565 0.001956321 0.045239765 0.11460156 -0.10457564 0.044634152 0.047728404 -0.01569222
0.044846278 0.05221311 0.025897201 -0.03902311 0.1211269 0.016000114 -0.16507979 0.032476857
0.13348505 -0.039634693 0.03940224 -0.07014095 0.0202154 0.041692488 -0.047984168 0.08037659
0.032363407 0.052114677 0.10269609 0.044599187 0.063853994 -0.13755997 0.016526556 -0.040890172
0.08533731 0.015316567 0.08837963 0.06709678 -0.046511386 0.10586179 0.025671225 -0.027268274
-0.04118389 0.07669914 0.08412384 0.16764769 0.08836236 0.20796312 -0.038232315 0.106936626
0.08921341 0.032023266 0.025154991 0.14731675 0.04736545 0.028200967 0.05664379 -0.035294324
-0.08312034 0.08207803 0.04874855 0.06599772 -0.19299628 0.06359169 0.03197251 -0.048709054
00000000: 9b32 d9bc 6092 b3bc 5507 56bd 92fb aa3d
00000010: 0aff dcbd adc7 27be de4a 82be 2f4e babd
00000020: cb1e fabc 06f1 fa3d 5af2 2dbd 67ab b73c
00000030: fd42 9d3d fb89 923d ddb4 10bd 7cb1 afbd
00000040: 22f9 96bd 5be2 203e 3226 f73b beab 84be
00000050: 62af b23c 117f 8a3c b5b2 b73c 3062 ed3c
00000060: 17e9 0fbe ece1 fbbc fbb6 dcbd 1d06 a5bd
00000070: b9d4 b53d 6d83 d43c 9a50 7b3d 31de 10be
00000080: 1013 d6bd 868d ea3d 0450 6d3d a4a6 b7bd
00000090: 98b7 a6bd 8ca2 103c 7ee6 833d f1a8 84bc
000000a0: b949 9fbd 3e41 a3bd ae7b 843d dfbf dbbd
000000b0: 7cb8 b03d 1b93 aa3d 0613 9fbd f9f2 1b3e
000000c0: 9d03 083d 0829 0a3d dbf6 8bbd 0426 50bc
000000d0: fb99 0e3d 4c04 bdbd 8842 563c 1358 853c
000000e0: 8b97 16bd a6e4 b23d 2ddc 17be 1864 a23d
000000f0: 31c5 35bd 2aab 0c3d 1980 b23d 98a0 d8bd
00000100: fcfc a13b 7724 b4bd 3cf3 f73c 959c 7dbe
00000110: 0ee4 5cbd 366a a1bd 38ce d4bd 2d6b d8bd
00000120: 733c bdbd 8577 733d 1ce3 1c3d 3c00 a03d
00000130: 1430 1ebc ce59 32be 3486 b33b dae1 6d3d
00000140: 9ef7 03be 19a3 28bc 956e 933d b917 0d3d
00000150: 2d60 c03d 8be4 873d 07e0 6b3c dae3 1b3d
00000160: a85b 40be 67d8 23bc 94dd 66be b8b5 3fbd
00000170: dee9 cb3c f0b2 f33d a472 8c3d 6bfd c43d
00000180: 4e38 0bbe 4f17 2dbd c18b cc3d bf99 3a3d
00000190: 8ced 51bd 4b7f be3c 6015 bb3d df36 a2bd
000001a0: 9bd0 b23d fbd1 36bd 3e26 883b 4144 653d
000001b0: 02a8 dcbd ebd2 0bbe 7979 78bd 5d54 55be
000001c0: 77fa 4dbb 2c96 05be 513f 243d e603 98bd
000001d0: 8faa 00ba 125c 763d 93fc a63c b276 41bc
000001e0: 0563 403d f717 0c3e 8856 ce3c 0fe6 0b3b
000001f0: 8da7 2c3c f751 34bd a8b5 d0bc b261 0f3d
00000200: 6170 ce3d c488 a23c 9047 0e3d f05b 0d3d
00000210: 0bd4 543b 2aed 2abe c7cc 2c3c 3122 e43c
00000220: b51a a5bd c895 803c 1fd9 6d3d 459e e8bc
00000230: 2e9c e7bc 5af4 83bc 5f4c b03d f16e 073d
00000240: cf11 5dbd 10f3 25bd 885b 283d 7dfa e83d
00000250: 8594 db3d 53fd 553b ccdc 033e ba8f dbbd
00000260: 346d 98bd 7d33 dc3d fa1b 3abd ecde 96bd
00000270: 4314 523d 365a 143d c924 123e 27f5 9b3c
00000280: b43e 253b f67e ec3d 080b d13d 0ea9 433e
00000290: c29d 84bd 7add fdbd 0aa7 07be e2c7 a93b
000002a0: 7fda 153d 7e90 bc3d 4aa7 b4bd 8224 ec3d
000002b0: be0a ff3d 1e50 233d 212a 87bd e15b 423d
000002c0: ef26 3cbe 06a4 acbd 7775 2a3e f6a5 d13d
000002d0: b236 e03c ef7b 8bbd d30b 1dbe 56bf 64bd
000002e0: ffcb aebe 8589 f2bd 0f89 9c3c f719 0b3e
000002f0: 37f6 aebd 0283 febb 7fd8 6b3c 1590 263c
00000300: 622d a6be 9f35 003b 554d 393d 39b4 ea3d
00000310: c12b d6bd 4dd2 363d dc7e 433d f88c 80bc
00000320: bbb0 373d 6add 553d 5e26 d43c b2d6 1fbd
00000330: 6111 f83d ac12 833c ad0a 29be 7406 053d
00000340: 4eb0 083e fd57 22bd 3e64 213d 0fa6 8fbd
00000350: c49a a53c bec5 2a3d 0c8b 44bd 7b9c a43d
00000360: 7e8f 043d 3376 553d 5452 d23d a3ad 363d
00000370: e2c5 823d 85dc 0cbe b362 873c 747c 27bd
00000380: 54c5 ae3d 57f2 7a3c 6100 b53d 096a 893d
00000390: b982 3ebd 11ce d83d 764c d23c b761 dfbc
000003a0: 70b0 28bd 7014 9d3d 1f49 ac3d d6ab 2b3e
000003b0: 53f7 b43d 49f4 543e 7d99 1cbd 9701 db3d
000003c0: 85b5 b63d d42a 033d d711 ce3c 34da 163e
000003d0: 4602 423d b705 e73c 5203 683d c890 10bd
000003e0: ff3a aabd 8718 a83d 8fac 473d d029 873d
000003f0: d1a0 45be 5c3c 823d 9bf5 023d 2583 47bd

layer_3.weight f4 [6, 300]
-0.113426276 -0.13091922 0.01924472 -0.06719701 -0.13325791 0.37317348 -0.013021269 0.041484088
-0.038534146 0.09843905 0.39425942 -0.20978273 0.030353645 0.114122756 -0.13456672 0.31673917
-0.08317781 0.20020281 -0.20610583 0.39002842 0.15821563 0.0051501687 0.015890313 -0.09719693
0.31531835 -0.08158951 0.12168176 -0.10305683 0.02475906 -0.2421225 -0.009896941 -0.034649685
0.11733573 0.04314197 0.037003577 0.49007103 0.10921598 0.039775115 -0.08438822 -0.087037176
-0.0568601 -0.08838111 -0.12323914 -0.08254811 0.087618776 0.0042120526 -0.06063157 -0.1890676
0.14064142 0.05064068 0.21231121 -0.18712445 0.00089544937 -0.13566457 0.0173622 0.102249905
-0.062452115 0.13154437 0.058349635 -0.2535875 -0.08284033 0.1490178 0.07333735 0.082588136
-0.06318285 -0.14608236 0.016752888 0.28347272 0.04851943 -0.01749855 -0.0053513823 0.31465593
-0.071063764 -0.059882797 0.024113042 0.015134011 -0.0112230545 -0.08243978 0.046178874 0.17712562
0.033824645 0.03505513 0.0017932025 0.02513349 -0.036384065 -0.038201876 -0.1171872 -0.05070585
-0.0802675 -0.049152993 -0.196534 0.17501009 0.13985054 -0.040369328 0.018020876 0.11584285
-0.4920629 -0.14635295 0.081754066 0.0014860459 0.2887153 -0.0738451 0.014077255 -0.060255807
0.07363155 0.3896485 0.18788424 -0.04306074 0.28953716 -0.25002527 -0.1016875 -0.0024114114
0.06004531 0.25929707 -0.113192014 0.118631214 -0.10841054 0.012309135 0.014057775 -0.023868518
-0.08501301 0.07505646 -0.09893756 0.10759038 -0.05446726 -0.14710653 -0.04912675 -0.009041887
-0.04719117 -0.018632839 -0.19927281 0.04095832 -0.07535081 -0.15205395 0.059386548 -0.044580474
-0.036922164 0.104084 -0.03583624 0.4655191 -0.07782033 -0.04043186 0.0693669 0.038520332
-0.00498321 -0.030741187 0.10892809 0.19234093 0.036448184 -0.09053665 0.0015375074 -0.09707742
-0.078347184 0.046772078 -0.036895152 -0.025992738 -0.09345459 -0.020713393 -0.054530036 0.34852877
0.06514703 -0.08441153 0.02135958 0.024353418 -0.028970145 -0.04094886 -0.06312039 -0.07856829
0.042989854 0.013398088 -0.06338126 -0.008022157 0.41861174 0.08633804 -0.21958959 0.095294945
-0.14777814 -0.0690931 0.15487102 0.108150885 0.3032591 -0.0990225 0.18259332 -0.24090198
0.37217987 0.09136378 0.25515994 0.05852605 -0.016720401 0.058800258 -0.06577585 0.073849045
-0.32205188 -0.07081448 -0.11344032 0.054600216 0.08159307 -0.047573075 -0.1930236 -0.012244905
0.00070288085 0.023128701 0.009731118 -0.029846624 -0.015896512 0.068119444 -0.12341673 0.029548477
-0.09431837 0.17611365 -0.094068184 -0.096901715 0.058353044 0.14294237 -0.22907883 0.099398986
0.0008326426 0.028615734 -0.1875673 0.028600667 0.048847377 0.054447703 -0.0784963 0.14553441
-0.04426156 -0.04876192 0.031789254 -0.20106111 0.14714469 -0.05002215 0.007825988 -0.10073646
-0.09729141 -0.05122031 0.08510544 0.07866387 0.0036920197 0.061980974 -0.049093522 -0.08171022
0.14986911 0.03662979 0.07290322 0.106999196 -0.106970534 0.15731563 -0.21394785 0.03766413
0.5479087 0.36755702 0.06885735 0.041744474 0.102607496 0.15123355 -0.02722072 -0.06253395
00000000: 094c e8bd b00f 06be 1aa7 9d3c 969e 89bd
00000010: c374 08be 9810 bf3e 2957 55bc 38eb 293d
00000020: fbd5 1dbd 6a9a c93d 5fdc c93e 49d1 56be
00000030: 35a8 f83c 31b9 e93d dccb 09be a32b a23e
00000040: 2159 aabd f701 4d3e 680d 53be ceb1 c73e
00000050: 4703 223e bfc2 a83b 672c 823c 2f0f c7bd
00000060: 6871 a13e 6718 a7bd 4934 f93d 760f d3bd
00000070: 83d3 ca3c f6ee 77be c726 22bc d4ec 0dbd
00000080: b74d f03d a2b5 303d 1091 173d 97ea fa3e
00000090: a1ac df3d 3beb 223d bbd3 acbd 8c40 b2bd
000000a0: 23e6 68bd 2801 b5bd cd64 fcbd fc0e a9bd
000000b0: 7971 b33d 4205 8a3b cf58 78bd f09a 41be
000000c0: 4e04 103e 9a6c 4f3d 1c68 593e 8d9d 3fbe
000000d0: 97bc 6a3a a7eb 0abe 2c3b 8e3c 6668 d13d
000000e0: cacd 7fbd 91b3 063e 0700 6f3d 39d6 81be
000000f0: 31a8 a9bd 1f98 183e e431 963d f823 a93d
00000100: 0366 81bd 9d96 15be 5a3d 893c 5623 913e
00000110: 4fbc 463d 1e59 8fbc a65a afbb 951a a13e
00000120: e189 91bd aa47 75bd b788 c53c a5f4 773c
00000130: e7e0 37bc 30d6 a8bd 0f26 3d3d 6b60 353e
00000140: b68b 0a3d f895 0f3d e409 eb3a c0e4 cd3c
00000150: 7507 15bd 9279 1cbd d8ff efbd f0b0 4fbd
00000160: 4963 a4bd a654 49bd 3540 49be d835 333e
00000170: fb34 0f3e 4f5a 25bd 84a0 933c 043f ed3d
00000180: abef fbbe 8cdd 15be ad6e a73d 6dc7 c23a
00000190: 7ed2 933e 1a3c 97bd 49a4 663c cbce 76bd
000001a0: 23cc 963d 0280 c73e ba64 403e 7560 30bd
000001b0: 373e 943e 5003 80be 8941 d0bd c508 1ebb
000001c0: 12f2 753d 96c2 843e 37d1 e7bd ecf4 f23d
000001d0: 5806 debd 41ac 493c 9552 663c e987 c3bc
000001e0: 4d1b aebd 34b7 993d c79f cabd 5858 dc3d
000001f0: 1019 5fbd 18a3 16be 2239 49bd 6c24 14bc
00000200: 874b 41bd e5a3 98bc 2c0e 4cbe e9c3 273d
00000210: 8751 9abd 08b4 1bbe 4f3f 733d 049a 36bd
00000220: b23b 17bd fe29 d53d 05c9 12bd 8558 ee3e
00000230: 4460 9fbd e19b 25bd 3c10 8e3d 7fc7 1d3d
00000240: 324a a3bb f1d4 fbbc b115 df3d 05f5 443e
00000250: b14a 153d 476b b9bd 3086 c93a 87d0 c6bd
00000260: 7d74 a0bd 1494 3f3d 5f1f 17bd b9ee d4bc
00000270: 1f65 bfbd 22af a9bc e35a 5fbd 5d72 b23e
00000280: ce6b 853d f4df acbd 49fa ae3c d280 c73c
00000290: cc52 edbc feb9 27bd 4345 81bd 69e8 a0bd
000002a0: 2116 303d a783 5b3c 09ce 81bd 5d6f 03bc
000002b0: 4754 d63e 00d2 b03d 18dc 60be ff29 c33d
000002c0: 2753 17be af80 8dbd 8296 1e3e 367e dd3d
000002d0: c744 9b3e 4fcc cabd bef9 3a3e 02af 76be
000002e0: 5c8e be3e ef1c bb3d 53a4 823e 03b9 6f3d
000002f0: 39f9 88bc 8ad8 703d 7db5 86bd 2b3e 973d
00000300: fce3 a4be 2f07 91bd 6653 e8bd 7aa4 5f3d
00000310: 441a a73d fcdb 42bd fba7 45be db9e 48bc
00000320: 8941 383a 6778 bd3c 446f 1f3c e880 f4bc
00000330: 6739 82bc 3582 8b3d e9c1 fcbd a60f f23c
00000340: fd29 c1bd 2357 343e d2a6 c0bd 6874 c6bd
00000350: 9a03 6f3d 7c5f 123e a493 6abe b291 cb3d
00000360: b345 5a3a 8b6b ea3c a411 40be f24b ea3c
00000370: 3014 483d 8e04 5f3d abc2 a0bd f906 153e
00000380: 9c4b 35bd 94ba 47bd 7335 023d f7e2 4dbe
00000390: 19ad 163e 07e4 4cbd 9338 003c eb4e cebd
000003a0: b840 c7bd 63cc 51bd c34b ae3d 861a a13d
000003b0: d0f5 713b c3df 7d3d 4a16 49bd b057 a7bd
000003c0: 4a77 193e 1e09 163d 494e 953d 6522 db3d
000003d0: 5e13 dbbd 5917 213e 2515 5bbe b445 1a3d
000003e0: bf43 0c3f 6f30 bc3e 1505 8d3d 41fc 2a3d
000003f0: e123 d23d f8dc 1a3e fdfd debc cd11 80bd

layer_3.bias f4 [6]
0.022453958 -0.049899027 0.05172471 -0.053123172 0.09208774 -0.044390224
00000000: 5df1 b73c ec62 4cbd 4add 533d af97 59bd
00000010: 7f98 bc3d 86d2 35bd
