pytorch_models_dynaPhysics/TD3_walker_stand_0174_actor.pth (torch, 521680 bytes, 6 tensors)

layer_1.weight f4 [400, 18]
000000 55 9e a8 be 45 d7 29 3c 33 cb da be 66 a8 cc bd
       -0.32933298 0.010366266 -0.42733154 -0.09993057
000010 7f 95 95 bd f6 cc 31 bd 31 66 bc 3d 90 22 b5 3e
       -0.07303905 -0.043408357 0.09199179 0.35377932
000020 e9 16 8e 3d c9 6d 29 bd b8 dc 39 bd 29 49 6c bd
       0.069379635 -0.041364465 -0.04537651 -0.05768696
000030 df 4d 78 be b5 25 13 be 8f ff 85 bd 7b 52 20 3c
       -0.24248455 -0.14369853 -0.065428846 0.00978529
000040 c3 36 b2 3d 7a a0 f7 3d 73 08 98 be 7c 24 e7 bd
       0.08701851 0.12091155 -0.29693946 -0.11286256
000050 ee 52 3e 3e 9c 7c e7 3e 47 01 ab bd 8a 2a c0 3e
       0.18586323 0.45212257 -0.08349853 0.37532455
000060 67 4e 0a be 4d 21 4f 3e 51 aa 8c 3e 18 7b 56 be
       -0.1350647 0.20227547 0.2747369 -0.20945394
000070 96 9f 00 be 38 b7 e6 bd c5 69 ae bd f5 bd 47 3e
       -0.12560877 -0.11265415 -0.08516268 0.19506057
000080 61 9b 4b bd 4d b1 1a be 58 ea c5 bd a4 ac 72 be
       -0.049708728 -0.15106697 -0.09663838 -0.2369867
000090 f6 29 70 be d0 0f 41 3e 4a 96 55 3e 10 09 cf 3b
       -0.23453507 0.18853688 0.20858112 0.006318219
0000a0 f9 80 08 bd 94 e9 ea bd f9 0f c0 bd c1 ba d9 be
       -0.033326123 -0.11470333 -0.093780465 -0.42525294
0000b0 fd 75 11 bf 8f 0b 07 bf 71 83 91 3e 3d dc 24 3e
       -0.5682066 -0.5275201 0.28420594 0.16099639
0000c0 3e f4 07 be b8 ac 6d bb 81 9e c6 3c 61 0f 74 3e
       -0.13276765 -0.0036266278 0.024245502 0.23833992
0000d0 19 3f b2 3d fc 3c 8b 3d 8c 35 32 3e 38 60 ec be
       0.08703441 0.06798741 0.17403239 -0.4616716
0000e0 7a 08 86 3d 3e 01 d8 be d9 41 bd be 1a 6d 4b be
       0.065445855 -0.42188448 -0.369643 -0.19865838
0000f0 67 62 7f 3e 87 2d 98 3d fe ad 09 3e eb 34 95 3e
       0.24939881 0.07430559 0.13445279 0.29141936
000100 6f da 1a 3e 59 43 5d bd 68 8b b2 bc 86 e4 7d 3d
       0.15122388 -0.054019306 -0.02179499 0.061985515
000110 f2 78 0b 3e 6f df 24 3e 3c c6 3c be bf fc 9d bb
       0.13620356 0.16100858 -0.18434995 -0.0048213894
000120 42 97 3b 3e e2 5b 9f 3e 5e cd 71 3e 9c b9 b1 3e
       0.18319419 0.3112479 0.23613498 0.3471192
000130 2f 10 2d 3d 0c 57 f5 bd b6 49 ee bd 4d a2 d5 be
       0.042251762 -0.119794935 -0.11635153 -0.41725388
000140 a1 7d 86 be b1 23 5c 3e 4d 4d 80 3e a5 cb 94 be
       -0.26267722 0.2149799 0.25058976 -0.29061618
000150 d2 67 6c 3d 10 33 44 bd 90 7d e8 bc b7 62 0d be
       0.0577162 -0.04790026 -0.028380185 -0.13807188
000160 94 13 0b 3e 44 75 e4 bd a9 db 42 be 13 64 a7 3d
       0.13581687 -0.11155179 -0.19029106 0.081733845
000170 92 a2 30 3e 74 1f c9 3e e0 08 d5 be 8a 43 73 bd
       0.17249516 0.3928181 -0.41608334 -0.059390582
000180 a3 a7 d4 3d fc bf 83 bd e9 a8 ea 3d 52 7f 41 be
       0.10383537 -0.064331025 0.11457998 -0.18896225
000190 83 1e ba 3e 91 f8 2e 3e 68 25 f8 bd 07 13 04 be
       0.36351404 0.17087008 -0.1211651 -0.12897883
0001a0 a5 97 21 be 03 a1 b8 bc 39 b5 49 be 79 f7 28 be
       -0.15780504 -0.022537714 -0.19698037 -0.16500653
0001b0 32 5e a2 3e 4f fb 43 be 4b e1 bc be 3b ba a0 3d
       0.3171249 -0.19138835 -0.36890635 0.07848021
0001c0 49 05 31 be ca 00 c6 3e 69 b8 b0 3d 7b 06 88 be
       -0.17287172 0.38672477 0.086289234 -0.26567444
0001d0 26 dc 1a be 95 be bc bd e0 1d 45 3e 0b e5 4f 3d
       -0.15123042 -0.09216038 0.19249678 0.05075554
0001e0 57 b8 b0 3d 55 6f ae 39 87 1a 55 bd 4f ac fe 3d
       0.0862891 0.00033270815 -0.05202725 0.12435209
0001f0 f9 3c 70 be 6f 62 05 be fa e4 a2 be fb af 8d be
       -0.23460759 -0.1302583 -0.3181532 -0.27673325
000200 82 29 fe 3d c2 9c 3f be 19 89 d5 bd b2 a3 43 be
       0.12410261 -0.18712142 -0.1042654 -0.19105414
000210 97 b1 80 3d f3 10 8c be fe 00 23 3e 33 4e 1a be
       0.062838726 -0.2735668 0.15918347 -0.15068893
000220 d8 a6 14 bd 7c 5a f4 bd 79 41 77 bc 9e a6 03 3e
       -0.036291927 -0.11931321 -0.0150912935 0.12856528
000230 2f 63 61 3e 61 02 17 3e 6e 25 71 3e fb 94 8d bb
       0.22010492 0.14747001 0.23549435 -0.0043207384
000240 ee 88 f2 be a1 d9 8f bd 24 c8 9b 3e 32 02 cc 3c
       -0.47370094 -0.07023931 0.30426133 0.02490339
000250 69 b8 e9 be f6 83 1a bd 4f 10 ff be ba d3 62 be
       -0.45648506 -0.037723504 -0.4981713 -0.2215108
000260 f3 f3 97 3e 4a 22 72 bd 03 42 82 3d 4d 01 95 be
       0.29678306 -0.05911473 0.06360247 -0.29102555
000270 04 0b 04 3e 5d df 3a be ea 4a 86 bc 29 36 d8 bd
       0.12894827 -0.18249269 -0.016393144 -0.10557205
000280 d3 16 9b bd fd 6b 40 bb 9c af 0a bf ee a2 f0 bc
       -0.07572713 -0.002936124 -0.5417421 -0.029374566
000290 84 97 cb bd dd 3c 72 bd f0 b9 0a be 6c c9 0d be
       -0.09941009 -0.059140075 -0.13547492 -0.13846368
0002a0 9a bf 64 be 9a 00 29 be ee ab 0c 3f 0d a9 8e 3d
       -0.22338715 -0.16504136 0.54949844 0.06965838
0002b0 8a c4 b1 3e 2b a0 34 3e 92 8a 30 be 60 14 10 3e
       0.3472026 0.17639224 -0.1724036 0.14070272
0002c0 32 a9 f8 bc b3 fe 92 bd a9 8a 24 3e 7b 72 de bd
       -0.030354116 -0.07177486 0.1606852 -0.10861679
0002d0 d4 1e f4 3e 94 ef 56 be d0 8e a5 3e 6f 07 55 bd
       0.4767977 -0.2098983 0.3233552 -0.052009042
0002e0 c5 66 20 3e 67 df 61 3e 92 a4 91 3c cd 86 81 3d
       0.15664203 0.22057877 0.017778669 0.06324539
0002f0 4f f8 50 be 9c 2b a9 3e 31 06 80 3e 57 ba 41 3e
       -0.20407222 0.33041084 0.25004724 0.1891874
000300 87 18 44 be 88 f0 62 bc 9f 7b e9 bd 9b 12 48 be
       -0.19149981 -0.013851292 -0.11400532 -0.19538347
000310 57 50 1b be 5b 6a 9c 3d b6 4f 93 be ba 96 6c 3d
       -0.15167366 0.07637473 -0.28771752 0.05776093
000320 ae 58 3b 3e 01 93 5c 3d ea 1e 95 be cb 90 62 be
       0.18295547 0.05385113 -0.29125148 -0.22125547
000330 09 35 b6 be e2 04 c3 3e ac 66 20 be c3 62 d4 3e
       -0.35587338 0.38089663 -0.15664166 0.414816
000340 c0 f8 f9 bc b7 68 7f 3d d4 08 58 bc 2f 45 6e bb
       -0.030514121 0.062355723 -0.013185699 -0.0036357155
000350 e0 35 6b 39 67 f5 38 bd 87 b5 0b bd 16 e2 fa 3b
       0.00022431416 -0.04515591 -0.034108665 0.007656346
000360 f4 51 57 be 80 65 9e 3d d7 d2 cc 3e 9f a8 43 be
       -0.21027356 0.07734203 0.40004608 -0.19107293
000370 94 6b f9 3d 84 51 bc 3e f4 62 8f 3e 22 35 74 bc
       0.12178722 0.3678094 0.28005183 -0.014905246
000380 f6 3c 5b be 64 62 a2 3e 43 46 92 be 8b b7 a5 bd
       -0.21409974 0.3171569 -0.2856923 -0.08091649
000390 3d 17 bf bd ac 29 52 bc 54 fb c2 3b 4d d0 78 3e
       -0.09330604 -0.012827318 0.005950371 0.2429821
0003a0 8d ee 31 3d 77 5f 1a 3e 11 86 42 bc 27 7d 93 be
       0.04344039 0.1507548 -0.011872784 -0.2880642
0003b0 a0 7e 2f 3e cc 87 c2 be ca 1a d7 be a0 11 b9 3c
       0.17138147 -0.3799423 -0.42012626 0.022591412
0003c0 d5 d3 8d 3e 51 29 11 3e 33 b5 83 3e 72 c7 b0 bd
       0.27700678 0.14175917 0.25724182 -0.08631791
0003d0 bf 3a 0d 3d fe e8 8f be 73 99 8c 3d 8d 7c 29 be
       0.034479853 -0.28107446 0.068652056 -0.16551419
0003e0 ae ae c8 bc 70 c0 99 bd 69 42 f9 bc a4 bb e3 3b
       -0.024497356 -0.07507408 -0.030427175 0.0069498587
0003f0 b8 73 c5 3e 33 e7 2f be 2c 9e 84 be 14 0a 18 bc
       0.3856485 -0.17178039 -0.25901926 -0.009279747

layer_1.bias f4 [400]
000000 0e e3 c4 3e 5a 92 1b bd 73 53 d4 3c f7 59 0e 3e
       0.3845448 -0.03798137 0.025918698 0.13901506
000010 26 88 ef 3d 7d 70 a9 3d e1 eb 95 bc f9 75 77 3e
       0.1169589 0.082734086 -0.018300952 0.24166097
000020 df f5 ae bc 0c ab 1b 3e 65 78 67 be cd d3 e0 3e
       -0.021357475 0.15201968 -0.2260452 0.4391159
000030 6e 68 cc 3c dc c2 ac 3e 93 bd 6b be ed 3b 00 be
       0.02495214 0.33742416 -0.23021536 -0.1252286
000040 59 cc 69 bd db 9d 36 3e a6 d4 50 3e f2 f3 c0 3e
       -0.057079647 0.17833655 0.20393619 0.37686116
000050 de cd c1 bd a8 dd 98 bd 2a 6e aa bb b9 e1 85 be
       -0.09463094 -0.074641526 -0.005201121 -0.26148775
000060 72 25 9e 3e 9c 95 94 bc 97 d4 00 3e 27 ca 06 be
       0.30887944 -0.018137746 0.12581097 -0.13163052
000070 81 1e e3 3e 0c 9a 82 be d2 20 c9 3c 5e 11 87 3e
       0.4435921 -0.25508153 0.024551783 0.26380438
000080 38 62 ae 3e e8 18 e5 3e 98 f7 e8 3e f3 3b 63 be
       0.3405931 0.44745564 0.455014 -0.22190838
000090 32 1a a9 3d 7a a6 f3 bd 46 4e bd 3e ab 33 bf 3e
       0.082569495 -0.11896987 0.3697378 0.37344107
0000a0 83 87 d2 bc ff da b9 3e 9d 1f bc 3e c0 dc 69 3e
       -0.025699383 0.36299893 0.3674287 0.22838116
0000b0 aa f0 50 3e 51 06 90 3e 93 dd 6c 3d 7c ee 64 3e
       0.20404306 0.2812982 0.057828497 0.223566
0000c0 16 88 89 3c de ec 41 be 97 c3 6b 3e f8 3d b2 be
       0.016788524 -0.18938014 0.2302383 -0.34812903
0000d0 db 2f 8f 3e 4a 72 e3 3e 74 c3 9b 3e 21 8a af 3e
       0.27966198 0.44423133 0.30422556 0.34285071
0000e0 83 37 42 bb 85 a1 c6 3e 65 37 5b 3e 1f 8d ee bd
       -0.0029635138 0.38795105 0.2140785 -0.116480105
0000f0 a7 8f fe bd 9f d3 e3 bd 46 1f 72 3e ee 49 cc bd
       -0.12429743 -0.11124348 0.23644742 -0.099750385
000100 27 2f 2e 3c 92 42 77 3e b9 31 09 3f c1 8f 82 3e
       0.010631359 0.24146488 0.53591496 0.255003
000110 22 d1 77 3d 9a df c3 3d a7 22 db 3d 78 5a 4c be
       0.06050218 0.09564133 0.10699969 -0.19956386
000120 9b 23 43 bd 72 69 14 be 64 40 d5 bd 0a fe c0 3e
       -0.047641378 -0.14493349 -0.10412672 0.37693816
000130 d4 31 ea 3a c6 a9 f7 bc 8d b5 30 be 0f 3b c3 3c
       0.0017867633 -0.030232321 -0.17256756 0.023831872
000140 a0 71 90 be fd e4 6f be 47 f8 4d 3e b4 e5 0c bd
       -0.2821169 -0.23427196 0.20114242 -0.03439875
000150 3b 98 03 3e 2a 50 f3 bb ba 2d 2f 3d f6 8e 60 3d
       0.1285104 -0.007425328 0.042768218 0.05482384
000160 65 7c d8 bc f4 25 43 bc df aa ca bd 4d 60 fd 3e
       -0.026426503 -0.011910904 -0.09895872 0.49487534
000170 56 e7 7e bc 61 6e 8f 3e 3c eb 91 3e 5e 6b 98 3d
       -0.0155580845 0.280139 0.28499782 0.07442354
000180 ad a4 ea 3d 55 9b 8e bc 69 41 c5 3e bf e3 ce 3e
       0.11457191 -0.017408052 0.38526466 0.4040813
000190 e4 87 73 3e 7d 3a ce 3e 8f dc 18 be 87 5c e2 3e
       0.23782307 0.40278998 -0.14927886 0.44211218
0001a0 ca ea c0 3d ba de b9 3e cf 97 87 bd fe 86 3d 3e
       0.094197825 0.3630274 -0.06620752 0.18508527
0001b0 f0 81 87 3e ff 61 83 be b3 7a 5d 3e 12 dc 34 3d
       0.26466322 -0.25660703 0.21628837 0.044155188
0001c0 6c 2b 9b 3e a8 4b 75 3d c5 1a 65 3d f5 10 72 3e
       0.30306566 0.059886605 0.055933733 0.23639281
0001d0 4b f8 81 be e8 ed d4 bd d6 4d db 3b 54 d0 66 be
       -0.25384745 -0.103969395 0.0066926284 -0.22540408
0001e0 d4 3b 73 be c9 db 1c be cf 58 47 3e 08 db 57 be
       -0.23753291 -0.15318216 0.19467472 -0.21079648
0001f0 28 9c 6a 3d ac 90 8b 3c 2e 48 ec bd 9c 7b d9 bd
       0.05727783 0.017036758 -0.11537205 -0.1061928
000200 aa fd 34 3d c8 96 3d 3e 6d ab b4 bd a4 f6 f1 3e
       0.044187225 0.1851455 -0.088217594 0.47258484
000210 bd 49 49 be fe 56 33 bd a3 99 f6 bd 9e 12 f7 3e
       -0.19657035 -0.043784134 -0.12041023 0.4825639
000220 62 d1 a4 bd 40 cd c2 3e 01 38 06 3d 87 29 e2 3e
       -0.08047749 0.38047218 0.032768253 0.44172308
000230 f7 d8 d6 3c 3f 8b 14 be a0 e6 a1 bd 38 fb a1 3e
       0.026226504 -0.14506243 -0.07905316 0.31636977
000240 38 4e dd 3e 2f 38 0a bd b5 0a 77 3c 6b d2 ea bd
       0.4322374 -0.033744987 0.015078236 -0.11465915
000250 a8 b6 f6 3c 36 e8 75 3d 62 44 44 3e 78 2d 64 be
       0.030116394 0.060035907 0.19166711 -0.2228297
000260 62 79 82 3d a3 be 83 bc 3b 71 2b be 30 0f 53 3e
       0.06370808 -0.016082114 -0.16742413 0.20611262
000270 7f 74 0f 3e 04 ee 16 be f1 6c 04 be 09 b6 f1 3b
       0.14009283 -0.14739233 -0.12932183 0.0073764366
000280 22 a6 4b bb 30 a4 72 3c 14 08 85 3d 7b 01 0f 3e
       -0.0031074365 0.014809653 0.064956814 0.13965409
000290 f9 b1 98 be ff ab 04 bd fb c3 9a 3e 1b 92 b1 3d
       -0.29823282 -0.03239059 0.30227646 0.086704455
0002a0 49 18 02 3e cd 98 8c be 28 54 4a 3d a4 55 32 bc
       0.12704577 -0.27460328 0.049396664 -0.010884676
0002b0 60 7d 46 be c6 da 84 3e 4c b3 0a 3d a3 ff 8b be
       -0.19383764 0.2594816 0.033862397 -0.27343473
0002c0 44 5a 95 3e db 9c 56 be 87 05 be 3c 33 0d da bd
       0.2917043 -0.20958273 0.023195995 -0.10647049
0002d0 34 8d 86 3e 6e 8f 20 be 85 9e 0e 3f 4c dd 85 3e
       0.26279604 -0.15679714 0.5571063 0.261454
0002e0 4c 60 52 3d d9 e4 72 be 38 67 f2 3b b4 dd d8 bb
       0.051361367 -0.23720111 0.0073975585 -0.006618226
0002f0 4b ac ad 3e f3 3d 68 3e 08 11 c2 3e df be b0 3e
       0.33920512 0.22679882 0.3790362 0.34520623
000300 80 34 2c be 77 11 9d bd 86 a0 e0 3e 74 33 9f 3e
       -0.16816902 -0.07669347 0.4387247 0.31093943
000310 f0 3d bd 3e f3 07 07 be 8f 91 e5 3d 8f 95 7f be
       0.36961317 -0.13186626 0.11209404 -0.24959396
000320 2d 8f 80 3e d4 b6 a0 be 3b c3 fb 3e e0 61 f0 bd
       0.25109234 -0.31389487 0.49172387 -0.11737418
000330 64 87 4b 3e db 40 bf 3e 0c 48 3e be e1 d0 a3 3e
       0.19875866 0.37354168 -0.18582171 0.319953
000340 7d e6 7d be c2 d9 21 3e 23 59 a7 3e ad f0 23 3d
       -0.24794956 0.15805724 0.32685193 0.04002445
000350 d5 95 72 bd 22 ee e6 bd 38 33 a5 3e 2b 7a 74 bc
       -0.059224922 -0.11275889 0.3226564 -0.014921705
000360 12 4a d0 3d 0a db d1 3e c6 eb bb 3c 2d ee 21 be
       0.10170378 0.40987426 0.022939574 -0.15813513
000370 15 70 67 3e 2f 5c 0a 3e 1d 30 ea 3e c7 7a ad 3e
       0.2260135 0.13511728 0.45739833 0.33882734
000380 dd 02 d0 3b a4 76 41 bd b8 9b 3e 3e 21 fb 0c be
       0.0063479976 -0.047232285 0.1861409 -0.13767673
000390 66 ca 73 3e ac 98 50 3e f1 0e b3 3e cd b9 6c 3e
       0.23807678 0.2037074 0.34972337 0.23117752
0003a0 3e 03 b3 bd 63 ce d4 be b7 c1 6c be ba cd d5 3e
       -0.08740853 -0.4156371 -0.23120771 0.4175852
0003b0 0c c8 d5 3d 35 6e 77 be 95 61 c8 3e ca 9f 02 bf
       0.104385465 -0.24163134 0.3913695 -0.5102507
0003c0 d9 37 ac 3e 55 33 e7 3e 7f 7e 63 3d 9b 32 cb 3d
       0.33636358 0.4515635 0.055540558 0.099217616
0003d0 53 fb e6 3e c2 0f a4 bc 34 cc 2c be 27 cc 62 3e
       0.4511362 -0.020027045 -0.16874772 0.2214819
0003e0 0d b2 c2 3d 1e 83 76 bd 16 94 8a bd c6 14 12 3f
       0.09506617 -0.060183637 -0.067665264 0.5706295
0003f0 91 b3 95 3b 55 98 e0 bd b9 2e b4 3e 54 80 22 3e
       0.004568525 -0.10966555 0.35191897 0.15869266

layer_2.weight f4 [300, 400]
000000 be d3 81 3c 92 ea 42 3d 8a a7 c5 bd ec 0c af bd
       0.015848037 0.047586985 -0.09651096 -0.085473865
000010 2f d7 c9 3b b5 dc 7f 3d 78 35 b9 bd c3 f0 e9 bd
       0.006159685 0.062466342 -0.090434015 -0.11422875
000020 59 7f 42 3d 8a 84 f8 3c 9b cb e8 3b d7 c8 c9 3c
       0.04748473 0.030336637 0.00710435 0.0246319
000030 13 4a 2e bc 0e e3 92 bc 4e ae 2c be 7d 7d d0 bd
       -0.010637778 -0.017930534 -0.16863367 -0.10180185
000040 cc 73 d5 bd 27 f2 89 bd eb 2a d2 3d 83 5c 6b be
       -0.10422477 -0.0673564 0.10262092 -0.22984509
000050 6c 9b b2 bd 94 0f 34 3d 82 c7 0e be ce dd 80 bb
       -0.087210506 0.04396017 -0.13943294 -0.003932691
000060 62 86 0c be 0f c9 63 3d fd 83 7c bc 2f 88 86 bc
       -0.13723138 0.055611666 -0.015412328 -0.01642236
000070 da 2c 5b bd f7 9a d0 bd 93 97 c8 bc 2a cc 81 3d
       -0.05350957 -0.10185807 -0.024486339 0.06337769
000080 91 d3 0a 3d 25 6b 7d bd ea 99 a5 bd 24 45 c3 3b
       0.03389317 -0.06186976 -0.080859974 0.00595917
000090 25 e0 cb 3d 47 7c d3 3d 8c 8a 50 bd 00 dc 9d 3d
       0.099548616 0.103264384 -0.05091338 0.07707977
0000a0 4f b0 ef bd 20 ea 63 bb d5 e4 b4 bc 4b ce 9f bd
       -0.1170355 -0.0034777 -0.022081772 -0.07803019
0000b0 18 4a 91 bd 48 f5 90 bd e1 9f 98 3d 71 80 9e bc
       -0.070942104 -0.07078034 0.074523695 -0.019348355
0000c0 b9 75 90 bd fd 8f 27 3e 2a 3b 42 3d 29 c7 f1 bd
       -0.07053704 0.16363521 0.047419704 -0.11805565
0000d0 49 8b 3c 3d 93 86 5c bc 14 7b db bd 5d 16 a2 3d
       0.04603127 -0.013459819 -0.10716835 0.07914422
0000e0 5e ad 8d 3d f5 9d 35 be 2f 7c 93 3c a9 06 1a bd
       0.06917833 -0.17736037 0.018003551 -0.037604008
0000f0 c0 01 8c 3d f4 63 94 3c 86 ba 02 be 54 71 dc 3d
       0.06836271 0.018114068 -0.12766466 0.10763803
000100 98 6d 8e bc 0d 22 bb bc 3a 05 9c bd 26 23 a8 bd
       -0.017386243 -0.022843385 -0.076181844 -0.08209829
000110 52 bd 4d bd 09 2c 4b bd 39 d5 73 3d ae 89 53 bd
       -0.050229378 -0.049602542 0.059529517 -0.051644973
000120 fa 7f a5 bd 03 1f 92 3d 04 42 68 3c af f0 de 3d
       -0.0808105 0.07134821 0.014175896 0.108857505
000130 be d2 11 3c ff dd 0a 3e c5 e7 5c 3c 3f 9e c7 bd
       0.0089003425 0.13561247 0.013482993 -0.0974698
000140 0a 45 45 bc 75 0a cf bc 98 f5 e3 3d f5 07 12 3d
       -0.012040386 -0.025273541 0.11130828 0.03565212
000150 a6 5c fb ba bc 86 e5 bd cd d4 0a 3e ac e9 81 be
       -0.0019177392 -0.11207339 0.1355774 -0.2537359
000160 d4 7b 5a bd e1 44 39 3c 87 ed 14 3d 0f 57 eb 3c
       -0.053340748 0.011307926 0.036359336 0.028728036
000170 8e 16 f1 3c 11 5d bc 3d a9 cf 14 3d 35 9f c2 3b
       0.0294297 0.091974385 0.036330853 0.005939389
000180 38 d0 8c bc 36 04 25 be 65 0e 19 be 4c 6b b2 bd
       -0.01718913 -0.16114888 -0.14946897 -0.087118715
000190 d0 7f 8e bd 88 ff 10 be 36 f9 03 3d 9b 19 f5 3d
       -0.06957972 -0.14159977 0.032220088 0.119677745
0001a0 dd 80 43 bc a5 7c de 3c c2 ef 93 bd 00 f6 dd 3d
       -0.011932579 0.027159045 -0.072234645 0.108379364
0001b0 64 ce af 3c 5e 29 96 3b 21 24 8e bd 17 ba 0f bd
       0.02146072 0.004582568 -0.06940485 -0.03508958
0001c0 cf 76 d1 bd 4d 37 0c 3e 08 44 d2 3c 20 2d 6e bc
       -0.10227739 0.1369297 0.025667205 -0.014537126
0001d0 ef c1 36 bd 8a b6 03 3e 7d 1b 47 3d 27 27 4d 3d
       -0.044618543 0.12862602 0.0486102 0.050086167
0001e0 0b 59 c5 bd 14 0a 35 bd 5c 9c 01 3b 0f 32 2e bc
       -0.09636124 -0.044199064 0.0019777035 -0.010632052
0001f0 4c 69 d9 bc 02 70 9a 3d 20 e8 cb 3d 4a e7 2f 3c
       -0.026539467 0.07540895 0.09956384 0.010736296
000200 e7 00 a2 3c d2 6f 1f bd d7 8f 0f 3d 68 1b 10 3c
       0.01977582 -0.038925 0.035049286 0.008795597
000210 3c 47 89 3c 2c fe 01 bd 2b ef e3 bd b9 bb 8e bd
       0.0167576 -0.031736538 -0.11129602 -0.06969399
000220 8f f8 e2 bd fc b7 2c be b3 80 9e 3d 83 a5 c2 3b
       -0.11082565 -0.1686706 0.07739391 0.0059401407
000230 f2 60 19 bd 93 bb 48 bc a9 bc 00 3c 60 40 15 bd
       -0.03744597 -0.012251752 0.00785748 -0.036438346
000240 72 eb 5a 3d 06 55 16 bd e1 71 a1 bc ac d0 90 3d
       0.053447194 -0.03670218 -0.019707622 0.07071051
000250 b2 68 6c 3d 36 1b 75 bd 70 4d 44 ba bf ca da 3c
       0.057717033 -0.059840403 -0.0007488346 0.026708005
000260 cf 3c e1 3d d0 5b f5 bc 88 17 a3 bd 97 ab 88 3a
       0.109979264 -0.029951006 -0.079634726 0.0010427114
000270 ca db 2d 3c 3a 3e 88 bd ba c5 75 3d 6c 55 be 3d
       0.010611484 -0.06652494 0.06000302 0.09293637
000280 db b1 09 3e 15 03 9d 3c 69 c9 73 3b 69 26 3e 3e
       0.13446753 0.019166509 0.0037198907 0.1856934
000290 1f 9b 86 bd ab b5 1f bd b7 ec bf bc 7d a9 88 3d
       -0.06572556 -0.03899161 -0.023428304 0.06672952
0002a0 71 f3 a6 bd a4 46 8f 3d 24 40 6f bd 16 05 51 3d
       -0.081519015 0.069958955 -0.05841078 0.05103024
0002b0 e3 d3 ba 3d 8f 2d 3d 3c aa a4 19 bc e4 89 44 bc
       0.091224454 0.011546507 -0.009377638 -0.011995766
0002c0 2e 17 df bc b1 41 eb bd dc f3 44 3c 11 1e c8 3c
       -0.027232733 -0.11487139 0.012021031 0.0244284
0002d0 8f 8b 56 bd 2b 12 61 bc 6a a9 c4 bd 0a 59 af bd
       -0.052379187 -0.013737242 -0.09602626 -0.08561905
0002e0 40 c6 20 ba a4 2d 6e bd e9 f1 03 bd 45 68 ac bc
       -0.0006133057 -0.058148995 -0.032213125 -0.021045813
0002f0 81 ee 7b 3c 41 8e e0 3c e1 3d f3 bd 8b db 08 3d
       0.015376688 0.027411582 -0.11877037 0.033412497
000300 b7 65 26 be c0 65 0a be ae 0a 24 3d 6e 7d 46 3d
       -0.16249739 -0.13515377 0.040049247 0.048459463
000310 c0 44 ae bd 06 02 c6 3d ef a4 80 3c dd 17 94 3c
       -0.08509207 0.09668355 0.015703646 0.018077785
000320 60 63 db bd 81 94 ef 3c 95 12 0a 3b 4d 4b c8 3d
       -0.10712314 0.029245617 0.0021068205 0.097799875
000330 30 db fc bc 52 ea a6 bd f9 e0 eb 3d 3d 94 2e 3d
       -0.030866235 -0.08150162 0.115175195 0.04262184
000340 68 79 8a 3d 66 56 24 bb 6e f1 6c bb 65 75 aa 3d
       0.06761438 -0.0025075912 -0.0036154645 0.083231725
000350 ba 27 e3 3c 82 24 d4 3d 3f 2f 3e 3d 69 87 5d bd
       0.027728904 0.10358526 0.046431776 -0.054084215
000360 c1 09 eb bc e7 ce 18 be 3a 96 6e bd 98 8b 86 bc
       -0.028691174 -0.14922677 -0.058248736 -0.016423985
000370 4d 6f 36 bd 69 32 57 be 76 9f 1f bd eb 8e 0c 3e
       -0.04453974 -0.21015324 -0.038970433 0.13726394
000380 da 20 6f 3b b2 93 f5 3c 57 7f 20 bd a4 5a 8c ba
       0.0036488087 0.029977653 -0.03918394 -0.0010708165
000390 85 7a 09 3d 58 1e cb 3c d9 33 b3 3d e7 36 fc bd
       0.03356411 0.024794742 0.087501235 -0.12315159
0003a0 ab 88 aa 3d 34 a7 71 3c 39 45 93 bd 02 ab 3c 3e
       0.083268486 0.014749337 -0.071909375 0.1842461
0003b0 b9 4e d8 3b 85 17 86 bc 0c 25 69 3b cc 3f cc 3d
       0.0066011813 -0.016368637 0.003557506 0.09973106
0003c0 03 42 d1 bc bf 6e c7 bb 34 41 17 bd 73 80 f4 bd
       -0.025544172 -0.0060862 -0.036927417 -0.11938562
0003d0 f0 77 96 bc 34 7c ae bd 95 2d b8 3d ca f1 bd 3d
       -0.018367738 -0.085197836 0.08993069 0.09274633
0003e0 9f db e4 3d b2 c5 0f bd 39 02 55 3c 64 3c 37 be
       0.11174702 -0.035100646 0.013001018 -0.17894131
0003f0 66 f6 aa bd f8 9d 0e be a0 c0 83 bd 83 d3 67 3d
       -0.08347778 -0.13927448 -0.06433225 0.056598198

layer_2.bias f4 [300]
000000 e7 fd 18 bd 6e 45 0a 3b 63 99 0d bd 7b dc be 3d
       -0.037351515 0.0021098512 -0.03457011 0.09319397
000010 97 ac 09 be fd a4 21 be 25 f1 96 be 68 75 db bd
       -0.13444744 -0.15785594 -0.29480854 -0.10715753
000020 32 07 d6 bc e9 db be 3d 40 df 88 bd e4 41 32 3d
       -0.026126478 0.09319288 -0.066832066 0.04351987
000030 32 55 8e 3d ae 95 99 3d d5 d3 fd bc 30 6a b1 bd
       0.069498435 0.07499252 -0.030984798 -0.08662832
000040 07 16 89 bd 8e 5f 2f 3e 37 53 0d bd fa 9a 9a be
       -0.066936545 0.17126295 -0.034503188 -0.30196363
000050 68 09 ac bb da 20 6e bb e5 fa f7 3c 6c 47 0d 3d
       -0.0052501447 -0.00363355 0.030271003 0.03449194
000060 40 09 d8 bd a8 4f cc bc 40 3a 38 be 67 89 c1 bd
       -0.10548639 -0.024940327 -0.1799097 -0.094500355
000070 31 4f 72 3d 56 b4 fa 3c 49 71 8d 3d 22 69 de bd
       0.059157554 0.030603569 0.06906373 -0.10859896
000080 f5 8c 17 be 67 99 c4 3d 10 a4 2b 3d 4e 0b cd bd
       -0.14799865 0.09599572 0.04190451 -0.10011922
000090 ba 8d cb bd df 4c 42 bb 65 b9 a4 3d 2f ce 3a bc
       -0.099391416 -0.002964787 0.08043174 -0.011401697
0000a0 b7 35 a2 bd a4 b8 a2 bd 88 0e 6d 3d 42 5e 1f be
       -0.079204015 -0.07945374 0.057875186 -0.155633
0000b0 76 3f cb 3d c8 bf 99 3d bd ad 4f bd 4e dd 03 3e
       0.099242136 0.075072825 -0.0507028 0.1287739
0000c0 a1 0b 74 3d fd b6 bb 3c 92 9b ba bd 42 c5 05 3d
       0.059581403 0.022914404 -0.09111704 0.032658823
0000d0 dd 3c 2a 3d 5e 62 97 bd 7d 44 28 bb b2 36 1d 3d
       0.04156195 -0.07391809 -0.0025675588 0.03838224
0000e0 ab 94 1a bd f1 ce ce 3d 0c 54 d3 bd cc 91 94 3d
       -0.037739437 0.10098065 -0.10318765 0.07254371
0000f0 25 02 57 bd 0e 91 77 3d d0 e0 c6 3d fd 4c 10 be
       -0.05249228 0.06044107 0.09710848 -0.14091869
000100 91 ad 73 bc 91 38 c8 bd 90 62 65 bc 90 ec 9c be
       -0.014872924 -0.09776414 -0.01400055 -0.30649233
000110 9c 14 af bc b4 5d 88 bd a9 a2 05 be b5 0f bc bd
       -0.021372132 -0.066584975 -0.13050331 -0.091826834
000120 bd 91 bd bd 72 b1 b1 3d f9 ae 36 3d 83 b8 38 3d
       -0.09256313 0.08676423 0.04460046 0.04509784
000130 3f 72 9d ba 9f 59 86 be 70 1f e6 3b 9d aa 07 3d
       -0.0012012197 -0.2624025 0.0070227906 0.033121694
000140 85 00 39 be 2b e5 5e 3d 31 63 3e 3d b9 17 0d 3d
       -0.18066604 0.05441777 0.046481315 0.03444645
000150 74 fd df 3d 44 c8 b0 3d 48 fe 32 3d b8 55 fc 3c
       0.10937014 0.08631948 0.043699533 0.030802593
000160 fb 55 1f be b2 ae 60 bd 7c 0a 6c be 36 9a 31 bd
       -0.15560143 -0.054854102 -0.23050874 -0.043359958
000170 7e 43 08 3d 79 7b c3 3d c4 4c 9a 3d 6d 50 db 3d
       0.03326749 0.09545035 0.07534173 0.107086994
000180 42 6e de bd 26 c7 5b bd 54 d2 bf 3d cc 19 4b 3d
       -0.10860874 -0.05365672 0.09366289 0.04958515
000190 6a 7a e6 bc 03 61 95 bb 47 c1 9d 3d be 37 98 bd
       -0.028134543 -0.004558684 0.0770288 -0.07432507
0001a0 94 89 8a 3d 87 ed b5 bc c5 c1 09 3c 43 e9 4d 3d
       0.06764522 -0.022207988 0.008408015 0.050271284
0001b0 45 83 b4 bd bd 65 cc bd 8a c3 0d bd 4c 82 41 be
       -0.088141 -0.099803425 -0.03461031 -0.1889736
0001c0 8e 38 06 bb cb 52 20 be d5 bf 12 3d 6a 89 c3 bd
       -0.0020480487 -0.15656583 0.035827477 -0.09547694
0001d0 63 aa 58 bc 71 c8 2c 3d 10 72 8a 3c 45 c9 14 bb
       -0.013224217 0.042183343 0.016900092 -0.0022702974
0001e0 9d 65 59 3d d9 93 c2 3d b7 94 7a 3c e0 40 1a bc
       0.05307542 0.09500856 0.015294245 -0.0094148815
0001f0 db cb 8d 3c bc 5a 6f bd 5e 20 f7 3c d1 b7 ba 3c
       0.01730912 -0.05843614 0.030166801 0.022792729
000200 ff b9 cb 3d 35 47 70 3d 6d a0 40 3d 7c 30 f2 3c
       0.09947585 0.05866166 0.047027994 0.029564135
000210 7a 2b 63 3c ec be 46 be a7 20 cd 3b 2f 2d 7b 3c
       0.013865346 -0.19408768 0.006259996 0.015330597
000220 8d f0 f5 bd ab d8 8f 3c fe 0a 80 3d a3 c5 02 bd
       -0.12008772 0.01755937 0.062520966 -0.031926762
000230 18 59 b6 bc ac be ad ba a6 da 93 3d 87 15 74 3d
       -0.02225928 -0.0013255677 0.07219438 0.059590843
000240 a2 3d 91 bd ba 57 f0 bc d9 13 43 3d 43 00 d7 3d
       -0.07091834 -0.029338706 0.04762635 0.10498097
000250 d8 0e b8 3d 19 27 00 3a 81 15 05 3e bf d4 e4 bd
       0.08987206 0.00048886385 0.12996484 -0.111733906
000260 80 9c 5a bd 74 0d ad 3d fa 1b 3a bd d5 32 84 bd
       -0.053371906 0.084498316 -0.045436837 -0.06455008
000270 cf fb 86 3d 40 40 f2 3c 30 c2 1e 3e 46 ea df 3c
       0.065909974 0.029571652 0.15503764 0.02733339
000280 a5 ab 4b bd b9 c4 dc 3d 67 a8 75 3d 52 c1 44 3e
       -0.04972424 0.10779709 0.059975054 0.19214371
000290 36 2e 75 bd 91 c8 eb bd 78 08 f8 bd 0d 5b 0f 3d
       -0.059858523 -0.115128644 -0.1211099 0.034998942
0002a0 47 ad f7 3c a4 84 b1 3d 99 2d b1 bd 1f a2 d0 3d
       0.030233992 0.08667877 -0.08651275 0.10187172
0002b0 f9 63 09 3e 4a 22 92 3d be 43 65 bd 36 2f 4e 3d
       0.13417043 0.07135446 -0.055972807 0.050337993
0002c0 30 a1 7c be aa 84 9e bd ce 0b 3d 3e f2 2f 88 3d
       -0.24670863 -0.077401474 0.18461534 0.0664977
0002d0 8b 0b 90 3b 95 5a 7c bd 56 16 27 be 87 5e 2c bd
       0.0043959073 -0.061609823 -0.16317114 -0.042082336
0002e0 ef 81 ae be 66 e0 b6 bd e8 f4 1b 3d 41 a5 0a 3e
       -0.34083506 -0.08929519 0.038075358 0.13539602
0002f0 32 10 bc bd ba fb e6 bc dd f0 37 bc 1b cf 82 3c
       -0.091827765 -0.028196204 -0.01122686 0.015967896
000300 ba 62 bb be b0 42 40 bc d9 50 88 3d d1 ad af 3d
       -0.3659876 -0.01173465 0.066560455 0.08578075
000310 0f c5 f8 bd a0 0b 54 3d 0c 13 9d 3d b4 20 ac bc
       -0.12146961 0.0517689 0.076696485 -0.021011688
000320 b4 87 48 3d 38 f7 96 3d d9 33 0f 3d a7 03 9c bc
       0.04895754 0.07371372 0.034961555 -0.01904471
000330 0f 45 85 3d ca aa 0b 3d 72 5f 4a be df cb 01 3d
       0.065073125 0.034098424 -0.19762972 0.031688567
000340 10 f7 0d 3e bb 82 03 bd 5c 73 c7 3c e9 d8 6a bd
       0.13863778 -0.032107096 0.024347 -0.057335768
000350 da 39 9e 3c 35 79 8e 3d f6 e6 a2 bc fe 94 a3 3d
       0.019314695 0.06956712 -0.019885521 0.079874024
000360 57 47 4b 3c 8f ae eb 3c 69 18 85 3d 19 c5 21 3d
       0.012407145 0.02876976 0.064987965 0.039494608
000370 b8 bd 93 3d 3a d6 0d be f4 a7 5b 3c 3b 73 6c bd
       0.0721392 -0.13851252 0.013406742 -0.05772708
000380 9e 3b c4 3d b1 98 aa bb 09 77 48 3d c5 bc 81 3d
       0.095816836 -0.0052061905 0.048941646 0.06334833
000390 47 65 96 bd d7 2a a3 3d 96 86 cb 3c 5f ce f1 bc
       -0.07343536 0.079671554 0.024844449 -0.02951735
0003a0 a2 23 fa bc b1 fe a6 3d 0d 0b ca 3d 08 88 49 3e
       -0.03053457 0.08154047 0.09865389 0.19680798
0003b0 e9 0a b0 3d 59 31 4c 3e 3a 08 0a bd dd a9 1d 3e
       0.08595831 0.199407 -0.03369925 0.15396829
0003c0 81 a4 db 3d 37 84 0c 3d 11 0e 40 3d 59 70 0e 3e
       0.10724736 0.034305777 0.046888415 0.13910045
0003d0 30 55 0c 3d 53 c4 55 3d 79 03 6b 3d 0b 59 7b bc
       0.03426093 0.052189182 0.05737636 -0.015341054
0003e0 78 f1 8d bd 12 01 cb 3d c5 17 6d 3d ac c4 93 3d
       -0.06930822 0.099123135 0.057883997 0.072152466
0003f0 c3 32 ff bd ad 20 a4 3d 3a 8c 23 3d d0 51 e6 bc
       -0.12460854 0.08014045 0.039928652 -0.028115183

layer_3.weight f4 [6, 300]
000000 94 dc d4 bd 26 cd 26 be fa 28 81 3c 39 07 88 bd
       -0.103936344 -0.16289195 0.01576661 -0.066420026
000010 d9 26 1c be a2 41 f7 3e 86 13 dd 3b 36 ab 7c 3d
       -0.15249194 0.4829226 0.006746712 0.061686717
000020 db b6 a4 bc 98 d1 cb 3d 38 96 e0 3e 51 1f 89 be
       -0.020106724 0.09952086 0.43864608 -0.26781705
000030 98 08 01 3d 5c c0 10 3e 67 51 0c be 1f 57 b3 3e
       0.031502336 0.1413588 -0.13702928 0.35027406
000040 b8 cd 93 bd ee 9b 76 3e b5 ea 62 be 2c 18 f5 3e
       -0.07216972 0.2408292 -0.22159846 0.47870004
000050 54 8d 32 3e b6 23 10 3c 33 cb 80 3c e3 d4 be bd
       0.17436725 0.008797577 0.015721893 -0.09317949
000060 f5 23 dc 3e 6e ae 9b bd 6c d2 15 3e fb 5d ed bd
       0.42996183 -0.07601629 0.14631051 -0.11590191
000070 8a b8 53 3c 83 2e 75 be 65 a5 35 bc 4d 07 0e bd
       0.0129224155 -0.23943524 -0.011086796 -0.03467493
000080 1b 3d fa 3d 39 75 2c 3d 59 bc 18 3d b1 fa fa 3e
       0.12218686 0.04210398 0.037288997 0.49019387
000090 fd bf ed 3d 3b a3 3c 3d e1 56 ca bd a8 0e a1 bd
       0.116088845 0.046054106 -0.09879852 -0.078641236
0000a0 85 fe 83 bd f4 16 b2 bd b6 79 0f be 3b 59 9e bd
       -0.0644503 -0.08695784 -0.14011273 -0.07731863
0000b0 0b 90 c0 3d 4c 1f 92 3b ff 08 74 bd d9 e0 3a be
       0.09402474 0.0044592973 -0.05957889 -0.18249835
0000c0 38 b9 3a 3e 0b a8 4d 3d 75 c8 70 3e 40 a2 5f be
       0.18234718 0.050209086 0.23513968 -0.21839237
0000d0 0c 67 4e 3b fe 62 0b be 34 89 7c 3c 77 60 1d 3e
       0.0031494526 -0.13611981 0.015413571 0.1536883
0000e0 41 e6 63 bd d5 93 dc 3d 39 3c b6 3d fc 92 8a be
       -0.05563951 0.10770384 0.08898205 -0.27065265
0000f0 0c 1e b6 bd aa a8 21 3e 58 8f a1 3d 39 e2 d1 3d
       -0.0889245 0.15786996 0.07888669 0.10248227
000100 9c 8b 30 be 8a 7e 19 be 12 fa ba 3c 0a 31 be 3e
       -0.17240757 -0.14989677 0.022824321 0.3714679
000110 64 4c 72 3d fe 59 80 bc a1 91 91 bc d2 e3 9c 3e
       0.059154883 -0.015667912 -0.017769637 0.30642563
000120 7b 91 a5 bd 14 10 b2 bd f6 b4 a9 3c 43 c2 f2 3c
       -0.08084389 -0.08694473 0.020716172 0.029633647
000130 6d 1f 4e bc 6f 80 0b be e5 66 83 3d 75 79 49 3e
       -0.012580735 -0.13623212 0.0641611 0.19675238
000140 a8 de 06 3d a6 da 1d 3d c3 5e 81 3c c0 e4 cd 3c
       0.032927185 0.038538598 0.015792256 0.02513349
000150 2f bf 46 bd 73 45 e8 bc 99 4b 0f be d6 e0 70 bd
       -0.04852217 -0.028353428 -0.13993682 -0.05880817
000160 bb 3a fa bd 5b 54 cc bd 5a 2d 7b be 78 84 3b 3e
       -0.12218233 -0.09977027 -0.24529019 0.18312252
000170 5e 09 26 3e 1d 5e 19 bd ab 1f 87 3c ad 6c f7 3d
       0.16214511 -0.03744327 0.016494593 0.12081275
000180 81 38 fe be e7 13 2e be 82 ef a2 3d 57 c4 11 3b
       -0.49652484 -0.1699978 0.07955839 0.0022242272
000190 d8 89 9c 3e 56 09 92 bd 9b 65 80 3c fc 3d 6e bd
       0.30573916 -0.07130687 0.01567345 -0.05816458
0001a0 fc ba 94 3d 7d 7d cf 3e 0a 65 3b 3e b0 e9 00 bd
       0.07262227 0.40525427 0.18300262 -0.03147286
0001b0 22 15 a6 3e c2 67 84 be d3 60 f0 bd ac 30 4b bc
       0.32437998 -0.2586041 -0.11737218 -0.012401741
0001c0 17 7d 94 3d 84 96 b7 3e b9 54 07 be 51 17 0a 3e
       0.072504215 0.35857022 -0.13215913 0.13485457
0001d0 6b b7 d2 bd f2 df 13 3c 5b 22 81 3c ac d8 ce bc
       -0.102888905 0.009025561 0.015763452 -0.025249802
0001e0 49 0a 8f bd 9e 45 c6 3d b2 84 c0 bd 12 9c e9 3d
       -0.069843836 0.09681247 -0.094003096 0.11406721
0001f0 1c 4a 50 bd 6e f7 46 be 5d ea 40 bd 5f 79 49 bc
       -0.050851926 -0.19430324 -0.047098506 -0.0122970035
000200 32 35 26 bd 53 b6 ee bc 8c ae 58 be 4f f0 23 3d
       -0.040578075 -0.029139673 -0.21160334 0.040024098
000210 78 80 b9 bd b1 b0 37 be 68 29 9a 3d 5d 4d 2c bd
       -0.090577066 -0.17938496 0.07527429 -0.042065967
000220 a6 94 9b bd 56 60 07 3e f8 21 14 bd 87 8f 05 3f
       -0.07596712 0.13220343 -0.036165208 0.5217213
000230 bf 82 ad bd b0 cf 1c bd 3f 76 83 3d 3e f5 39 3d
       -0.084722035 -0.038284004 0.06419038 0.045399897
000240 e5 7a f2 bb ef 99 d1 bc 24 ee e4 3d 8e d3 4c 3e
       -0.007399904 -0.025586097 0.11178234 0.20002577
000250 42 f1 d5 3c 23 6b f8 bd 29 b4 12 3d 17 6d c2 bd
       0.026116017 -0.1212981 0.035816345 -0.094934635
000260 5c 35 a9 bd e3 c6 45 3d 5f 1f 17 bd bf fd b2 bc
       -0.082621306 0.048285376 -0.036895152 -0.021849511
000270 2b a2 bb bd 91 c8 3f bc 5c 36 49 be 60 96 d6 3e
       -0.091617905 -0.011705534 -0.19649643 0.41911602
000280 2b 45 cc 3d 0d 1a bb bd 76 6a de 3c d9 b6 88 3d
       0.0997413 -0.09135828 0.027150374 0.066755004
000290 05 35 52 bd b7 9c df bc b5 14 9c bd 30 48 81 bd
       -0.051320095 -0.027296407 -0.07621137 -0.06312597
0002a0 a9 c8 2a 3d f8 2f a7 3c 9a 21 77 bd c2 72 35 bc
       0.04169527 0.020408615 -0.06033478 -0.011074724
0002b0 d6 70 dc 3e d1 03 db 3d 58 9b 71 be 40 d1 d2 3d
       0.43054837 0.10694087 -0.23594415 0.102938175
0002c0 ff 94 52 be f2 3d 65 bd d2 3a 64 3e 12 46 c7 3d
       -0.2056465 -0.05596728 0.22288063 0.09730162
0002d0 18 d1 c3 3e 4f e2 d7 bd e5 96 33 3e 02 c5 8a be
       0.38245463 -0.10541212 0.1753803 -0.2710343
0002e0 22 53 d5 3e bb e6 a4 3d 42 37 94 3e db 6f 84 3d
       0.41664988 0.08051821 0.28948408 0.06466647
0002f0 8a 56 28 bd 7f 2d 52 3d df 95 7b bd f5 e4 8f 3d
       -0.041098155 0.05131292 -0.061422225 0.07026092
000300 79 a0 c0 be f9 ab 85 bd ca c8 fb bd 00 4f 5a 3d
       -0.3762243 -0.06526942 -0.12294157 0.053297997
000310 1e b0 78 3d d6 8b 82 bd 5c 75 09 be 38 00 06 bc
       0.060714833 -0.06374328 -0.13423675 -0.008178763
000320 15 94 01 bb 06 ea 84 3c f8 f9 53 3c 13 87 0b bd
       -0.0019772102 0.016224872 0.012938015 -0.034064364
000330 7e b9 f2 bb a4 5e 87 3d 31 fe 28 be 84 b3 d8 3c
       -0.0074073663 0.06609848 -0.16503216 0.026452787
000340 bd e3 f6 bd 55 5a 31 3e 95 89 ff bd 17 81 bf bd
       -0.120551564 0.17319615 -0.124774136 -0.09350794
000350 95 e6 64 3d 68 bf 15 3e 79 20 6a be 09 56 d5 3d
       0.055883963 0.14623797 -0.2286395 0.104168005
000360 a5 45 f8 39 ae 5f bf 3c 5e f1 9d be 28 6c ba 3c
       0.00047354135 0.023361053 -0.3084821 0.022756651
000370 0c 37 3e 3d 1f de 62 3d 0d b4 90 bd c9 fa 33 3e
       0.046439216 0.055387612 -0.07065592 0.17576136
000380 91 37 40 bd f3 4c 33 bd 0c 3b bc 3d 56 14 7c be
       -0.046927992 -0.043774556 0.0919095 -0.24617133
000390 9d 01 41 3e 37 b5 d3 bd 05 3c 07 3c 5e 0d be bd
       0.18848272 -0.10337298 0.008254056 -0.09279893
0003a0 06 55 06 be b4 55 3e bd e4 be 8a 3e a0 fb b7 3d
       -0.13118371 -0.04646845 0.27098763 0.089835405
0003b0 0e 42 1a 3b fd a7 91 3d 6c 14 8c bd f4 05 a9 bd
       0.0023537907 0.07112119 -0.06839833 -0.082530886
0003c0 2f f9 80 3e c3 81 9f bb 94 d6 dc 3d ab 19 fc 3d
       0.25190112 -0.0048677637 0.10783115 0.12309583
0003d0 62 f4 d0 bd b3 00 38 3e 3c c2 60 be 20 12 0e 3d
       -0.10202862 0.17969017 -0.21949095 0.034685254
0003e0 70 c8 06 3f 3a 32 09 3f c4 24 8a 3d db fd 21 3d
       0.52649593 0.53592265 0.06745294 0.039548736
0003f0 00 11 02 3e db 5a 18 3e 4f 77 be bc 88 b6 77 bd
       0.12701797 0.14878409 -0.02325025 -0.06047681

layer_3.bias f4 [6]
000000 1f 80 b1 3c 4b ea 75 bd b4 4f cd 3c 8d 70 21 bd
       0.021667538 -0.060037892 0.02506242 -0.039413977
000010 ea fa a5 3d ba 66 49 bd
       0.08104499 -0.049170233
