pytorch_models_dynaPhysics/TD3_walker_stand_0124_actor.pth (torch, 521680 bytes, 6 tensors)

layer_1.weight f4 [400, 18]
000000 f0 9e 99 be 35 6f 89 3d b1 38 d3 be 5e 7b ed bd
       -0.30004072 0.06710664 -0.4125419 -0.11595796
000010 74 fe ae bd 8c a8 a3 bb 13 4e d0 3d ed ec 9e 3e
       -0.08544627 -0.0049944576 0.101711415 0.31040135
000020 5c c6 73 3d e5 8b 6e bd f4 1a 3d bd ad 15 70 bd
       0.059515342 -0.058238883 -0.046168283 -0.05861442
000030 1b 65 69 be 29 f4 0b be 1a d1 93 bd d8 87 da 3b
       -0.22792475 -0.13667358 -0.07217617 0.006669026
000040 82 86 bf 3d 81 d6 03 3e 8c 43 a8 be a4 b9 fd bd
       0.09351827 0.12874795 -0.32864034 -0.12388924
000050 f3 b8 38 3e 17 55 e5 3e 72 ab 62 bd 32 62 a6 3e
       0.18039303 0.4479148 -0.055339284 0.32496792
000060 6b 07 e3 bd 56 0a 34 3e 3d a2 89 3e 61 3b 5b be
       -0.11085399 0.17582068 0.2688159 -0.2140937
000070 ab 27 22 be 19 a5 e2 bd c6 20 d5 bd 2e 70 58 3e
       -0.15835445 -0.11066646 -0.10406642 0.21136543
000080 44 59 77 bd c7 8f 22 be 85 f9 df bd dd cb 73 be
       -0.060387865 -0.15875159 -0.10936264 -0.23808236
000090 29 cf 5c be 44 b3 2e 3e 3a 9b 33 3e 9b 8b 3b 3b
       -0.215634 0.17060572 0.17539683 0.0028617147
0000a0 e2 cd 38 bd 24 ca d2 bd b3 86 b4 bd eb e1 be be
       -0.04511822 -0.102924615 -0.08814754 -0.37281737
0000b0 76 d4 ee be 8d 29 e4 be ab bc 8c 3e ac ba 28 3e
       -0.4664647 -0.4456295 0.27487692 0.1647746
0000c0 e7 74 ee bd 29 8e 70 bb 77 d4 70 3d 90 76 81 3e
       -0.11643391 -0.0036705828 0.058796372 0.25285769
0000d0 53 f3 9b 3d fb 49 b4 3d d7 77 4d 3e 44 dd c8 be
       0.0761477 0.08803173 0.20065247 -0.39231312
0000e0 8e 09 ce 3d 19 33 e3 be 13 47 b9 be 75 8c 14 be
       0.10060416 -0.44374922 -0.36187038 -0.14506705
0000f0 95 73 66 3e aa fc da 3d 08 1d 67 3c 03 96 85 3e
       0.22505029 0.10692723 0.014106043 0.26091012
000100 7d f8 4c 3e 38 19 2a bd b1 5b 89 bc 94 2b 93 3d
       0.20016666 -0.041527957 -0.016767355 0.07186046
000110 d9 45 00 3e 63 31 31 3e 02 d9 40 be fa 76 44 bd
       0.12526645 0.17303996 -0.18832782 -0.047965027
000120 42 9e 11 3e f6 8f 90 3e 11 d3 f9 3d 11 2c 8a 3e
       0.14220527 0.28234833 0.12198461 0.26986745
000130 b8 5f 34 3d 41 16 8b bd 79 d5 ed bc 73 6c d0 be
       0.044036597 -0.06791354 -0.029032456 -0.4070774
000140 5c 52 8d be 24 ae 84 3e 9a ca 65 3e d8 a3 9b be
       -0.27601898 0.2591411 0.22440568 -0.3039844
000150 ed db 63 3d e6 d4 8f bd a0 90 a5 bc fa 47 18 be
       0.05562966 -0.07023029 -0.020210564 -0.14871207
000160 43 cc 06 3e bc 5f c4 bd 86 e8 18 be 14 19 42 3d
       0.13163857 -0.095885724 -0.1493245 0.047387198
000170 80 02 4d 3e 83 e1 c1 3e a6 d0 c5 be 02 af 75 bd
       0.20020485 0.37867364 -0.3863575 -0.059981354
000180 48 98 9c 3d 5c 28 d0 bc 94 ee b3 3d 9e e2 58 be
       0.07646233 -0.02540987 0.087857395 -0.21180198
000190 01 7e a0 3e 5b 7d 27 3e 69 22 f3 bd 3f cf f1 bd
       0.31346133 0.16356413 -0.118717976 -0.11807107
0001a0 9e a1 33 be 7a ca da bc 16 93 3e be a7 ce 3a be
       -0.17542121 -0.026707876 -0.18610796 -0.18242894
0001b0 df 85 7a 3e 10 a1 36 bd 39 5f 98 be a3 ba 04 3e
       0.2446513 -0.044587195 -0.2976015 0.12961821
0001c0 47 db 5a be 3e 62 c5 3e 1d d8 05 3e fd 4e 97 be
       -0.2137271 0.38551515 0.13070722 -0.2955245
0001d0 bd 4c db bd 08 64 92 bd 7b 07 0d 3e 7c 37 7a 3d
       -0.10707996 -0.07147986 0.13772385 0.06108807
0001e0 fe b1 c2 3d e3 d7 32 bc d8 b8 87 bd 7d 05 0e 3e
       0.095066056 -0.010915729 -0.06627053 0.13869281
0001f0 c5 fe 5b be d3 6f 18 be cb 3f 87 be dd 2e 70 be
       -0.21483906 -0.14886408 -0.26415858 -0.23455377
000200 36 59 c8 3d c5 e4 2b be e6 dc 14 be a2 a8 47 be
       0.09782641 -0.16786487 -0.14537391 -0.19497922
000210 ce c3 dd 3d 0e c9 8b be b9 c2 ec 3d e8 77 1a be
       0.108283624 -0.2730183 0.11560578 -0.15084803
000220 16 ca 27 3a 62 52 ba bd 40 16 85 3b ba b1 0e 3e
       0.00064006576 -0.090977445 0.0040614903 0.13934985
000230 14 3b 68 3e 34 91 15 3e a4 9a 79 3e a4 2f a3 bc
       0.22678787 0.14606172 0.24375397 -0.019920178
000240 67 01 d1 be 04 5a a7 bd 79 bb 99 3e fc 71 bb 3c
       -0.40821382 -0.08171466 0.30025843 0.0228815
000250 e9 b3 c2 be 83 f7 e8 bd 20 cf dd be a0 29 35 be
       -0.38027886 -0.11375334 -0.43322086 -0.1769166
000260 2e 75 3c 3e a1 2c 9a bd c6 e6 03 3c 67 93 94 be
       0.18404076 -0.075280435 0.008050626 -0.2901871
000270 60 f5 14 3e c0 5e 5f be 49 86 ff bc a8 fa d2 bd
       0.14546728 -0.21813488 -0.031191962 -0.10301715
000280 35 c8 83 bd 66 90 27 bc 3b 63 df be 0f d6 8f bc
       -0.06434671 -0.010227298 -0.43630394 -0.017558126
000290 78 91 a7 bd d0 d6 07 bd ad 71 10 be b6 ff 8f bd
       -0.08182043 -0.033163846 -0.14105864 -0.07031195
0002a0 2c 4b 3a be 8a 5c 48 be d1 a8 03 3f da bf 25 3d
       -0.18192738 -0.19566551 0.5142947 0.040466167
0002b0 f7 cf 97 3e eb 86 11 3e 88 63 40 be a7 dc 02 3e
       0.29650852 0.14211623 -0.18787968 0.12779485
0002c0 7d 92 3d bc 5a 4a a2 bd 3e e1 32 3e b3 a5 1f be
       -0.01157057 -0.07924338 0.17468736 -0.15590553
0002d0 5c 29 e9 3e b5 65 08 be 73 6d 8c 3e f0 0c d4 bc
       0.45539367 -0.13320048 0.27427253 -0.025885075
0002e0 9b 9d 47 3e 7b 78 92 3e ad da 25 bc ae 83 9d 3d
       0.19493715 0.28607544 -0.010122937 0.076911315
0002f0 eb cd 99 be 0b b7 be 3e 72 ca 60 3e 8d bf 29 3e
       -0.30039915 0.37249026 0.21952227 0.16576977
000300 c3 49 62 be 4d 7b 8c 3c a8 85 f2 bd d0 5b 44 be
       -0.2209845 0.017148638 -0.11841899 -0.19175649
000310 0f ce ec bd b4 33 a9 3d 9d 9a 8e be 2c b1 1b 3d
       -0.1156274 0.08261815 -0.27852336 0.03801076
000320 1d 33 27 3e 44 67 0d 3d 3f bc 8b be f6 16 4e be
       0.16328092 0.03452231 -0.27292058 -0.20125946
000330 8e 59 96 be eb e3 ae 3e be fc 41 be e2 4b cc 3e
       -0.293652 0.34158263 -0.1894407 0.39901644
000340 48 72 c7 bc 47 c1 98 3d 17 5a 8f bb 32 72 91 bb
       -0.024346486 0.0745874 -0.004374753 -0.004438662
000350 48 13 38 bb b1 08 3a bd 4a 1d 07 bd c6 f2 49 ba
       -0.0028087664 -0.045418445 -0.032986917 -0.00077037176
000360 6e 96 60 be 83 60 38 3d 5c 8e c6 3e 90 0a 0f be
       -0.21932384 0.045013916 0.38780487 -0.13968873
000370 ff 6b 4d 3d b2 53 bf 3e a9 c6 89 3e 2c e3 be bc
       0.05015182 0.37368542 0.26909378 -0.023301683
000380 e7 fb 24 be bc 85 85 3e c7 20 94 be df 1a ae bd
       -0.16111718 0.26078594 -0.28931257 -0.08501219
000390 ef 4a c1 bd 2a 38 a5 bc 50 c6 cf bb 57 56 74 3e
       -0.094381206 -0.020168383 -0.0063407794 0.23861061
0003a0 7e 4e b9 b9 4b 47 32 3e 73 4a 95 bc 3e 1b 8c be
       -0.0003534443 0.17410009 -0.018223977 -0.27364534
0003b0 4e c1 21 3e d3 10 b7 be d3 ee c7 be 71 29 10 bc
       0.15796396 -0.35755023 -0.39049396 -0.008798943
0003c0 fb df 8f 3e 10 4f 08 3e 19 79 85 3e aa d6 99 bd
       0.2810057 0.1331141 0.26068953 -0.07511647
0003d0 b5 04 7e 3c 1f 31 9a be 37 ff aa 3d 57 dc 38 be
       0.015504052 -0.301156 0.083494596 -0.18052803
0003e0 bd 83 94 bc e4 34 ab bd 64 3d 3d bd 3a 42 bf 3b
       -0.018129224 -0.083596975 -0.046201125 0.0058367522
0003f0 52 52 bc 3e d9 fe 25 be f7 93 83 be eb 64 1e bd
       0.36781555 -0.16210498 -0.25698826 -0.03867046

layer_1.bias f4 [400]
000000 5e 9c ac 3e d9 e4 f3 3b a7 e7 5a 3d b1 9e cf 3d
       0.3371305 0.0074430523 0.053443577 0.1013769
000010 14 dd 14 3e f1 ac e3 3d 45 2b 75 3c c7 82 61 3e
       0.1453746 0.1111697 0.01496393 0.22022544
000020 92 8c 0d bd 0c ec da 3d b9 d6 5b be d0 fe c8 3e
       -0.034557886 0.106895536 -0.21468629 0.39256907
000030 2f 58 91 3d b7 b3 a8 3e 9e 55 4a be 3b f3 65 bd
       0.07096898 0.32949612 -0.19759223 -0.056140166
000040 75 31 8f bd ea ae c3 3d 25 2d 70 3e ca e3 ed 3e
       -0.06991855 0.095548466 0.23454721 0.46462852
000050 ee 2e ad bd 6d 22 ca bd 7e 95 a4 3b de ca 84 be
       -0.08456217 -0.098698474 0.0050227037 -0.25936025
000060 9c e8 a4 3e 9c ff e0 bc 21 63 1a 3e a6 bd 97 bd
       0.32208717 -0.027465634 0.15076877 -0.074092194
000070 49 ef df 3e a0 d4 50 be 1b 6d 6b 3d fc db 80 3e
       0.43737248 -0.2039361 0.057477098 0.25167835
000080 8b 00 cf 3e 4f fa e3 3e c6 78 e4 3e 5d e6 2f be
       0.40430102 0.44526908 0.44623393 -0.1717772
000090 a5 b0 d7 3d 2b 4e 0b be c6 4c bd 3e d3 36 b3 3e
       0.10531739 -0.13604037 0.36972636 0.35002765
0000a0 cc ad ff 3c de 9a 92 3e 33 82 ad 3e bb fe 65 3e
       0.031210802 0.2863378 0.33888397 0.22460453
0000b0 b9 c6 1d 3e 92 06 0e 3e f4 20 99 3d 41 f4 1e 3e
       0.15407838 0.13869694 0.074769884 0.15522863
0000c0 cb 7d 1b 3d 1a a2 30 be 8e 72 53 3e bd 73 af be
       0.037961762 -0.17249337 0.20649168 -0.3426799
0000d0 97 87 8b 3e 4b 9d eb 3e 5c 13 93 3e 63 9e ae 3e
       0.27251884 0.46018443 0.28725708 0.34105214
0000e0 27 d1 07 3d 6f cd d0 3e af 1d 48 3e dd 03 5d be
       0.033158448 0.40781733 0.19542573 -0.21583505
0000f0 2a 0f f8 bd 91 fb 1e b9 82 21 7a 3e 48 6d 11 be
       -0.12112267 -0.0001516177 0.24426845 -0.14201844
000100 e2 0c 80 3d cd 75 86 3e 7d 69 08 3f b5 e2 85 3e
       0.06252457 0.2626175 0.5328596 0.26149526
000110 0b 31 e9 3c c1 17 d9 3c ea 15 dc 3c 9f 34 d1 bd
       0.028465768 0.026500585 0.026865918 -0.10215115
000120 f1 e7 10 be f2 c0 1f be e9 c4 ad bd 05 95 9a 3e
       -0.14150979 -0.15600947 -0.08484823 0.30191818
000130 c7 62 82 bd 1a 8e 41 bd 8f e1 35 be 4b 94 b5 3d
       -0.063664965 -0.04725466 -0.17761825 0.08866175
000140 2d 53 65 be e3 bc 84 be 3d 22 32 3e ec 1e 94 3c
       -0.2239501 -0.2592536 0.17395873 0.018081151
000150 0f a1 ee 3d 1a b8 c7 bc be f2 3b bd 21 d3 a9 3d
       0.11651813 -0.024379779 -0.045885794 0.08292223
000160 63 2f f0 bd 6d 95 33 bc f9 8d 06 be 39 fc ea 3e
       -0.11727788 -0.010960919 -0.13140096 0.45895556
000170 52 1f 28 bb 38 ee 93 3e 05 d9 91 3e a7 68 98 3d
       -0.0025653434 0.28892684 0.28485885 0.07441836
000180 d8 e3 11 3e a9 1b 9b bc 00 bb c0 3e 0d 24 e4 3e
       0.14247072 -0.018934088 0.3764267 0.44558755
000190 39 1e 4d 3e 35 cf d5 3e 30 a5 42 be 5e fa f4 3e
       0.2003106 0.4175965 -0.19008327 0.47847265
0001a0 5b 8c 95 3d 66 d6 97 3e 04 aa aa bd d8 9e 2a 3e
       0.07302161 0.2965576 -0.08333209 0.16662157
0001b0 7b 88 81 3e d1 ea 6e be b2 b4 7e 3e 54 90 4e 3d
       0.2529944 -0.23331763 0.24873617 0.05043061
0001c0 91 00 a4 3e fe 54 65 3c cc 91 7e 3d 3a b9 4e 3e
       0.32031682 0.0139973145 0.06215076 0.20187846
0001d0 60 00 7f be 4e 1a fc bd 12 21 01 bd 92 10 82 be
       -0.24902487 -0.12309705 -0.03152568 -0.25403267
0001e0 9d 43 4e be d2 f7 52 be 1b 25 1a 3e e0 b8 4d be
       -0.2014298 -0.20602348 0.15053217 -0.20090055
0001f0 b0 98 72 3d e7 a6 8a bc 92 5c b7 bd 7c b3 e9 bd
       0.059227645 -0.016925288 -0.08953203 -0.11411187
000200 29 49 67 3d 9c c0 32 3e 55 fb 6c bd e1 12 de 3e
       0.056466255 0.17456287 -0.057856876 0.43373778
000210 b1 cd 5c be 25 0e e7 3c 70 ce bf bd 8f 4e f5 3e
       -0.2156284 0.028204987 -0.09365547 0.47911498
000220 b5 03 0b bd ec 76 b4 3e 55 f0 45 3d 27 5e ad 3e
       -0.033939082 0.3524698 0.0483249 0.33860895
000230 c2 37 ab 3c 12 60 09 be 58 7d a9 bd 05 c2 9f 3e
       0.02090061 -0.13415554 -0.082758605 0.31202713
000240 d5 87 cc 3e 50 80 e7 bc 32 72 b6 3c 13 14 de bd
       0.39947382 -0.028259426 0.02227125 -0.108436726
000250 1b 62 07 bc 47 0a d1 38 35 19 56 3e f2 ea 52 be
       -0.008263136 9.967811e-05 0.20908053 -0.20597437
000260 13 d3 80 3d c2 d1 14 bb 3e 19 30 be 7c c3 07 3e
       0.06290259 -0.0022708033 -0.17197129 0.13258165
000270 75 79 e2 3d f8 6a 5c be 91 a1 18 be 24 10 95 3c
       0.11058322 -0.2152518 -0.14905383 0.018196173
000280 4a cb 30 3b e1 08 ce 3b 87 7d b1 3d b9 0f 31 3e
       0.0026976638 0.0062876795 0.086665206 0.17291154
000290 bd fc 6e be 41 bb 5c bd 63 4d 77 3e 41 6d 2e 3d
       -0.233386 -0.053889517 0.24150614 0.04258466
0002a0 a4 1f d8 3d ef f4 88 be e7 24 fb 3c ed 45 27 bd
       0.1055291 -0.2674937 0.030657245 -0.04083817
0002b0 4f 86 6d be 50 08 3a 3e 62 c0 94 3d fa 30 83 be
       -0.23195766 0.18167233 0.072632566 -0.25623304
0002c0 ff a1 8e 3e 68 e8 51 be 22 53 83 bc 5e ed c2 bd
       0.27857968 -0.20498812 -0.016030852 -0.095179304
0002d0 c9 f9 8c 3e 4d 4e 04 be da 16 fd 3e 36 1a 9c 3e
       0.2753432 -0.12920494 0.49431497 0.30488747
0002e0 6c 16 cd bc c9 01 34 be 82 22 16 3d 74 d0 ed bd
       -0.025035106 -0.17578806 0.036654003 -0.11612025
0002f0 a1 44 9f 3e 0c 72 3e 3e a0 05 b6 3e 80 35 aa 3e
       0.31107047 0.18598193 0.35551167 0.33243942
000300 27 2b 2c be 3c a4 de bd 7d 56 c8 3e d4 7e 9c 3e
       -0.16813336 -0.10871169 0.39128485 0.30565512
000310 e0 8a c1 3e bf b0 e5 bd 60 e1 1f 3e 00 8b 51 be
       0.37801266 -0.11215352 0.15613317 -0.2046318
000320 1b 83 74 3e 3c 64 89 be 2e 82 cc 3e d0 24 17 be
       0.23878138 -0.26834285 0.3994307 -0.14760137
000330 66 c6 50 3e b4 50 b7 3e 37 bb 3e be eb 4a 88 3e
       0.20388183 0.3580376 -0.18626104 0.26619658
000340 b9 7c 85 be f0 23 24 3e ce 5f b0 3e 5e 07 8b bc
       -0.26071718 0.16029334 0.34448093 -0.016971286
000350 63 7d e2 bd bb 3e c9 bd ae 29 aa 3e 76 7e 01 3d
       -0.11059072 -0.09826418 0.33234924 0.031614743
000360 f4 c7 24 3e 21 79 ca 3e 05 39 44 3d f3 d3 2c be
       0.16091901 0.3954554 0.04790594 -0.16877727
000370 f3 e5 60 3e 8c ac 07 3e ca 4b ea 3e b4 1f ab 3e
       0.21962719 0.13249415 0.45760947 0.33422625
000380 94 bb 3b 3d d3 90 06 be 09 bb 2b 3e e2 dc c4 bd
       0.045833185 -0.13141184 0.16770567 -0.096124426
000390 79 9f 75 3e 6f 53 53 3e 58 1d b2 3e 3c f6 66 3e
       0.23986615 0.20637296 0.34788013 0.22554868
0003a0 92 7f d8 bc 23 69 b8 be ad a6 7c be fa 81 e3 3e
       -0.026428018 -0.36017713 -0.24672957 0.44435102
0003b0 2c 79 d1 3d 19 0b 2d be 96 9b d4 3e f3 1a d6 be
       0.1022819 -0.16898765 0.41524953 -0.41817436
0003c0 c7 30 97 3e 60 bb de 3e 27 a4 d1 bc 08 a5 3a 3e
       0.29529402 0.4350233 -0.02559097 0.18227017
0003d0 20 d6 ce 3e a0 4b 21 bc b1 a9 38 be 0a 06 22 3e
       0.4039774 -0.009844691 -0.18033482 0.15822616
0003e0 85 07 cc 3d bd df b2 bd c7 48 07 be e3 46 02 3f
       0.09962372 -0.08734081 -0.13211356 0.50889415
0003f0 64 83 ad 3d 53 9c 10 be ff ad a3 3e 29 17 13 3e
       0.084723264 -0.14122133 0.31968686 0.14364304

layer_2.weight f4 [300, 400]
000000 90 ca 0d 3d ee bb 0f 3c 79 44 5a bd 71 93 75 bd
       0.034617007 0.008772833 -0.053287957 -0.059955064
000010 1b f6 d9 3c 35 3f 94 3c c8 79 fe bd 87 cb b8 bd
       0.02660661 0.018096546 -0.12425572 -0.09023195
000020 75 82 48 3d 35 18 b3 3c 0b 78 11 3d 15 67 26 3d
       0.04895254 0.021862129 0.035514873 0.04062565
000030 59 cf 88 bc 6a c3 c3 bc 01 90 27 be 6b 0f c3 bd
       -0.016700434 -0.023896892 -0.16363527 -0.09524425
000040 89 0f ff bd ef 48 24 bd 00 18 ba 3d d7 5f 43 be
       -0.12454135 -0.040108617 0.09086609 -0.19079529
000050 6c bd 89 bd ad 2b 0e 3c 8c ca fa bd 67 6a 40 bd
       -0.067255825 0.008677405 -0.12245664 -0.046976473
000060 f2 1c ba bd 03 9d 07 3d 32 88 96 bc 06 97 39 bd
       -0.09087552 0.033108722 -0.01837549 -0.045310043
000070 13 44 56 bd 0c 0e b3 bd 8a a3 8b bb 09 6a 6b 3d
       -0.052311014 -0.087429136 -0.0042614387 0.05747417
000080 d3 94 2a 3d c4 a6 a6 bd 91 7d a6 bd 53 a5 b2 3b
       0.041645836 -0.08137277 -0.08129419 0.005451837
000090 09 1c f9 3d ea 60 4d 3d d8 22 3f bd b4 06 77 3d
       0.121635504 0.050141253 -0.04666409 0.060309127
0000a0 a0 ab 0a be 45 80 8e 3c bf 2e 2a bc e1 b5 5e 3c
       -0.13542032 0.017395148 -0.010387122 0.013593168
0000b0 17 04 2f bd e2 dc 11 bd 19 7b 02 3e f1 58 74 3a
       -0.04272851 -0.03561104 0.1274227 0.00093211146
0000c0 25 9b aa bd 4f c8 40 3e 35 83 b3 3c 19 6d ba bd
       -0.08330373 0.18826412 0.02191315 -0.0910284
0000d0 9d 3a 24 3d e0 b7 6c bc a0 f8 c2 bd a4 9e ad 3d
       0.04009496 -0.014448136 -0.09520078 0.08477524
0000e0 e4 5b 78 3c ab 04 e4 bd 25 6e a2 3c 41 42 34 bd
       0.015158627 -0.11133703 0.019827912 -0.044008497
0000f0 29 0e 5b 3d 32 18 43 3b 00 00 dc bd 25 d7 da 3d
       0.0534803 0.002976906 -0.107421875 0.10685567
000100 cd ad 83 3c 03 d7 d3 bc 29 54 e4 bd 58 3f c7 bc
       0.016074086 -0.025859362 -0.11148865 -0.024322197
000110 e5 c9 68 bd c0 99 f1 bc 61 99 80 3d ad 5a 3e bd
       -0.056833167 -0.029492259 0.06279255 -0.046473194
000120 a5 06 b3 bd 79 70 09 3d 6b 17 35 3c 91 0f a1 3d
       -0.08741502 0.033554528 0.011052947 0.07864297
000130 3b fe a1 bc bf a5 7a 3d c7 f3 94 3c a9 15 cd bd
       -0.019774547 0.061193224 0.018182648 -0.10013897
000140 06 46 f5 3a 56 5c df bc 1a 84 b0 3d 1d 25 6a 3c
       0.0018712885 -0.027265709 0.086189464 0.014291075
000150 fb 08 1f bd b6 e9 fe bd 7d 5f 10 3e 48 5f 70 be
       -0.038826924 -0.124469206 0.14098926 -0.23473847
000160 7a f6 8b bd af 8a 97 3c 76 ca 08 3c 5d e8 51 3d
       -0.06834121 0.018498747 0.008349052 0.05124699
000170 ff 2b 0f 3d 48 8c 0b 3e a4 dc 0d bb 35 8a 09 bd
       0.034954067 0.13627732 -0.0021646405 -0.03357907
000180 50 bd 84 bd 86 01 23 be 69 be 07 be 1c f0 12 bd
       -0.06481421 -0.1591855 -0.1325623 -0.035873517
000190 a7 1d 8d bd 67 a1 0e be 54 9a c3 3c 68 67 ad 3d
       -0.06890421 -0.13928758 0.0238773 0.08466989
0001a0 aa a9 be 3c b3 3a a2 3d 44 8e ab bd 9b 2f 8a 3d
       0.023274262 0.07921352 -0.083767444 0.06747361
0001b0 1f 66 ef 3b ef 72 a6 3c 36 31 6b bd c3 a4 f9 bc
       0.007305875 0.020318476 -0.057419978 -0.030474072
0001c0 95 57 ea bd b4 e5 b8 3d 48 82 23 3d b6 5d a6 3c
       -0.11442486 0.090281874 0.039919168 0.020308357
0001d0 f0 51 a4 bc 9d 29 04 3e f9 7a 39 3d 94 67 b0 3d
       -0.020058602 0.12906499 0.04528329 0.08613506
0001e0 6d 06 f3 bd 1d 50 3b bc b3 a0 6d bb cc 2a 8d 3c
       -0.1186646 -0.011432675 -0.0036259114 0.017232321
0001f0 76 f0 18 bc d0 43 40 3d 67 9a d7 3d 42 0b d7 3b
       -0.009334674 0.04693967 0.10527497 0.0065626213
000200 0e f6 36 3c fc 21 0e bd d4 9a 02 bd 58 3b 5c 3d
       0.011167062 -0.03470038 -0.031885937 0.053767532
000210 c2 ae e0 3c b1 a9 13 bd ce 83 68 bd 94 f1 d7 bd
       0.027427081 -0.036050502 -0.056766324 -0.10544124
000220 66 2c ba bd f1 69 01 be 25 0b 55 3d 86 fe eb 3b
       -0.090904996 -0.1263807 0.05201258 0.0072019724
000230 c8 22 cf bc 13 72 59 bc 68 28 1f 3d 98 6b 86 bd
       -0.02528514 -0.013271826 0.038856894 -0.06563491
000240 e9 bb ce 3c ca 1a 64 bd 45 5e 03 bd f9 66 33 3d
       0.025236087 -0.05568961 -0.032072324 0.043799374
000250 64 b1 ed bb 09 ba a8 bd 2d c5 50 3c 85 e8 ac bb
       -0.0072538126 -0.082386084 0.012742323 -0.005276742
000260 9c ef 07 3e 70 d4 94 bd b3 ba 92 bd 70 ff ad 3c
       0.13274997 -0.07267082 -0.07164516 0.021239966
000270 61 91 b8 3c 32 a1 b5 bd d2 f0 29 3d 00 a4 15 3e
       0.02253026 -0.08868636 0.04148943 0.14613342
000280 cd ce 7d 3d b3 f2 3a 3c a4 14 2a 3a d5 39 12 3e
       0.0619648 0.011410403 0.0006488061 0.14279874
000290 dd 43 3b bc 36 c8 6b bd cf ed df 3c 7c 61 a0 3d
       -0.011429754 -0.057563983 0.027335076 0.07831094
0002a0 c3 e5 22 bd 32 7f 55 3d 1a 82 af bd 62 5a 3b 3d
       -0.0397699 0.052123256 -0.08569737 0.045740493
0002b0 41 4a 37 3d dd 04 0a 3d b4 da 5b bd 36 86 05 bd
       0.04474855 0.033696044 -0.05367537 -0.032598697
0002c0 ce ee cf bc 66 d7 ef bd 1b 68 a1 3c d0 ce 1f bc
       -0.025382426 -0.11711006 0.019702962 -0.009753898
0002d0 05 4b bf bc 65 86 1e bd 66 0d c1 bd 38 ef c1 bd
       -0.023351202 -0.038702387 -0.09426384 -0.094694555
0002e0 7e bf d4 bc c5 14 5e bd 84 e5 5b bd 6e fa 2c bb
       -0.025970217 -0.054219026 -0.05368568 -0.0026394385
0002f0 c8 b4 f4 3c 99 e0 50 bc c4 4f e3 bd 6e fd e6 3c
       0.02987136 -0.012748861 -0.110991985 0.028197017
000300 5a 7a 2c be ba 6e 03 be 65 0c 03 3d eb 20 08 3d
       -0.16843548 -0.12835208 0.031994242 0.033234518
000310 b5 69 72 bd 54 cb cd 3d 3c 09 f0 3c 74 28 25 bc
       -0.05918284 0.100485474 0.029301278 -0.010080446
000320 a3 a5 9c bd 07 18 4c 3d ec 03 10 3c 00 2b fb 3d
       -0.0764878 0.0498276 0.008789998 0.12264061
000330 97 c1 4e bd 30 25 01 bd 8e c2 a6 3d d2 9b 01 3d
       -0.05047759 -0.031529605 0.08142577 0.031642742
000340 3f 93 93 3d a3 54 0b 3d 5f 89 c8 bc a9 33 98 3d
       0.07205819 0.034016263 -0.024479566 0.074317284
000350 30 d1 67 3d af 43 ed 3d 7b d5 47 3d 92 2b 93 bd
       0.05659598 0.11585175 0.048787575 -0.07186045
000360 4b 92 65 bc 40 b0 1a be 02 37 90 bd 77 45 3c 3b
       -0.01401193 -0.15106297 -0.07041742 0.0028727928
000370 55 6b 4c bd 9d f2 02 be 4d e2 40 bd 95 5e 44 3e
       -0.049907047 -0.12787862 -0.047090817 0.19176705
000380 6e f6 44 3d 0e a1 7c 3c 51 7c 50 bd 97 c2 cc 3b
       0.048086576 0.015419258 -0.050899807 0.006248783
000390 5a 26 2b 3d 73 b4 b0 3c e4 a8 56 3d c5 8a c1 bd
       0.04178462 0.02157042 0.05240716 -0.09450296
0003a0 c2 09 b6 3d 11 89 a2 bb e7 92 6a bd c8 a2 36 3e
       0.0888858 -0.0049601872 -0.057269003 0.17835534
0003b0 b6 1a e8 3c 05 de 2a bd fc 78 dc bb 06 80 bf 3d
       0.02833305 -0.04171564 -0.0067282896 0.093505904
0003c0 77 e6 2f bd 58 f5 a0 3c fc 2b 87 bd 34 3d f3 bd
       -0.042944398 0.019648239 -0.06600186 -0.11876908
0003d0 0b 5e af 3c f1 96 ad bd 9b a0 8b 3d a7 5e 9f 3d
       0.021407148 -0.084760554 0.068177424 0.077817254
0003e0 5f 34 0d 3e bb a9 6f bd 3d d7 2b 3c 08 bf 1c be
       0.13789509 -0.058511477 0.0104883285 -0.15307248
0003f0 04 f6 49 bd 2b cc f3 bd c3 2b 9f bc 69 d4 2e 3d
       -0.049306884 -0.11904176 -0.019430047 0.04268304

layer_2.bias f4 [300]
000000 15 f0 d7 bc ff 00 15 bd 07 02 76 bd 92 f4 9d 3d
       -0.026359597 -0.036377903 -0.060060527 0.07712664
000010 87 5b d8 bd 18 56 21 be 5e 8f 78 be 5c f1 a7 bd
       -0.105643325 -0.15755498 -0.2427344 -0.082003325
000020 cf 88 07 bd ee 2c f8 3d d4 98 08 bd b1 04 a3 3c
       -0.033089455 0.12117945 -0.033348873 0.019899698
000030 c3 c1 9e 3d 91 91 b4 3d 4f b9 00 bd 51 72 a6 bd
       0.07751801 0.08816827 -0.031426724 -0.08127273
000040 3f c5 9c bd aa a2 1a 3e 0c a5 78 3c 5f 97 78 be
       -0.07654809 0.15101114 0.015176069 -0.24276493
000050 a5 6e ff 3c 9e 25 ea 3c ea 12 06 3d 7c 8d be 3c
       0.03118069 0.02858239 0.03273288 0.023260824
000060 80 73 13 be e4 22 26 bd 4f d3 d6 bd eb f9 a2 bd
       -0.14399529 -0.040560618 -0.10489523 -0.07957824
000070 92 bc bb 3d 6e 3f 0a 3d e7 98 83 3d 6e 70 1d be
       0.09166826 0.033751898 0.06425648 -0.1537492
000080 63 75 cf bd df b1 04 3e 51 83 5e 3d 88 44 af bd
       -0.101298116 0.12958477 0.05432445 -0.08557993
000090 4c 05 a8 bd 61 de 66 3c 40 65 7b 3d 34 24 76 bc
       -0.08204135 0.014091105 0.061375856 -0.01502328
0000a0 c5 66 a3 bd 91 8a b1 bd c6 a6 87 3d 45 96 c4 bd
       -0.07978586 -0.086690076 0.066236064 -0.09598974
0000b0 5e 54 aa 3d 43 ca a9 3d e3 b3 93 bd 36 6c 15 3e
       0.08316873 0.082905315 -0.07212045 0.1459206
0000c0 55 4a 0a 3d 0d 12 01 3d 16 1b 95 bd 16 3c 32 3b
       0.033762295 0.031511355 -0.07280557 0.0027196459
0000d0 93 15 1f 3d e2 7d b6 bd c2 1f 8e 3c 63 41 10 3d
       0.038838934 -0.08910729 0.017349128 0.035218608
0000e0 f1 f7 17 bd 43 8f 9f 3d e5 78 11 be b0 54 ae 3d
       -0.03710169 0.07790997 -0.14206274 0.085122466
0000f0 7f 8f 18 bd 69 20 40 3d ff a0 a4 3d 74 6a b8 bd
       -0.037246224 0.04690591 0.0803852 -0.09004679
000100 16 0b bb 3b b2 5b 89 bd 75 0a a7 3c 0b 78 6b be
       0.0057081087 -0.067069426 0.020390728 -0.22995012
000110 e0 92 91 bd 38 d3 90 bd fb 8d c5 bd 2f 08 d2 bd
       -0.07108092 -0.07071537 -0.09646221 -0.10255467
000120 4d ed 95 bd 71 08 7b 3d 2c b3 06 3d 80 4e a9 3d
       -0.07320652 0.061287347 0.032885715 0.08266926
000130 b6 88 25 3c d7 e9 26 be b9 97 1d 3a 1e 6f 5e 3d
       0.010103395 -0.1630014 0.0006011683 0.05430519
000140 5c dd 06 be ba ac 21 bc 1a 76 70 3d b9 17 0d 3d
       -0.1317038 -0.009867841 0.05870638 0.03444645
000150 55 7f de 3d fb 59 4c 3d 43 2a b8 3c f7 46 03 3d
       0.108641304 0.0498905 0.02248109 0.0320501
000160 8e 6b 39 be 9b 19 6e bc f1 1b 67 be f4 1e 1c bd
       -0.18107435 -0.014532472 -0.22569253 -0.038115457
000170 c7 fd e3 3c 98 40 ea 3d d6 f4 9a 3d af 84 cb 3d
       0.027830971 0.114381015 0.0756623 0.09937417
000180 64 ea 10 be b4 a9 19 bd ae 12 cb 3d 9b 09 5f 3d
       -0.14151913 -0.037515357 0.09915672 0.05445252
000190 8f 54 21 bd 67 59 6b 3c d9 b1 ca 3d 9f 63 a2 bd
       -0.039387282 0.014364577 0.09897203 -0.079291575
0001a0 c5 df d6 3d 46 fb 2d bd 05 9a fc 3b 69 e2 56 3d
       0.104918994 -0.04247596 0.0077087902 0.052462015
0001b0 e3 7e e1 bd 23 ae 19 be 2c 63 81 bd 6f 6b 73 be
       -0.1101053 -0.15007834 -0.06317744 -0.23771451
0001c0 93 59 fa bb 3c 24 17 be e7 20 31 3d 33 79 9b bd
       -0.0076400726 -0.14759916 0.04324427 -0.07591476
0001d0 f0 29 00 bc 1b 23 9a 3d c2 8e 10 3d 07 d6 5b bc
       -0.007822499 0.07526227 0.035292394 -0.013417727
0001e0 7c f8 29 3d 04 75 02 3e 95 71 ee 3c 61 b1 87 3c
       0.04149674 0.1273995 0.029106895 0.016564073
0001f0 56 2a a8 39 24 fd 86 bd 3d 62 01 bd 8f 9f 28 3d
       0.00032075 -0.065912515 -0.031587828 0.041167792
000200 18 d1 ce 3d 3e e4 8c 3c 88 2e 0a 3d 3d 44 32 3d
       0.10098475 0.017198678 0.033735782 0.04352211
000210 53 12 25 3b 67 0c 2e be ee de b0 3c ca 0b 0d 3d
       0.0025187924 -0.16996919 0.021590676 0.03443507
000220 bd 79 93 bd 07 40 cf 3c a7 54 95 3d fb fa 97 bc
       -0.07200954 0.025299085 0.07291537 -0.018552294
000230 8e 43 13 bd 69 ce 55 bc b0 ee b6 3d cc 1b 0c 3d
       -0.035953097 -0.0130497 0.08932245 0.034206197
000240 0e ff 7e bd 1c f6 47 bd c1 a9 28 3d 16 1b ef 3d
       -0.062254958 -0.048818693 0.041177515 0.11675088
000250 0d 04 f4 3d 5c 4a 21 bb 21 a3 f6 3d e7 92 d0 bd
       0.11914835 -0.0024610972 0.12042833 -0.101842694
000260 f3 bd bc bd 19 2e e8 3d fa 1b 3a bd a7 56 ad bd
       -0.092159174 0.113369174 -0.045436837 -0.08463793
000270 3d 61 2f 3d a2 a5 04 3d 34 2f 0f 3e 92 78 37 3d
       0.042817343 0.032384522 0.1398285 0.04479272
000280 18 8c a2 bb c0 b9 db 3d 0f c9 ce 3d 23 8a 59 3e
       -0.004960548 0.107287884 0.10096943 0.21244101
000290 41 b7 8b bd f7 45 e4 bd 89 e2 09 be 06 3d 87 3c
       -0.06822062 -0.11146157 -0.13465323 0.01650859
0002a0 4a 8a 56 3d 92 43 c1 3d 2c 0a b5 bd eb f8 f4 3d
       0.052377976 0.09436716 -0.08839831 0.1196154
0002b0 60 d8 02 3e e1 54 20 3d 16 e4 99 bd 62 7d 70 3d
       0.12777853 0.039143447 -0.07514207 0.058713324
0002c0 76 fd 40 be b0 91 b1 bd 27 46 3f 3e aa db f6 3d
       -0.18846688 -0.08670366 0.18679105 0.12053616
0002d0 b1 34 14 3d 55 f3 96 bd 76 11 15 be 6a 49 64 bd
       0.036183063 -0.07370631 -0.14557442 -0.055734076
0002e0 6a 1a aa be c8 0f d7 bd 06 8b 12 3d 5c cb 0b 3e
       -0.33223277 -0.10501057 0.035777114 0.13651794
0002f0 ea 82 b4 bd 2a cc f3 bb ca 42 80 3c 95 ea b6 3c
       -0.088140324 -0.0074401097 0.015656848 0.022328654
000300 01 07 a3 be 29 0f 41 3a b8 1f 1d 3d f6 06 fd 3d
       -0.3184128 0.0007364625 0.038360327 0.12354843
000310 42 a1 cb bd 10 99 40 3d c0 37 8d 3d 3d 88 f7 bc
       -0.09942867 0.04702097 0.06895399 -0.03021633
000320 61 0f 53 3d 61 47 68 3d a4 d4 ba 3c b7 5e 2c bd
       0.05152834 0.056708697 0.022806473 -0.042082515
000330 45 96 02 3e 88 db bb 3c a2 a4 22 be a5 04 2b 3d
       0.12752636 0.02293183 -0.15883115 0.041752476
000340 81 60 0b 3e b0 62 67 bd 49 d5 0c 3d bb cb 95 bd
       0.13611032 -0.0564906 0.034383092 -0.07314249
000350 a9 80 bf 3c 51 ed 3f 3d 36 de 78 bd 90 82 cd 3d
       0.02337678 0.046857182 -0.060758792 0.100346684
000360 c7 1e cb 3c e3 c5 67 3d 49 cc cd 3d 0a 62 0f 3d
       0.02479495 0.056585204 0.1004873 0.035005607
000370 aa 52 98 3d 85 dc 0c be a5 10 8e 3c b3 c5 0e bd
       0.07437642 -0.13755997 0.017341921 -0.03485651
000380 e3 b5 b6 3d 82 da 89 3c 44 8d c5 3d 67 39 8e 3d
       0.08921411 0.016827825 0.09646085 0.069445424
000390 e9 85 31 bd 55 d5 f0 3d b6 fa 99 3c c6 69 dd bc
       -0.043340597 0.1175944 0.018796306 -0.027027976
0003a0 e7 65 10 bd 7e 04 a2 3d 44 73 cf 3d 00 2d 14 3e
       -0.03525343 0.07911013 0.10129407 0.14470291
0003b0 88 99 cc 3d ca 6e 51 3e 61 f2 d1 bc f2 a1 f5 3d
       0.09990221 0.20452419 -0.02562827 0.11993779
0003c0 ab 02 c8 3d c0 2a 2d 3d 34 c5 c0 3c 32 20 19 3e
       0.09766134 0.042277098 0.023531534 0.14953688
0003d0 c7 a4 27 3d 2e e0 cd 3c 4b 69 5c 3d 30 5c 21 bd
       0.04092863 0.025131311 0.053811353 -0.039394557
0003e0 2d 19 b2 bd c2 30 a9 3d 2e e8 4e 3d fa 60 8b 3d
       -0.08696208 0.08261253 0.050514393 0.06805606
0003f0 bc 9b 2e be a8 05 7c 3d d8 7e e8 3c e4 2b 65 bd
       -0.17051595 0.06152883 0.028380796 -0.05595006

layer_3.weight f4 [6, 300]
000000 c3 3f fe bd 2b 93 f9 bd 2a 31 99 3c 7d 46 8b bd
       -0.12414505 -0.12186273 0.018700201 -0.06800554
000010 11 3e 07 be 5c 2d ba 3e f6 bd 7e bc 1b 84 28 3d
       -0.1320727 0.3636273 -0.01554822 0.04114161
000020 0c ec 54 bd 07 f3 cc 3d fc e6 c6 3e 6e 74 55 be
       -0.051982924 0.10007291 0.38848102 -0.20845196
000030 c1 eb fa 3c 31 64 e6 3d 4d 90 09 be e9 df 9b 3e
       0.030629994 0.11249579 -0.13433953 0.30444267
000040 80 9a b2 bd a5 54 49 3e 71 22 57 be c2 bf c1 3e
       -0.08720875 0.19661196 -0.21009232 0.37841612
000050 10 5e 24 3e db 2c c8 3b d6 9f 7d 3c 27 b8 c9 bd
       0.16051507 0.006108863 0.015480002 -0.098495774
000060 19 2b a0 3e c9 61 aa bd 34 fd 07 3e e9 07 de bd
       0.3128288 -0.08319432 0.13280183 -0.108413525
000070 34 c6 e1 3c 64 b2 75 be 45 4d 32 bc 83 e3 04 bd
       0.02756033 -0.23993832 -0.01088268 -0.032443535
000080 8f 34 ed 3d 06 b0 32 3d d1 1e 15 3d b2 9b fb 3e
       0.115822904 0.0436249 0.036406342 0.49142224
000090 d7 1d d7 3d 9e 18 2a 3d 73 a7 ac bd 82 47 b8 bd
       0.105037384 0.041527383 -0.08430376 -0.08998014
0000a0 82 65 68 bd eb 4e b8 bd e5 32 fa bd 34 fb ad bd
       -0.05673743 -0.089994274 -0.122167386 -0.08495179
0000b0 75 59 b9 3d f0 ce 8b 3b 68 c5 75 bd 9e c3 42 be
       0.09050266 0.004266612 -0.060002714 -0.19019935
0000c0 92 7d 0d 3e e9 21 52 3d a6 4d 4e 3e 5d 12 40 be
       0.13817433 0.05130187 0.20146808 -0.18757005
0000d0 ce 9e 61 3a ad 8b 0d be 68 6d 87 3c 5d 5e d5 3d
       0.00086067326 -0.13822813 0.016531661 0.10418389
0000e0 bb 4a 82 bd 66 77 07 3e b0 27 60 3d a0 6e 83 be
       -0.0636191 0.1322914 0.05472535 -0.25670338
0000f0 f9 9a b2 bd 36 25 16 3e 5b a7 98 3d 43 91 97 3d
       -0.08720965 0.14662632 0.074537955 0.07400753
000100 fe 03 82 bd ec aa 13 be 69 fe 88 3c ed a9 90 3e
       -0.06348418 -0.1442067 0.016722875 0.28254643
000110 fa bf 46 3d ab c8 8b bc 7a 99 16 bc b1 34 9f 3e
       0.048522927 -0.01706346 -0.009191865 0.31094888
000120 65 0b 92 bd 6b 0a 7d bd b8 51 c8 3c 8b 53 6f 3c
       -0.071310796 -0.061777513 0.024453029 0.014607321
000130 b3 f5 5b bc a2 30 a3 bd 8e ec 40 3d 32 13 34 3e
       -0.0134252785 -0.0796826 0.047100596 0.17585447
000140 f0 50 23 3d 38 99 0c 3d e1 2b c6 3a c0 e4 cd 3c
       0.03987211 0.03432581 0.0015119278 0.02513349
000150 81 66 0d bd b3 84 2e bd da a6 ee bd f9 ee 4f bd
       -0.034521583 -0.04260702 -0.11652918 -0.05076501
000160 28 86 9f bd 24 f1 4c bd 28 71 47 be 4e f1 31 3e
       -0.0778926 -0.050034657 -0.1947676 0.17377207
000170 03 f3 06 3e 9b 75 28 bd 74 36 93 3c 96 13 eb 3d
       0.13178639 -0.041127782 0.017970301 0.11478345
000180 ba 63 00 bf fd cc 18 be be e3 ab 3d 37 4a 9b 39
       -0.5015217 -0.14921947 0.08393048 0.00029619198
000190 13 6f 94 3e 58 3a 97 bd e7 d6 68 3c de d1 83 bd
       0.28990993 -0.07384175 0.014211393 -0.06436513
0001a0 70 da 96 3d 0b 85 c5 3e 23 a0 41 3e ac 05 33 bd
       0.073658824 0.38578066 0.18908744 -0.04370658
0001b0 c0 3a 8b 3e a9 12 7f be 22 b7 d1 bd dd b9 b0 ba
       0.2719326 -0.24909462 -0.10240008 -0.0013483126
0001c0 3d bd 6f 3d bf e5 75 3e 8e eb ec bd 3b be f4 3d
       0.05853008 0.24013422 -0.11568366 0.11950346
0001d0 bd d7 df bd 6c ef 33 3c d8 17 64 3c e2 35 ce bc
       -0.10929821 0.010982376 0.0139217 -0.025172178
0001e0 24 4b b1 bd 6a e2 7c 3d fd a3 ce bd 5e 07 e0 3d
       -0.0865691 0.061739363 -0.10089872 0.10938905
0001f0 52 5c 64 bd ef 92 0f be 45 d5 48 bd ae 13 26 bc
       -0.055752106 -0.14020894 -0.049031515 -0.010136528
000200 c2 43 51 bd f6 4c ae bc 1e 36 4d be 4b a0 26 3d
       -0.05109001 -0.021276932 -0.20040175 0.04068021
000210 db 95 9c bd 2a 9c 20 be ac 97 68 3d dc 5f 39 bd
       -0.0764577 -0.15684572 0.05678527 -0.045257434
000220 b3 a0 11 bd 51 5d d0 3d d8 8e 1c bd af a3 e9 3e
       -0.035553645 0.10174049 -0.038222164 0.45632693
000230 00 2e a8 bd 05 97 28 bd 60 f2 91 3d f6 74 24 3d
       -0.08211899 -0.04115965 0.071263075 0.040150605
000240 64 3d d1 bb 86 a3 f5 bc 4c c4 dc 3d 3b 43 45 3e
       -0.006385492 -0.0299852 0.10779628 0.19263928
000250 11 11 29 3d a2 03 b8 bd 66 2d a8 3b a9 7c cb bd
       0.04127604 -0.08985068 0.005132365 -0.099358864
000260 e0 fa a6 bd 11 07 41 3d 5f 1f 17 bd 5a dd f9 bc
       -0.08153319 0.04712588 -0.036895152 -0.030501056
000270 6c 6e bd bd 12 db a6 bc c3 9e 47 bd 22 97 ae 3e
       -0.09249577 -0.020368133 -0.04873539 0.3409968
000280 b2 be 8b 3d a7 27 af bd 56 3a b5 3c 9f 5d be 3c
       0.068234816 -0.08552485 0.022122543 0.023238001
000290 a3 16 01 bd e3 fb 21 bd 81 e0 7e bd ea f3 9c bd
       -0.03151573 -0.03954686 -0.062225822 -0.076637104
0002a0 72 49 2f 3d 6a ca 7c 3c 0f dc 87 bd f8 7d 13 bc
       0.042794652 0.015429119 -0.0663377 -0.009002201
0002b0 ae 4e db 3e 0c 6c b8 3d dc cb 5f be 0f 0a ca 3d
       0.42833465 0.09004983 -0.2185511 0.098652
0002c0 aa b9 14 be 1d db 8f bd 4c b0 1f 3e 33 ba dd 3d
       -0.1452395 -0.070242144 0.15594596 0.1082653
0002d0 ef 73 93 3e 5b 4d d9 bd 8c 5d 3a 3e c6 37 68 be
       0.28799388 -0.106104575 0.18199748 -0.22677526
0002e0 71 75 b8 3e 74 49 c2 3d 76 87 7f 3e 1b d1 70 3d
       0.360271 0.09486666 0.24954018 0.05879317
0002f0 eb 9e 44 bc 8e c2 63 3d 23 7c 8a bd aa de 97 3d
       -0.01200078 0.055605464 -0.067619585 0.07415517
000300 1b f0 a2 be 1c 3c 93 bd 90 a2 ed bd 32 2e 63 3d
       -0.3182381 -0.07189199 -0.11603272 0.055463977
000310 a2 71 9d 3d b1 cd 5a bd 92 b4 4d be bb 22 4e bc
       0.07687689 -0.05341882 -0.20088413 -0.012581523
000320 22 12 42 3a 44 48 b3 3c 4b ed 2b 3c 97 a1 ff bc
       0.00074032147 0.021885045 0.010493587 -0.031204982
000330 40 e6 61 bc 28 70 88 3d 40 04 02 be ea 28 fc 3c
       -0.013787806 0.06662017 -0.12696934 0.030781228
000340 5d 72 b5 bd 64 00 30 3e 34 91 c3 bd e2 c4 c2 bd
       -0.08859704 0.17187649 -0.0954918 -0.09510209
000350 03 00 71 3d 55 ca 0f 3e 67 56 69 be 58 a8 ce 3d
       0.0588379 0.14042027 -0.22786866 0.10090703
000360 9f b3 b5 3a 71 52 e8 3c 91 2c 34 be 94 10 ed 3c
       0.0013862735 0.028359624 -0.17595126 0.02893857
000370 df 24 45 3d 8e 04 5f 3d c6 95 a4 bd 65 f6 14 3e
       0.048130866 0.054447703 -0.080363795 0.14547117
000380 f3 5b 43 bd c8 a0 46 bd b8 02 06 3d b5 87 43 be
       -0.04769511 -0.048493177 0.032717437 -0.19094737
000390 48 d6 0f 3e 6e a0 68 bd 9c b4 e9 3b 91 21 d3 bd
       0.14046586 -0.056793623 0.007132126 -0.10309137
0003a0 6b 90 c7 bd cd 72 56 bd 8f a0 ab 3d 89 fa 98 3d
       -0.097443424 -0.052355576 0.083802335 0.07469661
0003b0 a4 11 70 3b 85 af 6f 3d 43 93 52 bd ff e7 b1 bd
       0.0036631608 0.058516998 -0.05140997 -0.08686828
0003c0 b9 ba 1e 3e a8 f5 e6 3c cd f0 93 3d dc b1 da 3d
       0.15500917 0.02819331 0.072236635 0.10678455
0003d0 c4 20 de bd 00 27 22 3e 9c 52 5b be 5c e7 19 3d
       -0.10846093 0.1583519 -0.21418232 0.037574157
0003e0 15 9d 0c 3f c2 45 b8 3e 19 47 8f 3d ff a8 2f 3d
       0.5492719 0.3599072 0.06995983 0.042885777
0003f0 d8 8e d3 3d b6 04 1d 3e e7 43 e9 bc aa 73 81 bd
       0.1032998 0.15333828 -0.028474761 -0.06320889

layer_3.bias f4 [6]
000000 28 7b da 3c 0e 57 ed bc 17 42 4d 3d e9 2f 4d bd
       0.026670054 -0.028972175 0.050111856 -0.05009452
000010 b3 c6 cc 3d fd 4c 2c bd
       0.09998836 -0.04206561
