pytorch_models_dynaPhysics/TD3_walker_stand_0171_actor.pth (torch, 521680 bytes, 6 tensors)

layer_1.weight f4 [400, 18]
0	0xbea5bc38	-0.32370162
1	0x3c8fe75e	0.01756638
2	0xbedbe01e	-0.42944425
3	0xbde19244	-0.11014226
4	0xbd9d29ea	-0.0767401
5	0xbd216721	-0.039404992
6	0x3dc69b4d	0.0969759
7	0x3eb42265	0.3518249
8	0x3d837d94	0.064204365
9	0xbd37693c	-0.044778094
10	0xbd307476	-0.043079816
11	0xbd635b33	-0.055506896
12	0xbe773807	-0.24142466
13	0xbe109fdf	-0.14123486
14	0xbd875104	-0.066072494
15	0x3c265e8d	0.010154379
16	0x3daedf83	0.08538725
17	0x3df98a8c	0.12184629
18	0xbe9cd62a	-0.30632144
19	0xbde9e0df	-0.11419844
20	0x3e3d43b6	0.18482861
21	0x3eecbe72	0.46239048
22	0xbda38b5a	-0.079855636
23	0x3ebc8672	0.36821324
24	0xbe0f97ce	-0.14022753
25	0x3e469f56	0.1939672
26	0x3e8df4dd	0.27725878
27	0xbe57a7d0	-0.21060109
28	0xbe04adc8	-0.12956917
29	0xbde8fad6	-0.11375968
30	0xbdb28850	-0.08717406
31	0x3e48bb64	0.19602734
32	0xbd3eaebb	-0.046553355
33	0xbe1a4e2a	-0.1506888
34	0xbdc50484	-0.09620002
35	0xbe721aae	-0.2364299
36	0xbe6d9353	-0.23200731
37	0x3e3c0ecb	0.18365018
38	0x3e5558fc	0.20834726
39	0x3b695954	0.0035606222
40	0xbcfefbf1	-0.031125994
41	0xbdea4531	-0.114389785
42	0xbdbcfbf7	-0.09227746
43	0xbed56096	-0.41675252
44	0xbf11cd2a	-0.5695368
45	0xbf06bc59	-0.52631146
46	0x3e938179	0.28809717
47	0x3e27660d	0.16347523
48	0xbe077c80	-0.13231087
49	0xbb4cc7f3	-0.0031247109
50	0x3cc95cd2	0.024580393
51	0x3e74cd84	0.23906523
52	0x3db0cb0f	0.0863248
53	0x3d8dc7c3	0.06922867
54	0x3e327b16	0.17429766
55	0xbee86d84	-0.45396054
56	0x3d945161	0.07242084
57	0xbed6f8bb	-0.4198664
58	0xbebd7ace	-0.37007755
59	0xbe4d4710	-0.2004664
60	0x3e7d09ef	0.2471082
61	0x3d991692	0.07475008
62	0x3e0bb426	0.1364294
63	0x3e93dba3	0.28878507
64	0x3e1c66ce	0.15273592
65	0xbd63e04a	-0.05563382
66	0xbcb1298b	-0.021626255
67	0x3d76688c	0.060158297
68	0x3e0b047b	0.13575928
69	0x3e256698	0.16152418
70	0xbe401e71	-0.18761612
71	0xbbe8d78d	-0.007105774
72	0x3e3a987c	0.1822223
73	0x3e9f4ff4	0.31115687
74	0x3e688184	0.22705656
75	0x3eb356be	0.35027117
76	0x3d1985af	0.037481006
77	0xbdfd6699	-0.123730846
78	0xbde706fd	-0.1128063
79	0xbed56e4c	-0.41685712
80	0xbe833cc9	-0.25632313
81	0x3e5ec8ed	0.21756335
82	0x3e7b1d06	0.2452279
83	0xbe95b834	-0.29242098
84	0x3d6993af	0.057025608
85	0xbd4492bf	-0.04799151
86	0xbcc308f7	-0.023807986
87	0xbe0dfeec	-0.13866776
88	0x3e0ac950	0.13553357
89	0xbde442f0	-0.1114558
90	0xbe45eeb2	-0.19329336
91	0x3d8ff9e4	0.07030085
92	0x3e3226dc	0.17397636
93	0x3ece4a81	0.40291217
94	0xbed2efeb	-0.41198668
95	0xbd8d7ede	-0.069089636
96	0x3dc6c117	0.09704798
97	0xbd8880f5	-0.066652216
98	0x3df4d19c	0.11954042
99	0xbe4567c2	-0.19277862
100	0x3eba9630	0.3644271
101	0x3e2dc47f	0.16969489
102	0xbdfb6585	-0.12275223
103	0xbdfe8a81	-0.12428761
104	0xbe22b4e6	-0.1588932
105	0xbcc965ed	-0.024584735
106	0xbe497352	-0.19672897
107	0xbe29bfc0	-0.16577053
108	0x3ea25fba	0.3171366
109	0xbe481d1c	-0.19542354
110	0xbebd5fbb	-0.369871
111	0x3da4659a	0.080271915
112	0xbe39587a	-0.18100157
113	0x3ec66a2e	0.38752884
114	0x3dafd1f8	0.0858497
115	0xbe886b96	-0.26644582
116	0xbe16ca07	-0.14725505
117	0xbdc852a6	-0.09781389
118	0x3e425920	0.18979311
119	0x3d5deb23	0.054179322
120	0x3db546b0	0.08851373
121	0xbb6f5cea	-0.0036523887
122	0xbd5e67a3	-0.054298054
123	0x3e011e8c	0.12609309
124	0xbe71ac1c	-0.23600811
125	0xbe042bc7	-0.12907325
126	0xbe9a61ba	-0.30152684
127	0xbe8b5b71	-0.27218202
128	0x3df685f6	0.1203727
129	0xbe4fd4cb	-0.20296018
130	0xbdd7ae55	-0.10531298
131	0xbe3dcd27	-0.1853529
132	0x3d88e11b	0.066835605
133	0xbe85f505	-0.26163498
134	0x3e23fd7f	0.1601467
135	0xbe150671	-0.14553238
136	0xbce46fa0	-0.027885258
137	0xbdef99f9	-0.1169929
138	0xbc5d2c97	-0.013499401
139	0x3e033e28	0.1281668
140	0x3e672e92	0.22576359
141	0x3e179bc8	0.1480552
142	0x3e71e3d8	0.23622072
143	0xbc26e739	-0.010186964
144	0xbef18247	-0.47169706
145	0xbd947ac9	-0.07249982
146	0x3e9e3216	0.30897588
147	0x3ce64271	0.028107854
148	0xbee89bfe	-0.45431513
149	0xbd2e7aa8	-0.042597443
150	0xbefe9a09	-0.49726894
151	0xbe5f9173	-0.21832828
152	0x3e987e3b	0.29783806
153	0xbd6eb869	-0.058281336
154	0x3d74e28d	0.05978637
155	0xbe95744b	-0.29190287
156	0x3e03c3e2	0.12867692
157	0xbe3a95da	-0.18221226
158	0xbc7cc951	-0.015428857
159	0xbdd95839	-0.1061253
160	0xbd98f906	-0.074693725
161	0xbb429a83	-0.0029694147
162	0xbf0ab668	-0.5418458
163	0xbcd3e648	-0.025866643
164	0xbdc2d163	-0.095125936
165	0xbd5cdc4f	-0.05392104
166	0xbe0ace01	-0.13555147
167	0xbe055763	-0.13021617
168	0xbe672d67	-0.22575913
169	0xbe31d99a	-0.17368165
170	0x3f0c56b0	0.54819775
171	0x3d83db3b	0.06438299
172	0x3eb1f827	0.34759638
173	0x3e350b14	0.17680007
174	0xbe2e0b7e	-0.16996571
175	0x3e0b7214	0.13617736
176	0xbcebd17c	-0.028786413
177	0xbd948c15	-0.07253281
178	0x3e27033a	0.16309825
179	0xbdeab3a7	-0.11460047
180	0x3ef62024	0.48071396
181	0xbe5a231d	-0.21302457
182	0x3ea5ce99	0.32384184
183	0xbd3d6666	-0.046240233
184	0x3e24f0c0	0.16107464
185	0x3e7097ad	0.2349536
186	0x3c456abd	0.012049374
187	0x3d8b7f25	0.0681136
188	0xbe547a71	-0.20749833
189	0x3eaa4233	0.3325363
190	0x3e816cf4	0.25278437
191	0x3e429a78	0.19004238
192	0xbe444469	-0.19166721
193	0xbc431e8f	-0.011909141
194	0xbde9dd57	-0.1141917
195	0xbe46a0e9	-0.1939732
196	0xbe196298	-0.14979017
197	0x3d9d8c50	0.07692778
198	0xbe977906	-0.2958452
199	0x3d834b06	0.06410794
200	0x3e3219fa	0.17392722
201	0x3d6d75a7	0.05797353
202	0xbe945351	-0.28969815
203	0xbe5ed0bd	-0.21759315
204	0xbeb4f754	-0.35344946
205	0x3ebd7413	0.3700262
206	0xbe24612f	-0.16052698
207	0x3ed786d2	0.42095047
208	0xbcc26b52	-0.023732815
209	0x3d85cd6f	0.06533324
210	0xbc3bfd10	-0.011473909
211	0xbb88eebd	-0.0041788504
212	0x3adfaa42	0.0017064291
213	0xbd396d8f	-0.0452705
214	0xbd0d0a1e	-0.034433477
215	0x3bf983f6	0.007614608
216	0xbe526348	-0.20545685
217	0x3db2e25d	0.087345816
218	0x3ecb8938	0.39753127
219	0xbe49f24f	-0.1972134
220	0x3df684a3	0.12037017
221	0x3ebf5b82	0.37374502
222	0x3e8db8ca	0.27680045
223	0xbc302a15	-0.010752221
224	0xbe4f648e	-0.20253202
225	0x3e9fa717	0.31182167
226	0xbe92b643	-0.2865468
227	0xbdabcc81	-0.083886154
228	0xbdbdc0a7	-0.09265261
229	0xbc7dda69	-0.015493968
230	0x3c204a38	0.00978332
231	0x3e78cb6a	0.24296346
232	0x3d2b9cb0	0.041897476
233	0x3e192b59	0.14957942
234	0xbc2cf251	-0.01055582
235	0xbe90732a	-0.28212863
236	0x3e2ff823	0.171845
237	0xbec46887	-0.38360998
238	0xbed6304b	-0.4183372
239	0x3d06b541	0.0328877
240	0x3e8dcf7a	0.27697355
241	0x3e129b8b	0.14317147
242	0x3e8433a2	0.25820643
243	0xbdacfa97	-0.08446234
244	0x3d1c7ab5	0.03820296
245	0xbe8f7b0c	-0.28023565
246	0x3d8cae15	0.06869141
247	0xbe290842	-0.16507056
248	0xbcc29cec	-0.023756467
249	0xbd9b66d9	-0.07587976
250	0xbd051631	-0.032491866
251	0x3bd76772	0.006573611
252	0x3eccb1db	0.39979443
253	0xbe33c7d3	-0.17556696
254	0xbe871cdc	-0.26389205
255	0xbc42ec20	-0.011897117

layer_1.bias f4 [400]
0	0x3ec07907	0.37592337
1	0xbd016dc6	-0.03159883
2	0x3cbd9844	0.023143895
3	0x3e0fc250	0.14038968
4	0x3dfd51e0	0.12369132
5	0x3db0111b	0.085970126
6	0xbc9b3cb3	-0.018949842
7	0x3e6d6370	0.23182464
8	0xbc9ef440	-0.019403577
9	0x3e1c58d4	0.1526826
10	0xbe5be3ba	-0.2147359
11	0x3ee4081f	0.44537446
12	0x3cedca7a	0.029027212
13	0x3eabfdc3	0.33592042
14	0xbe6c09da	-0.23050633
15	0xbdfcf9a9	-0.123523064
16	0xbd784f24	-0.06062235
17	0x3e3495ae	0.17635223
18	0x3e50a189	0.20374121
19	0x3ec04663	0.375537
20	0xbdc30780	-0.09522915
21	0xbdb28110	-0.08716023
22	0xbb932b32	-0.0044912333
23	0xbe87448c	-0.26419485
24	0x3ea0397c	0.31293857
25	0xbc7e68f9	-0.015527957
26	0x3e04fa45	0.12986095
27	0xbded0042	-0.11572315
28	0x3ee32d2a	0.44370395
29	0xbe78aca1	-0.24284603
30	0x3cfd9064	0.03095264
31	0x3e884395	0.2661406
32	0x3eb0d3d0	0.345366
33	0x3ee51354	0.4474131
34	0x3ee8bcfe	0.4545669
35	0xbe63a6aa	-0.22231546
36	0x3dae30d0	0.08505404
37	0xbde7e7a2	-0.11323477
38	0x3ebc5d3a	0.36789876
39	0x3ebf0e05	0.37315384
40	0xbc846595	-0.01616172
41	0x3eb78a32	0.35847622
42	0x3ebc74bc	0.3680781
43	0x3e6a8ac6	0.229045
44	0x3e4e39b9	0.20139207
45	0x3e8c8568	0.2744553
46	0x3d654787	0.055976417
47	0x3e5a585c	0.21322769
48	0x3c3c1faf	0.011482163
49	0xbe3377cc	-0.17526168
50	0x3e69a813	0.22818021
51	0xbeb36391	-0.350369
52	0x3e8ea863	0.27862844
53	0x3ee1d407	0.44107077
54	0x3e997993	0.29975566
55	0x3eb01327	0.34389612
56	0x3af803ed	0.0018922068
57	0x3ec5477f	0.3853111
58	0x3e56641a	0.20936623
59	0xbdde7875	-0.10862819
60	0xbde85bc6	-0.113456294
61	0xbddf55d2	-0.10905041
62	0x3e71008e	0.23535368
63	0xbde89b02	-0.113576904
64	0x3bf7b773	0.0075597106
65	0x3e75fe0c	0.24022692
66	0x3f084773	0.5323402
67	0x3e816b7e	0.25277323
68	0x3d8ed73a	0.06974645
69	0x3dc28a7e	0.094990715
70	0x3dd74841	0.10511828
71	0xbe4fc7ae	-0.20291016
72	0xbd4918d5	-0.049095947
73	0xbe110fce	-0.14166185
74	0xbddcac9c	-0.1077511
75	0x3ebf2f97	0.37340996
76	0x39c190c8	0.000369197
77	0xbcae5461	-0.02128047
78	0xbe2e4dae	-0.1702182
79	0x3cc8ccd1	0.024511727
80	0xbe90c325	-0.28273883
81	0xbe672f36	-0.22576603
82	0x3e43e26f	0.19129346
83	0xbd030ae2	-0.0319928
84	0x3e020a51	0.12699248
85	0xbc97d63e	-0.018534776
86	0x3d0960d2	0.0335396
87	0x3d7869bf	0.060647722
88	0xbd0aa104	-0.033844963
89	0xbc2f49e8	-0.010698773
90	0xbdc86554	-0.09784952
91	0x3efd19b9	0.49433687
92	0xbbcf6477	-0.006329115
93	0x3e8f9827	0.2804577
94	0x3e92b28e	0.2865185
95	0x3d9995a5	0.074992456
96	0x3ded15bf	0.11576413
97	0xbb8d1194	-0.004305074
98	0x3ec4d9fc	0.3844756
99	0x3ecd9f98	0.40160823
100	0x3e711b5d	0.23545595
101	0x3ecc3a3f	0.39888188
102	0xbe0ef6f8	-0.13961399
103	0x3ee453ff	0.44595334
104	0x3dc503cf	0.09619867
105	0x3eb4d768	0.35320592
106	0xbd7e845d	-0.06213795
107	0x3e3d3394	0.18476707
108	0x3e85d613	0.26139888
109	0xbe811c1c	-0.25216758
110	0x3e5e4d74	0.21709234
111	0x3d27519b	0.04084931
112	0x3e99111e	0.29895872
113	0x3d5b05c1	0.053472284
114	0x3d6d97df	0.058006164
115	0x3e67f571	0.22652222
116	0xbe84c8dc	-0.25934494
117	0xbdd17e55	-0.10229174
118	0x3be500fa	0.006988642
119	0xbe6e6ec9	-0.23284449
120	0xbe6e205c	-0.23254532
121	0xbe20a3e1	-0.15687515
122	0x3e4a0803	0.19729619
123	0xbe56c4f9	-0.20973577
124	0x3d6ff012	0.05857856
125	0x3c9e55f4	0.019328095
126	0xbddd60c7	-0.108094744
127	0xbddf1f63	-0.108946584
128	0x3d2a2514	0.041539267
129	0x3e44c8c8	0.19217217
130	0xbdae378e	-0.0850669
131	0x3ef2d5b8	0.4742868
132	0xbe4939a6	-0.19650897
133	0xbd0dcc88	-0.034618884
134	0xbde510f4	-0.11184874
135	0x3ef51551	0.47867826
136	0xbd962b40	-0.07332468
137	0x3ebff274	0.37489665
138	0x3cec69ca	0.028859038
139	0x3edddd5b	0.43332943
140	0x3d049c52	0.03237564
141	0xbe13d5c6	-0.14437017
142	0xbdb867ee	-0.09004198
143	0x3ea04c5b	0.31308255
144	0x3edc10c7	0.4298155
145	0xbd022dfd	-0.03178214
146	0x3c37cb0e	0.011217846
147	0xbde2ea4c	-0.11079845
148	0x3d0483e2	0.032352336
149	0x3d6b26aa	0.05740992
150	0x3e4061ad	0.1878726
151	0xbe5b6324	-0.21424538
152	0x3d7ba54a	0.06143693
153	0xbc6703f5	-0.0141000645
154	0xbe2a5b0b	-0.16636293
155	0x3e514946	0.20438108
156	0x3e183dd8	0.14867342
157	0xbe203a04	-0.15647131
158	0xbdf7bb61	-0.120962866
159	0x3b8f19d4	0.0043670926
160	0xbb95856c	-0.0045630243
161	0x3ca77068	0.020439342
162	0x3d7fd24c	0.062456414
163	0x3e0fd25d	0.14045091
164	0xbe9a754d	-0.30167618
165	0xbd1c41f9	-0.038148854
166	0x3e977a01	0.2958527
167	0x3dc83556	0.09775798
168	0x3e004ac1	0.12528516
169	0xbe941f5e	-0.2893018
170	0x3d683da9	0.05669943
171	0xbb8ef05a	-0.004362148
172	0xbe3ffc51	-0.18748595
173	0x3e8010ca	0.2501281
174	0x3d46b47e	0.048511975
175	0xbe8c6be5	-0.27426067
176	0x3e9417ea	0.28924495
177	0xbe4fbe9b	-0.20287554
178	0x3d042bce	0.032268338
179	0xbddc11fd	-0.107456185
180	0x3e843f67	0.25829622
181	0xbe1d1763	-0.15340953
182	0x3f0db0bd	0.55347806
183	0x3e8b77bb	0.27239785
184	0x3d4a7187	0.049424674
185	0xbe6a8508	-0.2290231
186	0x3bf4fe1e	0.007476582
187	0xbca99b5d	-0.020703966
188	0x3eadfb64	0.33980858
189	0x3e65b9aa	0.22434106
190	0x3ec0ff2d	0.37694684
191	0x3eb22d27	0.34800074
192	0xbe281d9e	-0.16417548
193	0xbd911045	-0.07083181
194	0x3edee661	0.4353514
195	0x3e9ed6fc	0.31023395
196	0x3eb9a476	0.36258286
197	0xbdf903e3	-0.121589445
198	0x3dd79bce	0.10527764
199	0xbe7ba08f	-0.24572967
200	0x3e7b8308	0.24561703
201	0xbe9c48d7	-0.30524322
202	0x3ef86f17	0.48522255
203	0xbdf3897f	-0.1189146
204	0x3e488ec3	0.1958571
205	0x3ebe0ef0	0.3712077
206	0xbe361ccc	-0.17784423
207	0x3ea0c825	0.31402698
208	0xbe85c16a	-0.26124126
209	0x3e1d4679	0.15358914
210	0x3ea574fa	0.3231581
211	0x3d33fee1	0.043944243
212	0xbd64b1ff	-0.055833813
213	0xbddad98e	-0.106860265
214	0x3ea378d8	0.31928134
215	0xbc1629b1	-0.009165213
216	0x3dd2491c	0.10267851
217	0x3ecf7b7e	0.40523905
218	0x3c8a3bbe	0.01687419
219	0xbe1b84b7	-0.15187345
220	0x3e6b9429	0.23005737
221	0x3e01ab6d	0.1266305
222	0x3eea08d7	0.4570987
223	0x3eacfed6	0.33788174
224	0x3b89c519	0.004204404
225	0xbd63448e	-0.0554853
226	0x3e3a22c9	0.18177332
227	0xbe1738ee	-0.1476781
228	0x3e72e830	0.23721385
229	0x3e55b4ba	0.20869723
230	0x3eb33bbb	0.35006508
231	0x3e66c32b	0.22535388
232	0xbd9c1f58	-0.07623166
233	0xbed532c1	-0.41640285
234	0xbe6e6460	-0.23280478
235	0x3ed63dab	0.41843924
236	0x3ddb1d17	0.10698908
237	0xbe75aadb	-0.23990957
238	0x3ec82016	0.3908698
239	0xbf0283bc	-0.5098226
240	0x3eaa3be4	0.33248818
241	0x3ee5039c	0.44729316
242	0x3d6a005f	0.05712926
243	0x3dd685a1	0.104747064
244	0x3ee443d7	0.44583008
245	0xbcd76392	-0.026292596
246	0xbe220644	-0.15822703
247	0x3e5d3058	0.21600473
248	0x3dc05416	0.09391038
249	0xbd9149c6	-0.07094149
250	0xbd8c54d3	-0.068521164
251	0x3f10e878	0.5660472
252	0x3bcaed99	0.0061928746
253	0xbdf97d25	-0.121820726
254	0x3eac515a	0.33655816
255	0x3e17373b	0.14767163

layer_2.weight f4 [300, 400]
0	0x3c34726e	0.01101361
1	0x3d48ef83	0.04905654
2	0xbdba768f	-0.091046445
3	0xbdb2a010	-0.08721936
4	0x3bcd9af6	0.0062745763
5	0x3d7ddce0	0.06197822
6	0xbdbdcf35	-0.09268037
7	0xbde3c66d	-0.11121831
8	0x3d46e563	0.048558604
9	0x3ce31ea7	0.027724577
10	0x3b4cd978	0.003125755
11	0x3cbe3d10	0.023222476
12	0xbc555ba8	-0.013022341
13	0xbca47dee	-0.02007958
14	0xbe2d0aa0	-0.16898584
15	0xbdce62ff	-0.10077476
16	0xbdd75b24	-0.105154306
17	0xbd8a4767	-0.067519
18	0x3dce8c89	0.10085399
19	0xbe66fcf8	-0.22557437
20	0xbdb57540	-0.08860254
21	0x3d211809	0.039329562
22	0xbe127c24	-0.14305168
23	0xbb4a43e0	-0.003086321
24	0xbe091174	-0.13385564
25	0x3d5ba681	0.053625587
26	0xbc675b9e	-0.014120964
27	0xbc935bf5	-0.017988184
28	0xbd573f14	-0.05255039
29	0xbdd23138	-0.10263294
30	0xbcd818f2	-0.026379082
31	0x3d700fde	0.058608882
32	0x3d1563a5	0.03647198
33	0xbd7885ab	-0.06067435
34	0xbda46415	-0.08026902
35	0x3b98213c	0.0046426337
36	0x3dc21951	0.09477485
37	0x3dcda5ec	0.10041413
38	0xbd66350a	-0.056202926
39	0x3d9c52ce	0.07632981
40	0xbdf6fe07	-0.120601706
41	0x3b58b8ea	0.0033069202
42	0xbce9c8aa	-0.028538067
43	0xbd9948df	-0.07484602
44	0xbd98460f	-0.074352376
45	0xbd9b4163	-0.07580831
46	0x3d9dfddd	0.07714436
47	0xbcaaeec1	-0.0208658
48	0xbd9364be	-0.071969494
49	0x3e24b81d	0.16085859
50	0x3d42d13d	0.047562826
51	0xbdf331a6	-0.11874704
52	0x3d390823	0.045173775
53	0xbc873ae5	-0.016507575
54	0xbde17632	-0.11008872
55	0x3d9ac315	0.0755674
56	0x3d84dee0	0.064878225
57	0xbe323f63	-0.17406993
58	0x3c88a2c9	0.016679185
59	0xbd2b50e3	-0.041825186
60	0x3d8d066b	0.0688599
61	0x3c91dc38	0.017805204
62	0xbe02bdc7	-0.12767707
63	0x3dd41937	0.10356372
64	0xbc96b432	-0.01839647
65	0xbcddb609	-0.02706434
66	0xbd9e8964	-0.07741049
67	0xbd9b16d4	-0.075727135
68	0xbd4cd392	-0.050006457
69	0xbd5c2b45	-0.053752203
70	0x3d6374c1	0.055531267
71	0xbd515bf2	-0.051113077
72	0xbda95f3e	-0.08270119
73	0x3d8d99bc	0.06914088
74	0x3be5e66e	0.0070159947
75	0x3de2d53d	0.11075828
76	0x3ba9687c	0.005169926
77	0x3e099c67	0.13438569
78	0x3c113659	0.008863055
79	0xbdce56e0	-0.10075164
80	0xbc6a1938	-0.014288239
81	0xbcf49ca6	-0.029859852
82	0x3de0bd57	0.10973614
83	0x3d0199cb	0.03164081
84	0xbb63472a	-0.0034679868
85	0xbdecf28c	-0.115697
86	0x3e096583	0.1341763
87	0xbe7ebd4b	-0.24876897
88	0xbd69693a	-0.056985117
89	0x3c432830	0.011911437
90	0x3d020ee7	0.031752493
91	0x3ce986de	0.028506692
92	0x3cde536d	0.02713939
93	0x3dc404b3	0.09571209
94	0x3d1556ad	0.036459614
95	0x3af8b639	0.0018975205
96	0xbcb58e3e	-0.022162553
97	0xbe1f6850	-0.15567136
98	0xbe17b933	-0.14816742
99	0xbdb4252e	-0.08796154
100	0xbd89e894	-0.06733814
101	0xbe110c25	-0.14164789
102	0x3d0047ed	0.031318594
103	0x3df420cb	0.11920317
104	0xbc5b0e2b	-0.013370077
105	0x3ccd1dfa	0.025038708
106	0xbda29456	-0.07938449
107	0x3dda47c4	0.106582195
108	0x3cc038e4	0.023464628
109	0x3b0666ab	0.0020507972
110	0xbd8b1bbb	-0.067923985
111	0xbd117d60	-0.035519958
112	0xbdd56c87	-0.104210906
113	0x3e07d3cb	0.13264386
114	0x3ce8cdb8	0.028418407
115	0xbc718881	-0.014742018
116	0xbd4360e7	-0.047699835
117	0x3e0348be	0.12820718
118	0x3d42e3c6	0.047580503
119	0x3d413304	0.047167793
120	0xbdc478b3	-0.09593334
121	0xbd3ec250	-0.04657203
122	0xb921a4ee	-0.00015415598
123	0xbc6afb5a	-0.014342153
124	0xbcbeb410	-0.02327922
125	0x3d97715a	0.07394667
126	0x3dcfc611	0.101452
127	0x3bd779ac	0.0065757837
128	0x3c91a3fb	0.017778387
129	0xbd2494a3	-0.040180814
130	0x3d12d879	0.035850976
131	0x3bcd0eb6	0.006257857
132	0x3c76a531	0.015054033
133	0xbd0a6526	-0.03378787
134	0xbde93731	-0.1138748
135	0xbd8f6ab4	-0.07002774
136	0xbde244de	-0.110482916
137	0xbe2bb866	-0.16769561
138	0x3d9fabda	0.0779645
139	0xb9c5d41b	-0.000377328
140	0xbd27a0b3	-0.04092474
141	0xbc47eef1	-0.012202964
142	0x3bd2ec67	0.0064368728
143	0xbd0e458e	-0.0347343
144	0x3d585e34	0.052824214
145	0xbd1ef2df	-0.03880584
146	0xbcc4ab73	-0.024007535
147	0x3d90432e	0.070440635
148	0x3d5e0d78	0.054212064
149	0xbd81ed58	-0.06344098
150	0xbaa6d9bd	-0.0012729686
151	0x3cc95917	0.024578614
152	0x3df10f86	0.11770539
153	0xbcdc9f51	-0.026931437
154	0xbda01627	-0.07816725
155	0xb885d251	-6.381109e-05
156	0x3c461448	0.012089796
157	0xbd90d886	-0.070725486
158	0x3d6a0c30	0.05714053
159	0x3db7b27d	0.08969591
160	0x3e05228d	0.13001461
161	0x3c58aff7	0.013225547
162	0x3ad34515	0.001611861
163	0x3e40fb05	0.18845756
164	0xbd769bb2	-0.060207076
165	0xbd2f50d1	-0.042801682
166	0xbcc36305	-0.023850927
167	0x3d840465	0.06446151
168	0xbd9f3532	-0.07773818
169	0x3d8ef2d3	0.06979909
170	0xbd7ea961	-0.06217325
171	0x3d5b4a2d	0.053537536
172	0x3dbf0962	0.093279615
173	0x3c4b55b1	0.012410567
174	0xbc375fa4	-0.011192236
175	0xbc89ea37	-0.016835315
176	0xbcf6c8db	-0.030125072
177	0xbdf8da84	-0.121510535
178	0x3c1a2c97	0.009410045
179	0x3c9092a3	0.017648047
180	0xbd672afa	-0.05643747
181	0xbc738ff9	-0.014865869
182	0xbdc6df1f	-0.09710526
183	0xbdb27c59	-0.08715124
184	0xbb458ce5	-0.0030143794
185	0xbd7c0649	-0.06152943
186	0xbd16e909	-0.036843333
187	0xbca8ab47	-0.020589484
188	0x3c90220d	0.017594362
189	0x3cd7ca5e	0.026341613
190	0xbdf810fd	-0.12112615
191	0x3d0ef26c	0.03489916
192	0xbe2560b3	-0.16150169
193	0xbe06bbed	-0.13157625
194	0x3d2783b8	0.0408971
195	0x3d3b0dbe	0.045667402
196	0xbdb18452	-0.08667816
197	0x3dbfc914	0.093645245
198	0x3c1fb8fa	0.009748692
199	0x3c5e966b	0.013585667
200	0xbdd4bd92	-0.1038772
201	0x3cdc5ac8	0.026898757
202	0xb9b91503	-0.00035301605
203	0x3dccbfa5	0.09997491
204	0xbd0238f1	-0.031792585
205	0xbda4beac	-0.0804418
206	0x3dee28a1	0.11628843
207	0x3d3464f3	0.044041585
208	0x3d876326	0.06610708
209	0xba67633c	-0.0008826738
210	0xbb926193	-0.004467198
211	0x3da2d1f9	0.07950205
212	0x3cf09aec	0.029370748
213	0x3ddc9376	0.107703134
214	0x3d435a5c	0.047693595
215	0xbd57237d	-0.05252408
216	0xbcdb0d3f	-0.026739715
217	0xbe1c06c4	-0.15236956
218	0xbd728685	-0.05921032
219	0xbca429b0	-0.02003941
220	0xbd3e180c	-0.04640965
221	0xbe5207e4	-0.20510823
222	0xbd161a79	-0.03664634
223	0x3e0cafb1	0.13738896
224	0x3ba841c2	0.005134792
225	0x3ce4d2b9	0.027932512
226	0xbd26c11b	-0.040711503
227	0xbb1a6aaa	-0.0023562112
228	0x3d002be4	0.031291857
229	0x3cc6fd4b	0.024290701
230	0x3dae2cfc	0.08504674
231	0xbdfb854c	-0.12281284
232	0x3da4328d	0.08017454
233	0x3c64e884	0.013971452
234	0xbd951ba2	-0.07280661
235	0x3e40baad	0.18821211
236	0x3b3f166f	0.0029157659
237	0xbc90168d	-0.017588878
238	0x3b805d19	0.003917348
239	0x3dc9ab60	0.0984714
240	0xbcd4cd0b	-0.025976678
241	0xba6d6de6	-0.00090572087
242	0xbd2dfa16	-0.04247483
243	0xbdf84e3a	-0.121242955
244	0xbc8af302	-0.016961578
245	0xbdb5d11a	-0.088777736
246	0x3dbdd3bd	0.092689015
247	0x3dbc5033	0.09194984
248	0x3de46914	0.111528546
249	0xbd078f05	-0.03309538
250	0x3c0cfcac	0.008605164
251	0xbe379bb7	-0.17930494
252	0xbda5640e	-0.080757245
253	0xbe0b3014	-0.13592559
254	0xbd80effd	-0.06295774
255	0x3d5f6826	0.054542683

layer_2.bias f4 [300]
0	0xbd16e5de	-0.036840312
1	0x39b61bbc	0.0003473441
2	0xbd0db2d1	-0.03459436
3	0x3dbc850e	0.09205066
4	0xbe0a86a9	-0.13527931
5	0xbe1a7d37	-0.15086828
6	0xbe97788f	-0.29584166
7	0xbdd4fc20	-0.103996515
8	0xbce199b4	-0.027539112
9	0x3db7d0ee	0.08975397
10	0xbd820bea	-0.06349929
11	0x3d112e4d	0.035444546
12	0x3d8d299d	0.06892703
13	0x3da1090f	0.07863056
14	0xbcfecc19	-0.03110318
15	0xbdad74e7	-0.08469563
16	0xbd87dfdb	-0.06634494
17	0x3e2969dd	0.1654429
18	0xbcc9e470	-0.02464506
19	0xbe98237d	-0.29714575
20	0xbaf95bde	-0.0019024571
21	0xbb2609ec	-0.0025335504
22	0x3cf848bf	0.030308126
23	0x3d10236e	0.03519004
24	0xbdd92338	-0.106024206
25	0xbcc7c6eb	-0.024386844
26	0xbe354aeb	-0.1770436
27	0xbdb78d0f	-0.08962452
28	0x3d6583b4	0.056033805
29	0x3d07217c	0.032990918
30	0x3d8bad9f	0.06820225
31	0xbddc0d1b	-0.10744687
32	0xbe125721	-0.1429105
33	0x3dc53dbf	0.09630918
34	0x3d268dc5	0.040662546
35	0xbdcd9027	-0.100372605
36	0xbdc47d39	-0.09594197
37	0xbbe6149f	-0.007021501
38	0x3d97aedc	0.07406399
39	0xbc2dee37	-0.010615877
40	0xbd998936	-0.07496874
41	0xbda15ded	-0.07879243
42	0x3d6ad900	0.057335854
43	0xbe2137b8	-0.15743911
44	0x3dc9366e	0.09824835
45	0x3d9833c4	0.074317485
46	0xbd4869c6	-0.048929
47	0x3e029fba	0.12756243
48	0x3d70e710	0.05881411
49	0x3cc0eafc	0.02354955
50	0xbdb49c73	-0.08818903
51	0x3cf02e48	0.029318944
52	0x3d288419	0.041141603
53	0xbd8f64f3	-0.070016764
54	0xbb2d8c5f	-0.0026481373
55	0x3cf466bf	0.02983415
56	0xbd194381	-0.037417892
57	0x3dcc84e9	0.09986288
58	0xbddf0f86	-0.10891633
59	0x3d99f9dd	0.07518361
60	0xbd50e5dd	-0.051000465
61	0x3d6ef65c	0.058340415
62	0x3dd3b024	0.103363305
63	0xbe08a08d	-0.13342495
64	0xbb996eda	-0.004682404
65	0xbdd87c67	-0.10570603
66	0xbc2671b4	-0.010158945
67	0xbe9bed80	-0.30454636
68	0xbcb2933b	-0.02179872
69	0xbd846d75	-0.0646619
70	0xbe0999f7	-0.13437639
71	0xbdbfbb86	-0.09361939
72	0xbdc653d2	-0.09683956
73	0x3dac8b4a	0.08425005
74	0x3d31e75e	0.04343354
75	0x3d3b9390	0.045795023
76	0xbb2951ea	-0.0025836178
77	0xbe82f7ce	-0.25579685
78	0x3b5715ed	0.0032819465
79	0x3d02845d	0.031864513
80	0xbe325aa3	-0.17417388
81	0x3d479d48	0.04873398
82	0x3d446a3e	0.047952883
83	0x3d0d17b9	0.03444645
84	0x3de2294e	0.110430345
85	0x3daac897	0.08339041
86	0x3d3209aa	0.043466248
87	0x3d0a951f	0.03383362
88	0xbe1f9b78	-0.1558665
89	0xbd4fdf11	-0.050749842
90	0xbe6a16c3	-0.22860245
91	0xbd46fc0a	-0.048580207
92	0x3cf45748	0.029826775
93	0x3dc150ac	0.09439215
94	0x3d9cd816	0.076584026
95	0x3dd9f5bf	0.106425755
96	0xbdd71efc	-0.10503957
97	0xbd5fea72	-0.054666944
98	0x3dbf1e49	0.09331948
99	0x3d4c6f73	0.049910974
100	0xbd1a222a	-0.037630238
101	0xbafa12f6	-0.0019079137
102	0x3d9c8f5a	0.0764453
103	0xbd8fbe86	-0.07018761
104	0x3d88c1bc	0.06677577
105	0xbcf0ca55	-0.029393354
106	0x3c081d31	0.008307741
107	0x3d3a4b0b	0.045481723
108	0xbdbf096e	-0.093279704
109	0xbdcebb96	-0.10094373
110	0xbd1728ae	-0.03690403
111	0xbe4220f1	-0.18957879
112	0xbb878e1b	-0.0041368133
113	0xbe1c9475	-0.15291007
114	0x3d031b08	0.0320082
115	0xbdbb8b52	-0.091574326
116	0xbc584fe1	-0.013202638
117	0x3d280b24	0.04102625
118	0x3c82a27d	0.015946621
119	0xbb4f7e78	-0.0031661075
120	0x3d50072f	0.0507881
121	0x3dbf13fe	0.09329985
122	0x3c82c344	0.01596225
123	0xbbaacb4d	-0.0052122236
124	0x3c84aa0e	0.01619437
125	0xbd580419	-0.052738283
126	0x3ce084bc	0.027407043
127	0x3cc829c0	0.02443397
128	0x3dc6ddbe	0.09710263
129	0x3d689550	0.05678302
130	0x3d4172d1	0.047228638
131	0x3ce90b7c	0.028447859
132	0x3baecdc3	0.0053345873
133	0xbe4631d1	-0.19354941
134	0x3b8564f3	0.004070872
135	0x3c83389f	0.01601821
136	0xbde7811a	-0.11303921
137	0x3c92650f	0.017870454
138	0x3d7bcf4b	0.061476987
139	0xbcfb9558	-0.030710861
140	0xbcddeb51	-0.027089747
141	0x39bcc76a	0.0003600673
142	0x3d94969a	0.072552875
143	0x3d710ed1	0.05885202
144	0xbd8ebaee	-0.06969248
145	0xbd0a9981	-0.0338378
146	0x3d4b8cf8	0.049694985
147	0x3ddfbc3b	0.10924574
148	0x3db6fc44	0.089348346
149	0xbc116612	-0.008874433
150	0x3e05ed1b	0.1307873
151	0xbde4515a	-0.11148329
152	0xbd5b5133	-0.053544234
153	0x3db3c174	0.08777133
154	0xbd3a1bfa	-0.045436837
155	0xbd7e5e1a	-0.06210146
156	0x3d7904f1	0.060795728
157	0x3cecb023	0.028892582
158	0x3e161e84	0.14660078
159	0x3cc5a3ae	0.0241259
160	0xbd32712b	-0.043564957
161	0x3dd8570b	0.10563477
162	0x3d501196	0.05079802
163	0x3e461215	0.19342835
164	0xbd7cdcf5	-0.06173416
165	0xbde1e9d9	-0.11030931
166	0xbdef5870	-0.1168679
167	0x3cfcd0d5	0.030861298
168	0x3cf9596a	0.030438144
169	0x3db3a71d	0.08772109
170	0xbdad0682	-0.08448507
171	0x3dcbba6b	0.09947666
172	0x3e0a563c	0.13509458
173	0x3d8bf0ae	0.068330154
174	0xbd6ceb78	-0.057841748
175	0x3d463f54	0.04840024
176	0xbe795382	-0.24348262
177	0xbd9a386a	-0.075302914
178	0x3e4061d3	0.18787317
179	0x3d89e744	0.067335635
180	0x3c2110ff	0.009830712
181	0xbd6e089f	-0.05811369
182	0xbe2e96c1	-0.17049696
183	0xbd228eac	-0.039686844
184	0xbeb31c6b	-0.3498262
185	0xbdacc0e5	-0.08435229
186	0x3d1667b2	0.036719985
187	0x3e09b4b0	0.13447833
188	0xbdad711c	-0.084688395
189	0xbcbf851b	-0.0233789
190	0xbc4bf92a	-0.012449542
191	0x3c85d365	0.016336152
192	0xbeb92689	-0.36162212
193	0xbc48723f	-0.01223427
194	0x3d84283e	0.06452988
195	0x3db8e31c	0.09027693
196	0xbdf83cb8	-0.12120956
197	0x3d5ce704	0.05393125
198	0x3d9a3b68	0.07530862
199	0xbcaa7e66	-0.020812225
200	0x3d467e36	0.048460208
201	0x3d9b3fcd	0.075805284
202	0x3d0a600c	0.033783004
203	0xbc826941	-0.01591933
204	0x3da200d0	0.07910311
205	0x3d184db5	0.037183482
206	0xbe4a02bb	-0.19727604
207	0x3d026c3a	0.031841494
208	0x3e0db38a	0.1383802
209	0xbcf86c7b	-0.030325165
210	0x3d08e7b8	0.03342411
211	0xbd5e1d25	-0.054227013
212	0x3c962854	0.018329777
213	0x3d9469f4	0.072467715
214	0xbcac136d	-0.021005357
215	0x3da3b637	0.07993739
216	0x3c9f861d	0.01947313
217	0x3ce5b786	0.028041612
218	0x3d830a59	0.06398458
219	0x3d1de7e0	0.03855121
220	0x3d94680f	0.0724641
221	0xbe0dd63a	-0.13851252
222	0x3c6ab0d0	0.014324382
223	0xbd628cd9	-0.055310104
224	0x3dbfeec3	0.09371712
225	0xbbd3e0bf	-0.006466001
226	0x3d355acc	0.044276044
227	0x3d864aa0	0.06557202
228	0xbd98d15a	-0.07461806
229	0x3dba93a6	0.09110193
230	0x3cccb1e5	0.02498717
231	0xbcee39ff	-0.029080389
232	0xbca94f7f	-0.02066779
233	0x3da856c7	0.082196765
234	0x3dba3e77	0.090939455
235	0x3e48fdea	0.1962811
236	0x3dad12e9	0.084508725
237	0x3e4c8e69	0.199762
238	0xbd03b65c	-0.032156333
239	0x3e1e59bc	0.15463918
240	0x3dd29e00	0.10284042
241	0x3d0eeeb6	0.03489562
242	0x3d408e68	0.04701081
243	0x3e09af89	0.13445868
244	0x3d0e479c	0.03473626
245	0x3d4106ce	0.04712563
246	0x3d67ef90	0.05662495
247	0xbc65540f	-0.013997092
248	0xbd932f07	-0.07186704
249	0x3dbd4f51	0.09243644
250	0x3d728965	0.05921306
251	0x3d9412ab	0.07230123
252	0xbe0c04f4	-0.13673764
253	0x3da3ad9c	0.07992098
254	0x3d29a466	0.04141655
255	0xbcd77d65	-0.02630491

layer_3.weight f4 [6, 300]
0	0xbdd9ddba	-0.10637994
1	0xbe252dea	-0.16130796
2	0x3c914447	0.017732752
3	0xbd8833b5	-0.06650487
4	0xbe1ac153	-0.1511281
5	0x3ef86a80	0.48518753
6	0x3b22c449	0.0024836233
7	0x3d70f2be	0.058825247
8	0xbcaef06e	-0.02135488
9	0x3dcb35e6	0.0992239
10	0x3eddb1ec	0.43299806
11	0xbe7bf78a	-0.24606147
12	0x3cfec9a8	0.031102017
13	0x3e1299fb	0.14316551
14	0xbe0b6399	-0.13612212
15	0x3eb31ad3	0.34981403
16	0xbd979c6b	-0.07402881
17	0x3e7533f8	0.23945606
18	0xbe62ab05	-0.22135551
19	0x3ef59f5b	0.4797314
20	0x3e2f19df	0.17099713
21	0x3c1a9d12	0.009436863
22	0x3c849e81	0.016188862
23	0xbdc03130	-0.09384382
24	0x3ed7bb64	0.42135155
25	0xbd9eb149	-0.07748658
26	0x3e1087fd	0.14114375
27	0xbdecaae7	-0.115560345
28	0x3c8b644a	0.017015595
29	0xbe782da9	-0.24236168
30	0xbc2850dc	-0.010273185
31	0xbd0f7def	-0.03503221
32	0x3dfbd167	0.122958
33	0x3d317979	0.043328736
34	0x3d19b686	0.037527584
35	0x3efddf0e	0.4958424
36	0x3df0dea0	0.11761212
37	0x3d3efa71	0.04662556
38	0xbdca53ad	-0.09879241
39	0xbda112d1	-0.07864917
40	0xbd82ad75	-0.063807406
41	0xbdafbeb0	-0.08581293
42	0xbe0f49b6	-0.13992962
43	0xbd9edbaa	-0.07756741
44	0x3dc6a51a	0.096994594
45	0x3b8e069c	0.004334284
46	0xbd77b73a	-0.060477473
47	0xbe3d1b58	-0.18467462
48	0x3e3884a7	0.18019353
49	0x3d5019a6	0.05080571
50	0x3e70db55	0.23521169
51	0xbe59eff4	-0.21282941
52	0x3b0b5db0	0.002126556
53	0xbe09f2ea	-0.1347157
54	0x3c818dc4	0.01581467
55	0x3e1625b3	0.14662819
56	0xbd6a7e1d	-0.057249177
57	0x3dd7d13d	0.10537956
58	0x3db63dca	0.08898504
59	0xbe891549	-0.26774052
60	0xbdbb27b6	-0.09138434
61	0x3e219dce	0.15782854
62	0x3da6686e	0.08125387
63	0x3ddb2225	0.10699872
64	0xbe2d4b9d	-0.16923375
65	0xbe165f4b	-0.14684789
66	0x3cb47369	0.022027688
67	0x3ebe9124	0.37220109
68	0x3d64056f	0.055669244
69	0xbc726fd6	-0.014797172
70	0xbc655d7a	-0.013999337
71	0x3e9e9012	0.30969292
72	0xbdab8af0	-0.083761096
73	0xbda54c27	-0.080711655
74	0x3ca788bc	0.020450942
75	0x3ce7675f	0.028247533
76	0xbc39cbea	-0.011340121
77	0xbe0b36f3	-0.1359518
78	0x3d81f05a	0.063446715
79	0x3e49cd58	0.19707239
80	0x3d039bd6	0.03213104
81	0x3d238099	0.039917562
82	0x3c4891f4	0.012241829
83	0x3ccde4c0	0.02513349
84	0xbd4084e3	-0.04700173
85	0xbce583df	-0.028016983
86	0xbdff85b2	-0.12476672
87	0xbd729eb7	-0.059233394
88	0xbdf0dfb5	-0.11761419
89	0xbdbcd424	-0.0922015
90	0xbe7a3f96	-0.24438319
91	0x3e38f5b2	0.18062475
92	0x3e24f09f	0.16107415
93	0xbd1c3511	-0.038136546
94	0x3c89ae52	0.016806755
95	0x3dfaf73d	0.12254188
96	0xbefcf080	-0.49402237
97	0xbe2ae914	-0.16690475
98	0x3da40078	0.08007902
99	0x3b60f972	0.0034328368
100	0x3e9ed3f8	0.31021094
101	0xbd8c26cf	-0.0684334
102	0x3c7d189f	0.015447765
103	0xbd627643	-0.055288564
104	0x3d947990	0.07249749
105	0x3ece451e	0.40287107
106	0x3e3b5d97	0.1829742
107	0xbd16235a	-0.036654808
108	0x3ea60103	0.32422647
109	0xbe854d64	-0.26035607
110	0xbde6b3db	-0.112647735
111	0xbc570532	-0.013123797
112	0x3d93fd44	0.07226041
113	0x3eb8ec02	0.3611756
114	0xbe069d6b	-0.13145988
115	0x3e04ec66	0.12980804
116	0xbdd301a8	-0.1030305
117	0x3c1b87b7	0.009492806
118	0x3c713719	0.014722609
119	0xbcca4a2e	-0.024693575
120	0xbd8fc671	-0.070202716
121	0x3dcd8cc9	0.10036618
122	0xbdbf96e1	-0.0935495
123	0x3deda548	0.116037905
124	0xbd550ca3	-0.052014004
125	0xbe4951fe	-0.19660184
126	0xbd41ee63	-0.047346484
127	0xbc40ccf5	-0.011767616
128	0xbd2e2f33	-0.04252548
129	0xbce48049	-0.027893202
130	0xbe57b549	-0.21065249
131	0x3d25ea90	0.0405069
132	0xbdb419e9	-0.087940045
133	0xbe33a667	-0.17543946
134	0x3d983f70	0.07433975
135	0xbd2ae778	-0.041724652
136	0xbd9a3232	-0.07529105
137	0x3e0a0ffa	0.13482657
138	0xbd1f25a4	-0.038854256
139	0x3f0412f4	0.5159142
140	0xbdb18fe1	-0.08670021
141	0xbd1df89d	-0.038567174
142	0x3d85174f	0.064985864
143	0x3d3bb5d0	0.045827687
144	0xbbf16f57	-0.007368009
145	0xbcd94556	-0.02652232
146	0x3de3bb09	0.111196585
147	0x3e4e4445	0.2014323
148	0x3ccfaec2	0.025351886
149	0xbdfcc89b	-0.1234295
150	0x3d1e484f	0.038643178
151	0xbdc713ae	-0.097205505
152	0xbd9d9b36	-0.0769562
153	0x3d4bbf8c	0.04974322
154	0xbd171f5f	-0.036895152
155	0xbcad0f90	-0.021125585
156	0xbdbb784d	-0.09153805
157	0xbc58a82b	-0.013223688
158	0xbe26cd35	-0.16289218
159	0x3ed4ae50	0.4153924
160	0x3dca7c6f	0.09887015
161	0xbdb65c9a	-0.08904381
162	0x3d037a43	0.03209902
163	0x3d848553	0.06470742
164	0xbd4fa03f	-0.050689932
165	0xbcb3f5ac	-0.021967731
166	0xbda13386	-0.078711554
167	0xbd8174dc	-0.06321117
168	0x3d2cd88f	0.042198714
169	0x3c9e4869	0.019321637
170	0xbd7a0d98	-0.06104812
171	0xbc48c99e	-0.0122551005
172	0x3edd08a7	0.43170664
173	0x3ddd0e39	0.107937284
174	0xbe7284a9	-0.23683418
175	0x3dd79725	0.105268754
176	0xbe4cd66b	-0.20003669
177	0xbd6e5bdf	-0.058193084
178	0x3e649a61	0.22324516
179	0x3dc2443b	0.0948567
180	0x3ebf8186	0.37403506
181	0xbddaf964	-0.10692099
182	0x3e33ad00	0.17546463
183	0xbe8c3826	-0.27386588
184	0x3ed8b6b3	0.42326888
185	0x3da7f880	0.082016945
186	0x3e92f5be	0.2870311
187	0x3d8318af	0.064011924
188	0xbd2af689	-0.04173902
189	0x3d545c9c	0.05184613
190	0xbd7b1dde	-0.06130778
191	0x3d91cbbd	0.07118938
192	0xbebe8138	-0.3720796
193	0xbd851da5	-0.06499795
194	0xbe00cd91	-0.12578417
195	0x3d621e75	0.055204827
196	0x3d72489d	0.05915128
197	0xbd84b710	-0.06480229
198	0xbe082b11	-0.13297679
199	0xbc1da50f	-0.009621873
200	0xba870993	-0.0010302536
201	0x3c921ef9	0.017837035
202	0x3c31d591	0.010854141
203	0xbd0a7c14	-0.033809736
204	0xbbac8d70	-0.005265884
205	0x3d8ae729	0.067823716
206	0xbe27cf63	-0.16387706
207	0x3ce33d58	0.027739212
208	0xbdef783b	-0.11692854
209	0x3e300680	0.1718998
210	0xbe015b2d	-0.12632437
211	0xbdc272df	-0.09494566
212	0x3d649432	0.055805393
213	0x3e16c864	0.1472488
214	0xbe657d6e	-0.22411129
215	0x3dd78d55	0.10525004
216	0x393954dc	0.00017674587
217	0x3cb9f21d	0.022698456
218	0xbe9510e1	-0.2911444
219	0x3cbd9749	0.023143427
220	0x3d43b13e	0.047776453
221	0x3d62de1f	0.055387612
222	0xbd943d8f	-0.07238304
223	0x3e2e8e3b	0.17046444
224	0xbd4951b6	-0.04915019
225	0xbd3023a6	-0.043002747
226	0x3db4ec38	0.08834118
227	0xbe7712b5	-0.2412823
228	0x3e3eee5c	0.18645614
229	0xbdc768da	-0.09736796
230	0x3c150355	0.009095033
231	0xbdbf32c6	-0.09335856
232	0xbe09f6a7	-0.13472997
233	0xbd3f3c21	-0.046688203
234	0x3e88d545	0.26725212
235	0x3dd01a6a	0.10161288
236	0x3b5ece6f	0.0033997556
237	0x3d8f2332	0.06989135
238	0xbd865c3a	-0.065605596
239	0xbdabdfff	-0.08392333
240	0x3e81ea86	0.2537424
241	0xbbee08ea	-0.007264246
242	0x3ddfca59	0.10927267
243	0x3df27456	0.118385956
244	0xbdd208f2	-0.102556124
245	0x3e38c81c	0.18045086
246	0xbe6238cb	-0.22091977
247	0x3d103229	0.035204086
248	0x3f07a4c4	0.5298579
249	0x3f086ab8	0.5328784
250	0x3d8abfd7	0.06774872
251	0x3d23e0ff	0.040009495
252	0x3e05163e	0.12996766
253	0x3e184b08	0.14872372
254	0xbcb7cadf	-0.022435604
255	0xbd771b25	-0.06032862

layer_3.bias f4 [6]
0	0x3caf65b0	0.021410793
1	0xbd7645ba	-0.06012509
2	0x3cc49237	0.023995502
3	0xbd23f0a7	-0.040024426
4	0x3da1f0cb	0.07907256
5	0xbd44c0fa	-0.0480356
