artifacts/dynaPhysics2/120_walkerDynamics.pt (torch, 191930 bytes, 20 tensors)

linear1.weight f4 [100, 24]
-0.50681746 -0.34864777 0.11535534 0.16559842 -0.19020256 0.1987646 -0.050438806 0.05205409
0.17815852 -0.30062675 0.5970709 0.22719876 -0.13734867 0.19563866 -0.047400586 -0.009693724
0.12004269 -0.036837637 -0.15232521 0.21374002 -0.84708124 0.09815469 0.23131262 -0.3807838
-0.5182818 -0.2669961 0.20317976 -0.20959331 -0.27091202 -0.745366 0.011886608 -0.13011712
0.19640258 -0.5222245 -0.078455694 -0.08207977 0.10799236 0.034852404 0.045630172 0.12527196
0.049187526 -0.0175025 0.23889183 -0.2913823 0.6705574 0.6396411 0.16997947 -0.2482711
0.81302196 -0.019125795 0.00083687797 -0.3169742 -0.66397715 -1.3098664 -0.008519024 -0.0026417845
0.0037968005 -0.0146093005 -0.021797845 0.012845074 -0.008960434 -0.0021323885 -0.017856248 0.00063206186
-0.0008708257 0.0012629294 -0.038058423 -0.109674014 -0.10590677 0.027770534 0.016198186 0.005357241
0.022669714 0.014069232 -0.1522136 -0.38346085 -0.6863994 0.76672786 -0.3983831 -0.1368517
0.11749479 -0.091675244 -0.18029982 -0.077072635 0.14464407 0.28524584 -0.00603558 0.038412906
0.010150019 -0.0025042538 0.20272495 0.22021791 -0.24233496 0.09306182 -0.079123646 -0.09573602
-2.2217135 -0.21929733 -0.7121328 0.63993895 0.6293005 0.32290047 0.2725487 0.19503018
0.061242092 -0.051972013 -0.18192814 -0.050949987 0.017942606 0.018687163 0.006416534 0.01882969
0.0045433794 0.00016052902 0.045578927 0.009968572 0.00017040348 -0.023790784 -0.0014634456 0.025402734
-0.3465199 0.0027258026 -0.046180543 -0.20389393 -0.07473914 0.18210927 0.021015687 -0.18757522
-0.42110476 0.0949571 -0.09081649 -0.07109413 0.007018678 0.0071081696 -0.020766392 0.10537083
0.14824305 0.059657194 0.10340129 0.22480184 -0.4357612 -0.102073856 0.4911494 1.0547614
-0.9157645 0.014958635 0.1102204 -0.13112184 1.348606 0.79369944 0.2872984 -0.008812744
-0.04057594 0.058427993 -0.03163471 0.17099795 -0.109911524 -0.026730733 0.013481971 -0.0155462595
-0.0016429062 0.00053233665 0.075285755 -0.035543315 0.04392818 -0.020890165 0.013302785 -0.012916773
0.7600309 -0.12692896 -0.05360643 0.8219521 0.51144826 -0.03115719 1.2834282 0.30553403
0.02074242 -0.12749891 -0.05255842 -0.027396077 -0.038766842 0.0031312644 0.0014440471 0.03827936
0.007378212 -0.00093417073 -0.39497524 0.19653837 0.014486352 -0.14626509 0.059765648 -0.0410084
0.1888687 0.03641478 -0.018316552 0.081562035 0.0493672 -0.012896167 0.054549698 0.3931832
-1.2921315 0.03454357 0.015701246 0.14544727 0.005670913 0.0026731654 -6.6118235e-05 -0.14674331
-0.13005021 -0.04559803 -0.034029678 -0.011768738 0.001265741 0.025261054 -0.11164822 -0.47517902
2.0549715 -0.40396506 0.06611997 -0.007172201 -0.38042915 0.016610485 -0.44590563 -0.111034855
0.04291839 -0.15252295 -0.4965995 -0.0075896503 -0.013198413 0.0069477796 -0.01469233 0.0021840138
0.013802478 -0.004008796 -0.25818676 0.07619104 -0.3409614 0.043810286 0.08798428 -0.090677716
-0.20793444 0.0125941625 0.106932 -0.022318112 0.11691677 0.58743656 0.407372 0.2498771
-0.06389915 0.040942978 0.029771354 -0.044546016 0.13704479 -0.12043713 -0.035317075 -0.123692155
00000000: cabe 01bf f681 b2be 6c3f ec3d a292 293e
00000010: 76c4 42be f388 4b3e ec98 4ebd ab36 553d
00000020: 306f 363e c0eb 99be a3d9 183f cba6 683e
00000030: 21a5 0cbe 8055 483e 1e27 42bd 6dd2 1ebc
00000040: f1d8 f53d 10e3 16bd 24fb 1bbe aade 5a3e
00000050: 51da 58bf 5305 c93d 37dd 6c3e 18f6 c2be
00000060: 1eae 04bf b6b3 88be 5b0e 503e a19f 56be
00000070: fbb4 8abe 4ed0 3ebf 0cc0 423c 6c3d 05be
00000080: c21d 493e 81b0 05bf 61ad a0bd 7019 a8bd
00000090: 192b dd3d 65c1 0e3d b4e6 3a3d 4b47 003e
000000a0: dc78 493d 6761 8fbc 0fa0 743e 1030 95be
000000b0: a6a9 2b3f 85bf 233f 190f 2e3e c73a 7ebe
000000c0: 3522 503f b3ad 9cbc ee61 5b3a 714a a2be
000000d0: 68fa 29bf b4a9 a7bf 6093 0bbc ca21 2dbb
000000e0: bed3 783b d95b 6fbc 6591 b2bc 2574 523c
000000f0: c9ce 12bc 8bbf 0bbb 4447 92bc f4b0 253a
00000100: 2048 64ba e188 a53a 26e3 1bbd c59c e0bd
00000110: a6e5 d8bd 087f e33c 0fb2 843c cb8b af3b
00000120: d6b5 b93c a382 663c e2dd 1bbe fb54 c4be
00000130: dfb7 2fbf 4748 443f dff8 cbbe da22 0cbe
00000140: 1ca1 f03d 3bc0 bbbd 84a0 38be 42d8 9dbd
00000150: 931d 143e be0b 923e 1dc6 c5bb da56 1d3d
00000160: 444c 263c 681e 24bb 2197 4f3e ce80 613e
00000170: a826 78be 3297 be3d 940b a2bd 3f11 c4bd
00000180: 8e30 0ec0 7b8f 60be 564e 36bf 0ad3 233f
00000190: d619 213f 3653 a53e 818b 8b3e feb5 473e
000001a0: fdd8 7a3d 9be0 54bd 5f4b 3abe efb0 50bd
000001b0: 5ffc 923c d215 993c ca41 d23b b940 9a3c
000001c0: a1e0 943b ae53 2839 f8b0 3a3d 3953 233c
000001d0: 56ae 3239 e4e4 c2bc 16d1 bfba 6519 d03c
000001e0: 0e6b b1be 61a3 323b cf27 3dbd 92c9 50be
000001f0: d610 99bd da7a 3a3e 1729 ac3c b813 40be
00000200: 0b9b d7be de78 c23d fffd b9bd cd99 91bd
00000210: f0fc e53b a6eb e83b 481e aabc a9cc d73d
00000220: 07cd 173e 1a5b 743d 0ec4 d33d 7432 663e
00000230: 181c dfbe 190c d1bd ef77 fb3e 6c02 873f
00000240: 8b6f 6abf 1015 753c 3cbb e13d ce44 06be
00000250: 1f9f ac3f e32f 4b3f c718 933e 5463 10bc
00000260: f532 26bd 3152 6f3d 6693 01bd 161a 2f3e
00000270: 4b19 e1bd 69fa dabc 7ce3 5c3c bdb5 7ebc
00000280: c956 d7ba 828c 0b3a 6b2f 9a3d de95 11bd
00000290: 09ee 333d da21 abbc edf3 593c dfa0 53bc
000002a0: 6391 423f aaf9 01be 6a92 5bbd 746b 523f
000002b0: 46ee 023f 5d3d ffbc 6047 a43f f56e 9c3e
000002c0: 02ec a93c 138f 02be 7f47 57bd bd6d e0bc
000002d0: fbc9 1ebd e635 4d3b 2e46 bd3a d1ca 1c3d
000002e0: eec4 f13b 23e3 74ba 323a cabe 5b41 493e
000002f0: 2a58 6d3c 84c6 15be d3cc 743d 6df8 27bd
00000300: cc66 413e aa27 153d 980c 96bc ff09 a73d
00000310: 4335 4a3d 724a 53bc 816f 5f3d 4f4f c93e
00000320: 9164 a5bf 8f7d 0d3d e69f 803c 21f0 143e
00000330: 11d3 b93b 4630 2f3b f5a8 8ab8 e143 16be
00000340: e22b 05be 00c5 3abd b462 0bbd aad1 40bc
00000350: 38e7 a53a 45f0 ce3c d2a7 e4bd aa4a f3be
00000360: a784 0340 82d4 cebe e869 873d c804 ebbb
00000370: 9cc7 c2be b612 883c be4d e4be 3e66 e3bd
00000380: 32cb 2f3d fa2e 1cbe 4a42 febe 9ab2 f8bb
00000390: 283e 58bc 33aa e33b 19b8 70bc ac21 0f3b
000003a0: ca23 623c 385c 83bb 0e31 84be 0c0a 9c3d
000003b0: 7e92 aebe 6a72 333d 1a31 b43d 3db5 b9bd
000003c0: c4ec 54be bf57 4e3c 2aff da3d 79d4 b6bc
000003d0: 0f72 ef3d 3e62 163f 1093 d03e c8df 7f3e
000003e0: 8fdd 82bd d3b3 273d 0ee3 f33c e275 36bd
000003f0: 7855 0c3e bea7 f6bd a3a8 10bd 5052 fdbd

linear1.bias f4 [100]
0.23932791 -0.14668901 -0.10026564 0.18499796 -0.045064796 0.0047705593 0.0012338969 0.099820524
-0.07210651 -0.20725487 -0.18899725 0.017386619 -0.06286976 -0.24460405 0.007032179 0.023903614
-0.057402357 -0.19041304 0.0019737734 -0.06219998 0.18904908 -0.07659964 0.07437579 0.064739265
0.050395653 0.02113223 0.06349188 -0.13180101 -0.12012297 0.30343947 0.021660522 -0.27872902
0.086228624 -0.022389986 0.20234099 0.025315486 -0.18385305 0.053981807 0.20601623 0.15710062
0.21006188 -0.18909171 0.008224045 0.0594477 0.14617161 0.09243341 0.040560577 -0.11936481
-0.1409965 0.22673346 0.008986042 0.00529919 -0.066012874 -0.0041041626 -0.049180355 0.089675
-0.06824141 0.056462638 0.013928221 0.014404356 0.14188886 -0.13580742 0.018576736 0.15914088
0.0047288025 -0.046768505 0.10044612 0.022040242 0.12776907 0.3604308 -0.24488375 0.195345
-0.08894242 0.16615167 -0.21626514 -0.23163696 -0.042182334 0.14913797 -0.18092172 -0.09732321
0.05479246 -0.08169529 0.15187326 0.036490675 -0.031748526 -0.042609576 -0.19473208 0.11015445
0.029094076 0.013874342 0.095091194 -0.054488212 -0.042313788 -0.15182388 0.21168134 0.102967665
0.017820325 -0.17515673 -0.15732874 0.14993177
00000000: 6012 753e a535 16be 1258 cdbd 1b70 3d3e
00000010: dd95 38bd 5a52 9c3b b6ba a13a b46e cc3d
00000020: 94ac 93bd 9f3a 54be 7f88 41be 626e 8e3c
00000030: dcc1 80bd 7c79 7abe 316e e63b 83d1 c33c
00000040: bc1e 6bbd a3fb 42be 6c5a 013b 68c5 7ebd
00000050: 1596 413e 46e0 9cbd 5652 983d 0596 843d
00000060: ac6b 4e3d 801d ad3c 0808 823d d8f6 06be
00000070: 0803 f6bd 6b5c 9b3e 6871 b13c 92b5 8ebe
00000080: a298 b03d 346b b7bc 7a32 4f3e 6c62 cf3c
00000090: f943 3cbe 071c 5d3d ebf5 523e fcde 203e
000000a0: 761a 573e 42a1 41be 25be 063c 6e7f 733d
000000b0: 03ae 153e ba4d bd3d d922 263d 8a75 f4bd
000000c0: 6361 10be d12c 683e 313a 133c d4a4 ad3b
000000d0: c231 87bd 367c 86bb 5771 49bd 87a7 b73d
000000e0: 27c2 8bbd 5e45 673d 3133 643c 3f00 6c3c
000000f0: 504b 113e 1a11 0bbe 3d2e 983c d4f5 223e
00000100: 12f4 9a3b 5590 3fbd b2b6 cd3d bd8d b43c
00000110: e5d5 023e 638a b83e cec2 7abe 8508 483e
00000120: 7227 b6bd aa23 2a3e 9c74 5dbe 3d32 6dbe
00000130: 62c7 2cbd a0b7 183e 8b43 39be 6451 c7bd
00000140: 0f6e 603d dc4f a7bd aa84 1b3e 3f77 153d
00000150: be0a 02bd 6187 2ebd d967 47be a898 e13d
00000160: b356 ee3c 3551 633c 2cbf c23d 082f 5fbd
00000170: 3951 2dbd b877 1bbe fec2 583e b6e0 d23d
00000180: eefb 913c 495c 33be c91a 21be b787 193e

bn1.weight f4 [100]
0.5804969 0.54812765 1.0332686 0.41401866 1.0544132 0.7800385 0.8036815 0.808999
0.60488176 0.35367927 0.6775707 0.54258776 0.53501767 1.3387762 1.1185279 0.528581
0.5598787 0.6118212 0.39370638 0.8661083 0.66520303 0.3555335 0.4362708 0.7480146
1.2940918 1.3004409 1.3157383 0.35875976 0.36426494 1.2421027 1.0512747 1.4918541
0.610878 0.59788334 0.9108797 0.6847353 0.5406978 0.63267106 0.7322775 1.1896876
1.4249264 0.6522088 1.7860731 0.71102965 0.6381456 1.099601 0.8540937 0.8618166
0.55353165 0.7125099 0.8142372 0.3365793 0.4269824 0.55162954 0.46976724 1.2416277
0.48080093 0.4651682 1.106632 1.1489106 1.030842 0.7546133 0.3786209 1.8538487
0.3515068 0.4496452 0.581795 0.65339357 0.73233044 0.9046893 1.137473 1.0844467
1.2779833 0.6518368 0.81584305 0.41708368 0.8071028 0.38128796 0.53473467 1.4960448
0.704878 0.49545184 1.2756115 0.7065203 0.92948014 0.9333819 0.9735106 0.36732444
0.5980855 0.43893936 0.65099216 0.31738088 0.816135 0.4080697 0.3135396 0.6066874
0.5695547 1.609805 0.90301216 0.6371593
00000000: 729b 143f 1852 0c3f 2542 843f 41fa d33e
00000010: 03f7 863f 9ab0 473f 12be 4d3f 8f1a 4f3f
00000020: 88d9 1a3f 7315 b53e 4675 2d3f 08e7 0a3f
00000030: ebf6 083f 055d ab3f ec2b 8f3f 1651 073f
00000040: 3654 0f3f 50a0 1c3f e293 c93e 46b9 5d3f
00000050: bf4a 2a3f 7d08 b63e e35e df3e e37d 3f3f
00000060: cda4 a53f d974 a63f 1d6a a83f 5caf b73e
00000070: ef80 ba3e 39fd 9e3f 2b90 863f 13f5 be3f
00000080: 8062 1c3f e20e 193f 692f 693f d04a 2f3f
00000090: 2c6b 0a3f bbf6 213f 8a76 3b3f af47 983f
000000a0: fd63 b63f 28f7 263f 0b9e e43f 0a06 363f
000000b0: 835d 233f babf 8c3f e2a5 5a3f 03a0 5c3f
000000c0: 40b4 0d3f 0c67 363f d971 503f 1f54 ac3e
000000d0: 709d da3e 9837 0d3f 5585 f03e a8ed 9e3f
000000e0: 8a2b f63e 872a ee3e 1ea6 8d3f 810f 933f
000000f0: a1f2 833f 562e 413f 99da c13e ea4a ed3f
00000100: b3f8 b33e e537 e63e 84f0 143f cd44 273f
00000110: 027a 3b3f b899 673f b798 913f 26cf 8a3f
00000120: f594 a33f c7de 263f 17db 503f fe8b d53e
00000130: 4a9e 4e3f 2d38 c33e 5fe4 083f 657e bf3f
00000140: e272 343f ddab fd3e 3d47 a33f 84de 343f
00000150: 69f2 6d3f 1ef2 6e3f fe37 793f f311 bc3e
00000160: 221c 193f a9bc e03e 6ca7 263f bf7f a23e
00000170: 39ee 503f 83ee d03e 4388 a03e de4f 1b3f
00000180: 56ce 113f 170e ce3f ce2b 673f df1c 233f

bn1.bias f4 [100]
-0.016030522 0.010551422 0.039193712 -0.11212256 0.03582614 0.072216935 -0.17927094 0.34115234
0.043351565 -0.098880716 0.083090976 0.026554111 0.029657237 -0.39707026 0.5386834 0.73976916
-0.0020293596 -0.031373285 -0.04613771 0.36296654 0.04205987 0.527339 -0.051377304 0.43471855
0.14203054 1.1816274 1.0520737 0.19992928 0.06448719 -0.2927603 -0.13285132 0.75901425
0.3042947 0.056210425 -0.063450776 -0.055107433 0.5310892 0.03277805 -0.22308703 -0.030434363
-0.15263109 -0.05969584 -0.46169457 0.9431024 -0.06578517 -0.7073659 -0.13254297 -0.004047584
-0.027329478 -0.08321327 0.29433838 0.16255268 0.60485536 0.043048006 0.07710773 0.16853295
0.003922833 1.724237 0.30091295 -0.37670237 -0.19169666 0.30781546 -0.024101933 0.8153874
-0.04315436 0.33176774 0.2088513 0.5841777 0.32219008 0.0078684045 0.11172258 -0.75994086
0.23270598 0.075980954 -0.07288827 0.20504133 0.1876172 -0.067917995 -0.013582461 -0.6922983
0.1546739 -0.023312459 -0.19681367 0.7671235 0.05033305 0.2212802 -0.24087211 0.12527512
0.45697188 0.006952754 0.030898426 0.72354907 -0.031328972 0.28577206 0.78917485 0.02058731
0.109847 -0.47455963 -0.0016215881 0.5947151
00000000: 7152 83bc dfdf 2c3c 9689 203d 83a0 e5bd
00000010: 6ebe 123d 79e6 933d cd92 37be 85ab ae3e
00000020: 6991 313d f981 cabd 9a2b aa3d 0288 d93c
00000030: bcf3 f23c cb4c cbbe 28e7 093f 8361 3d3f
00000040: 01ff 04bb 4681 00bd e5fa 3cbd c0d6 b93e
00000050: f846 2c3d b0ff 063f 0271 52bd 6e93 de3e
00000060: 7470 113e 913f 973f 5aaa 863f 43ba 4c3e
00000070: dc11 843d aee4 95be 2d0a 08be c24e 423f
00000080: 84cc 9b3e e73c 663d 7bf2 81bd 55b8 61bd
00000090: 76f5 073f 4742 063d ed70 64be 7c51 f9bc
000000a0: 534b 1cbe a083 74bd 3b63 ecbe 296f 713f
000000b0: 60ba 86bd ee15 35bf 58b9 07be 98a1 84bb
000000c0: 12e2 dfbc b86b aabd 85b3 963e 3674 263e
000000d0: cdd7 1a3f 1b53 303d a8ea 9d3d e793 2c3e
000000e0: 1c8b 803b ccb3 dc3f 4311 9a3e 22df c0be
000000f0: 214c 44be fd99 9d3e 6b71 c5bc 3bbd 503f
00000100: a0c2 30bd 76dd a93e 1ddd 553e ab8c 153f
00000110: 19f6 a43e 7bea 003c cfce e43d 7c8b 42bf
00000120: 7a4a 6e3e e79b 9b3d 7246 95bd 5bf6 513e
00000130: b91e 403e 9718 8bbd f888 5ebc 763a 31bf
00000140: d662 1e3e c5f9 bebc 8689 49be 3562 443f
00000150: 072a 4e3d 4797 623e 2ea7 76be 1f48 003e
00000160: 38f8 e93e eed3 e33b b21e fd3c 833a 393f
00000170: cf52 00bd b750 923e 5d07 4a3f b8a6 a83c
00000180: 77f7 e03d 7bf9 f2be 788b d4ba 403f 183f

bn1.running_mean f4 [100]
1.1135464 0.93745923 -0.21431698 0.78302145 1.9716663 0.6544409 -0.86025906 -0.42213488
-0.76807594 -2.0249064 -0.2376735 0.82480663 -1.0488675 3.2548952 0.6538562 1.120407
-1.0512149 -0.9502315 2.318366 -0.63271534 -0.23539348 -0.71416503 -0.2766223 2.7810104
1.2596741 0.66860396 4.312273 -0.1321721 0.737584 -0.5202421 -0.48414022 4.432365
0.04477381 1.2767853 1.83079 0.61949927 2.301389 0.99200886 -0.8547078 -0.93086845
0.3879174 -1.4605076 -0.7791525 1.7783756 0.020108366 -3.486365 1.6898305 -0.73832554
-0.90958625 -1.472322 0.4671531 -0.21102147 2.8344853 -0.49816564 -1.8941058 -0.010059779
-0.9766545 -0.7425258 -2.0003355 -0.7103633 -1.3862575 -2.2861314 -0.056234278 -0.16999045
0.28330606 -0.7189493 -1.3144896 0.535515 1.0925518 0.5611924 2.5698438 -1.8930581
-2.5636616 2.1339238 -0.82040817 -2.179544 0.24001554 -1.4410977 -0.77516294 -1.8298688
-1.4612951 -0.38832876 -0.28028867 0.7066223 0.47086316 -1.0279884 -2.1362045 0.6690092
0.8228605 -2.362556 -0.5582858 -0.86667037 1.1690863 -1.1614838 0.4056383 0.6596154
0.1096534 -1.2061399 -0.36426547 0.4122263
00000000: b088 8e3f 54fd 6f3f e975 5bbe 1874 483f
00000010: 905f fc3f 7089 273f f039 5cbf 1022 d8be
00000020: a0a0 44bf 1198 01c0 af60 73be 8726 533f
00000030: 4a41 86bf 3450 5040 1f63 273f 7f69 8f3f
00000040: 368e 86bf 5f42 73bf 1c60 1440 a2f9 21bf
00000050: fd0a 71be 85d3 36bf 70a1 8dbe 13fc 3140
00000060: 003d a13f a129 2b3f 24fe 8940 1f58 07be
00000070: 4ed2 3c3f 962e 05bf 3ae1 f7be efd5 8d40
00000080: be64 373d b36d a33f 5457 ea3f 8197 1e3f
00000090: f549 1340 4bf4 7d3f 21ce 5abf 654d 6ebf
000000a0: 1c9d c63e eaf1 babf 8a76 47bf d0a1 e33f
000000b0: 4dba a43c 9b20 5fc0 5e4c d83f e702 3dbf
000000c0: a5da 68bf 0c75 bcbf b12e ef3e 0316 58be
000000d0: 3568 3540 910f ffbe 0f72 f2bf c5d1 24bc
000000e0: 0806 7abf 2c16 3ebf 7f05 00c0 5fda 35bf
000000f0: e370 b1bf fa4f 12c0 ea55 66bd fa11 2ebe
00000100: 7e0d 913e 100d 38bf 3241 a8bf 8317 093f
00000110: bdd8 8b3f 4eaa 0f3f 5278 2440 ba4f f2bf
00000120: 0813 24c0 3592 0840 4506 52bf a67d 0bc0
00000130: a2c6 753e e475 b8bf 1471 46bf 2439 eabf
00000140: b80b bbbf 07d3 c6be ff81 8fbe 33e5 343f
00000150: fa14 f13e 2095 83bf 93b7 08c0 3044 2b3f
00000160: fca6 523f 1e34 17c0 d1eb 0ebf 1cde 5dbf
00000170: 9fa4 953f 80ab 94bf d3af cf3e 8edc 283f
00000180: f691 e03d cb62 9abf 0181 babe 530f d33e

bn1.running_var f4 [100]
4.7445445 2.2436824 0.95692146 2.286901 2.8095257 1.3233975 2.0930598 1.7476351
1.1778321 0.8291261 2.140984 1.2508221 4.6410146 4.0228243 0.983947 1.5912509
1.7040638 0.94929945 0.8820147 1.0833561 1.523716 1.0701381 7.3003197 2.2389054
1.6446391 5.3033805 0.35316724 1.1605213 1.7579609 2.1057634 1.1084832 0.4285032
1.1358985 1.6441649 0.85120744 1.6154588 2.3725681 1.5049385 3.2983272 1.1217519
1.8165364 1.803903 4.595839 1.7194245 1.7547661 4.0066237 2.1188948 1.069597
1.1539811 2.3597453 0.85605377 1.2675056 0.37091812 3.747925 0.8629992 0.38552675
2.2337375 0.7566756 1.8142288 0.7200533 1.6232334 0.20413743 6.1049194 5.633672
3.3770072 0.56787074 1.02883 1.1392654 0.28755057 1.2096088 2.1125417 1.5343851
1.649474 2.8019938 1.3370938 2.1181073 1.242594 0.6170716 1.1834916 1.492824
0.56203854 2.581926 1.2392741 0.81529546 1.2121755 1.3197317 1.8101642 2.895321
1.1217535 1.5649962 1.3349628 1.8277053 0.6440284 0.74643236 0.8436565 1.4164686
1.6003609 2.4735107 1.3439218 1.1035386
00000000: 4fd3 9740 7e98 0f40 cef8 743f 965c 1240
00000010: 45cf 3340 1765 a93f b1f4 0540 82b2 df3f
00000020: 34c3 963f 9c41 543f e205 0940 f01a a03f
00000030: 3183 9440 faba 8040 f3e3 7b3f 1cae cb3f
00000040: c31e da3f 4a05 733f b7cb 613f 6aab 8a3f
00000050: 2009 c33f 49fa 883f 389c e940 3a4a 0f40
00000060: 8983 d23f 4bb5 a940 56d2 b43e f68b 943f
00000070: dd04 e13f d4c4 0640 c7e2 8d3f c564 db3e
00000080: 1f65 913f ff73 d23f bbe8 593f 5bc7 ce3f
00000090: 28d8 1740 d3a1 c03f cb17 5340 9195 8f3f
000000a0: 4484 e83f 4be6 e63f 1d11 9340 1a16 dc3f
000000b0: 2d9c e03f 4336 8040 f99b 0740 8ee8 883f
000000c0: a7b5 933f 1106 1740 5726 5b3f a03d a23f
000000d0: fbe8 bd3e 01de 6f40 84ed 5c3f c363 c53e
000000e0: 8ef5 0e40 7eb5 413f a638 e83f 6a55 383f
000000f0: 1dc6 cf3f 6709 513e 805b c340 0b47 b440
00000100: e320 5840 fa5f 113f b4b0 833f 73d3 913f
00000110: d439 933e 76d4 9a3f e233 0740 bb66 c43f
00000120: f721 d33f de53 3340 e425 ab3f 128f 0740
00000130: 520d 9f3f 68f8 1d3f a77c 973f db14 bf3f
00000140: c2e1 0f3f 473e 2540 89a0 9e3f 34b7 503f
00000150: 9128 9b3f f8ec a83f 76b3 e73f f04c 3940
00000160: 9e95 8f3f cc51 c83f 10e0 aa3f 3ff2 e93f
00000170: 0cdf 243f 3116 3f3f dff9 573f d84e b53f
00000180: a0d8 cc3f 004e 1e40 a105 ac3f c140 8d3f

linear2.weight f4 [200, 100]
-0.0075633647 -0.04038069 0.0054755043 -0.045430813 0.10802177 -0.112114154 -0.024962036 -0.09078446
-0.037505813 -0.06544057 0.11908529 0.0084066335 0.10160879 0.22970195 -0.1772683 0.04591287
0.12825817 0.02959655 -0.0984331 -0.07526332 0.095722765 0.36346686 -0.11926283 0.22399674
-0.06623892 0.1674038 0.07423941 -0.0041811056 -0.10567385 -0.052560095 0.054345578 -0.07082515
-0.044630084 0.19460422 0.12624934 0.229703 -0.21830437 -0.02850636 -0.046028778 0.04812445
-0.041115016 -0.20294501 0.1237234 -0.0071253716 -0.0985394 0.05123724 -0.011490866 0.07654851
-0.018903058 0.14668576 0.07574755 -0.085579604 0.0785513 0.056494795 -0.012619441 0.10214287
-0.102035105 -0.10866765 0.06132466 -0.07993734 -0.053286973 -0.29300475 0.07713419 0.13603923
0.12011228 0.0501453 0.18738331 -0.009955884 0.12042045 0.075814016 -0.056574732 -0.059460543
-0.0018817823 -0.020209499 0.21110715 -0.21080963 0.049155004 0.06784686 0.029669667 -0.0753506
-0.10110188 0.032588277 0.2661325 0.20791334 -0.048166253 0.11203025 0.013313196 0.038730048
-0.09031132 0.042629495 -0.02453628 -0.025556281 0.08711957 -0.22210214 0.09697232 -0.07428454
0.07398391 0.12127433 -0.030418465 0.05379215 -0.085360736 0.07620484 -0.06384339 -0.0031934197
0.09827594 -0.08751421 -0.023710573 0.06249795 0.19711001 0.33148837 0.04567499 -0.043229036
0.1787184 0.11195028 0.07568004 -0.0030585553 -0.21636605 0.036076996 0.015733168 0.041281294
0.0063719098 0.05122749 0.08270088 -0.027501572 -0.25946558 0.11656175 -0.09024576 0.22423892
-0.15741587 0.071668 0.03946832 -0.004662548 -0.1535899 -0.13159165 0.0305666 -0.088042766
0.14240672 -0.035817336 -0.008321679 -0.48690557 -0.28782797 0.08637414 0.1499379 0.016122166
0.013572463 -0.017585102 0.103724875 -0.03796398 -0.04381352 -0.052679777 0.12278328 0.0510107
0.10989029 0.047631938 0.06801063 0.028531617 0.048027977 -0.07962682 0.006932677 -0.19166882
-0.26545987 -0.23161495 -0.113007426 0.14787884 -0.08126275 0.1482539 -0.10738956 -0.059956484
0.04550526 -0.14329147 0.11145434 -0.008662493 0.011754123 -0.013958803 0.006877891 -0.10716782
-0.0342221 0.022881912 -0.22197506 0.020643933 -0.041916084 0.2003564 -0.009703518 -0.011562146
0.031055763 -0.04238148 0.08122591 0.10398554 -0.003508528 -0.011057641 0.005182119 -0.118843265
0.06915427 0.04124889 0.4072939 0.27537775 -0.059719466 0.033724308 0.05790448 -0.078248546
-0.15546164 -0.042527385 0.044343337 -0.16315475 -0.04898414 -0.08381715 -0.050326217 -0.11008164
-0.11175832 -0.10249836 0.034074914 0.08218284 0.1880857 -0.080821596 -0.027624918 0.012194647
0.120545276 -0.022306396 0.031724904 -0.012154947 -0.13617939 0.12600549 -0.08074992 -0.13410728
-0.059439387 0.2080791 -0.26064402 -0.09116885 -0.029823953 0.074050024 0.17815934 0.02799089
0.038308065 0.028190797 -0.0629043 -0.041452553 0.05032634 0.09827172 -0.11028432 0.052276738
0.006523228 -0.07309536 0.412772 0.040181104 -0.046875335 -0.011225202 -0.21433602 0.10339929
-0.07782622 0.08172584 0.04376976 0.17191228 -0.026592258 0.18087332 0.025898516 0.08659486
00000000: 1ad6 f7bb 3966 25bd dc6b b33b a915 3abd
00000010: 853a dd3d 1b9c e5bd 2f7d ccbc 34ed b9bd
00000020: b29f 19bd b505 86bd fde2 f33d fabb 093c
00000030: 4518 d03d fd36 6b3e d285 35be 220f 3c3d
00000040: 1c56 033e 7774 f23c 4b97 c9bd a823 9abd
00000050: 4c0a c43d 5418 ba3e 1240 f4bd 675f 653e
00000060: 45a8 87bd e76b 2b3e d50a 983d a801 89bb
00000070: 886b d8bd 4149 57bd 7899 5e3d c70c 91bd
00000080: 09ce 36bd 5446 473e 8247 013e 4337 6b3e
00000090: 2e8b 5fbe 2b86 e9bc ac88 3cbd 251e 453d
000000a0: 3868 28bd d1d0 4fbe b262 fd3d f37b e9bb
000000b0: 06cf c9bd 24de 513d 2f44 3cbc 77c5 9c3d
000000c0: 96da 9abc cb34 163e 8821 9b3d 5c44 afbd
000000d0: 81df a03d 1667 673d c6c1 4ebc 4830 d13d
000000e0: c8f7 d0bd 258d debd 912f 7b3d 30b6 a3bd
000000f0: 7143 5abd b804 96be 88f8 9d3d de4d 0b3e
00000100: 6dfd f53d 2865 4d3d 69e1 3f3e 011e 23bc
00000110: ff9e f63d 6144 9b3d e8ba 67bd e68c 73bd
00000120: 23a6 f6ba 648e a5bc 792c 583e 7bde 57be
00000130: c256 493d 4bf3 8a3d cd0d f33c 6a51 9abd
00000140: 810e cfbd 497b 053d 8542 883e 3ce7 543e
00000150: fa49 45bd 1e70 e53d 971f 5a3c 66a3 1e3d
00000160: 24f5 b8bd 449c 2e3d 4f00 c9bc 685b d1bc
00000170: bf6b b23d be6e 63be 6c99 c63d 7e22 98bd
00000180: e084 973d ad5e f83d 2530 f9bc 2855 5c3d
00000190: 9cd1 aebd 4811 9c3d 53c0 82bd b148 51bb
000001a0: e544 c93d a63a b3bd ad3c c2bc dafd 7f3d
000001b0: 35d7 493e d8b8 a93e b315 3b3d ee10 31bd
000001c0: f501 373e 3046 e53d 23fe 9a3d 0b72 48bb
000001d0: 108f 5dbe 79c5 133d d8e2 803c 9316 293d
000001e0: 74cb d03b ebd3 513d 145f a93d fa4a e1bc
000001f0: acd8 84be edb7 ee3d c5d2 b8bd e39e 653e
00000200: a031 21be acc6 923d 88a9 213d 4ac8 98bb
00000210: ac46 1dbe f6bf 06be ce66 fa3c c44f b4bd
00000220: 11d3 113e 33b5 12bd a757 08bc b04b f9be
00000230: 305e 93be ede4 b03d 5289 193e a212 843c
00000240: 095f 5e3c a20e 90bc b56d d43d 1e80 1bbd
00000250: ce75 33bd c0c6 57bd cd75 fb3d 99f0 503d
00000260: 290e e13d b519 433d 2849 8b3d 23bb e93c
00000270: fcb8 443d 6313 a3bd 822b e33b d544 44be
00000280: 5bea 87be 782c 6dbe 7070 e7bd 8d6d 173e
00000290: 166d a6bd dfcf 173e 0fef dbbd ee94 75bd
000002a0: b963 3a3d 00bb 12be 2c42 e43d 21ed 0dbc
000002b0: 5d94 403c 77b3 64bc ee5f e13b cd7a dbbd
000002c0: 792c 0cbd d972 bb3c 6e4d 63be 771d a93c
000002d0: 33b0 2bbd 3a2a 4d3e 81fb 1ebc 286f 3dbc
000002e0: a868 fe3c 3498 2dbd c559 a63d 5ff6 d43d
000002f0: 55ef 65bb 1c2b 35bc c4ce a93b 1964 f3bd
00000300: c1a0 8d3d 99f4 283d d388 d03e 50fe 8c3e
00000310: 669c 74bd 8022 0a3d 3f2d 6d3d c640 a0bd
00000320: 5631 1fbe 3231 2ebd 5ca1 353d 0a12 27be
00000330: 98a3 48bd 53a8 abbd dd22 4ebd 7c72 e1bd
00000340: 8ce1 e4bd a9ea d1bd 2392 0b3d 7a4f a83d
00000350: 8a99 403e cb85 a5bd a74d e2bc 0fcc 473c
00000360: 71e0 f63d e7bb b6bc f9f1 013d 8b25 47bc
00000370: 9c72 0bbe 9507 013e 3760 a5bd 6b53 09be
00000380: b776 73bd b012 553e 2273 85be bcb6 babd
00000390: 5d51 f4bc 8aa7 973d 676f 363e 274d e53c
000003a0: ebe8 1c3d 63f0 e63c f8d3 80bd 27ca 29bd
000003b0: fe22 4e3d af42 c93d bfdc e1bd 2220 563d
000003c0: cdc0 d53b 05b3 95bd da56 d33e f194 243d
000003d0: 5a00 40bd e9e9 37bc e77a 5bbe 02c3 d33d
000003e0: 5a63 9fbd e15f a73d eb47 333d c609 303e
000003f0: 02d8 d9bc db36 393e 2029 d43c a558 b13d

linear2.bias f4 [200]
0.041324183 0.022497414 -0.07063276 -0.04538441 -0.104077816 -0.0143811125 -0.03480131 0.093515866
0.07733878 0.0080527 0.18184114 -0.01640548 -0.08889063 -0.052112438 -0.01624172 -0.07206257
-0.10146227 -0.013982076 -0.08439874 0.12072303 -0.04408909 -0.11124367 0.088231646 0.064932995
-0.00074514985 0.015518659 -0.047893614 0.03443643 0.030072203 0.068027444 -0.15977474 -0.10277482
0.022060512 -0.044380933 -0.1797759 0.10679942 0.10769415 -0.22534151 -0.053052157 0.028334267
0.09375066 0.021166937 0.020078624 -0.044106707 -0.03429865 -0.07402798 -0.033546228 0.055305485
0.03983774 0.018834153 0.08795036 0.068252906 0.05148902 -0.118045814 0.032079235 0.09346886
0.0006756583 0.028980566 0.040747 0.082614854 0.06689554 -0.07010027 0.23680857 -0.0528882
0.089388005 -0.0307002 0.013758011 0.061622787 0.04771737 -0.06274822 0.11609899 -0.04578969
0.028747676 0.09785061 -0.13110599 0.018147072 0.043850623 0.010875456 0.08255201 0.046573374
-0.094936185 -0.06307669 -0.03597174 0.03506172 0.12705913 0.0200939 -0.0053286753 0.019834151
-0.11125723 0.14659452 -0.08819041 -0.103811376 -0.059724286 -0.086843506 -0.09025493 0.07379281
-0.046337467 0.0619919 0.1390709 0.05020348 -0.013630028 0.07021764 -0.041634504 0.059491377
0.07249438 -0.014571694 0.152475 -0.09282055 0.076742806 -0.13451412 -0.09337129 0.06200217
0.12980416 0.042663343 0.111412406 0.013383203 -0.050983325 0.060546827 0.0431031 -0.014798377
-0.037368733 0.07332086 -0.02632391 -0.097550765 0.00408601 0.041330528 0.049363058 0.010787099
0.17539492 -0.026770053 -0.08657445 -0.007671667 0.074808344 -0.056708686 -0.049980726 -0.050623126
-0.15649492 -0.08236463 -0.054303285 0.062440787 0.07181804 0.039047394 0.038771436 0.03726791
0.22840127 0.041944284 -0.04788895 -0.087106496 -0.09609439 -0.12219277 -0.06521135 -0.07444159
-0.0030182996 0.117428556 0.037045557 -0.080116235 -0.03092186 -0.042948563 0.103331864 0.02768296
-0.029346323 -0.043898948 -0.0009318872 -0.068325564 -0.017636666 0.0029596454 0.05770427 -0.12965517
0.17423698 -0.08344955 -0.047829133 -0.052875295 -0.003449647 0.018610774 -0.10392134 0.07560291
-0.073253565 0.027935637 0.05237598 -0.28790176 -0.117488146 -0.062551364 -0.07164128 -0.082345285
0.1108316 0.2858665 0.12815413 -0.0032329839 0.024307337 0.077022016 -0.073988214 0.05585157
-0.049125873 0.025547987 -0.045144405 0.061238766 0.075032376 0.033890378 -0.03812914 -0.08129674
00000000: 8c43 293d 7f4c b83c e9a7 90bd 01e5 39bd
00000010: c026 d5bd c29e 6bbc d28b 0ebd 3f85 bf3d
00000020: cb63 9e3d 79ef 033c 9034 3a3e c964 86bc
00000030: 4a0c b6bd da73 55bd 5b0d 85bc 8a95 93bd
00000040: 73cb cfbd 1415 65bc 3fd9 acbd a33d f73d
00000050: c396 34bd b9d3 e3bd cbb2 b43d 97fb 843d
00000060: 2956 43ba f941 7e3c 182c 44bd 370d 0d3d
00000070: fb59 f63c f951 8b3d fd9b 23be 9b7b d2bd
00000080: 3fb8 b43c c8c8 35bd 2c17 38be a8b9 da3d
00000090: c08e dc3d edbf 66be 384d 59bd 441d e83c
000000a0: 5900 c03d 4966 ad3c ed7b a43c 3ca9 34bd
000000b0: be7c 0cbd fb9b 97bd c567 09bd 0188 623d
000000c0: e62c 233d 154a 9a3c 511f b43d 2ec8 8b3d
000000d0: 27e6 523d 01c2 f1bd 8465 033d 9a6c bf3d
000000e0: a91e 313a a768 ed3c 54e6 263d fa31 a93d
000000f0: 8700 893d bb90 8fbd f27d 723e 4ca1 58bd
00000100: 0f11 b73d fc7e fbbc 4869 613c 2d68 7c3d
00000110: 4a73 433d 2482 80bd 4fc5 ed3d f88d 3bbd
00000120: 3f80 eb3c e765 c83d a640 06be 2ba9 943c
00000130: b69c 333d f82e 323c 0711 a93d b9c3 3e3d
00000140: e76d c2bd 5a2e 81bd 1a57 13bd e19c 0f3d
00000150: ca1b 023e f69b a43c 2b9c aebb 3b7b a23c
00000160: d5da e3bd e01c 163e 2c9d b4bd 0f9b d4bd
00000170: 74a1 74bd 02db b1bd 94d7 b8bd af20 973d
00000180: 5bcc 3dbd 38eb 7d3d 9a68 0e3e 2aa2 4d3d
00000190: 7b50 5fbc 44ce 8f3d f188 2abd 3bad 733d
000001a0: ef77 943d 1dbe 6ebc 6822 1c3e b318 bebd
000001b0: 552b 9d3d 12be 09be 7239 bfbd fdf5 7d3d
000001c0: 62eb 043e c2bf 2e3d 302c e43d 3945 5b3c
000001d0: e4d3 50bd f3ff 773d e08c 303d e474 72bc
000001e0: f50f 19bd 3f29 963d 3ea5 d7bc b2c8 c7bd
000001f0: f0e3 853b 334a 293d eb30 4a3d 5fbc 303c
00000200: ba9a 333e df4c dbbc f24d b1bd 9b62 fbbb
00000210: 1e35 993d 5e47 68bd 97b8 4cbd 325a 4fbd
00000220: 3440 20be caae a8bd 1f6d 5ebd e9c1 7f3d
00000230: 5615 933d 29f0 1f3d ccce 1e3d 3ca6 183d
00000240: 06e2 693e c5cd 2b3d 3427 44bd e464 b2bd
00000250: 23cd c4bd 3440 fabd 878d 85bd d574 98bd
00000260: aace 45bb 627e f03d 15bd 173d fb13 a4bd
00000270: d74f fdbc d5ea 2fbd a89f d33d 60c7 e23c
00000280: b367 f0bc 62cf 33bd e449 74ba 46ee 8bbd
00000290: c57a 90bc 9cf6 413b 505b 6c3d 53c4 04be
000002a0: 2e6b 323e 99e7 aabd 7be8 43bd c493 58bd
000002b0: 7913 62bb 9f75 983c b6d4 d4bd b3d5 9a3d
000002c0: f705 96bd 47d9 e43c 3288 563d dc67 93be
000002d0: a09d f0bd ee1a 80bd aab8 92bd a5a4 a8bd
000002e0: aefb e23d 185d 923e d63a 033e 78e0 53bb
000002f0: 2e20 c73c b8bd 9d3d 2287 97bd 9ec4 643d
00000300: 3638 49bd 034a d13c 57e9 38bd 80d5 7a3d
00000310: 93aa 993d a3d0 0a3d 4d2d 1cbd e87e a6bd

bn2.weight f4 [200]
0.39827073 0.48409837 0.7066601 0.93986773 0.70550346 0.9358666 1.1173874 1.2476981
0.6903039 0.9836679 0.7314117 0.744561 0.84789807 0.7050129 0.65451574 0.78127444
0.5841238 0.75387925 0.84604466 0.4392844 0.74602777 0.98035574 0.715283 0.73088545
0.61152285 0.907926 0.38089117 1.1108766 0.6263339 0.5969856 0.9634965 0.59729683
0.6464163 1.0771484 0.57338405 0.7129162 1.0606451 0.93744785 0.98167884 0.748303
0.9094567 0.46377102 0.99458045 0.5806402 0.54883486 0.653333 0.5980608 0.88802946
0.62951994 0.42910564 0.51006883 1.0634017 0.631434 0.6974365 0.55881757 0.6859795
0.8195157 0.7028559 0.9079935 0.6754992 0.8919714 0.47857898 0.9851577 0.58499074
1.266472 0.42787617 0.33788764 0.37401 0.47077495 0.7861606 0.40116176 0.8946167
0.68738073 0.9355912 0.6818543 0.52012366 0.6607498 0.81133276 0.572659 0.62996787
0.8909353 0.915106 0.5298171 0.7289748 0.8394547 0.45567355 1.3310171 0.5416924
0.7956892 0.87373614 0.55967456 0.7538812 0.9413101 0.71472514 0.61533874 0.7997884
0.5596834 0.56850386 0.65967333 0.6284849 0.6374863 0.7295863 0.5969204 0.86006904
0.50608385 0.91814363 1.1464744 0.44228974 0.56732833 0.9875919 1.2781546 0.6985906
0.41060403 0.4346898 0.90931976 0.82887405 0.6036655 0.7000376 0.68508637 0.50390005
0.7515901 0.8801379 1.0426905 0.47038096 0.90641975 0.42329907 0.6130444 0.39615318
1.3043157 0.8277379 0.8311675 0.41817915 1.0110505 0.45231813 0.93194425 1.1001436
0.7197895 1.0302669 0.80503243 0.8133433 0.67049104 0.5178472 0.6743641 0.6501089
0.9098804 1.0114934 0.72363347 0.72718596 1.3908284 0.572597 0.29382113 0.68084925
0.69534683 0.5289036 0.89056695 0.9354129 0.9834694 0.62022454 0.7406872 0.36500615
1.0992037 1.1766025 0.88902366 0.38632166 0.83120054 0.8679933 0.5166455 0.39112395
0.8892649 0.96370167 0.63923794 0.5307047 0.7310425 0.49755642 0.48393166 0.35172662
0.36102167 0.53498757 1.0611186 1.0204949 0.6172734 0.7738418 0.6649353 0.916646
0.6048079 0.75625026 0.9054486 0.69005996 0.70988625 1.0938498 1.0678554 0.68212026
0.80282706 0.62129736 0.7374405 1.1215587 0.820322 0.9394709 0.61044216 0.59359413
00000000: 24ea cb3e bedb f73e ade7 343f 2c9b 703f
00000010: e09b 343f f494 6f3f 8d06 8f3f 92b4 9f3f
00000020: c2b7 303f a9d1 7b3f cc3d 3b3f 8d9b 3e3f
00000030: d90f 593f ba7b 343f 588e 273f 9a01 483f
00000040: 2389 153f 3bfe 403f 6296 583f e3e9 e03e
00000050: adfb 3e3f 98f8 7a3f c91c 373f 4f1b 3b3f
00000060: c38c 1c3f d76d 683f 2b04 c33e 3431 8e3f
00000070: 6b57 203f 0cd4 183f b5a7 763f 72e8 183f
00000080: 8a7b 253f 00e0 893f 4cc9 123f ad81 363f
00000090: 38c3 873f 95fc 6f3f 4e4f 7b3f c990 3f3f
000000a0: 27d2 683f 6573 ed3e d39c 7e3f d6a4 143f
000000b0: 7180 0c3f d540 273f 831a 193f e655 633f
000000c0: 3828 213f bcb3 db3e df93 023f 8c1d 883f
000000d0: a9a5 213f 338b 323f ab0e 0f3f 5a9c 2f3f
000000e0: c8cb 513f 5dee 333f 4372 683f 84ed 2c3f
000000f0: 3d58 643f 4e08 f53e 4c33 7c3f f4c1 153f
00000100: c11b a23f 9612 db3e 9cff ac3e 3d7e bf3e
00000110: 6a09 f13e d241 493f 1365 cd3e 9a05 653f
00000120: 2ff8 2f3f e882 6f3f 018e 2e3f d326 053f
00000130: e626 293f 81b3 4f3f c899 123f 9345 213f
00000140: 5614 643f 6344 6a3f 18a2 073f 189e 3a3f
00000150: 81e6 563f 0b4e e93e c55e aa3f 5aac 0a3f
00000160: 4ab2 4b3f 2cad 5f3f d546 0f3f 5cfe 403f
00000170: b3f9 703f 3af8 363f d786 1d3f efbe 4c3f
00000180: 6947 0f3f 7889 113f 5ae0 283f 63e4 203f
00000190: 4d32 233f 2bc6 3a3f c6cf 183f 7c2d 5c3f
000001a0: b68e 013f 760b 6b3f acbf 923f cd73 e23e
000001b0: 6e3c 113f d3d2 7c3f 929a a33f d5d6 323f
000001c0: b13a d23e a98f de3e 2ec9 683f 1731 543f
000001d0: d289 1a3f aa35 333f d261 2f3f 98ff 003f
000001e0: 3568 403f b850 613f e276 853f c6d5 f03e
000001f0: 200b 683f a8ba d83e 7af0 1c3f 97d4 ca3e
00000200: d1f3 a63f a2e6 533f 65c7 543f 941b d63e
00000210: 1a6a 813f 3e96 e73e e693 6e3f 81d1 8c3f
00000220: 2044 383f c9df 833f 9b16 4e3f 4437 503f
00000230: 4da5 2b3f a291 043f 20a3 2c3f 896d 263f
00000240: eced 683f 9e78 813f 0b40 393f dc28 3a3f
00000250: aa06 b23f b895 123f b96f 963e 234c 2e3f
00000260: 4002 323f 3a66 073f 32fc 633f 3877 6f3f
00000270: a7c4 7b3f 09c7 1e3f ad9d 3d3f 16e2 ba3e
00000280: b5b2 8c3f e99a 963f 0e97 633f f4cb c53e
00000290: 8fc9 543f cf34 5e3f e142 043f 6641 c83e
000002a0: dda6 633f 27b5 763f 19a5 233f 43dc 073f
000002b0: 9a25 3b3f b7bf fe3e e4c5 f73e 8315 b43e
000002c0: d5d7 b83e f2f4 083f bcd2 873f 949f 823f
000002d0: a105 1e3f 7f1a 463f 3339 2a3f 50a9 6a3f
000002e0: b1d4 1a3f 9e99 413f 7bcb 673f c5a7 303f
000002f0: 1bbb 353f 4503 8c3f 7caf 883f 6f9f 2e3f
00000300: 1386 4d3f 580d 1f3f e7c8 3c3f 3c8f 8f3f
00000310: 9f00 523f 2a81 703f f045 1c3f c9f5 173f

bn2.bias f4 [200]
0.1905682 0.35399005 0.4438914 -1.1591579 0.07186426 0.008824506 -0.19698443 -0.47919318
0.09906249 -0.42524204 -0.37250167 0.11794134 -0.07014719 0.1826639 0.12500331 0.14721057
-0.22852984 -1.1798773 -0.27970174 0.13138576 0.022774382 0.119353905 0.47309425 -0.12349974
0.568275 -0.5698108 0.1779465 -0.78318816 -0.029153753 0.7114157 0.109260894 -0.006128819
-0.2905943 -0.48077017 0.4970551 0.12215892 -0.1774238 0.08384243 -0.25192183 -0.5800343
-0.8722459 0.38714135 0.035800386 0.29095134 0.11962235 0.15179849 0.5840017 -1.0271924
-0.3209208 0.35964915 0.3007369 -0.044834327 0.16634259 -0.045492806 -0.16436416 0.14340103
0.33342737 -0.8000594 -1.0725491 -0.21916255 -0.542464 -0.08283093 -1.0565516 -0.09872725
-0.4085685 0.022641059 0.1510094 0.3448917 0.23555869 -0.64779866 0.017996622 -0.43041512
-0.22754677 -1.2115868 0.714959 0.40042865 0.018258668 -0.7700335 0.04105828 -0.25092304
-0.04848868 -0.993899 0.10534628 -0.66422975 -0.03533045 -0.12115157 -0.7053776 0.27681294
-0.15457273 -0.6081768 -0.0957741 -0.22982362 -0.8882597 -0.22466837 -0.28889567 -0.086960614
0.17529175 0.23270494 0.38578054 -0.4148554 -0.2765885 -0.09494419 0.21158549 -0.18280117
-0.08175923 -0.6886311 0.31941393 -0.19558813 0.39288917 -0.43148986 -0.12655966 0.2820363
0.22146866 0.46060824 -0.36652294 -0.09415603 0.0875581 -0.30644125 0.98159134 0.18326516
0.43381733 -0.82764876 -0.016500432 0.18759336 -1.0151931 0.2913644 -0.3591382 -0.15791753
-0.92216295 0.0795496 -1.511736 0.1388308 -0.9148587 -0.09209463 -0.09051845 -0.3262434
0.09529843 -0.70545113 -0.5545815 -1.4103553 -0.08210612 0.077952705 -0.2458896 -0.20564702
0.7666038 -0.81171507 0.47780213 0.5235618 -0.43959954 -0.14367504 0.27806583 0.3906104
0.123742744 0.31679627 -1.067989 -0.340427 -0.41986355 -0.093959205 1.104927 0.2311539
0.15374109 -0.190265 -0.3391632 0.26264164 -0.0726229 -1.0496804 0.035236765 0.008743485
0.6079413 -0.128931 0.18717182 -0.041005265 0.121951245 -0.19641152 0.0992999 0.84686327
0.9220962 -0.25909984 -0.8608492 -0.4475238 0.14844088 -0.09519199 0.21068813 -0.6490859
-0.049888242 -1.478769 0.04578988 0.94787556 -0.5609563 -0.54461545 -0.7012252 0.46949318
-0.04136921 0.6327363 -0.539851 -0.92649424 0.0687732 -0.43958384 0.19780116 0.27343097
00000000: 4f24 433e 2f3e b53e bc45 e33e 495f 94bf
00000010: 922d 933d a994 103c 49b6 49be cf58 f5be
00000020: 46e1 ca3d 53b9 d9be 8ab8 bebe 3b8b f13d
00000030: 54a9 8fbd 3f0c 3b3e de00 003e 5ebe 163e
00000040: ba03 6abe 3806 97bf 1135 8fbe fd89 063e
00000050: 5791 ba3c d26f f43d 6939 f23e 6fed fcbd
00000060: 787a 113f 1fdf 11bf 9b37 363e 057f 48bf
00000070: dad3 eebc 571f 363f 2dc4 df3d 43d4 c8bb
00000080: c7c8 94be 8227 f6be 027e fe3e 752e fa3d
00000090: 96ae 35be 94b5 ab3d e6fb 80be 217d 14bf
000000a0: 824b 5fbf 6437 c63e 6da3 123d 93f7 943e
000000b0: 90fc f43d 1071 1b3e 2381 153f 0a7b 83bf
000000c0: bb4f a4be ef23 b83e 30fa 993e 33a4 37bd
000000d0: b655 2a3e aa56 3abd 144f 28be b8d7 123e
000000e0: feb6 aa3e b1d0 4cbf 4a49 89bf 266c 60be
000000f0: ecde 0abf 43a3 a9bd 153d 87bf 8331 cabd
00000100: e42f d1be be79 b93c 35a2 1a3e a595 b03e
00000110: 4c36 713e 22d6 25bf a76d 933c 5f5f dcbe
00000120: 0502 69be 4715 9bbf 8e07 373f fc04 cd3e
00000130: 3493 953c ea20 45bf ba2c 283d fc78 80be
00000140: 119c 46bd 2a70 7ebf cabf d73d f60a 2abf
00000150: a9b6 10bd 501e f8bd a093 34bf 6dba 8d3e
00000160: 5048 1ebe 7ab1 1bbf 3625 c4bd e256 6bbe
00000170: fd64 63bf 770f 66be 22ea 93be 6818 b2bd
00000180: ae7f 333e 344a 6e3e 0785 c53e ed67 d4be
00000190: 029d 8dbe 1972 c2bd dea9 583e 3b30 3bbe
000001a0: 6271 a7bd 214a 30bf 398a a33e 4148 48be
000001b0: c528 c93e 3dec dcbe db98 01be 1067 903e
000001c0: aec8 623e d8d4 eb3e e5a8 bbbe e0d4 c0bd
000001d0: a951 b33d dee5 9cbe 9249 7b3f dda9 3b3e
000001e0: 4e1d de3e cae0 53bf ea2b 87bc 7918 403e
000001f0: d9f1 81bf b72d 953e f6e0 b7be 22b5 21be
00000200: df12 6cbf e7ea a23d 9180 c1bf a929 0e3e
00000210: 2e34 6abf 1c9c bcbd bd61 b9bd 6009 a7be
00000220: d32b c33d 7298 34bf 0ef9 0dbf 8686 b4bf
00000230: 4127 a8bd aba5 9f3d 7cca 7bbe 2295 52be
00000240: 2640 443f 8fcc 4fbf 7ba2 f43e 2508 063f
00000250: 3113 e1be 8d1f 13be a55e 8e3e 16fe c73e
00000260: d66c fd3d 1f33 a23e ddb3 88bf 734c aebe
00000270: 5bf8 d6be af6d c0bd 3f6e 8d3f 9cb3 6c3e
00000280: 4e6e 1d3e d4d4 42be cda6 adbe f778 863e
00000290: 51bb 94bd ed5b 86bf 6d54 103d d640 0f3c
000002a0: 0ba2 1b3f 7d06 04be f8a9 3f3e 23f5 27bd
000002b0: 93c1 f93d 1a20 49be bf5d cb3d 08cc 583f
000002c0: 7f0e 6c3f bca8 84be 9d60 5cbf d721 e5be
000002d0: e300 183e 05f4 c2bd a1be 573e 7e2a 26bf
000002e0: 9d57 4cbd 4d48 bdbf 2b8e 3b3d f9a7 723f
000002f0: d59a 0fbf eb6b 0bbf 7f83 33bf 6961 f03e
00000300: c372 29bd 02fb 213f ad33 0abf ba2e 6dbf
00000310: f7d8 8c3d 2211 e1be 638c 4a3e 25ff 8b3e

bn2.running_mean f4 [200]
1.0278747 0.17214902 0.80896133 0.83657604 1.6524581 -1.8202304 -1.21542 0.58774114
-0.91043454 -0.22164658 1.4015139 -1.8028696 -1.285451 0.8656832 -0.9115776 -0.51433283
-0.05709064 1.4372735 -1.0543958 -0.41986066 -0.26864824 -1.6622448 -1.0157973 -0.1884334
-1.6910489 0.038846612 0.96366554 0.6968678 0.28671122 -0.99045193 -0.36735666 0.76520133
-0.949071 0.80645514 -1.1279113 -0.8493924 -0.19255401 0.09794631 1.0063624 1.81606
1.2736393 -0.8571605 1.7632681 0.6844028 0.50690323 -0.5965308 -1.6422807 0.15277943
0.32660177 -0.59566593 0.40211958 -0.5013139 -0.2327653 0.17575182 -0.8023567 0.16531767
0.27512282 1.0011021 1.328859 -1.3874568 -1.6954923 0.7699285 1.9694588 -0.9600143
1.1294363 -0.2787627 0.06573149 0.13183884 -1.7545122 0.8613091 0.7488964 -0.52869403
0.8594357 1.5015067 -1.285118 -0.71455026 0.73793405 1.3898296 0.2574938 0.65613616
1.2029452 0.99469924 0.48003465 1.1874007 0.018730475 -0.7423829 -1.4435173 1.2395469
-0.9328671 0.6887572 -0.38095126 -1.4788115 0.20913127 -0.73112833 -0.07165617 0.4105438
0.06837121 -1.6354226 -0.7315779 0.18873987 0.017542955 0.22640674 -1.122075 -1.0333977
0.074638866 1.3992162 -0.9588519 -0.10989476 0.16526149 0.81724274 -0.6676187 -0.30505598
1.1371022 -0.36781183 2.1887138 -0.27903795 0.5011888 0.35245374 -0.6653704 -1.0199634
0.9886 -0.6720776 0.27224255 -0.5504709 -1.3962694 0.41785643 -0.003948054 -0.80310684
-1.1174301 -0.92792434 1.1923935 1.5571039 0.36682674 0.31512147 -0.27198416 2.0764163
-1.6037526 -1.3268557 0.79762506 1.689175 0.65898544 -1.1445875 -1.2373472 0.019405631
0.123015024 0.71960443 -0.20959456 -0.65800697 -0.16381481 -0.34642497 -1.2960647 -1.3024397
-0.14787562 -0.14804414 1.3616271 -1.5670629 -0.93857247 -0.042123605 -0.54031914 -0.034470044
-1.0014977 -0.9039404 1.1502941 0.57174224 -0.08413407 1.1084083 -0.1121613 -0.23663583
-1.1067516 -0.9128935 -1.2747475 0.27625576 -0.805385 0.5919412 -0.027658936 0.440115
0.7420786 -1.1015627 1.8186036 1.8787193 -0.94055146 -0.58952254 -0.68389136 -0.24826464
-0.5998 1.3548723 0.46395087 -1.1778264 1.0133628 0.17415945 0.4603174 -0.12457137
-0.011225176 -0.5873154 1.232233 -0.96471995 -0.74818087 0.7650319 0.19368276 0.6578934
00000000: 6691 833f d547 303e 1718 4f3f d929 563f
00000010: bf83 d33f 4ffd e8bf e292 9bbf 3476 163f
00000020: 3d12 69bf 52f7 62be cf64 b33f 6ec4 e6bf
00000030: a989 a4bf 6a9d 5d3f 265d 69bf 51ab 03bf
00000040: e0d7 69bd 94f8 b73f 71f6 86bf faf7 d6be
00000050: 438c 89be 70c4 d4bf a505 82bf aff4 40be
00000060: 4a74 d8bf a01d 1f3d c9b2 763f ee65 323f
00000070: d0cb 923e 428e 7dbf 2c16 bcbe 3ce4 433f
00000080: 51f6 72bf d873 4e3f 665f 90bf c871 59bf
00000090: e12c 45be 1398 c83d 7cd0 803f a774 e83f
000000a0: 9d06 a33f df6e 5bbf c5b2 e13f 0635 2f3f
000000b0: 69c4 013f 3eb6 18bf 4136 d2bf 3672 1c3e
000000c0: 5938 a73e 907d 18bf 9ee2 cd3e 1c56 00bf
000000d0: 075a 6ebe 49f8 333e 4067 4dbf 0949 293e
000000e0: e6dc 8c3e 1d24 803f 0d18 aa3f 2f98 b1bf
000000f0: e405 d9bf 091a 453f 3a17 fc3f 7fc3 75bf
00000100: 5e91 903f fcb9 8ebe 3b9e 863d c300 073e
00000110: db93 e0bf c17e 5c3f adb7 3f3f 7e58 07bf
00000120: fa03 5c3f 5f31 c03f bf7e a4bf c4ec 36bf
00000130: 3fe9 3c3f f0e5 b13f 3ad6 833e 8af8 273f
00000140: 1cfa 993f 9ca4 7e3f 1ac7 f53e bffc 973f
00000150: a770 993c ce0c 3ebf 2dc5 b8bf 79a9 9e3f
00000160: 61d0 6ebf 6452 303f 0b0c c3be b249 bdbf
00000170: 8226 563e 3a2b 3bbf 78c0 92bd cc32 d23e
00000180: 3406 8c3d 8755 d1bf b048 3bbf 0645 413e
00000190: 3eb6 8f3c 2bd7 673e 27a0 8fbf 6046 84bf
000001a0: 43dc 983d 8419 b33f 5177 75bf 8110 e1bd
000001b0: 4f3a 293e d236 513f 0fe9 2abf 4c30 9cbe
000001c0: 918c 913f d551 bcbe e313 0c40 10de 8ebe
000001d0: e94d 003f d174 b43e b755 2abf 298e 82bf
000001e0: e414 7d3f 470d 2cbf 6063 8b3e a9eb 0cbf
000001f0: f5b8 b2bf 47f1 d53e ad5e 81bb 6998 4dbf
00000200: f307 8fbf 738c 6dbf 5aa0 983f 2e4f c73f
00000210: b7d0 bb3e 9a57 a13e 8241 8bbe 01e4 0440
00000220: c447 cdbf 68d6 a9bf 2831 4c3f e336 d83f
00000230: 45b3 283f d881 92bf 6561 9ebf 8ff8 9e3c
00000240: 4def fb3d ff37 383f f59f 56be 2573 28bf
00000250: 12bf 27be 9d5e b1be 73e5 a5bf 58b6 a6bf
00000260: b56c 17be e298 17be cc49 ae3f 8495 c8bf
00000270: 4946 70bf cd89 2cbd 5b52 0abf 7630 0dbd
00000280: 1431 80bf a368 67bf d63c 933f b35d 123f
00000290: 7c4e acbd 53e0 8d3f d3b4 e5bd aa50 72be
000002a0: 09aa 8dbf 63b3 69bf ed2a a3bf 6571 8d3e
000002b0: b62d 4ebf 7589 173f fe94 e2bc c156 e13e
000002c0: ddf8 3d3f 0200 8dbf 01c8 e83f e079 f03f
000002d0: fbc7 70bf f3ea 16bf 8113 2fbf 1639 7ebe
000002e0: 7e8c 19bf 756c ad3f f88a ed3e 04c3 96bf
000002f0: dfb5 813f db56 323e b9ae eb3e 461f ffbd
00000300: cde9 37bc 4d5a 16bf d0b9 9d3f e3f7 76bf
00000310: c888 3fbf 21d9 433f c654 463e b46b 283f

bn2.running_var f4 [200]
0.29194996 0.49216864 0.5452751 0.34264627 0.70697 0.9342838 1.1863114 0.88743335
0.26902893 0.76489246 0.56454164 0.9643285 0.66313154 0.59329957 0.585904 0.6681577
0.31036183 0.7322446 0.32515293 0.4436217 0.700393 0.95132315 0.4666061 0.3664635
0.7419469 1.3039929 0.3419462 0.90234053 0.39231476 0.77087957 0.2883087 0.6721954
0.29082093 0.8526357 0.30977854 0.82424873 1.2440602 0.8742631 0.44038737 0.7233812
0.6940772 0.26743343 1.0279795 0.6541182 0.6800896 0.45673895 0.78136003 0.7460004
0.68141645 0.3141863 0.3723376 0.70742416 1.1898117 0.22748637 0.24728206 0.9194997
0.53731996 0.5516175 0.36002934 0.6998636 0.46393815 0.24210127 0.44829974 0.34152046
0.68953323 0.33700156 0.2601377 0.29696038 0.27808598 0.50517863 0.28925076 1.0118933
0.5379511 0.4038475 0.5984573 0.36845383 0.78831077 0.23845828 0.4492656 0.23771448
1.1123555 0.16860937 0.40985456 0.37077624 0.8430833 0.3532462 0.5001686 0.6465358
0.44199082 0.62595654 0.4291251 0.54646516 0.4164848 0.59306186 0.2810832 0.72400606
0.6518076 0.9759424 1.0580537 0.3436436 0.4831356 0.5130644 0.46481785 0.27822474
0.34077442 0.6319371 0.45581022 0.20821297 0.46457723 0.28904474 1.800155 0.60655326
0.3263631 0.28405538 0.8623189 0.2944863 0.5792798 0.37192056 0.4393327 0.39630744
0.30632854 0.41479 1.5232368 0.25097162 0.41741073 0.38166934 0.4234457 0.2613718
0.5017234 1.9720826 0.5099874 0.37630197 0.91462684 0.19681305 1.3217685 1.8360581
0.8178643 0.38631967 0.5236455 0.2640847 0.43510935 0.46983513 0.30584285 0.7406231
1.1936437 0.5192476 0.5709841 0.7502473 1.4453782 0.31656477 0.25596642 0.27199706
0.22446309 0.34873098 0.35552567 0.30795762 0.7250194 0.78364694 0.3309893 0.49990964
2.538361 1.1171831 0.74594146 0.5534001 0.9483844 0.30243462 0.42965475 0.31328174
0.62974995 0.98818886 0.5613746 0.46058133 0.27865148 0.30758598 0.35537517 0.2507317
0.37195894 0.5869916 1.1834083 1.3430986 0.78290933 0.54226243 1.9159635 0.68380314
0.37353182 0.40706262 0.92872185 0.8066402 0.36915153 0.5103344 1.0539227 1.1093208
0.9449087 0.4844936 0.26652363 0.37836677 0.44065484 0.7141383 0.4994168 0.36964464
00000000: 777a 953e 87fd fb3e 2697 0b3f 556f af3e
00000010: fcfb 343f 392d 6f3f 0dd9 973f d52e 633f
00000020: 29be 893e fecf 433f cd85 103f 3cde 763f
00000030: fdc2 293f 7be2 173f cefd 153f 620c 2b3f
00000040: bfe7 9e3e 6274 3b3f 727a a63e 6222 e33e
00000050: f54c 333f ea89 733f ffe6 ee3e 1ba1 bb3e
00000060: 3bf0 3d3f 3de9 a63f 9313 af3e caff 663f
00000070: 7bdd c83e 5d58 453f 339d 933e ff14 2c3f
00000080: 7be6 943e 5546 5a3f 4b9b 9e3e f701 533f
00000090: 5d3d 9f3f b5cf 5f3f 747a e13e 832f 393f
000000a0: 0baf 313f 09ed 883e d594 833f 4a74 273f
000000b0: 5a1a 2e3f b0d9 e93e 3607 483f e2f9 3e3f
000000c0: 4f71 2e3f 07dd a03e 09a3 be3e c019 353f
000000d0: c04b 983f 30f2 683e 8237 7d3e 5564 6b3f
000000e0: cd8d 093f ce36 0d3f c455 b83e 432a 333f
000000f0: 4d89 ed3e 65e9 773e 8b87 e53e c5db ae3e
00000100: 4085 303f 788b ac3e c530 853e 310b 983e
00000110: 4961 8e3e 6353 013f ad18 943e b885 813f
00000120: 2ab7 093f 19c5 ce3e 7f34 193f fba5 bc3e
00000130: bcce 493f 682e 743e 2406 e63e 6d6b 733e
00000140: aa61 8e3f efa7 2c3e 75d8 d13e 62d6 bd3e
00000150: 4fd4 573f b0dc b43e 0d0b 003f 5f83 253f
00000160: 9f4c e23e b03e 203f 49b6 db3e 24e5 0b3f
00000170: 7f3d d53e e7d2 173f 23ea 8f3e 7658 393f
00000180: dddc 263f 5cd7 793f 4e6e 873f 0ef2 af3e
00000190: 8d5d f73e 3058 033f 9bfc ed3e 7973 8e3e
000001a0: fc79 ae3e a1c6 213f f55f e93e c835 553e
000001b0: 11dd ed3e acfd 933e 7b6b e63f 1347 1b3f
000001c0: 1019 a73e b56f 913e eec0 5c3f e9c6 963e
000001d0: ae4b 143f 5f6c be3e 37f0 e03e cfe8 ca3e
000001e0: 18d7 9c3e 5b5f d43e 6cf9 c23f 5a7f 803e
000001f0: dcb6 d53e 2a6a c33e e0cd d83e 86d2 853e
00000200: f270 003f 346d fc3f 898e 023f a7aa c03e
00000210: fc24 6a3f 5c89 493e b62f a93f f403 eb3f
00000220: 8e5f 513f b1cb c53e a20d 063f 1c36 873e
00000230: a7c6 de3e 3b8e f03e 6f97 9c3e 7a99 3d3f
00000240: 51c9 983f 69ed 043f 042c 123f 3510 403f
00000250: 2702 b93f c714 a23e 080e 833e 3343 8b3e
00000260: a7d9 653e de8c b23e 7607 b63e 9fac 9d3e
00000270: df9a 393f 169d 483f 6e77 a93e 28f4 ff3e
00000280: 8274 2240 dbff 8e3f 05f6 3e3f a1ab 0d3f
00000290: 52c9 723f b6d8 9a3e b5fb db3e 7766 a03e
000002a0: 4b37 213f f2f9 7c3f 3fb6 0f3f 51d1 eb3e
000002b0: 68ab 8e3e e97b 9d3e bcf3 b53e e85f 803e
000002c0: 6771 be3e 1545 163f ec79 973f a8ea ab3f
000002d0: bf6c 483f b6d1 0a3f 4b3e f53f b90d 2f3f
000002e0: 903f bf3e 836a d03e b7c0 6d3f f97f 4e3f
000002f0: 6e01 bd3e 46a5 023f f0e6 863f 39fe 8d3f
00000300: 89e5 713f 8c0f f83e c975 883e 4ab9 c13e
00000310: 839d e13e c5d1 363f 8fb3 ff3e 1042 bd3e
