artifacts/dynaPhysics2/210_walkerDynamics.pt (torch, 191930 bytes, 20 tensors)

linear1.weight f4 [100, 24]
-0.7153502 -0.4295869 0.15056647 0.29017916 -0.23790611 0.23174429 0.040599767 0.03083699
0.20911348 -0.38465166 0.6409132 0.2522614 -0.15512934 0.16626965 -0.032893486 -0.04080669
0.13947277 -0.02876183 -0.21348605 0.33676034 -0.95033723 -0.063907325 0.20459889 -0.32573745
-0.8094532 -0.34841287 0.20924932 -0.40305245 -0.19708869 -0.85007507 0.057681277 -0.0597043
0.17270598 -0.70978904 -0.16477925 -0.036812663 0.108676925 0.042621493 0.032238808 0.12382022
0.06743327 -0.01867366 0.2526417 -0.19825116 0.7460464 0.7186302 0.2625896 -0.2572243
1.2666079 -0.029462308 -0.010766142 -0.45145544 -0.76354563 -1.473849 0.037979286 0.007735007
-0.0013116868 -0.0046543307 0.00011421414 0.011744708 -0.01256097 -0.0031550762 -0.022973297 0.0040454688
0.0030479566 0.0022307048 -0.002696518 -0.095965736 -0.15766081 0.019448668 -0.004100548 0.0017619741
0.093910076 0.04449191 -0.06323078 -0.68188125 -1.1827527 0.54689866 -0.17733689 -0.04807213
0.058046017 -0.052313115 -0.064565666 -0.079719 0.13153489 0.30922067 0.012350525 0.011017908
7.8446035e-05 -0.0036866544 0.0639998 0.20477891 0.038625702 0.007533447 -0.007933118 -0.05163374
-2.289529 -0.17097136 -0.8304073 0.81675434 0.80244154 0.3414388 0.24109192 0.102353714
0.07342531 -0.06336914 -0.198175 -0.032300025 0.008355268 0.016912512 0.0071650087 0.022903
0.0032417574 0.0030223725 0.014366284 -0.0050955745 -0.0037261655 0.0032920898 -0.030805223 0.042485677
-0.5698464 -0.0060015046 -0.03236188 -0.25158322 -0.082520634 0.1587952 0.07024256 -0.2121359
-0.6304811 0.13684888 -0.07128816 -0.095467605 0.0058665895 0.012047265 -0.012978879 0.13299826
0.17323181 0.07180576 0.12525353 0.25406885 -0.43099374 -0.06746416 0.57308805 1.304656
-1.0535296 0.002037849 0.12114258 -0.28654563 1.8153837 0.78070587 0.33242154 0.020156069
-0.055532586 -0.045323886 -0.010583483 0.16935706 -0.122141555 -0.036607213 0.013940896 -0.014395258
0.0017291342 -0.0030137734 0.23384129 -0.070569225 0.07963164 -0.06253982 0.0037869252 -0.0010786434
1.0323085 -0.11905656 -0.02427541 0.94312996 0.53845143 0.009503938 1.6014439 0.48721313
-0.03259201 -0.07247497 -0.03779024 -0.019702278 -0.019923115 0.002225338 0.0011048339 0.014983132
9.441137e-06 -0.00012441295 -0.23153019 0.12472709 0.035204116 -0.101878986 0.041597184 -0.028086798
0.23164396 0.031252127 -0.0056077316 -0.0016204009 0.02953857 -0.020539856 0.14007385 0.5130213
-1.4006821 -0.011741184 -0.041500088 0.19519281 0.007005058 0.004541986 -0.001422953 -0.19521552
-0.16592322 -0.046230044 -0.0034267078 0.001000989 -0.0019247058 -0.021844286 -0.13302627 -0.5130868
2.7835596 -0.22855869 -0.029707203 0.22308312 -0.32673323 -0.006728132 -0.54151994 -0.152771
-0.073374264 -0.1362781 -0.53601456 0.008346884 -0.010077017 0.016936451 -0.005765754 -0.014069591
0.012762748 0.0012704382 -0.17338923 -0.021175433 -0.16821255 0.0348865 0.12987234 -0.061331768
-0.39441732 -0.08437341 0.19077167 -0.13328516 0.22509316 0.6614955 0.43470043 0.2903853
-0.16711712 0.014823212 0.002554446 -0.025720138 0.14080587 -0.11020999 -0.024625601 -0.14373277
00000000: 3121 37bf d0f2 dbbe 192e 1a3e 5d92 943e
00000010: a99d 73be 604e 6d3e f14b 263d db9d fc3c
00000020: d821 563e 10f1 c4be e312 243f 6828 813e
00000030: 3ada 1ebe 9742 2a3e 52bb 06bd ea24 27bd
00000040: f3d1 0e3e ee9d ebbc 169c 5abe da6b ac3e
00000050: 4d49 73bf d8e1 82bd 5f82 513e 0fc7 a6be
00000060: 5338 4fbf 2c63 b2be 7445 563e e45c cebe
00000070: 9ed1 49be 859e 59bf 3443 6c3d 7f8c 74bd
00000080: d6d9 303e bcb4 35bf e4bb 28be e0c8 16bd
00000090: 0292 de3d e093 2e3d d70c 043d 7595 fd3d
000000a0: 741a 8a3d 81f9 98bc 415a 813e 5a02 4bbe
000000b0: e6fc 3e3f 26f8 373f 2572 863e e7b2 83be
000000c0: 3520 a23f f05a f1bc 7964 30bc 2b25 e7be
000000d0: ba77 43bf 16a7 bcbf 2b90 1b3d f175 fd3b
000000e0: e8ec abba 5b83 98bb 4086 ef38 e06c 403c
000000f0: 87cc 4dbc 65c5 4ebb 7f32 bcbc da8f 843b
00000100: 3ac0 473b 0431 123b 11b8 30bb af89 c4bd
00000110: d671 21be d052 9f3c e45d 86bb 0af2 e63a
00000120: ed53 c03d 263d 363d 247f 81bd c58f 2ebf
00000130: 7164 97bf 8d01 0c3f cd97 35be 48e7 44bd
00000140: a9c1 6d3d 4746 56bd 013b 84bd b743 a3bd
00000150: 15b1 063e 2c52 9e3e db59 4a3c 7584 343c
00000160: 6583 a438 cc9b 71bb 5412 833d 90b1 513e
00000170: fc35 1e3d 22db f63b e9f9 01bc e77d 53bd
00000180: a587 12c0 1e13 2fbe 9395 54bf d016 513f
00000190: cf6c 4d3f 11d1 ae3e cde0 763e d39e d13d
000001a0: 0260 963d aec7 81bd 63ee 4abe 084d 04bd
000001b0: 89e4 083c 1c8c 8a3c 73c8 ea3b 129f bb3c
000001c0: aa73 543b ff12 463b 9060 6b3c c7f8 a6bb
000001d0: af32 74bb 1ac0 573b 3c5b fcbc 7605 2e3d
000001e0: 74e1 11bf 45a8 c4bb e48d 04bd 84cf 80be
000001f0: 9400 a9bd 359b 223e 55db 8f3d 273a 59be
00000200: 3667 21bf 1d22 0c3e 87ff 91bd 8584 c3bd
00000210: 853c c03b e461 453c 5da5 54bc b230 083e
00000220: ae63 313e e60e 933d 7642 003e 5015 823e
00000230: 36ab dcbe a62a 8abd e6b5 123f f8fe a63f
00000240: 0fda 86bf 6f8d 053b 9a19 f83d 1cb6 92be
00000250: 7e5e e83f 57dc 473f 2833 aa3e 571e a53c
00000260: 2376 63bd 8aa5 39bd 5866 2dbc f06b 2d3e
00000270: 5a25 fabd 72f1 15bd 5b68 643c 17da 6bbc
00000280: 1ea4 e23a ba82 45bb 1774 6f3e 9986 90bd
00000290: ea15 a33d e114 80bd 102e 783b 4461 8dba
000002a0: af22 843f edd3 f3bd 3add c6bc f770 713f
000002b0: f4d7 093f 68b6 1b3c 1dfc cc3f 0074 f93e
000002c0: 337f 05bd c26d 94bd f0c9 1abd ac66 a1bc
000002d0: cd35 a3bc fad6 113b 13d0 903a cf7b 753c
000002e0: 6065 1e37 d974 02b9 4016 6dbe eb70 ff3d
000002f0: 3132 103d eea5 d0bd cf61 2a3d 4916 e6bc
00000300: 1334 6d3e 3b02 003d 10c1 b7bb a263 d4ba
00000310: dffa f13c 3343 a8bc 856f 0f3e 5d55 033f
00000320: 8d49 b3bf 185e 40bc fffb 29bd a0e0 473e
00000330: b08a e53b f1d4 943b 6182 baba 94e6 47be
00000340: c7e7 29be b75b 3dbd 9e92 60bb 9e33 833a
00000350: 6946 fcba caf2 b2bc 0a38 08be a859 03bf
00000360: d725 3240 4a0b 6abe 855c f3bc e76f 643e
00000370: 9449 a7be a977 dcbb 0da1 0abf 0070 1cbe
00000380: 3f45 96bd 7c8c 0bbe 4038 09bf 5ec1 083c
00000390: 131a 25bc 50be 8a3c a6ee bcbb 2484 66bc
000003a0: d81a 513c d584 a63a f28c 31be 1a78 adbc
000003b0: e93f 2cbe 26e5 0e3d 41fd 043e 0537 7bbd
000003c0: 11f1 c9be f7cb acbd a659 433e e87b 08be
000003d0: d27e 663e c557 293f 0e91 de3e 62ad 943e
000003e0: c020 2bbe 0fdd 723c 7e68 273b 0ab3 d2bc
000003f0: 6a2f 103e c6b5 e1bd a1bb c9bc af2e 13be

linear1.bias f4 [100]
0.21646279 -0.16051334 -0.13334988 0.17472646 -0.029877862 0.0058387998 0.008571212 0.11836319
-0.069934174 -0.2064053 -0.1926527 0.027272167 -0.050769445 -0.26474324 -0.06856135 0.061906956
-0.04493943 -0.14726344 -0.026229294 -0.029721934 0.20048772 -0.08292209 0.08916147 0.11226179
0.054014787 -0.0684888 0.061271865 -0.121505566 -0.13650075 0.34662554 -0.0070940405 -0.42206195
0.11886094 -0.007104916 0.18730095 0.07809828 -0.21237272 0.04706093 0.119775064 0.18639249
0.29417154 -0.17078397 0.07823889 0.15369526 0.15190093 0.11290429 -0.0025805908 -0.14312693
-0.12824737 0.23737808 -0.0032161514 -0.021993697 -0.034866635 -0.0090884855 -0.04836164 0.1811137
-0.05010406 0.037681624 -0.02067417 -0.025586437 0.14766434 -0.14190915 0.0215741 0.17019618
0.014206972 -0.049037416 0.04868751 0.055607963 0.09574605 0.3464683 -0.24832968 0.29187098
-0.05519506 0.14834373 -0.2099815 -0.24727745 -0.03791019 0.16000763 -0.18716833 -0.124263406
-0.016828543 -0.074491665 0.124949664 -0.03817056 -0.029838014 -0.027805071 -0.18619189 0.113396145
-0.03174735 0.009915321 0.14317106 -0.0038802351 -0.04392 -0.15354693 0.24433412 0.081812754
0.036331814 -0.2350789 -0.20744266 0.13823712
00000000: 6ca8 5d3e 9c5d 24be df8c 08be 7eeb 323e
00000010: 6bc2 f4bc 6753 bf3b 456e 0c3c 6668 f23d
00000020: a639 8fbd e95b 53be c046 45be e169 df3c
00000030: 9ff3 4fbd 6d8c 87be e569 8cbd 2692 7d3d
00000040: 6812 38bd 3acc 16be d1de d6bc 6a7b f3bc
00000050: a74c 4d3e 0fd3 a9bd 4a9a b63d 82e9 e53d
00000060: 9c3e 5d3d db43 8cbd 35f8 7a3d e9d7 f8bd
00000070: dac6 0bbe e778 b13e 2075 e8bb 8118 d8be
00000080: 5d6d f33d 5bd0 e8bb d2cb 3f3e fef1 9f3d
00000090: 3c78 59be f6c2 403d a14c f53d acdd 3e3e
000000a0: a79d 963e fee1 2ebe b63b a03d 4a62 1d3e
000000b0: eb8b 1b3e 5d3a e73d 211f 29bb de8f 12be
000000c0: 4753 03be 3d13 733e 11c6 52bb 202c b4bc
000000d0: 51d0 0ebd dfe7 14bc db16 46bd df75 393e
000000e0: ea39 4dbd 0c58 1a3d e15c a9bc a69a d1bc
000000f0: 5235 173e a250 11be 2bbc b03c e847 2e3e
00000100: 5cc4 683c 75db 48bd 8e6c 473d 2dc5 633d
00000110: 8116 c43d 4b64 b13e 234a 7ebe 1d70 953e
00000120: 3714 62bd 6be7 173e 6405 57be 4d36 7dbe
00000130: b747 1bbd 0ad9 233e 0ea9 3fbe d07d febd
00000140: 03dc 89bc 168f 98bd 9ce5 ff3d bc58 1cbd
00000150: da6e f4bc 76c7 e3bc 16a9 3ebe 3d3c e83d
00000160: 8209 02bd df73 223c 6f9b 123e 8b4b 7ebb
00000170: 75e5 33bd 683b 1dbe b932 7a3e 728d a73d
00000180: abd0 143d 86b8 70be d96b 54be 088e 0d3e

bn1.weight f4 [100]
0.476513 0.45278323 0.9657109 0.34158987 0.9618335 0.6552156 0.8009007 0.66222054
0.43765742 0.3405044 0.5602936 0.4511933 0.43802378 1.3275702 1.005264 0.4719577
0.47376603 0.3989023 0.30326197 0.73896796 0.50589967 0.2884067 0.3359563 0.6561699
1.116853 1.4538518 1.2310662 0.25468397 0.26453325 1.1542389 0.9201573 1.404305
0.46726367 0.5163379 0.8154106 0.65103185 0.45042858 0.66343856 1.1959454 1.0555784
1.3683912 0.57799995 1.7939368 0.6695378 0.547019 1.0525585 0.7473762 0.7642856
0.45176 0.5503802 0.6613688 0.24881741 0.32182634 0.7694636 0.3489255 1.1429077
0.39240152 0.3953196 1.0547602 1.0815068 0.944725 0.60738426 0.2711656 2.008831
0.28403884 0.36119902 0.4633092 0.5657028 0.61555 0.8039363 1.0788974 1.0759591
1.1304199 0.51475173 0.71313316 0.33029956 0.67913884 0.28377628 0.45246887 1.407582
0.615377 0.47389483 1.3578403 0.6539047 0.8444992 0.7887596 0.8381126 0.29715422
0.510644 0.31399596 0.5696078 0.33112648 0.85194385 0.31266466 0.2971425 0.4860166
0.5174488 1.6252996 0.8073479 0.5779911
00000000: 83f9 f33e 34d3 e73e d438 773f dee4 ae3e
00000010: b83a 763f 36bc 273f d407 4d3f 4987 293f
00000020: a214 e03e 9856 ae3e 676f 0f3f cf02 e73e
00000030: a744 e03e d2ed a93f 7eac 803f 71a4 f13e
00000040: 7691 f23e ec3c cc3e 2745 9b3e 012d 3d3f
00000050: a482 013f 0baa 933e 7702 ac3e c0fa 273f
00000060: 0af5 8e3f d117 ba3f 9493 9d3f f065 823e
00000070: e770 873e 1abe 933f 6e8f 6b3f 44c0 b33f
00000080: 2f3d ef3e b82e 043f c0be 503f 06aa 263f
00000090: 939e e63e 1cd7 293f bd14 993f 311d 873f
000000a0: 7127 af3f cef7 133f b99f e53f d466 2b3f
000000b0: 7009 0c3f 3dba 863f 0c54 3f3f 39a8 433f
000000c0: 164d e73e b7e5 0c3f 774f 293f fec9 7e3e
000000d0: 6cc6 a43e 91fb 443f 5da6 b23e cd4a 923f
000000e0: dae8 c83e 5567 ca3e 6202 873f d16e 8a3f
000000f0: 7fd9 713f 897d 1b3f 38d6 8a3e b090 0040
00000100: 8a6d 913e 14ef b83e dd36 ed3e e6d1 103f
00000110: af94 1d3f c5ce 4d3f 4f19 8a3f 07b9 893f
00000120: 99b1 903f c5c6 033f e58f 363f 061d a93e
00000130: 0bdc 2d3f 204b 913e 00aa e73e a62b b43f
00000140: 5989 1d3f 58a2 f23e b6cd ad3f 4c66 273f
00000150: 1931 583f 26ec 493f 8c8e 563f 9924 983e
00000160: 91b9 023f 14c4 a03e d1d1 113f 6989 a93e
00000170: fe18 5a3f 9515 a03e 1023 983e 2bd7 f83e
00000180: 8677 043f d109 d03f 5aae 4e3f 3af7 133f

bn1.bias f4 [100]
-0.038040116 0.011398981 -0.02930958 -0.11586353 0.010911713 0.092780314 -0.31168386 0.3372209
0.035468277 -0.15090092 0.025789555 0.018973613 0.039799403 -0.5625751 0.58530617 0.59414893
-0.01287862 -0.061219074 -0.044628136 0.30505458 0.011151844 0.67922753 -0.021066671 0.4618508
0.11443181 1.3547288 1.1065189 0.1182838 0.06045909 -0.4052438 -0.21734107 0.65438646
0.22806658 0.0158448 -0.11249474 -0.24461432 0.41628426 -0.14896734 -0.9061817 -0.1964033
-0.26668966 -0.01724684 -0.61874044 0.91727096 -0.009405912 -0.8057659 -0.11048381 -0.06485567
-0.020423982 -0.06705256 0.14470194 0.10716014 0.56871194 -0.07058482 0.064375475 0.14920343
0.044927146 1.7738066 0.32890704 -0.62827414 -0.19914956 0.25921547 -0.010841967 0.89328104
-0.06533427 0.20169704 0.18168412 0.45763007 0.31065148 -0.013286204 -0.1301077 -0.8344883
0.20548497 0.05929524 -0.09791686 0.12617621 0.19904262 -0.06680168 -0.08616219 -0.80314124
0.11725139 -0.057386275 -0.28015676 0.7529734 0.00177044 0.21799284 -0.2658704 0.1206708
0.23835419 0.005633657 -0.08404195 1.3453403 0.07632568 0.1313132 0.8661557 0.09037615
0.17380548 -0.64433783 0.021386229 0.59236175
00000000: f4cf 1bbd cbc2 3a3c a51a f0bc dc49 edbd
00000010: 0bc7 323c 9b03 be3d 0795 9fbe 38a8 ac3e
00000020: 2f47 113d c585 1abe 9e44 d33c 8d6e 9b3c
00000030: b304 233d ec04 10bf a0d6 153f 251a 183f
00000040: d900 53bc dac0 7abd fecb 36bd 1d30 9c3e
00000050: 39b6 363c dbe1 2d3f 0394 acbc b577 ec3e
00000060: 3a5b ea3d c167 ad3f 69a2 8d3f c73e f23d
00000070: f3a3 773d 1e7c cfbe a88e 5ebe df85 273f
00000080: 498a 693e f4cc 813c a463 e6bd 2d7c 7abe
00000090: 3623 d53e e58a 18be 86fb 67bf f21d 49be
000000a0: 8c8b 88be 3f49 8dbc c665 1ebf 45d2 6a3f
000000b0: 411b 1abc ad46 4ebf 5645 e2bd 0dd3 84bd
000000c0: 3250 a7bc da52 89bd bf2c 143e c776 db3d
000000d0: 1b97 113f c68e 90bd 4ad7 833d c9c8 183e
000000e0: 8705 383d 180c e33f 8166 a83e 93d6 20bf
000000f0: dded 4bbe e4b7 843e 81a2 31bc 11ae 643f
00000100: f9cd 85bd ab89 4e3e 670b 3a3e 7d4e ea3e
00000110: b60d 9f3e 61ae 59bc f43a 05be 06a1 55bf
00000120: a76a 523e 91df 723d a288 c8bd 5634 013e
00000130: d4d1 4b3e 52cf 88bd cd75 b0bd aa9a 4dbf
00000140: 7f21 f03d df0d 6bbd b570 8fbe ddc2 403f
00000150: 1c0e e83a 8439 5f3e 2a20 88be 4122 f73d
00000160: 1f13 743e 8a9a b83b 301e acbd 1c34 ac3f
00000170: a350 9c3d f876 063e 61bc 5d3f 2217 b93d
00000180: 10fa 313e 53f3 24bf 2c32 af3c 05a5 173f

bn1.running_mean f4 [100]
1.5620508 0.9978929 -0.6718064 1.2187165 2.0263858 0.97197145 -1.4821817 -0.72791976
-0.9641242 -2.7864628 -0.28216228 0.961507 -1.5101492 3.7984693 0.6536429 1.4798642
-1.1099395 -0.49117953 2.0558739 -0.3746967 -1.1680014 -0.24111682 -0.33383894 3.3731706
1.6184512 1.0389386 5.4560113 -0.94234836 1.9298975 -1.0029775 -0.7218017 5.3107033
-0.088630505 1.3664393 2.3211007 0.827191 2.820481 1.1942354 -1.6828691 -1.1104982
0.41371906 -1.5733045 -1.1057035 2.4663262 0.028289424 -4.4480286 1.8390666 -1.5482482
-1.0340904 -1.8514273 0.38786218 0.5866487 3.8003275 -0.53902125 -2.9937518 0.18074328
-0.88714606 -1.1795336 -2.2064116 -1.727202 -0.9770695 -2.7146072 0.19004054 0.118466295
0.9249811 -0.845019 -0.9275314 1.0476372 1.5261971 0.69692355 3.3068933 -2.3219168
-2.8552957 2.4315584 -1.0899283 -2.7026024 0.20165876 -1.9464679 -0.8074162 -2.7320414
-1.3377558 -0.29908884 -0.4858507 0.84174985 0.37023157 -0.99909145 -2.1625834 1.2725282
1.4204813 -2.9851549 -0.99408406 -0.8405398 1.0586042 -1.1756253 0.6800422 0.7459743
0.5761911 -1.8504208 -0.59186554 0.8000291
00000000: 48f1 c73f e975 7f3f 81fb 2bbf e7fe 9b3f
00000010: 4eb0 0140 1fd3 783f 21b8 bdbf f358 3abf
00000020: d8d0 76bf 6855 32c0 9377 90be 5325 763f
00000030: 924c c1bf 1f1a 7340 2455 273f 316c bd3f
00000040: 7f12 8ebf e27b fbbe 7093 0340 3fd8 bfbe
00000050: 1281 95bf 54e7 76be f0ec aabe 07e2 5740
00000060: 6929 cf3f f1fb 843f a597 ae40 be3d 71bf
00000070: e206 f73f 9161 80bf ffc7 38bf 48f1 a940
00000080: e983 b5bd 7ce7 ae3f ea8c 1440 cac2 533f
00000090: c382 3440 b5dc 983f 4168 d7bf ce24 8ebf
000000a0: fcd2 d33e 0b62 c9bf b187 8dbf 4ad8 1d40
000000b0: 39bf e73c 4056 8ec0 8966 eb3f ff2c c6bf
000000c0: 135d 84bf 92fb ecbf df95 c63e 9c2e 163f
000000d0: 9138 7340 4cfd 09bf a199 3fc0 c414 393e
000000e0: 011c 63bf f5fa 96bf d935 0dc0 f514 ddbf
000000f0: 3a21 7abf 20bc 2dc0 fd99 423e 759e f23d
00000100: 90cb 6c3f 2a53 58bf b372 6dbf fa18 863f
00000110: 6d5a c33f 9569 323f 24a4 5340 499a 14c0
00000120: 2abd 36c0 a79e 1b40 c582 8bbf 70f7 2cc0
00000130: a27f 4e3e dc25 f9bf d4b2 4ebf c4d9 2ec0
00000140: 953b abbf 2c22 99be 6cc1 f8be eb7c 573f
00000150: fe8e bd3e 75c4 7fbf c467 0ac0 34e2 a23f
00000160: 55d2 b53f c70c 3fc0 4b7c 7ebf 9e2d 57bf
00000170: 5880 873f e47a 96bf 3f17 2e3f 2cf8 3e3f
00000180: 4381 133f 97da ecbf 8084 17bf b5ce 4c3f

bn1.running_var f4 [100]
5.444168 2.569001 1.2364283 2.9071665 3.5737796 1.8809601 3.5623012 2.3186567
1.4787722 0.7233693 2.449583 1.7765015 5.5203133 7.1172495 1.4789217 2.4524827
2.1426616 1.319498 1.3858267 1.4869367 2.0726366 1.3988572 10.247727 3.1619527
2.2546442 10.6040535 0.5607042 1.3938612 1.7156259 3.8015106 1.9109931 0.66154796
2.000067 2.3637178 0.9615755 2.5782175 3.1600246 2.5967374 14.635935 1.7950414
2.9979122 2.7436867 6.6990294 2.795747 2.1982994 6.649756 3.0363762 2.084909
1.7041103 3.056483 1.354075 1.6667726 0.5634082 6.751846 0.9021364 0.51423657
3.1031344 1.1640935 2.3721905 1.141437 2.0432858 0.2889356 6.698568 9.11051
6.3409333 0.6273224 1.1930152 1.6114228 0.38750184 1.7295988 3.465844 2.4534106
2.5585735 3.4809413 1.9021084 3.2621589 2.0101051 0.763236 1.6065099 2.0942996
0.5147675 3.418248 1.7742225 1.4134177 1.5825896 2.0730267 2.2562716 3.3679283
1.8517087 2.0427296 1.4781228 3.7114081 0.7230743 0.8516817 1.0990644 1.9033676
2.2222326 4.154988 1.8929083 1.5831348
00000000: a036 ae40 836a 2440 4843 9e3f 040f 3a40
00000010: ceb8 6440 4dc3 f03f befc 6340 df64 1440
00000020: 6848 bd3f bb2e 393f f8c5 1c40 6764 e33f
00000030: 68a6 b040 82c0 e340 4e4d bd3f 7af5 1c40
00000040: 5e21 0940 4fe5 a83f c562 b13f f153 be3f
00000050: 14a6 0440 c10d b33f b1f6 2341 6f5d 4a40
00000060: 174c 1040 34aa 2941 4f8a 0f3f 0b6a b23f
00000070: a199 db3f f34b 7340 6c9b f43f 355b 293f
00000080: 1901 0040 2747 1740 d029 763f 8401 2540
00000090: d83d 4a40 f230 2640 ca2c 6a41 ebc3 e53f
000000a0: cbdd 3f40 9098 2f40 735e d640 85ed 3240
000000b0: f0b0 0c40 cdca d440 fd53 4240 266f 0540
000000c0: 4920 da3f 6b9d 4340 5452 ad3f ce58 d53f
000000d0: 853b 103f 1f0f d840 69f2 663f 02a5 033f
000000e0: c199 4640 0401 953f f8d1 1740 9c1a 923f
000000f0: 32c5 0240 5eef 933e ab5a d640 a6c4 1141
00000100: ede8 ca40 3398 203f b9b4 983f 1a43 ce3f
00000110: a466 c63e 7e63 dd3f 63d0 5d40 ae04 1d40
00000120: abbf 2340 bec7 5e40 4a78 f33f 36c7 5040
00000130: 90a5 0040 6f63 433f 1ea2 cd3f 0109 0640
00000140: cec7 033f 93c4 5a40 b919 e33f dfea b43f
00000150: 4c92 ca3f 78ac 0440 c166 1040 238c 5740
00000160: ca04 ed3f 15bc 0240 2133 bd3f b687 6d40
00000170: 661b 393f d007 5a3f 24ae 8c3f 8da1 f33f
00000180: 0f39 0e40 a9f5 8440 d24a f23f 29a4 ca3f

linear2.weight f4 [200, 100]
0.018758455 0.045351647 -0.09026208 -0.12654342 0.09029966 -0.13177638 -0.044940893 -0.11887906
0.040795516 0.01228833 0.07402218 0.024750235 0.02676824 -0.059715714 -0.20683092 0.08555002
0.0151878055 0.15333752 -0.15345709 -0.016476812 0.06483879 0.6317418 -0.13262874 0.17270482
-0.067690335 0.16525364 0.11301449 0.09464441 -0.18143353 0.012228765 0.057388432 -0.051152375
0.037761338 0.17906287 0.0630719 0.38767716 -0.22225507 0.011407416 -0.27824712 0.09820507
0.014068185 -0.17017603 0.2744699 0.08711768 -0.0994352 -0.063137606 -0.001169248 -0.05163168
-0.077866316 0.095563 0.09741594 -0.13708594 0.053976018 0.17818856 -0.07684271 0.13483946
-0.08909687 -0.081998646 0.0818992 -0.22212633 0.011859484 -0.29511163 0.020170718 0.18559894
0.19734 -0.050024 0.4205358 -0.052589945 0.27022663 0.07586827 0.04250698 0.035725586
0.01278486 0.013407816 0.21459118 -0.12399887 0.01568363 0.0891829 0.14645898 -0.043495934
-0.110517554 -0.09888719 0.21203448 0.30168232 -0.018230634 0.17319947 0.08826404 0.11768249
-0.16536927 0.10896081 0.03562504 -0.080940686 -0.03378069 -0.18229283 0.07863161 -0.1243999
0.03096178 0.23258457 -0.03110805 0.011946981 -0.11118806 0.124914795 -0.1087858 0.09356492
0.053029347 -0.12094895 -0.13881594 -0.09345018 0.4025036 0.38048762 0.048718154 0.0039146612
0.230128 0.11959665 0.053239968 0.068322815 -0.13446146 -0.035647172 0.12541024 0.0457225
-0.009897218 0.19099335 0.11380505 0.09869562 -0.2641951 0.12140853 -0.17845781 0.2835536
-0.098125204 -0.04495817 0.0044480697 -0.087627396 -0.3559251 -0.08626977 0.07796984 -0.02832939
0.10986382 -0.030862262 -0.19763774 -0.68767923 -0.2813189 0.031934116 0.13177572 0.106851354
0.08380897 -0.013459396 0.033149507 0.052528813 0.022333886 0.07146243 0.13547263 0.18743245
0.18192945 -0.014501733 -0.002954855 0.018020399 -0.15904287 -0.04864339 0.03936806 -0.20408988
-0.47585455 -0.35385874 -0.07434376 0.11848362 -0.10788292 0.18552446 -0.07904891 -0.10197893
-0.014650146 -0.13393188 0.008369284 -0.105480105 0.00050868327 0.07714884 -0.027351031 -0.120458916
-0.038152806 0.033199765 -0.25866136 0.06433338 0.024208099 0.3376512 0.09150657 0.029816745
0.09836751 -0.02561471 0.08554441 0.09568445 -0.06327872 -0.06319677 -0.05771462 -0.12983824
0.028450178 0.14762391 0.35374716 0.3028988 -0.18550637 0.0048320824 0.06532657 -0.010092891
-0.19340952 -0.111036964 0.07528623 -0.20249347 -0.19761004 -0.08617076 -0.08775294 -0.019327687
-0.17235114 -0.12871073 0.02137205 0.013289881 0.30389717 -0.20611565 -0.005292426 0.013906828
0.21894678 0.13700528 0.020749066 0.060755335 -0.18585747 0.10282049 -0.212153 -0.18027383
-0.026483407 0.20993528 -0.3308264 -0.057261676 -0.07542849 0.071862996 0.2906607 0.11844178
-0.006236602 0.03279636 -0.09632069 -0.09392769 0.0017520934 0.057054307 -0.13987596 -0.009235317
0.015524058 -0.08840698 0.45225534 0.08378554 -0.021617774 0.14034441 -0.2503683 -0.0067740604
0.0026020547 0.108139016 0.025141437 0.08646514 -0.10545413 0.23729981 -0.021858029 0.13883953
00000000: 55ab 993c a6c2 393d 53db b8bd 9994 01be
00000010: 07ef b83d 63f0 06be f113 38bd dd76 f3bd
00000020: 3319 273d fe54 493c f198 973d 01c1 ca3c
00000030: 1149 db3c 7798 74bd 7ccb 53be d934 af3d
00000040: 46d6 783c 8304 1d3e db23 1dbe 61fa 86bc
00000050: 33ca 843d d5b9 213f d4cf 07be 88d9 303e
00000060: 3ba1 8abd 4038 293e 2474 e73d eed4 c13d
00000070: b6c9 39be 285b 483c 2210 6b3d 2785 51bd
00000080: a2ab 1a3d 425c 373e d72b 813d 9f7d c63e
00000090: d596 63be 2ce6 3a3c 6876 8ebe bd1f c93d
000000a0: 3f7e 663c a042 2ebe 5287 8c3e c16a b23d
000000b0: afa4 cbbd 4a4e 81bd 7441 99ba be7b 53bd
000000c0: 6078 9fbd 89b6 c33d 0282 c73d 4260 0cbe
000000d0: f515 5d3d 1077 363e b65f 9dbd 5b13 0a3e
000000e0: 6b78 b6bd e8ee a7bd c5ba a73d 1675 63be
000000f0: 484e 423c df18 97be 103d a53c a60d 3e3e
00000100: 7f13 4a3e f7e5 4cbd 7850 d73e 8e68 57bd
00000110: 255b 8a3e d360 9b3d cd1b 2e3d fe54 123d
00000120: 9777 513c 75ac 5b3c cabd 5b3e 1ff3 fdbd
00000130: f57a 803c 86a5 b63d 58f9 153e cb28 32bd
00000140: 0757 e2bd 5e85 cabd 911f 593e 1b76 9a3e
00000150: 6958 95bc 345b 313e c7c3 b43d 8403 f13d
00000160: 9056 29be d826 df3d 90eb 113d 3bc4 a5bd
00000170: 9f5d 0abd f9aa 3abe 9c09 a13d 60c5 febd
00000180: 8fa3 fd3c a62a 6e3e 4fd6 febc 45bd 433c
00000190: 91b6 e3bd 54d3 ff3d 17cb debd f79e bf3d
000001a0: 4d35 593d 15b4 f7bd c425 0ebe cf62 bfbd
000001b0: f414 ce3e 46cf c23e b08c 473d 8f46 803b
000001c0: ada6 6b3e 17ef f43d 2712 5a3d d5ec 8b3d
000001d0: 44b0 09be c502 12bd 8b6b 003e 8447 3b3d
000001e0: f127 22bc c393 433e 9f12 e93d ee20 ca3d
000001f0: 9544 87be 09a5 f83d a5bd 36be f02d 913e
00000200: def5 c8bd 0f26 38bd 1dc1 913b fe75 b3bd
00000210: d13b b6be 35ae b0bd a7ae 9f3d 0913 e8bc
00000220: 4800 e13d dbd2 fcbc 8c61 4abe bf0b 30bf
00000230: 0809 90be 59cd 023d 37f0 063e e2d4 da3d
00000240: 0aa4 ab3d cc84 5cbc c7c7 073d 7428 573d
00000250: 8ef5 b63c e55a 923d 56b9 0a3e 4bee 3f3e
00000260: b74b 3a3e ad98 6dbc 3ea6 41bb 849f 933c
00000270: 22dc 22be 4b3e 47bd 6740 213d f0fc 50be
00000280: 35a3 f3be f92c b5be 8b41 98bd 8aa7 f23d
00000290: b8f1 dcbd 20fa 3d3e 65e4 a1bd 54da d0bd
000002a0: 2a07 70bc 7025 09be 521f 093c f405 d8bd
000002b0: 2859 053a 3600 9e3d 450f e0bc 2ab3 f6bd
000002c0: 1e46 1cbd 7afc 073d 436f 84be 38c1 833d
000002d0: 1050 c63c 9ee0 ac3e cc67 bb3d 3f42 f43c
000002e0: e874 c93d f1d5 d1bc e831 af3d 35f6 c33d
000002f0: 4698 81bd 4f6d 81bd 2a66 6cbd 51f4 04be
00000300: 5910 e93c b92a 173e 591e b53e 8d15 9b3e
00000310: 62f5 3dbe 7256 9e3b f0c9 853d a75c 25bc
00000320: 250d 46be 5967 e3bd ab2f 9a3d 735a 4fbe
00000330: 495a 4abe 4c7a b0bd d0b7 b3bd 1955 9ebc
00000340: d17c 30be bfcc 03be 7014 af3c cdbd 593c
00000350: 6998 9b3e fb0f 53be 166c adbb 77d9 633c
00000360: 9633 603e 1d4b 0c3e f2f9 a93c 96da 783d
00000370: 6c51 3ebe 8d93 d23d a33e 59be b499 38be
00000380: bbf3 d8bc 46f9 563e 1462 a9be 388b 6abd
00000390: 417a 9abd e82c 933d 7bd1 943e 9b91 f23d
000003a0: 695c ccbb 7a55 063d c843 c5bd 295d c0bd
000003b0: 80a6 e53a c7b1 693d a53b 0fbe ba4f 17bc
000003c0: 9e58 7e3c b80e b5bd 038e e73e c197 ab3d
000003d0: c217 b1bc 72b6 0f3e 4630 80be f0f8 ddbb
000003e0: 3c87 2a3b fd77 dd3d 6af5 cd3c a314 b13d
000003f0: 56f8 d7bd b9fe 723e 9c0f b3bc f32b 0e3e

linear2.bias f4 [200]
0.08035206 0.01729944 -0.057817794 -0.09929089 -0.022207111 -0.017192073 -0.018030308 0.17344074
0.05155 -0.008975931 0.25401607 -0.13712497 -0.11616547 -0.032111973 -0.05245088 0.0084835915
-0.10984834 0.031249726 -0.098558426 0.13429609 -0.020206716 -0.07536573 0.05458689 0.04842046
0.009886065 0.041000035 -0.024800729 0.003499275 0.008196661 0.073386654 -0.1972691 -0.11254606
0.053107057 -0.07455665 -0.21386774 0.08789802 0.11090346 -0.20662673 -0.0013945061 -0.016818069
0.111906365 0.02456534 0.029321926 -0.026676847 -0.04417271 -0.04502803 -0.032557104 0.060292523
0.025528166 -0.018664055 0.09983981 0.06067871 0.07692321 -0.12733728 0.04826549 0.15300508
0.076603696 0.010515909 0.007104292 0.06482047 0.04592872 -0.05112239 0.2565474 -0.060259208
0.098527014 -0.020777477 0.0010679333 0.009761549 -0.023947872 -0.047027744 0.09945671 0.002685942
0.061610527 0.20337063 -0.17200232 0.004594227 0.026423046 0.06342876 0.09400539 0.027272267
-0.10087379 -0.09452597 -0.0155462865 0.06430398 0.07856382 -0.018843941 0.040860295 0.037722018
-0.11974587 0.17087086 -0.061662268 -0.14527251 -0.100016184 -0.10778487 -0.11170169 0.10499126
-0.05741166 0.046380147 0.10975356 0.04996754 -0.01598412 0.03232047 -0.051427905 0.11837709
0.050805997 -0.013080389 0.08476707 -0.09657491 0.09163815 -0.12543483 -0.1268554 0.032284945
0.12996018 0.040129595 0.06325039 0.030492883 -0.061844807 0.095637225 -0.03797957 0.024527548
-0.0071801296 0.116026014 -0.06902161 -0.0697724 -0.01608744 0.012911784 0.059117533 0.029822204
0.059100963 -0.03795165 -0.058336 0.0042879563 0.06195656 -0.077792786 -0.10385411 0.030367197
-0.14776646 -0.10493604 -0.10028484 0.043316457 0.059953734 0.04729611 0.05062503 0.04563102
0.22381417 -0.032514255 -0.025037354 -0.06579127 -0.013833155 -0.12931837 -0.136259 -0.083503015
0.012438034 0.10265404 0.05794759 -0.099325106 -0.0046565705 -0.05505387 0.093781516 0.02262768
-0.03829934 -0.059583984 -0.054071054 -0.075296804 -0.005480484 0.03462862 0.022548504 -0.14315464
0.1027195 -0.1040284 -0.06162181 -0.09254246 0.057372574 0.010649059 -0.13424805 0.023670334
-0.066496 0.00955883 0.05732766 -0.25423113 -0.10831844 -0.03830213 -0.07117262 -0.12775199
0.10882144 0.3461435 0.1394068 0.023968227 0.04046676 -0.022016808 -0.074937314 0.056148086
-0.03343641 -0.056166865 -0.02198031 0.087476745 0.12674871 0.0074864854 -0.0003484712 -0.10720982
00000000: 9f8f a43d 8eb7 8d3c 5ad2 6cbd 0659 cbbd
00000010: b0eb b5bc 64d6 8cbc 4cb4 93bc 739a 313e
00000020: 1826 533d c90f 13bc 650e 823e 7d6a 0cbe
00000030: 29e8 edbd d887 03bd bcd6 56bd c3fe 0a3c
00000040: 2bf8 e0bd 6dff ff3c 00d9 c9bd ea84 093e
00000050: 8e88 a5bc 5959 9abd 8196 5f3d 8854 463d
00000060: 29f9 213c a7ef 273d e62a cbbc 1854 653b
00000070: 4a4b 063c be4b 963d e900 4abe 8c7e e6bd
00000080: c986 593d 28b1 98bd 2500 5bbe e103 b43d
00000090: 5a21 e33d f595 53be dcc7 b6ba 0cc6 89bc
000000a0: 2a2f e53d 403d c93c 8934 f03c 6789 dabc
000000b0: 72ee 34bd 506f 38bd 995a 05bd 4bf5 763d
000000c0: 7220 d13c 5ce5 98bc d078 cc3d 3d8a 783d
000000d0: ea89 9d3d b464 02be 09b2 453d 5dad 1c3e
000000e0: 66e2 9c3d eb4a 2c3c 1fcb e83b 98c0 843d
000000f0: c11f 3c3d b665 51bd 2e5a 833e 5cd2 76bd
00000100: 88c8 c93d 8735 aabc e5f9 8b3a e7ee 1f3c
00000110: 542e c4bc 2aa0 40bd f6af cb3d a106 303b
00000120: 525b 7c3d 6440 503e 6021 30be 2b8b 963b
00000130: 2575 d83c f0e6 813d e685 c03d 176a df3c
00000140: eb96 cebd d596 c1bd dab5 7ebc ceb1 833d
00000150: 11e6 a03d 9c5e 9abc 205d 273d 6782 1a3d
00000160: 533d f5bd c5f8 2e3e 9391 7cbd 51c2 14be
00000170: 49d5 ccbd 50be dcbd dbc3 e4bd a805 d73d
00000180: 7d28 6bbd 1cf9 3d3d 79c6 e03d c3aa 4c3d
00000190: 21f1 82bc 7862 043d 11a6 52bd b06f f23d
000001a0: f319 503d 214f 56bc 5c9a ad3d 11c9 c5bd
000001b0: c8ac bb3d fd71 00be 62e6 01be 383d 043d
000001c0: 4814 053e ee5e 243d 6c89 813d 36cc f93c
000001d0: fb50 7dbd 73dd c33d 7790 1bbd ffed c83c
000001e0: 4b47 ebbb 0c9f ed3d 345b 8dbd d5e4 8ebd
000001f0: cfc9 83bc f38b 533c 3a25 723d b24d f43c
00000200: da13 723d 3073 1bbd bbf1 6ebd fc81 8c3b
00000210: 29c6 7d3d d351 9fbd 77b1 d4bd a1c4 f83c
00000220: 1750 17be b5e8 d6bd 2362 cdbd 996c 313d
00000230: 0c92 753d 91b9 413d 315c 4f3d 98e7 3a3d
00000240: 8b2f 653e ab2d 05bd 231b cdbc 93bd 86bd
00000250: 75a4 62bc 096c 04be 7b87 0bbe a103 abbd
00000260: e5c8 4b3c 483c d23d 745a 6d3d f66a cbbd
00000270: 2596 98bb 2b80 61bd 8610 c03d af5d b93c
00000280: c5df 1cbd 560e 74bd 9c79 5dbd 3635 9abd
00000290: a295 b3bb bdd6 0d3d a4b7 b83c 2197 12be
000002a0: 9a5e d23d d70c d5bd 2767 7cbd e786 bdbd
000002b0: 81ff 6a3d 6479 2e3c 5278 09be 4ae8 c13c
000002c0: 0e2f 88bd a49c 1c3c 69d0 6a3d 952a 82be
000002d0: 0fd6 ddbd b2e2 1cbd f3c2 91bd 6bd1 02be
000002e0: c6dd de3d b939 b13e a8c0 0e3e 0459 c43c
000002f0: 79c0 253d 985c b4bc bc78 99bd 89fb 653d
00000300: 9ef4 08bd 3a0f 66bd 0d10 b4bc 0227 b33d
00000310: 6aca 013e 3151 f53b 03b3 b6b9 d290 dbbd

bn2.weight f4 [200]
0.3642743 0.42701405 0.55781215 0.8602994 0.65845895 0.7665188 1.1558253 1.2701478
0.53829974 1.0079688 0.6544517 0.65316445 0.65335965 0.5608628 0.5003634 0.6675583
0.48536643 0.7689468 0.7433808 0.28762603 0.6217821 0.7423299 0.81805104 0.4979599
0.50245297 0.8607255 0.30454835 1.0736123 0.54486185 0.521546 0.89534515 0.38594723
0.51541275 1.0710417 0.48704156 0.5970886 1.0284108 0.88017416 0.91329426 0.70688206
0.9071934 0.3749651 0.88607293 0.42297828 0.43609127 0.48035064 0.46938246 0.8664948
0.5506581 0.28458616 0.4742105 1.0915536 0.6127086 0.58723 0.42107043 0.5382032
0.72011304 0.6382181 0.9015266 0.56767637 0.9072206 0.4650258 1.0006088 0.5482483
1.3582388 0.395837 0.2768078 0.30460927 0.32316825 0.768827 0.24089356 0.8408182
0.4963848 0.94517916 0.55809265 0.36626193 0.5874713 0.770817 0.6428665 0.47810668
0.7800701 0.8897342 0.41249618 0.6498955 0.78413284 0.39677334 1.3332487 0.45116553
0.74907726 0.9101464 0.46008793 0.6913298 0.8755956 0.6239453 0.57330817 0.7522148
0.43323782 0.45389426 0.45490694 0.5281159 0.6580932 0.60726327 0.45483285 1.0358527
0.3410723 0.89356965 1.1281917 0.3901231 0.46042717 0.89642656 1.2309126 0.62985957
0.31219634 0.35887176 0.97381485 0.85539955 0.42138097 0.56040514 0.66371644 0.37091172
0.6907933 0.9339356 0.9228666 0.3562646 0.9556452 0.34639814 0.53954446 0.30232167
1.3526402 0.7687029 0.8241903 0.32247558 0.9794647 0.3918402 0.8352537 1.1129618
0.6008535 1.0598835 0.7621942 0.8027265 0.51815957 0.3783413 0.63132143 0.46719566
0.79009926 1.0679438 0.5561774 0.6271772 1.4920329 0.4009284 0.22648823 0.4576661
0.55669254 0.47085342 0.91901094 0.89844173 0.85022926 0.5556418 0.6115081 0.30891612
1.040085 1.1998476 0.7408711 0.33470652 0.8107811 0.86848044 0.36302695 0.29078245
0.8834148 0.8720067 0.53471226 0.47463754 0.69981337 0.40528217 0.3403416 0.31597006
0.36107484 0.4502832 0.9982923 1.0855924 0.4751192 0.6111062 0.5957815 0.83510673
0.4354202 0.7542368 0.8366848 0.5993616 0.64198875 1.0489362 1.0441134 0.5167948
0.66758996 0.5641738 0.6439711 1.057417 0.69432354 0.8085338 0.43628788 0.41549942
00000000: 2982 ba3e 96a1 da3e c7cc 0e3f 953c 5c3f
00000010: c490 283f 933a 443f 15f2 933f 3494 a23f
00000020: 03ce 093f 1f05 813f 268a 273f c935 273f
00000030: 9442 273f b494 0f3f d117 003f 1ae5 2a3f
00000040: f381 f83e b3d9 443f 344e 3e3f b843 933e
00000050: 1d2d 1f3f 5509 3e3f cb6b 513f 9af4 fe3e
00000060: c2a0 003f 8258 5c3f c3ed 9b3e 216c 893f
00000070: 117c 0b3f 0a84 053f 5735 653f e09a c53e
00000080: 17f2 033f e517 893f 835d f93e ccda 183f
00000090: f7a2 833f 1853 613f a7cd 693f 39f6 343f
000000a0: d43d 683f 6dfb bf3e add5 623f 9c90 d83e
000000b0: 5b47 df3e 85f0 f53e e652 f03e 9ad2 5d3f
000000c0: eef7 0c3f 47b5 913e b8cb f23e 07b8 8b3f
000000d0: 79da 1c3f b554 163f 8b96 d73e afc7 093f
000000e0: 5459 383f 4362 233f 72ca 663f 3d53 113f
000000f0: 9c3f 683f dd17 ee3e f313 803f 005a 0c3f
00000100: c5da ad3f 26ab ca3e c1b9 8d3e bff5 9b3e
00000110: 4f76 a53e d9d1 443f cdac 763e dd3f 573f
00000120: 2626 fe3e 43f7 713f 29df 0e3f af86 bb3e
00000130: 8564 163f 4354 453f e692 243f 66ca f43e
00000140: adb2 473f 9fc5 633f b332 d33e 8d5f 263f
00000150: eebc 483f e025 cb3e e5a7 aa3f 2bff e63e
00000160: 87c3 3f3f 5bff 683f a590 eb3e fdfa 303f
00000170: 0927 603f e1ba 1f3f 53c4 123f 2691 403f
00000180: 59d1 dd3e d464 e83e 90e9 e83e 9b32 073f
00000190: cc78 283f 9b75 1b3f dadf e83e d296 843f
000001a0: 07a1 ae3e fbc0 643f 9668 903f 37be c73e
000001b0: 1cbd eb3e 367c 653f 8b8e 9d3f 7a3e 213f
000001c0: 33d8 9f3e 0abe b73e ee4b 793f 77fb 5a3f
000001d0: 3fbf d73e b676 0f3f 52e9 293f 24e8 bd3e
000001e0: d4d7 303f 6716 6f3f fc40 6c3f 5068 b63e
000001f0: 2aa5 743f 195b b13e 961f 0a3f e8c9 9a3e
00000200: 5023 ad3f b7c9 443f 23fe 523f 851b a53e
00000210: 33be 7a3f 479f c83e 30d3 553f 8875 8e3f
00000220: 89d1 193f 43aa 873f 291f 433f 7c7f 4d3f
00000230: 1ba6 043f f3b5 c13e 489e 213f 4534 ef3e
00000240: f243 4a3f 62b2 883f a461 0e3f af8e 203f
00000250: effa be3f 7d46 cd3e 88ec 673e 3653 ea3e
00000260: 6783 0e3f b313 f13e 4d44 6b3f 4700 663f
00000270: a0a8 593f 8a3e 0e3f cb8b 1c3f 412a 9e3e
00000280: 8121 853f 9b94 993f baa9 3d3f a75e ab3e
00000290: 5a8f 4f3f bc54 5e3f abde b93e 70e1 943e
000002a0: 7927 623f d53b 5f3f e7e2 083f b103 f33e
000002b0: f826 333f 2581 cf3e 4141 ae3e d4c6 a13e
000002c0: cdde b83e 858b e63e 1690 7f3f b1f4 8a3f
000002d0: d342 f33e 7571 1c3f 2385 183f 8ec9 553f
000002e0: 65ef de3e aa15 413f fa30 563f c36f 193f
000002f0: 6059 243f 8b43 863f 82a5 853f aa4c 043f
00000300: 2de7 2a3f b26d 103f 4adb 243f 7159 873f
00000310: 30bf 313f 12fc 4e3f 2061 df3e 57bc d43e

bn2.bias f4 [200]
0.18258291 0.28942558 0.3271517 -1.532246 -0.021591969 -0.030660199 -0.2984407 -0.5836646
-0.024484068 -0.6941515 -0.4164387 0.19998658 -0.13804367 0.17855307 0.19243786 0.18533741
-0.356847 -1.2214134 -0.33788398 0.095909484 0.042054296 0.062707804 0.56185913 0.012054722
0.57634604 -0.5579739 0.13427155 -0.74760586 0.056936998 0.60523486 0.101156436 -0.054617047
-0.2964441 -0.5595524 0.54216385 0.044573512 -0.16296089 0.07195951 -0.32024494 -0.7139767
-0.87437606 0.39378017 -0.043050494 0.20117101 0.14969856 0.21375522 0.50835 -1.0406345
-0.34163776 0.706362 0.23916173 -0.0043842006 0.085789174 -0.22684923 -0.1708999 0.13795123
0.38733664 -0.81605 -1.1514658 -0.29680642 -0.6779762 -0.10799298 -1.094797 -0.08863688
-0.43947294 -0.019730931 0.08028692 0.41905326 0.107330434 -0.63072187 0.0082685435 -0.44342363
-0.20161293 -1.202717 0.61675495 0.36389354 0.00037397054 -1.1669086 -0.089907266 -0.17227705
-0.080824114 -1.1395297 0.06784949 -0.7654604 -0.095489904 -0.15413278 -0.87747717 0.20277
-0.11846679 -0.7992385 -0.18163231 -0.2650066 -0.91031975 -0.30213383 -0.31256825 -0.15767474
0.14142203 0.17503211 0.3629374 -0.35429206 -0.4104968 -0.11975183 0.16806258 -0.36969694
-0.09325214 -0.7323325 0.905522 -0.29950416 0.3308826 -0.5692757 -0.16965936 0.33058128
0.26448599 0.43243212 -0.5750324 -0.21584785 -0.015440415 -0.34900895 1.0020386 0.1032241
0.38413385 -0.99443746 -0.020023538 0.14322029 -1.1110004 0.29264075 -0.40000308 -0.09698289
-1.0518638 -0.014836941 -1.5562346 0.07926769 -0.963986 -0.10966809 -0.03854467 -0.32443106
0.14497645 -0.83383983 -0.60188955 -1.4816184 -0.07773683 0.013588104 -0.28096864 -0.20207687
0.7090434 -0.96881646 0.3209567 0.55199873 -0.6715388 -0.10659645 0.30490357 0.28253576
0.020993294 0.32147473 -1.1459877 -0.3925689 -0.4141787 -0.11646864 0.9949183 0.14964887
0.11073671 -0.24807979 -0.32983533 0.2439733 -0.22440523 -1.163562 -0.017870719 0.0026832987
0.6194315 -0.26447475 0.14691451 0.08435175 0.13734163 -0.16910589 0.092160165 1.0630426
1.3201057 -0.28506982 -0.9128535 -0.4903672 0.1255597 -0.116847634 0.17990594 -0.67558616
-0.08462454 -1.4927391 0.048299484 0.8379457 -0.56560737 -0.655128 -0.71455526 0.42000127
-0.0792707 0.58797127 -0.51704603 -1.1262641 0.10438376 -0.48311317 0.12882131 0.1421486
00000000: 04f7 3a3e 972f 943e 6d80 a73e a320 c4bf
00000010: a4e1 b0bc 192b fbbc 38cd 98be 0b6b 15bf
00000020: d092 c8bc eab3 31bf 7437 d5be 48c9 4c3e
00000030: 525b 0dbe 9ed6 363e 6e0e 453e 17c9 3d3e
00000040: a6b4 b6be 4657 9cbf 21ff acbe 316c c43d
00000050: 2041 2c3d f36c 803d 00d6 0f3f 2b81 453c
00000060: 6a8b 133f 61d7 0ebf 7b7e 093e 1963 3fbf
00000070: c536 693d acf0 1a3f 1b2b cf3d 20b6 5fbd
00000080: 85c7 97be d33e 0fbf 40cb 0a3f b792 363d
00000090: 38df 26be 825f 933d 25f7 a3be 2dc7 36bf
000000a0: 1cd7 5fbf 8e9d c93e b755 30bd c6ff 4d3e
000000b0: 944a 193e a6e2 5a3e 3a23 023f 8333 85bf
000000c0: 25eb aebe 24d4 343f d0e6 743e 57a9 8fbb
000000d0: 3cb2 af3d 2a4b 68be 6200 2fbe 1643 0d3e
000000e0: fd50 c63e a7e8 50bf 3b63 93bf 03f7 97be
000000f0: d98f 2dbf 6c2b ddbd 4f22 8cbf 4187 b5bd
00000100: 9902 e1be c3a2 a1bc 786d a43d 268e d63e
00000110: 0fd0 db3d fd76 21bf c978 073c 6c08 e3be
00000120: 9f73 4ebe a1f2 99bf a7e3 1d3f 4150 ba3e
00000130: 7a11 c439 435d 95bf 4d21 b8bd 6569 30be
00000140: 1d87 a5bd 1cdc 91bf acf4 8a3d 36f5 43bf
00000150: 3690 c3bd fcd4 1dbe 58a2 60bf f0a2 4f3e
00000160: b79e f2bd e59a 4cbf d2fd 39be f2ae 87be
00000170: b70a 69bf 49b1 9abe f208 a0be 7d75 21be
00000180: f0d0 103e 9e3b 333e eed2 b93e c565 b5be
00000190: a32c d2be 7340 f5bd 9918 2c3e eb48 bdbe
000001a0: fafa bebd 257a 3bbf 4ad0 673f 9c58 99be
000001b0: 7269 a93e 0dbc 11bf 2fbb 2dbe f341 a93e
000001c0: b56a 873e be67 dd3e 5335 13bf 3807 5dbe
000001d0: cbf9 7cbc 4db1 b2be cd42 803f 2867 d33d
000001e0: 31ad c43e 7493 7ebf 6708 a4bc 57a8 123e
000001f0: 4335 8ebf 02d5 953e 34cd ccbe f79e c6bd
00000200: 79a3 86bf a416 73bc b232 c7bf 1957 a23d
00000210: c9c7 76bf aa99 e0bd 04e1 1dbd d41b a6be
00000220: b574 143e 8776 55bf 6f15 1abf aca5 bdbf
00000230: 7d34 9fbd a4a0 5e3c 1fdb 8fbe 3ded 4ebe
00000240: de83 353f 5b04 78bf 7054 a43e ca4f 0d3f
00000250: f7e9 2bbf 3d4f dabd 521c 9c3e 87a8 903e
00000260: 21fa ab3c 5698 a43e baaf 92bf cafe c8be
00000270: 3b0f d4be 1c87 eebd f7b2 7e3f 8e3d 193e
00000280: eec9 e23d a108 7ebe 2de0 a8be 23d4 793e
00000290: 7cca 65be 9aef 94bf 9d65 92bc 48da 2f3b
000002a0: 1093 1e3f 3c69 87be c270 163e 9cc0 ac3d
000002b0: 49a3 0c3e 182a 2dbe 78be bc3d c811 883f
000002c0: 39f9 a83f acf4 91be c4b0 69bf 6911 fbbe
000002d0: b992 003e d04d efbd 4339 383e 37f3 2cbf
000002e0: a14f adbd 1312 bfbf aed5 453d 9c83 563f
000002f0: a5cb 10bf 78b6 27bf 18ed 36bf 680a d73e
00000300: ad58 a2bd 4985 163f 215d 04bf 6c29 90bf
00000310: 27c7 d53d 9c5a f7be bce9 033e 678f 113e

bn2.running_mean f4 [200]
1.7244788 0.04942918 0.6462105 1.4652272 1.8680321 -2.0830405 -1.7303967 0.83668405
-0.42147282 0.0073152473 1.4494284 -2.1294594 -1.8136828 0.7903747 -0.7052343 -0.14288843
-0.73506373 1.6885635 -1.401762 -0.12645127 -0.25513715 -1.6503824 -1.7252907 0.18124928
-0.9254004 -0.07304973 0.77974296 0.27778623 0.7304334 -1.0060549 -1.0838991 0.3743277
-1.4570861 0.5139155 -1.1490757 -1.2241349 0.06703843 -0.15855348 1.2787229 1.9761494
1.2535453 -0.16621342 1.8867189 1.2057953 0.46097943 -0.67851335 -1.2479397 -0.6521905
0.5739015 -0.7924924 0.32127237 -0.70792407 -0.8638336 -0.16856107 -1.2182857 0.7505262
0.04754337 0.7878999 1.3342142 -0.9675074 -1.7900442 0.9037665 2.2273512 -1.5872585
1.1450087 -0.64403236 0.3099475 0.34570518 -1.7593334 1.017816 0.35547465 -0.82599044
0.6605817 1.6350952 -1.6667098 -0.6840714 0.7988151 1.4762086 0.15150507 0.6520717
1.92014 0.85699415 0.120882295 1.291472 0.081441306 -1.0149492 -1.4644037 1.2054006
-0.631793 0.21795781 -0.47007328 -1.6826305 0.13098451 -0.6958096 0.20304118 0.70569175
-0.015696468 -1.8464196 -1.0983349 0.08555056 0.021371748 0.2719587 -0.85438097 -0.73261124
0.38682398 1.7011483 -1.091298 -0.48934525 0.25748563 0.679759 -1.4709789 -0.16472767
0.6624055 -0.04170084 2.329428 -0.09869327 1.0651459 -0.011782016 -0.36996287 -0.65442556
0.94284946 -0.6127624 0.45533505 -0.6214891 -1.4190233 0.79365176 -0.47714674 -0.34908795
-1.1039469 -0.4515892 1.6277187 2.0742314 -0.2482851 -0.3027802 0.17513162 2.3725898
-1.5316818 -1.4532527 1.1076455 1.4779108 0.55803716 -1.8210176 -1.1532401 -0.1776957
0.16075644 0.36605853 0.45947865 -0.74064195 -0.078239225 -0.17884584 -0.66459066 -1.3381969
0.07555666 0.20161243 1.4421132 -1.942796 -0.78920496 0.441506 -0.28176305 -0.46390897
-1.3505583 -1.2724631 1.3071363 1.5715102 0.10949046 1.0985309 -0.11429416 -0.092554145
-1.5315707 -1.3041786 -1.9650493 -0.0024075918 -0.3274932 0.39259222 0.035161287 0.44812423
0.8955208 -0.6668168 1.8289237 2.3402066 -0.50315857 -0.59601206 -1.2536654 -0.28188133
-0.5323764 1.3234439 1.2061081 -1.0694067 1.4549551 -0.5074848 0.09774819 0.33284575
-0.4932251 -0.45992228 0.64807886 -1.1010869 -1.007318 0.6495466 0.45947805 0.89802444
00000000: b9bb dc3f 4076 4a3d 0d6e 253f 918c bb3f
00000010: ad1b ef3f 8950 05c0 a47d ddbf ed30 563f
00000020: 49cb d7be beb4 ef3b df86 b93f 1049 08c0
00000030: c226 e8bf ff55 4a3f 3c8a 34bf 5851 12be
00000040: 232d 3cbf d922 d83f f06c b3bf 717c 01be
00000050: 56a1 82be bb3f d3bf 53d6 dcbf 6999 393e
00000060: 0ae7 6cbf 199b 95bd 3c9d 473f ff39 8e3e
00000070: affd 3a3f 68c6 80bf 35bd 8abf e1a7 bf3e
00000080: cc81 babf f78f 033f ea14 93bf 74b0 9cbf
00000090: 724b 893d d85b 22be 31ad a33f 77f2 fc3f
000000a0: 2c74 a03f da33 2abe 0180 f13f 8057 9a3f
000000b0: 7f05 ec3e 0db3 2dbf 7dbc 9fbf f5f5 26bf
000000c0: 35eb 123f c8e0 4abf d07d a43e 833a 35bf
000000d0: 3324 5dbf 469b 2cbe c9f0 9bbf 7c22 403f
000000e0: d6bc 423d cfb3 493f 88c7 aa3f 91ae 77bf
000000f0: 2b20 e5bf 3e5d 673f ec8c 0e40 492b cbbf
00000100: a58f 923f 4edf 24bf 70b1 9e3e 4500 b13e
00000110: d631 e1bf cb47 823f c600 b63e 1c74 53bf
00000120: e21b 293f cd4a d13f bf56 d5bf 4e1f 2fbf
00000130: 257f 4c3f 67f4 bc3f 2524 1b3e 2cee 263f
00000140: 26c7 f53f f863 5b3f 2391 f73d f44e a53f
00000150: b3ca a63d dbe9 81bf 9571 bbbf 914a 9a3f
00000160: 30bd 21bf 5530 5f3e 72ad f0be 7060 d7bf
00000170: ce20 063e 9420 32bf 07ea 4f3e 37a8 343f
00000180: e195 80bc 7a57 ecbf 3d96 8cbf 2235 af3d
00000190: ce13 af3c 2c3e 8b3e b6b8 5abf 698c 3bbf
000001a0: cb0d c63e 3abf d93f a7af 8bbf 768b fabe
000001b0: 28d5 833e b004 2e3f 0949 bcbf 5fae 28be
000001c0: 6893 293f 80ce 2abd 5915 1540 b21f cabd
000001d0: b356 883f 5b09 41bc c66b bdbe 6f88 27bf
000001e0: 955e 713f ffdd 1cbf ad21 e93e e919 1fbf
000001f0: 8ea2 b5bf c32c 4b3f 944c f4be a8bb b2be
00000200: 224e 8dbf b336 e7be 1659 d03f 35c0 0440
00000210: 733e 7ebe 0206 9bbe b455 333e 83d8 1740
00000220: 260e c4bf 2f04 babf 54c7 8d3f 2e2c bd3f
00000230: 86db 0e3f 1b17 e9bf 5f9d 93bf ddf5 35be
00000240: 569d 243e 066c bb3e c940 eb3e b69a 3dbf
00000250: e33b a0bd 5d23 37be 9d22 2abf 094a abbf
00000260: 73bd 9a3d 7d73 4e3e 2a97 b83f 8aad f8bf
00000270: 5609 4abf 130d e23e 3f43 90be 7a85 edbe
00000280: 18df acbf 12e0 a2bf 3e50 a73f 3f27 c93f
00000290: 893c e03d a99c 8c3f 0e13 eabd 078d bdbd
000002a0: 820a c4bf 53ef a6bf bc86 fbbf b0c8 1dbb
000002b0: 30ad a7be d901 c93e 4805 103d 8a70 e53e
000002c0: da40 653f 81b4 2abf 2c1a ea3f f2c5 1540
000002d0: 00cf 00bf 3f94 18bf 1c78 a0bf c052 90be
000002e0: d249 08bf 9c66 a93f c061 9a3f 52e2 88bf
000002f0: f83b ba3f 86ea 01bf 3430 c83d c26a aa3e
00000300: 0088 fcbe ef7a ebbe 7fe8 253f 6af0 8cbf
00000310: ccef 80bf b048 263f b540 eb3e eee4 653f

bn2.running_var f4 [200]
0.3733717 0.53703344 0.65043557 0.56964034 0.86881983 1.0164502 1.4345323 0.9645562
0.26862717 0.6163094 0.5901228 0.93427145 0.6744376 0.60334533 0.6273441 0.73366797
0.29016173 1.1021554 0.39799932 0.40043706 0.798638 1.3376642 0.7298629 0.3253839
1.1831514 2.2205951 0.34093 1.2172855 0.5481964 0.9866487 0.32628265 0.57595664
0.29824096 1.0581077 0.41452947 0.73720294 1.683062 1.0079916 0.6862477 0.8312879
0.87457037 0.23063423 1.1030545 0.66865134 0.74350065 0.59622675 1.1868994 0.8240134
0.8522387 0.33236846 0.52644783 1.2068225 1.9509944 0.27123746 0.29912668 1.1594191
0.30951226 0.8618501 0.4085436 0.6824555 0.70352226 0.2834456 0.583448 0.40671694
1.0569965 0.3029965 0.3419809 0.27012908 0.32247287 0.68946046 0.22711374 1.0624278
0.5571154 0.43412408 0.65133595 0.442608 1.0826571 0.4450609 0.2665721 0.2983109
1.1672753 0.19056757 0.43694127 0.27055335 0.8722453 0.43624458 0.6115143 0.833559
0.5472072 0.74238276 0.3989526 0.65630823 0.48176345 0.5008981 0.39553133 1.0898265
0.6987546 0.8943676 1.0040088 0.4842578 0.22612037 0.49217772 0.49023014 0.082359366
0.3165222 0.7444571 1.0368164 0.2610094 0.42436075 0.3313953 2.2345808 0.69448054
0.3632027 0.30094784 1.6147436 0.38380978 0.65127456 0.30313757 0.54483557 0.5065559
0.3892091 0.5844455 1.9849417 0.23961648 0.61729395 0.34253415 0.47173974 0.24037328
0.59831923 2.4719546 0.49705645 0.46154043 1.1079648 0.26333016 1.4508283 2.2656655
0.889403 0.508906 0.67387235 0.3432778 0.5276661 0.6607934 0.3714253 0.8897077
1.3293502 0.38108853 0.8345196 0.71053696 2.0709388 0.38864264 0.23036826 0.34223616
0.22606845 0.4621431 0.52790207 0.5491335 0.954036 0.9280701 0.4023284 0.36829138
2.6376941 1.714962 0.80613494 0.71266973 0.76549405 0.36433432 0.50384134 0.21018025
0.7320919 1.2197607 0.7432965 0.48453373 0.40066898 0.42816576 0.32210642 0.27571708
0.4682763 0.51228845 1.432255 2.4671147 0.79355156 0.60809934 2.2275002 0.76218826
0.33228686 0.51531786 1.1170024 0.9204792 0.37469774 0.46225998 1.4152387 1.1371922
1.2085434 0.53233874 0.3015168 0.53111106 0.527434 0.9006198 0.43673363 0.37493923
00000000: 932a bf3e 067b 093f f282 263f f3d3 113f
00000010: fa6a 5e3f 0a1b 823f c19e b73f 28ed 763f
00000020: 8089 893e 74c6 1d3f 4a12 173f 6a2c 6f3f
00000030: f1a7 2c3f d774 1a3f 9f99 203f aad1 3b3f
00000040: 1490 943e 6e13 8d3f 91c6 cb3e 1606 cd3e
00000050: 8a73 4c3f 9538 ab3f 4cd8 3a3f b898 a63e
00000060: 8171 973f 3b1e 0e40 618e ae3e 03d0 9b3f
00000070: 9956 0c3f 0295 7c3f 850e a73e e571 133f
00000080: 0ab3 983e 1370 873f 353d d43e 55b9 3c3f
00000090: 936e d73f de05 813f eead 2f3f 49cf 543f
000000a0: d8e3 5f3f 612b 6c3e e430 8d3f bc2c 2b3f
000000b0: 0f56 3e3f 51a2 183f 52ec 973f 8bf2 523f
000000c0: 512c 5a3f 332c aa3e 49c5 063f 2979 9a3f
000000d0: 2fba f93f a3df 8a3e 2227 993e d867 943f
000000e0: 6478 9e3e 35a2 5c3f a02c d13e 67b5 2e3f
000000f0: 091a 343f c81f 913e d95c 153f 343d d03e
00000100: a94b 873f 5b22 9b3e 1f18 af3e 5c4e 8a3e
00000110: 2a1b a53e 7b80 303f 8190 683e a2fd 873f
00000120: 1d9f 0e3f 8345 de3e f4bd 263f 849d e23e
00000130: 8294 8a3f 06df e33e 237c 883e 35bc 983e
00000140: 4769 953f 2524 433e c4b6 df3e f885 8a3e
00000150: 784b 5f3f 735b df3e 338c 1c3f 1f64 553f
00000160: c515 0c3f cc0c 3e3f 8443 cc3e d103 283f
00000170: b3a9 f63e dc3a 003f 1583 ca3e 6f7f 8b3f
00000180: 95e1 323f 46f5 643f 5c83 803f a3f0 f73e
00000190: 198c 673e b8fe fb3e 72ff fa3e 07ac a83d
000001a0: 330f a23e be94 3e3f 66b6 843f 06a3 853e
000001b0: d045 d93e a5ac a93e 5f03 0f40 7ac9 313f
000001c0: b4f5 b93e d615 9a3e ebaf ce3f b782 c43e
000001d0: eeb9 263f d934 9b3e 587a 0b3f a6ad 013f
000001e0: 6a46 c73e 389e 153f 9212 fe3f 065e 753e
000001f0: fa06 1e3f a360 af3e df87 f13e 6a24 763e
00000200: 732b 193f 8134 1e40 2f7e fe3e 074f ec3e
00000210: cad1 8d3f 36d3 863e beb4 b93f aa00 1140
00000220: eaaf 633f aa47 023f e682 2c3f 1cc2 af3e
00000230: 2015 073f c229 293f 752b be3e e2c3 633f
00000240: 2628 aa3f 091e c33e 14a3 553f c0e5 353f
00000250: 438a 0440 2bfc c63e a8e5 6b3e 9439 af3e
00000260: 7d7e 673e 059e ec3e 9724 073f 0394 0c3f
00000270: b43b 743f 0196 6d3f fdfd cd3e b090 bc3e
00000280: fbcf 2840 e083 db3f dc5e 4e3f 8671 363f
00000290: 6bf7 433f 078a ba3e bffb 003f 7e39 573e
000002a0: 606a 3b3f 1e21 9c3f ae48 3e3f ce14 f83e
000002b0: 7c24 cd3e 8b38 db3e 22eb a43e ca2a 8d3e
000002c0: e9c1 ef3e 5625 033f 2254 b73f 35e5 1d40
000002d0: 3226 4b3f 66ac 1b3f 5d8f 0e40 c51e 433f
000002e0: 8121 aa3e dfeb 033f eff9 8e3f 86a4 6b3f
000002f0: 62d8 bf3e 57ad ec3e 8b26 b53f 848f 913f
00000300: 8db1 9a3f 5a47 083f 6960 9a3e e5f6 073f
00000310: ea05 073f 058f 663f 8d9b df3e 09f8 bf3e
