artifacts/dynaPhysics2/390_walkerDynamics.pt (torch, 191930 bytes, 20 tensors)

linear1.weight f4 [100, 24]
000000 74 5a 70 bf 8f 8b e7 be d3 bd 1e 3e dc 59 f4 3e
       -0.9388802 -0.45223662 0.155021 0.47724807
000010 5e b7 97 be 4f 8e 88 3e 87 85 d8 3d 08 80 67 3d
       -0.29632086 0.26671073 0.10572343 0.056518584
000020 1c 89 66 3e ee a7 e2 be 7c 9c 45 3f e0 0b 86 3e
       0.2251324 -0.44268745 0.771919 0.26180935
000030 e5 72 47 be f3 67 1e 3e 5b 37 b9 bc 8c bb d3 bc
       -0.19477423 0.15469341 -0.022609403 -0.025846265
000040 a6 9b 1a 3e 3c 59 96 bc 59 14 77 be c4 34 bf 3e
       0.15098438 -0.018353097 -0.24128856 0.37344944
000050 9a f0 80 bf 20 56 8b be d2 3e 50 3e 9a 29 69 be
       -1.0073426 -0.27214146 0.20336464 -0.22769776
000060 18 8a 8c bf bd bb d4 be 2f ba 58 3e e5 df 1a bf
       -1.0979643 -0.41549483 0.21164773 -0.60497886
000070 8e f9 55 be 4e e2 6b bf a8 72 a7 3d 2f 88 83 bd
       -0.20895979 -0.9214219 0.08176166 -0.06422459
000080 1f d4 5a 3e 9e fe 53 bf 9e b5 8a be 83 e5 e0 3b
       0.2136998 -0.8281039 -0.27091688 0.0068632974
000090 8a 8a e3 3d df 65 68 3d a5 a4 f8 3c ed c1 01 3e
       0.111104086 0.056737777 0.030351946 0.12671633
0000a0 05 1f c0 3d d3 0d b1 bc f8 3e 6d 3e 83 b2 d6 bd
       0.093809165 -0.021613037 0.23168552 -0.10483267
0000b0 db 8a 4c 3f 02 b7 2f 3f 46 0f b6 3e 44 31 92 be
       0.79899377 0.6863862 0.35558528 -0.28553212
0000c0 02 da d3 3f 9d 16 a2 bc 21 41 01 bc 7f 0b 30 bf
       1.6550906 -0.019786173 -0.007889063 -0.6876754
0000d0 42 f4 57 bf 60 af cd bf 5f 8b ed 3d 6e a7 b9 3c
       -0.8435708 -1.6069145 0.115988486 0.022662845
0000e0 6d 50 da 39 82 b3 28 bc a5 5f ec bb c0 44 0f 3c
       0.00041640122 -0.010296704 -0.00721355 0.008744419
0000f0 bb ee 83 bc 9c 4c 20 bc 11 f0 e2 bc 3a 83 c1 3b
       -0.016105046 -0.00978389 -0.027702363 0.005905536
000100 ff 39 eb 3a 9d 20 be 3a 66 17 bd 3c d6 b7 b7 bd
       0.0017946361 0.0014505569 0.023082446 -0.08970611
000110 52 7f 58 be 95 be d5 3a b4 f0 bd bc 08 e3 a8 39
       -0.21142319 0.0016307408 -0.023186065 0.00032212608
000120 92 c2 92 3e ad a9 eb 3c 5f 2c e4 bc c6 53 51 bf
       0.2866407 0.028767431 -0.027853189 -0.81768453
000130 04 1c ba bf f6 cd 0c 3f ec 0a 1c bd 99 57 fa bc
       -1.45398 0.5500177 -0.038096353 -0.030559348
000140 9e 70 0d bc 5c bc d1 bc d9 a8 2e 3d 68 67 c5 bd
       -0.008632807 -0.025602512 0.042641494 -0.09638864
000150 aa b5 06 3e 94 47 ac 3e a6 31 81 3c 8a 59 9c 3c
       0.13155237 0.3364836 0.015770745 0.019085664
000160 70 7b 4f bc 22 10 e9 39 6c cf 84 bb 4a a3 37 3e
       -0.012663707 0.00044453243 -0.004053047 0.17933384
000170 26 ba 0b 3d 93 46 81 3c f3 64 03 bd 64 97 1b bc
       0.03411307 0.015780723 -0.032078695 -0.009496544
000180 ce 36 1a c0 e0 4d e0 bd d4 b5 6c bf 11 27 71 3f
       -2.409595 -0.109523535 -0.9246495 0.94200236
000190 4d 44 7c 3f 29 a3 bf 3e 4b 3e 75 3e c7 a4 be 3d
       0.9854172 0.3742917 0.23949544 0.093087725
0001a0 9c 6d 9f 3d db 95 8d bd 7b a8 3a be a2 fd 2a bd
       0.07784578 -0.06913348 -0.18228333 -0.04174579
0001b0 45 97 45 3c f6 c7 8a 3c 92 15 97 3b 51 80 d0 3c
       0.012059991 0.016941052 0.0046107257 0.025451811
0001c0 08 8c e0 3b 14 95 94 3b 21 61 01 bb ef e9 bf bb
       0.0068526305 0.004534373 -0.0019741731 -0.0058567445
0001d0 1c a6 76 3c 0e a8 97 3c d4 fc 45 bb e6 ce 26 3d
       0.015054252 0.018512752 -0.0030210512 0.040724657
0001e0 7c 10 49 bf 26 2c 20 3c fe 6e 31 bd 75 30 97 be
       -0.7854078 0.009776151 -0.04331874 -0.29529157
0001f0 f3 9a 8f bd c2 d8 4c 3e fe a8 da 3d e2 74 83 be
       -0.07011976 0.20004562 0.10676764 -0.25675112
000200 19 40 6b bf 54 5f f3 3d 40 a1 9c bd a6 14 01 be
       -0.9189468 0.11883417 -0.076479435 -0.12605533
000210 2f 3b 24 3a ca ff 35 3c ff 8c 00 bc 06 53 25 3e
       0.00062649226 0.011108348 -0.007846116 0.16144952
000220 be 49 4c 3e 02 e1 a4 3d 9e 41 01 3e a7 15 88 3e
       0.19950005 0.08050729 0.12622687 0.2657902
000230 34 1b bc be 94 fb 1c bd 06 7c 22 3f a9 ca b8 3f
       -0.36739504 -0.03832586 0.63470495 1.4436847
000240 9f 55 65 bf 71 76 3b bb 35 b2 05 3e 7d 35 c3 be
       -0.8958377 -0.0028604532 0.13056262 -0.38126746
000250 fa 6c 1a 40 bc fe 3d 3f 05 7c a7 3e ba 73 6d 3d
       2.4129014 0.7421682 0.32711807 0.057971694
000260 36 e5 98 bd ff cc 75 bd 22 a1 71 bd fa 10 43 3e
       -0.074655935 -0.060009953 -0.05899156 0.19049445
000270 de 84 05 be fe 2c f2 bc 9e 19 67 3c d4 f7 9a bc
       -0.13038966 -0.02956247 0.014105229 -0.018917002
000280 bf 9c b0 ba 71 25 2e ba ac 09 d9 3e 6c 87 1f be
       -0.0013474448 -0.00066431524 0.42390192 -0.15579003
000290 22 d1 e6 3c dd 0e 6a bd 67 ae 0b 3c 93 18 aa bb
       0.028175894 -0.05714308 0.0085254675 -0.0051909178
0002a0 bd a5 9c 3f 60 f7 89 bd 8e 32 30 bb f4 53 83 3f
       1.2238079 -0.06736636 -0.0026885602 1.0259995
0002b0 72 62 2c 3f 49 9c f5 bb ea 68 ed 3f 5e 5b 09 3f
       0.67337716 -0.0074954373 1.8547642 0.5365504
0002c0 79 53 51 bd 4d 27 07 bd 1e eb 39 bd 4d 74 13 3c
       -0.051104996 -0.032996465 -0.04539024 0.008999896
0002d0 72 bd b4 bc f1 98 47 3b 80 52 23 3a 9a bd c9 3b
       -0.02206299 0.003045615 0.000623025 0.0061566355
0002e0 63 9d c8 bb 26 38 56 bb a5 8d 00 be 99 f7 a6 3d
       -0.0061222776 -0.0032687276 -0.12554033 0.08152694
0002f0 85 7f 63 3d 99 02 b4 bc 15 da 5d 3c f6 52 34 bc
       0.055541534 -0.021973895 0.013540764 -0.011006108
000300 e0 42 76 3e a7 f4 2b 3d 85 25 16 3c 76 1e 4a bd
       0.24048948 0.041981366 0.009164219 -0.049345456
000310 d4 7c 66 bc d0 ff dd bc 27 a1 94 3e f2 88 30 3f
       -0.014067847 -0.02709952 0.290292 0.6895896
000320 84 9f c1 bf 78 e0 72 bc e8 85 c7 3b 57 6d 7e 3e
       -1.5126805 -0.014824025 0.006088961 0.24846397
000330 fd 9a 51 bb 56 d4 d2 3a ee 21 ae 3a 5e e8 6c be
       -0.003198325 0.001608501 0.0013285258 -0.23135516
000340 c1 a5 44 be ab a6 22 bd bb e5 72 3d 73 fb 3d bc
       -0.19203855 -0.03970973 0.05930112 -0.011595595
000350 b9 01 02 bc cd 67 d2 bc f9 d6 12 be b0 88 d6 be
       -0.007934981 -0.025684262 -0.14339818 -0.4190116
000360 c7 96 54 40 df 2d f3 bd ce ce c1 bd 9b f4 01 3f
       3.3217027 -0.118739836 -0.09463273 0.50763863
000370 6c c1 f8 be ab f4 cf 3c 87 ed 0c bf 42 47 02 be
       -0.4858507 0.025385221 -0.5504994 -0.12722495
000380 23 db 77 bd c2 79 c6 bc b2 7f b6 be 14 3b 9b 3c
       -0.06051172 -0.02422798 -0.356443 0.01894907
000390 f9 2e ae bc 53 ab 9c 39 14 3b 8b bb b6 fd 38 bc
       -0.021262633 0.00029882285 -0.004248986 -0.011290958
0003a0 c2 bd 52 3b 70 1f cd 3a 49 65 e2 bc 12 9c b0 bd
       0.0032156562 0.0015649628 -0.027636187 -0.08623518
0003b0 8e 89 1e bd 56 4a 73 3d 9c b2 92 3c 61 f4 9b 3c
       -0.0387054 0.059397064 0.017907433 0.019037427
0003c0 f8 ae 03 bf d2 e0 25 be 2b 09 51 3e 7f 3f 3d be
       -0.51438856 -0.16199043 0.20413654 -0.18481253
0003d0 a3 52 8b 3e b4 6f 3e 3f ca ee fb 3e cd 6a 93 3e
       0.27211484 0.74389195 0.4920562 0.2879242
0003e0 ee 1c 23 be 13 9d 75 bc 53 e6 87 bc 8f c0 00 bc
       -0.15929005 -0.014991063 -0.01658932 -0.00785841
0003f0 89 90 1b 3e cd c5 02 be e1 34 ac bc 75 00 23 be
       0.15191855 -0.12770768 -0.021021308 -0.15918143

linear1.bias f4 [100]
000000 d1 60 6e 3e ab 48 08 be 80 fc 53 be 01 42 35 3e
       0.2327912 -0.1330897 -0.2070179 0.1770096
000010 cd 6b 36 bd c7 10 66 bc 48 60 e3 3c 6e cb 1c 3e
       -0.0445364 -0.014042086 0.027755871 0.15311977
000020 f6 69 9f bd 35 03 3f be 2f 99 32 be 55 75 23 3d
       -0.07783882 -0.18653567 -0.17441247 0.03990682
000030 0e 46 2f bd 9f 5b 83 be f5 54 7b bc 4d 98 8b 3d
       -0.04279142 -0.2565584 -0.01534008 0.068161584
000040 09 04 1a 39 87 2c 0c be 6b c9 ae bc cb a6 f3 bc
       0.00014688088 -0.13688861 -0.021336278 -0.029742619
000050 30 36 6a 3e 49 5f a7 bd 4d 7e bf 3d c9 8b ec 3d
       0.22872233 -0.08172471 0.09350262 0.115500994
000060 99 dc 89 3d 2f 16 58 3d 05 8b 08 3d 0d a2 f4 bd
       0.06731529 0.05275553 0.033335704 -0.11944971
000070 29 ec 2b be 77 3f c9 3e 10 ff 5d 3c 9e 12 c5 be
       -0.16789307 0.39306232 0.013549581 -0.38490766
000080 f0 a3 db 3d 1e 7c 7f 3c fb ea 30 3e 7a 58 16 3e
       0.10724628 0.015593557 0.17277138 0.14682189
000090 2a 79 46 be 5e 79 aa 3c 61 9b 67 3d 60 88 36 3e
       -0.19382158 0.020809826 0.056544665 0.1782546
0000a0 6b c3 aa 3e 0a f6 4a be e4 f7 5c 3e d8 99 4d 3e
       0.33352217 -0.19820419 0.21578938 0.20078218
0000b0 ba 2b 2d 3e 0c a1 e9 3d f2 40 57 3a 0f 4f d9 bd
       0.16911212 0.114076704 0.0008211277 -0.10610782
0000c0 60 ec 29 be 90 cf 81 3e 41 85 8f bc ad c3 07 bd
       -0.16594076 0.2535367 -0.017519595 -0.033145595
0000d0 ce d5 df bd 65 12 46 bd 50 ae 95 bd 24 36 30 3e
       -0.10929452 -0.048357386 -0.07308638 0.17208153
0000e0 d8 5c 57 bd d3 e9 f4 3c db cf 86 bd fe 32 6f 3c
       -0.052578777 0.029896652 -0.06582614 0.01459956
0000f0 dd e8 1f 3e e9 49 1f be 29 4e a1 3c 84 63 5a 3e
       0.15616174 -0.15555538 0.01969059 0.21327025
000100 97 61 83 3c d1 c6 6b bd 2d 71 85 3d 8a 9d ec 3c
       0.016037745 -0.057562653 0.06515727 0.028883714
000110 a8 aa 99 3c 4b 80 b0 3e b3 78 72 be 7b 6f 5c 3e
       0.018758133 0.3447288 -0.23678856 0.21526901
000120 9e 29 a2 bd bd dd 1d 3e 6d 02 69 be 84 e5 8c be
       -0.07918094 0.15416618 -0.22754832 -0.27518857
000130 de 32 a8 3a 19 54 26 3e 2e 61 2c be f4 7a 4b be
       0.0012832542 0.16243018 -0.16833946 -0.19871122
000140 c6 11 9b 3b 55 2d 96 bd 59 b0 9b 3d 4d bb be ba
       0.0047323434 -0.07332865 0.07601995 -0.001455167
000150 9e 70 52 bb a2 b1 9a bc b1 b5 29 be c9 1a f2 3d
       -0.0032110582 -0.01888353 -0.16573216 0.11821515
000160 75 56 c1 bb e0 a6 53 3b a1 b8 26 3e 49 12 6b bc
       -0.005900199 0.003229551 0.16281368 -0.014347621
000170 31 ab 4e be a8 61 13 be 57 35 41 3e 30 f5 bd 3d
       -0.20182492 -0.14392722 0.18868004 0.092752814
000180 45 76 5d 3c 39 40 7a be 40 3c 5d be 30 3a 3f 3e
       0.013516967 -0.24438561 -0.21605015 0.1867454

bn1.weight f4 [100]
000000 b1 77 c0 3e e0 f4 bd 3e 1e 55 5f 3f 18 37 91 3e
       0.37591317 0.37100887 0.87239254 0.28362346
000010 32 fd 62 3f cf f0 08 3f 82 d5 3b 3f 36 31 fc 3e
       0.88667595 0.53492445 0.7337266 0.49256295
000020 b1 01 98 3e ae d4 c7 3e e6 98 e3 3e 34 0e b9 3e
       0.2968879 0.3902945 0.4445259 0.3614365
000030 e1 44 aa 3e ce ee a1 3f c2 97 5f 3f 55 94 c3 3e
       0.33255675 1.2651002 0.8734094 0.38199106
000040 e6 f5 c4 3e 2c 75 9b 3e af 20 7f 3e 7b 73 16 3f
       0.38468856 0.30362833 0.24914812 0.5876996
000050 29 45 d3 3e 29 3b 79 3e 72 c0 7b 3e c8 04 12 3f
       0.41263703 0.24338974 0.24585131 0.57038546
000060 e6 35 66 3f 33 5d c9 3f 3f aa 8d 3f 31 27 59 3e
       0.8992599 1.5731567 1.106758 0.21206357
000070 7a 85 5f 3e 5f 7d 86 3f a0 e4 40 3f aa b0 98 3f
       0.21828261 1.050701 0.75348854 1.1928914
000080 87 b0 c6 3e 2f 6b db 3e 34 09 34 3f 7e 1b 25 3f
       0.38806555 0.42855212 0.7032654 0.64495075
000090 79 db bd 3e 8b 15 18 3f 30 f6 ad 3f eb ee 68 3f
       0.37081507 0.5940787 1.3590755 0.9098956
0000a0 ae 74 a5 3f ba be fd 3e fa c4 e7 3f fd 8b 1f 3f
       1.2926233 0.49559575 1.8106987 0.6232298
0000b0 f6 93 e6 3e cb 77 7b 3f a0 c0 18 3f a7 ef 1b 3f
       0.4503476 0.98229665 0.5966892 0.60912555
0000c0 a2 43 ba 3e 2c bb d6 3e 6f 20 07 3f 24 f7 34 3e
       0.36379725 0.41939676 0.52783865 0.17672402
0000d0 5e 5a 89 3e 2e 09 62 3f 2c 83 88 3e 0f c9 70 3f
       0.26826757 0.8829526 0.26662576 0.9405679
0000e0 b8 d8 9c 3e f7 23 ab 3e 54 6d 6b 3f 08 3f 89 3f
       0.30634093 0.33425876 0.91963696 1.0722361
0000f0 8a 7a 4e 3f cc f6 ef 3e b3 ea 3a 3e e6 61 09 40
       0.8065573 0.4686798 0.18253593 2.1466002
000100 62 e3 5e 3e 7f 5e 9a 3e 0e b6 ac 3e cd 67 fa 3e
       0.21766427 0.3015022 0.33732647 0.4890732
000110 ef 95 00 3f 73 2f 2e 3f 02 c0 72 3f a6 bb 84 3f
       0.5022878 0.6804115 0.9482423 1.0369766
000120 99 35 6d 3f c7 61 ca 3e 2e fd 18 3f 2a 84 87 3e
       0.9265991 0.39527723 0.5976132 0.2646802
000130 eb 63 04 3f d4 69 86 3e 9a 2c b5 3e 17 2d a6 3f
       0.5171496 0.26252615 0.3538559 1.298251
000140 fa cb 11 3f 20 fc c6 3e 80 e6 a6 3f 75 52 14 3f
       0.5695187 0.3886423 1.3039093 0.5793832
000150 5d db 41 3f 19 bf 1f 3f 4a c5 28 3f 9c 8c 7a 3e
       0.75725347 0.62400967 0.6592604 0.244677
000160 fc 8a ec 3e 2c b5 6f 3e 20 ff f3 3e 1c 82 9a 3e
       0.46199787 0.23408955 0.47655582 0.3017739
000170 61 ff 56 3f 43 b9 74 3e 9e 07 79 3e 04 e9 b9 3e
       0.8398343 0.23898797 0.24319312 0.3631059
000180 53 d3 ec 3e f6 30 d2 3f 3a a7 2f 3f e4 8e 09 3f
       0.46254978 1.6421192 0.6861454 0.5373366

bn1.bias f4 [100]
000000 fc 2a 6f bd 6f 59 b0 3c 49 6b 18 be ca b7 b1 bd
       -0.058390602 0.02152702 -0.14884676 -0.08677633
000010 8f 5f ed 3c 8c a4 b1 3d 99 bc d4 be 66 14 a3 3e
       0.02897623 0.08673963 -0.4155014 0.318515
000020 00 f9 3a 3d b2 d2 59 be bf be bc 3b ef eb 5d 3c
       0.04564762 -0.2127178 0.0057600434 0.0135450205
000030 60 1e 56 3d 31 20 09 bf bb 5f 17 3f b1 21 ee 3e
       0.05227506 -0.53564745 0.5913045 0.4651008
000040 5f 40 a9 bc c1 bb d8 bd 9e 56 59 bd 9c 03 76 3e
       -0.020660577 -0.10582686 -0.05306112 0.24024814
000050 1f 73 aa bc 73 ac 38 3f 7b 62 31 3b 3f 7f df 3e
       -0.020806847 0.72138137 0.0027066756 0.4365177
000060 aa a1 9e 3d e3 33 bc 3f 08 d5 9a 3f e1 38 bd 3d
       0.07745679 1.4703335 1.2096262 0.092393644
000070 ed 0f 69 3d db c0 e5 be d9 75 62 be b8 19 19 3f
       0.056899954 -0.448737 -0.22115268 0.5980487
000080 45 28 7d 3e a7 79 f9 3a 48 39 37 be 08 e0 a0 be
       0.24722393 0.0019033448 -0.17892945 -0.31420922
000090 d8 cc ac 3e 0e 97 54 be 18 d4 8b bf 74 b7 92 be
       0.33750033 -0.20760748 -1.0924101 -0.2865559
0000a0 ed 2a 8c be 37 15 6f 3a 65 08 34 bf 5f e0 62 3f
       -0.273765 0.0009120288 -0.7032531 0.88623613
0000b0 a0 e9 cf 3a a6 9a 55 bf 34 43 f7 bd 2d f3 9b bd
       0.0015862472 -0.834391 -0.12073365 -0.076147415
0000c0 25 60 49 bc ba b4 42 bd 3f cd 9a 3d fa 25 b4 3d
       -0.012290989 -0.047535636 0.07558679 0.08796306
0000d0 ae c8 30 3f a2 dc c1 bd e1 77 54 3d 04 d8 e2 3d
       0.6905621 -0.094659105 0.051872138 0.11076358
0000e0 ad ae c8 3c 11 1c ed 3f 15 38 a4 3e 40 eb 2d bf
       0.024497354 1.852419 0.32074037 -0.6793709
0000f0 8d 06 29 be 71 d7 57 3e eb 8c 5c bb 9e 2b 6f 3f
       -0.16506405 0.21078278 -0.003365333 0.9342593
000100 e2 ab 57 bd fc 26 25 3e 6f 96 08 3e 4e 8b d0 3e
       -0.052654155 0.16128153 0.13338636 0.4073128
000110 de 2a 96 3e f1 6f ba bc 12 6b 9e be bb 94 60 bf
       0.2932958 -0.022758456 -0.30941063 -0.87726945
000120 80 d1 54 3e bf 8d 31 3d c2 b8 ca bd 1b a5 8f 3d
       0.20783043 0.04334807 -0.09898521 0.07013913
000130 c7 d3 4a 3e f4 24 cd bd cb 63 ca bd 0b af 54 bf
       0.19807349 -0.10016814 -0.09882315 -0.83079594
000140 8d 8b 26 3e fe 63 4c bd 4a b9 94 be ed 60 31 3f
       0.16264172 -0.049900047 -0.29047614 0.6928852
000150 5d e4 25 bc c9 ed 3b 3e ee 26 99 be 83 b9 c8 3d
       -0.010125247 0.18352427 -0.29912513 0.098010086
000160 e0 0c 43 3e a8 da b4 3c a8 89 ba bd 2f a8 ac 3f
       0.1904788 0.02207692 -0.09108287 1.3488826
000170 d1 af b0 3d 0d 75 af 3d 10 f0 56 3f 11 8e ca 3d
       0.08627284 0.085672475 0.83960056 0.09890378
000180 0c c0 48 3e 58 19 36 bf 30 04 ca 3c 49 3b 16 3f
       0.1960451 -0.7113242 0.0246602 0.5868421

bn1.running_mean f4 [100]
000000 26 a8 03 40 a9 1e 9e 3f a6 fe 98 bf c3 2a b0 3f
       2.057138 1.2353107 -1.1952713 1.376305
000010 d8 d8 fe 3f 38 81 9c 3f fb b8 26 c0 00 44 74 bf
       1.9909925 1.2226934 -2.6050403 -0.9541626
000020 d9 84 8c bf 6f 85 40 c0 5f ce 51 be bb 9e 72 3f
       -1.0978042 -3.0081441 -0.2048888 0.94773453
000030 b3 02 f2 bf 2d 41 90 40 04 8a 13 3f d6 9d 0c 40
       -1.8907074 4.507956 0.5763247 2.1971335
000040 5d 25 a8 bf d0 46 34 3e 14 82 ea 3f 16 d7 14 be
       -1.3136402 0.17605138 1.8320947 -0.14535174
000050 2e 5d b9 bf 12 8b bd bd b6 59 f1 3d 60 72 70 40
       -1.4481561 -0.09255041 0.11784689 3.756981
000060 9f 30 de 3f 32 67 d2 3f a5 f0 d5 40 9c cb 95 bf
       1.7358588 1.6437743 6.6856256 -1.1702762
000070 3e c7 27 40 08 d6 c9 bf 36 48 5f bf 3d f0 c7 40
       2.6215358 -1.5768442 -0.8721956 6.248076
000080 a4 17 23 be a8 62 c6 3f 5f 47 63 40 5e ae ca 3f
       -0.15926987 1.5498857 3.5512311 1.5834463
000090 02 af 3d 40 f9 9e 9f 3f 1b 83 2f c0 94 b8 a2 bf
       2.9638066 1.247039 -2.742377 -1.2712579
0000a0 54 f3 ed 3e 36 28 e7 bf 4a c1 a5 bf ce a9 48 40
       0.46474707 -1.8059146 -1.2949612 3.135364
0000b0 0f 9e 3b 3d a4 b4 a7 c0 b6 81 e3 3f 37 31 1b c0
       0.045805033 -5.240801 1.777396 -2.4248788
0000c0 e8 93 86 bf 68 55 15 c0 e5 3d 87 3e 38 11 9a 3f
       -1.0513887 -2.3333378 0.2641441 1.2036505
0000d0 72 44 91 40 7e 65 2d bf 99 7f 88 c0 ea eb 84 3e
       4.539605 -0.6773299 -4.265576 0.25961238
0000e0 d7 2c 01 bf ec cb c6 bf 71 99 1e c0 89 cd 38 c0
       -0.50459045 -1.5530982 -2.4781153 -2.8875449
0000f0 63 00 64 bf 64 ea 3c c0 97 94 f8 3d 9b ae 04 3f
       -0.8906309 -2.951806 0.12137716 0.51828927
000100 57 56 74 3f 62 5d 1c bf 05 5d 8e bf c1 0b c4 3f
       0.95444244 -0.6107999 -1.1122137 1.5316087
000110 8e 16 e7 3f dd 50 45 3f d4 dc 77 40 0d 18 39 c0
       1.8053758 0.7707651 3.8728533 -2.892093
000120 ae 65 48 c0 64 20 30 40 f2 d6 b1 bf a4 81 1d c0
       -3.131206 2.751977 -1.3893721 -2.4610376
000130 4e 0d 90 3d 8a f5 40 c0 3d 98 8b bf d1 af 6b c0
       0.07033788 -3.0149865 -1.0905834 -3.682606
000140 37 fb 73 bf 44 2f c6 bf 06 11 04 bf 85 e3 99 3f
       -0.953052 -1.5483174 -0.51588476 1.2022558
000150 34 45 16 3f fb 7e 88 bf d5 e9 11 c0 06 e0 d5 3f
       0.58699346 -1.0663751 -2.279897 1.6708992
000160 be 9e 05 40 6d 3e 80 c0 4d ce 6d bf 7f 6b 7e bf
       2.0878139 -4.0076203 -0.92892915 -0.99382776
000170 10 1c 58 3f 37 a5 5a bf ae 33 92 3f 35 34 8c 3f
       0.8441782 -0.8540835 1.1422021 1.0953432
000180 34 93 24 3f 9a c7 0c c0 9c 5b 32 bf bf dd af 3f
       0.64287114 -2.1996827 -0.69671035 1.3739547

bn1.running_var f4 [100]
000000 d9 68 c7 40 03 f5 43 40 37 db bc 3f cf 3b 6d 40
       6.231549 3.0618293 1.4754399 3.7067754
000010 8d c1 83 40 3c 08 1b 40 26 96 c0 40 87 a7 35 40
       4.117377 2.4223776 6.0183287 2.83835
000020 2d 65 e1 3f 8c 51 6b 3f 7c 7c 48 40 ab 88 22 40
       1.7609001 0.91921306 3.132598 2.5395916
000030 97 72 cf 40 97 8e 26 41 42 d8 05 40 5a 88 61 40
       6.482738 10.409812 2.0913243 3.5239472
000040 15 6c 2d 40 98 0f f0 3f 5f 97 02 40 9e af 00 40
       2.7097218 1.8754759 2.040489 2.0107188
000050 57 9d 26 40 7a 7b e9 3f 10 fe 99 41 8d 6c 85 40
       2.6033533 1.8240807 19.249054 4.169501
000060 46 5a 45 40 ad 78 82 41 c6 73 53 3f 18 34 bc 3f
       3.0836349 16.308924 0.8259853 1.4703398
000070 ae f3 fe 3f 3c 69 c4 40 9f 8c 35 40 64 58 65 3f
       1.9918115 6.137846 2.8367078 0.89588
000080 71 87 1f 40 21 b7 43 40 0e 76 89 3f d6 e2 83 40
       2.4926417 3.0580523 1.0739152 4.12144
000090 77 43 79 40 93 50 70 40 6b 70 b0 41 70 86 28 40
       3.8947427 3.7549179 22.054892 2.6332054
0000a0 7a 75 8b 40 48 ec 64 40 47 55 0a 41 d1 7d 8d 40
       4.3580904 3.5769215 8.64582 4.4216084
0000b0 96 03 3b 40 4c 17 1a 41 36 e5 80 40 65 4e 48 40
       2.9220939 9.630688 4.02798 3.1297848
0000c0 2b 7a 21 40 b8 3d 84 40 43 aa f4 3f a2 9e fd 3f
       2.5230815 4.132534 1.911446 1.9814036
0000d0 91 75 34 3f 60 f9 2f 41 17 fe 5e 3f bc cc 2a 3f
       0.7049189 10.998383 0.8710646 0.6671865
0000e0 78 59 89 40 74 e4 d7 3f ed e6 48 40 03 24 d5 3f
       4.2921715 1.6866593 3.1390946 1.6651615
0000f0 65 de 23 40 06 b3 cb 3e fb 8d f0 40 66 e8 40 41
       2.560449 0.39785022 7.5173316 12.056738
000100 02 76 d9 40 1b 72 4e 3f 7a d4 c8 3f 46 25 08 40
       6.7956553 0.8064286 1.5689843 2.127275
000110 7a 27 05 3f 55 5e 13 40 f7 5d b4 40 d3 5d 62 40
       0.5201336 2.3026326 5.6364703 3.5369766
000120 ad 4e 6b 40 34 2a 92 40 8c 23 1e 40 bc 96 81 40
       3.676677 4.5676517 2.4709196 4.04965
000130 61 a3 3a 40 ab b2 65 3f 33 36 07 40 5c 79 2e 40
       2.9162219 0.8972575 2.112683 2.7261572
000140 b4 95 24 3f 8f 0b a3 40 45 c8 1d 40 7b 7c 17 40
       0.6429093 5.095161 2.4653485 2.3669727
000150 35 11 f9 3f 99 0e 3b 40 a3 6f 40 40 fa 71 6a 40
       1.9458376 2.922766 3.0068138 3.6632066
000160 21 6d 36 40 e6 68 26 40 df ca eb 3f 72 43 97 40
       2.8504107 2.6001525 1.8421286 4.726983
000170 e4 ca 89 3f 79 7a 8d 3f 34 2e c2 3f 6d 3c 1f 40
       1.0765042 1.1053001 1.517035 2.488063
000180 b9 39 35 40 30 16 c2 40 7f e1 1e 40 66 a9 0d 40
       2.831648 6.0652084 2.4825132 2.2134643

linear2.weight f4 [200, 100]
000000 8d 92 5f 3d e9 c8 ff 3d 9a 9d 2a bd 86 f2 5f be
       0.05458312 0.124894924 -0.041654207 -0.21869859
000010 6e 12 2c 3e c7 0f d2 bd be 9f b1 bd b0 b9 ed bd
       0.16803905 -0.102569155 -0.086730465 -0.11607683
000020 db 74 a0 3d a1 01 9d bc 4e b4 10 bd e9 f6 a3 3d
       0.078347884 -0.019165816 -0.035328202 0.08006079
000030 c4 3e d2 3c 37 d8 02 be 2a ff 4d be 13 86 83 3d
       0.025664695 -0.12777792 -0.20116869 0.06422057
000040 7f 09 cf bc 4c d6 35 3e a4 19 f5 bc 26 96 83 3c
       -0.025273083 0.17757529 -0.029919453 0.016062807
000050 53 03 cf 3c b4 21 5f 3f f3 3a dc bd 19 86 cd 3d
       0.02527014 0.871608 -0.10753431 0.10035343
000060 73 5d e3 bd f5 18 05 3e a7 99 c9 3d 89 70 b9 3d
       -0.111018084 0.12997802 0.0984376 0.090546675
000070 1b 41 a1 bd 07 b3 ff bb 04 d0 69 3e 35 ae 11 bd
       -0.07873746 -0.007803324 0.22833258 -0.035566527
000080 ff 9d c3 3d 1f 48 34 3e 7e 46 c0 bc 68 74 13 3f
       0.0955162 0.17605637 -0.023471113 0.57599497
000090 d7 3c 9f bd 6a 3c 7d bd a8 4a 77 be aa 29 88 3d
       -0.07775276 -0.061825193 -0.24149573 0.06648572
0000a0 5f 3f 54 3d 8d 02 31 be 00 46 de 3e c1 41 d5 3d
       0.051818248 -0.1728613 0.4341278 0.10412932
0000b0 05 e7 18 bd 5b 09 23 3c 1a 3c 2c 3b fd 1c 3a bd
       -0.037329692 0.009950961 0.002628094 -0.0454378
0000c0 d3 54 15 be 22 c4 3e 3d 21 39 06 3e 37 db 81 be
       -0.14583139 0.046573766 0.1310773 -0.2536256
0000d0 2a 88 0b 3d 59 9f 9e 3e 54 9f 3f bc 54 a6 20 3e
       0.034065403 0.30980948 -0.011695702 0.15688449
0000e0 8e 21 87 bd fd 57 c1 bb 95 ec ec 3d 70 17 1c be
       -0.06598197 -0.0059003816 0.11568562 -0.15243316
0000f0 a5 36 df bc 62 a6 3f be fc bc 15 3e 26 39 38 3e
       -0.027247736 -0.18715814 0.14622873 0.1799055
000100 ed b8 21 3e 0a 65 98 bd d7 dd 35 3f dd ec 20 be
       0.157932 -0.07441147 0.71041626 -0.15715356
000110 c3 a6 9f 3e 29 ed 02 3d 63 a7 6b bb ba 7c 9f 3d
       0.31181917 0.031964455 -0.0035957925 0.077874616
000120 b3 d3 01 bd 52 77 ac 3c 33 ee 20 3e 41 3d 37 bc
       -0.031696033 0.02105299 0.15715866 -0.011184038
000130 04 c9 c4 bc d8 fb 9a 3c 95 da e2 3d 74 f4 b6 bd
       -0.024021633 0.018918917 0.110768475 -0.089333445
000140 e1 35 3f bd 87 59 5f be 2a 7e 68 3e 5e 2c b0 3e
       -0.046682242 -0.21811496 0.22704378 0.3440885
000150 18 c3 c4 bc 2e 15 3a 3e 45 11 f8 3d c8 9f e7 3d
       -0.02401881 0.18172142 0.12112669 0.11309773
000160 e8 99 0c bd e6 11 23 3e 93 c5 3d 3d 35 fc c2 bd
       -0.034326464 0.15924796 0.046331 -0.09520761
000170 32 07 ff bd 3a 38 f7 bd 43 55 57 3d 56 94 07 be
       -0.12452544 -0.12071271 0.052571546 -0.1324018
000180 8a ee 7f bd 62 4c 99 3e a9 e5 03 3d 77 48 b7 3c
       -0.062483348 0.29941088 0.032201443 0.022373421
000190 0e ab db bd 50 bf 15 3e 1d 24 20 be 5d 4d 68 bd
       -0.107259855 0.14623761 -0.15638776 -0.056714404
0001a0 84 f5 b4 bd 28 87 21 bd 5d 5f 0c be 40 b3 50 be
       -0.08835891 -0.039435536 -0.13708253 -0.20380878
0001b0 74 d1 f2 3e 8c c8 c4 3e fd ef c6 3c 6d f7 18 3d
       0.47425425 0.38434255 0.024284357 0.03734534
0001c0 d7 22 b7 3d 9f 94 d5 3d d3 44 84 3d ec 23 d2 3d
       0.08942192 0.10428738 0.0645844 0.10260758
0001d0 e3 32 6e bd 9a 89 77 bd 6e 74 c5 3d fe 92 3d 3d
       -0.058153998 -0.06043396 0.09641348 0.04628276
0001e0 6f 5e a2 bc aa 03 6c 3e 7f af 3e 3e dc 71 25 3e
       -0.01982042 0.23048273 0.18621634 0.16156715
0001f0 64 a9 9b be a5 52 1a 3e 04 0f 89 be 26 2c 93 3e
       -0.30402672 0.15070589 -0.2676927 0.2874462
000200 2a af 0e be 1a 47 be bd 62 5a 50 bd c9 2b 02 be
       -0.13934007 -0.09290905 -0.050867446 -0.12712015
000210 17 5b 01 bf 57 70 d2 3c b3 ff fe 3d ba 77 83 bd
       -0.5052962 0.025688333 0.124511145 -0.064193204
000220 f2 1c 40 3d 76 ec b6 bc bb b0 82 be 13 d3 70 bf
       0.046902604 -0.02232955 -0.2552546 -0.94072074
000230 96 2f 48 bd 60 62 8c 3c 5b be da 3d 97 a2 08 3e
       -0.048873506 0.017136753 0.10680839 0.13343273
000240 7f 9f d7 3d b5 8f 0b be 3a d5 97 bd 5e 4d 10 3e
       0.10528468 -0.13629039 -0.074137166 0.14092013
000250 a2 03 ec bd 8b 01 2e 3e a3 44 31 3e 3a 45 96 3e
       -0.115241304 0.16992776 0.17311339 0.2934969
000260 6e 66 92 3e 67 57 c8 bb 22 d8 21 be 97 1e 7a bb
       0.28593773 -0.006113935 -0.15805104 -0.0038165206
000270 30 78 c6 be 09 66 a0 bd 2b f5 55 3d 8a 96 81 be
       -0.3876357 -0.07831962 0.052235764 -0.25310165
000280 0e ae 0f bf bb 97 ff be 5d 3a 2b bd 07 a2 c6 3d
       -0.5612496 -0.4992045 -0.041803706 0.09698873
000290 12 53 96 bc 96 09 14 3c f9 f1 45 bd ce 09 b1 bd
       -0.018350158 0.009035489 -0.048326466 -0.08644448
0002a0 68 3f 0b 3b 72 66 07 be 25 86 9d 3c 36 57 82 bd
       0.002124751 -0.13222674 0.019229004 -0.063642904
0002b0 0d b6 1f bd 3f ea 9f 3c 3a 31 8d bd 80 56 99 bd
       -0.038991977 0.019520877 -0.06894155 -0.07487202
0002c0 50 74 ca bd 69 d0 ed 3c 1c 1d 3d be cb 65 0c 3e
       -0.09885466 0.029030042 -0.18468136 0.13710706
0002d0 2c d2 9e 3d 42 db a0 3e af 54 04 3e bd f9 44 bc
       0.07754931 0.3141728 0.12922929 -0.012022433
0002e0 75 fd 63 3d 7f d4 af 3a 8b 28 d5 3c 9d 56 1f 3d
       0.055661637 0.0013414769 0.026020309 0.03890096
0002f0 9f c1 05 3c d3 21 cb bd 17 1b d9 bd 2d 47 fc bd
       0.008163839 -0.09918561 -0.1060087 -0.12318263
000300 ad 65 8c 3d eb 0d d6 3d 1f 4e 83 3e 6c a1 8b 3e
       0.068553306 0.104518734 0.2564554 0.27271593
000310 03 9a b4 be 3e 94 51 3d 40 df 06 3e af 44 18 3e
       -0.35273752 0.051166765 0.131711 0.1486995
000320 76 0a 73 be 57 b1 0f be fc 43 33 3d ef 41 59 be
       -0.2373446 -0.14032494 0.043766007 -0.21216558
000330 b8 07 8c be 5d d4 8b bd 23 96 b8 bc 86 f2 7f 3d
       -0.2734964 -0.068276145 -0.022532528 0.062487148
000340 97 09 86 be de 60 6d be e1 ad 0e bc 13 14 7b bd
       -0.2617919 -0.23181483 -0.008708448 -0.06129844
000350 e8 9d bc 3e b6 72 83 be b5 ca 1d 3b 48 a5 83 3d
       0.36839223 -0.25673455 0.0024077122 0.06428009
000360 de c4 a8 3e 37 39 b1 3e 82 00 d2 bc 42 e8 1e 3e
       0.32962698 0.34613964 -0.025635008 0.15518287
000370 d4 c3 af be 99 8c ee 3d 2a 97 81 be 1c 2f 64 be
       -0.34329093 0.116479106 -0.25310642 -0.22283596
000380 22 7f c1 bb e9 3b 3d 3e 22 ea df be 18 6a 95 bc
       -0.005905048 0.18479885 -0.43733317 -0.018239066
000390 8f 14 fd bd 4c b5 ae 3c c3 7d 85 3e 3d 72 2d 3e
       -0.12357437 0.021326683 0.2607251 0.1693811
0003a0 73 17 85 bd bc d9 a4 3c c6 bf 5d be ce fd 64 bd
       -0.06498613 0.020123355 -0.21655187 -0.05590611
0003b0 a5 2f a4 bb c2 42 13 3e 64 f3 82 be 8b ff 26 bd
       -0.0050105625 0.14380935 -0.25576317 -0.04077105
0003c0 a0 30 a5 ba b8 25 18 be be 89 fe 3e 63 e4 3a 3d
       -0.0012602992 -0.14858139 0.49714464 0.045627963
0003d0 c7 d0 e3 3b 62 bd 35 3e dd 72 c0 be 3a a3 d9 bd
       0.0069523784 0.17748025 -0.37587634 -0.10626836
0003e0 ae d7 b8 3d 0f 04 f3 3d 50 fc 26 bd 6b da b7 bd
       0.09025513 0.118660085 -0.040767968 -0.08977207
0003f0 a5 b1 07 be e6 1b 62 3e 6d c2 02 bd bc 99 0e 3e
       -0.1325136 0.22080955 -0.0319237 0.13925833

linear2.bias f4 [200]
000000 7b 79 eb 3d ba ff 35 bc 5c 1d 08 bd 7c 85 a4 bd
       0.1149778 -0.011108333 -0.033231124 -0.080332726
000010 25 e7 65 bd d5 4a 49 3c 97 cf 00 be 03 d1 e9 3d
       -0.05612864 0.012285908 -0.12579189 0.11416819
000020 f2 87 8c 3d 04 d0 f9 bb 65 29 7d 3e 0e 5f 5a be
       0.06861867 -0.0076236743 0.24722822 -0.21325323
000030 c6 96 1f be 28 58 a7 bc 7e 85 8f bd e9 6d 91 bc
       -0.15584859 -0.020427778 -0.070078835 -0.017752605
000040 a8 81 0c be 02 ce d6 3d c1 b1 9c bd 5d 96 ec 3d
       -0.13721335 0.104885116 -0.07651091 0.11552117
000050 dd d2 8b bc 93 e5 68 bd a9 a1 db bc 4a 81 d3 3c
       -0.01706832 -0.056859564 -0.026810484 0.025818486
000060 e0 a1 c8 3b 2e 92 0b 3d 56 95 ed 3b 86 20 c7 3b
       0.0061228126 0.034074955 0.0072504682 0.006076875
000070 33 d2 a7 3c b1 c4 8a 3d f9 f9 44 be fd ef 07 be
       0.020485973 0.06775797 -0.19235982 -0.13275142
000080 e3 b0 a8 3d e3 2d e3 bd 06 1f 3f be ca 68 ba 3d
       0.082368635 -0.110927366 -0.18664178 0.09102018
000090 05 16 fb 3d 72 f8 23 be 07 18 68 3d f3 5a 69 3c
       0.12260059 -0.16012743 0.05666354 0.014242875
0000a0 fa 5a 06 3e 1e 63 1e 3c d8 ae 9e 3d e5 fa 13 3c
       0.13120642 0.009667186 0.077481925 0.009031986
0000b0 65 a1 40 bd e3 88 7f bd 6e 56 35 bd 7e 4f 23 bd
       -0.047028918 -0.062386405 -0.04427188 -0.03987073
0000c0 c9 a7 49 ba 05 95 b6 bd 5c ee b8 3d 28 12 5b 3d
       -0.00076925434 -0.08915142 0.090298384 0.053484112
0000d0 7e 6c 9e 3d 46 df c5 bd 08 40 f6 3c ba 69 12 3e
       0.07735537 -0.09661727 0.03005983 0.14298144
0000e0 c3 7d 83 3d 5c dd 25 3b c1 c5 0e 3d 59 4d 80 3d
       0.064204715 0.0025308942 0.03485656 0.06264753
0000f0 97 0f 30 3d 3f b4 16 bd aa 5a a9 3e 51 71 a1 bd
       0.042983618 -0.03679299 0.33076984 -0.078829415
000100 c2 e4 8d 3d 64 e7 70 bb f2 4a 30 bc a5 a3 ed bc
       0.06928398 -0.0036759013 -0.010760056 -0.029008696
000110 74 c2 87 bd 0b 1e 32 bd 0f 6c f6 3d 52 3d 8e bb
       -0.06628886 -0.043485682 0.12032329 -0.004340806
000120 06 36 5c 3d a5 83 67 3e 34 e7 42 be e6 0b 58 3c
       0.05376246 0.22608812 -0.1903351 0.013186431
000130 91 46 96 3c 45 e5 9a bd 75 51 2a 3e b0 6a 40 bc
       0.018344196 -0.07563261 0.16632636 -0.011744186
000140 93 b7 0e be 17 3a 77 bd b7 48 2d bc 38 45 bb 3d
       -0.13937216 -0.060358133 -0.010576419 0.09144062
000150 cc 86 75 3d 94 06 dc bc c9 be 1e 3e 7b e5 ea 3c
       0.059943005 -0.026858605 0.15502466 0.028673878
000160 ec 2b d0 bd 87 94 bd 3d 12 f4 97 bd 20 e3 69 bd
       -0.101646274 0.09256845 -0.074195996 -0.05710137
000170 f3 2a fb bd e0 d0 a7 bd 17 79 04 be 48 2a f4 3d
       -0.12264051 -0.081941366 -0.12936817 0.11922127
000180 b4 70 71 bd f8 c4 4a 3c 41 ec 12 3e 98 16 4b 3d
       -0.058945373 0.012376063 0.14347936 0.049582094
000190 2e b7 34 bc 70 ce 31 3d a8 26 62 bd c7 e0 9c 3d
       -0.011030002 0.043409765 -0.055212647 0.076600604
0001a0 9a ab 85 3d bd 17 03 bc c3 bc 8c 3d 3f 8b 89 bd
       0.06526871 -0.008001265 0.06871941 -0.06716012
0001b0 5c fa b6 3d 9f 40 11 be 4f f7 79 bd 2b a3 98 3d
       0.08934471 -0.14184807 -0.061026867 0.07452997
0001c0 15 21 0a 3e 31 9d 2f 3d 91 0c 9a 3d e7 73 58 3d
       0.13489182 0.04287452 0.07521928 0.052844908
0001d0 7e 4b 77 bd 4a 81 f5 3d 1f 9e e8 bc 0e da fe 3c
       -0.06037473 0.119875506 -0.02839571 0.031109836
0001e0 eb 2c 65 3d d9 cc f5 3c 1a a8 c6 bd 26 29 09 bd
       0.05595104 0.030004906 -0.097000316 -0.033486508
0001f0 f3 1a d5 bd 2a 78 be 3b 48 bf 56 3d 2c 17 80 3d
       -0.10405531 0.0058126645 0.052428514 0.0625442
000200 16 35 94 3e e2 e0 0d 3c 80 af bd bd 7c e9 f1 3c
       0.2894675 0.008659573 -0.092619896 0.02953028
000210 74 ef be 3d 6c 2d 14 be db 9e 63 bd 34 c8 b0 bd
       0.09323016 -0.14470452 -0.05557142 -0.08631936
000220 33 15 23 be 59 de 9d bd 1d 20 b3 bd 2d 58 95 3d
       -0.15926056 -0.07708425 -0.087463595 0.07292209
000230 bb 47 88 3d cc 5e c4 3c 03 00 72 3d f7 a8 53 3d
       0.066543065 0.023970984 0.059082042 0.05167481
000240 a3 70 8e 3e 76 9e 8a bd 4a 57 d9 bc 0c 5d 99 bd
       0.2782031 -0.06768505 -0.02653088 -0.074884504
000250 ab ae 1e bd d8 4a e8 bd be 9a dd bd 9a 13 b9 bd
       -0.038740795 -0.113424 -0.1082053 -0.09036942
000260 f3 7a cb 3b 70 26 77 3d 9d ff 7e 3d 06 fc 80 bd
       0.006209725 0.06033939 0.06225549 -0.0629807
000270 7c 58 1c bd 36 f0 2e bd fb 63 d6 3d 29 45 e3 3c
       -0.038170323 -0.04270955 0.104682885 0.02774294
000280 62 4c 76 bd 59 82 8f bd 47 4b 72 bd 1e eb b9 bb
       -0.060131438 -0.07007284 -0.05915382 -0.00567378
000290 89 bf 7a bd 13 56 d2 3b f7 fb 16 3d 5e 53 04 be
       -0.06121782 0.0064189523 0.036861386 -0.12922427
0002a0 4a e6 22 3d 77 93 a4 bd a5 72 82 bd 69 a9 af bd
       0.039770402 -0.08035939 -0.06369523 -0.08577234
0002b0 64 e3 06 3e f6 67 e9 3b 83 cd ec bd a6 ab 80 3d
       0.1317268 0.007122989 -0.11562636 0.06282739
0002c0 b9 4b 33 bd 14 a5 76 bc 78 27 b3 3b f5 be 8b be
       -0.043773387 -0.015054006 0.0054673515 -0.27294126
0002d0 e6 1d 09 be aa c4 be bd 7c 58 a7 bd 63 4d ee bd
       -0.13390312 -0.093148544 -0.08171174 -0.11635854
0002e0 1a 4f 8e 3d 17 e4 ad 3e e6 d4 c8 3d 8d 02 9c bb
       0.06948681 0.3396308 0.09806232 -0.0047610463
0002f0 8a 89 c9 3c fe 35 d6 3d 45 ba 9e bd 77 b8 9e 3d
       0.024601717 0.10459517 -0.07750372 0.077500276
000300 f1 2e 43 bd f9 4d f8 b8 1c 9e 80 bd 98 02 d8 3d
       -0.04765219 -0.00011840085 -0.06280157 0.1054737
000310 0e 04 ac 3d c1 08 98 3c b8 d6 0e 3d 6c 7d d9 bd
       0.08399211 0.018558862 0.03487274 -0.106196254

bn2.weight f4 [200]
000000 b3 91 93 3e da 79 d4 3e bb ff d4 3e e1 c0 60 3f
       0.28822097 0.41499215 0.41601357 0.8779431
000010 84 e3 1b 3f 92 e5 18 3f 17 8e 90 3f 92 b1 a1 3f
       0.60894036 0.59725296 1.1293362 1.2632315
000020 2e f2 e6 3e d3 cf 8c 3f 50 9b 12 3f 6e ea 04 3f
       0.45106643 1.1000923 0.5726824 0.5192021
000030 69 65 0e 3f f2 74 da 3e e2 53 d6 3e 55 93 10 3f
       0.5562349 0.42667347 0.41860873 0.5647481
000040 11 f2 f6 3e 06 70 41 3f 28 52 1d 3f a0 02 4d 3e
       0.48231557 0.7556156 0.61453485 0.20020533
000050 04 d2 e0 3e f7 e5 0a 3f 26 d0 5e 3f e0 4b b2 3e
       0.4391023 0.5425715 0.8703636 0.34823513
000060 f9 a8 e7 3e c9 71 53 3f 53 a7 7b 3e bd 76 78 3f
       0.45246103 0.825955 0.24575548 0.9705618
000070 f1 88 ea 3e db 6b f2 3e 09 61 4d 3f e6 ec 94 3e
       0.45807603 0.47347912 0.8022619 0.2908699
000080 27 ac d5 3e 29 b4 85 3f 65 dc e0 3e 24 44 cf 3e
       0.41732904 1.0445606 0.43918148 0.40481675
000090 0e 17 6b 3f fe 96 4c 3f 3f 14 64 3f f9 3e 2e 3f
       0.91832054 0.79917896 0.89093393 0.6806484
0000a0 8c a9 63 3f 51 f7 9d 3e 72 ab 3a 3f f5 46 9b 3e
       0.88930583 0.3085275 0.72917855 0.30327573
0000b0 4a 3d bc 3e 50 18 e9 3e 18 89 c0 3e 41 10 53 3f
       0.3676551 0.4552636 0.37604594 0.82446676
0000c0 c0 c6 f0 3e 50 f1 80 3e 31 35 ee 3e d5 64 85 3f
       0.47026634 0.25184107 0.46524957 1.0421396
0000d0 9d 7e 0f 3f c5 7d 00 3f e0 ac b2 3e 39 4c c0 3e
       0.5605257 0.5019191 0.34897518 0.37558153
0000e0 ac 03 22 3f bc f8 16 3f 54 50 67 3f 4f e7 04 3f
       0.6328685 0.5897329 0.90356946 0.5191545
0000f0 8f 3a 6d 3f 20 73 db 3e 4e 94 80 3f bc ff 0d 3f
       0.9266748 0.4286127 1.0045259 0.55468345
000100 14 60 ab 3f c7 b7 d3 3e dc 15 7a 3e e2 28 7d 3e
       1.3388696 0.41351148 0.24422401 0.24722627
000110 0b 68 6f 3e ee 72 43 3f f7 ea 40 3e b9 11 3b 3f
       0.23379533 0.76347244 0.18839632 0.7307392
000120 10 63 c2 3e f6 04 73 3f ba 22 e2 3e fa 4e 89 3e
       0.37966204 0.94929445 0.4416712 0.26818067
000130 bd 10 00 3f aa 2b 42 3f b6 8b 9c 3f 5a 01 ba 3e
       0.5002554 0.75847876 1.2230136 0.36329156
000140 dd ad 1c 3f 1d 53 4b 3f fc 52 a3 3e 3f 24 11 3f
       0.61202794 0.79423696 0.3189925 0.5669593
000150 c3 56 31 3f 02 bb d9 3e fc ab aa 3f f2 3e cf 3e
       0.6927301 0.42525488 1.3333735 0.4047771
000160 91 89 16 3f 62 e0 7e 3f fd 54 c8 3e 9e 20 16 3f
       0.5880366 0.9956113 0.3912734 0.5864352
000170 7f df 51 3f 6c 91 0d 3f 21 ba 02 3f 50 be 3f 3f
       0.8198165 0.5530002 0.5106526 0.7489977
000180 3d 5e 9f 3e 33 bf b3 3e 21 ba c3 3e 82 ef f0 3e
       0.31126586 0.3510681 0.38227943 0.4705773
000190 bd ac 71 3f 8f d2 fd 3e 2d de be 3e 83 a7 90 3f
       0.944042 0.49574706 0.37278882 1.130112
0001a0 d2 42 8b 3e d3 71 5a 3f a3 a6 93 3f 07 6b be 3e
       0.27199417 0.8532993 1.1535228 0.3719103
0001b0 c5 33 c3 3e 8f b3 3b 3f 98 0a 90 3f 49 ab ef 3e
       0.38125435 0.7332086 1.1253233 0.46810368
0001c0 3d de 7f 3e 18 fa 9c 3e 10 83 80 3f cf c4 46 3f
       0.24987121 0.30659556 1.0039997 0.77644056
0001d0 22 b3 8f 3e 3e ad 04 3f 9c 43 16 3f 23 0a 88 3e
       0.28066355 0.51826847 0.58696914 0.26570234
0001e0 55 a7 15 3f c8 09 76 3f 6f e4 4b 3f 1d 73 8c 3e
       0.58458453 0.96108675 0.79645437 0.27431574
0001f0 f9 d6 7e 3f d5 91 8b 3e e1 62 ef 3e b3 77 67 3e
       0.9954677 0.272597 0.46755126 0.22604255
000200 83 f4 ac 3f 30 bc 32 3f ef 71 4e 3f 49 e4 97 3e
       1.3512119 0.698184 0.806426 0.29666355
000210 55 a3 69 3f ab ff b5 3e 6c 02 31 3f c9 3c 8b 3f
       0.9126485 0.35546622 0.6914432 1.0877925
000220 82 c1 00 3f 3c b8 8b 3f 82 54 34 3f 61 19 4a 3f
       0.5029527 1.0915599 0.7044145 0.78944975
000230 77 0a b3 3e 59 05 98 3e a1 46 1c 3f 1f 34 b5 3e
       0.34968922 0.2969158 0.6104527 0.35391328
000240 f9 e1 20 3f 1c 10 8f 3f 2d e5 e1 3e 43 16 06 3f
       0.62844807 1.1176791 0.4412016 0.5237772
000250 8c d2 ac 3f d0 f2 87 3e 58 0a 29 3e 5a 8f 94 3e
       1.3501754 0.2655244 0.16507852 0.2901562
000260 f4 65 d8 3e 3e 9b a5 3e b4 e5 6a 3f 0c 24 56 3f
       0.42265284 0.32345003 0.9175675 0.83648753
000270 59 4e 44 3f 18 70 0b 3f ad fa d7 3e e7 dd 88 3e
       0.7668205 0.54467916 0.42183438 0.26731798
000280 de 51 64 3f 9a c6 9e 3f 99 35 1f 3f e9 c3 a3 3e
       0.8918742 1.2404358 0.6219116 0.31985405
000290 68 85 43 3f f2 73 56 3f b9 5a 83 3e e1 b1 57 3e
       0.76375437 0.8377067 0.25655153 0.21063949
0002a0 26 7c 6c 3f 91 1f 3a 3f 90 21 e7 3e 0a 47 eb 3e
       0.92376935 0.72704417 0.45142794 0.45952636
0002b0 6f 2f 0d 3f 9d 1c 9b 3e 6c 16 72 3e a2 ae 83 3e
       0.551505 0.30295268 0.23641366 0.25719172
0002c0 5e 1f a4 3e 4e 43 c3 3e df 93 76 3f 54 1a 89 3f
       0.3205518 0.38137287 0.96319383 1.071116
0002d0 55 f7 b2 3e a2 2e f7 3e 76 c9 f9 3e 34 eb 4b 3f
       0.34954324 0.48277766 0.48786515 0.79655766
0002e0 f0 e2 a6 3e 22 f5 3e 3f 68 9f 42 3f e1 ce 03 3f
       0.32595015 0.74592793 0.76024485 0.5148755
0002f0 19 f4 25 3f a6 d5 81 3f 92 1f 7e 3f ca ef ce 3e
       0.6482559 1.0143325 0.9926692 0.4041732
000300 d2 57 11 3f 59 db 02 3f 08 cb 0d 3f cb f1 8a 3f
       0.5677463 0.5111595 0.55387926 1.0855039
000310 22 63 0f 3f 81 0e 32 3f 43 8d ad 3e 35 1e 8e 3e
       0.5601064 0.6955338 0.33896837 0.2775742

bn2.bias f4 [200]
000000 12 46 5a 3e 6a b9 6b 3e 52 46 39 3e 21 e6 cf bf
       0.21315792 0.23019949 0.18093231 -1.6242105
000010 9a 75 a7 bd 9b fd 3b bd bd 2a cb be 20 c2 56 bf
       -0.081767276 -0.045896154 -0.39681044 -0.8388996
000020 19 2c ba bd fe 51 8e bf dd 04 e7 be dc 7a 36 3e
       -0.09090442 -1.1118772 -0.45120898 0.17820305
000030 1c 74 23 be 14 2e 0d 3e 7d f2 1b 3e 8e 45 39 3e
       -0.15962261 0.13787109 0.1522922 0.1809294
000040 c3 e8 a8 be 99 65 a0 bf 03 30 ae be c2 80 9b 3d
       -0.32990083 -1.2531005 -0.34021005 0.07592918
000050 7c 9f 00 3d 50 b9 94 3c e7 e5 17 3f 43 11 1b 3d
       0.031402096 0.01815477 0.5933518 0.03785826
000060 38 8d 21 3f 99 85 14 bf 80 15 ab 3d 6f 47 3d bf
       0.6310611 -0.58016354 0.0835371 -0.73937124
000070 1e d3 48 3d 00 86 09 3f 26 f4 87 3d b3 b4 bc bd
       0.049029462 0.5372009 0.066383645 -0.09214153
000080 84 bc 9b be 41 09 23 bf 73 ca 17 3f 3c c0 80 3c
       -0.30417264 -0.63685995 0.5929329 0.015716664
000090 51 ce 23 be 80 b0 81 3d 4b 4d 90 be b4 fb 3a bf
       -0.15996672 0.06332493 -0.2818397 -0.7304032
0000a0 a4 df 62 bf 40 48 af 3e 23 ad 12 bd db 5b 00 3e
       -0.886225 0.3423481 -0.035809647 0.1253504
0000b0 1c 9c 25 3e 5d 41 6a 3e 1c d5 db 3e 15 ea 82 bf
       0.16172832 0.22876497 0.42936027 -1.0227686
0000c0 72 d2 9d be 17 12 72 3f 9e 57 51 3e d2 cd c4 bd
       -0.3082462 0.9455885 0.2044358 -0.096095696
0000d0 1c c7 94 3c d8 6c 64 be c4 2b 3d be 0c c4 51 3e
       0.018161349 -0.22307146 -0.18473727 0.20484942
0000e0 f1 69 e9 3e 67 d2 43 bf 7c f4 98 bf 5f d6 af be
       0.4558864 -0.76492923 -1.1949611 -0.3434324
0000f0 e4 63 41 bf 3b 83 09 be 05 67 8f bf c4 9e 05 be
       -0.75543046 -0.13428967 -1.1203314 -0.13048846
000100 8e 91 df be 62 e8 e8 bd 8a dd 32 3d b8 7e fc 3e
       -0.43665737 -0.113724485 0.043668307 0.4931543
000110 21 18 f4 bc c8 17 23 bf 15 aa c1 3a d6 42 df be
       -0.029796662 -0.6370816 0.001477542 -0.4360568
000120 08 e6 45 be 56 c3 99 bf d1 c0 03 3f ab a5 a6 3e
       -0.19326031 -1.2012737 0.5146609 0.3254827
000130 55 53 01 b9 76 ce a9 bf 35 e1 e4 be 3d 17 32 be
       -0.00012333442 -1.3266132 -0.4470307 -0.17391677
000140 6b 62 f5 bd 0b 8a b6 bf a5 9e 25 3d 1e 13 66 bf
       -0.11981662 -1.4260877 0.0404345 -0.8987292
000150 75 9c 55 be d1 3b 5e be 76 cc 72 bf d4 09 37 3e
       -0.20860465 -0.21702506 -0.9484323 0.17874843
000160 42 2e 0b be 37 80 67 bf 40 9a 25 be 8f 62 89 be
       -0.13591865 -0.90430015 -0.16172123 -0.26833007
000170 c4 c9 5d bf 9a 92 70 be cc 4b 96 be 81 49 74 be
       -0.86635995 -0.23493424 -0.29354703 -0.23856165
000180 c4 35 bc 3d a7 3b a8 3d f3 63 b2 3e b7 c9 ac be
       0.091899425 0.08214503 0.3484188 -0.33747646
000190 a9 68 49 bf e7 86 e6 bd 4c 67 f5 3d 7d c1 15 bf
       -0.78675324 -0.11256199 0.11982593 -0.58498365
0001a0 2f 03 70 bd 13 ed 32 bf 96 b3 89 3f 99 db b2 be
       -0.058596786 -0.69892997 1.075793 -0.34933165
0001b0 2f 22 87 3e de fe fc be cb 96 92 be 44 00 83 3e
       0.26393268 -0.49413198 -0.2863067 0.2558614
0001c0 1c 37 66 3e ff 92 d7 3e e0 e3 26 bf bf 1e 94 be
       0.2248196 0.42104337 -0.6519146 -0.28929707
0001d0 4a 84 3a bc 75 80 e5 be 0a 58 7a 3f d3 29 97 3d
       -0.011384079 -0.44824567 0.97790587 0.07381024
0001e0 ab 12 a8 3e 76 a8 97 bf 3d 40 61 bc b3 38 30 3d
       0.32826743 -1.1848285 -0.013748226 0.043022823
0001f0 20 ad 90 bf da 2b 5e 3e 5c f3 d3 be 3a 31 a7 bc
       -1.1302834 0.21696416 -0.41396606 -0.020409215
000200 91 fb 8f bf a3 55 49 bd 35 0e c9 bf 8f cf 57 3d
       -1.1248647 -0.049153935 -1.5707461 0.052688178
000210 af 36 74 bf 94 a6 f5 bd 7a eb 64 ba 67 d0 9c be
       -0.9539594 -0.11994663 -0.00087325985 -0.30627748
000220 61 bb 17 3e e4 1e 5f bf b9 3b 34 bf 9a 18 be bf
       0.14817573 -0.8715651 -0.7040363 -1.4851258
000230 d1 69 a7 bc 2c ff 23 bb 7d 7d bd be d5 78 56 be
       -0.0204362 -0.002502392 -0.37009802 -0.20944531
000240 49 66 2e 3f 36 e2 8f bf 2c ff 45 3e 23 19 fa 3e
       0.68124825 -1.1240909 0.19335622 0.48847303
000250 87 7b 38 bf 76 07 9b bd 4b 36 57 3e 2a 09 4f 3e
       -0.7206349 -0.075697824 0.21016805 0.2021834
000260 30 d5 0e bd 0a b6 86 3e c3 e7 96 bf 4e 95 e5 be
       -0.03487128 0.2631076 -1.1789478 -0.44840473
000270 8e e6 bc be 9e 2d 25 be a3 a4 43 3f 3c 2d ff 3d
       -0.3689465 -0.16130683 0.7642309 0.124598
000280 b9 65 9d 3a 52 97 aa be f0 37 a1 be 22 4a 76 3e
       0.0012008465 -0.33318573 -0.3148799 0.24051717
000290 0e 08 87 be ce f0 9f bf 73 b1 8c bc 6f 10 15 ba
       -0.26373333 -1.2495363 -0.017174458 -0.0005686348
0002a0 f4 bf 21 3f aa c6 8e be 78 00 bf 3d fa b5 a6 3d
       0.6318352 -0.27885944 0.09326261 0.08140178
0002b0 59 5f de 3d 50 c6 25 be 30 3c b3 3c 17 05 b4 3f
       0.1085803 -0.16188931 0.021879286 1.4064053
0002c0 8b 9c d9 3f f5 a5 88 be 44 79 6d bf 8c da f1 be
       1.7000898 -0.26689115 -0.9276316 -0.4723705
0002d0 91 ef c6 3d a5 b2 b0 bd 64 e6 13 3e 0a eb 27 bf
       0.097136624 -0.08627824 0.14443356 -0.65593016
0002e0 cd 3e 2f bd 9d 55 bd bf 17 4c c8 3c 47 31 34 3f
       -0.0427845 -1.4791752 0.024450345 0.7038769
0002f0 e1 9b 2d bf 13 f7 5f bf 9f 3f 3b bf 1b 0a c6 3e
       -0.6781598 -0.8748638 -0.73143953 0.38679585
000300 f9 13 29 be 10 09 0e 3f 7c d1 ec be e1 55 92 bf
       -0.16511525 0.5548258 -0.46253574 -1.1432458
000310 1d 3d 95 3d 5f 80 01 bf f7 aa d8 3d 7d 1b b9 3d
       0.07287047 -0.50586504 0.10579484 0.09038446

bn2.running_mean f4 [200]
000000 77 92 12 40 f0 83 4f be eb f7 90 3e 76 1c e6 3f
       2.2901895 -0.20265174 0.28314146 1.7977436
000010 8c 3e 07 40 08 92 1d c0 47 f4 09 c0 51 0f 37 3f
       2.1131926 -2.462038 -2.1555345 0.71507746
000020 ef 07 09 be 12 32 0a 3f fe 7e a2 3f 5b d2 0e c0
       -0.13381933 0.5398265 1.2695005 -2.231589
000030 73 82 d2 bf bd 2d 0b 3f e5 a8 e2 be cb e3 f1 bd
       -1.644606 0.54366666 -0.4426948 -0.11811026
000040 65 cb 78 bf ec bb bb 3f b0 dd b3 bf 6a 8c 4b 3b
       -0.97185355 1.4666724 -1.4052029 0.0031059035
000050 db 46 42 be df 1d d2 bf 4e 88 13 c0 20 39 c1 3e
       -0.18972342 -1.6415366 -2.3051944 0.37738895
000060 38 fa ba bd 4b d1 54 bf 93 ec b2 3e c1 68 9a 3d
       -0.09129757 -0.83131856 0.34946117 0.075395115
000070 31 38 53 3f 07 04 87 bf 8e 8d bb bf 27 01 54 bd
       0.82507616 -1.0548104 -1.4652574 -0.05175891
000080 4e 5d ee bf f3 61 1a 3f 25 1e 85 bf 67 0d d3 bf
       -1.8622224 0.6030571 -1.0399824 -1.6488465
000090 eb 66 f3 3d 5d 9c 89 be 78 ef 81 3f 09 64 06 40
       0.118848644 -0.26877108 1.0151205 2.0998557
0000a0 1c a0 86 3f bb 46 f6 3c ec 05 12 40 a0 f8 a4 3f
       1.0517612 0.030063024 2.2816114 1.2888374
0000b0 e3 41 11 3f 1c 69 47 bf b9 de ad bf d9 22 a0 bf
       0.5674116 -0.7789476 -1.3583595 -1.2510635
0000c0 f1 5a 16 3f f5 ca 4e bf bc ca 4a 3e c6 30 81 bf
       0.58732516 -0.8077844 0.198039 -1.009301
0000d0 11 67 9f bf 88 a0 52 be 3e 63 b2 bf 03 42 a7 3f
       -1.2453328 -0.2056905 -1.3936536 1.306702
0000e0 93 71 c1 be a8 4c 69 3f a0 f1 ae 3f 26 cf be be
       -0.37781963 0.91132593 1.3667488 -0.37267417
0000f0 56 98 f3 bf 04 9f 86 3f 5f 83 18 40 2b 35 d9 bf
       -1.9030864 1.0517278 2.3830183 -1.696935
000100 49 fd 99 3f 4c 3b 74 bf fc 09 8e 3e 90 bb 08 3f
       1.2030421 -0.9540298 0.27741992 0.534112
000110 37 0d ef bf d6 b4 82 3f 83 76 21 be e9 54 a1 bf
       -1.8675908 1.0211437 -0.15767865 -1.2604038
000120 27 69 95 3e e6 67 cd 3f 16 c4 00 c0 36 14 13 bf
       0.29181787 1.6047332 -2.0119681 -0.57452714
000130 84 6c 26 3f 19 29 ce 3f e7 80 b4 3e ad 92 d7 3e
       0.6500933 1.6106292 0.35254595 0.42104092
000140 af 9c 0c 40 a6 d0 58 3e aa ab a9 3d 50 4f 84 3f
       2.1970632 0.21173343 0.082846954 1.0336704
000150 63 e6 9d be ea af 7b bf d8 49 bc bf f1 8a 88 3f
       -0.30839834 -0.983153 -1.4710035 1.0667402
000160 bc 08 08 bf 0d b4 04 bf 43 12 04 bf f9 59 c3 bf
       -0.5313833 -0.51837236 -0.51590365 -1.5261832
000170 0d 36 d6 be 6a a2 a2 be 34 0f 42 3e 0d 8a 3f 3f
       -0.41838112 -0.31764537 0.18951112 0.74820024
000180 b7 2b cd bd 8d 64 da bf 4d 8b 66 bf fa 00 2e 3d
       -0.100181036 -1.7061936 -0.90056306 0.0424814
000190 df df 8f 3e 25 27 9c 3e 0c da 09 bf ad 78 85 bf
       0.28100488 0.30498615 -0.5384834 -1.0427452
0001a0 58 5c 00 3f bf 3a cd 3f f3 56 97 bf fd 4f 81 bd
       0.50140905 1.6033553 -1.182341 -0.06314085
0001b0 11 74 09 3e 18 46 db 3e 23 2f fb bf 64 60 b2 3d
       0.13423182 0.42826915 -1.962376 0.08709791
0001c0 04 b3 4b 3f 65 cb 84 bd cc 85 07 40 93 44 86 3e
       0.7957003 -0.06484107 2.1175413 0.26224193
0001d0 14 42 e2 3f 79 47 3e bf 4d c5 8b be b7 09 2d bf
       1.7676415 -0.7432781 -0.27298966 -0.6759295
0001e0 d9 57 96 3f 4d 27 3f bf e7 68 a4 3d 7a df bb be
       1.1745559 -0.74669343 0.08027821 -0.36693937
0001f0 cf e6 bb bf 35 3b 82 3f 3e 5c b2 bf f5 76 16 bf
       -1.4679812 1.0174319 -1.39344 -0.58775264
000200 83 b3 55 bf fe 22 e7 be e1 4c da 3f d3 56 14 40
       -0.8347704 -0.45143884 1.7054712 2.3177993
000210 4d 19 43 bf a3 9b 59 bf de cc 07 3f 0a 2e 00 40
       -0.7621048 -0.8500311 0.5304698 2.00281
000220 86 4c dc bf 1b 7f c1 bf b5 b6 db 3f a5 43 a9 3f
       -1.7210853 -1.5116915 1.7165133 1.3223768
000230 a7 38 6f 3e c6 8b 0f c0 32 89 b8 bf e7 40 03 bd
       0.23361455 -2.242906 -1.4416869 -0.032044318
000240 dd 36 34 3d a0 98 9e 3e 80 f4 83 3f 33 8f 05 bf
       0.043997634 0.3097582 1.030899 -0.5217163
000250 c6 d7 fa 3d bd 04 6a 3e 31 50 89 be bd 20 8f bf
       0.12248187 0.2285337 -0.26818994 -1.1181866
000260 03 a2 ef 3d 62 5e a5 3e 0b 61 b4 3f 08 af 06 c0
       0.11700823 0.3229857 1.4092115 -2.104433
000270 b0 e9 7a bf a3 e8 70 3e fb 5a 6a 3e 70 f1 9b be
       -0.9801283 0.23526244 0.22886269 -0.3045764
000280 f0 ab be bf fc 16 d4 bf 1b 9e ae 3f 35 59 03 40
       -1.4896221 -1.6569514 1.3642 2.0523198
000290 6f 9b 74 3e 3b a6 30 3f 19 34 8a bc 3a 41 45 bd
       0.23887418 0.6900365 -0.016870545 -0.048157908
0002a0 58 cb 07 c0 2e 3e a5 bf 5c ea 2c c0 e8 42 90 3e
       -2.121786 -1.2909601 -2.7018042 0.28176045
0002b0 76 3d 4f 3e 72 7b 1d 3e 79 59 2f 3e 8d 3b 39 3f
       0.20238289 0.15379122 0.17123975 0.7235649
0002c0 50 a2 93 3f 63 b2 ab be 0e ea e1 3f 94 9b 1e 40
       1.1533909 -0.33534536 1.7649553 2.4782457
0002d0 28 a7 9b be 16 f7 64 bf 16 16 8b bf d2 19 53 bd
       -0.30400968 -0.89439523 -1.0866115 -0.051538296
0002e0 7c b0 1b bf a9 40 a2 3f e1 ab a6 3f a8 e6 8d bf
       -0.6081617 1.2675983 1.3021203 -1.1086016
0002f0 db 21 80 3f cc 16 5e bf 7c 62 98 bd 31 59 46 3f
       1.0010332 -0.86753535 -0.074406594 0.77479845
000300 b4 d5 5b bf 80 f6 3c bc fc 8a 06 3f 1e 95 9c bf
       -0.8587296 -0.01153338 0.52555823 -1.2233007
000310 f4 23 9b bf 7e 99 29 3f 51 f9 55 3f 52 2a 8f 3f
       -1.2120347 0.66249835 0.8358355 1.118479
