artifacts/dynaPhysics2/430_walkerDynamics.pt (torch, 191930 bytes, 20 tensors)

linear1.weight f4 [100, 24]
-0.9388802 -0.45223662 0.15502104 0.47724807 -0.29632086 0.26671073 0.10572337 0.056518324
0.2251325 -0.44268745 0.771919 0.26180935 -0.19477426 0.15469341 -0.022607949 -0.0258466
0.15098442 -0.018353341 -0.24128872 0.37344944 -1.0073426 -0.27214146 0.20336461 -0.22769773
-1.0979643 -0.41549483 0.21164781 -0.60497886 -0.20895983 -0.9214219 0.08176136 -0.064223975
0.21369973 -0.8281039 -0.27091688 0.006863017 0.11110389 0.056737658 0.030351806 0.12671636
0.09380885 -0.021613335 0.23168547 -0.104833655 0.79899377 0.6863862 0.35558528 -0.28553212
1.6550906 -0.0197865 -0.007889933 -0.6876754 -0.8435708 -1.6069145 0.11598835 0.02266317
0.00041634214 -0.01029742 -0.00721375 0.00874399 -0.016105272 -0.009783497 -0.027702088 0.0059050145
0.0017950634 0.0014497795 0.023082666 -0.08970675 -0.21142313 0.0016294775 -0.023185201 0.00032271282
0.2866407 0.02876666 -0.027854273 -0.81768453 -1.45398 0.5500177 -0.038096193 -0.03056016
-0.008633 -0.025602588 0.042641114 -0.096389085 0.13155237 0.3364836 0.015771851 0.0190847
-0.012663721 0.0004442918 -0.0040528895 0.17933375 0.034112513 0.015779827 -0.032077935 -0.009495368
-2.409595 -0.10952319 -0.9246495 0.94200236 0.9854172 0.3742917 0.23949544 0.09308785
0.077845365 -0.06913316 -0.18228328 -0.04174515 0.012060147 0.016940882 0.004610683 0.025452167
0.006853659 0.004534925 -0.0019740188 -0.0058569275 0.015054565 0.018512683 -0.0030211562 0.040724
-0.7854078 0.009776239 -0.04331914 -0.29529157 -0.07011899 0.20004562 0.10676741 -0.25675112
-0.9189468 0.11883312 -0.07647904 -0.12605533 0.0006266567 0.011108615 -0.007847007 0.16144957
0.19950007 0.08050747 0.12622687 0.2657902 -0.36739504 -0.03832576 0.63470495 1.4436847
-0.8958377 -0.002859877 0.13056265 -0.38126746 2.4129014 0.7421682 0.32711807 0.057972245
-0.074655816 -0.060009822 -0.058991395 0.19049443 -0.13038974 -0.029561989 0.014105151 -0.018917
-0.0013477086 -0.0006641252 0.42390192 -0.15579002 0.028175374 -0.057142753 0.008524701 -0.0051914863
1.2238079 -0.067365445 -0.002687728 1.0259995 0.67337716 -0.0074950764 1.8547642 0.5365504
-0.05110568 -0.032996036 -0.0453913 0.008999746 -0.022063335 0.003046416 0.000622549 0.0061564236
-0.006121437 -0.0032688612 -0.12554035 0.0815264 0.05554198 -0.021974243 0.013541029 -0.0110055655
0.24048944 0.041981738 0.009164398 -0.049345464 -0.014068371 -0.027099304 0.290292 0.6895896
-1.5126805 -0.01482366 0.00608908 0.248464 -0.0031987422 0.0016083687 0.0013290858 -0.23135515
-0.19203858 -0.0397099 0.059300035 -0.011595926 -0.007935579 -0.025683822 -0.14339815 -0.4190116
3.3217027 -0.118738726 -0.09463141 0.50763863 -0.4858507 0.025384124 -0.5504994 -0.12722498
-0.060511142 -0.024228686 -0.356443 0.018949393 -0.021262556 0.00029887646 -0.004248292 -0.011290722
0.0032159959 0.0015655507 -0.027635643 -0.08623474 -0.038704857 0.059395503 0.01790684 0.019037457
-0.51438856 -0.16199043 0.20413662 -0.1848125 0.27211484 0.74389195 0.4920562 0.2879242
-0.15928999 -0.014990793 -0.01658987 -0.00785787 0.15191853 -0.12770768 -0.02102094 -0.15918148
00000000: 745a 70bf 8f8b e7be d6bd 1e3e dc59 f43e
00000010: 5eb7 97be 4f8e 883e 7f85 d83d c27f 673d
00000020: 2289 663e eea7 e2be 7c9c 453f e00b 863e
00000030: e772 47be f367 1e3e 4e34 b9bc 40bc d3bc
00000040: a99b 1a3e bf59 96bc 6414 77be c434 bf3e
00000050: 9af0 80bf 2056 8bbe d03e 503e 9829 69be
00000060: 188a 8cbf bdbb d4be 34ba 583e e5df 1abf
00000070: 91f9 55be 4ee2 6bbf 8072 a73d dc87 83bd
00000080: 1ad4 5a3e 9efe 53bf 9eb5 8abe 29e3 e03b
00000090: 708a e33d bf65 683d 5aa4 f83c efc1 013e
000000a0: db1e c03d 730e b1bc f53e 6d3e 07b3 d6bd
000000b0: db8a 4c3f 02b7 2f3f 460f b63e 4431 92be
000000c0: 02da d33f 4c17 a2bc c744 01bc 7f0b 30bf
000000d0: 42f4 57bf 60af cdbf 4d8b ed3d 1da8 b93c
000000e0: 7f48 da39 83b6 28bc 5261 ecbb f442 0f3c
000000f0: 34ef 83bc f64a 20bc 7def e2bc da7e c13b
00000100: 5548 eb3a 8706 be3a dc17 bd3c 2cb8 b7bd
00000110: 4e7f 58be 3194 d53a e4ee bdbc c831 a939
00000120: 92c2 923e 0fa8 eb3c a52e e4bc c653 51bf
00000130: 041c babf f6cd 0c3f c10a 1cbd 4d59 fabc
00000140: 6d71 0dbc 85bc d1bc 73a8 2e3d a467 c5bd
00000150: aab5 063e 9447 ac3e f833 813c 8457 9c3c
00000160: 7f7b 4fbc d6ef e839 1ace 84bb 44a3 373e
00000170: 90b9 0b3d b244 813c 2764 03bd 7692 1bbc
00000180: ce36 1ac0 b24d e0bd d4b5 6cbf 1127 713f
00000190: 4d44 7c3f 29a3 bf3e 4b3e 753e d8a4 be3d
000001a0: 646d 9f3d b095 8dbd 78a8 3abe f6fc 2abd
000001b0: ec97 453c 9bc7 8a3c 3615 973b 1081 d03c
000001c0: a994 e03b b599 943b 8a5e 01bb 78eb bfbb
000001d0: 6ca7 763c e9a7 973c 97fe 45bb 36ce 263d
000001e0: 7c10 49bf 852c 203c 696f 31bd 7530 97be
000001f0: 8c9a 8fbd c2d8 4c3e dfa8 da3d e274 83be
00000200: 1940 6bbf c75e f33d 0ba1 9cbd a614 01be
00000210: 3846 243a e900 363c bc90 00bc 0953 253e
00000220: bf49 4c3e 1ae1 a43d 9e41 013e a715 883e
00000230: 341b bcbe 79fb 1cbd 067c 223f a9ca b83f
00000240: 9f55 65bf c66c 3bbb 37b2 053e 7d35 c3be
00000250: fa6c 1a40 bcfe 3d3f 057c a73e 4e74 6d3d
00000260: 26e5 98bd dccc 75bd f6a0 71bd f910 433e
00000270: e384 05be fc2b f2bc 4b19 673c d3f7 9abc
00000280: 99a5 b0ba b018 2eba ac09 d93e 6b87 1fbe
00000290: 0bd0 e63c 850e 6abd 30ab 0b3c 581d aabb
000002a0: bda5 9c3f e5f6 89bd 9824 30bb f453 833f
000002b0: 7262 2c3f 4299 f5bb ea68 ed3f 5e5b 093f
000002c0: 3154 51bd da26 07bd 3aec 39bd ac73 133c
000002d0: 2bbe b4bc 61a6 473b 8e32 233a d3bb c93b
000002e0: 5696 c8bb 643a 56bb a68d 00be 50f7 a63d
000002f0: fd7f 633d 5403 b4bc 31db 5d3c b050 34bc
00000300: dd42 763e 0bf5 2b3d 4526 163c 781e 4abd
00000310: 067f 66bc 5cff ddbc 27a1 943e f288 303f
00000320: 849f c1bf f0de 72bc e886 c73b 596d 7e3e
00000330: fda1 51bb e6cf d23a b834 ae3a 5de8 6cbe
00000340: c3a5 44be d9a6 22bd 98e4 723d d7fc 3dbc
00000350: 3b04 02bc e166 d2bc f7d6 12be b088 d6be
00000360: c796 5440 4a2d f3bd 1dce c1bd 9bf4 013f
00000370: 6cc1 f8be 5ef2 cf3c 87ed 0cbf 4447 02be
00000380: 88da 77bd 3d7b c6bc b27f b6be c23b 9b3c
00000390: d02e aebc 85b2 9c39 4235 8bbb b8fc 38bc
000003a0: 75c3 523b 2a33 cd3a 2564 e2bc d79b b0bd
000003b0: fc88 1ebd b348 733d 5eb1 923c 71f4 9b3c
000003c0: f8ae 03bf d2e0 25be 3109 513e 7d3f 3dbe
000003d0: a352 8b3e b46f 3e3f caee fb3e cd6a 933e
000003e0: ea1c 23be f19b 75bc 7be7 87bc 4cbe 00bc
000003f0: 8890 1b3e cdc5 02be 1b34 acbc 7800 23be

linear1.bias f4 [100]
0.2327912 -0.1330897 -0.2070179 0.1770096 -0.044536393 -0.0140418075 0.027755886 0.15311977
-0.07783882 -0.18653567 -0.17441247 0.03990682 -0.04279142 -0.2565584 -0.015340294 0.068161584
0.00014678363 -0.13688861 -0.021336278 -0.029742448 0.22872233 -0.08172471 0.09350262 0.115500994
0.06731529 0.05275545 0.0333359 -0.11944971 -0.16789307 0.39306232 0.013549575 -0.38490766
0.10724628 0.015593714 0.17277138 0.14682189 -0.19382158 0.020809753 0.056545127 0.1782546
0.33352217 -0.19820419 0.21578938 0.20078218 0.16911212 0.114076704 0.000821109 -0.10610782
-0.16594076 0.2535367 -0.017519629 -0.033145595 -0.109294556 -0.048357386 -0.07308638 0.17208153
-0.052578777 0.02989658 -0.06582613 0.014599845 0.15616174 -0.15555538 0.01969059 0.21327025
0.016037745 -0.057562646 0.06515727 0.028883748 0.018757762 0.3447288 -0.23678856 0.21526901
-0.07918094 0.15416618 -0.22754832 -0.27518857 0.0012834097 0.16243018 -0.16833946 -0.19871123
0.0047323247 -0.07332865 0.07601998 -0.0014553443 -0.0032106913 -0.018883506 -0.16573216 0.11821515
-0.005900209 0.0032296241 0.16281368 -0.014347647 -0.20182492 -0.14392722 0.18868004 0.092752814
0.013517012 -0.24438561 -0.21605015 0.1867454
00000000: d160 6e3e ab48 08be 80fc 53be 0142 353e
00000010: cb6b 36bd 9c0f 66bc 5060 e33c 6ecb 1c3e
00000020: f669 9fbd 3503 3fbe 2f99 32be 5575 233d
00000030: 0e46 2fbd 9f5b 83be db55 7bbc 4d98 8b3d
00000040: eee9 1939 872c 0cbe 6bc9 aebc 6fa6 f3bc
00000050: 3036 6a3e 495f a7bd 4d7e bf3d c98b ec3d
00000060: 99dc 893d 1916 583d 3a8b 083d 0da2 f4bd
00000070: 29ec 2bbe 773f c93e 09ff 5d3c 9e12 c5be
00000080: f0a3 db3d c77c 7f3c fbea 303e 7a58 163e
00000090: 2a79 46be 3779 aa3c dd9b 673d 6088 363e
000000a0: 6bc3 aa3e 0af6 4abe e4f7 5c3e d899 4d3e
000000b0: ba2b 2d3e 0ca1 e93d b13f 573a 0f4f d9bd
000000c0: 60ec 29be 90cf 813e 5385 8fbc adc3 07bd
000000d0: d3d5 dfbd 6512 46bd 50ae 95bd 2436 303e
000000e0: d85c 57bd ace9 f43c dacf 86bd 3034 6f3c
000000f0: dde8 1f3e e949 1fbe 294e a13c 8463 5a3e
00000100: 9761 833c cfc6 6bbd 2d71 853d 9c9d ec3c
00000110: e1a9 993c 4b80 b03e b378 72be 7b6f 5c3e
00000120: 9e29 a2bd bddd 1d3e 6d02 69be 84e5 8cbe
00000130: 1538 a83a 1954 263e 2e61 2cbe f57a 4bbe
00000140: 9e11 9b3b 552d 96bd 5db0 9b3d 40c1 beba
00000150: 766a 52bb 95b1 9abc b1b5 29be c91a f23d
00000160: 8a56 c1bb 1aa8 533b a1b8 263e 6512 6bbc
00000170: 31ab 4ebe a861 13be 5735 413e 30f5 bd3d
00000180: 7576 5d3c 3940 7abe 403c 5dbe 303a 3f3e

bn1.weight f4 [100]
0.37591317 0.37100887 0.87239254 0.28362346 0.88667595 0.53492445 0.7337266 0.49256295
0.2968879 0.3902945 0.4445259 0.3614365 0.33255675 1.2651002 0.8734094 0.38199106
0.38468856 0.30362833 0.2491482 0.5876996 0.41263703 0.24338974 0.24585137 0.57038546
0.8992599 1.5731567 1.106758 0.21206345 0.21828261 1.050701 0.75348854 1.1928914
0.38806555 0.42855212 0.7032654 0.64495075 0.37081507 0.5940787 1.3590755 0.9098956
1.2926233 0.49559575 1.8106987 0.6232298 0.4503476 0.98229665 0.5966892 0.60912555
0.36379725 0.41939676 0.52783865 0.17672406 0.26826757 0.8829526 0.26662576 0.9405679
0.30634093 0.33425876 0.91963696 1.0722361 0.8065573 0.4686798 0.18253602 2.1466002
0.21766421 0.3015022 0.33732647 0.4890732 0.5022878 0.6804115 0.9482423 1.0369766
0.9265991 0.39527723 0.5976132 0.2646802 0.5171496 0.26252615 0.3538559 1.298251
0.5695187 0.3886423 1.3039093 0.5793832 0.75725347 0.62400967 0.6592604 0.24467699
0.46199787 0.2340896 0.47655582 0.3017739 0.8398343 0.23898804 0.24319313 0.3631059
0.46254978 1.6421192 0.6861454 0.5373366
00000000: b177 c03e e0f4 bd3e 1e55 5f3f 1837 913e
00000010: 32fd 623f cff0 083f 82d5 3b3f 3631 fc3e
00000020: b101 983e aed4 c73e e698 e33e 340e b93e
00000030: e144 aa3e ceee a13f c297 5f3f 5594 c33e
00000040: e6f5 c43e 2c75 9b3e b520 7f3e 7b73 163f
00000050: 2945 d33e 293b 793e 76c0 7b3e c804 123f
00000060: e635 663f 335d c93f 3faa 8d3f 2927 593e
00000070: 7a85 5f3e 5f7d 863f a0e4 403f aab0 983f
00000080: 87b0 c63e 2f6b db3e 3409 343f 7e1b 253f
00000090: 79db bd3e 8b15 183f 30f6 ad3f ebee 683f
000000a0: ae74 a53f babe fd3e fac4 e73f fd8b 1f3f
000000b0: f693 e63e cb77 7b3f a0c0 183f a7ef 1b3f
000000c0: a243 ba3e 2cbb d63e 6f20 073f 27f7 343e
000000d0: 5e5a 893e 2e09 623f 2c83 883e 0fc9 703f
000000e0: b8d8 9c3e f723 ab3e 546d 6b3f 083f 893f
000000f0: 8a7a 4e3f ccf6 ef3e b9ea 3a3e e661 0940
00000100: 5ee3 5e3e 7f5e 9a3e 0eb6 ac3e cd67 fa3e
00000110: ef95 003f 732f 2e3f 02c0 723f a6bb 843f
00000120: 9935 6d3f c761 ca3e 2efd 183f 2a84 873e
00000130: eb63 043f d469 863e 9a2c b53e 172d a63f
00000140: facb 113f 20fc c63e 80e6 a63f 7552 143f
00000150: 5ddb 413f 19bf 1f3f 4ac5 283f 9b8c 7a3e
00000160: fc8a ec3e 2fb5 6f3e 20ff f33e 1c82 9a3e
00000170: 61ff 563f 48b9 743e 9f07 793e 04e9 b93e
00000180: 53d3 ec3e f630 d23f 3aa7 2f3f e48e 093f

bn1.bias f4 [100]
-0.05839063 0.021527007 -0.14884676 -0.08677549 0.028975774 0.08673959 -0.4155014 0.318515
0.045648124 -0.21271774 0.0057596425 0.013544971 0.052274853 -0.53564745 0.5913045 0.4651008
-0.020660551 -0.105827 -0.053061746 0.24024819 -0.02080682 0.72138137 0.0027078555 0.4365177
0.07745719 1.4703335 1.2096262 0.09239459 0.056900214 -0.448737 -0.22115265 0.5980487
0.24722394 0.0019031294 -0.17892948 -0.31420922 0.33750033 -0.20760751 -1.0924101 -0.2865559
-0.273765 0.0009119389 -0.7032531 0.88623613 0.0015859412 -0.834391 -0.12073305 -0.07614751
-0.012290936 -0.04753636 0.07558664 0.087963186 0.6905621 -0.09465921 0.051872537 0.11076406
0.02449768 1.852419 0.32074037 -0.6793709 -0.16506408 0.21078283 -0.0033650987 0.9342593
-0.052653655 0.1612815 0.13338625 0.4073128 0.2932958 -0.022758493 -0.30941063 -0.87726945
0.20783044 0.043347344 -0.09898516 0.07013973 0.19807349 -0.100167304 -0.09882309 -0.83079594
0.16264172 -0.04989914 -0.29047614 0.6928852 -0.010124876 0.18352418 -0.29912513 0.09800994
0.19047877 0.022078102 -0.09108179 1.3488826 0.08627238 0.0856714 0.83960056 0.09890345
0.1960451 -0.7113242 0.024660453 0.5868421
00000000: 032b 6fbd 6859 b03c 496b 18be 59b7 b1bd
00000010: 9a5e ed3c 87a4 b13d 99bc d4be 6614 a33e
00000020: 87f9 3a3d aed2 59be 62bb bc3b baeb 5d3c
00000030: 281e 563d 3120 09bf bb5f 173f b121 ee3e
00000040: 5140 a9bc d4bb d8bd 4657 59bd 9f03 763e
00000050: 1073 aabc 73ac 383f 4776 313b 3f7f df3e
00000060: e0a1 9e3d e333 bc3f 08d5 9a3f 6039 bd3d
00000070: 3310 693d dbc0 e5be d775 62be b819 193f
00000080: 4628 7d3e 6d72 f93a 4a39 37be 08e0 a0be
00000090: d8cc ac3e 1097 54be 18d4 8bbf 74b7 92be
000000a0: ed2a 8cbe 2f0f 6f3a 6508 34bf 5fe0 623f
000000b0: 5bdf cf3a a69a 55bf e442 f7bd 3af3 9bbd
000000c0: ec5f 49bc 7cb5 42bd 2bcd 9a3d 0b26 b43d
000000d0: aec8 303f b0dc c1bd 4c78 543d 44d8 e23d
000000e0: 5caf c83c 111c ed3f 1538 a43e 40eb 2dbf
000000f0: 8f06 29be 74d7 573e fd88 5cbb 9e2b 6f3f
00000100: 5cab 57bd fa26 253e 6896 083e 4e8b d03e
00000110: de2a 963e 0570 babc 126b 9ebe bb94 60bf
00000120: 81d1 543e fc8c 313d bbb8 cabd 6ba5 8f3d
00000130: c7d3 4a3e 8424 cdbd c363 cabd 0baf 54bf
00000140: 8d8b 263e 0a63 4cbd 4ab9 94be ed60 313f
00000150: cfe2 25bc c3ed 3b3e ee26 99be 6fb9 c83d
00000160: de0c 433e 23dd b43c 1789 babd 2fa8 ac3f
00000170: 93af b03d 7d74 af3d 10f0 563f e48d ca3d
00000180: 0cc0 483e 5819 36bf b804 ca3c 493b 163f

bn1.running_mean f4 [100]
2.0490506 1.2328597 -1.191335 1.3541285 2.001492 1.2336855 -2.614458 -0.9470038
-1.1013585 -3.0097275 -0.20523438 0.95243084 -1.8812145 4.482571 0.5902358 2.1910293
-1.311262 0.17066284 1.8338993 -0.15631726 -1.4404371 -0.10033903 0.0686654 3.7489784
1.7405815 1.6323388 6.6966047 -1.1758833 2.6065722 -1.5949376 -0.8785005 6.2529984
-0.1381919 1.5541227 3.5630155 1.5836943 2.9536638 1.2677708 -2.7574286 -1.2609833
0.45865387 -1.8107644 -1.2873971 3.1424105 0.04620152 -5.2166963 1.781727 -2.4130218
-1.0559977 -2.3420084 0.25692418 1.2001505 4.5506496 -0.68560725 -4.2677684 0.26985416
-0.5342913 -1.5473586 -2.4715931 -2.8793023 -0.8762639 -2.958065 0.1070339 0.5075292
0.94520855 -0.60264546 -1.1205742 1.5245012 1.8017415 0.79139185 3.8814278 -2.878643
-3.1491573 2.761245 -1.4005061 -2.4583313 0.050270665 -3.0281458 -1.0917 -3.6792588
-0.9487473 -1.5565772 -0.5279817 1.2086558 0.57376873 -1.0593665 -2.28936 1.6704514
2.089881 -4.000798 -0.9249563 -0.9942395 0.85330445 -0.8434266 1.1305791 1.0967456
0.62728304 -2.1931293 -0.7181239 1.3600807
00000000: a523 0340 59ce 9d3f aa7d 98bf 1554 ad3f
00000010: 7218 0040 68e9 9d3f 4853 27c0 d76e 72bf
00000020: 51f9 8cbf 609f 40c0 f628 52be 82d2 733f
00000030: a3cb f0bf 3971 8f40 b219 173f d339 0c40
00000040: 6fd7 a7bf 3dc2 2e3e 36bd ea3f a211 20be
00000050: 3e60 b8bf 8d7e cdbd 72a0 8c3d 43ef 6f40
00000060: 60cb de3f 7af0 d03f 964a d640 5883 96bf
00000070: 14d2 2640 ea26 ccbf 69e5 60bf 9018 c840
00000080: 2d82 0dbe 7eed c63f 7208 6440 7fb6 ca3f
00000090: d408 3d40 5046 a23f b679 30c0 e767 a1bf
000000a0: aed4 ea3e 21c7 e7bf 6ec9 a4bf 411d 4940
000000b0: ce3d 3d3d 2def a6c0 a10f e43f f36e 1ac0
000000c0: ef2a 87bf 77e3 15c0 918b 833e 889e 993f
000000d0: ec9e 9140 f583 2fbf 8f91 88c0 532a 8a3e
000000e0: 51c7 08bf d90f c6bf 952e 1ec0 7d46 38c0
000000f0: d552 60bf f050 3dc0 9734 db3d 6fed 013f
00000100: 30f9 713f f946 1abf fa6e 8fbf db22 c33f
00000110: 779f e63f a898 4a3f 5069 7840 b03b 38c0
00000120: cb8b 49c0 3db8 3040 c943 b3bf 4d55 1dc0
00000130: 9de8 4d3d 24cd 41c0 d3bc 8bbf fa78 6bc0
00000140: 1ae1 72bf ec3d c7bf cf29 07bf 3cb5 9a3f
00000150: 82e2 123f 5299 87bf e084 12c0 5ad1 d53f
00000160: 9cc0 0540 8a06 80c0 f0c9 6cbf 7b86 7ebf
00000170: 2972 5a3f ceea 57bf d1b6 903f 2962 8c3f
00000180: 9f95 203f 3b5c 0cc0 f8d6 37bf 2017 ae3f

bn1.running_var f4 [100]
6.2146397 3.0661807 1.4704702 3.6845376 4.0930676 2.4229062 5.99301 2.8167324
1.7544905 0.91612047 3.1052842 2.5370526 6.461812 10.526596 2.1064432 3.554432
2.7132983 1.8768533 2.0375564 2.028377 2.6154482 1.796938 19.052942 4.2087865
3.0915396 16.103128 0.7927455 1.4463902 1.9800556 6.1005697 2.806588 0.884913
2.479268 3.0836823 1.0695133 4.0859284 3.9217172 3.737587 21.840277 2.6697013
4.390346 3.6096303 8.555088 4.3380733 2.897328 9.733735 3.997357 3.150463
2.520922 4.1325865 1.9343743 1.9707085 0.69577384 10.877659 0.8473978 0.6640912
4.259116 1.6640018 3.1683805 1.6715661 2.576211 0.39196214 7.471846 11.923102
6.5947223 0.81339115 1.5550666 2.1104398 0.51623964 2.3206418 5.5969467 3.5915296
3.6504252 4.5677094 2.4718165 4.0105014 2.9324355 0.8746243 2.110724 2.6961174
0.638854 5.114765 2.4486792 2.3410335 1.9603845 2.9407837 2.9433045 3.6762576
2.7735562 2.6737874 1.8298966 4.7229905 1.075158 1.0868425 1.5284109 2.4857924
2.888383 6.0205774 2.5024507 2.2382567
00000000: 54de c640 4e3c 4440 5e38 bc3f 77cf 6b40
00000010: 69fa 8240 e510 1b40 bdc6 bf40 5845 3440
00000020: 2593 e03f df86 6a3f fabc 4640 125f 2240
00000030: 2ac7 ce40 f06c 2841 f7cf 0640 d07b 6340
00000040: aea6 2d40 bb3c f03f 5367 0240 eed0 0140
00000050: 8163 2740 1002 e63f 6d6c 9841 61ae 8640
00000060: c9db 4540 35d3 8041 5ef1 4a3f 5023 b93f
00000070: 7672 fd3f de37 c340 239f 3340 a989 623f
00000080: 54ac 1e40 0d5b 4540 d0e5 883f edbf 8240
00000090: 6afd 7a40 a034 6f40 e3b8 ae41 63dc 2a40
000000a0: b77d 8c40 2f04 6740 a4e1 0841 7fd1 8a40
000000b0: d26d 3940 61bd 1b41 b2d4 7f40 30a1 4940
000000c0: c956 2140 263e 8440 9499 f73f 2d40 fc3f
000000d0: 3c1e 323f e40a 2e41 10ef 583f e201 2a3f
000000e0: ae4a 8840 03fe d43f bfc6 4a40 e1f5 d53f
000000f0: a4e0 2440 43af c83e 5d19 ef40 07c5 3e41
00000100: f707 d340 673a 503f 6c0c c73f 7211 0740
00000110: 4828 043f 6585 1440 301a b340 9fdb 6540
00000120: 91a0 6940 ad2a 9240 3e32 1e40 0756 8040
00000130: 06ad 3b40 61e7 5f3f 1a16 0740 308d 2c40
00000140: f08b 233f 28ac a340 29b7 1c40 7ed3 1540
00000150: e1ed fa3f cd35 3c40 1a5f 3c40 ce47 6b40
00000160: f281 3140 551f 2b40 0d3a ea3f bd22 9740
00000170: c79e 893f a81d 8b3f f8a2 c33f 3917 1f40
00000180: 44db 3840 92a8 c040 2728 2040 993f 0f40

linear2.weight f4 [200, 100]
0.054582443 0.12489483 -0.041653167 -0.21869868 0.1680392 -0.102569886 -0.08673102 -0.116075635
0.07834763 -0.019165067 -0.03532965 0.080060914 0.025664737 -0.1277779 -0.2011687 0.0642202
-0.025274111 0.17757529 -0.029917825 0.01606219 0.025269989 0.871608 -0.10753373 0.10035395
-0.111017846 0.12997787 0.09843768 0.09054707 -0.078736894 -0.007803759 0.22833258 -0.035565946
0.09551615 0.17605637 -0.02347083 0.57599497 -0.07775248 -0.0618243 -0.24149586 0.066485345
0.051818438 -0.1728613 0.4341278 0.10412929 -0.037329968 0.009951891 0.002628552 -0.04543739
-0.14583138 0.046573285 0.13107732 -0.2536256 0.034065206 0.30980948 -0.011695013 0.15688446
-0.06598165 -0.005900758 0.11568467 -0.15243314 -0.027248122 -0.18715817 0.1462287 0.17990534
0.1579319 -0.07441142 0.71041626 -0.15715358 0.31181917 0.031963687 -0.0035959438 0.07787498
-0.031696707 0.021053536 0.15715866 -0.01118415 -0.024022028 0.018919172 0.1107682 -0.089333795
-0.046682365 -0.21811496 0.22704369 0.3440885 -0.024018455 0.18172142 0.12112654 0.11309691
-0.034325477 0.15924788 0.046331406 -0.09520756 -0.12452456 -0.120710425 0.052570786 -0.13240172
-0.062483165 0.29941088 0.032201122 0.022373581 -0.10725913 0.14623761 -0.15638772 -0.056714922
-0.08835957 -0.03943408 -0.13708253 -0.20380878 0.47425425 0.38434255 0.024284529 0.03734632
0.089422084 0.104287475 0.0645844 0.10260705 -0.05815515 -0.06043447 0.09641264 0.04628217
-0.019820873 0.23048279 0.18621626 0.16156702 -0.30402672 0.15070587 -0.2676927 0.2874462
-0.13934007 -0.09290901 -0.050867833 -0.12712015 -0.5052962 0.025689224 0.12451174 -0.06419306
0.0469025 -0.022329351 -0.2552546 -0.94072074 -0.048874192 0.017137825 0.106807485 0.13343275
0.10528363 -0.1362904 -0.07413672 0.14092018 -0.11524231 0.16992784 0.17311336 0.2934969
0.28593773 -0.006113862 -0.15805109 -0.0038171795 -0.3876357 -0.078318976 0.052234866 -0.25310165
-0.5612496 -0.4992045 -0.041803636 0.096988946 -0.018350966 0.009034181 -0.0483258 -0.086444564
0.0021245761 -0.13222674 0.019228963 -0.06364256 -0.038992967 0.019519962 -0.068942375 -0.07487173
-0.098854646 0.029030662 -0.18468137 0.13710706 0.07754961 0.3141728 0.12922923 -0.01202226
0.055660773 0.001341137 0.026019424 0.038901806 0.008164049 -0.09918542 -0.10600897 -0.12318205
0.06855308 0.104518235 0.2564554 0.27271593 -0.35273752 0.051167056 0.13171102 0.1486995
-0.23734464 -0.140325 0.04376603 -0.2121656 -0.2734964 -0.06827622 -0.022531563 0.062487096
-0.2617919 -0.23181479 -0.008708885 -0.061299093 0.36839223 -0.25673455 0.0024080817 0.06428044
0.32962698 0.34613964 -0.025635222 0.1551828 -0.34329093 0.11647879 -0.25310642 -0.22283594
-0.005905171 0.18479873 -0.43733317 -0.018238097 -0.12357473 0.021325607 0.2607251 0.16938104
-0.06498595 0.020122796 -0.21655187 -0.05590626 -0.005010377 0.14380935 -0.25576317 -0.040771227
-0.0012597552 -0.14858146 0.49714464 0.04562747 0.006953298 0.17748028 -0.37587634 -0.10626833
0.09025595 0.11866004 -0.040768508 -0.08977283 -0.13251358 0.2208095 -0.03192404 0.13925827
00000000: d791 5f3d dcc8 ff3d 839c 2abd 8cf2 5fbe
00000010: 7812 2c3e 2910 d2bd 08a0 b1bd 10b9 edbd
00000020: b974 a03d 0f00 9dbc d3b5 10bd faf6 a33d
00000030: db3e d23c 36d8 02be 2bff 4dbe e185 833d
00000040: a70b cfbc 4cd6 353e 3a16 f5bc db94 833c
00000050: 0203 cf3c b421 5f3f a53a dcbd 5f86 cd3d
00000060: 535d e3bd eb18 053e b299 c93d be70 b93d
00000070: cf40 a1bd adb6 ffbb 04d0 693e 99ad 11bd
00000080: f99d c33d 1f48 343e e645 c0bc 6874 133f
00000090: b13c 9fbd 7a3b 7dbd b14a 77be 7829 883d
000000a0: 923f 543d 8d02 31be 0046 de3e bd41 d53d
000000b0: 4fe7 18bd 420d 233c c943 2c3b 8f1c 3abd
000000c0: d254 15be a1c3 3e3d 2239 063e 37db 81be
000000d0: f587 0b3d 599f 9e3e 719c 3fbc 52a6 203e
000000e0: 6321 87bd 255b c1bb 16ec ec3d 6f17 1cbe
000000f0: 7437 dfbc 64a6 3fbe fabc 153e 1b39 383e
00000100: e6b8 213e 0465 98bd d7dd 353f deec 20be
00000110: c3a6 9f3e 5bec 023d eda9 6bbb eb7c 9f3d
00000120: 68d4 01bd 7778 ac3c 33ee 203e ba3d 37bc
00000130: d8c9 c4bc 61fc 9a3c 70da e23d a3f4 b6bd
00000140: 0236 3fbd 8759 5fbe 247e 683e 5e2c b03e
00000150: 5ac2 c4bc 2e15 3a3e 3111 f83d 5a9f e73d
00000160: df98 0cbd e011 233e 00c6 3d3d 2efc c2bd
00000170: bc06 ffbd 0737 f7bd 7754 573d 5194 07be
00000180: 59ee 7fbd 624c 993e 53e5 033d cd48 b73c
00000190: adaa dbbd 50bf 153e 1a24 20be e84d 68bd
000001a0: ddf5 b4bd a185 21bd 5d5f 0cbe 40b3 50be
000001b0: 74d1 f23e 8cc8 c43e 59f0 c63c 74f8 183d
000001c0: ed22 b73d ac94 d53d d344 843d a523 d23d
000001d0: 1834 6ebd 238a 77bd fd73 c53d 5f92 3d3d
000001e0: 625f a2bc ae03 6c3e 7aaf 3e3e d371 253e
000001f0: 64a9 9bbe a452 1a3e 040f 89be 262c 933e
00000200: 2aaf 0ebe 1447 bebd ca5a 50bd c92b 02be
00000210: 175b 01bf 3572 d23c 0300 ff3d a777 83bd
00000220: d61c 403d 0bec b6bc bbb0 82be 13d3 70bf
00000230: 4e30 48bd a064 8c3c e2bd da3d 98a2 083e
00000240: f29e d73d b68f 0bbe fed4 97bd 614d 103e
00000250: 2904 ecbd 9001 2e3e a144 313e 3a45 963e
00000260: 6e66 923e cb56 c8bb 25d8 21be a529 7abb
00000270: 3078 c6be b365 a0bd 3af4 553d 8a96 81be
00000280: 0eae 0fbf bb97 ffbe 4a3a 2bbd 24a2 c63d
00000290: c454 96bc 1a04 143c 46f1 45bd d909 b1bd
000002a0: 793c 0b3b 7266 07be 0f86 9d3c 0857 82bd
000002b0: 17b7 1fbd 54e8 9f3c a931 8dbd 5956 99bd
000002c0: 4e74 cabd b6d1 ed3c 1d1d 3dbe cb65 0c3e
000002d0: 54d2 9e3d 42db a03e ab54 043e 03f9 44bc
000002e0: 8dfc 633d 17c9 af3a b026 d53c 8057 1f3d
000002f0: 81c2 053c ba21 cbbd 3b1b d9bd df46 fcbd
00000300: 8f65 8c3d a80d d63d 1f4e 833e 6ca1 8b3e
00000310: 039a b4be 8c94 513d 41df 063e af44 183e
00000320: 790a 73be 5bb1 0fbe 0244 333d f041 59be
00000330: b807 8cbe 67d4 8bbd 1d94 b8bc 78f2 7f3d
00000340: 9709 86be db60 6dbe b6af 0ebc c214 7bbd
00000350: e89d bc3e b672 83be e8d0 1d3b 77a5 833d
00000360: dec4 a83e 3739 b13e f500 d2bc 3de8 1e3e
00000370: d4c3 afbe 6f8c ee3d 2a97 81be 1b2f 64be
00000380: 2a80 c1bb e13b 3d3e 22ea dfbe 1068 95bc
00000390: bf14 fdbd 0ab3 ae3c c37d 853e 3972 2d3e
000003a0: 5b17 85bd 90d8 a43c c6bf 5dbe f6fd 64bd
000003b0: 172e a4bb c242 133e 64f3 82be bbff 26bd
000003c0: 5f1e a5ba bd25 18be be89 fe3e dfe3 3a3d
000003d0: 7ed8 e33b 64bd 353e dd72 c0be 36a3 d9bd
000003e0: 1dd8 b83d 0904 f33d e1fc 26bd d1da b7bd
000003f0: a4b1 07be e31b 623e c8c2 02bd b899 0e3e

linear2.bias f4 [200]
0.1149778 -0.011108624 -0.033231124 -0.08033264 -0.05612884 0.012285603 -0.12579189 0.11416821
0.06861867 -0.007623807 0.24722822 -0.21325323 -0.15584859 -0.020427829 -0.070078835 -0.017752735
-0.13721335 0.104884945 -0.07651091 0.11552117 -0.017068315 -0.056859564 -0.026810637 0.025818482
0.006122473 0.034074962 0.0072504417 0.0060764127 0.020486085 0.06775797 -0.19235982 -0.13275142
0.082368635 -0.110927366 -0.18664178 0.09102018 0.12260059 -0.16012743 0.056663763 0.014242848
0.13120642 0.009667301 0.077481925 0.009031773 -0.047028918 -0.062386412 -0.04427188 -0.03987079
-0.0007692936 -0.08915142 0.090298384 0.053484123 0.07735537 -0.09661727 0.0300598 0.14298144
0.064204715 0.002530697 0.034857467 0.06264753 0.042984094 -0.036793 0.33076984 -0.07882941
0.069284 -0.0036761148 -0.010759996 -0.029009014 -0.06628886 -0.043485682 0.12032329 -0.004340605
0.05376246 0.2260881 -0.1903351 0.013186662 0.018344078 -0.075632595 0.16632631 -0.011744104
-0.13937216 -0.060358427 -0.01057647 0.09144063 0.059942987 -0.026858738 0.15502466 0.028673757
-0.101646274 0.09256848 -0.074195996 -0.057101313 -0.12264051 -0.081941366 -0.12936817 0.11922127
-0.058945373 0.012375832 0.14347936 0.049582094 -0.011029746 0.043409765 -0.055212647 0.07660087
0.06526871 -0.008001188 0.068719365 -0.06716012 0.08934471 -0.14184807 -0.061026745 0.07452997
0.13489182 0.04287452 0.07521928 0.052844778 -0.06037473 0.119875506 -0.028395668 0.031109832
0.05595096 0.030005164 -0.097000316 -0.033486508 -0.10405498 0.0058127316 0.052428514 0.0625442
0.2894675 0.00865951 -0.0926206 0.029530317 0.09323016 -0.14470452 -0.05557142 -0.08631936
-0.15926056 -0.077084735 -0.087463595 0.07292235 0.066543065 0.023970967 0.059082057 0.05167481
0.2782031 -0.0676851 -0.02653091 -0.074884504 -0.038740806 -0.113424 -0.1082053 -0.09036942
0.0062097847 0.060339436 0.06225456 -0.0629807 -0.03817033 -0.04270955 0.104682885 0.02774302
-0.060131438 -0.07007284 -0.05915382 -0.0056735077 -0.06121788 0.0064195306 0.036861386 -0.12922427
0.03977026 -0.08035939 -0.06369523 -0.08577234 0.1317268 0.007123043 -0.11562636 0.06282739
-0.043773588 -0.0150540285 0.0054673115 -0.27294126 -0.13390312 -0.093148544 -0.08171174 -0.11635854
0.06948681 0.3396308 0.09806231 -0.0047604716 0.024601782 0.10459508 -0.07750372 0.077500276
-0.04765219 -0.000118654854 -0.06280157 0.105473764 0.08399211 0.01855886 0.034872733 -0.106196254
00000000: 7b79 eb3d f200 36bc 5c1d 08bd 7085 a4bd
00000010: 5be7 65bd 8e49 493c 97cf 00be 06d1 e93d
00000020: f287 8c3d 21d1 f9bb 6529 7d3e 0e5f 5abe
00000030: c696 1fbe 4358 a7bc 7e85 8fbd 2f6e 91bc
00000040: a881 0cbe ebcd d63d c1b1 9cbd 5d96 ec3d
00000050: dad2 8bbc 93e5 68bd fba1 dbbc 4881 d33c
00000060: 079f c83b 3092 0b3d 1d95 ed3b a51c c73b
00000070: 6fd2 a73c b1c4 8a3d f9f9 44be fdef 07be
00000080: e3b0 a83d e32d e3bd 061f 3fbe ca68 ba3d
00000090: 0516 fb3d 72f8 23be 4318 683d d65a 693c
000000a0: fa5a 063e 9963 1e3c d8ae 9e3d 00fa 133c
000000b0: 65a1 40bd e588 7fbd 6e56 35bd 8e4f 23bd
000000c0: 6baa 49ba 0595 b6bd 5cee b83d 2b12 5b3d
000000d0: 7e6c 9e3d 46df c5bd f83f f63c ba69 123e
000000e0: c37d 833d 0dda 253b b4c6 0e3d 594d 803d
000000f0: 1710 303d 42b4 16bd aa5a a93e 5071 a1bd
00000100: c5e4 8d3d f9ea 70bb b24a 30bc 50a4 edbc
00000110: 74c2 87bd 0b1e 32bd 0f6c f63d a23b 8ebb
00000120: 0636 5c3d a483 673e 34e7 42be df0c 583c
00000130: 5246 963c 43e5 9abd 7251 2a3e 586a 40bc
00000140: 93b7 0ebe 663a 77bd ee48 2dbc 3a45 bb3d
00000150: c786 753d db06 dcbc c9be 1e3e 3ae5 ea3c
00000160: ec2b d0bd 8b94 bd3d 12f4 97bd 11e3 69bd
00000170: f32a fbbd e0d0 a7bd 1779 04be 482a f43d
00000180: b470 71bd 00c4 4a3c 41ec 123e 9816 4b3d
00000190: 1cb6 34bc 70ce 313d a826 62bd ebe0 9c3d
000001a0: 9aab 853d 6a17 03bc bdbc 8c3d 3f8b 89bd
000001b0: 5cfa b63d 9f40 11be 2ef7 79bd 2ba3 983d
000001c0: 1521 0a3e 319d 2f3d 910c 9a3d c473 583d
000001d0: 7e4b 77bd 4a81 f53d 089e e8bc 0cda fe3c
000001e0: d52c 653d 64cd f53c 1aa8 c6bd 2629 09bd
000001f0: c71a d5bd ba78 be3b 48bf 563d 2c17 803d
00000200: 1635 943e 9ee0 0d3c deaf bdbd 90e9 f13c
00000210: 74ef be3d 6c2d 14be db9e 63bd 34c8 b0bd
00000220: 3315 23be 9ade 9dbd 1d20 b3bd 5058 953d
00000230: bb47 883d c35e c43c 0700 723d f7a8 533d
00000240: a370 8e3e 7c9e 8abd 5a57 d9bc 0c5d 99bd
00000250: aeae 1ebd d84a e8bd be9a ddbd 9a13 b9bd
00000260: 737b cb3b 7c26 773d a3fe 7e3d 06fc 80bd
00000270: 7e58 1cbd 36f0 2ebd fb63 d63d 5445 e33c
00000280: 624c 76bd 5982 8fbd 474b 72bd d5e8 b9bb
00000290: 9abf 7abd ed5a d23b f7fb 163d 5e53 04be
000002a0: 24e6 223d 7793 a4bd a572 82bd 69a9 afbd
000002b0: 64e3 063e 6a68 e93b 83cd ecbd a6ab 803d
000002c0: ef4b 33bd 2ca5 76bc 2227 b33b f5be 8bbe
000002d0: e61d 09be aac4 bebd 7c58 a7bd 634d eebd
000002e0: 1a4f 8e3d 17e4 ad3e e4d4 c83d bbfd 9bbb
000002f0: ad89 c93c f235 d63d 45ba 9ebd 77b8 9e3d
00000300: f12e 43bd 57d6 f8b8 1c9e 80bd a102 d83d
00000310: 0e04 ac3d c008 983c b6d6 0e3d 6c7d d9bd

bn2.weight f4 [200]
0.28822097 0.41499215 0.41601357 0.8779431 0.60894036 0.59725296 1.1293362 1.2632315
0.45106643 1.1000923 0.5726824 0.5192021 0.5562349 0.42667347 0.41860873 0.5647481
0.48231557 0.7556156 0.61453485 0.20020533 0.4391023 0.5425715 0.8703636 0.34823513
0.45246103 0.825955 0.24575546 0.9705618 0.45807603 0.47347912 0.8022619 0.2908699
0.41732904 1.0445606 0.43918148 0.40481675 0.91832054 0.79917896 0.89093393 0.6806484
0.88930583 0.3085275 0.72917855 0.30327573 0.3676551 0.4552636 0.37604594 0.82446676
0.47026634 0.25184107 0.46524957 1.0421396 0.5605257 0.5019191 0.34897518 0.37558153
0.6328685 0.5897329 0.90356946 0.5191545 0.9266748 0.4286127 1.0045259 0.55468345
1.3388696 0.41351148 0.24422401 0.24722625 0.23379533 0.76347244 0.18839635 0.7307392
0.37966204 0.94929445 0.4416712 0.26818067 0.5002554 0.75847876 1.2230136 0.36329156
0.61202794 0.79423696 0.3189925 0.5669593 0.6927301 0.42525488 1.3333735 0.4047771
0.5880366 0.9956113 0.3912734 0.5864352 0.8198165 0.5530002 0.5106526 0.7489977
0.31126586 0.3510681 0.38227943 0.4705773 0.944042 0.49574706 0.37278882 1.130112
0.27199417 0.8532993 1.1535228 0.3719103 0.38125435 0.7332086 1.1253233 0.46810368
0.24987124 0.30659556 1.0039997 0.77644056 0.28066355 0.51826847 0.58696914 0.26570234
0.58458453 0.96108675 0.79645437 0.27431574 0.9954677 0.272597 0.46755126 0.22604258
1.3512119 0.698184 0.806426 0.29666355 0.9126485 0.35546622 0.6914432 1.0877925
0.5029527 1.0915599 0.7044145 0.78944975 0.34968922 0.2969158 0.6104527 0.35391328
0.62844807 1.1176791 0.4412016 0.5237772 1.3501754 0.2655244 0.16507852 0.2901562
0.42265284 0.32345003 0.9175675 0.83648753 0.7668205 0.54467916 0.42183438 0.26731798
0.8918742 1.2404358 0.6219116 0.31985405 0.76375437 0.8377067 0.25655153 0.2106395
0.92376935 0.72704417 0.45142794 0.45952636 0.551505 0.30295268 0.23641364 0.25719172
0.3205518 0.38137287 0.96319383 1.071116 0.34954324 0.48277766 0.48786515 0.79655766
0.32595015 0.74592793 0.76024485 0.5148755 0.6482559 1.0143325 0.9926692 0.4041732
0.5677463 0.5111595 0.55387926 1.0855039 0.5601064 0.6955338 0.33896837 0.2775742
00000000: b391 933e da79 d43e bbff d43e e1c0 603f
00000010: 84e3 1b3f 92e5 183f 178e 903f 92b1 a13f
00000020: 2ef2 e63e d3cf 8c3f 509b 123f 6eea 043f
00000030: 6965 0e3f f274 da3e e253 d63e 5593 103f
00000040: 11f2 f63e 0670 413f 2852 1d3f a002 4d3e
00000050: 04d2 e03e f7e5 0a3f 26d0 5e3f e04b b23e
00000060: f9a8 e73e c971 533f 52a7 7b3e bd76 783f
00000070: f188 ea3e db6b f23e 0961 4d3f e6ec 943e
00000080: 27ac d53e 29b4 853f 65dc e03e 2444 cf3e
00000090: 0e17 6b3f fe96 4c3f 3f14 643f f93e 2e3f
000000a0: 8ca9 633f 51f7 9d3e 72ab 3a3f f546 9b3e
000000b0: 4a3d bc3e 5018 e93e 1889 c03e 4110 533f
000000c0: c0c6 f03e 50f1 803e 3135 ee3e d564 853f
000000d0: 9d7e 0f3f c57d 003f e0ac b23e 394c c03e
000000e0: ac03 223f bcf8 163f 5450 673f 4fe7 043f
000000f0: 8f3a 6d3f 2073 db3e 4e94 803f bcff 0d3f
00000100: 1460 ab3f c7b7 d33e dc15 7a3e e128 7d3e
00000110: 0b68 6f3e ee72 433f f9ea 403e b911 3b3f
00000120: 1063 c23e f604 733f ba22 e23e fa4e 893e
00000130: bd10 003f aa2b 423f b68b 9c3f 5a01 ba3e
00000140: ddad 1c3f 1d53 4b3f fc52 a33e 3f24 113f
00000150: c356 313f 02bb d93e fcab aa3f f23e cf3e
00000160: 9189 163f 62e0 7e3f fd54 c83e 9e20 163f
00000170: 7fdf 513f 6c91 0d3f 21ba 023f 50be 3f3f
00000180: 3d5e 9f3e 33bf b33e 21ba c33e 82ef f03e
00000190: bdac 713f 8fd2 fd3e 2dde be3e 83a7 903f
000001a0: d242 8b3e d371 5a3f a3a6 933f 076b be3e
000001b0: c533 c33e 8fb3 3b3f 980a 903f 49ab ef3e
000001c0: 3fde 7f3e 18fa 9c3e 1083 803f cfc4 463f
000001d0: 22b3 8f3e 3ead 043f 9c43 163f 230a 883e
000001e0: 55a7 153f c809 763f 6fe4 4b3f 1d73 8c3e
000001f0: f9d6 7e3f d591 8b3e e162 ef3e b577 673e
00000200: 83f4 ac3f 30bc 323f ef71 4e3f 49e4 973e
00000210: 55a3 693f abff b53e 6c02 313f c93c 8b3f
00000220: 82c1 003f 3cb8 8b3f 8254 343f 6119 4a3f
00000230: 770a b33e 5905 983e a146 1c3f 1f34 b53e
00000240: f9e1 203f 1c10 8f3f 2de5 e13e 4316 063f
00000250: 8cd2 ac3f d0f2 873e 580a 293e 5a8f 943e
00000260: f465 d83e 3e9b a53e b4e5 6a3f 0c24 563f
00000270: 594e 443f 1870 0b3f adfa d73e e7dd 883e
00000280: de51 643f 9ac6 9e3f 9935 1f3f e9c3 a33e
00000290: 6885 433f f273 563f b95a 833e e2b1 573e
000002a0: 267c 6c3f 911f 3a3f 9021 e73e 0a47 eb3e
000002b0: 6f2f 0d3f 9d1c 9b3e 6b16 723e a2ae 833e
000002c0: 5e1f a43e 4e43 c33e df93 763f 541a 893f
000002d0: 55f7 b23e a22e f73e 76c9 f93e 34eb 4b3f
000002e0: f0e2 a63e 22f5 3e3f 689f 423f e1ce 033f
000002f0: 19f4 253f a6d5 813f 921f 7e3f caef ce3e
00000300: d257 113f 59db 023f 08cb 0d3f cbf1 8a3f
00000310: 2263 0f3f 810e 323f 438d ad3e 351e 8e3e

bn2.bias f4 [200]
0.21315786 0.23019947 0.18093228 -1.6242105 -0.081767075 -0.045895103 -0.39681044 -0.8388996
-0.09090488 -1.1118772 -0.45120898 0.17820308 -0.1596226 0.1378711 0.15229227 0.1809294
-0.32990083 -1.2531005 -0.34021005 0.075929806 0.031403076 0.01815531 0.5933518 0.03785866
0.6310611 -0.58016354 0.083537325 -0.73937124 0.049029812 0.5372009 0.066384576 -0.09214131
-0.30417264 -0.63685995 0.5929329 0.015716646 -0.15996674 0.06332467 -0.2818397 -0.7304032
-0.886225 0.3423481 -0.035809275 0.12535024 0.16172832 0.22876503 0.42936027 -1.0227686
-0.3082462 0.9455885 0.2044358 -0.09609578 0.018161694 -0.22307132 -0.18473722 0.20484944
0.4558864 -0.76492923 -1.1949611 -0.3434324 -0.75543046 -0.13428967 -1.1203314 -0.1304885
-0.43665737 -0.113724664 0.04366839 0.4931543 -0.029796887 -0.6370816 0.0014780402 -0.4360568
-0.19326028 -1.2012737 0.5146609 0.3254827 -0.00012222218 -1.3266132 -0.4470307 -0.17391665
-0.11981632 -1.4260877 0.04043535 -0.8987292 -0.20860468 -0.21702515 -0.9484323 0.17874849
-0.13591857 -0.90430015 -0.1617212 -0.26833007 -0.86635995 -0.23493429 -0.29354703 -0.23856166
0.09190003 0.08214488 0.3484188 -0.33747646 -0.78675324 -0.11256126 0.11982639 -0.58498365
-0.058596827 -0.69892997 1.075793 -0.34933165 0.26393268 -0.49413198 -0.2863067 0.2558614
0.22481963 0.42104337 -0.6519146 -0.28929707 -0.011383754 -0.44824567 0.97790587 0.0738104
0.32826743 -1.1848285 -0.013747561 0.04302409 -1.1302834 0.21696408 -0.41396606 -0.020409035
-1.1248647 -0.049153276 -1.5707461 0.052688356 -0.9539594 -0.11994692 -0.00087254384 -0.30627748
0.1481758 -0.8715651 -0.7040363 -1.4851258 -0.020435689 -0.0025018346 -0.37009802 -0.20944531
0.68124825 -1.1240909 0.19335622 0.48847303 -0.7206349 -0.075697616 0.2101681 0.20218332
-0.034870476 0.2631076 -1.1789478 -0.44840473 -0.3689465 -0.16130683 0.7642309 0.12459833
0.0012004174 -0.33318573 -0.3148799 0.24051724 -0.26373333 -1.2495363 -0.0171733 -0.00056839973
0.6318352 -0.27885944 0.09326276 0.08140208 0.10858078 -0.16188942 0.021880725 1.4064053
1.7000898 -0.26689115 -0.9276316 -0.4723705 0.097137146 -0.086277984 0.14443357 -0.65593016
-0.042784106 -1.4791752 0.024450587 0.7038769 -0.6781598 -0.8748638 -0.73143953 0.38679585
-0.1651153 0.5548258 -0.46253574 -1.1432458 0.072871104 -0.50586504 0.10579501 0.09038468
00000000: 0e46 5a3e 69b9 6b3e 5046 393e 21e6 cfbf
00000010: 7f75 a7bd 81fc 3bbd bd2a cbbe 20c2 56bf
00000020: 562c babd fe51 8ebf dd04 e7be de7a 363e
00000030: 1b74 23be 152e 0d3e 81f2 1b3e 8e45 393e
00000040: c3e8 a8be 9965 a0bf 0330 aebe 1681 9b3d
00000050: 83a0 003d 72ba 943c e7e5 173f af11 1b3d
00000060: 388d 213f 9985 14bf 9e15 ab3d 6f47 3dbf
00000070: 7cd3 483d 0086 093f a3f4 873d 95b4 bcbd
00000080: 84bc 9bbe 4109 23bf 73ca 173f 32c0 803c
00000090: 52ce 23be 5db0 813d 4b4d 90be b4fb 3abf
000000a0: a4df 62bf 4048 af3e bfac 12bd d05b 003e
000000b0: 1c9c 253e 6141 6a3e 1cd5 db3e 15ea 82bf
000000c0: 72d2 9dbe 1712 723f 9e57 513e ddcd c4bd
000000d0: d5c7 943c cf6c 64be c12b 3dbe 0dc4 513e
000000e0: f169 e93e 67d2 43bf 7cf4 98bf 5fd6 afbe
000000f0: e463 41bf 3b83 09be 0567 8fbf c79e 05be
00000100: 8e91 dfbe 7ae8 e8bd a0dd 323d b87e fc3e
00000110: 9a18 f4bc c817 23bf cdba c13a d642 dfbe
00000120: 06e6 45be 56c3 99bf d1c0 033f aba5 a63e
00000130: c428 00b9 76ce a9bf 35e1 e4be 3517 32be
00000140: 4262 f5bd 0b8a b6bf 8a9f 253d 1e13 66bf
00000150: 779c 55be d73b 5ebe 76cc 72bf d809 373e
00000160: 3d2e 0bbe 3780 67bf 3e9a 25be 8f62 89be
00000170: c4c9 5dbf 9d92 70be cc4b 96be 8249 74be
00000180: 1536 bc3d 933b a83d f363 b23e b7c9 acbe
00000190: a968 49bf 8586 e6bd 8a67 f53d 7dc1 15bf
000001a0: 3a03 70bd 13ed 32bf 96b3 893f 99db b2be
000001b0: 2f22 873e defe fcbe cb96 92be 4400 833e
000001c0: 1e37 663e ff92 d73e e0e3 26bf bf1e 94be
000001d0: ed82 3abc 7580 e5be 0a58 7a3f e829 973d
000001e0: ab12 a83e 76a8 97bf 733d 61bc 073a 303d
000001f0: 20ad 90bf d52b 5e3e 5cf3 d3be d930 a7bc
00000200: 91fb 8fbf f254 49bd 350e c9bf bfcf 573d
00000210: af36 74bf bba6 f5bd 6dbb 64ba 67d0 9cbe
00000220: 66bb 173e e41e 5fbf b93b 34bf 9a18 bebf
00000230: bf68 a7bc d2f5 23bb 7d7d bdbe d578 56be
00000240: 4966 2e3f 36e2 8fbf 2cff 453e 2319 fa3e
00000250: 877b 38bf 5a07 9bbd 4e36 573e 2509 4f3e
00000260: 58d4 0ebd 0ab6 863e c3e7 96bf 4e95 e5be
00000270: 8ee6 bcbe 9e2d 25be a3a4 433f 692d ff3d
00000280: 5357 9d3a 5297 aabe f037 a1be 274a 763e
00000290: 0e08 87be cef0 9fbf 05af 8cbc a900 15ba
000002a0: f4bf 213f aac6 8ebe 8c00 bf3d 22b6 a63d
000002b0: 9a5f de3d 57c6 25be 353f b33c 1705 b43f
000002c0: 8b9c d93f f5a5 88be 4479 6dbf 8cda f1be
000002d0: d7ef c63d 83b2 b0bd 65e6 133e 0aeb 27bf
000002e0: 633e 2fbd 9d55 bdbf 994c c83c 4731 343f
000002f0: e19b 2dbf 13f7 5fbf 9f3f 3bbf 1b0a c63e
00000300: fc13 29be 1009 0e3f 7cd1 ecbe e155 92bf
00000310: 723d 953d 5f80 01bf 0eab d83d 9a1b b93d

bn2.running_mean f4 [200]
2.2885358 -0.2016346 0.28199834 1.7981209 2.1123514 -2.4619756 -2.1559002 0.7063201
-0.1319004 0.53036606 1.2684618 -2.2320125 -1.6485938 0.5429892 -0.44005388 -0.11759294
-0.9689708 1.4672345 -1.4030665 0.0027354988 -0.19086799 -1.6449671 -2.3053463 0.37606612
-0.090961024 -0.8307244 0.3506128 0.07196976 0.8253666 -1.0545602 -1.461935 -0.05244555
-1.8590413 0.60011196 -1.0408489 -1.6483299 0.11922497 -0.26980904 1.0124568 2.100903
1.0527823 0.032286793 2.2816813 1.2862176 0.5652541 -0.7818307 -1.3580388 -1.2495596
0.5877644 -0.80704755 0.1997345 -1.010459 -1.2437831 -0.20539802 -1.395023 1.309117
-0.37220043 0.9114905 1.3657591 -0.37022343 -1.8994515 1.0515132 2.3832748 -1.6968278
1.2044629 -0.95070535 0.27798665 0.53611636 -1.866904 1.0221175 -0.15870205 -1.258502
0.2903801 1.60482 -2.0090442 -0.5763452 0.6500096 1.6119859 0.34490687 0.42041776
2.1972144 0.2116896 0.081945345 1.0352068 -0.3061947 -0.98943 -1.4674686 1.0673573
-0.5329928 -0.51693875 -0.5205834 -1.523138 -0.41768909 -0.32090622 0.19207592 0.74702847
-0.100385025 -1.7053508 -0.89917856 0.04248835 0.273429 0.3061033 -0.53856367 -1.0406436
0.5020415 1.6023663 -1.1855917 -0.060942784 0.13422883 0.4260312 -1.9616729 0.09175903
0.7950525 -0.06259976 2.1175418 0.2619326 1.7677995 -0.7402622 -0.2748655 -0.67639977
1.1730437 -0.7446118 0.08255096 -0.36804947 -1.4648341 1.0196028 -1.3900368 -0.58420837
-0.8300326 -0.4520772 1.7064776 2.3179135 -0.76026106 -0.8492761 0.5315224 2.0059085
-1.7225083 -1.5089227 1.7137423 1.3231906 0.23684229 -2.2429178 -1.4399893 -0.032037508
0.04726454 0.31151396 1.0308424 -0.5234461 0.12081867 0.22851294 -0.2679275 -1.1172496
0.1169829 0.3218717 1.4089855 -2.1025076 -0.98052526 0.23623422 0.22926095 -0.30347422
-1.4900068 -1.6626669 1.3634211 2.0502534 0.23447974 0.6914868 -0.017041398 -0.046679724
-2.1200874 -1.2889229 -2.702393 0.27884528 0.20007446 0.15321009 0.17327349 0.7218819
1.1525997 -0.33545583 1.7652886 2.480837 -0.30472967 -0.8952876 -1.0884933 -0.050221637
-0.6097126 1.266544 1.303385 -1.108671 0.99539524 -0.8735137 -0.07893831 0.7753861
-0.859206 -0.012914657 0.5250268 -1.2217433 -1.2119735 0.6645916 0.8339543 1.1188835
00000000: 5f77 1240 4d79 4ebe 1662 903e d328 e63f
00000010: c430 0740 0291 1dc0 45fa 09c0 65d1 343f
00000020: e610 07be 12c6 073f f55c a23f 4bd9 0ec0
00000030: 1f05 d3bf 5701 0b3f be4e e1be 91d4 f0bd
00000040: 780e 78bf 57ce bb3f af97 b3bf 0e46 333b
00000050: e672 43be 488e d2bf cb8a 13c0 bd8b c03e
00000060: c649 babd 5baa 54bf 8583 b33e e264 933d
00000070: 3a4b 533f d4fb 86bf b020 bbbf 25d1 56bd
00000080: 11f5 edbf f0a0 193f 893a 85bf 79fc d2bf
00000090: 392c f43d 6924 8abe 2f98 813f 3275 0640
000000a0: 92c1 863f 283f 043d 1107 1240 c7a2 a43f
000000b0: 7eb4 103f 0f26 48bf 37d4 adbf 92f1 9fbf
000000c0: ba77 163f ab9a 4ebf 3387 4c3e b856 81bf
000000d0: 4934 9fbf dc53 52be 1d90 b2bf 2591 a73f
000000e0: 0e91 bebe 7157 693f 32d1 ae3f ed8d bdbe
000000f0: 3a21 f3bf fc97 863f 9387 1840 a731 d9bf
00000100: d72b 9a3f 6d61 73bf 4454 8e3e ec3e 093f
00000110: b6f6 eebf bfd4 823f ca82 22be 9816 a1bf
00000120: b3ac 943e be6a cd3f 2e94 00c0 5c8b 13bf
00000130: 0767 263f 8e55 ce3f a297 b03e ff40 d73e
00000140: 299f 0c40 29c5 583e f6d2 a73d a881 843f
00000150: 8dc5 9cbe 494b 7dbf 03d6 bbbf 2a9f 883f
00000160: 3772 08bf 1956 04bf f444 05bf 30f6 c2bf
00000170: 58db d5be d24d a4be 8daf 443e 423d 3f3f
00000180: aa96 cdbd ef48 dabf 9130 66bf 4408 2e3d
00000190: e3fe 8b3e 92b9 9c3e 4fdf 09bf cf33 85bf
000001a0: cb85 003f 571a cd3f 78c1 97bf 249f 79bd
000001b0: 4873 093e c320 da3e 1918 fbbf 29ec bb3d
000001c0: 9088 4b3f 4e34 80bd ce85 0740 081c 863e
000001d0: 4147 e23f d381 3dbf 2cbb 8cbe 8928 2dbf
000001e0: 4c26 963f e19e 3ebf 7a10 a93d fb70 bcbe
000001f0: af7f bbbf 5882 823f baec b1bf ae8e 15bf
00000200: 047d 54bf aa76 e7be dc6d da3f b258 1440
00000210: 78a0 42bf 296a 59bf da11 083f ce60 0040
00000220: 277b dcbf 6124 c1bf e85b db3f 4f5e a93f
00000230: c986 723e f78b 0fc0 9251 b8bf c339 03bd
00000240: 7698 413d c27e 9f3e a5f2 833f 9000 06bf
00000250: c76f f73d 4cff 693e cb2d 89be 0902 8fbf
00000260: bb94 ef3d 5ecc a43e a359 b43f 7c8f 06c0
00000270: b403 7bbf 62e7 713e 62c3 6a3e f960 9bbe
00000280: 8bb8 bebf 45d2 d4bf 9584 ae3f 5a37 0340
00000290: 751b 703e 4705 313f 679a 8bbc 3d33 3fbd
000002a0: 83af 07c0 6dfb a4bf 02f4 2cc0 cfc4 8e3e
000002b0: 52e0 4c3e 1be3 1c3e 9b6e 313e 41cd 383f
000002c0: 6388 933f dec0 abbe faf4 e13f 09c6 1e40
000002d0: 8705 9cbe 9131 65bf c053 8bbf 34b5 4dbd
000002e0: 2016 1cbf 1d1e a23f 52d5 a63f eee8 8dbf
000002f0: 39d2 7e3f 989e 5fbf 69aa a1bd b47f 463f
00000300: edf4 5bbf ff97 53bc 2868 063f 1662 9cbf
00000310: f321 9bbf ad22 2a3f 077e 553f 9337 8f3f

bn2.running_var f4 [200]
0.3979437 0.5822569 0.6839297 0.6313698 0.9153703 0.98388904 1.3296943 0.59852445
0.2718464 0.44020307 0.8026303 0.88179064 0.6993394 0.53140557 0.56540316 0.6409957
0.3493402 1.0920814 0.42351776 0.36298755 0.8175906 1.4918091 1.0164533 0.2398186
1.7038904 3.7055902 0.29632762 1.4623245 0.5495046 1.1662327 0.3952726 0.5037653
0.3485074 1.2444227 0.6491514 0.6243031 1.9280874 1.0126456 0.8467229 0.9628316
0.9818461 0.24810864 1.2486249 0.48084882 0.83614826 0.68119264 1.4345176 0.85787314
0.7480451 0.38305435 0.64186555 1.8952109 2.5387897 0.2547962 0.32427663 1.280088
0.35221672 0.9243757 0.438198 0.77777284 0.95783114 0.27485108 0.66539156 0.4311321
1.3259164 0.26132217 0.3669457 0.26556268 0.22421186 0.67565995 0.17599168 1.0311991
0.508327 0.4069106 0.63590443 0.46548653 1.202311 0.7144287 0.23828107 0.29347822
1.0955337 0.3242118 0.3964418 0.19581912 0.7284102 0.36303097 0.7442657 1.0796399
0.6693066 0.80150723 0.45931378 0.5408785 0.5232144 0.52541167 0.3524976 1.0944182
0.7359298 0.851895 1.1707699 0.71190035 0.24098136 0.56902367 0.462964 0.088308
0.36415803 0.8978042 1.6019061 0.37585825 0.35546303 0.31539837 2.2751136 0.5338178
0.3576001 0.31436646 1.9371725 0.43091553 0.42295995 0.3985407 0.69372106 0.5582801
0.5798038 0.7836166 2.4680943 0.2321619 0.7320729 0.3425069 0.4633337 0.23112562
0.8028729 2.801196 0.4082817 0.48811537 1.5848112 0.2413808 1.2174585 2.5847006
0.93847305 0.6247761 0.8232142 0.3393671 0.43179673 0.63094914 0.39638284 0.7268778
1.2121463 0.32971236 0.88983434 0.79509574 2.2465014 0.31327924 0.20894432 0.35800883
0.19229601 0.42365777 0.61618507 0.8008371 0.97784966 1.26933 0.4227089 0.36840495
2.968204 2.11919 0.9676353 0.8110978 0.718307 0.40576652 0.6436373 0.18790038
0.97991264 1.4739971 0.74091506 0.6521191 0.44285485 0.39515913 0.26927006 0.2379747
0.49201652 0.41239697 1.4547427 3.3797264 0.72162616 0.61832106 1.7170566 0.72084844
0.30267596 0.55390716 1.1375654 0.8683093 0.27070388 0.3979456 1.7547983 1.1623515
1.2813547 0.5188485 0.31567475 0.68179023 0.47678146 0.9523033 0.40139127 0.27978104
00000000: 47bf cb3e ca0e 153f 0416 2f3f 74a1 213f
00000010: b555 6a3f 27e0 7b3f 6c33 aa3f e638 193f
00000020: 742f 8b3e 4c62 e13e 2e79 4d3f 08bd 613f
00000030: e807 333f 320a 083f 43be 103f 4b18 243f
00000040: b8dc b23e 53c9 8b3f 52d7 d83e 81d9 b93e
00000050: 9e4d 513f 9af3 be3f 241b 823f 0293 753e
00000060: 1519 da3f 6428 6d40 41b8 973e 732d bb3f
00000070: 55ac 0c3f 1d47 953f 2c61 ca3e c3f6 003f
00000080: 906f b23e 3e49 9f3f c92e 263f 54d2 1f3f
00000090: 91cb f63f 5f9e 813f d5c2 583f 227c 763f
000000a0: 445a 7b3f 3110 7e3e f1d2 9f3f d131 f63e
000000b0: d00d 563f a462 2e3f 469e b73f 939d 5b3f
000000c0: e27f 3f3f b31f c43e 4d51 243f 4596 f23f
000000d0: 887b 2240 a674 823e 9607 a63e ecd9 a33f
000000e0: c055 b43e e3a3 6c3f 7d5b e03e 1f1c 473f
000000f0: 6c34 753f 48b9 8c3e 1a57 2a3f 59bd dc3e
00000100: a1b7 a93f 05cc 853e 4fe0 bb3e d5f7 873e
00000110: cb97 653e 0df8 2c3f 2a37 343e 55fe 833f
00000120: b821 023f 9656 d03e a2ca 223f 4054 ee3e
00000130: 54e5 993f cde4 363f f4ff 733e c742 963e
00000140: 733a 8c3f 17ff a53e 6bfa ca3e cf84 483e
00000150: 1779 3a3f 32df b93e 3288 3e3f a431 8a3f
00000160: ad57 2b3f 942f 4d3f 2d2b eb3e 0377 0a3f
00000170: 61f1 053f 6181 063f 917a b43e e515 8c3f
00000180: e565 3c3f ca15 5a3f cadb 953f 1a3f 363f
00000190: d1c3 763e 89ab 113f 9e09 ed3e d3da b43d
000001a0: ec72 ba3e 7fd6 653f 420b cd3f 7e70 c03e
000001b0: 40ff b53e e57b a13e 769b 1140 49a8 083f
000001c0: 5c17 b73e a4f4 a03e 45f5 f73f f6a0 dc3e
000001d0: 358e d83e 870d cc3e b497 313f 72eb 0e3f
000001e0: 066e 143f 199b 483f 42f5 1d40 d9bb 6d3e
000001f0: 2169 3b3f 105d af3e 133a ed3e 32ac 6c3e
00000200: 1489 4d3f cc46 3340 4d0a d13e 42ea f93e
00000210: 18db ca3f 872c 773e aed5 9b3f bc6b 2540
00000220: c53f 703f 54f1 1f3f 2abe 523f 86c1 ad3e
00000230: 7614 dd3e e285 213f b1f2 ca3e aa14 3a3f
00000240: 9c27 9b3f 0fd0 a83e 2fcc 633f 658b 4b3f
00000250: aec6 0f40 2366 a03e 80f5 553e ef4c b73e
00000260: 3fe9 443e ace9 d83e 4ebe 1d3f a903 4d3f
00000270: 5b54 7a3f 6879 a23f 4d6d d83e 939f bc3e
00000280: 0ef7 3d40 cfa0 0740 f2b6 773f 1ba4 4f3f
00000290: f8e2 373f a1c0 cf3e 6ac5 243f f568 403e
000002a0: 8edb 7a3f f0ab bc3f 9cac 3d3f 47f1 263f
000002b0: dfbd e23e 4c52 ca3e c4dd 893e a4af 733e
000002c0: 97e9 fb3e b225 d33e 0235 ba3f 704d 5840
000002d0: 7ebc 383f 4a4a 1e3f 83c8 db3f 8689 383f
000002e0: 58f8 9a3e dccc 0d3f be9b 913f 8549 5e3f
000002f0: b399 8a3e 87bf cb3e 3b9d e03f efc7 943f
00000300: 6e03 a43f 41d3 043f 1fa0 a13e ce89 2e3f
00000310: b31c f43e 26ca 733f 2883 cd3e 763f 8f3e
