artifacts/dynaPhysics/120_walkerDynamics.pt (torch, 191930 bytes, 20 tensors)

linear1.weight f4 [100, 24]
0	0x3f177194	0.5915768
1	0x3e979cb1	0.29611734
2	0xbe5e7286	-0.21723375
3	0x3e9082b1	0.2822471
4	0x3d965145	0.0733972
5	0xbe8fcce7	-0.28086016
6	0xbdc4a089	-0.09600932
7	0xbca0e498	-0.019640252
8	0xbda6c360	-0.081427336
9	0x3b1c6c24	0.0023868168
10	0x3e15d939	0.14633645
11	0x3bab4dad	0.0052277655
12	0xbdd3c4a6	-0.10340242
13	0xbd9ecf68	-0.07754403
14	0x3d417adb	0.047236305
15	0x3dc1e07f	0.09466647
16	0x3d1f76b8	0.03893158
17	0x3b852842	0.004063637
18	0x3e4fdca1	0.20299007
19	0xbeba047a	-0.3633154
20	0x3f7c5c86	0.9857868
21	0xbe00f5fd	-0.12593837
22	0x3f29ef7d	0.66381055
23	0xbdb7ecc7	-0.089807086
24	0x400e3191	2.2217753
25	0x3d61a489	0.055088554
26	0x3d07792f	0.033074554
27	0xbe893f5b	-0.2680615
28	0xbda3add8	-0.079921424
29	0xbbf300d3	-0.0074158697
30	0xbc934151	-0.017975481
31	0x3d9d481d	0.0767977
32	0x3c8cbda5	0.017180273
33	0x3e87bfaa	0.26513416
34	0x3cf0610e	0.029343154
35	0x3c7a9260	0.015293688
36	0x3c511428	0.012761153
37	0x3bf315cb	0.0074183694
38	0x3a032acd	0.0005003631
39	0x3c341df8	0.010993473
40	0x3c0441c5	0.008072321
41	0x3b8437fd	0.0040349946
42	0x3ea657ab	0.3248876
43	0xbd350499	-0.044193838
44	0x3cfdd12b	0.030983528
45	0x3ec15b04	0.37764752
46	0xbdaa3396	-0.083106205
47	0x3b507870	0.0031810068
48	0x3e58c92c	0.21170491
49	0x3d0b0f65	0.03395023
50	0x3e086be8	0.13322413
51	0xbe27e9c4	-0.16397768
52	0xbd6a3481	-0.057178978
53	0x3ca762a4	0.020432778
54	0x3e850274	0.25978434
55	0x3f2174a8	0.6306863
56	0xbfa1d03a	-1.2641671
57	0x3c093b64	0.008375976
58	0xbd46724c	-0.048448846
59	0xbdc6b88b	-0.097031675
60	0x3c38c651	0.011277751
61	0x3bf79211	0.0075552543
62	0xbb3a6cf8	-0.0028446298
63	0x3d85155f	0.06498217
64	0x3d2bb4b8	0.041920394
65	0xbcd09558	-0.025461838
66	0x3cf474e5	0.029840896
67	0xbcb0d4ae	-0.021585789
68	0xbc6c88f6	-0.014436951
69	0x3e03316a	0.12811819
70	0x3dde84af	0.10865151
71	0xbf09b29d	-0.5378817
72	0xc01cd301	-2.4503787
73	0x3e0d0306	0.13770685
74	0x3d531bf9	0.05154035
75	0xbb94147f	-0.004519045
76	0x3da90ca9	0.08254368
77	0xbaeffdfb	-0.0018309945
78	0xbea371af	-0.3192267
79	0xbc9b1f02	-0.018935684
80	0xbd8f4559	-0.06995649
81	0x3f321263	0.69559306
82	0x3ea41a02	0.32051092
83	0x3eb41649	0.35173252
84	0xbdbd9a36	-0.09257929
85	0xbccece06	-0.025244724
86	0x3b1ef7f1	0.0024256671
87	0xbdbf3bcc	-0.09337577
88	0xbcc03546	-0.023462903
89	0xbb835ea4	-0.004009085
90	0x3d777354	0.06041272
91	0xbdd8ff3d	-0.10595558
92	0x3d1a770b	0.037711184
93	0x3de858d4	0.113450676
94	0x3bc669c8	0.0060550906
95	0x3d1ea48f	0.038731154
96	0x3dbafba9	0.091300316
97	0x3d7601f7	0.060060468
98	0x3d800375	0.062506594
99	0xbf5402b9	-0.82816654
100	0x3fe88e14	1.8168359
101	0x3e5c6dbe	0.21526238
102	0xbe178305	-0.14796074
103	0x399f1789	0.00030344378
104	0x3d0d3b75	0.03448053
105	0x3c8b23f4	0.016984917
106	0xbc849acd	-0.016187096
107	0xbd359a0c	-0.044336364
108	0x3cb8dc17	0.022565885
109	0x3d39fa79	0.045404885
110	0x3c33c68b	0.010972629
111	0xbc011176	-0.007877698
112	0xbbda43d0	-0.006660916
113	0x3affbd55	0.0019511381
114	0x3ec57ad0	0.3857026
115	0xbeb55182	-0.35413748
116	0x3e2d6f85	0.16937073
117	0xbd052fe7	-0.032516386
118	0xbd20b4f2	-0.039235063
119	0xbc620692	-0.013795512
120	0xbe8d9a1a	-0.27656633
121	0xbdd7ae36	-0.10531275
122	0x3d651c9f	0.0559355
123	0x3eceb823	0.4037486
124	0x3dd50a6c	0.104023784
125	0x3f0b704a	0.54468215
126	0x3dfd587b	0.12370392
127	0xbb911a24	-0.004428165
128	0xbe2add06	-0.16685876
129	0x3d199561	0.037495974
130	0x3d8a21b2	0.06744708
131	0xbd26f62e	-0.04076212
132	0xbd6e1020	-0.058120847
133	0x3c5cf983	0.013487223
134	0xbd8f33a9	-0.06992275
135	0x3d451e0d	0.04812436
136	0xbc645831	-0.013937042
137	0x3cfc5801	0.030803682
138	0xbd74fa04	-0.059808746
139	0x3e4627f6	0.19351181
140	0xbf964404	-1.1739507
141	0xbead92f5	-0.33901182
142	0x3ec8f928	0.3925259
143	0x3e9cc0e3	0.3061591
144	0xc08bb8f1	-4.366326
145	0x3bb1ef90	0.0054301694
146	0x3bde77c2	0.0067891786
147	0x3ee4e5d1	0.44706586
148	0x3bdda031	0.006763481
149	0xba2becdb	-0.00065584265
150	0xbeb4632b	-0.3523191
151	0xbdebe1cc	-0.11517677
152	0xba96782d	-0.0011479907
153	0xbdcdc6d0	-0.10047686
154	0xbd10bb7b	-0.035335045
155	0xbc59d3ed	-0.013295156
156	0x3c53cd82	0.012927415
157	0xbadcedd2	-0.0016855544
158	0x3a66a37b	0.0008798164
159	0xbbc1112d	-0.00589194
160	0xbb514255	-0.0031930406
161	0xb86bf9bf	-5.626096e-05
162	0x3d63b341	0.05559087
163	0xbcd72006	-0.026260387
164	0xbb813244	-0.0039427597
165	0xbc14468e	-0.009050025
166	0x3c510223	0.012756857
167	0x3c03fb22	0.00805548
168	0xbed5e996	-0.41779774
169	0x3c05bf67	0.00816331
170	0x3c9b2e82	0.018943075
171	0x3e90e30d	0.28298226
172	0x3f71b162	0.9441129
173	0xbf74e073	-0.9565498
174	0xbdc755c2	-0.09733154
175	0x3ce8a778	0.028400168
176	0xbca34591	-0.019930633
177	0xbc1315d5	-0.008977373
178	0x3bc4612d	0.0059930296
179	0xbd19f3fe	-0.037586205
180	0x3d0d934c	0.0345643
181	0x3d47d4d7	0.048786964
182	0xbcb58db5	-0.022162298
183	0xbb8f7fd5	-0.0043792524
184	0xbb480de8	-0.0030525867
185	0xbb112b0e	-0.0022150907
186	0xbd48191a	-0.048852064
187	0x3d522dea	0.05131332
188	0xbe8912fa	-0.2677229
189	0x3bc507a6	0.0060128747
190	0x3d7664a5	0.060154576
191	0xbbfa47bf	-0.0076379473
192	0x3f1801ec	0.5937793
193	0x3d0963f6	0.033542596
194	0x3cb07305	0.02153922
195	0xbfbad591	-1.4596425
196	0x3f65de42	0.89792264
197	0x3c876387	0.01652695
198	0x3d674ff8	0.05647275
199	0xbd1ca5bd	-0.038243998
200	0x3dc05e33	0.09392967
201	0xbbf95193	-0.0076086014
202	0x3d83c29e	0.06433605
203	0x3db8f69d	0.09031413
204	0xbd993559	-0.074808784
205	0xba0e4552	-0.00054271996
206	0xbbafa46c	-0.005360177
207	0x3bb164aa	0.0054136114
208	0xbb422ebb	-0.0029629904
209	0xbb1a4dcf	-0.0023544913
210	0xbe9699c7	-0.29414198
211	0x3e156427	0.14588986
212	0xbdde3f55	-0.108519234
213	0xbdfe79ce	-0.12425576
214	0x3cc04e84	0.02347494
215	0xbc02d48d	-0.007985246
216	0xc03bfe04	-2.937379
217	0x3adc8c97	0.0016826567
218	0x3c61d199	0.013782882
219	0xbdb31938	-0.087450445
220	0xbd1abd8e	-0.03777843
221	0x3c6d0004	0.014465336
222	0x3efefc6f	0.49801967
223	0xbe657075	-0.2240618
224	0xbbd56291	-0.006511994
225	0xbd06de53	-0.03292687
226	0x3ce58baf	0.028020708
227	0xbcfb0d84	-0.030646093
228	0x3bda085a	0.0066538276
229	0x39cbf1e8	0.0003889941
230	0xb96a1657	-0.00022324301
231	0x3ca72f9d	0.020408446
232	0xbc0b5865	-0.008504962
233	0xbaa67b0d	-0.0012701467
234	0x3d9b372a	0.07578881
235	0xbc481947	-0.012213058
236	0xbbccc4ca	-0.006249045
237	0x3e13429e	0.14380881
238	0xbdddad58	-0.10824078
239	0x3ccd99c1	0.02509773
240	0xbc8f24a7	-0.017473532
241	0x3c178beb	0.009249668
242	0x3cd89076	0.026436072
243	0x3f1b7396	0.60723245
244	0xbf5de10f	-0.8667154
245	0xbcb8dc8a	-0.022566099
246	0x3f91b9a6	1.138478
247	0xbeb6f380	-0.3573265
248	0x3d23eee8	0.04002276
249	0x3cff0844	0.031131871
250	0x3c33ba66	0.010969734
251	0x3c95dd42	0.01829398
252	0x3be1d331	0.006891631
253	0xbcc4f665	-0.024043271
254	0x39d6709d	0.00040901164
255	0x3cbc0b41	0.022954585

linear1.bias f4 [100]
0	0xbcdd2e8f	-0.02699974
1	0xbdb8ac7c	-0.09017274
2	0xbda537ce	-0.080672845
3	0xbdba45ab	-0.09095319
4	0xbd8ddb64	-0.06926611
5	0xbe372c67	-0.17888032
6	0xbdb8ddfe	-0.09026717
7	0x3e7b8949	0.24564089
8	0xbd797b27	-0.060908463
9	0x3e33d87c	0.17563051
10	0xbe45ea2b	-0.19327609
11	0x3e35f983	0.17770962
12	0xbd80bc5e	-0.06285928
13	0x3d557999	0.052117918
14	0x3c0bc1cc	0.0085300915
15	0x3c80e117	0.015732331
16	0x3bd2bf65	0.0064315074
17	0xbd8f5601	-0.06998826
18	0xbe13c45e	-0.14430377
19	0xbd43bd93	-0.047788214
20	0xbca9bf18	-0.020721003
21	0x3e0ca133	0.13733368
22	0x3e138d9f	0.14409493
23	0xba999edc	-0.0011720317
24	0x3c9bf1c4	0.019036181
25	0xbd25538f	-0.04036289
26	0x3e67419f	0.22583626
27	0xbe53fc83	-0.20701794
28	0xbe3ca380	-0.18421745
29	0x3df0ca61	0.11757351
30	0xbd5f035e	-0.05444657
31	0x3e849ccc	0.25900877
32	0xbdf34eed	-0.11880288
33	0x3d8b8d5b	0.06814071
34	0xbd5ad6df	-0.053427573
35	0xbd96d05c	-0.0736396
36	0x3db2ccca	0.08730467
37	0xbe023577	-0.12715708
38	0x3d3af647	0.045645025
39	0x3d1875ae	0.037221603
40	0xbe323e96	-0.17406687
41	0xbe0934a1	-0.13398983
42	0xbc960384	-0.018312223
43	0x3ea95453	0.33072147
44	0xbd235a14	-0.039880827
45	0x3dbaf2de	0.091283545
46	0xbd05fe3a	-0.032713152
47	0x3dbb91e9	0.091586895
48	0xbd98d309	-0.07462127
49	0x3e4dee29	0.20110382
50	0x3dc11148	0.09427124
51	0x3da00622	0.0781367
52	0x3cc3cd78	0.023901686
53	0xbe445074	-0.19171315
54	0xbdfc27ce	-0.1231228
55	0xbe1b6e87	-0.15178882
56	0xbb8924b4	-0.0041852836
57	0x3d791c7a	0.060818173
58	0x3c4ebbf6	0.012618056
59	0x3da1aab9	0.07893891
60	0xbdb6aa10	-0.089191556
61	0x3e101542	0.14070609
62	0x3cdfc3f0	0.02731511
63	0x3e53f36f	0.20698331
64	0x3d8e3c47	0.06945091
65	0x3e13dc29	0.14439453
66	0xbe1bfc95	-0.15233071
67	0xbe683f45	-0.22680385
68	0x3e0a8167	0.13525926
69	0x3b587867	0.003303075
70	0xbd2fbfe0	-0.042907596
71	0x3c34967b	0.011022205
72	0x3d26a5b6	0.040685378
73	0x39d49d4a	0.0004055298
74	0x3e58a7ba	0.21157733
75	0x3d32d377	0.0436587
76	0xbe2e5f60	-0.1702857
77	0x3d995f55	0.07488886
78	0x3da011e7	0.078159146
79	0x3e555e57	0.20836769
80	0x3dbc1fad	0.09185729
81	0xbd932215	-0.07184235
82	0x3dfcd32e	0.12344967
83	0xbda5c7b0	-0.08094728
84	0x3dfa16ee	0.12211405
85	0xbe023fef	-0.12719701
86	0xbd91c757	-0.07118099
87	0xbe06c7da	-0.13162175
88	0xbd7ffbe0	-0.062496066
89	0xbc9c9bc8	-0.019117251
90	0xbe6b683d	-0.22988982
91	0xbe0d8602	-0.13820651
92	0x3d335ce8	0.043789774
93	0xbde15313	-0.11002173
94	0xbde61eb5	-0.11236326
95	0xbd7399fa	-0.059473015
96	0xbd881296	-0.0664417
97	0x3e134f68	0.1438576
98	0x3c3ed2f3	0.011646974
99	0x3e1eb57b	0.15498917

bn1.weight f4 [100]
0	0x3ec0e7f7	0.37676975
1	0x3f1d0043	0.61328524
2	0x3f2cc75d	0.67491704
3	0x3ee76c8d	0.45200005
4	0x3f9907fb	1.195556
5	0x3f3c81a9	0.73635346
6	0x3fc3a532	1.5284789
7	0x3f506d8e	0.8141717
8	0x3f8cc12d	1.0996453
9	0x3f4ba559	0.79549176
10	0x3f8ace90	1.0844288
11	0x3f3479b2	0.7049819
12	0x3ebff49a	0.37491304
13	0x3f9416ae	1.1569421
14	0x3e9c784c	0.3056053
15	0x3f5a0496	0.8516325
16	0x3f2a2ac5	0.6647151
17	0x3ed17580	0.40909958
18	0x3ead75b6	0.3387887
19	0x3ed27eb7	0.411123
20	0x3f19c5c4	0.6006739
21	0x3ef7e94a	0.48420173
22	0x3fc09396	1.504504
23	0x3eda8e23	0.42686567
24	0x3ef265b0	0.47343206
25	0x3ed07e3b	0.40721306
26	0x3f536fd0	0.8259249
27	0x3f4c0a40	0.7970314
28	0x3f3d45d8	0.739347
29	0x3f37386c	0.7157047
30	0x3f0dad56	0.55342615
31	0x3f952ac7	1.165368
32	0x3f20a0ae	0.6274518
33	0x3ebeedc9	0.3729079
34	0x3fe9eac1	1.8274766
35	0x3f9048a8	1.1272173
36	0x3fbeda34	1.491034
37	0x3f26f9e6	0.65225065
38	0x3fb50a0c	1.4143691
39	0x3f4ae687	0.79258007
40	0x3f152c2c	0.58270526
41	0x3f4bf066	0.79663694
42	0x3f499811	0.7874766
43	0x3f2a3ef4	0.6650231
44	0x3f24c8d7	0.6436896
45	0x3f211f3e	0.62938297
46	0x3f8ee254	1.116282
47	0x3f998ac0	1.1995468
48	0x3ed00553	0.40629062
49	0x3f17a4c6	0.592358
50	0x3fa63dcb	1.2987608
51	0x3ec90f7a	0.3926962
52	0x3f44c6b8	0.7686572
53	0x3ed05c5b	0.40695462
54	0x3f3c89e6	0.73647916
55	0x3ee240b9	0.44190004
56	0x3fd743f6	1.6817615
57	0x3f4647e9	0.77453476
58	0x3f97064f	1.17988
59	0x3edd5de1	0.43235686
60	0x3f0cbe7a	0.54978144
61	0x3ef12451	0.4709802
62	0x3f2f762d	0.68539697
63	0x3f842352	1.0323279
64	0x3ed4713d	0.41492644
65	0x3fbb398a	1.4626935
66	0x3eb9d883	0.36297998
67	0x3f403665	0.75083
68	0x3f78f4af	0.9724836
69	0x3f2f5542	0.6848947
70	0x3e9e2300	0.30886078
71	0x3eba8370	0.36428404
72	0x3ed11474	0.40835917
73	0x3f8edec4	1.1161733
74	0x3e96a5f0	0.29423475
75	0x3f41faaf	0.7577314
76	0x3f23c6ea	0.63975394
77	0x3f42be9a	0.76072085
78	0x3ebc74a7	0.3680775
79	0x3f3a4655	0.7276357
80	0x3f0f27a3	0.55919856
81	0x3f22f7dd	0.6365946
82	0x3f8047b2	1.002188
83	0x3ea036aa	0.31291705
84	0x3f6b76d4	0.9197819
85	0x3f048855	0.51770526
86	0x3f86b59a	1.052417
87	0x3efc7ded	0.49314824
88	0x3ef72317	0.4826896
89	0x3f030008	0.5117192
90	0x3feba03d	1.8408276
91	0x3eddf6d9	0.43352392
92	0x3fa2e81c	1.2727084
93	0x3f9ad361	1.2095758
94	0x3e799ea2	0.2437692
95	0x3f1905a0	0.5977421
96	0x3f0d8196	0.5527586
97	0x3fa9b46b	1.3258184
98	0x3e97e386	0.29665774
99	0x3f40a262	0.75247777

bn1.bias f4 [100]
0	0x3fa52121	1.2900735
1	0x3f423d46	0.75874746
2	0xbd8cb137	-0.068697385
3	0x3e5b6dd1	0.2142861
4	0xbd28d2b0	-0.041216552
5	0xbb9dc70f	-0.0048149894
6	0x3ed3cc51	0.4136682
7	0x3cfe9bde	0.031080183
8	0xbe8096ea	-0.25115138
9	0x3f38b5dc	0.72152495
10	0x3d501c2c	0.050808117
11	0x3e96a58d	0.2942318
12	0xbbb0e7d4	-0.00539873
13	0xbf1ef633	-0.6209442
14	0x3c6d3aa7	0.014479316
15	0x3f05e277	0.5229868
16	0xbe566c21	-0.20939685
17	0x3e8f93ac	0.28042352
18	0xb98bf946	-0.0002669787
19	0x3d2b8ff0	0.041885316
20	0xbd62b051	-0.05534393
21	0x3d4549a4	0.048165932
22	0xbe8e8905	-0.27838913
23	0xbe147e7e	-0.14501378
24	0xbcf8a2ea	-0.030351121
25	0x3f48f84d	0.78503877
26	0xbdcecbe3	-0.10097482
27	0x3ddc5e93	0.10760226
28	0xbe3f55c1	-0.18685056
29	0xbcc08938	-0.023502931
30	0xbe3a0ed8	-0.18169725
31	0x3f2a2c17	0.66473526
32	0x3db752dc	0.08951351
33	0x3da8906b	0.082306705
34	0x3f83ef00	1.0307312
35	0x3f897db4	1.0741487
36	0xbf758f72	-0.95922005
37	0x3dc641c4	0.096805125
38	0x3f15c5c0	0.5850487
39	0x3f15bfb6	0.5849565
40	0xbd9c582c	-0.07634005
41	0xbddd9b3e	-0.10820626
42	0x3dd36360	0.10321689
43	0x400783dc	2.117423
44	0x3f1a8bc7	0.60369533
45	0x3dd4eceb	0.10396751
46	0x3ef0bc56	0.4701869
47	0xbe5207c3	-0.20510773
48	0x3e86cf8f	0.2633023
49	0x3f0479be	0.51748264
50	0xbee07d3a	-0.4384554
51	0xbc31ff86	-0.010864144
52	0x3d46c32e	0.04852598
53	0xbd8cf8e7	-0.06883412
54	0xbd356bb4	-0.044292167
55	0x3ec6d6a5	0.38835636
56	0xbe4ddd84	-0.20104033
57	0xbd1d3cd3	-0.038388085
58	0x3e57d5f8	0.21077716
59	0xbe9b1110	-0.30286455
60	0x3d11f55d	0.035634387
61	0xbd93e1e8	-0.072208226
62	0x3e38f5ba	0.18062487
63	0x3edf07bd	0.4356059
64	0x3f95ba28	1.1697435
65	0xbf60255c	-0.87557006
66	0x3c5e72e7	0.0135772
67	0xbeaeca6e	-0.34138817
68	0xbe456a0b	-0.19278733
69	0x3e85c42e	0.26126236
70	0x3f01ea4a	0.5074812
71	0x3e796738	0.24355781
72	0xbbab80bd	-0.0052338527
73	0x3e8304ae	0.25589508
74	0x3e833c7f	0.25632092
75	0xbdd00ac6	-0.10158305
76	0x3d435530	0.047688663
77	0xbd09b6a2	-0.033621438
78	0xbd6723dc	-0.056430683
79	0x3c66872b	0.0140703125
80	0x3d795671	0.060873453
81	0xbdacb5c4	-0.084331065
82	0x3d8cfbec	0.06883988
83	0x3e6aa628	0.22914946
84	0x3ed173d6	0.40908688
85	0x3e2ea882	0.17056468
86	0x3f582311	0.8442851
87	0x3e30eaab	0.17277019
88	0x3c655fa6	0.013999855
89	0x3e58ee63	0.21184687
90	0xbf936e34	-1.1518006
91	0xbdb8278e	-0.089919195
92	0x3d05c0ea	0.03265468
93	0xbe5ff678	-0.21871364
94	0x3eadb18e	0.33924526
95	0x3d5e197b	0.05422352
96	0x3fe8f4bb	1.8199686
97	0x3ec48390	0.38381624
98	0x3b583925	0.0032993045
99	0x3d227a7e	0.0396676

bn1.running_mean f4 [100]
0	0xbf2407ba	-0.6407429
1	0xc0322929	-2.7837622
2	0xbf8387bb	-1.0275797
3	0x40111d1c	2.2674017
4	0xc05e9235	-3.4776738
5	0x3ead3039	0.33825853
6	0x40a028e0	5.0049896
7	0xbf03d32f	-0.51494116
8	0xc03bf02d	-2.9365342
9	0x408399ae	4.1125097
10	0x403223d0	2.7834358
11	0xbd7f4999	-0.062326048
12	0x3e254900	0.16141129
13	0xc020ba07	-2.5113542
14	0xc008a792	-2.1352277
15	0xbf8ccc0e	-1.0999773
16	0xbe333882	-0.17502025
17	0x3fa6dd1e	1.303623
18	0xbf6272f2	-0.8845664
19	0xbfffd931	-1.9988157
20	0xbf9bc0e2	-1.2168238
21	0xbeca6451	-0.3952966
22	0x3ef2be92	0.4741102
23	0xc02f49a4	-2.7388697
24	0x3e418abb	0.18900578
25	0x4006c783	2.1059272
26	0xbe215cb8	-0.15758026
27	0xbd2b254c	-0.041783616
28	0xbf754640	-0.9581032
29	0xbf980f8a	-1.1879742
30	0x3fcf3c55	1.6190287
31	0x3ef586d0	0.47954416
32	0xbf99d737	-1.2018803
33	0x3faf6aa3	1.3704418
34	0x3f78438e	0.9697808
35	0xbd539b3e	-0.051661722
36	0xc00676a8	-2.1009922
37	0x3fd355a0	1.6510506
38	0x3e96ceb9	0.29454592
39	0xc002f361	-2.0461047
40	0xbd89738d	-0.06711493
41	0x3f72b3b5	0.9480546
42	0x3ea40e02	0.32041937
43	0x3f08a402	0.53375256
44	0xc00fe408	-2.248293
45	0x40345620	2.8177567
46	0x3dc5168d	0.09623442
47	0xbfc7774b	-1.558328
48	0x3ddce1ad	0.10785232
49	0x3fb2ce15	1.3969141
50	0x4059f0de	3.4053264
51	0xbdb3b2e3	-0.08774354
52	0xbe781fe8	-0.24230921
53	0x3eaf8f80	0.3428917
54	0x3b5c9950	0.0033660717
55	0x3f60f96f	0.87880605
56	0xbf33cf86	-0.7023853
57	0x4062ffbf	3.5468595
58	0xbf0d31af	-0.55153936
59	0x3f3f243a	0.7466465
60	0xbfe4a91b	-1.7864107
61	0x3ef5c6ad	0.4800314
62	0x3f4b862b	0.795016
63	0x3f4d5be0	0.80218315
64	0x3e846325	0.2585689
65	0xbfc231f4	-1.5171494
66	0x3ecdc3a2	0.40188318
67	0xbf6c13e7	-0.9221787
68	0xbd66a61c	-0.056310758
69	0x3e6d9def	0.23204778
70	0x3e5b4043	0.21411233
71	0xbf10640c	-0.5640266
72	0xc0005f2a	-2.0058084
73	0x3f1f5449	0.62237984
74	0x400404a1	2.0627825
75	0xbe1a3a41	-0.15061285
76	0xbf0680fc	-0.52540565
77	0x3fce8840	1.613533
78	0xbfa6f288	-1.3042765
79	0xbebf0862	-0.37311083
80	0x3dd3c755	0.10340754
81	0xc031e92a	-2.7798562
82	0x3f66f20a	0.9021307
83	0xc01365d4	-2.30309
84	0x3f038a8e	0.5138329
85	0xc0048b3f	-2.070999
86	0x3fd34b05	1.6507269
87	0x3fb18af6	1.3870533
88	0x3f50f465	0.81622916
89	0xbed533a7	-0.4164097
90	0xbfae2888	-1.3606119
91	0xbfa7e342	-1.3116229
92	0xbf9fab9e	-1.2474248
93	0xbfd8130f	-1.6880816
94	0x3fd183fb	1.6368402
95	0x3f869879	1.0515281
96	0xbf679a5a	-0.90469897
97	0x409be806	4.872073
98	0xbeacb627	-0.3373272
99	0xbfc9f48b	-1.5777754

bn1.running_var f4 [100]
0	0x3f91525d	1.135326
1	0x3e9fdb46	0.3122198
2	0x3f9f852f	1.246252
3	0x3f706a98	0.9391265
4	0x4094ba46	4.6477385
5	0x3fc615e2	1.5475428
6	0x3efa707c	0.48913944
7	0x3f94254a	1.157388
8	0x402cd5bb	2.700545
9	0x3ece4984	0.40290463
10	0x404e1de6	3.2205749
11	0x3fa8ac7b	1.3177637
12	0x3fc1086a	1.5080693
13	0x402c3413	2.6906784
14	0x4080dd66	4.027026
15	0x3ee5c8e3	0.44879827
16	0x3fb8562d	1.4401299
17	0x3fa503c7	1.2891778
18	0x3fdcf53c	1.726234
19	0x3fb01175	1.3755327
20	0x402095fc	2.5091543
21	0x40427f07	3.0390031
22	0x3fa70d64	1.3050961
23	0x3eff211c	0.49829948
24	0x3f7c5054	0.9856007
25	0x3fde554d	1.7369782
26	0x40135694	2.3021593
27	0x3f6d83c4	0.92779183
28	0x3fb44ffe	1.4086912
29	0x3f09d580	0.538414
30	0x3fff6193	1.9951652
31	0x3f89c29c	1.0762515
32	0x402c7bd8	2.6950588
33	0x40a78d87	5.2360263
34	0x40e5d7a4	7.1825733
35	0x3f737c38	0.9511142
36	0x3fb863f1	1.44055
37	0x4032eb80	2.7956238
38	0x3f912dcc	1.1342101
39	0x3e9cc5d1	0.30619672
40	0x403cc3f2	2.9494596
41	0x401553c9	2.3332388
42	0x3fa69221	1.3013345
43	0x3e8d5cfc	0.27610004
44	0x400106a9	2.0160315
45	0x3f5fb338	0.8738284
46	0x3f815ef6	1.0107105
47	0x3fb7e579	1.4366904
48	0x3f962a2a	1.1731617
49	0x3fb7216b	1.4307073
50	0x3f00cf78	0.5031657
51	0x40ef7467	7.4829593
52	0x408f52ff	4.4788814
53	0x3f6c2ad9	0.9225288
54	0x40921edb	4.5662665
55	0x3fbf27e4	1.4934049
56	0x40c60158	6.187664
57	0x402ff983	2.749604
58	0x3f07a9b8	0.52993345
59	0x3fdaa8cb	1.7082762
60	0x400ca569	2.1975958
61	0x3fcdc802	1.6076663
62	0x3fb5fdaa	1.4218037
63	0x3f2741a6	0.65334547
64	0x3fa1e286	1.2647254
65	0x3fb7850b	1.4337476
66	0x415b3d89	13.702523
67	0x409829bd	4.755095
68	0x4000d1d7	2.0128076
69	0x3f91b634	1.1383729
70	0x3f242692	0.64121354
71	0x3f89e66b	1.0773443
72	0x400206c9	2.0316641
73	0x3f19cd00	0.6007843
74	0x3f5926ce	0.84824836
75	0x3f90fa3b	1.1326364
76	0x3f85eb57	1.0462445
77	0x3f78c344	0.9717295
78	0x3ffee7f9	1.9914542
79	0x3fce69bf	1.6126021
80	0x40486862	3.131371
81	0x3f82ecbb	1.0228494
82	0x4008f9f4	2.140256
83	0x3f1c253f	0.60994333
84	0x3f69eec2	0.9137994
85	0x4000bba0	2.0114517
86	0x3f6e57dc	0.9310281
87	0x3fad2efe	1.3529966
88	0x413a6921	11.650666
89	0x3fbe04be	1.4845197
90	0x40f08a9d	7.5169206
91	0x3f5dfef2	0.8671714
92	0x3fc1f837	1.5153874
93	0x406c190a	3.6890283
94	0x3f95612a	1.1670277
95	0x3fd124a6	1.6339309
96	0x3fa2b48e	1.2711351
97	0x3eed1a55	0.46309152
98	0x3ff7a15f	1.9346122
99	0x3f969e7e	1.1767118

linear2.weight f4 [200, 100]
0	0x3c3469d9	0.011011564
1	0xbb74f69f	-0.0037378443
2	0xbaf6700b	-0.0018801702
3	0x3e0ebfb0	0.1394031
4	0x3dd1df60	0.102476835
5	0xbde5558a	-0.11197956
6	0xbdfa2ffc	-0.122161835
7	0xbd29ffad	-0.041503597
8	0x3e044791	0.12917925
9	0xbd5c1268	-0.05372849
10	0xbd0a4a3f	-0.033762213
11	0xbcf0e7b5	-0.029407362
12	0xbdbf36a2	-0.09336592
13	0x3d459966	0.048241995
14	0x3df5a4c5	0.11994318
15	0x3e593708	0.21212399
16	0x3dd504bf	0.10401296
17	0xbccc6a2b	-0.024952969
18	0xbcd10eed	-0.025519812
19	0xbde45861	-0.111496694
20	0x3cb47fd6	0.022033613
21	0xbc0743fb	-0.008255954
22	0x3c8bf0e6	0.017082643
23	0xbcd0a729	-0.025470333
24	0x3d381641	0.044943098
25	0x3e22b796	0.15890345
26	0x3d0e694b	0.034768384
27	0xbe1b228a	-0.15149894
28	0x3d70662d	0.058691192
29	0xbda0d9ea	-0.07854064
30	0x3e20f0bd	0.15716834
31	0x3c001314	0.007817049
32	0x3e17e67b	0.14834015
33	0xbc622604	-0.013803009
34	0x3de0b7fa	0.10972591
35	0xbc491447	-0.012272901
36	0xbeb32534	-0.3498932
37	0x3da14eef	0.078763835
38	0x3dbb1779	0.091353364
39	0xbea705f1	-0.3262172
40	0xbe0f805e	-0.14013812
41	0xbd66ecbf	-0.056378122
42	0xbda0c8e7	-0.07850819
43	0x3e91c52b	0.2847074
44	0xbdb81406	-0.08988194
45	0xba166078	-0.0005736421
46	0xbcc3b9ee	-0.02389237
47	0x3d0acd10	0.03388697
48	0xbd5f23e0	-0.054477572
49	0x3e0167a6	0.12637195
50	0xbd875dcb	-0.066096865
51	0x3e210400	0.15724182
52	0x3d8d80b0	0.06909311
53	0xbdcdeed5	-0.10055319
54	0xbddd7c01	-0.108146675
55	0xbe588898	-0.21145856
56	0xbc8a384c	-0.016872548
57	0xbddba4c7	-0.10724788
58	0xbf2b77f5	-0.66979915
59	0xbca4540e	-0.020059612
60	0xbe2574f0	-0.1615789
61	0x3d9468bc	0.07246539
62	0xbd3b28f8	-0.045693368
63	0xbcc3d042	-0.023903016
64	0x3d99d674	0.07511607
65	0x3db668c6	0.08906703
66	0x3d9cc17e	0.07654093
67	0x3db718af	0.08940255
68	0x3cf0b2a5	0.02938206
69	0xbdd0c3c9	-0.10193593
70	0xbc752ac6	-0.014963811
71	0x3cdb5d9c	0.026778035
72	0xbe270038	-0.16308677
73	0x3dea812e	0.1145042
74	0xbc248601	-0.010041715
75	0x3e13a2c7	0.14417563
76	0x3df2f48e	0.11863051
77	0x3e0bf38d	0.13667126
78	0xbdcf88f4	-0.101335436
79	0x3daea2ec	0.08527169
80	0x3e3d8e9e	0.18511435
81	0xbd19823b	-0.037477713
82	0xbd4d48d7	-0.050118294
83	0x3e119495	0.14216836
84	0xbdc8cb72	-0.09804429
85	0x39781744	0.0002365979
86	0xbe9ac988	-0.3023188
87	0x3be23327	0.0069030705
88	0x3c53b1df	0.012920826
89	0xbdb5f94c	-0.0888544
90	0xbdfa6243	-0.12225773
91	0xbd5fe6cc	-0.054663464
92	0xbd26a578	-0.040685147
93	0x3e3e0a6b	0.18558662
94	0x3e130958	0.14359033
95	0xbc544fa1	-0.012958438
96	0x3df9c6f6	0.12196152
97	0x3dd241dd	0.10266469
98	0x3d9c69f4	0.076373965
99	0xbd1f60ee	-0.0389108
100	0x3dc356e2	0.09538056
101	0xbdda383b	-0.10655256
102	0xbe1f47d7	-0.15554748
103	0x3e2163da	0.15760747
104	0x3dc36f8b	0.095427595
105	0xbcfef2c6	-0.031121623
106	0x3d3b4c0b	0.045726817
107	0xbd3b04e9	-0.04565898
108	0xbcd861a6	-0.02641375
109	0xbd353cb4	-0.044247344
110	0x3e726313	0.23670606
111	0xbcb86318	-0.02250819
112	0x3db7c87d	0.08973787
113	0x3d919652	0.071087494
114	0x3e7ccb7d	0.24687
115	0x3e55ee0e	0.20891592
116	0x3d6275b4	0.05528803
117	0xbcb18551	-0.021670016
118	0x3d9179ef	0.07103335
119	0x3d549460	0.051899314
120	0xbe1b29e2	-0.15152696
121	0xbe1494ec	-0.14509934
122	0x3e1462cf	0.14490817
123	0xbc377ea8	-0.011199631
124	0xbdfb7276	-0.12277691
125	0xbcefdb77	-0.029279454
126	0xbd85c4df	-0.06531691
127	0xbdd2f46c	-0.10300526
128	0xbe27ea52	-0.1639798
129	0xbdd2d697	-0.10294836
130	0xbd94e8af	-0.072709434
131	0xbbadec97	-0.0053077447
132	0x3c8f5f8a	0.017501611
133	0xbdb384f4	-0.08765593
134	0xbe10a5a8	-0.14125693
135	0xbc5e89ca	-0.013582656
136	0xbdb1b3d2	-0.08676876
137	0xbd297056	-0.041366898
138	0x3ac4ed83	0.0015024397
139	0xbc873554	-0.016504921
140	0x3e72f64d	0.23726769
141	0xbcfcab25	-0.030843327
142	0x3d8b03be	0.06787823
143	0x3d951e86	0.072812125
144	0xbb93604e	-0.0044975644
145	0xbe8342d7	-0.25636932
146	0x3db2323f	0.0870099
147	0xbc8c341d	-0.017114693
148	0x3c8a180d	0.016857171
149	0x3e4d7db9	0.2006749
150	0xbd6fbc17	-0.058528986
151	0xbab73059	-0.0013976201
152	0xbd2587e8	-0.040412813
153	0x3e348938	0.1763047
154	0x3e0a37ca	0.13497844
155	0x3e41240f	0.18861412
156	0xbd927a4e	-0.07152234
157	0x3b073f77	0.0020637193
158	0x3e345581	0.17610742
159	0xbd4edf24	-0.050505772
160	0x3df88303	0.121343635
161	0x3ba628ad	0.005070767
162	0x3e6f09ca	0.23343578
163	0x3d2de4db	0.04245458
164	0xbe2484d8	-0.16066301
165	0x3bb0de79	0.0053976146
166	0x3cb36240	0.021897435
167	0xbd4c2301	-0.04983807
168	0x3cbbe54a	0.022936482
169	0xbc6569c6	-0.014002269
170	0xbe5e6748	-0.21719086
171	0x3b1e0551	0.0024112056
172	0x3d16f11f	0.036851045
173	0xbc6deb92	-0.014521496
174	0x3dcb3d8b	0.09923848
175	0x3d8c591c	0.06852934
176	0x3d20661d	0.039159883
177	0x3e4e7484	0.20161635
178	0x3d05c10d	0.03265481
179	0x3dc514d2	0.09623112
180	0xbe6a04a2	-0.2285333
181	0x3e0a6f19	0.13518943
182	0x3dfcfdd8	0.12353104
183	0xbe1dc774	-0.15408117
184	0x3ccca3a6	0.024980377
185	0x3a192039	0.00058412884
186	0x3e0c1a68	0.13681948
187	0xbeca85d6	-0.39555234
188	0xbd26232e	-0.040560894
189	0x3e5b2007	0.21398936
190	0x3e6f6e01	0.23381807
191	0xbd815703	-0.06315424
192	0xbdb8480f	-0.08998119
193	0x3d5edf5f	0.054412242
194	0xbe4a4dc0	-0.19756222
195	0x3d088e67	0.03333893
196	0xbd303ffc	-0.04302977
197	0x3cd99b24	0.026563235
198	0x3e5998fc	0.21249765
199	0xbde52ab2	-0.11189784
200	0xbce9dd2d	-0.028547848
201	0x3da7c0dd	0.081910826
202	0x3c4fe329	0.012688437
203	0x3e03e1df	0.12879132
204	0x3a3f8b8a	0.0007306865
205	0xbdad45fb	-0.08460613
206	0xbe12e10d	-0.14343663
207	0xbdd15e3e	-0.102230534
208	0x3d48f811	0.0490647
209	0xbb966efe	-0.004590868
210	0x3ae9c56d	0.0017835327
211	0xbaae6f6f	-0.0013308356
212	0x3c2dd102	0.010608913
213	0x3d9716ba	0.073773816
214	0xbd682dc8	-0.056684285
215	0x3db0e3e2	0.08637215
216	0xbbecfe6b	-0.0072324774
217	0x3e2f8505	0.17140587
218	0xbdd751ec	-0.10513672
219	0xbd688f8b	-0.05677752
220	0x3d8c22f6	0.06842606
221	0x3caf5918	0.021404788
222	0xbbd88bf2	-0.0066084797
223	0x3d7869b6	0.06064769
224	0x3d87bffb	0.06628414
225	0xbe74af37	-0.23894964
226	0x3cd2eb31	0.025746914
227	0xbdde66ee	-0.10859476
228	0x3da90c49	0.08254296
229	0xbc653851	-0.013990478
230	0xbd8d9029	-0.06912262
231	0xbc91baf0	-0.017789334
232	0x3cdd2ade	0.02699798
233	0xbcee47df	-0.029087005
234	0xbe209c72	-0.15684679
235	0xbb303967	-0.0026889683
236	0x3e8a0bb1	0.26962045
237	0x3d3f3737	0.046683516
238	0x3c64dce0	0.013968676
239	0x3e00ba3f	0.12571047
240	0xbd7645c8	-0.060125142
241	0xbca11d26	-0.01966722
242	0xbd49e66a	-0.049292006
243	0x3e4284eb	0.18996017
244	0x3d00e043	0.031463873
245	0xbd92f36d	-0.07175336
246	0x3d9986f1	0.07496441
247	0x3e1c26e5	0.15249212
248	0x3dcdce13	0.10049071
249	0x3d26f81e	0.040763967
250	0xbe3f36c8	-0.18673241
251	0x3cb299f2	0.021801922
252	0x3c851464	0.016245075
253	0xbda339a3	-0.07969978
254	0x3d563de4	0.052305117
255	0xbdb4a477	-0.08820432

linear2.bias f4 [200]
0	0xbd656758	-0.05600676
1	0xbcffbd16	-0.031218093
2	0x3d9f5bfe	0.07781218
3	0xbda62fd9	-0.08114595
4	0x3e30e18c	0.1727354
5	0xbced8583	-0.028994327
6	0x3d755fbe	0.05990576
7	0x3df536e6	0.11973362
8	0x3d0e2a67	0.034708407
9	0xbd1021aa	-0.035188355
10	0xbd503201	-0.050828937
11	0x3da806c6	0.08204417
12	0x3d36341c	0.04448329
13	0xbdb3941e	-0.087684855
14	0xbd555bcf	-0.05208951
15	0xbc8b2819	-0.016986893
16	0x3d86d503	0.065835975
17	0xbd3f5b32	-0.04671783
18	0x3b90c1d0	0.0044176355
19	0xbd26ab59	-0.040690754
20	0x3df8892a	0.12135537
21	0x3d6b567c	0.057455525
22	0x3dd4f3c3	0.10398056
23	0x3df33f19	0.11877269
24	0x3da4d085	0.080475844
25	0xbda27385	-0.0793219
26	0xbd2b1f7b	-0.04177807
27	0xbddd43cc	-0.10803947
28	0x3e05e83e	0.13076875
29	0xbca1adad	-0.019736135
30	0x3ce74110	0.028229266
31	0xbb19743c	-0.0023415228
32	0xbcc3c77b	-0.02389883
33	0xbe04ddbc	-0.1297521
34	0x3d8b3d72	0.06798829
35	0xbce4394c	-0.027859353
36	0x3cbb7e60	0.022887409
37	0x3dbf606c	0.09344563
38	0x3d8ca0ea	0.068666294
39	0x3b9f37eb	0.004858961
40	0x3d905040	0.070465565
41	0xbd41da6e	-0.04732745
42	0xbd717a1e	-0.05895435
43	0xbd39e7b5	-0.04538699
44	0xbd4be1da	-0.049775936
45	0x3da1e97e	0.07905863
46	0xbdd6494c	-0.10463199
47	0x3da53c9e	0.080682024
48	0xbdbdafe4	-0.09262064
49	0xbdfb14f6	-0.12259857
50	0x3d10639c	0.035251245
51	0x3dd4c5d4	0.10389295
52	0xbd9d5a42	-0.07683231
53	0x3d63f944	0.05565764
54	0xbca59ff4	-0.020217873
55	0x3d2f38ee	0.0427789
56	0x3d70ee4a	0.058821
57	0x3ccbcef9	0.024878966
58	0xbcdd7867	-0.027034951
59	0xbdcdad30	-0.100427985
60	0x3cf8e7d0	0.030383974
61	0xbcf00cc8	-0.02930297
62	0xbca5c5fe	-0.020236012
63	0x3cfdb725	0.03097112
64	0x3e064ecc	0.13115996
65	0xbc46e42f	-0.012139364
66	0xbcdcb993	-0.026943957
67	0x3e0facf2	0.14030817
68	0xbd0e9933	-0.03481407
69	0xbb125ca5	-0.0022333052
70	0xbc596554	-0.013268787
71	0xbd474dba	-0.04865811
72	0x3d5162d5	0.051119644
73	0xbd687e65	-0.056761164
74	0x3c81569c	0.015788369
75	0x3cebf381	0.028802635
76	0xbde6c757	-0.1126849
77	0x3ddbab89	0.10726077
78	0xbd8a7d9d	-0.0676224
79	0x3d0162cf	0.03158837
80	0xbd4e2474	-0.050327733
81	0xbd6b7f70	-0.05749458
82	0x3c048344	0.008087937
83	0xbd578a6e	-0.05262225
84	0xbdaa74dd	-0.08323071
85	0x3d6505b5	0.055913646
86	0xbcd277af	-0.025691835
87	0xbdbd531d	-0.09244368
88	0x3b24c6e0	0.0025142953
89	0xbc082e8c	-0.008311879
90	0xbda99625	-0.08280591
91	0x3d29a73b	0.04141925
92	0xbc82b53c	-0.01595556
93	0xbc401f7d	-0.011726257
94	0x3cf4df2c	0.029891573
95	0xbd8f6d43	-0.07003262
96	0x3db3d6be	0.08781193
97	0x3ce83330	0.02834472
98	0xbd808e01	-0.06277085
99	0x3d6dc2eb	0.058047216
100	0xbd86b131	-0.06576765
101	0x3b2de428	0.0026533697
102	0xbd4ec0f7	-0.050476994
103	0xbd6a5727	-0.05721202
104	0xbe03a476	-0.12855706
105	0x3d345ed8	0.044035763
106	0x3df85454	0.12125459
107	0x3d055732	0.03255386
108	0xbd6b7275	-0.0574822
109	0x3c174c63	0.009234521
110	0x3d2d4187	0.04229882
111	0x3d2c6f3c	0.04209827
112	0x3e03c32e	0.12867424
113	0xbd7c1eb2	-0.06155271
114	0xbd87aa49	-0.06624276
115	0xba0c1745	-0.00053440436
116	0x3cda30b4	0.026634552
117	0xbce7d8f0	-0.028301686
118	0x3d253e54	0.040342644
119	0xbd69d6cf	-0.057089623
120	0x3d739063	0.05946387
121	0x3d9febc4	0.078086406
122	0x3cbd386c	0.023098193
123	0xbcdaddd6	-0.026717108
124	0x3c8850c0	0.016640067
125	0xbd10af7c	-0.035323605
126	0xbddb4c40	-0.10707903
127	0x3d3cbbcb	0.04607753
128	0x3d9f8559	0.07789106
129	0x3da14ba5	0.07875756
130	0xbcad739a	-0.021173287
131	0x3cdb1167	0.026741697
132	0xbdf98ce2	-0.121850744
133	0x3d6f2a5c	0.058390006
134	0xbdb037c4	-0.086043864
135	0x3dc2b009	0.09506232
136	0x3cfb40c9	0.03067054
137	0xbd700288	-0.058596164
138	0x3b86e411	0.004116543
139	0xbd65ee58	-0.056135505
140	0x3d1d4ffb	0.038406353
141	0xbd575892	-0.0525747
142	0xbd2dc621	-0.04242528
143	0xbd6802c8	-0.056643277
144	0x3d4a1c3c	0.049343333
145	0x3cacf4f7	0.021112902
146	0xbb19411a	-0.002338475
147	0x3b1ac377	0.0023615041
148	0xbcc09493	-0.023508346
149	0xbde97866	-0.11399917
150	0x3dc46989	0.09590442
151	0xbc567a1c	-0.013090637
152	0xbe1ccece	-0.15313265
153	0xbc0b68bf	-0.00850886
154	0x3db290c0	0.08719015
155	0x3cc99654	0.024607815
156	0xbd2be277	-0.04196402
157	0x3cab1f47	0.020888938
158	0xbb1d283b	-0.0023980278
159	0x3db2879c	0.08717272
160	0x3dbfa7d8	0.093581855
161	0x3dba434f	0.09094869
162	0x3cef2105	0.02919055
163	0xbdef2cb7	-0.116784506
164	0xbe27b8a4	-0.16379029
165	0xbcba0b5c	-0.022710495
166	0x3da25ed0	0.0792824
167	0x3c2b863b	0.010469015
168	0xbdda1a05	-0.10649494
169	0xbd1126d6	-0.035437427
170	0xbdabf628	-0.0839656
171	0x3dedf749	0.116194315
172	0xbd4dd7a9	-0.050254498
173	0x3dbe54e0	0.09293532
174	0x3df2a989	0.118487425
175	0xbdb9ecd0	-0.090783715
176	0x3e0bd93e	0.1365709
177	0x3d089559	0.033345554
178	0x3d3bc9fa	0.045846917
179	0xbd06a8e9	-0.03287593
180	0x3ddd64e9	0.10810263
181	0x3db72d13	0.08944144
182	0x3dc639f7	0.09679025
183	0x3cd7466d	0.026278699
184	0x3da72bcb	0.0816265
185	0xbd9c8b4b	-0.076437555
186	0x3deea40e	0.11652385
187	0x3d6fe40f	0.058567103
188	0x3dc4d691	0.09611238
189	0x3d672cf8	0.05643937
190	0x3d0c2001	0.03421021
191	0x3d748ec3	0.05970646
192	0xbdb5e812	-0.088821545
193	0xbd870111	-0.06592
194	0xbca482b5	-0.020081857
195	0xbcf2cac0	-0.029637694
196	0xbcb8836a	-0.0225236
197	0xbd2d2447	-0.042270925
198	0x3d6c5af8	0.057703942
199	0x3dcf8e49	0.101345606

bn2.weight f4 [200]
0	0x3f8143bd	1.0098797
1	0x3eac9d68	0.3371384
2	0x3f8f9ade	1.1219137
3	0x3ee4e38f	0.44704863
4	0x3f6cb991	0.9247065
5	0x3f28d9f4	0.6595757
6	0x3f4cfdc5	0.8007472
7	0x3f0cc6a5	0.5499061
8	0x3f5a55d0	0.8528719
9	0x3f84c144	1.037148
10	0x3f30c64f	0.69052595
11	0x3f3b7d82	0.73238385
12	0x3f2764f9	0.6538845
13	0x3f169d71	0.58833987
14	0x3f259c75	0.6469186
15	0x3f3ebaaa	0.74503577
16	0x3f403cfd	0.7509306
17	0x3f2ed396	0.68291605
18	0x3f22a68b	0.63535374
19	0x3edb5958	0.428416
20	0x3f2a3af4	0.66496205
21	0x3f191c4d	0.5980881
22	0x3f5269f0	0.821929
23	0x3f1dae3f	0.61594003
24	0x3f9925c4	1.196465
25	0x3f063cce	0.5243653
26	0x3f49b205	0.7878726
27	0x3f169d4e	0.5883378
28	0x3f198596	0.5996946
29	0x3f3a70f5	0.7282861
30	0x3f3c6021	0.7358418
31	0x3f908ba3	1.1292614
32	0x3f4fe38f	0.812066
33	0x3f0df7d8	0.55456305
34	0x3f76378a	0.96178496
35	0x3f8b4364	1.0879941
36	0x3f47af17	0.7800154
37	0x3f555065	0.833258
38	0x3f1bb84c	0.6082809
39	0x3f085802	0.5325929
40	0x3f637313	0.88847464
41	0x3f43f9dd	0.76553136
42	0x3f11fc10	0.5702524
43	0x3f2688df	0.650526
44	0x3f70752c	0.9392879
45	0x3ed47fcb	0.41503748
46	0x3f0816b0	0.5315962
47	0x3ed516bd	0.4161891
48	0x3f172fe2	0.5905744
49	0x3f35c3ad	0.710017
50	0x3f01d50e	0.5071572
51	0x3f832e5c	1.0248523
52	0x3f69d37e	0.91338336
53	0x3f425651	0.7591296
54	0x3f5f1120	0.87135506
55	0x3f17c0c5	0.5927852
56	0x3f089781	0.53356177
57	0x3f051b17	0.5199446
58	0x3ef02ca9	0.46909073
59	0x3f685b79	0.90764576
60	0x3f1d5507	0.61457866
61	0x3f43d2b0	0.7649336
62	0x3f4f4aa1	0.8097325
63	0x3f71adb3	0.9440567
64	0x3f238b6e	0.6388463
65	0x3f797978	0.9745097
66	0x3f493ded	0.78610116
67	0x3f982f10	1.1889362
68	0x3f5ae4f8	0.8550563
69	0x3f23650d	0.63826066
70	0x3f6900fc	0.9101713
71	0x3f33079f	0.69933504
72	0x3f126a17	0.5719313
73	0x3fe622ff	1.797943
74	0x3f4a3ec6	0.79002035
75	0x3f4992a8	0.78739405
76	0x3f23170e	0.63707054
77	0x3f285555	0.65755206
78	0x3f7faaae	0.9986981
79	0x3f35dd1b	0.71040505
80	0x3f6b7464	0.91974473
81	0x3ef5ebf5	0.48031583
82	0x3f46bc9f	0.7763156
83	0x3f290b5f	0.66032976
84	0x3f37b44f	0.71759504
85	0x3f08cc61	0.5343686
86	0x3ed49b97	0.41524956
87	0x3f38b432	0.72149956
88	0x3f5fc3fc	0.87408423
89	0x3f0f2b26	0.55925214
90	0x3f9d9fe4	1.231442
91	0x3f6e5957	0.9310507
92	0x3f5ce3cf	0.8628511
93	0x3f0dbb45	0.55363876
94	0x3eb65ffd	0.35620108
95	0x3ff67bf3	1.9256576
96	0x3f72cf39	0.94847447
97	0x3f68cada	0.90934527
98	0x3ee4e4c5	0.44705787
99	0x3f14840d	0.58013994
100	0x3f321654	0.6956532
101	0x3f643244	0.891392
102	0x3f173b09	0.59074455
103	0x3f5256a7	0.8216347
104	0x3f80e818	1.0070829
105	0x3f3e7ffd	0.74414045
106	0x3f20ad55	0.62764484
107	0x3f2ec9c1	0.682766
108	0x3f65a93e	0.8971137
109	0x3f312309	0.69194084
110	0x3f78a56c	0.97127414
111	0x3f32ecfb	0.69892853
112	0x3f5b8c54	0.85761
113	0x3f152ca5	0.5827125
114	0x3f5adc03	0.8549196
115	0x3f380e14	0.7189648
116	0x3f551b6b	0.8324496
117	0x3f7dec33	0.99188536
118	0x3f2358da	0.6380745
119	0x3f03b53d	0.5144842
120	0x3f249419	0.6428848
121	0x3f2356dc	0.6380441
122	0x3f4f310f	0.8093423
123	0x3f9a60a4	1.2060742
124	0x3ee69527	0.4503567
125	0x3f9b2a05	1.2122198
126	0x3f38d147	0.7219433
127	0x3f0d8ec2	0.55295956
128	0x3f094e32	0.5363494
129	0x3f3135cd	0.6922272
130	0x3f2f7501	0.6853791
131	0x3f849d4c	1.0360503
132	0x3f655dfd	0.8959654
133	0x3f78e362	0.9722196
134	0x3f67307d	0.9030836
135	0x3f56b4fa	0.838699
136	0x3f44ac00	0.7682495
137	0x3f271b22	0.65275776
138	0x3ef98807	0.48736593
139	0x3f0a1cfb	0.5395047
140	0x3f5b695d	0.85707647
141	0x3f548acf	0.83024305
142	0x3f1e3f85	0.61815673
143	0x3f67da12	0.90567124
144	0x3f2fa758	0.6861472
145	0x3f54e850	0.8316698
146	0x3f046ba3	0.5172674
147	0x3f1c9a6f	0.61173147
148	0x3f58149a	0.84406435
149	0x3f90eaf5	1.1321703
150	0x3f3d1a89	0.73868614
151	0x3f89e4e1	1.0772973
152	0x3f49d26f	0.7883672
153	0x3fb7c57b	1.4357141
154	0x3f3920a0	0.72315407
155	0x3f70951f	0.9397754
156	0x3f335ba5	0.70061713
157	0x3f5525b1	0.8326064
158	0x3f741295	0.95340854
159	0x3f46b80d	0.7762459
160	0x3f4e7b02	0.80656445
161	0x3f6e50a3	0.9309179
162	0x3ef6a47e	0.48172373
163	0x3f99c3b0	1.2012844
164	0x3f635520	0.88801765
165	0x3f725bab	0.94671124
166	0x3f2416e3	0.6409742
167	0x3f23ef3f	0.64036936
168	0x3f0c7fed	0.548827
169	0x3f3f306c	0.7468326
170	0x3ef69ff2	0.48168904
171	0x3ef868fe	0.48517603
172	0x3f18258c	0.5943229
173	0x3f1d3771	0.6141272
174	0x3f8d4fd3	1.1039985
175	0x3f0b790d	0.54481584
176	0x3f6251bd	0.8840597
177	0x3f1f0db0	0.6213026
178	0x3f1a3fea	0.60253775
179	0x3f498362	0.787161
180	0x3f4f689e	0.8101901
181	0x3f4fce1f	0.8117389
182	0x3f7bdd7a	0.9838482
183	0x3f3cec89	0.73798424
184	0x3f0d3bfe	0.55169666
185	0x3fa46b92	1.2845328
186	0x3f251817	0.64489883
187	0x3f1e8417	0.61920303
188	0x3f787be2	0.9706403
189	0x3f6803f7	0.9063105
190	0x3f3a1ebe	0.7270316
191	0x3f2b2f8c	0.66869426
192	0x3f09473d	0.53624326
193	0x3f33f479	0.7029491
194	0x3f937d0f	1.152254
195	0x3f17a139	0.5923038
196	0x3f06745b	0.52521294
197	0x3edbb086	0.42908114
198	0x3f51d6ef	0.8196859
199	0x3f7f8604	0.99813867

bn2.bias f4 [200]
0	0xbe91f76e	-0.28509086
1	0x3db8558b	0.09000691
2	0xbee0b6cf	-0.43889472
3	0xbe0bcb1f	-0.13651703
4	0xbfb6b068	-1.4272585
5	0xbe8e3c4b	-0.27780375
6	0xbe5e314d	-0.21698494
7	0x3d81e69b	0.06342813
8	0xbf91276c	-1.1340156
9	0xbeec95ce	-0.46208042
10	0xbeb430af	-0.35193393
11	0x3e308fd4	0.17242366
12	0x3e878aca	0.26473075
13	0xbddca473	-0.10773554
14	0x3f4ded96	0.8044065
15	0x3e851b27	0.25997278
16	0x3bf2c93b	0.0074092424
17	0x3ea79800	0.32733154
18	0xbe4d40bb	-0.20044224
19	0x3e49035b	0.19630186
20	0x3e1fb149	0.15594973
21	0x3f324044	0.6962931
22	0x3d8d79aa	0.06907971
23	0x3da89476	0.08231442
24	0x3e8072f0	0.2508769
25	0x3edc636d	0.43044606
26	0xbf08ef3d	-0.5349005
27	0x3d7e7b64	0.062129393
28	0x3e6580fc	0.22412485
29	0x3beef549	0.007292424
30	0xbd979def	-0.0740317
31	0xbf53fc91	-0.8280726
32	0xbe993a96	-0.2992751
33	0x3f2bd31e	0.67119014
34	0xbf45df17	-0.77293533
35	0xbd13df3c	-0.036101565
36	0x3f2cb628	0.6746545
37	0x3cb9c95f	0.022679029
38	0xbe0170d4	-0.12640697
39	0xbd98b605	-0.074565925
40	0xbfadacdc	-1.3568377
41	0xbd952508	-0.07282454
42	0xbe9b650a	-0.30350524
43	0xbe0e8c43	-0.13920693
44	0x3ddd14ac	0.107949585
45	0xbd3b765b	-0.04576717
46	0x3dbf829d	0.093510844
47	0x3e0b648b	0.13612573
48	0xbdb39de8	-0.087703526
49	0xbd6f1d6f	-0.05837768
50	0x3dfdcf28	0.123930275
51	0xbf7c075d	-0.98448735
52	0xbf93930c	-1.152925
53	0xbe4d38bd	-0.20041175
54	0xbf86a6f3	-1.0519699
55	0xbdffc8b8	-0.12489456
56	0xbe8d11cb	-0.27552637
57	0xbe2c9466	-0.16853485
58	0xbc49b5d3	-0.012311417
59	0xbf64f4e3	-0.8943617
60	0xbd8d495f	-0.0689876
61	0xbddc7c53	-0.107659005
62	0x3e96ec30	0.29477072
63	0xbe24f184	-0.16107756
64	0x3e410987	0.1885129
65	0xbf40211d	-0.75050527
66	0x3ef9ccfb	0.487892
67	0xbf448680	-0.7676773
68	0x3daeda34	0.08537713
69	0x3d1e6e6c	0.038679525
70	0xbe407ca7	-0.18797551
71	0x3cd60f6e	0.026130404
72	0xbd4ccf9f	-0.05000269
73	0xbf0ff391	-0.5623103
74	0xbeb2730d	-0.34853402
75	0xbe150428	-0.14552367
76	0x3e68aefc	0.22723001
77	0xbe6e4459	-0.2326826
78	0xbf001fde	-0.50048625
79	0x3ea9f30f	0.33193251
80	0xbf649c8c	-0.8930137
81	0xbcff5ce3	-0.031172222
82	0xbe3cd7f6	-0.18441758
83	0x3e7e3bb4	0.24827462
84	0x3e942c71	0.28940156
85	0x3e85b08e	0.26111263
86	0x3e25e64f	0.16201137
87	0xbe723d74	-0.23656255
88	0xbec6dbd0	-0.3883958
89	0x3e6f7282	0.23383525
90	0xbe37f989	-0.17966284
91	0xbe32733f	-0.17426775
92	0x3e6e2dfc	0.23259729
93	0x3dc9ac59	0.09847326
94	0x3d83d6f9	0.06437487
95	0xbf265831	-0.6497832
96	0xbf85a408	-1.0440683
97	0xbf85d42e	-1.0455377
98	0x3e989715	0.29802766
99	0x3f19900b	0.5998542
100	0x3df8f7d9	0.12156648
101	0xbdea6dfd	-0.1144676
102	0xbde8eebe	-0.113736615
103	0x3f349788	0.7054372
104	0xbf1be7ae	-0.6090039
105	0xbe822503	-0.25418863
106	0x3f3aef0d	0.7302101
107	0xbe39623d	-0.18103881
108	0xbe618a70	-0.22025466
109	0x3f2a4113	0.66505545
110	0x3e2c22a6	0.16810092
111	0xbd266729	-0.040625725
112	0x3f36f497	0.71466964
113	0x3d8f4cd1	0.069970734
114	0xbf1a4995	-0.6026853
115	0xbd4fc1c7	-0.05072191
116	0xbdcdc4d1	-0.100473054
117	0xbe37a5d5	-0.17934354
118	0xbe923b1d	-0.28560725
119	0x3d956ce2	0.072961584
120	0x3f9148a7	1.1350297
121	0x3ecb683c	0.39727962
122	0x3eac3e5b	0.33641323
123	0x3dbe5436	0.09293406
124	0x3eddcb8f	0.43319365
125	0xbfaa71cd	-1.3315979
126	0xbd5172e9	-0.051134977
127	0xbe93420b	-0.28761324
128	0xbe612116	-0.21985278
129	0x3e38dab5	0.1805218
130	0x3e87692f	0.26447436
131	0xbf483223	-0.782015
132	0xbd980405	-0.07422642
133	0xbee1b600	-0.44084167
134	0xbecda428	-0.40164304
135	0xbf96d8c4	-1.1784902
136	0x3ec5d78d	0.38641015
137	0xbea6ebaf	-0.32601687
138	0x3da1fa72	0.07909097
139	0xbc8c52d2	-0.017129336
140	0xbf99ba49	-1.2009975
141	0x3eb5084e	0.35357898
142	0x3bdcdfb0	0.006740533
143	0x3e485220	0.19562578
144	0x3d883316	0.06650369
145	0x3f1ca183	0.6118395
146	0xbcfdb56d	-0.0309703
147	0xbb37ba16	-0.00280345
148	0x3ee90ba1	0.45516685
149	0xbf5c08dc	-0.8595102
150	0x3e152236	0.14563832
151	0xbe80082a	-0.2500623
152	0x3e9d0fdb	0.3067616
153	0xbed10a17	-0.4082801
154	0xbe305f53	-0.17223863
155	0xbf84fcd7	-1.0389661
156	0xbe2e6828	-0.1703192
157	0xbe3a5627	-0.18196927
158	0xbf600273	-0.8750374
159	0x3c847291	0.01616791
160	0x3e85f47f	0.26163098
161	0xbe9beb98	-0.3045318
162	0x3e74ee52	0.23919037
163	0xbf4a2d9e	-0.78975856
164	0xbf93681f	-1.151615
165	0xbe24cfd0	-0.16094899
166	0xbe2413b5	-0.16023143
167	0xbe5e0e47	-0.21685134
168	0x3f3ac764	0.72960496
169	0xbd5229ec	-0.05130951
170	0x3ddab04f	0.106781594
171	0x3f0cae78	0.5495372
172	0xbe803870	-0.25043058
173	0xbe8161c5	-0.25269905
174	0x3cef587e	0.029217001
175	0xbe5ba63b	-0.2145013
176	0xbf6bcf0c	-0.92112803
177	0x3e8ffa73	0.28120765
178	0x3e186f58	0.14886224
179	0xbeddc8f4	-0.43317378
180	0xbdb89998	-0.09013671
181	0xbec435b4	-0.38322222
182	0x3f28d700	0.65953064
183	0xbea5a50e	-0.3235249
184	0x3dfc77ca	0.123275355
185	0xbe890b1f	-0.26766297
186	0x3e21dfbe	0.15808007
187	0x3c801e10	0.015639335
188	0xbe876058	-0.26440692
189	0x3e0515a0	0.1299653
190	0x3e08e4ab	0.1336848
191	0x3ca0c5d6	0.019625586
192	0x3d2c64c2	0.042088278
193	0x3ed94db8	0.42442107
194	0xbf133f2b	-0.5751826
195	0xbefa94ad	-0.48941556
196	0xbcfb555e	-0.030680355
197	0x3dcd7a91	0.10033143
198	0x3df0c648	0.11756569
199	0x3d66fd30	0.056393802

bn2.running_mean f4 [200]
0	0x3eb6fc3c	0.35739315
1	0x3ec427cb	0.3831161
2	0x3f37f1a6	0.718531
3	0xbf5a1408	-0.85186815
4	0x3f2940ab	0.661143
5	0xbfaba939	-1.3411018
6	0x3f09a848	0.537724
7	0xbf8906f0	-1.0705242
8	0x3fba08f7	1.4533986
9	0xbd524cf7	-0.05134293
10	0x3d57919a	0.05262909
11	0x3ec47227	0.3836834
12	0xbe957a1c	-0.29194725
13	0x3eb8cd88	0.36094308
14	0xbfa4b986	-1.2869117
15	0xbf92ae99	-1.1459533
16	0xbfaf7736	-1.3708255
17	0xbf3ade56	-0.7299551
18	0xbf7063d2	-0.93902314
19	0xbf063410	-0.5242319
20	0x3e613b2e	0.21995232
21	0xbfaf095c	-1.3674731
22	0x3f08f51c	0.5349901
23	0xbf9d4c46	-1.2288902
24	0x3f9739ca	1.1814511
25	0xbfcf7dfb	-1.6210321
26	0xbe0a837f	-0.13526724
27	0xbf0cec91	-0.5504847
28	0x3e9158f9	0.28388193
29	0xbfa3d873	-1.280043
30	0xbded2d71	-0.11580933
31	0xbf653b7c	-0.8954389
32	0x3f4a992a	0.7913996
33	0xbf4eaf6a	-0.8073641
34	0x3f314aef	0.69254965
35	0x4009aaf4	2.1510592
36	0xbf702361	-0.93803984
37	0x3f5b8650	0.8575182
38	0xbdf7bbd8	-0.12096375
39	0xbeb45610	-0.3522191
40	0x400ed228	2.231577
41	0x3f28f3b3	0.65996855
42	0x3e1cdd18	0.15318716
43	0xbf6bc7a1	-0.92101485
44	0xbbaaab01	-0.0052083735
45	0x3eb49f0d	0.35277596
46	0xbf58ace0	-0.84638786
47	0x3f1b411e	0.60646236
48	0x3e9df26e	0.30849022
49	0x3f8eb6de	1.1149557
50	0xbf94b8cb	-1.1618894
51	0x3fe4bc93	1.7870048
52	0x3f74e0c4	0.95655465
53	0xbeff784b	-0.49896464
54	0x3fd0ebde	1.6321981
55	0xbeac75aa	-0.3368352
56	0x3f85e6ef	1.04611
57	0x3fd4e3e8	1.6632051
58	0xbef77c1b	-0.48336872
59	0xbe59c32d	-0.2126586
60	0xbea4035e	-0.3203382
61	0xbfb02daf	-1.3763942
62	0xbf9160c1	-1.1357652
63	0x3e2062f1	0.15662743
64	0x3e3b6b17	0.1830257
65	0xbf0da96a	-0.5533663
66	0xbfb472f8	-1.4097586
67	0x3f4525ac	0.7701061
68	0xbebc0f05	-0.3673021
69	0xbe9ca0ad	-0.30591336
70	0x3f7d32ca	0.9890562
71	0xbfdb7265	-1.7144285
72	0xbed27a68	-0.41109014
73	0xbfd752ca	-1.682214
74	0xbe38c284	-0.18042952
75	0x3fe9ef35	1.8276125
76	0xc0042793	-2.0649154
77	0x3f37e884	0.71839166
78	0x3eceb9d3	0.40376148
79	0x3f185999	0.59511715
80	0x3f39c888	0.7257161
81	0x3ed33eb8	0.41258788
82	0x401d8ab1	2.46159
83	0xbf09a31f	-0.5376453
84	0xbe4f469c	-0.20241779
85	0xbebef06d	-0.37292805
86	0x3f1375f5	0.57601863
87	0x3f8f10bd	1.1176983
88	0xbdd4af94	-0.10385051
89	0xbed9fac8	-0.42574143
90	0xbf77c6ed	-0.9678791
91	0xbfa11628	-1.2584887
92	0xbfa3904b	-1.277841
93	0x3ee6923e	0.4503345
94	0x3f69e0c8	0.91358614
95	0xbfe281d0	-1.7695866
96	0x3f8253b8	1.0181799
97	0x3f333118	0.69996786
98	0xbf97bec8	-1.1855097
99	0xbfb8eba8	-1.4446917
100	0x3f93f961	1.1560479
101	0xbe84d6b8	-0.25945067
102	0xbf00817a	-0.50197566
103	0x3e38b810	0.18038964
104	0x3f8daea2	1.1068919
105	0x3f1f5cda	0.62251055
106	0xbfbc8107	-1.4726876
107	0x3e7ce1ee	0.2469556
108	0xbd1011e6	-0.03517332
109	0xbf57c04c	-0.84277797
110	0x3e3fb73c	0.18722242
111	0xbf0b0a0a	-0.54312193
112	0xbce8e961	-0.028431596
113	0xbfd57e34	-1.6679139
114	0xbe76cfe1	-0.24102737
115	0xbf509f27	-0.8149285
116	0xbf99d6dc	-1.2018695
117	0xbf779956	-0.9671835
118	0xbf87da35	-1.0613467
119	0x3e17b44e	0.14814875
120	0xbf9105c8	-1.1329889
121	0x3f0273cd	0.5095795
122	0xbf79e294	-0.97611356
123	0xbfb96e3c	-1.4486766
124	0xbe186cec	-0.148853
125	0x3fbc1d7d	1.4696499
126	0x3f9bfc3b	1.218635
127	0xbeaf57da	-0.34246713
128	0x3fc7631f	1.5577124
129	0xbf93a411	-1.1534444
130	0xbee26f89	-0.4422572
131	0x3db01639	0.08597989
132	0xbf2e6386	-0.6812061
133	0x3f028bdb	0.5099465
134	0x3f9f2bb7	1.2435216
135	0x3f7c1e8e	0.9848412
136	0x3f7409bb	0.9532735
137	0xbe52ea6f	-0.20597242
138	0xbe49f6af	-0.19723009
139	0x3f51e4ed	0.8198994
140	0x400011d9	2.0010893
141	0x3f0578db	0.52137536
142	0xbea924ca	-0.3303588
143	0x3eae4172	0.34034306
144	0xbeb605b0	-0.35551214
145	0xbf981064	-1.1880002
146	0x3f234eda	0.6379219
147	0xbf1184d5	-0.5684331
148	0x3d28bec9	0.041197572
149	0xbe5965f2	-0.21230295
150	0x3fee097d	1.8596646
151	0x3fc39fb0	1.5283108
152	0xbfe6140d	-1.7974869
153	0x3e7c3c65	0.24632414
154	0x3fbd5ac0	1.479332
155	0x3f4f7de1	0.8105145
156	0x3fd0a91b	1.6301607
157	0x3f5450f3	0.8293602
158	0x3fbe521a	1.4868805
159	0x3f201060	0.62524986
160	0x3f2a7053	0.66577643
161	0x3f99c41a	1.201297
162	0xbfc8c0e3	-1.5683864
163	0xbfc0978f	-1.5046252
164	0x400632ae	2.0968432
165	0x3d84d0b1	0.06485117
166	0x3e3a1664	0.18172604
167	0xbe278565	-0.1635948
168	0xbf25916c	-0.6467502
169	0x3f1725db	0.5904214
170	0x3f4424bf	0.7661857
171	0xbf5b8fcc	-0.8576629
172	0xbf36f501	-0.71467596
173	0x3f811c9f	1.008686
174	0xbfd88fd1	-1.6918889
175	0xbee8682c	-0.45391977
176	0x400a5873	2.1616485
177	0xbed3048c	-0.41214406
178	0xbf223099	-0.63355404
179	0x4002c8c8	2.0435047
180	0xbfdcd74f	-1.7253207
181	0x3f2a8052	0.6660205
182	0xbf5c2469	-0.8599306
183	0x3ede1b12	0.43380028
184	0x3f37572a	0.71617377
185	0xbf3d6ec6	-0.7399715
186	0x3f8e7af0	1.1131268
187	0xbf842f15	-1.0326868
188	0x3f6cb0ad	0.92457086
189	0xbf8e144c	-1.1099944
190	0x3ee4e523	0.44706067
191	0xbe931033	-0.28723297
192	0x3c846c60	0.016164958
193	0xbf76d1ad	-0.9641369
194	0xbf6716d5	-0.90269214
195	0xbecbdef5	-0.3981854
196	0x3fc7dacf	1.561365
197	0xbfca433f	-1.5801772
198	0xbf706958	-0.9391074
199	0xbeab2698	-0.33427882
