artifacts/dynaPhysics/190_walkerDynamics.pt (torch, 191930 bytes, 20 tensors)

linear1.weight f4 [100, 24]
0.7228751 0.35589626 -0.22632736 0.31120524 0.107848644 -0.2387012 -0.09792618 -0.030367136
-0.040958017 0.03185364 0.23162518 0.0066674897 -0.10153558 -0.07665403 0.05363462 0.10500356
0.042876843 0.006694626 0.18662766 -0.32487023 1.1045644 -0.18417524 0.8253842 -0.067789905
2.6371984 0.057029445 0.015842972 -0.2711775 -0.077565245 0.011223402 0.018836532 0.06426606
0.009345512 0.34398443 0.044121914 0.026307257 0.011715178 0.009626531 0.00010997362 0.007044225
0.005164606 0.0035396602 0.3799484 -0.053774446 0.039654538 0.43955445 -0.055400938 -0.0027344225
0.3832765 0.03176306 0.15168402 -0.18353058 -0.06567455 -0.0010721359 0.24811824 0.7014454
-1.5093555 0.0011314295 -0.056935914 -0.082644254 0.004532574 0.0061744093 -0.0017448678 0.06425183
0.05307421 -0.023659343 0.039977092 -0.018642303 0.012565913 0.08649797 0.13765027 -0.6224166
-3.1860626 0.15927215 0.044376686 -0.0009173103 0.060711104 0.031479582 -0.32623836 -0.030077089
-0.041489817 0.71810275 0.3369174 0.38357645 -0.08857216 -0.023303304 0.0048524123 -0.113333546
-0.031780478 0.0013101345 0.00617476 -0.08068254 0.050081734 0.09200919 0.025561802 0.049848307
0.035183344 0.046035033 0.06698169 -0.94728994 2.1417835 0.2088501 -0.12231829 0.0020314401
0.02321276 0.0089247 -0.055797495 -0.0434886 0.019738546 0.04714854 0.00822623 -0.0032726885
0.0012956976 0.0029590696 0.46888408 -0.4490459 0.17145924 0.0092770355 -0.0125397295 -0.02542719
-0.36761537 -0.071407 0.060873736 0.42496362 0.0934971 0.6263661 0.07791518 -0.0069283675
-0.15217856 0.0132744955 0.16629508 -0.03647328 -0.06328381 0.01185782 -0.088419236 0.040732313
-0.015524453 0.034974903 -0.018125465 0.21582223 -1.4696503 -0.36566594 0.5190781 0.3253272
-5.2973948 0.0064948974 0.018532733 0.45982414 -0.013899429 0.003732236 -0.37558675 -0.10930724
0.0002366075 -0.12466854 -0.020393232 -0.015976338 0.014004615 -0.0044246376 0.00030192226 -0.0060263616
-0.0018754009 0.0009726062 0.03746459 -0.018363863 -0.0031993773 -0.025319317 0.027525973 0.0006117176
-0.7401708 0.0021750554 0.017361684 0.41148746 1.0810964 -1.1060463 -0.13242601 -0.006220031
-0.014710008 -0.024666525 0.019047998 -0.037348468 0.03499686 0.05311624 -0.02834844 -0.0013093422
-0.003849914 -0.0012759439 -0.044454165 0.09016022 -0.2964594 0.006284846 0.052432742 -0.010563789
0.54586977 0.039459646 0.042855863 -1.7336986 0.8995162 0.0043953056 0.24825822 0.0018010756
0.045731705 0.03110017 0.06279491 0.07204522 -0.07714541 0.0029813957 -0.0009718064 0.013353665
-0.0006146579 0.0012346068 -0.4244516 0.1768717 -0.06622391 -0.12584223 0.037427388 0.007446536
-3.5152192 0.008455677 0.016346082 -0.10032812 -0.0283208 0.0053978767 0.6001641 -0.2434026
0.0046860087 -0.056156036 0.034318265 -0.027042858 0.0043532667 2.4221354e-05 0.00059317617 0.02036163
-0.008253766 -0.0014700956 0.07578382 -0.008687651 -0.006632463 0.13215023 -0.09266736 0.029184002
-0.08182025 0.0029534283 0.029044246 0.8566777 -0.86936796 0.04204181 1.3775141 -0.38430342
0.057579543 0.044576455 0.017588433 0.023526397 0.014965024 -0.016951399 0.002914222 0.023513293
00000000: 580e 393f 0938 b63e 5cc2 67be 4b56 9f3e
00000010: c0df dc3d 166e 74be 858d c8bd 80c4 f8bc
00000020: 98c3 27bd f678 023d 272f 6d3e f57a da3b
00000030: e3f1 cfbd cafc 9cbd faaf 5b3d 1b0c d73d
00000040: a19f 2f3d 985e db3b 521b 3f3e 6455 a6be
00000050: 5e62 8d3f 6f98 3cbe 614c 533f 6fd5 8abd
00000060: dcc7 2840 b597 693d 1fc9 813c c7d7 8abe
00000070: 87da 9ebd 5ce2 373c 124f 9a3c ed9d 833d
00000080: eb1d 193c ba1e b03e 2eb9 343d 5182 d73c
00000090: 05f1 3f3c 99b8 1d3c a3a1 e638 3ed3 e63b
000000a0: db3b a93b a5f9 673b 9988 c23e 9842 5cbd
000000b0: cc6c 223d 480d e13e 18ec 62bd ff33 33bb
000000c0: d13c c43e fb19 023d 0e53 1b3e 71ef 3bbe
000000d0: 6180 86bd e986 8cba b512 7e3e ed91 333f
000000e0: 9032 c1bf 794c 943a a235 69bd 6441 a9bd
000000f0: fd85 943b b352 ca3b 0cb4 e4ba 7796 833d
00000100: 5864 593d 3dd1 c1bc 05bf 233d beb7 98bc
00000110: 42e1 4d3c d925 b13d 31f4 0c3e b256 1fbf
00000120: 73e8 4bc0 3d18 233e 54c4 353d a777 70ba
00000130: 35ac 783d bcf0 003d b708 a7be 3a64 f6bc
00000140: 3af1 29bd 95d5 373f 7080 ac3e 2264 c43e
00000150: 5265 b5bd 92e6 bebc fc00 9f3b 6b1b e8bd
00000160: 3f2c 02bd d2b8 ab3a a455 ca3b e33c a5bd
00000170: 8122 4d3d 506f bc3d fc66 d13c bd2d 4c3d
00000180: 691c 103d 3b8f 3c3d b22d 893d 9881 72bf
00000190: fb12 0940 cddc 553e 0382 fabd e921 053b
000001a0: b028 be3c e838 123c ea8b 64bd 1a21 32bd
000001b0: bbb2 a13c d41e 413d 4fc7 063c 9a7a 56bb
000001c0: 66d4 a93a f3ec 413b 9311 f03e 58e9 e5be
000001d0: 0393 2f3e b5fe 173c 7073 4dbc af4c d0bc
000001e0: 1538 bcbe d53d 92bd bd56 793d d594 d93e
000001f0: 687b bf3d 8759 203f fe91 9f3d 5c07 e3bb
00000200: b2d4 1bbe 457d 593c 4249 2a3e 0265 15bd
00000210: f19a 81bd 4d47 423c 2515 b5bd edd6 263d
00000220: 465a 7ebc d841 0f3d db7b 94bc 8100 5d3e
00000230: 801d bcbf 9138 bbbe 4de2 043f 4991 a63e
00000240: 4284 a9c0 26d3 d43b f5d1 973c 126e eb3e
00000250: 6eba 63bc 8898 743b e84c c0be 79dc dfbd
00000260: d819 7839 3852 ffbd b50f a7bc cfe0 82bc
00000270: 9d73 653c 8dfc 90bb 524b 9e39 c978 c5bb
00000280: 03d0 f5ba 7ff6 7e3a 7874 193d d06f 96bc
00000290: a5ac 51bb 756a cfbc 267e e13c ac5b 203a
000002a0: d57b 3dbf 608b 0e3b 173a 8e3c 7cae d23e
000002b0: 5e61 8a3f ed92 8dbf af9a 07be 67d1 cbbb
000002c0: 3f02 71bc 7411 cabc 8c0a 9c3c b5fa 18bd
000002d0: de58 0f3d 6a90 593d fd3a e8bc 3c9e abba
000002e0: d74e 7cbb 933d a7ba 9215 36bd eca5 b83d
000002f0: 87c9 97be 1cf1 cd3b b7c3 563d be13 2dbc
00000300: 1fbe 0b3f 70a0 213d a189 2f3d d6e9 ddbf
00000310: b246 663f 7f06 903b 6737 7e3e 1212 ec3a
00000320: 2b51 3b3d c9c5 fe3c 9e9a 803d 728c 933d
00000330: 6afe 9dbd 8563 433b d3c0 7eba 55c9 5a3c
00000340: fe20 21ba 88d2 a13a b851 d9be db1d 353e
00000350: 67a0 87bd c9dc 00be 764d 193d 1202 f43b
00000360: 5af9 60c0 ae89 0a3c 38e8 853c d478 cdbd
00000370: 0601 e8bc ace0 b03b 5ba4 193f 883e 79be
00000380: 178d 993b df03 66bd 4f91 0c3d fc88 ddbc
00000390: d9a5 8e3b f62e cb37 617f 1b3a 6fcd a63c
000003a0: ce3a 07bc 39b0 c0ba 8c34 9b3d a656 0ebc
000003b0: 2255 d9bb 6452 073e 63c8 bdbd 4a13 ef3c
000003c0: 6091 a7bd 4e8e 413b 33ee ed3c 3b4f 5b3f
000003d0: e68e 5ebf 0834 2c3d 6252 b03f 6bc3 c4be
000003e0: 87d8 6b3d cd95 363d 9e15 903c 6eba c03c
000003f0: dc2f 753c a9dd 8abc 88fc 3e3b f39e c03c

linear1.bias f4 [100]
-0.055470087 -0.08027117 -0.08563033 -0.04695639 -0.03452519 -0.19954455 -0.000860023 0.24284329
-0.06723435 0.09763918 -0.22961156 0.18831483 -0.05569232 0.13903339 0.015170002 0.038546875
0.010576 -0.10563526 -0.15466025 -0.034543138 -0.030620106 0.1361987 0.27901995 0.04011687
-0.011119129 -0.014846624 0.23933044 -0.19783816 -0.20617516 0.122940764 -0.06884964 0.25977606
-0.093420684 0.070328236 -0.004712262 -0.10401722 0.12937546 -0.14413838 -0.04974861 -0.07689525
-0.19508144 -0.15277165 -0.05385041 0.290686 -0.045999307 0.10464639 -0.031132948 0.08522052
-0.095858164 0.2580038 0.16276293 0.08262762 -0.006229743 -0.19007243 -0.10177253 -0.16066407
-0.1304657 0.07914386 0.090910934 0.083274096 -0.091216944 0.1418502 0.004208409 0.23856689
0.09026625 0.14814653 -0.14540306 -0.22764894 0.10771624 0.03074799 -0.047605664 -0.010602198
0.029706677 0.016559852 0.20694141 0.0043229414 -0.13791904 -0.009317278 0.07047124 0.19545883
0.08253531 -0.11545603 0.13992673 -0.11142065 0.0069718235 -0.14480713 -0.16125698 -0.11463784
-0.06400917 -0.028004885 -0.1952708 -0.16500205 0.05663611 -0.1240323 -0.11180672 -0.08823257
-0.028675668 0.23906484 0.008363506 0.14741202
00000000: 9a34 63bd 3665 a4bd f45e afbd 5855 40bd
00000010: 496a 0dbd 6855 4cbe 2b73 61ba e9ab 783e
00000020: 2ab2 89bd 0df7 c73d 4b1f 6bbe 9ad5 403e
00000030: a11d 64bd c55e 0e3e 9a8b 783c 54e3 1d3d
00000040: f646 2d3c 4d57 d8bd 425f 1ebe 1b7d 0dbd
00000050: 04d7 fabc ac77 0b3e b4db 8e3e 9651 243d
00000060: 022d 36bc 413f 73bc 0a13 753e 1696 4abe
00000070: 951f 53be 5ec8 fb3d 0a01 8dbd 5e01 853e
00000080: 5853 bfbd 4008 903d 5269 9abb fb06 d5bd
00000090: 007b 043e 0399 13be 33c5 4bbd 427b 9dbd
000000a0: 6ec3 47be 2c70 1cbe 3f92 5cbd ccd4 943e
000000b0: c569 3cbd d950 d63d 860a ffbc 1988 ae3d
000000c0: 4951 c4bd 1319 843e 53ab 263e ab38 a93d
000000d0: df22 ccbb 59a2 42be 1e6e d0bd 1f85 24be
000000e0: cd98 05be 2d16 a23d 832f ba3d 9c8b aa3d
000000f0: f3cf babd 2e41 113e b2e6 893b e14a 743e
00000100: 83dd b83d b9b3 173e 8ae4 14be ce1c 69be
00000110: 559a dc3d 35e3 fb3c 28fe 42bd d7b4 2dbc
00000120: 6b5b f33c 87a8 873c 73e8 533e 76a7 8d3b
00000130: a63a 0dbe 7fa7 18bc 3a53 903d 5c26 483e
00000140: 4608 a93d 3674 ecbd f448 0f3e 8230 e4bd
00000150: e573 e43b 5248 14be 8d20 25be 3ec7 eabd
00000160: 3d17 83bd 806a e5bc 12f5 47be 4cf6 28be
00000170: 44fb 673d a604 febd ecfa e4bd 47b3 b4bd
00000180: 3ce9 eabc 6acd 743e 1607 093c 2df3 163e

bn1.weight f4 [100]
0.33661163 0.4961247 0.54883116 0.37306157 1.0978333 0.6528799 1.3869412 0.6572718
1.0758536 0.744508 1.0028628 0.5837059 0.29764304 1.1279747 0.24129662 0.73167014
0.67356926 0.40371135 0.27028325 0.28617752 0.46450517 0.42327368 1.421324 0.39849827
0.43882462 0.36758348 0.7333406 0.65476155 0.6275891 0.698531 0.45854712 1.1051592
0.6277076 0.28381082 1.8963983 1.0933003 1.4881324 0.5089019 1.3895215 0.7069875
0.45306197 0.73526406 0.6881791 0.6245445 0.6053424 0.54784125 0.9829361 1.1175481
0.33998492 0.49449527 1.2366352 0.31562898 0.66132045 0.32494506 0.6336931 0.37433663
1.7272958 0.7318675 1.0869882 0.3749341 0.5033542 0.4061816 0.5625389 0.95769376
0.34078565 1.4593709 0.267803 0.89277875 0.9052962 0.5878792 0.2726514 0.22647512
0.3376307 0.96434295 0.2073247 0.61765164 0.5214123 0.67757374 0.26971415 0.65803164
0.44888347 0.57010037 0.901771 0.25799322 0.8601546 0.43376374 0.95067734 0.43544993
0.40444246 0.5118859 1.8982216 0.36643133 1.1873554 1.1466366 0.19442156 0.4835818
0.5206089 1.1931634 0.24429451 0.67383814
00000000: 5c58 ac3e 0f04 fe3e 3380 0c3f ed01 bf3e
00000010: cd85 8c3f 2323 273f 4a87 b13f f742 283f
00000020: 92b5 893f 1498 3e3f cf5d 803f c06d 153f
00000030: ab64 983e 7a61 903f 7616 773e bc4e 3b3f
00000040: 096f 2c3f 41b3 ce3e 9162 8a3e dc85 923e
00000050: 9fd3 ed3e 54b7 d83e f2ed b53f f707 cc3e
00000060: 9fad e03e e733 bc3e 36bc 3b3f 749e 273f
00000070: aea9 203f edd2 323f b0c6 ea3e db75 8d3f
00000080: 72b1 203f a74f 913e 2ebd f23f 44f1 8b3f
00000090: 1f7b be3f 6547 023f d7db b13f 22fd 343f
000000a0: bdf7 e73e 443a 3c3f 812c 303f 26e2 1f3f
000000b0: b8f7 1a3f 533f 0c3f b3a1 7b3f d10b 8f3f
000000c0: 8112 ae3e 7c2e fd3e 104a 9e3f 1f9a a13e
000000d0: 4c4c 293f 335f a63e b639 223f 0da9 bf3e
000000e0: 0718 dd3f ab5b 3b3f 6e22 8b3f 5df7 bf3e
000000f0: d2db 003f 09f7 cf3e 8d02 103f 6b2b 753f
00000100: 757b ae3e aacc ba3f 7a1d 893e 268d 643f
00000110: 7ec1 673f 407f 163f f798 8b3e 18e9 673e
00000120: eedd ac3e 2edf 763f ed4c 543e 6b1e 1e3f
00000130: 477b 053f 7975 2d3f f917 8a3e c374 283f
00000140: 0ed4 e53e 19f2 113f 77da 663f b017 843e
00000150: 1833 5c3f 4816 de3e 975f 733f 4bf3 de3e
00000160: 1513 cf3e f40a 033f edf8 f23f e39c bb3e
00000170: 43fb 973f fdc4 923f 7216 473e 0998 f73e
00000180: a046 053f 94b9 983f 5728 7a3e a880 2c3f

bn1.bias f4 [100]
1.2619098 0.6651697 -0.026111992 0.19597138 -0.13673952 -0.0025378065 0.49365124 0.01841342
-0.37998322 0.66502994 -0.0005795715 0.23751347 -0.002106518 -0.6844341 0.033675052 0.44859734
-0.26450872 0.35037652 -0.068053134 0.028478766 0.02596819 -0.031461515 -0.2937606 -0.21899445
-0.098755255 0.7138334 -0.11283809 0.1073607 -0.16467457 -0.23478018 -0.18803781 0.5336255
0.059954897 0.0844624 1.0295136 1.001245 -1.0295439 0.057993587 0.547728 0.49831268
-0.03993956 -0.1516881 0.117788576 2.4914703 0.6003486 0.1366325 0.4477908 -0.15604652
0.2042869 0.41451424 -0.49223027 -0.012747738 0.031341266 -0.11199245 -0.028410312 0.2964743
-0.3576405 -0.07674784 0.2606207 -0.29688585 -0.12538068 -0.03804894 0.15046111 0.44534436
1.0744907 -0.9515353 -0.0052136215 -0.42329526 -0.26916873 0.23626284 0.4698029 0.14754371
-0.0221868 0.20300734 0.15604079 -0.10360942 0.008670071 -0.0532418 -0.02893768 0.005394266
0.028391266 -0.14187068 0.06327465 0.23143464 0.38387445 0.16956598 0.88267803 -0.092214525
0.017152198 0.1356875 -1.4327376 -0.090365104 0.022309288 -0.24462165 0.42433274 -0.030439803
1.8096435 0.36660308 -0.0016769089 0.06083692
00000000: 4386 a13f 9048 2a3f d1e8 d5bc b9ac 483e
00000010: 7205 0cbe 5451 26bb dbbf fc3e bed7 963c
00000020: 298d c2be 673f 2a3f 63ee 17ba bb36 733e
00000030: 820d 0abb 1337 2fbf daee 093d 8dae e53e
00000040: b06d 87be 8d64 b33e 715f 8bbd 4d4c e93c
00000050: 3ebb d43c cadd 00bd ca67 96be 1540 60be
00000060: 3240 cabd c9bd 363f a817 e7bd eddf db3d
00000070: 73a0 28be 376a 70be fc8c 40be ae9b 083f
00000080: 4493 753d 9ffa ac3d 1ac7 833f cc28 803f
00000090: 18c8 83bf af8a 6d3d e737 0c3f d722 ff3e
000000a0: aa97 23bd 2054 1bbe 233b f13d 4074 1f40
000000b0: 72b0 193f 64e9 0b3e d644 e53e a9ca 1fbe
000000c0: 9630 513e 363b d43e 9b05 fcbe e3db 50bc
000000d0: b35f 003d 4c5c e5bd bebc e8bc 7bcb 973e
000000e0: a81c b7be f92d 9dbd 1470 853e 6c01 98be
000000f0: cb63 00be 35d9 1bbd 7a12 1a3e 2d04 e43e
00000100: e988 893f d197 73bf 07d7 aabb 28ba d8be
00000110: 7cd0 89be e3ee 713e 018a f03e b315 173e
00000120: 18c1 b5bc 28e1 4f3e 28c9 1f3e 2d31 d4bd
00000130: ea0c 0e3c 1314 5abd b70e edbc 62c2 b03b
00000140: cd94 e83c 8c46 11be 2496 813d 34fd 6c3e
00000150: 318b c43e b4a2 2d3e 30f7 613f f8da bcbd
00000160: c482 8c3c aaf1 0a3e f263 b7bf 5711 b9bd
00000170: f8c1 b63c 197e 7abe 2442 d93e e55c f9bc
00000180: 66a2 e73f 66b3 bb3e bacb dbba 2230 793d

bn1.running_mean f4 [100]
-0.8481953 -3.2027788 -1.3313426 3.1760838 -3.9124043 0.4189221 6.1501393 -0.23635888
-3.0146635 4.757279 3.1955059 -0.0035600155 0.022454582 -2.994491 -2.0193896 -1.097016
-0.52291334 2.114989 -0.9171085 -1.9246968 -1.5872049 -0.06478691 0.68259734 -3.2437859
-0.14008461 2.3677647 -0.35193694 -0.116121076 -1.2976222 -1.0600009 2.186472 0.46463615
-1.8236675 1.9468257 1.0725497 -0.09550436 -2.599229 1.8382269 0.13659798 -2.3958726
-0.36521426 0.93722206 0.38057047 0.49345306 -2.2375627 3.4264052 0.15540954 -1.772944
0.14336091 1.5941105 3.9188888 0.14631915 -0.48745465 0.41371912 0.1788109 0.9816726
-1.045218 4.2742167 -0.23437363 0.36920196 -2.0633986 0.80430907 1.0723598 1.1397668
0.07317376 -1.9734684 0.07657016 -1.0887784 -0.0061637606 0.46295533 -0.16036564 -0.727938
-2.774907 0.7777256 2.5217006 -0.088389374 -0.6583788 2.0238063 -1.3266295 -0.45259976
0.3917734 -3.3923438 1.5966041 -2.4934282 0.4444853 -2.4375825 2.048487 1.8734788
0.8228609 -0.5158403 -2.1167736 -1.6778471 -1.5113187 -2.2047858 2.3110666 1.3888161
-1.0057244 5.941484 -0.81695944 -2.1203017
00000000: 5423 59bf 54fa 4cc0 6f69 aabf f544 4b40
00000010: d564 7ac0 f57c d63e f1cd c440 1008 72be
00000020: 3ff0 40c0 a13b 9840 2b83 4c40 264f 69bb
00000030: acf2 b73c bea5 3fc0 ae3d 01c0 056b 8cbf
00000040: a6dd 05bf fb5b 0740 9fc7 6abf 775c f6bf
00000050: 8829 cbbf 00af 84bd b3be 2e3f 309a 4fc0
00000060: 5772 0fbe 7589 1740 1431 b4be e3d0 edbd
00000070: 7c18 a6bf 1cae 87bf 28ef 0b40 cae4 ed3e
00000080: f06d e9bf 9631 f93f 4f49 893f ca97 c3bd
00000090: c559 26c0 054b eb3f 57e0 0b3e fa55 19c0
000000a0: 5dfd babe c9ed 6f3f 22da c23e e1a5 fc3e
000000b0: 3a34 0fc0 394a 5b40 ae23 1f3e d4ef e2bf
000000c0: 34cd 123e d00b cc3f 13cf 7a40 b0d4 153e
000000d0: a893 f9be fed2 d33e 341a 373e e54e 7b3f
000000e0: b4c9 85bf 62c6 8840 a4ff 6fbe 0a08 bd3e
000000f0: b90e 04c0 33e7 4d3f 1643 893f e1e3 913f
00000100: 20dc 953d 9d9a fcbf d1d0 9c3d 175d 8bbf
00000110: 5ff9 c9bb 7b08 ed3e e436 24be 255a 3abf
00000120: 1498 31c0 0619 473f 8b63 2140 7d05 b5bd
00000130: 838b 28bf 0b86 0140 ffce a9bf 28bb e7be
00000140: 8696 c83e 291c 59c0 865d cc3f 5494 1fc0
00000150: 9493 e33e 5a01 1cc0 691a 0340 27ce ef3f
00000160: 03a7 523f 1c0e 04bf 3879 07c0 b2c3 d6bf
00000170: e472 c1bf 361b 0dc0 84e8 1340 bac4 b13f
00000180: 94bb 80bf a320 be40 4124 51bf 06b3 07c0

bn1.running_var f4 [100]
1.4343573 0.3811547 1.6591706 1.1096095 6.1680913 2.1919813 0.6669143 1.4922612
3.1346264 0.5238706 4.4293866 1.8095378 1.7303609 4.0421987 5.341707 0.5016095
1.6670614 1.8040003 2.0581455 1.8972609 3.1375325 2.3507712 1.9159433 0.5651904
1.1110386 2.2593758 2.666353 1.2338321 1.6993419 0.49045104 2.7189355 1.6309855
3.2645793 5.353005 9.202069 1.4120702 1.8512299 3.7217004 1.393332 0.38594905
3.5033336 3.2598784 1.7574182 0.3601439 2.7473898 0.94507986 1.3673077 1.765759
1.5992289 1.924634 0.6026249 11.867293 5.2749786 1.2227657 5.582014 1.8291827
8.420667 5.0928345 0.6173998 1.8298628 2.5741699 2.0805893 1.6700289 0.948638
1.6096344 1.890998 27.531729 8.546322 2.7091582 1.5547127 0.7677797 1.4616956
2.29969 0.8459708 1.4186556 1.4928287 1.2697644 1.307528 1.8990327 2.2369921
3.8454328 0.9980942 2.5593162 0.75909275 1.1988051 2.6636806 1.5645843 2.2724402
13.790367 1.9461665 11.881107 0.91014344 2.169951 5.226851 1.1934552 2.2917156
1.8495984 0.64263076 2.5419445 1.5498371
00000000: 0599 b73f b526 c33e b45f d43f af07 8e3f
00000010: 0161 c540 6c49 0c40 e5ba 2a3f 6a02 bf3f
00000020: b89d 4840 621c 063f 89bd 8d40 ef9e e73f
00000030: 777c dd3f b159 8140 44ef aa40 7b69 003f
00000040: 4562 d53f 7be9 e63f a8b8 0340 72d9 f23f
00000050: 55cd 4840 0973 1640 a13d f53f 51b0 103f
00000060: 8336 8e3f 9d99 1040 87a5 2a40 36ee 9d3f
00000070: 0984 d93f 661c fb3e 0a03 2e40 22c4 d03f
00000080: deee 5040 d14b ab40 ad3b 1341 b7be b43f
00000090: 1af5 ec3f 5730 6e40 b458 b23f 1d9b c53e
000000a0: 9e36 6040 d9a1 5040 14f3 e03f c864 b83e
000000b0: 3cd5 2f40 c1f0 713f f003 af3f 6404 e23f
000000c0: 88b3 cc3f 685a f63f a045 1a3f 6fe0 3d41
000000d0: a0cc a840 9683 9c3f dc9f b240 a922 ea3f
000000e0: 0dbb 0641 80f8 a240 ea0d 1e3f f238 ea3f
000000f0: 33bf 2440 6028 0540 82c3 d53f f1d9 723f
00000100: 8008 ce3f 390c f23f fb40 dc41 bcbd 0841
00000110: d962 2d40 d300 c73f 368d 443f d718 bb3f
00000120: 1f2e 1340 8b91 583f 8296 b53f 0315 bf3f
00000130: a487 a23f 145d a73f 8113 f33f e12a 0f40
00000140: 921b 7640 1a83 7f3f d6cb 2340 e753 423f
00000150: 7272 993f be79 2a40 4c44 c83f a96f 1140
00000160: 58a5 5c41 fc1b f93f 0419 3e41 29ff 683f
00000170: 7ae0 0a40 5d42 a740 24c3 983f 78ab 1240
00000180: a4bf ec3f 7383 243f 38af 2240 1061 c63f

linear2.weight f4 [200, 100]
-0.0043286458 -0.12904723 -0.032303758 0.19310229 0.1282271 -0.08495675 -0.10209311 -0.044436537
0.05138499 0.0760841 -0.088229775 -0.04659947 -0.16762376 0.011182743 0.0065983776 0.16955154
0.031164082 0.010710213 -0.04710946 -0.062028054 0.01059989 0.076322116 0.01773373 0.0695184
-0.045847543 0.1730708 0.035480503 -0.13175306 0.003464557 -0.12993757 0.1325514 0.018528711
0.16141865 0.0023992143 0.16005643 0.0008166545 -0.49859273 0.0070543475 0.06990454 -0.36741626
-0.13245966 -0.14165927 -0.050917704 0.2834136 -0.08706815 0.047932044 -0.055664912 0.040134504
-0.008738535 0.10373236 0.09010055 0.13848768 0.02290353 -0.11077036 -0.099201895 -0.1803375
0.0009623074 -0.051521778 -0.8645294 0.09026987 -0.11220005 0.08179416 -0.03260081 0.05756074
0.061676413 0.08722257 0.04885445 0.13808484 0.028669378 -0.12826274 0.049166296 0.014641178
-0.11916157 0.06152949 0.038697287 0.12559047 0.087933704 0.15684661 -0.11742337 0.11267248
0.2276917 -0.113830395 -0.04275138 0.27066156 -0.062472314 0.0150714135 -0.42114943 0.06184257
-0.04232518 -0.12400733 -0.37420136 -0.013053324 -0.046123747 0.1895212 0.13381279 0.027405187
0.055987544 0.03660267 0.09087347 -0.082878575 0.012890328 -0.09906052 -0.1711854 0.06758206
0.093790114 -0.058055643 0.08918027 0.010376542 -0.081239484 -0.14573854 0.2272522 -0.051238183
-0.029256579 0.017846145 0.29583538 0.2543999 0.06891252 -0.2390883 -0.031273127 -0.0034840312
-0.10661707 -0.17046267 0.105257414 -0.17514044 -0.0797092 -0.07995632 -0.045803525 -0.11461133
-0.16718307 -0.05785504 -0.0693904 0.00072892423 0.122706495 -0.19926679 -0.18065055 -0.023291094
-0.14428274 -0.07107657 -0.03372237 -0.042864487 0.24044189 -0.042125486 0.1060835 0.1264575
-0.035964124 -0.297108 0.1455927 -0.007372341 -0.0699064 0.18411557 0.025529178 -0.051670752
-0.07036988 0.06910151 0.12834318 0.21637642 -0.08335549 0.0001331232 0.21536537 -0.09497666
0.275258 -0.077501066 0.29607087 -0.022613157 -0.19605142 -0.071827196 0.018344259 -0.19334571
-0.001871712 -0.08295179 -0.24317111 -0.05205148 0.108857155 -0.006397881 0.066143446 0.093893506
0.01096093 0.17760186 0.006635023 0.13380784 -0.26937148 0.22669432 0.06365383 -0.21088618
0.08915957 0.06948173 0.14570412 -0.3638811 0.08684476 0.22330521 0.40217575 -0.11015314
-0.09350356 0.18208213 -0.15633759 0.092258364 -0.11852962 0.07901736 0.28544787 -0.0741733
-0.04957524 0.095501155 -0.008061273 0.20281927 -0.05191447 -0.096627794 -0.16435547 -0.052659474
0.00968542 -0.002619237 0.047935143 0.017235836 0.000554362 0.09420901 0.0059207175 0.09842985
-0.045009088 0.17022812 -0.15040055 -0.0617552 0.0023751443 0.086791776 -0.0005936566 0.08750356
0.061873157 -0.3005131 0.065887734 -0.11986297 0.046185713 0.04956089 -0.06408264 -0.028916186
-0.017214512 -0.02194875 -0.099047326 -0.00049702806 0.28818867 -0.067319795 -0.04310482 0.1037283
-0.038891047 -0.0015927812 -0.06341106 0.24776404 0.019239478 -0.11519355 0.07409441 0.117608085
0.0901465 0.06615251 -0.20457566 -0.017145775 0.07855409 -0.14571546 0.0036326058 0.036280513
00000000: 50d7 8dbb f524 04be f250 04bd 9bbc 453e
00000010: f74d 033e cefd adbd 3116 d1bd 1603 36bd
00000020: 1179 523d fbd1 9b3d d0b1 b4bd 16df 3ebd
00000030: 90a5 2bbe d337 373c 3437 d83b eb9e 2d3e
00000040: d14b ff3c e479 2f3c d9f5 40bd 2111 7ebd
00000050: 29ab 2d3c c54e 9c3d 5446 913c aa5f 8e3d
00000060: a2ca 3bbd 7939 313e 0154 113d 46ea 06be
00000070: 9f0d 633b 5b0e 05be 8ebb 073e 86c9 973c
00000080: ee4a 253e 233c 1d3b d5e5 233e c114 563a
00000090: 8c47 ffbe 2828 e73b 1d2a 8f3d fc1d bcbe
000000a0: 81a3 07be 210f 11be 158f 50bd 961b 913e
000000b0: c950 b2bd 6454 443d e400 64bd 1464 243d
000000c0: 132c 0fbc a271 d43d a386 b83d b7cf 0d3e
000000d0: 2fa0 bb3c 92db e2bd 5d2a cbbd 65aa 38be
000000e0: 5b43 7c3a 8008 53bd cc51 5dbf 69df b83d
000000f0: 24c9 e5bd b283 a73d 6d88 05bd cfc4 6b3d
00000100: 68a0 7c3d bfa1 b23d 9b1b 483d 1d66 0d3e
00000110: 0bdc ea3c 4f57 03be 9962 493d 8de1 6f3c
00000120: fb0a f4bd 5906 7c3d 0c81 1e3d ca9a 003e
00000130: 9616 b43d 669c 203e aa7b f0bd d4c0 e63d
00000140: 0328 693e e91f e9bd 121c 2fbd 2794 8a3e
00000150: f8e2 7fbd 17ee 763c e6a0 d7be a24e 7d3d
00000160: 2b5d 2dbd 8ef7 fdbd 5297 bfbe 9cdd 55bc
00000170: 41ec 3cbd d811 423e 3806 093e d880 e03c
00000180: 3253 653d aeec 153d df1b ba3d 3ebc a9bd
00000190: f431 533c 3ee0 cabd 3a4b 2fbe 7768 8a3d
000001a0: 0815 c03d c1cb 6dbd 25a4 b63d 5f02 2a3c
000001b0: e360 a6bd 7c3c 15be cdb4 683e 21df 51bd
000001c0: 7eab efbc 1432 923c bc77 973e b440 823e
000001d0: 0222 8d3d 90d3 74be 4018 00bd 5854 64bb
000001e0: 0d5a dabd c48d 2ebe 3391 d73d 0458 33be
000001f0: 943e a3bd 24c0 a3bd 7a9c 3bbd 58b9 eabd
00000200: 0a32 2bbe 68f9 6cbd 8e1c 8ebd 4715 3f3a
00000210: 8b4d fb3d 980c 4cbe 75fc 38be f7cc bebc
00000220: dbbe 13be 9890 91bd 7820 0abd ac92 2fbd
00000230: 6636 763e c68b 2cbd 4e42 d93d 137e 013e
00000240: 1e4f 13bd 8a1e 98be 4116 153e ae93 f1bb
00000250: 162b 8fbd cb88 3c3e 9122 d13c b6a4 53bd
00000260: 151e 90bd 1885 8d3d 656c 033e c891 5d3e
00000270: 48b6 aabd fd96 0b39 bd88 5c3e 2083 c2bd
00000280: 9eee 8c3e e1b8 9ebd 9a96 973e 3a3f b9bc
00000290: b4c1 48be 231a 93bd b346 963c 6bfc 45be
000002a0: 3c54 f5ba a1e2 a9bd d901 79be ef33 55bd
000002b0: 80f0 de3d 51a5 d1bb 3776 873d 3d4b c03d
000002c0: 7995 333c 43dd 353e 9b6a d93b ec04 093e
000002d0: 0feb 89be 8e22 683e f05c 823d 8cf2 57be
000002e0: 4b99 b63d 704c 8e3d 7633 153e a04e babe
000002f0: aadb b13d 1faa 643e fbe9 cd3e f897 e1bd
00000300: cb7e bfbd bd73 3a3e f616 20be f4f1 bc3d
00000310: a8bf f2bd dbd3 a13d 3926 923e 2ce8 97bd
00000320: 680f 4bbd 1c96 c33d 6e13 04bc dbaf 4f3e
00000330: 44a4 54bd cbe4 c5bd cd4c 28be 76b1 57bd
00000340: 99af 1e3c 81a7 2bbb a457 443d 2b32 8d3c
00000350: 9b52 113a a7f0 c03d 9402 c23b 9795 c93d
00000360: 735b 38bd 4850 2e3e 9a02 1abe 05f3 7cbd
00000370: 4fa8 1b3b e3bf b13d 9f9f 1bba 1135 b33d
00000380: b56e 7d3d dadc 99be 26f0 863d b87a f5bd
00000390: 3b2d 3d3d 5c00 4b3d c23d 83bd a3e1 ecbc
000003a0: 7305 8dbc ddcd b3bc 53d9 cabd fd4a 02ba
000003b0: 778d 933e f6de 89bd ae8e 30bd 816f d43d
000003c0: 384c 1fbd dec4 d0ba a8dd 81bd dbb5 7d3e
000003d0: 1c9c 9d3c 99ea ebbd cfbe 973d 82dc f03d
000003e0: ba9e b83d f87a 873d 487c 51be 4c75 8cbc
000003f0: f7e0 a03d 6f36 15be 0311 6e3b e09a 143d

linear2.bias f4 [200]
-0.028372213 -0.050935194 0.102267005 -0.079935476 0.21285419 -0.04831002 0.072186284 0.1524332
0.030042134 0.03372078 -0.050631538 0.054037765 0.09540133 -0.096109495 -0.0735248 -0.0883908
0.058346257 -0.00764951 -0.0014580607 -0.08546844 0.12511155 0.08516025 0.12921941 0.12947768
0.09410514 -0.06888658 -0.054628156 -0.090653285 0.15113793 -0.045194037 0.045057654 0.024717186
0.061712313 -0.08195572 0.04803544 -0.08574182 0.08042255 0.074944064 0.08214227 0.042821806
0.051284187 -0.04535106 -0.061947905 -0.069463104 -0.05326851 0.07519889 -0.11684518 0.109899685
-0.06750329 -0.07608921 0.05609549 0.0528073 -0.09471479 0.045768827 -0.061785262 0.012681597
0.06537927 0.020885464 -0.038981415 -0.10507168 0.06117948 -0.021653349 -0.07244353 0.009099512
0.09944003 -0.021596037 0.021027567 0.109693274 -0.028287124 0.0052505787 -0.0069029513 -0.062243655
0.052371226 -0.20169896 0.016495597 -0.020402946 -0.18189798 0.055648033 -0.04028888 0.02099526
-0.056322526 -0.062062282 0.0028104992 -0.08847317 -0.11983294 0.03774522 -0.026208187 -0.12229804
0.01940072 0.02615233 -0.08026782 0.031088848 0.001963948 0.00852115 0.027753584 0.042736787
0.088901974 0.013007162 -0.08548184 0.06859088 -0.07568751 -0.018119317 -0.049831945 -0.03975394
-0.09613643 0.08384519 0.15488797 0.047531333 -0.032179724 -0.0070231147 -7.61314e-06 0.055497296
0.059259366 -0.15484108 -0.08680699 0.009533226 0.08834539 -0.013543651 0.07090007 -0.05974653
0.1256833 0.05519131 -0.055321306 -0.0364195 0.029948907 -0.0386174 -0.14580238 0.033281118
0.07539621 0.15900156 -0.024416309 -0.0005768116 -0.07675085 0.04653017 -0.078092635 0.0688293
0.09955449 -0.04904806 -0.009306296 -0.060661077 0.05150355 0.03111318 -0.07703633 -0.062364962
0.018904429 0.07484166 -0.019944819 -0.0020850466 -0.03629163 -0.13083994 0.23392543 -0.058472864
-0.24815477 -0.021712782 0.09654405 0.07511505 0.024912652 -0.011326716 0.039812643 0.098417155
0.0806988 0.10597982 0.049033094 -0.33907124 -0.2150957 -0.052242246 0.056325708 -0.13609074
-0.09978114 -0.021014592 -0.10824169 0.10728707 -0.005871078 0.097010754 0.1356377 -0.07462917
0.23860402 -0.0009140919 0.01983349 -0.025689514 0.14350176 0.0755678 0.094246864 0.028414603
0.078928486 0.07252828 0.15812473 0.11153717 0.12768327 0.11746555 0.028228385 0.07272619
-0.08639521 -0.035306666 0.07876531 -0.027663723 -0.027277717 -0.052977134 0.05105977 0.11286736
00000000: d86c e8bc 6ca1 50bd 5d71 d13d 36b5 a3bd
00000010: 73f6 593e bae0 45bd 67d6 933d 7317 1c3e
00000020: ec1a f63c cd1e 0a3d 0463 4fbd b456 5d3d
00000030: c661 c33d 0ed5 c4bd 2c94 96bd 3c06 b5bd
00000040: 7cfc 6e3d bea8 fabb 661c bfba 140a afbd
00000050: 3e1d 003e 7f68 ae3d 1852 043e cc95 043e
00000060: 32ba c03d 6814 8dbd c6c1 5fbd 6ea8 b9bd
00000070: e7c3 1a3e 621d 39bd 608e 383d b27b ca3c
00000080: 0dc6 7c3d 67d8 a7bd cfc0 443d 6899 afbd
00000090: 94b4 a43d 467c 993d 353a a83d eb65 2f3d
000000a0: 5e0f 523d 08c2 39bd 16bd 7dbd ac42 8ebd
000000b0: 1530 5abd e001 9a3d 874c efbd 1613 e13d
000000c0: 2a3f 8abd a9d4 9bbd 62c4 653d 784c 583d
000000d0: d4f9 c1bd 1878 3b3d 8b12 7dbd 79c6 4f3c
000000e0: 91e5 853d fe17 ab3c faaa 1fbd d22f d7bd
000000f0: 5697 7a3d 5d62 b1bc 465d 94bd 1f16 153c
00000100: 37a7 cb3d 2cea b0bc 0142 ac3c dea6 e03d
00000110: 66ba e7bc 0c0d ac3b 2732 e2bb 34f3 7ebd
00000120: 3683 563d 2c8a 4ebe c621 873c 1424 a7bc
00000130: 7743 3abe 31ef 633d f405 25bd 40fe ab3c
00000140: 73b2 66bd 0535 7ebd 5a30 383b 6c31 b5bd
00000150: f96a f5bd bb9a 1a3d 8db2 d6bc 6577 fabd
00000160: 42ee 9e3c 693d d63c 7463 a4bd 0aae fe3c
00000170: 94b5 003b 4b9c 0b3c 7c5b e33c c50c 2f3d
00000180: 3d12 b63d fe1b 553c 1a11 afbd 6079 8c3d
00000190: 0e02 9bbd f66e 94bc 951c 4cbd 07d5 22bd
000001a0: 2de3 c4bd 07b7 ab3d f49a 1e3e 37b0 423d
000001b0: e3ce 03bd 2822 e6bb 6074 ffb6 2251 633d
000001c0: f3b9 723d a98e 1ebe ddc7 b1bd 3f31 1c3c
000001d0: 6eee b43d 31e6 5dbc 0e34 913d c7b8 74bd
000001e0: 1fb3 003e 4810 623d 9898 62bd 9d2c 15bd
000001f0: 6957 f53c 472d 1ebd 384d 15be c851 083d
00000200: 5469 9a3d 4ed1 223e b604 c8bc 2c35 17ba
00000210: 8d2f 9dbd 6b96 3e3d 08ef 9fbd 60f6 8c3d
00000220: 39e3 cb3d 9ee6 48bd 6f79 18bc c077 78bd
00000230: 63f5 523d 11e1 fe3c 39c5 9dbd 6772 7fbd
00000240: 76dd 9a3c 9646 993d 5163 a3bc 47a5 08bb
00000250: 88a6 14bd e8fa 05be 268a 6f3e 3e81 6fbd
00000260: 491c 7ebe 01df b1bc e3b8 c53d ebd5 993d
00000270: 9e15 cc3c b193 39bc 9512 233d ef8e c93d
00000280: 6a45 a53d f30b d93d edd6 483d bf9a adbe
00000290: 0c42 5cbe f7fb 55bd c9b5 663d 5f5b 0bbe
000002a0: 0e5a ccbd cb26 acbc d2ad ddbd 53b9 db3d
000002b0: 2c62 c0bb 93ad c63d 9ce4 0a3e 2ed7 98bd
000002c0: 9d54 743e ab9f 6fba d879 a23c d172 d2bc
000002d0: 20f2 123e 4ac3 9a3d 8004 c13d bec5 e83c
000002e0: 42a5 a13d b589 943d 73eb 213e 9a6d e43d
000002f0: 67bf 023e c791 f03d 373f e73c 78f1 943d
00000300: f9ef b0bd b99d 10bd b54f a13d 089f e2bc
00000310: 8575 dfbc 8dfe 58bd 0d24 513d 0127 e73d

bn2.weight f4 [200]
1.0970054 0.30100274 1.1915733 0.42144686 0.9026834 0.5790135 0.72105104 0.3577674
0.8537726 1.0565041 0.60665584 0.6834712 0.52620757 0.54744476 0.53274643 0.65194297
0.6937877 0.57153183 0.50874835 0.3151602 0.61964506 0.5598742 0.6833126 0.59197885
1.0770073 0.43730214 0.8264173 0.46675587 0.5345075 0.6893432 0.71701014 1.1193464
0.7947306 0.5217882 0.9035478 1.0525329 0.6957245 0.7841439 0.61559945 0.42594394
0.8978569 0.7234705 0.5315519 0.588832 0.87154424 0.33074215 0.3928377 0.30430022
0.4784937 0.63187844 0.3986178 1.0265034 0.8920617 0.70919985 0.8852561 0.52609396
0.55120134 0.4419486 0.3729029 0.8732818 0.4976996 0.6183529 0.707953 0.8656876
0.5638743 0.9587751 0.75529873 1.1492177 0.8383691 0.5039819 0.90420395 0.6373628
0.46442065 1.915781 0.7052507 0.80192554 0.4624387 0.5833477 1.0267395 0.617244
0.9107592 0.42225707 0.70407635 0.61023206 0.676994 0.43714827 0.31560996 0.63774306
0.87188756 0.43605104 1.0377163 0.8564954 0.7373354 0.41905186 0.28172582 1.9967309
0.97537094 0.9072846 0.34427944 0.4658406 0.622209 0.8204137 0.4850108 0.77144843
0.9596451 0.73042417 0.6095853 0.6626595 0.82087594 0.5917861 0.86502856 0.57156223
0.81037766 0.6419043 0.8347525 0.6128729 0.7487812 0.96220237 0.630534 0.42586404
0.65861064 0.50559264 0.7750682 1.1448224 0.35732436 1.2396438 0.66118056 0.4960065
0.48848578 0.57276005 0.49836004 0.99740565 0.78592265 0.95084333 0.79404706 0.8134884
0.6988678 0.65694356 0.35912117 0.47593975 0.84098375 0.69102395 0.5099171 0.7993005
0.579294 0.81993634 0.37291795 0.5471475 0.7796627 1.1322745 0.6039755 1.0227717
0.7276971 1.4289811 0.63414294 0.9511493 0.7504057 0.79034513 0.9166906 0.6447722
0.7590485 0.8670819 0.34589085 1.2472636 0.91105515 0.8457626 0.53126734 1.0945293
0.51369363 0.66141987 0.3633919 0.36839783 0.455101 0.55995464 1.0801706 0.46978006
0.87955356 0.5004929 0.5321326 0.7514918 0.79172343 0.75326633 0.96673197 0.64922243
0.45595923 1.3569101 0.54103446 0.48696104 0.9224866 0.86955535 0.6203215 0.5301613
0.51031786 0.62012476 1.1390243 0.5699973 0.36252314 0.30079773 0.74619484 0.96851313
00000000: ac6a 8c3f 081d 9a3e 7985 983f e2c7 d73e
00000010: 4216 673f 3b3a 143f cd96 383f 4a2d b73e
00000020: d790 5a3f 873b 873f cc4d 1b3f f8f7 2e3f
00000030: 8ab5 063f 5725 0c3f 1262 083f bce5 263f
00000040: 129c 313f e94f 123f 553d 023f ae5c a13e
00000050: 0fa1 1e3f ea53 0f3f 93ed 2e3f ed8b 173f
00000060: 60db 893f 11e6 df3e 1690 533f a0fa ee3e
00000070: 7cd5 083f cc78 303f fa8d 373f be46 8f3f
00000080: 7773 4b3f e993 053f e94e 673f 66b9 863f
00000090: 001b 323f a8bd 483f ed97 1d3f 5315 da3e
000000a0: f3d9 653f 5d35 393f c913 083f b2bd 163f
000000b0: 861d 5f3f 0957 a93e 0622 c93e 3dcd 9b3e
000000c0: 20fd f43e c9c2 213f a217 cc3e 7764 833f
000000d0: 285e 643f 1f8e 353f 25a0 623f 18ae 063f
000000e0: 881b 0d3f 1647 e23e 21ed be3e 658f 5f3f
000000f0: 7bd2 fe3e 604c 1e3f 683c 353f b49d 5d3f
00000100: 115a 103f 4972 753f 425b 413f 9119 933f
00000110: 5b9f 563f f504 013f e979 673f 352a 233f
00000120: 8bc8 ed3e 5038 f53f 4f8b 343f fe4a 4d3f
00000130: c4c4 ec3e 4656 153f 336c 833f b403 1e3f
00000140: 8427 693f 1432 d83e 593e 343f 2b38 1c3f
00000150: 7b4f 2d3f e6d1 df3e a197 a13e 2143 233f
00000160: 0634 5f3f 1542 df3e e3d3 843f 4843 5b3f
00000170: 03c2 3c3f f78d d63e 5e3e 903e e194 ff3f
00000180: e9b1 793f ce43 683f 6545 b03e a982 ee3e
00000190: 1749 1f3f a206 523f 5653 f83e a57d 453f
000001a0: 4dab 753f 14fd 3a3f c80d 1c3f 0ea4 293f
000001b0: ed24 523f 4b7f 173f 8372 5d3f e751 123f
000001c0: e974 4f3f d753 243f 57b2 553f 3de5 1c3f
000001d0: 20b0 3f3f e552 763f ad6a 213f da0a da3e
000001e0: b59a 283f 856e 013f df6a 463f 8a89 923f
000001f0: 38f3 b63e a6ac 9e3f 2143 293f 90f4 fd3e
00000200: cf1a fa3e 67a0 123f 0c29 ff3e fa55 7f3f
00000210: 3a32 493f 786a 733f ab46 4b3f c740 503f
00000220: 00e9 323f 742d 283f bbde b73e 60ae f33e
00000230: b64a 573f f2e6 303f ed89 023f f59e 4c3f
00000240: 9d4c 143f 59e7 513f 1aef be3e dc11 0c3f
00000250: fa97 473f 5fee 903f 239e 1a3f 2fea 823f
00000260: 5b4a 3a3f dae8 b63f 3157 223f 857e 733f
00000270: 971a 403f 0f54 4a3f 3cac 6a3f ca0f 253f
00000280: 0151 423f 14f9 5d3f 9b18 b13e 55a6 9f3f
00000290: e93a 693f e683 583f 2301 083f 8919 8c3f
000002a0: 6d81 033f d052 293f 810e ba3e a49e bc3e
000002b0: 0003 e93e 3059 0f3f 0843 8a3f 0387 f03e
000002c0: 6c2a 613f 4d20 003f d839 083f c461 403f
000002d0: 63ae 4a3f 10d6 403f bf7b 773f 7133 263f
000002e0: 7d73 e93e 3baf ad3f 3c81 0a3f f552 f93e
000002f0: 1528 6c3f 2e9b 5e3f 64cd 1e3f a7b8 073f
00000300: 31a4 023f 7fc0 1e3f 8ccb 913f 58eb 113f
00000310: a29c b93e 2902 9a3e a006 3f3f 7af0 773f

bn2.bias f4 [200]
-0.40398327 0.061672956 -0.43946502 -0.21398047 -1.5704689 -0.37344563 -0.230838 0.13051856
-1.1274942 -0.5324505 -0.38312265 0.09501158 0.28150263 -0.046548914 0.81593275 0.25425252
-0.055902697 0.28782833 -0.23654887 0.18262775 0.18607609 0.63624805 0.07656062 0.09722393
0.20758143 0.3709592 -0.6761779 0.0709824 0.3087585 -0.097599186 -0.09672553 -0.8745303
-0.41629535 0.63598967 -0.86138976 0.009888546 0.64058626 0.013991556 -0.16871847 -0.132537
-1.3918858 -0.049938705 -0.24769181 -0.13800691 0.061003033 -0.053427234 0.02621153 0.18459052
-0.11931835 -0.04180558 0.09611949 -1.0228102 -1.3033496 -0.3126201 -1.0655395 -0.14405537
-0.2906346 -0.20688793 -0.070465535 -0.9132662 -0.056964394 -0.061688382 0.3306416 -0.16760795
0.07928624 -0.74179757 0.4789739 -0.8439524 0.06614332 -0.028588226 -0.21893731 0.036691096
-0.11291518 -0.6608204 -0.3446221 -0.10340589 0.25097618 -0.20169249 -0.64225274 0.2822505
-0.9068487 -0.04165658 -0.23735495 0.24486034 0.3217517 0.24703664 0.15093598 -0.22473368
-0.45781866 0.18937033 -0.11801297 -0.20378321 0.21513914 0.05957183 0.040661536 -0.8494114
-1.0615581 -1.1670876 0.27959388 0.4888083 0.066399895 -0.102466665 -0.12505415 0.6643842
-0.58868575 -0.30008563 0.79297787 -0.26617864 -0.28526714 0.5626494 0.12929483 -0.09876219
0.7309313 -0.016710784 -0.6642387 -0.08082767 -0.15129592 -0.15528838 -0.42991388 0.07452314
1.1118672 0.3527881 0.37242803 0.09087561 0.3613562 -1.3561459 -0.08798522 -0.223922
-0.28801933 0.2005134 0.2414873 -0.7945163 -0.14678149 -0.52168065 -0.46214607 -1.3014795
0.44644627 -0.40915582 0.09270102 -0.05694999 -1.3563534 0.33201754 -0.012192655 0.16429691
0.030532258 0.5683876 0.0077032046 0.04636307 0.4066981 -0.9024925 0.11277652 -0.31470582
0.32800582 -0.6365973 -0.20224392 -1.102777 -0.10942561 -0.1798663 -0.9548467 -0.109441966
0.20063914 -0.31555986 0.20479408 -0.89870197 -1.168463 -0.17517708 -0.09730318 -0.41963282
0.72292095 -0.06488978 0.082854256 0.5274654 -0.29512796 -0.25286257 -0.06804505 -0.24729414
-0.95345277 0.23984382 0.06528806 -0.45683303 -0.20746353 -0.3569078 0.6127745 -0.35959157
0.036235955 -0.30986974 0.20890565 0.031143118 -0.24230006 0.110906824 0.060443323 -0.0015942319
-0.06471676 0.39997962 -0.63473904 -0.49894494 -0.048271466 0.055241536 0.09853633 -0.012731007
00000000: e5d6 cebe c89c 7c3d 8f01 e1be b21d 5bbe
00000010: 2005 c9bf 4434 bfbe cc60 6cbe a8a6 053e
00000020: bb51 90bf ad4e 08bf a728 c4be 6e95 c23d
00000030: 1d21 903e 13aa 3ebd f8e0 503f 632d 823e
00000040: 3afa 64bd 3c5e 933e de39 72be c502 3b3e
00000050: bb8a 3e3e 27e1 223f d0cb 9c3d 571d c73d
00000060: 3a90 543e 5dee bd3e ff19 2dbf 385f 913d
00000070: 9815 9e3e 15e2 c7bd 0918 c6bd 38e1 5fbf
00000080: aa24 d5be 38d0 223f 0a84 5cbf 9103 223c
00000090: 76fd 233f d73c 653c 89c4 2cbe c8b7 07be
000000a0: 5029 b2bf 878c 4cbd eca2 7dbe af51 0dbe
000000b0: 51de 793d 84d6 5abd 90b9 d63c 4c05 3d3e
000000c0: 2e5d f4bd 543c 2bbd 4cda c43d 72eb 82bf
000000d0: 29d4 a6bf be0f a0be 9963 88bf 4083 13be
000000e0: 0fce 94be 6eda 53be 3c50 90bd d0cb 69bf
000000f0: 7f53 69bd f5ac 7cbd db49 a93e 6ba1 2bbe
00000100: d360 a23d 72e6 3dbf 113c f53e 440d 58bf
00000110: 2676 873d db31 eabc 1a31 60be 6749 163d
00000120: 1340 e7bd 872b 29bf 4f72 b0be 78c6 d3bd
00000130: f37f 803e 7a88 4ebe ad6a 24bf 2383 903e
00000140: 3d27 68bf 17a0 2abd 2d0d 73be abbc 7a3e
00000150: a4bc a43e 2cf7 7c3e f68e 1a3e 9620 66be
00000160: 3567 eabe 4cea 413e c9b0 f1bd 8cac 50be
00000170: 6f4d 5c3e 9701 743d b68c 263d 0773 59bf
00000180: 23e1 87bf 2063 95bf ee26 8f3e 1545 fa3e
00000190: abfc 873d 0bda d1bd 320e 00be 1515 2a3f
000001a0: 1cb4 16bf d3a4 99be 9900 4b3f 9148 88be
000001b0: 890e 92be cb09 103f dd65 043e d543 cabd
000001c0: 501e 3b3f 0ee5 88bc 8c0b 2abf fa88 a5bd
000001d0: 51ed 1abe eb03 1fbe ac1d dcbe 979f 983d
000001e0: aa51 8e3f a4a0 b43e e3ae be3e fe1c ba3d
000001f0: ae03 b93e 3096 adbf 9831 b4bd cf4b 65be
00000200: 4577 93be 6253 4d3e 7248 773e 6c65 4bbf
00000210: e34d 16be dd8c 05bf 699e ecbe e196 a6bf
00000220: 9b94 e43e df7c d1be 08da bd3d 6544 69bd
00000230: fd9c adbf 34fe a93e b4c3 47bc 733d 283e
00000240: c91e fa3c da81 113f 2a6b fc3b 34e7 3d3d
00000250: bc3a d03e c009 67bf 60f7 e63d 1f21 a1be
00000260: 61f0 a73e 0af8 22bf 0819 4fbe cc27 8dbf
00000270: 891a e0bd df2e 38be d570 74bf 1c23 e0bd
00000280: 5974 4d3e 1091 a1be 8ab5 513e 5511 66bf
00000290: 3290 95bf 9f61 33be e446 c7bd 1dda d6be
000002a0: 5911 393f efe4 84bd 7eaf a93d f907 073f
000002b0: 031b 97be 3477 81be 345b 8bbd ad3a 7dbe
000002c0: 7b15 74bf 9e99 753e bfb5 853d 05e6 e9be
000002d0: 5271 54be 9fbc b6be cade 1c3f 631c b8be
000002e0: 276c 143d 3fa7 9ebe 5deb 553e da1f ff3c
000002f0: 821d 78be 1e23 e33d 6b93 773d 8cf5 d0ba
00000300: 388a 84bd 21ca cc3e 427e 22bf b675 ffbe
00000310: 4db8 45bd f344 623d 6acd c93d b795 50bc

bn2.running_mean f4 [200]
0.16981384 -0.05267703 0.6988068 -1.2561784 0.115402155 -1.4752151 0.5653914 -1.2417915
1.4942575 -0.15024537 0.49635187 0.6040951 -0.08670744 0.02948128 -1.498219 -1.2758119
-1.8776655 -0.74190503 -0.68923205 -0.51002324 0.388082 -1.221391 0.43204725 -1.4183209
1.087065 -1.6123754 -0.004047882 -0.54046583 0.6213673 -1.3009135 -0.017697085 -1.0734808
0.88379955 -0.5746573 0.3642448 2.186055 -1.4210594 0.6793014 0.18638255 -0.11955903
2.603109 0.90037096 0.104458146 -1.227111 0.12598376 0.7199925 -0.21274701 0.6806078
0.05273968 1.5999022 -1.3788886 1.5146389 1.1115389 -0.6292384 1.7836429 -0.09249166
1.0963386 1.8196743 -0.8013633 -0.13682783 -0.0143549545 -1.5279498 -1.2296505 0.14910452
0.4277419 -0.9259381 -1.4127917 0.5493451 -0.13148434 -0.52205205 0.47689027 -1.7295874
0.072862506 -1.8353491 0.06361148 1.7466272 -2.2782638 0.49851838 0.46408096 0.7709687
0.73222023 0.2926347 2.5148978 -0.7824917 0.057401326 -0.37283242 0.47913408 1.1673069
-0.13616803 -0.13225088 -1.1897764 -1.3773535 -1.6322616 0.49737552 0.64610094 -1.7228222
1.099595 0.48527098 -1.0985734 -1.2646832 1.7835258 -0.41919148 -0.85021 0.35356236
1.2637819 -0.3042937 -1.4184573 0.22115146 -0.31131884 -0.63811547 0.007087643 -0.6390857
0.16657011 -1.5554625 -0.23909476 -0.7293115 -1.670816 -1.8877078 -1.3114675 -0.17335397
-1.076539 0.9085456 -1.3542476 -1.7677513 -0.07092374 1.6847918 1.3270836 -0.13147709
1.8476461 -1.1061298 -0.53184974 0.04833356 -0.68081164 0.9366878 1.6440847 1.3964047
1.1856908 -0.33557773 -0.35286137 1.0914048 2.2003975 0.8851058 -0.27340585 0.3916622
-0.084247194 -1.2289584 0.2943807 -0.63867795 0.60139304 -0.6552775 2.2909763 1.0019511
-2.3850653 0.20576917 1.1216594 0.79536635 1.7657355 0.71053386 1.6127921 0.9318688
0.78966033 1.3939189 -1.7605363 -2.0111258 2.4202878 -0.23932372 0.274477 0.15274931
-0.76033807 0.59485906 1.0582801 -1.3345199 -0.49311224 0.7783839 -1.0635654 -0.7217416
2.3889468 -0.22419183 -0.74259603 2.4463785 -1.4324712 0.63147104 -1.1016647 0.7838547
0.83987916 -0.58354455 1.1544847 -1.1433713 1.1841507 -1.419764 0.09222444 -0.3347515
-0.061852664 -1.03054 -0.85524744 -0.7064148 1.5442215 -2.0554612 -1.1634659 -0.35132897
00000000: aee3 2d3e dfc3 57bd 01e5 323f 74ca a0bf
00000010: f757 ec3d d9d3 bcbf 7ebd 103f 06f3 9ebf
00000020: d443 bf3f ecd9 19be d521 fe3e faa5 1a3f
00000030: ac93 b1bd ba82 f13c a4c5 bfbf ce4d a3bf
00000040: 5857 f0bf 7ded 3dbf 8371 30bf e290 02bf
00000050: afb2 c63e 8a56 9cbf 4c35 dd3e 8a8b b5bf
00000060: f224 8b3f 5162 cebf 18a4 84bb f85b 0abf
00000070: ed11 1f3f 5584 a6bf 7af9 90bc d267 89bf
00000080: b040 623f be1c 13bf 4b7e ba3e 53e8 0b40
00000090: 46e5 b5bf b2e6 2d3f 11db 3e3e 5ddb f4bd
000000a0: 5699 2640 b67e 663f 27ee d53d f911 9dbf
000000b0: e301 013e 6e51 383f 5ada 59be 503c 2e3f
000000c0: 9005 583d 98c9 cc3f 6c7f b0bf b0df c13f
000000d0: e846 8e3f c515 21bf 694e e43f 446c bdbd
000000e0: d354 8c3f 16eb e83f 2526 4dbf 981c 0cbe
000000f0: 0b31 6bbc dc93 c3bf 3065 9dbf dbae 183e
00000100: fc00 db3e 480a 6dbf 5cd6 b4bf e1a1 0c3f
00000110: d5a3 06be 34a5 05bf f62a f43e 1f63 ddbf
00000120: f038 953d b8ec eabf bc46 823d 7b91 df3f
00000130: 13cf 11c0 cd3d ff3e 059c ed3e 345e 453f
00000140: c972 3b3f 37d4 953e 16f4 2040 6051 48bf
00000150: a71d 6b3d e4e3 bebe 1051 f53e 506a 953f
00000160: a26f 0bbe c66c 07be 984a 98bf 1f4d b0bf
00000170: f3ed d0bf 01a8 fe3e df66 253f 7085 dcbf
00000180: 87bf 8c3f 7075 f83e 0e9e 8cbf 24e1 a1bf
00000190: 934a e43f 44a0 d6be 5da7 59bf 2006 b53e
000001a0: 9bc3 a13f 62cc 9bbe 0290 b5bf 8775 623e
000001b0: 2f65 9fbe 895b 23bf 753f e83b 1f9b 23bf
000001c0: 5b91 2a3e 6519 c7bf 42d5 74be 29b4 3abf
000001d0: 4cdd d5bf 69a0 f1bf 2bde a7bf b483 31be
000001e0: 08cc 89bf 7296 683f fc57 adbf ad45 e2bf
000001f0: 7740 91bd 42a7 d73f e0dd a93f eea1 06be
00000200: ab7f ec3f a995 8dbf 4e27 08bf 69f9 453d
00000210: ac49 2ebf c6ca 6f3f 5e71 d23f 64bd b23f
00000220: b7c4 973f d8d0 abbe 3faa b4be 27b3 8b3f
00000230: 50d3 0c40 4b96 623f dafb 8bbe f387 c83e
00000240: cb89 acbd 824e 9dbf 11b9 963e 6680 23bf
00000250: e5f4 193f 44c0 27bf 5b9f 1240 ef3f 803f
00000260: e9a4 18c0 27b5 523e 8992 8f3f 219d 4b3f
00000270: 9f03 e23f 8ce5 353f f96f ce3f f48e 6e3f
00000280: 2e27 4a3f ef6b b23f 4159 e1bf 49b6 00c0
00000290: ffe5 1a40 4711 75be 4088 8c3e 516a 1c3e
000002a0: 84a5 42bf af48 183f b975 873f 8cd1 aabf
000002b0: 3579 fcbe 2b44 473f e922 88bf 0fc4 38bf
000002c0: 81e4 1840 8b92 65be c61a 3ebf 7791 1c40
000002d0: 375b b7bf 16a8 213f 5903 8dbf b4aa 483f
000002e0: 5202 573f 2d63 15bf 28c6 933f fe59 92bf
000002f0: 4092 973f d4ba b5bf 2be0 bc3d 8c64 abbe
00000300: 3859 7dbd bce8 83bf 7ff1 5abf 9ad7 34bf
00000310: 0da9 c53f ad8c 03c0 73ec 94bf 64e1 b3be

bn2.running_var f4 [200]
1.2351954 0.18395428 0.71961784 0.25560614 0.5435521 0.48242515 0.6171245 0.18294914
0.7738948 1.6637648 0.46481198 0.74680346 0.32142097 0.6523505 0.36449564 0.5495091
0.68996984 0.2820293 0.29515266 0.22705728 0.5719559 1.142693 0.9038355 0.60277945
0.44048333 0.48108017 0.2072675 0.52351594 0.37660936 0.41261554 0.5257625 0.61240363
0.4473878 0.5571607 0.513624 1.3530838 0.7330188 1.5438066 0.66102636 0.23518926
0.9430972 0.5181663 0.3785002 0.6641045 0.5316406 0.23968682 0.51936764 0.14728746
0.34656584 0.53382224 0.35993278 0.46630484 0.7854685 1.0319041 0.7026391 0.36755645
0.27584013 0.5362171 0.24264097 1.108208 0.31459656 0.44242948 0.939681 0.91214925
0.20846824 1.0453353 0.6994247 1.0251074 1.0611733 0.36717972 1.266024 0.47539738
0.36452356 0.51347214 1.4028327 0.6244019 0.31708014 0.54297775 0.40230572 0.39427269
0.7500262 0.76922196 0.7197256 1.1448809 0.79739714 0.6883941 0.31176022 0.6803832
0.78487813 0.4801189 0.70458037 0.9820827 0.8952511 0.37168273 0.20473671 0.50166714
0.76088274 0.8712411 0.2110888 0.2876474 1.0254456 1.1122824 0.5679697 0.53781116
1.6521704 0.7216404 0.31326428 0.40226293 1.246539 0.57156676 0.55868304 0.5106985
0.7798864 0.345048 0.9231233 0.4654766 1.1013933 1.1070831 0.3623333 0.7603304
0.42840254 0.64943165 0.53575975 0.5959678 0.3408423 0.5086335 1.0480477 0.2585687
0.21736753 0.6285734 0.6559255 0.97608566 0.50689673 1.6864581 0.7414999 0.5253254
0.9335422 0.35791567 0.22916104 0.2743899 0.52364755 0.25953627 0.43004176 1.19584
0.47056106 0.6979639 0.620545 0.47622722 0.9573476 1.313761 0.40091014 0.8557712
0.71196073 0.4710207 0.47329357 0.43125919 0.4112763 1.554169 0.4809318 0.61745936
1.0813671 0.5511754 0.5285746 0.47277328 0.4844377 2.163848 0.578272 0.1578849
0.6990478 0.6310126 0.20558281 0.41051015 0.17724785 0.1696771 1.2729195 0.39706698
0.5297823 0.6288256 0.20653012 1.0124443 0.35806453 0.63447994 0.855086 0.42872703
0.27790606 0.21482469 0.7202016 0.30301964 0.92990977 0.4319644 0.7296553 0.36784127
0.21917939 0.97645426 0.7946752 0.4737667 0.38757837 0.36153072 1.0436968 1.6302269
00000000: e21a 9e3f 835e 3c3e e038 383f cfde 823e
00000010: 3b26 0b3f 6e00 f73e dffb 1d3f 0557 3b3e
00000020: f81d 463f 3ff6 d43f d6fb ed3e 832e 3f3f
00000030: 4a91 a43e 7100 273f 2c9f ba3e a1ac 0c3f
00000040: dda1 303f 2566 903e 401e 973e b481 683e
00000050: b46b 123f c443 923f c361 673f c14f 1a3f
00000060: 0887 e13e 2450 f63e ee3d 543e 2405 063f
00000070: f1d2 c03e 5842 d33e 5f98 063f 7cc6 1c3f
00000080: 0410 e53e 15a2 0e3f dd7c 033f da31 ad3f
00000090: 1fa7 3b3f 749b c53f 0639 293f 74d5 703e
000000a0: d16e 713f 8ca6 043f c7ca c13e c102 2a3f
000000b0: 9919 083f 7670 753e 47f5 043f 86d2 163e
000000c0: 1471 b13e 93a8 083f 1c49 b83e 82bf ee3e
000000d0: 7714 493f 6f15 843f 28e0 333f 5c30 bc3e
000000e0: eb3a 8d3e 8645 093f e076 783e c2d9 8d3f
000000f0: cd12 a13e 1e86 e23e ef8e 703f 9d82 693f
00000100: b378 553e 8ccd 853f 7f0d 333f b836 833f
00000110: 87d4 873f fbfe bb3e 130d a23f 4967 f33e
00000120: d5a2 ba3e e972 033f 0690 b33f ced8 1f3f
00000130: 5458 a23e 9700 0b3f 04fb cd3e 1cde c93e
00000140: b801 403f bbeb 443f f03f 383f 758b 923f
00000150: 3822 4c3f 993a 303f 099f 9f3e 982d 2e3f
00000160: c6ed 483f 25d2 f53e 615f 343f c669 7b3f
00000170: 2d2f 653f 334d be3e 80a6 513e 426d 003f
00000180: 36c9 423f a809 5f3f aa27 583e 8546 933e
00000190: cd41 833f 455f 8e3f 7666 113f fead 093f
000001a0: 527a d33f 6dbd 383f 2d64 a03e 68f5 cd3e
000001b0: 978e 9f3f 3352 123f da05 0f3f 23bd 023f
000001c0: a3a6 473f 22aa b03e cf51 6c3f f352 ee3e
000001d0: 75fa 8c3f e6b4 8d3f c083 b93e 03a5 423f
000001e0: 9457 db3e 2741 263f 8d27 093f 5991 183f
000001f0: e282 ae3e ce35 023f 6d26 863f 1e63 843e
00000200: 9895 5e3e 30ea 203f bcea 273f c0e0 793f
00000210: fcc3 013f dcdd d73f f0d2 3d3f ba7b 063f
00000220: 9ffc 6e3f b940 b73e 31a9 6a3e d57c 8c3e
00000230: c40d 063f f0e1 843e 6f2e dc3e 4911 993f
00000240: 61ed f03e c3ad 323f 0adc 1e3f 0ed4 f33e
00000250: bb14 753f 5229 a83f 1844 cd3e d213 5b3f
00000260: 0f43 363f a029 f13e 8953 f23e 01ce dc3e
00000270: cf92 d23e 03ef c63f b13c f63e d111 1e3f
00000280: 3d6a 8a3f d519 0d3f aa50 073f 570f f23e
00000290: 3808 f83e 7c7c 0a40 a209 143f 94ac 213e
000002a0: ccf4 323f 0b8a 213f 4d84 523e 632e d23e
000002b0: 7680 353e d5bf 2d3e 07ef a23f 5d4c cb3e
000002c0: d09f 073f b7fa 203f a27c 533e c697 813f
000002d0: 3c54 b73e 476d 223f ebe6 5a3f 1c82 db3e
000002e0: b449 8e3e 01fb 5b3e 225f 383f 6425 9b3e
000002f0: 910e 6e3f 702a dd3e b1ca 3a3f b155 bc3e
00000300: 9070 603e e8f8 793f d56f 4b3f 8d91 f23e
00000310: ac70 c63e 8e1a b93e db97 853f 46ab d03f
