artifacts/dynaPhysics/50_walkerDynamics.pt (torch, 191903 bytes, 20 tensors)

linear1.weight f4 [100, 24]
00000000: 89ce c93e 18b0 883e eda6 24be cf5b 2b3e
00000010: 1945 5c3d 475e 43be f5ae 24be 4137 233b
00000020: 4e94 bfbd df46 98bc 4774 c83d 7005 f83c
00000030: 6a33 c8bd a6ce abbd 54d0 0b3d 19c9 b83d
00000040: 39ef 433d 0f90 783b 5185 a73e 2e99 cdbe
00000050: 3c78 4c3f 4670 41bd 9b6e e13e 8306 e9bd
00000060: e3ef d43f 2c0e f13c 883f 013d d311 9cbe
00000070: 150a c8bd 0ea1 293d fee1 6fbd 85c1 a33d
00000080: 9c8f 403d 774b 4b3e ef78 263d 2586 ebbb
00000090: 2ed3 913c dddc 0e3c 3774 00b9 df2a 7d3c
000000a0: 9942 0e3c dce1 cf3a 6b9b 923e b42c 4abd
000000b0: 567b 013c f8a7 a63e 3a18 c8bd 9e87 febb
000000c0: 496a 283e ecc6 c63d 70d9 c03d c33e 26be
000000d0: 2b07 48bd ba5c 8e3c 4a69 493e 7a55 d23e
000000e0: c39a 85bf c3cc 2fba 7a70 18bd 370c f5bd
000000f0: 946f 953b 0a9a 2b3b 6faf 17ba 46cc b23d
00000100: d112 303d 243e b5bc b88b 813a d00b 2fbc
00000110: 5517 e13b f87e 1f3e 08be 973d c9a5 01bf
00000120: 50f1 6dbf cde2 8f3c afec de3d 596f ce3a
00000130: 8b55 fa3d 4a8d e8bd 4d88 ccbe 2cdb 893d
00000140: 2cf8 2bbe 2bf2 223f 5824 523e e92c 9f3e
00000150: f985 c0bd e28f f2bc 88dd c23a 0327 8dbd
00000160: 4f7b 91bc b5d3 fcbb b840 a43d b09c f5bd
00000170: c602 223e f4a9 853e e7f8 55bd 7fc5 8cbd
00000180: 2626 a0bc 3501 493d 300e 4c3d e7bc 0dbf
00000190: 07a0 b73f ee27 163e dfea 33be 3c41 9f3c
000001a0: 9916 803c d8ec 403d 9e09 62bd 035c 43bd
000001b0: c8ec 643d 35e1 5e3d aee1 943c 6a48 1ebd
000001c0: 5e8a efbc 58dc d13a b058 833e a22c 76be
000001d0: 61bb 833e 334b 9fbc e033 10b8 17ba 97bd
000001e0: 20f8 0cbe c084 19be d134 083d 0232 bd3e
000001f0: e2f3 0c3e af38 c73e 6c33 1a3e 1283 433d
00000200: 68ce 1cbe c703 93b9 2b47 02bd b21b bbbc
00000210: 6ea7 3ebd 20e9 853c 6d6e 50bd b564 5e3d
00000220: 259c 97bc 87c4 e73c 8a0e edbd 7147 553e
00000230: 2bf8 55bf 3748 8bbe 7b28 983e e54a 753e
00000240: 5a88 5bc0 fe79 1d3b e019 71bb 8ff2 ca3e
00000250: df5d 113d 489a a2bb 8cfb 8ebe 7d8b a1bd
00000260: 96ec 173c 3423 b2bd 5c18 0abd ca6c 32bc
00000270: 8cc7 503c 0a1d 97ba 4dd5 88b9 c0c4 98bb
00000280: 9e19 86bb a85f 8439 82dc 633d b443 23bc
00000290: cdb1 b5bb 094e c43b 49f2 30bb d6a4 1b3b
000002a0: ca1a e7bd 9656 8ebb 26e9 373c fba1 8e3d
000002b0: b364 303f 6b57 58bf a6f1 33bd 7e4e b83c
000002c0: 8a46 6fbc fbb0 513b 92b5 42bd e4f9 a9bc
000002d0: b69f c93c 4143 0c3d 1c08 a2bc 7454 fabb
000002e0: 101e 65bb ad6b 7e3a ab8b f13c f55b 223c
000002f0: 153e 4abe 180d f53c 5665 fe3c f40d 1c3b
00000300: 9c3d 883e dbf2 883c 0bc8 b23d 84fd a7bf
00000310: 0ca5 153f d5b1 5c3c 68ff 51be 26c1 9cbc
00000320: 2ff1 ff3d 223b 3c3c 4f2b 463d 452e 063e
00000330: c5da 91bd c8e9 f1bb 1066 e2bb e74e adbc
00000340: 8b14 43bb 4ebf 48bb 27e7 babd 5d3b 6b3d
00000350: 7363 22be 9fa1 05be ebb3 8c3d cccc a8bc
00000360: b3b9 06c0 16a4 0cba a7c8 213b 218f 00bd
00000370: 3e94 73bc 00f3 d43c e022 be3e 71d6 29be
00000380: 1b82 beba 2786 e3bb 1d57 3b3d d80d 46bd
00000390: f527 ba3a d84c 3339 cb2c 8a3a d81d fd3c
000003a0: 71cc 58bb f67e 02bb 076b b83d f382 303c
000003b0: c81a b53b fc9f 423e 870c 1fbe 60c0 ea3c
000003c0: 5cd5 f53c ba85 743c cced 993c 3242 dd3e
000003d0: 515b 39bf 4910 31bd 7fbd 7a3f a5b4 b4be
000003e0: ba08 77ba e2b8 4f3c d165 f83c e21f a63c
000003f0: 20bc 0fbc dbb6 dfbc b21d 7dba a20e f43c
0.39415386 0.2669685 -0.16079302 0.16734241 0.053776834 -0.19078933 -0.16082366 0.002490476
-0.09354459 -0.018588481 0.09787803 0.03027603 -0.097754315 -0.083890244 0.034134224 0.09022731
0.047835562 0.0037927662 0.327189 -0.4015593 0.79870963 -0.047226213 0.44029698 -0.11378195
1.6635708 0.029425703 0.03155473 -0.3048235 -0.09767548 0.04141336 -0.058565132 0.07995895
0.047011957 0.19853006 0.040642675 -0.007187622 0.017800894 0.00871965 -0.00012250325 0.015452116
0.00868287 0.0015860158 0.286342 -0.04935904 0.007902941 0.32550025 -0.09770246 -0.0077676317
0.16446795 0.0970591 0.09416473 -0.16234879 -0.04883496 0.0173782 0.19669071 0.41080838
-1.0437855 -0.0006706232 -0.03721664 -0.119652204 0.0045604203 0.0026184344 -0.00057863345 0.08730368
0.042986695 -0.022124358 0.0009883558 -0.010683969 0.0068692365 0.15575778 0.074092925 -0.50643593
-0.9294634 0.017564202 0.108849876 0.0015749737 0.12223347 -0.11355074 -0.3994774 0.06731257
-0.16793889 0.6365077 0.20521677 0.3108895 -0.09400553 -0.029609624 0.0014867047 -0.068922065
-0.017758993 -0.007715667 0.080201566 -0.119927764 0.1582137 0.26106226 -0.052239325 -0.06873607
-0.01954944 0.049073417 0.049818218 -0.5536637 1.4345711 0.1466367 -0.17570065 0.019440286
0.015635775 0.04710087 -0.055184953 -0.04769517 0.055889875 0.054413993 0.018174019 -0.03864328
-0.029240783 0.0016011102 0.256536 -0.24040464 0.25728896 -0.019445037 -3.4380588e-05 -0.07408541
-0.13766527 -0.14992046 0.033253495 0.36952215 0.13764909 0.38910434 0.15058678 0.04773242
-0.15313113 -0.0002804084 -0.031806152 -0.022840355 -0.046546392 0.016346514 -0.05088656 0.05429526
-0.018507073 0.028291954 -0.11575039 0.20828034 -0.835818 -0.27203533 0.29718384 0.23954351
-3.4301972 0.0024029012 -0.0036789104 0.39638183 0.035489913 -0.0049622394 -0.2792629 -0.078879334
0.009272715 -0.08698121 -0.033714637 -0.010890195 0.012742888 -0.001152904 -0.00026098863 -0.0046621263
-0.0040924093 0.0002524827 0.055630215 -0.009964872 -0.005544877 0.005990748 -0.0026999882 0.0023749373
-0.112844065 -0.004343818 0.0112250205 0.06964489 0.68903655 -0.8450839 -0.043931626 0.022498365
-0.01460422 0.0031996358 -0.04753644 -0.02074904 0.024612289 0.034243826 -0.019779257 -0.007639462
-0.0034960546 0.0009705376 0.029485544 0.00990962 -0.19750245 0.02991347 0.03105418 0.0023812028
0.26609504 0.016717365 0.087295614 -1.3124242 0.58454967 0.013470133 -0.20507586 -0.01913507
0.12497174 0.011488708 0.048381146 0.13103588 -0.07121805 -0.007382605 -0.0069091395 -0.021155788
-0.0029766883 -0.0030631605 -0.0912612 0.05742966 -0.1585825 -0.13049935 0.06870254 -0.020605467
-2.1050842 -0.0005365027 0.0024686249 -0.0313865 -0.014866887 0.025994778 0.37135983 -0.16585709
-0.0014534624 -0.0069434824 0.045737375 -0.048353046 0.0014202582 0.00017099397 0.0010541914 0.03089802
-0.003308084 -0.00199121 0.09004789 0.010773408 0.005526874 0.19006342 -0.15532123 0.028656185
0.030008964 0.014924461 0.018790148 0.43214566 -0.7240496 -0.04322842 0.979454 -0.3529407
-0.00094236026 0.012678357 0.030321987 0.020278875 -0.00877288 -0.027308872 -0.0009655609 0.029792134

linear1.bias f4 [100]
00000000: de49 b1bd 429a b6bd f1bd bebd 578f dbbd
00000010: f34d 4bbd 9f05 37be 05a7 01be 0f74 6e3e
00000020: 9b27 84bd 578a 613e 4e26 1dbe 5d15 3f3e
00000030: 0e88 83bd 1ea0 693d 94f3 083c ea56 1a3d
00000040: 420b e43c 49a5 67bd e6a6 1ebe e2a4 52bd
00000050: 3256 2abd 513b fb3d cb11 f73d 078b 06bc
00000060: 2a23 243c d464 40bd 25ec 3d3e aadd 71be
00000070: 206a 26be dd40 f13d 09ea 40bd 8c98 f33d
00000080: 011e 29be 3271 803d b3b3 de3b b798 4cbd
00000090: 6fa6 d23d 9e4c 0cbe 0a69 db3d 9ef6 5b3c
000000a0: 48a2 29be 6b04 07be 9eba b6bc b6a0 7c3e
000000b0: 7e72 44bd 8365 d23d 0104 ccbc c493 9f3d
000000c0: a498 bbbd c598 543e e8d2 773d 6c7d 923d
000000d0: 6ce8 463d c1f4 3cbe 324c d1bd 2af3 28be
000000e0: ac10 32be fdb6 a23d 63df 0dbd 5032 b13d
000000f0: 0ed8 d7bd 53ce 0b3e 25d6 1d3b 6d15 0b3d
00000100: 755e 713d 6ef7 213e 25d2 15be 7844 30be
00000110: 2669 ae3d eb8b cc3c ba77 d33c 5e0b 5f3c
00000120: 1cc8 153d ff91 643b 6ee6 363e 088a 913d
00000130: 7a3a 38be 1970 263e 0769 a23d 3c10 3e3e
00000140: 37b0 c63d 3094 a2bd 8f8e e83d bab2 b0bd
00000150: c698 ae3d 93d6 00be 8909 b3bc b6cb 13be
00000160: e627 7bbd 3950 8dbc 63ab 15be 7f49 14be
00000170: 57f0 a53d bd97 ddbd 450e b8bd 36ea 2cbd
00000180: ac15 c0bd e164 d53d 56a3 c73b 2aab 293e
-0.08656667 -0.08916141 -0.09313572 -0.10720699 -0.049634885 -0.17873238 -0.12661369 0.2328646
-0.06452867 0.22025429 -0.15346643 0.18660493 -0.06422435 0.057037465 0.008358855 0.037680544
0.0278374 -0.056554113 -0.15493354 -0.051426776 -0.04158611 0.12267173 0.120639406 -0.008211858
0.010018149 -0.046971157 0.18547113 -0.23619714 -0.16251421 0.1177995 -0.047098193 0.118943304
-0.16515352 0.0627159 0.006796324 -0.049950328 0.10285651 -0.13701102 0.10713394 0.013425497
-0.16565812 -0.13185279 -0.022305783 0.24670681 -0.04796075 0.10273268 -0.024904253 0.07791856
-0.09159973 0.20761402 0.06050387 0.071528286 0.0485615 -0.18452741 -0.10219611 -0.1649901
-0.17389172 0.079450585 -0.034636866 0.086521745 -0.10539256 0.13652925 0.002408394 0.03395598
0.058927972 0.15817043 -0.14630945 -0.17213619 0.08516149 0.024969062 0.025813926 0.01361355
0.036567792 0.003487706 0.1786134 0.071064055 -0.17991057 0.162537 0.079301886 0.1856088
0.09701579 -0.07938421 0.11355316 -0.086278394 0.08525233 -0.12581854 -0.021855133 -0.14433178
-0.061317347 -0.017250167 -0.1461616 -0.14481162 0.08102482 -0.108199574 -0.08987097 -0.04221555
-0.093791336 0.10419632 0.006092469 0.165692

bn1.weight f4 [100]
00000000: 5c0d eb3e 0e99 4a3f b85c 5c3f 5260 283f
00000010: 2f01 913f a799 5b3f 7559 cb3f ff1e 7d3f
00000020: 7226 943f 55d3 493f dc60 953f 10bd 583f
00000030: 901e fa3e 7460 983f efcb 0f3f 3373 793f
00000040: 546d 3f3f 0ef9 0a3f 3be8 073f 89dc 3f3f
00000050: 4d68 3e3f c7f3 373f a996 bc3f 2507 1d3f
00000060: dcad 0f3f e440 023f b53a 713f ede3 673f
00000070: cb50 573f 9d9f 673f 3b82 353f 68e0 963f
00000080: 9f69 2c3f 4518 1a3f bbf8 d23f 7475 8e3f
00000090: b926 be3f 711c 603f 083b ab3f 2e44 5b3f
000000a0: 87e4 383f 9d00 2b3f bd31 6a3f 9a48 343f
000000b0: 6499 483f 90e3 423f 8901 9d3f e9d3 9f3f
000000c0: 71b2 183f 734b 4b3f 8596 ad3f 5e11 063f
000000d0: b2af 583f cb3c 1e3f b766 483f 5214 1d3f
000000e0: 6ac7 ba3f db7b 4a3f 8155 a93f dbec fd3e
000000f0: dad1 183f c185 0e3f 02ae 533f 3dff 8d3f
00000100: 03ed 103f 6bb3 b43f 31d7 143f 87dc 1c3f
00000110: 9d2f 793f f72c 623f 6917 ee3e a656 2a3f
00000120: b08e 103f 044f a33f 0957 173f 2ba9 623f
00000130: a1a4 553f d5ee 5a3f be05 213f d994 563f
00000140: c586 3f3f af83 3f3f 0c20 823f 2df8 fd3e
00000150: bbcd 463f 38c9 2e3f 50b6 923f baf8 3b3f
00000160: ec5a 2c3f ab65 053f 623f c13f ff01 113f
00000170: 8bf1 a43f c531 9b3f 0ddc d53e de9d 3e3f
00000180: bd47 1c3f 4b2d ae3f 8cea dc3e 5218 553f
0.4590863 0.7913979 0.8607898 0.65771973 1.1328486 0.8578133 1.5886675 0.9887542
1.1574233 0.7883809 1.1670184 0.84663486 0.48851442 1.1904435 0.5617055 0.97441405
0.74776196 0.5428628 0.5308873 0.74945885 0.743779 0.7185635 1.4733478 0.61339027
0.56124663 0.50880265 0.94230205 0.9058216 0.84107655 0.90477926 0.7090184 1.1787233
0.67348665 0.6019328 1.6482157 1.1129594 1.4855567 0.875434 1.337739 0.8565091
0.72223705 0.6679781 0.91482145 0.7042328 0.78359056 0.7612848 1.2266093 1.2486545
0.5964728 0.79412 1.356156 0.5237025 0.8464309 0.6181151 0.7828173 0.6135913
1.4592106 0.7909524 1.3229219 0.4959477 0.5969521 0.5567284 0.8268739 1.1093518
0.5661165 1.4117254 0.58140856 0.61274 0.9733828 0.8834986 0.46502236 0.66538465
0.56467724 1.2758489 0.5911718 0.8853938 0.8345433 0.8552068 0.62899387 0.83820873
0.74815017 0.7481031 1.016603 0.49603406 0.7765767 0.68275785 1.1461887 0.734264
0.67326236 0.5210826 1.5097468 0.5664367 1.2886213 1.2124563 0.41769448 0.74459636
0.61046964 1.3607572 0.43147695 0.83240235

bn1.bias f4 [100]
00000000: 17c3 6f3f fd76 5a3f 62a9 33bc 38b1 163e
00000010: 5bc1 4d3c 46dc 2bbd 0832 be3e 2526 cc3d
00000020: a080 bebc 9c7a 443f 617d 4f3b 2a9b a43e
00000030: fb25 1b3d 9be8 2cbe 8a8f 543d 4599 133f
00000040: 77d7 453d 7e3e 6c3e d188 5a3e d501 a03d
00000050: 908d 1fbe 1506 733d 96fb 9cbd f7a6 56bd
00000060: ac04 293d dfab 523f dda0 d9bd ec6b d73d
00000070: 0448 37be b1d6 1b3e 997e bfbd 4b77 533f
00000080: 59c8 2b3e 5d91 633c edf1 733f 4b3d 903f
00000090: 8980 2abf 29e4 3a3e 3ceb 103f 98ba 163f
000000a0: a4c4 1cbd 715d 2f3d 16c8 e33d eb99 c53f
000000b0: be4f 213f e7fa da3d 297f 003f 44fa 80be
000000c0: e15f c53e 3d54 153f 3784 67be b23a c13d
000000d0: 2984 793d 4929 49bd 6553 32bd 2216 ca3e
000000e0: 7799 0d3e e007 9fbc 57da 533d 7e52 83be
000000f0: 6a6a 053e 2a20 e63c a558 4c3e abe1 cf3e
00000100: 5aa6 3c3f c359 11bf c0c2 8b3c d50f 29bc
00000110: bccd e43c eddc 9c3e c523 0c3f d042 e53e
00000120: 2dd0 253e 9ac1 1b3e be1d c53e a2e7 d8bd
00000130: 8669 563b e368 98bc 2803 02be 897b 2f3d
00000140: 96b3 083d e69c bfbd c547 e33d 6694 9e3e
00000150: b221 dd3e f404 3d3e 46d2 503f bc05 013f
00000160: 5450 1ebd 56ae d93e a04e f8bd c1c7 2c3a
00000170: 01a5 a53d 8eaf 42be 6a32 bd3e 1960 313e
00000180: 32c8 a13f 70d2 d63e 66a3 ecbc 02cd 163d
0.9365706 0.8533781 -0.010965677 0.14716041 0.012558307 -0.041958116 0.37147546 0.09968213
-0.023254693 0.7674959 0.0031660425 0.3214963 0.037878018 -0.16885607 0.051894702 0.57655746
0.048301186 0.23070714 0.21341254 0.078128494 -0.15581346 0.059331972 -0.07665174 -0.052405324
0.04126422 0.82293504 -0.10626385 0.10518631 -0.17898566 0.15218617 -0.093503185 0.826039
0.16775645 0.013889638 0.95291024 1.1268705 -0.6660238 0.18251099 0.5660894 0.5887847
-0.03827347 0.042813722 0.11122148 1.5437597 0.630123 0.10692387 0.5019403 -0.25190938
0.38549712 0.5833166 -0.2260903 0.09435023 0.060917053 -0.04911164 -0.043536562 0.3947001
0.13828073 -0.019412935 0.051721897 -0.25648874 0.13028875 0.028091509 0.1995569 0.40601858
0.7369133 -0.5677759 0.017060637 -0.010318716 0.027930133 0.30637303 0.5474208 0.44777536
0.16192694 0.15210572 0.38499254 -0.105910555 0.0032716705 -0.018604701 -0.12696517 0.04284242
0.03337439 -0.09356098 0.11097673 0.30972594 0.4318977 0.1845892 0.8157085 0.50399375
-0.038650826 0.4251582 -0.121243715 0.0006591045 0.080881126 -0.19012281 0.36952525 0.17321815
1.263922 0.41957426 -0.028886508 0.036816604

bn1.running_mean f4 [100]
00000000: 4c95 1dbf d941 0cc0 2267 3dbf 2529 b13e
00000010: 2965 29c0 7d1a 9f3d 4370 7640 be5a 1dbf
00000020: 9a79 0fc0 5fd4 4340 5267 1540 3379 9a3b
00000030: 312a b3bd ed90 dfbf a4e5 09c0 978e b7bf
00000040: 941f 1c3e e4a7 8a3e 626f c0bd f4d6 d0bf
00000050: a3b2 89bf 460e 43bf f1f8 e13e 231c f8bf
00000060: e020 febd ba14 e93f a94a 32bd 9975 da3b
00000070: f193 56bf 743b 8fbf 50c3 a03f a443 aa3e
00000080: 0ac3 14bf 9208 0e3f b89a 6c3f 57b8 48bd
00000090: 1ae3 c9bf 4c20 bd3f d91c ce3e ae92 cbbf
000000a0: f585 b93e b8c5 363f be7b 263e 4e6f ee3e
000000b0: b7ec eabf 8c7d f93f 8dbb 32be 7713 a2bf
000000c0: e557 91be aac6 8a3f 2399 3940 a68d 32bf
000000d0: d449 433e 7865 63be ca46 0cbe 0f51 fb3d
000000e0: 3e2f 18bf 260c 2f40 9d8b 2abf bafa 01bf
000000f0: 29a3 c2bf 1e68 7c3d 6777 fc3e dd6c a93e
00000100: e65c 1a3f 27de 51bf 5999 623f a315 53bf
00000110: ec2d b8bd c351 10be f511 333f 5b08 e2be
00000120: 6470 89bf 9b6d 693e 7b57 e23f 492e 8abe
00000130: d180 70bd 473b 8e3f 9394 20bf dce4 45be
00000140: b0a2 92be 8d2b e9bf a69e 263e 03e0 1bc0
00000150: f4f8 033f 66e6 ccbf 282e 853f 0a7e 983f
00000160: 931e 823e e307 22bf f022 123e 2924 8abf
00000170: 8790 82bf 7bcf 9cbf dd80 1a3f 8734 4b3f
00000180: c352 2bbf 2f72 6640 66ec 1fbe 97b3 8bbf
-0.61555934 -2.191519 -0.73985493 0.34601703 -2.6467993 0.07768724 3.850602 -0.61466587
-2.241797 3.059837 2.3344312 0.004714155 -0.08748282 -1.7466103 -2.1546412 -1.434039
0.15246421 0.27081215 -0.093962446 -1.6315598 -1.0757641 -0.76193655 0.4413524 -1.9383587
-0.12408614 1.820945 -0.043528233 0.0066668508 -0.8381949 -1.1190019 1.2559605 0.3325473
-0.58110106 0.5548183 0.9242358 -0.049003925 -1.5772431 1.4775481 0.40256384 -1.5904138
0.36235014 0.71395445 0.16258141 0.46569294 -1.835349 1.9491439 -0.17454357 -1.266219
-0.2838737 1.0841877 2.8999717 -0.6974739 0.19071132 -0.22206676 -0.13698879 0.1227132
-0.59447086 2.7351165 -0.6661928 -0.50773203 -1.5206043 0.06162273 0.49309847 0.3309087
0.60298 -0.819796 0.8851524 -0.8245489 -0.08993134 -0.1409369 0.69949275 -0.44147
-1.0737424 0.22795717 1.7682947 -0.26988438 -0.0587166 1.111184 -0.62726706 -0.19325584
-0.28639746 -1.8216416 0.16271457 -2.4355476 0.5155175 -1.6007812 1.0404711 1.1913464
0.2541395 -0.63293284 0.1427114 -1.0792285 -1.0200356 -1.2250818 0.6035288 0.79377025
-0.6692316 3.6007192 -0.15617523 -1.0914181

bn1.running_var f4 [100]
00000000: e523 503f 5577 733e f60a 5c3f 2560 3b3f
00000010: e329 3440 8b7e 763f f43a 963e 0330 3f3f
00000020: 36db 0740 1159 7e3e ea9a 1040 8562 583f
00000030: 0e3b b33f 093e bd3f 9d1c 7340 a06b ec3e
00000040: 2984 863f 945a 633f c5f4 683f 61b5 883f
00000050: 95ac ff3f b082 a940 b200 3e3f f4c6 0a3f
00000060: 8c3a c23f 4952 833f 6a94 0d40 58cb 193f
00000070: 726f 7e3f 7e25 1e3f 1ede 973f 41c6 083f
00000080: 17e9 da3f c61b a740 3556 9140 6785 033f
00000090: e7f0 7b3f 2d05 ee3f 1a01 3e3f 7f9e 503e
000000a0: 671f 0040 ec20 c63f 2bba 833f 9dff 3b3e
000000b0: 3ef1 a83f 4978 543f d3a6 233f cb9b 7f3f
000000c0: 84e4 433f 365f 553f b970 d43e 7058 8740
000000d0: 02aa 4b40 9bf9 6c3f 023f 5340 71cb 9b3f
000000e0: ea43 3d40 e98b 713f f64c e63e 5674 c53f
000000f0: d816 1940 ea36 aa3f a19b 8d3f 220b c73e
00000100: 8557 7e3f 3253 7b3f 5f54 2340 2e71 ce3f
00000110: d1fc ab3f 86ad 453f 6c76 fe3e ec58 383f
00000120: cf30 b43f eb8a aa3e c298 0d3f a7cb 3a3f
00000130: 43f5 633f 5caa 1e3f 98ae 4640 2493 7f3f
00000140: 3c3d ee3f a5d3 9d3f f2c1 a93f f42a 363f
00000150: ddc0 283f 4115 aa3f 7930 e23e aa18 663f
00000160: 4b82 e540 75ff a13f 49fa fe3f 3d84 3e3f
00000170: 6285 4b3f b28c 2240 7d7a 953f 5c4e 963f
00000180: 5e53 403f cd43 823e 05eb d43f 1133 3f3f
0.8130477 0.2377599 0.85954225 0.7319358 2.8150566 0.9628684 0.29341853 0.74682635
2.1227546 0.24838664 2.2594552 0.8452533 1.4002397 1.4784557 3.7986214 0.4617586
1.0509082 0.88810086 0.9099849 1.0680352 1.9974543 5.297203 0.7421981 0.5420983
1.5174117 1.0259486 2.2121835 0.600759 0.993888 0.6177596 1.186466 0.5342751
1.7102383 5.2221403 4.5417733 0.5137543 0.9841446 1.859533 0.7422043 0.20372961
2.0019166 1.5478797 1.0291189 0.18359227 1.3198621 0.8299604 0.6392643 0.99847096
0.7652056 0.83348405 0.4149225 4.2295456 3.1822515 0.9256837 3.3007207 1.217146
2.9572701 0.9435411 0.44980592 1.5426128 2.3920193 1.3298008 1.1063119 0.3887568
0.99352294 0.9817382 2.5520246 1.612829 1.3436528 0.772179 0.49699724 0.72010684
1.4077395 0.3330911 0.55311215 0.72967 0.89046115 0.619787 3.1044064 0.99833894
1.8612437 1.2330214 1.3262312 0.7115929 0.65919286 1.3287736 0.44177607 0.89881384
7.172155 1.2656084 1.9920131 0.7442053 0.795004 2.5398374 1.1678005 1.1742663
0.7512721 0.25442353 1.6634222 0.74687296

linear2.weight f4 [200, 100]
00000000: 86e0 a03c ffd9 a63d 8daa c53c c06d ee3c
00000010: ecf2 cb3d b787 a3bd 02cb 21be d90a 0fbc
00000020: 70aa 413e 7d88 3cbe 68ff 733d 1888 b1bd
00000030: e827 a5bd fc94 5bbe 33ad 213d a8a5 d03d
00000040: 0ce1 1d3e 1cca ffbc fb8a 393d 1401 41bd
00000050: bcbc 813d 4650 7ebd 47f1 203d 243b b4bd
00000060: eec4 3b3c 1e99 593d be8b 0fbc 35d6 c2bd
00000070: 719a 0a3e 43e3 7bbc 5c3c 473d b625 073d
00000080: 9f0c 2d3d df22 38bb faf2 843d 2116 32bc
00000090: 35b2 fcbd c375 1f3e 500d 123d ca5c 1cbe
000000a0: dcef 45be c573 ab3c d4e8 b7bd 79df 753e
000000b0: be5c 94bc 891d 61bd e19e 75bc a7a5 f83b
000000c0: 6265 a33c 7547 893d f56c 99be f67f 803d
000000d0: f99d 283e 2407 733c 8d44 ca38 0bdb acbd
000000e0: dd56 37bd b098 1cbe fc83 79be 7e04 b0bd
000000f0: fd9f 88bd c5ba b33d bd59 243d 336f 653d
00000100: 4ead d73d 313d 573d 9b59 fe3b ae19 013e
00000110: bf65 153d 34c0 ddbc d36b 5ebc c4f9 d13d
00000120: fb94 77bd bada 6d3c 9332 31bc 66d5 c93d
00000130: f822 df3a 22e0 d13d 9288 7bbd bc4e d13d
00000140: 39fb 963d 6992 2ebc 4b49 d6bc bbd1 cdbd
00000150: 8f51 9ebd 3732 a7bd c405 5abe 7203 0f3d
00000160: ddf0 673d 0d73 c9bd d02d 3e3d 667b 60bd
00000170: 5ece ebbd 1483 043e b629 c13d c673 363d
00000180: e6b1 003e cce5 4a3d 4531 edbb 542c 2cbd
00000190: 6f2d fa3d 704e 2abe 99cf 7abd d199 f23d
000001a0: 38d5 0c3b b41c 94bd a402 113d 60f1 13be
000001b0: 180d f6bb a29a cf3d 028c 5b3e d8fa 5f3d
000001c0: 7c47 023e 3831 183d 58e0 013e e82b ef3d
000001d0: 9df3 c83d 4aaa f13d 4d06 3d3d 902d 023e
000001e0: 4c84 a6bd 78e0 5c3c 8a56 573d 772f 24bc
000001f0: d175 88bd 0359 f4bd 92d8 c5bd be0e 8abd
00000200: 4b64 b33c 78d0 9dbd 3eb0 c93c 4fc5 3bbd
00000210: 76be 4abd 381f c53b d700 4fbd c561 69bd
00000220: 5ae7 083b 72d4 e6bd ed95 10bd 1148 54bb
00000230: 78dd 093e a557 6e3b f6f8 f23d 3d29 edbb
00000240: fd0f 2abc 2f37 4fbe 5d1d 213d 0328 68bc
00000250: 78fd 903b 3399 943d 90fb 1cbe 54cf 3a3c
00000260: b10b 04bd 2929 833d c80b 973d 15b0 b03d
00000270: d16e dfbc 603a 64bd 54a1 b73d cb21 86bd
00000280: 6cf5 953c 092b fb3d 94d2 c23d fefe 833d
00000290: 2341 17be 14e7 e8bd 8bc6 323d b8a5 8a3c
000002a0: c981 013d 6b8e b43c da67 29be ad6e 9bbd
000002b0: 3ba4 063e 6b79 a3bd 6f08 293d adc6 fe3c
000002c0: ef14 b2bc 1688 393e 7daa 29bc f20d a53c
000002d0: 594b ffbd 0c84 b33d 6ad7 c33d f1fa a1bd
000002e0: e437 b1bc 408b 6b3c a5d4 e03d 32ae 81be
000002f0: 5d7d 6dbe 9173 e53d f277 bd3c 6514 d7bb
00000300: 585d 9fbd c9d9 9dbd 013d b4bd 967e 063c
00000310: 8979 ae3c 16c0 ce3d ea92 1d3d 35c9 8fbd
00000320: 5405 bebd 1482 273c ea81 24bd c212 033e
00000330: 5025 ad3a 3be9 6a3d 3b2b 98be d508 49bd
00000340: 47bb 0f3e 3159 29bd 55e6 97bc c882 b9bc
00000350: 47a0 753d 61f1 813d 68d7 213d 505b 953d
00000360: 647b 4dbc 04b8 043d ae1d 19bd 84d8 b83c
00000370: d4b9 b33d 6ae0 4f3d dce3 693c e002 433d
00000380: eff0 5ebc 58c6 52be 79d1 7d3d 4c51 ffbd
00000390: 6406 d73d 1f9e e7bd b4e7 3bbd 8848 bbbb
000003a0: cb66 123c b98d ebbc 5863 f6bd 73f2 d83c
000003b0: dca7 ac3d bb44 273d b5d0 cd3d baef 3c3d
000003c0: c601 dcbc 6724 023d 0aad 0e3c af03 2f3e
000003d0: 6f42 2b3d e490 553a b6e2 1c3e 0b11 293e
000003e0: dbc7 ec3c 088d a7bc 7d06 cabd 190c 313d
000003f0: edd7 bebd cb0b 5bbd 39db 083d d52d 0abe
0.019638311 0.08147048 0.024129177 0.029105067 0.09958443 -0.0798487 -0.15800098 -0.008730614
0.18912673 -0.18411441 0.059569746 -0.08668536 -0.08064252 -0.21443552 0.039471816 0.101878464
0.1541788 -0.031224303 0.045298558 -0.04712017 0.06334826 -0.062088273 0.0392926 -0.08800343
0.011460526 0.05312454 -0.0087613445 -0.09513513 0.13535477 -0.015374008 0.048641548 0.03299495
0.042248365 -0.0028096957 0.064916566 -0.010869534 -0.12338678 0.15572266 0.035657227 -0.15269771
-0.1932978 0.020929227 -0.08979955 0.2401103 -0.01811063 -0.054959808 -0.014991493 0.0075881067
0.019945804 0.067030825 -0.2996594 0.062744066 0.16466512 0.014833245 9.644879e-05 -0.08440217
-0.044760574 -0.1529262 -0.24366754 -0.08594607 -0.0667114 0.08775858 0.040124644 0.05601425
0.10531102 0.05254859 0.0077621466 0.12607452 0.036473986 -0.027069189 -0.013575512 0.10252717
-0.060444813 0.0145174805 -0.0108152805 0.09855156 0.0017023971 0.10247828 -0.06140954 0.102200955
0.07372136 -0.010655024 -0.026157996 -0.100497685 -0.077304 -0.081638746 -0.21291262 0.034915395
0.05662619 -0.09836397 0.04643041 -0.054805182 -0.11513971 0.12940627 0.09431784 0.044544004
0.12567863 0.049535558 -0.0072385394 -0.042034462 0.12215697 -0.16631484 -0.061233137 0.118457444
0.0021489393 -0.07232037 0.03540291 -0.14447546 -0.007508885 0.10136916 0.21440127 0.054682583
0.12722582 0.037156314 0.12683237 0.11678296 0.098120905 0.11800058 0.046148587 0.12712693
-0.081307024 0.013481252 0.052572764 -0.010021082 -0.06663097 -0.1193104 -0.09660448 -0.06741093
0.02189841 -0.07705778 0.024620172 -0.045842465 -0.049498044 0.0060156845 -0.05053791 -0.056978006
0.002088985 -0.112709895 -0.03529923 -0.0032391588 0.1346339 0.0036368158 0.11863892 -0.007237582
-0.0103797885 -0.20235895 0.039334644 -0.014169696 0.004424747 0.07255783 -0.15330338 0.01140197
-0.032237712 0.06404335 0.07375294 0.08627335 -0.027274521 -0.055719733 0.08966318 -0.06549414
0.018305503 0.12264068 0.09512821 0.0644512 -0.14770941 -0.113722 0.043646377 0.016924724
0.031617913 0.022040566 -0.16543522 -0.07589469 0.13148586 -0.07982143 0.04126781 0.031100595
-0.021738498 0.18118319 -0.010355589 0.020148251 -0.12465543 0.0876542 0.09562571 -0.079091914
-0.021633096 0.0143764615 0.10978059 -0.25328213 -0.23192354 0.11203683 0.023128483 -0.0065637105
-0.07781476 -0.07707555 -0.08800698 0.008208891 0.021298187 0.10095231 0.038470186 -0.07020799
-0.0927836 0.010223884 -0.04016296 0.12800124 0.0013209973 0.057351332 -0.29720482 -0.04908069
0.14036284 -0.041344825 -0.018542448 -0.02264537 0.059967306 0.063448675 0.039512068 0.07292807
-0.012541626 0.032402053 -0.03738182 0.02256418 0.08775678 0.050751127 0.014275517 0.047610164
-0.013607248 -0.20583475 0.061967347 -0.12466678 0.10499266 -0.11309456 -0.045875266 -0.0057154335
0.008935641 -0.028754102 -0.12030667 0.026482796 0.08430454 0.04083703 0.10049573 0.04612706
-0.026856314 0.031772997 0.008708248 0.17091249 0.041811403 0.00081468956 0.15320858 0.16510408
0.028903892 -0.020452991 -0.09864519 0.043224428 -0.09318528 -0.053478044 0.033412192 -0.13494046

linear2.bias f4 [200]
00000000: 301c 14bd 304c 4cbd b3b6 c13d 8d40 aebd
00000010: 0807 333d 8d70 b83c d17d 873d 4883 c73d
00000020: 262c 9f3c e324 4dbd 60d4 51bd 726e 033d
00000030: 0960 543d a7cc 92bd 5c98 8dbc fec2 5a3d
00000040: 2018 243d 94c0 96bb f4ca 163c c060 0fbd
00000050: 2610 993d 39dc a93d 1373 ca3d 6922 ae3d
00000060: 8dbf df3d 5005 63bd 7719 8ebc f2e3 d8bd
00000070: 3201 db3d 1d53 7ebd 8ac2 b13c 1bc4 623c
00000080: 42f7 cfbb bea2 debd b11d e43d 269d e43b
00000090: cab3 3cbc f15f 1f3d 9d19 843d 8870 0a3d
000000a0: e0f3 c53d 03fc e9bc cacc 8ebd d57c 5fbd
000000b0: 0d4a 24bd 63dd 2c3d 76f2 9fbd 618b 653d
000000c0: eb2e c8bd 68f2 37bd ac03 8a3d a09d 8ebc
000000d0: d0c3 d63c 48b4 493d ed45 00bd 3e92 893d
000000e0: 3705 4d3d caa2 993d 9846 cebc 1c30 cebd
000000f0: 4375 fe3c 93c5 11bd ad9d 223c 8304 2a3d
00000100: 1777 c93d 797d 00bd 23b1 4cbd 4f9a b43d
00000110: 3ee9 65bd 8589 f63b 6f9e 29bc 6c37 2cbd
00000120: a47d 903d 2495 a5bd e26a 093d 9e1a b9ba
00000130: 3972 00be 17c8 fc3d 0c01 ad39 573c 423d
00000140: da38 e3bc edf8 37bd 40ca cb3c 73df 00bd
00000150: 0b6d 9ebd e36d 973d 7b22 dfbc ffb5 d1bd
00000160: 1e08 a53a f76a 413b 236c debd 40f8 363d
00000170: 549c d8bc 161c 0cbd e9f6 ae3c 6573 283d
00000180: 99d0 413d d185 ecba 83e3 a9bd 1421 943c
00000190: 8a29 83bd 97fa 11bb 004c 75bd 0360 2dbd
000001a0: fb24 82bd 1bcb 3a3d 21e6 6cbd c2d3 6e3d
000001b0: a30a 0fbd da70 b63c 3f9f 863d 8279 ba3d
000001c0: 904b 653d 5b52 58bd 9b85 60bd 444c 853c
000001d0: ff7c ce3b 1655 32bb bc46 6e3d 9423 8bbd
000001e0: 48cb 763c 6bb4 883d 4356 a63d 5aab b63d
000001f0: 9aed 223d 2b59 703d f18f bebd 4d78 993d
00000200: 133f c73d d838 4c3d 9ecb 30bd 0f96 9b3d
00000210: 51a1 aabd 614a af3d 79ef d5bd 2fa7 a43d
00000220: 3a20 033d 1156 8ebd 08c3 a0bc aabe 24bd
00000230: 970c 8abc 4bcf b0bd 4c52 82bd a202 1d3a
00000240: 0cf7 a43d f3e5 e8bc f8b7 00bd f636 313b
00000250: 611b 45bc 5fff b1bd a8f3 803d 27ac 86b9
00000260: d55b f7bd 1c52 32bc e7c6 853d 5088 bd3c
00000270: bc73 3fbd 4d25 04bb 5db0 993d d179 be3d
00000280: 6a26 ac3d c017 b83d 4f7e 003b 3d09 0ebb
00000290: f7a8 0abe 9558 bcbc df2b b63d c8a2 1f3b
000002a0: 337e cebd 581e dcbc dae0 88bd 1843 003e
000002b0: cbe8 13bd 3a0f 9e3d 14ce 803d f9d7 92bd
000002c0: 27a9 183d 50c0 353d 39a5 1fbd afb4 a6bc
000002d0: d9b1 323d fd95 6a3d 51f4 093e fef8 94bc
000002e0: bc2b 903d 7030 74bc 0bf4 bd3d bfc4 8a3d
000002f0: 24dc 923d 9ffe 6b3d c25c 87bc 669e b2bc
00000300: ea2e c6bd dec9 8cbd 068c a0bc f13d febc
00000310: 9c33 d1bc f005 0fbd b973 953c 52e5 d03d
-0.036159694 -0.049877346 0.09458675 -0.08508406 0.043707877 0.022514606 0.066157945 0.09741837
0.019430231 -0.050084006 -0.051227927 0.03208775 0.0518494 -0.071679406 -0.017284565 0.053408615
0.04006207 -0.004600594 0.009203661 -0.035004377 0.07473783 0.08293957 0.0988523 0.08502657
0.10925207 -0.05542499 -0.017346127 -0.10590352 0.10693587 -0.06209098 0.021699209 0.0138407005
-0.006346614 -0.10870884 0.11138476 0.0069767414 -0.011517474 0.038909856 0.06450198 0.033798724
0.09665656 -0.028562551 -0.06972654 -0.05456241 -0.040109683 0.04220332 -0.07809918 0.056041125
-0.09774574 -0.04490891 0.067389816 -0.017409146 0.026216418 0.049244195 -0.031316686 0.067173466
0.0500538 0.07501753 -0.025180146 -0.1006777 0.031061774 -0.035588812 0.009925288 0.04150821
0.09837168 -0.03136966 -0.04997362 0.088184945 -0.05613064 0.007523718 -0.010352715 -0.042045042
0.07055214 -0.08085087 0.033549197 -0.0014122312 -0.12543572 0.123428516 0.0003299791 0.047420826
-0.02773707 -0.04491513 0.024876714 -0.031463098 -0.07735642 0.07394006 -0.027238121 -0.10239791
0.001259092 0.002951322 -0.10860469 0.044670343 -0.02644173 -0.034206472 0.02135797 0.041125674
0.047318075 -0.0018045251 -0.082953475 0.01808218 -0.06404407 -0.0022274607 -0.059886932 -0.042327892
-0.0635471 0.045603853 -0.057836656 0.058307417 -0.034922253 0.022270609 0.065733425 0.09105207
0.055980265 -0.052812915 -0.054814916 0.016271718 0.006301522 -0.002721136 0.058172926 -0.06793895
0.015063114 0.06675037 0.08121922 0.089194015 0.039777376 0.058678787 -0.093047984 0.07493649
0.09728827 0.049858898 -0.043162934 0.07596981 -0.0833155 0.085591085 -0.104460664 0.080397
0.032013156 -0.069500096 -0.019624248 -0.040220894 -0.016851706 -0.08633288 -0.06363353 0.0005989467
0.08054933 -0.02842996 -0.031425446 0.0027040816 -0.012030453 -0.08691286 0.06296474 -0.00025686735
-0.120780624 -0.010883834 0.06532078 0.023136288 -0.046741232 -0.0020163835 0.07504342 0.093005784
0.084057644 0.08988905 0.0019606536 -0.0021672987 -0.13541017 -0.022991458 0.088950865 0.00243585
-0.10082664 -0.026869938 -0.06683512 0.12525594 -0.03611068 0.07717748 0.06289306 -0.071701
0.03727069 0.044372857 -0.038975928 -0.020349829 0.04362664 0.057271946 0.13472106 -0.018185135
0.07039592 -0.0149041265 0.09275063 0.067758076 0.07170895 0.057615872 -0.016523723 -0.021804046
-0.09676917 -0.068744406 -0.019598018 -0.031035395 -0.025537305 -0.03491777 0.018243657 0.101999894

bn2.weight f4 [200]
00000000: 3566 563f cc96 0c3f f904 6e3f 84eb 1a3f
00000010: 4f36 7f3f cc78 563f 3bd2 6b3f bdc3 5f3f
00000020: 8d5d 583f 6641 793f 6893 563f 7a00 543f
00000030: 86ad 583f 26f9 273f 084b 4e3f e0d9 5e3f
00000040: fe6d 5d3f ecf3 4f3f 6f1a 583f c4ea 2c3f
00000050: f387 493f 85b4 2c3f 7e44 783f 809a 4c3f
00000060: fab9 a03f 8b06 403f 939c 443f 9c10 453f
00000070: 73be 443f a18c 413f f283 4c3f 9344 8b3f
00000080: dd64 743f 1a4b 173f 297a 7d3f 3670 8d3f
00000090: 0b46 693f e3a9 643f 1df3 2a3f ca9b 3d3f
000000a0: f939 4f3f 0b2c 473f c295 353f 307b 3b3f
000000b0: 7295 6e3f 1ba5 303f 8c4b 3f3f 8262 263f
000000c0: 8585 493f eac6 523f ffb3 283f d502 833f
000000d0: 124d 723f 731f 3f3f fb4a 603f 2286 373f
000000e0: 7df6 1c3f 7425 333f dbe3 403f 91f6 7c3f
000000f0: 8194 4e3f d89d 703f 9a6d 653f 7368 823f
00000100: d0c3 543f 2117 813f 0f0c 593f 5728 8c3f
00000110: 2b9c 6d3f bca2 563f 5a62 5e3f e1de 3d3f
00000120: 4ea8 453f ef9c b63f 6562 5d3f 1774 523f
00000130: fb0c 583f 29bf 473f a104 7e3f fdf3 553f
00000140: 8aa5 733f 2342 223f 805a 583f 53ad 473f
00000150: 878e 503f 0bc2 3d3f 786e 2e3f 48b5 4e3f
00000160: b43a 483f 1c8a 443f 0c1d a53f 3e30 863f
00000170: 619e 7f3f 4a90 383f 5dd7 053f 44e1 c53f
00000180: e629 6f3f 5320 783f 1d4f 3b3f 4df6 4f3f
00000190: ddf8 583f 8078 733f dbde 483f 2c22 633f
000001a0: c00c 863f c432 543f 8aab 373f 38c6 373f
000001b0: 747d 7e3f 439a 323f c4c6 743f 6cff 553f
000001c0: 716d 613f f593 033f 5097 6f3f 79c9 533f
000001d0: d6c5 663f afbb 633f efcf 4c3f a97d 393f
000001e0: ca39 1c3f 16df 4c3f 5ab0 5a3f 4e58 923f
000001f0: 9bda 163f 40b1 913f 46b2 4d3f 0d6a 3a3f
00000200: a178 363f 5eca 483f 2da0 453f a5ea 8a3f
00000210: 0498 853f f144 753f c204 7b3f 3657 5e3f
00000220: b2b5 6c3f e378 393f 197c 303f bf35 2a3f
00000230: 93b7 863f 2679 633f 1124 363f 4d1e 7d3f
00000240: 2a25 553f 046f 523f 815b 383f 154b 423f
00000250: 2ce0 5f3f 39ba 8d3f d504 673f c710 8c3f
00000260: 0cd5 633f 8ea1 9e3f d487 6f3f eaf7 683f
00000270: 5690 263f dfa0 623f 63e5 783f 11bd 6d3f
00000280: aaea 673f f814 633f ba84 343f 6a2a 943f
00000290: 5dcf 623f df7a 793f 769c 4a3f 51e3 3d3f
000002a0: f7f2 2a3f 92ad 583f 8a89 313f 5e80 273f
000002b0: e775 543f ce1a 2f3f 9a51 8f3f 0863 263f
000002c0: d96d 673f ad28 3e3f 4773 1d3f 9172 5e3f
000002d0: 694b 723f 99ba 653f 762f 853f 1138 653f
000002e0: c8f5 2e3f 57a9 933f 19d6 403f 008d 483f
000002f0: 1efc 663f 05c9 6d3f 892b 6c3f a897 623f
00000300: ebb7 3a3f d912 543f bd3c 903f 0948 233f
00000310: 3055 4b3f 6468 303f 45b9 5e3f 33d6 843f
0.83749706 0.549176 0.9297634 0.6051562 0.99692243 0.8377807 0.9211766 0.8740805
0.8451775 0.97365415 0.83818674 0.8281323 0.84639776 0.65614545 0.8058324 0.870512
0.8649596 0.8123157 0.84415334 0.67545724 0.7872307 0.6746295 0.9697951 0.7992325
1.2556756 0.75009984 0.76801413 0.7697847 0.768531 0.7560521 0.7988883 1.0880302
0.95466405 0.5909897 0.99014527 1.1049869 0.911225 0.89321727 0.6677721 0.7406584
0.80947834 0.7780158 0.7093164 0.73234844 0.93196785 0.6900193 0.7472465 0.6499406
0.7871936 0.8233477 0.6589965 1.0235239 0.9464885 0.7465736 0.8761441 0.71689045
0.6131361 0.69979024 0.7534768 0.9881373 0.8069535 0.9399085 0.89620364 1.0188125
0.83111286 1.0085183 0.84784025 1.0949811 0.9281642 0.8384206 0.8686882 0.7416821
0.7720994 1.4266642 0.86478263 0.8220839 0.84394807 0.7802606 0.99225813 0.8357542
0.9517447 0.63382167 0.8451309 0.77998847 0.8146748 0.7412421 0.6813731 0.80745363
0.78214574 0.7677324 1.2899489 1.0483472 0.9985104 0.7209517 0.52281743 1.5459371
0.93423307 0.9692432 0.7316759 0.812352 0.84754735 0.95105743 0.7846505 0.8872402
1.0472641 0.8288996 0.7174612 0.7178683 0.99410176 0.69766635 0.9561579 0.8359287
0.8805762 0.5139764 0.9359026 0.827293 0.90145624 0.8895826 0.8000478 0.7245737
0.6102568 0.800279 0.8542534 1.1433198 0.58927315 1.1382217 0.8035015 0.7281807
0.71277815 0.7843379 0.77197534 1.0852858 1.0437016 0.9580832 0.98054135 0.86851823
0.92464745 0.72450083 0.6893936 0.6648826 1.0524772 0.8885673 0.7114878 0.9887436
0.8325983 0.82200646 0.72014624 0.75895816 0.87451434 1.1072456 0.9024175 1.094262
0.8899696 1.2393053 0.9356663 0.91003287 0.6506399 0.8852672 0.97225016 0.9286662
0.90592444 0.8870387 0.70515025 1.1575444 0.8859766 0.9745311 0.7914499 0.7417498
0.66776985 0.8463985 0.6935049 0.6543025 0.82992405 0.68400276 1.1196778 0.6499486
0.9040199 0.74280816 0.61504024 0.86893564 0.94646317 0.8973785 1.0405109 0.89538676
0.6834378 1.1536053 0.7532669 0.7834015 0.9022845 0.92884856 0.9225393 0.8851266
0.72936887 0.8284126 1.1268536 0.6378179 0.7942686 0.6890929 0.8700145 1.0377868

bn2.bias f4 [200]
00000000: e278 e1bd a96a 913d e716 3ebe e8b3 763d
00000010: a82a 8dbf b999 fcbd 7b62 5fbe eceb b4bd
00000020: cb12 91bf 92dd 9cbe cd34 a2bd d189 583e
00000030: 889b 7d3e 67ce 253c 8bbe 203f 34f0 433e
00000040: 56df ef3d e620 a33e e9b1 8e3b f677 3e3e
00000050: 2801 733e 1aaa 513f 52c2 3c3d be77 a83d
00000060: d7e9 2c3e 6fe5 b43e 3a15 c5be c909 3a3b
00000070: 379c 623e cedc a23d 0bcc 393d 43fc 45bf
00000080: 55fe d83c 0771 213f b53e 0abf ab1f 03be
00000090: 0c1f 113f fc8b 26bc 521a 39bc 40d9 f2bc
000000a0: be65 90bf cc60 dcbd 27b3 76be 371b 21bd
000000b0: a923 3e3e e66d 56bd e60c 9a3d e676 023e
000000c0: a7b6 f3bc c846 a0bd 35f7 ef3d 8fd0 73bf
000000d0: d369 82bf ce26 bc3c c4e7 7bbf c618 54bd
000000e0: f935 3dbd a04e e8bd f6be 653d 0139 50bf
000000f0: 6576 bfbd 5f8a 70bd 6f61 693e 94f6 cdbd
00000100: 219e 103e 0c56 38bf 269a bc3e 91bd 16bf
00000110: 800e 253e 791a a23d 1b38 18bd 56aa 9d3d
00000120: 78e4 15bc 6ff0 8abe cb4b 8abe 59f6 09be
00000130: 9ddf 5a3e 34a0 20be 9ebc 12be 28d5 9b3e
00000140: dfe8 5dbf 5920 70bd 6025 983d dd0f 243e
00000150: aba1 5b3e 74c3 243e d7f2 293e 7f96 8ebe
00000160: 6fee 75be a2b5 ba3e f3db 59be ca82 bebd
00000170: a304 2a3e dee0 e4bc 59f4 883e 68b1 85be
00000180: ea75 7fbf a059 6fbf 4a59 753e 64d1 273f
00000190: 3f04 c23d 239b 1ebe d458 63be 3c58 373f
000001a0: 50d1 18bf 0c10 3dbe 0022 cb3e 1202 b83d
000001b0: bf23 59be f463 463f 1a6b 303e 7592 b9ba
000001c0: 3889 2b3f 469f 703e c80d edbe f8ad 4d3d
000001d0: c505 95bc e946 fabc 7b96 24bd eb65 f33d
000001e0: a3cd 883f a3a7 d43e 2c04 523e c03f 08bc
000001f0: 88e9 e23e 51c7 a3bf 2d1e afbd 31e1 87be
00000200: 2d5a 22be 4ce0 603e 4e15 853e 9da1 3fbf
00000210: 9a24 26bd 52b1 afbe 1bed 48be 57e4 7dbf
00000220: 4c33 583e a2e1 64be 46a1 b93d 9862 88bd
00000230: 4156 8bbe 08a2 cb3e bd2b de3d f804 6d3e
00000240: 2319 2e3e c4f7 2a3f ac0e 74bd ee9b 09be
00000250: f914 fa3e af9a 2fbf 6238 6e3e 8c55 c9bd
00000260: 721f 2e3e 9a58 1fbe 4dd6 8dbd e14a 67bf
00000270: 894a 23bd e39a 12be 97b4 55bf 1bcb 0e3e
00000280: fe71 743e 634e 3dbe 610c 603e b604 f6be
00000290: 48fb 8fbf 7bad 39be 2b33 eebd 89d7 73bd
000002a0: d135 243f 00cf 87bd 2771 f63d fa93 b33e
000002b0: fd52 53be 0004 30be 48a1 1d3e 6d0c 9bbd
000002c0: 9148 4ebf 3c2b 963e 2cb4 033e 8572 aebe
000002d0: e49b 92bd 5988 a5be 0383 263f 970e 69be
000002e0: c95f 313e 2bdc 3fbe 1436 25bc b593 9e3d
000002f0: 2d07 86be c6f3 313e a45e fb3d 4d32 743d
00000300: 0b8c 843d fab6 003f c158 04bf 47c2 9bbe
00000310: e976 3c3d 6669 833d 196d 1b3e db92 fc3d
-0.11009385 0.07100422 -0.18563424 0.060230166 -1.1028643 -0.12334008 -0.21814911 -0.08834061
-1.133386 -0.30637795 -0.07920227 0.21146323 0.24766362 0.010120011 0.62790745 0.19134599
0.1171252 0.31861037 0.0043547046 0.18600449 0.2373091 0.8190018 0.046083756 0.08225964
0.16886078 0.35331294 -0.38492757 0.002838718 0.22129904 0.079522714 0.045360606 -0.77338046
0.026488462 0.6306309 -0.54001933 -0.12805049 0.56688 -0.010165211 -0.011297779 -0.029644608
-1.1281049 -0.1076065 -0.24091779 -0.039332595 0.18568291 -0.0523509 0.075219914 0.12740669
-0.029750181 -0.078260005 0.11717073 -0.9524011 -1.0188545 0.022967722 -0.9840052 -0.05178144
-0.04619405 -0.113431215 0.056090318 -0.8133698 -0.09348754 -0.05872571 0.22791074 -0.10056797
0.14122821 -0.720063 0.36836356 -0.58883005 0.16118813 0.079152055 -0.03716288 0.076985046
-0.0091487095 -0.2713656 -0.2701095 -0.1347288 0.21374364 -0.15686113 -0.14329764 0.30436063
-0.8668346 -0.0586246 0.07429004 0.16021676 0.2144839 0.16090184 0.16596542 -0.27849194
-0.24016736 0.364667 -0.2127531 -0.0930229 0.16603331 -0.027939256 0.26748922 -0.26111913
-0.997893 -0.9349613 0.23959842 0.6555388 0.09473466 -0.15488867 -0.22201854 0.7161901
-0.59694386 -0.18463153 0.39674377 0.0898477 -0.21205042 0.77496266 0.17228356 -0.0014158027
0.67006254 0.23498258 -0.46299577 0.050214738 -0.018191228 -0.03055139 -0.04018257 0.11884674
1.0687755 0.41534147 0.20509404 -0.00831598 0.44318795 -1.2795202 -0.085506774 -0.26538995
-0.15854712 0.21960562 0.25992817 -0.7485598 -0.04056225 -0.34314972 -0.19621699 -0.99176544
0.21113318 -0.22351697 0.090639636 -0.0665943 -0.27214244 0.39772058 0.10848186 0.23146427
0.17001776 0.6678431 -0.059584305 -0.13438389 0.48844126 -0.68595403 0.23263696 -0.0983077
0.17004183 -0.15561143 -0.0692564 -0.9034863 -0.039866004 -0.14316897 -0.83478683 0.13944666
0.2387161 -0.18486933 0.21879722 -0.4805047 -1.124856 -0.18132584 -0.11630853 -0.059531722
0.6414462 -0.06631279 0.12033301 0.35073835 -0.20637126 -0.17189026 0.15393555 -0.075707294
-0.8057948 0.2932986 0.12861699 -0.34071746 -0.0715864 -0.32330588 0.6504366 -0.22759472
0.17321695 -0.18736331 -0.010083694 0.07743017 -0.2617735 0.17378148 0.12273911 0.059618283
0.064720236 0.502792 -0.5169793 -0.3042166 0.04601184 0.064165875 0.15178336 0.12332698

bn2.running_mean f4 [200]
00000000: 3672 823e 48f7 01be ffdd b23e 6b35 40bf
00000010: b0c0 663f 9c13 99bf 142f 4f3f 12ea 83bf
00000020: 10c7 9b3f c29c 95be 59db 25bf 219f 913d
00000030: 099b 04bf b5ad 1c3f ea97 9abf d55d 93bf
00000040: b5a0 62bf 9614 25bf ce34 68bf d311 f2be
00000050: 9ea1 b8be 9f72 a1bf 48c4 103f b382 8bbf
00000060: 0208 373f 9da4 babf 7394 62be 1cf1 dcbe
00000070: 8503 89be 3c24 a1bf 621d 67be c86d 4ebe
00000080: 614d 473f ef14 3cbf 0e62 763f 0b60 ac3f
00000090: e520 04bf 05ec 3b3f 6b57 48bf 6845 2a3e
000000a0: c0f4 dc3f 8edc 5f3e d677 8e3e c35a 62bf
000000b0: a940 26bf 9b6c 92be cf23 b5bf abbb 213f
000000c0: d86b 1b3f c2fb 4d3f b896 24bf cb9f ce3f
000000d0: 463f 923f cdec d0be 7ad5 a33f d6b0 67bf
000000e0: a248 7b3f 13a4 893f a748 f3bd 60f1 b43e
000000f0: f079 80be a2b2 77bf e9ee 62bf 8bb5 8d3e
00000100: ade4 81be 412a 013d 2e27 96bf 7aa0 8f3f
00000110: ec04 c3be 0de2 0dbf eeee 623f 983a debf
00000120: d5f1 18bf d2f6 d3bf bd72 9d3d 7956 823f
00000130: a3be 01c0 9494 763f ec1f cb3e 5e6c fb3e
00000140: 9973 273f 7600 203e 8a35 d53f 8da3 a3be
00000150: 575d 11bf bb2e fdbe 2980 0abf 6aba 553f
00000160: 5ad6 90bd 694a 7abf 0f60 22bf d5ce 6abf
00000170: e891 88bf c6e5 833d aee2 ebbc 6536 c4bf
00000180: 1197 943f b486 623f ded0 97bf 792e c7bf
00000190: 4fae 9c3e 1a9e a4be cce5 b0be 6050 a2be
000001a0: fece 393f fe83 b93f a5d3 cbbf 896b 71bd
000001b0: cd56 da3e 1259 8bbf 3427 8e3e 1d7d e2be
000001c0: 8bd1 d6be 0737 eabf f23b 203b b0f7 9dbf
000001d0: eb4c 4fbf b9d0 08bf 250d 97bf 79fc 403f
000001e0: 4778 a4bf 81e7 993d a3d4 dbbe aa29 7bbf
000001f0: dbbb f7bb c538 a33f 71ec 423f 51f1 1dbe
00000200: d5b0 dc3f 4d55 abbf 677c 65bf b264 a53e
00000210: 9f37 acbe fd70 853e 8ef8 0f3f 9455 753f
00000220: 22d1 ce3e cd3b 81bf 19d7 6ebf f86e 96bc
00000230: dc7c de3f 5ac4 3ebe 68f9 6abf 98f6 87bd
00000240: 66c5 46bf 5eb4 9ebf bce7 833f 73db f9bd
00000250: 4a96 24bf 03cc ce3e 77d8 893f e337 da3f
00000260: c769 5abf c196 873c 1948 953f 2492 433f
00000270: 5e3b c23f 87f4 893e cc59 b73f ff2d 183e
00000280: ba75 183f 3c6d a13f dd47 06bf 69fa 1bbf
00000290: 1a29 b93f cf6d 673e 2661 a83d 4811 cfbe
000002a0: fd92 8bbf 3a26 923f 7ca5 333d faf4 8bbe
000002b0: d48e 18bd faed d73f 5f9a d5bf b300 15be
000002c0: 731b f23f 5d81 38bf bf75 49be 3e2f ab3f
000002d0: 4197 bfbf a65a 023f ccf2 67bf 1431 6ebc
000002e0: a4e4 393e 6f9f 0bbf cc95 403f 3ed0 39bf
000002f0: 9d6b 0a3f 588c 33bf 3ae8 7f3e fc79 0abf
00000300: 046c 2f3e e575 37bf ac0c 1dbf 8173 30bf
00000310: eb0f 1f3f d018 babf e22c 22bf ba41 dfbd
0.2547776 -0.12691987 0.34934995 -0.7508151 0.9013777 -1.1959109 0.8093121 -1.0305808
1.2170124 -0.2922116 -0.6478782 0.071104296 -0.51799065 0.61202556 -1.207761 -1.151301
-0.8852647 -0.64484537 -0.90705574 -0.47279224 -0.36060804 -1.2613105 0.565495 -1.0899261
0.71496594 -1.4581486 -0.22126941 -0.43152702 -0.26760498 -1.2589183 -0.22569802 -0.20159066
0.77852446 -0.7346944 0.9624337 1.346681 -0.51612693 0.7340701 -0.7825839 0.16628039
1.7262192 0.21861479 0.27825803 -0.8841974 -0.64942414 -0.28598484 -1.4151553 0.63176984
0.6071143 0.80462277 -0.6429248 1.6142515 1.142556 -0.40805665 1.2799523 -0.90504205
0.98157704 1.0753196 -0.11879092 0.35340405 -0.2509303 -0.9675695 -0.886458 0.2767757
-0.25369778 0.031534437 -1.1730707 1.1220849 -0.38089693 -0.5542305 0.8864583 -1.7361631
-0.59744006 -1.6559699 0.076879 1.0182639 -2.0272605 0.9632046 0.39672792 0.49106115
0.65410763 0.15625176 1.6656964 -0.31960717 -0.5678305 -0.49449715 -0.54101807 0.8348757
-0.07072134 -0.9776979 -0.63427824 -0.9172185 -1.0669527 0.0644031 -0.028794613 -1.53291
1.1608602 0.8848679 -1.1860616 -1.5561057 0.30601737 -0.32151872 -0.3455032 -0.31701946
0.7258147 1.4493406 -1.5923964 -0.058940444 0.4264435 -1.0886557 0.27764285 -0.4423608
-0.41956744 -1.8298043 0.0024449793 -1.2341213 -0.8097674 -0.53443485 -1.1800886 0.7538524
-1.2849206 0.07514859 -0.42935666 -0.9811045 -0.007560236 1.27517 0.7614203 -0.15424086
1.7241465 -1.3385407 -0.8964295 0.32303387 -0.33636186 0.26062766 0.5623864 0.95833707
0.4039393 -1.0096375 -0.9329696 -0.01836346 1.7381854 -0.1862959 -0.91786814 -0.06638831
-0.77644956 -1.2398794 1.0305095 -0.1220006 -0.6429182 0.40390024 1.0769185 1.7048305
-0.85317653 0.016551377 1.1662627 0.7639487 1.5174367 0.26944372 1.4324279 0.14861296
0.59554636 1.2611461 -0.52453405 -0.6092897 1.4465668 0.22600482 0.082216546 -0.40442872
-1.0904232 1.1417916 0.04385899 -0.2733534 -0.037245587 1.68695 -1.6687735 -0.14551048
1.8914627 -0.7207239 -0.19673823 1.3373792 -1.4968034 0.5091957 -0.90604854 -0.014538068
0.18153626 -0.5454015 0.7522857 -0.7258338 0.54070455 -0.7013602 0.24990931 -0.54092383
0.17131048 -0.7166427 -0.6134746 -0.68926245 0.62133664 -1.4538822 -0.63349736 -0.10901208

bn2.running_var f4 [200]
00000000: 70f5 f43e 02a4 6a3e 4e18 d53e f03f 8b3e
00000010: dfcb 9d3e ec69 f03e 5d8d b83e 18a7 a73e
00000020: 12a4 b33e 3808 5f3f 00b7 483e 96b2 eb3e
00000030: 3867 c33e 41ea a23e 5859 6f3e 0128 e63e
00000040: a57c 263f 1dce 6b3e 02ef 863e 95d3 8c3e
00000050: 3b93 bf3e a3ec 013f 990a 313f e3f2 b23e
00000060: 55d5 c03e 4b09 d53e 594b 653e 603e c53e
00000070: 5fad 843e b884 a93e f8bc d63e fb32 1b3f
00000080: 26a5 9e3e 8821 d63e 1ab8 e33e 0dff 493f
00000090: 79c1 aa3e 13ac 253f 4f6f a13e 116b 8e3e
000000a0: 81c6 763e 53b0 053f b655 8d3e cad7 b63e
000000b0: 2d3e 8a3e ad37 753e 0975 d33e 2f4c 393e
000000c0: c8ee cb3e 2563 123f db26 6f3e cef4 503e
000000d0: 48d0 223f a57c 2b3f 9606 6e3e f4f8 423e
000000e0: 31f5 0c3e c1e6 b23e e73e a43e cf3e 1f3f
000000f0: 683e bd3e d6f9 d13e 3d86 103f 3b76 843f
00000100: 7304 253e 79d6 f13e 2bad 1c3f 2726 dd3e
00000110: 5212 5d3f 4995 e93e d3fb 233f 2ee4 0c3f
00000120: 9151 ef3e 7dd4 843e f58d 673f 3031 d23e
00000130: 981d 133f a50c 6b3e b667 f53e 4b90 9e3e
00000140: d5b7 f63e 268a c23e 9ef2 753e a7ff c33e
00000150: 97e2 243f b06e c43e 540b d73e d45e fa3e
00000160: 5b03 bc3e ef6e f23e cbbf 0c3f cf0f 843f
00000170: ad42 813f 7476 c33e 82ce 3f3e 3e34 783e
00000180: 4a6c bd3e d31e 0c3f bb07 0e3e 3a6b 4d3e
00000190: a380 203f da72 3d3f 30f2 083f cc6f 9f3e
000001a0: 741f 923f 989d ec3e 4f2a 713e 2ef5 803e
000001b0: 9644 893f da3e bd3e 9033 fa3e cf9a ef3e
000001c0: 6385 4f3f 6736 0a3e 24ed ef3e 031a ef3e
000001d0: ef52 373f d9d8 bd3e 17b9 823e bce4 063f
000001e0: 7ae6 a03e 4a53 f83e 8c49 b03e 8511 b13e
000001f0: 9af1 813e 0d13 943e 39ac 243f fcaf 363e
00000200: 9668 3f3e f627 8f3e bb1d ad3e e043 1b3f
00000210: d033 103f 623c 303f b355 fe3e 787f 853e
00000220: 3e1b 2e3f 410c 9d3e 882d f73e bada b63e
00000230: e609 a03e e3e2 313e f28f 993e bf2e 443f
00000240: 9867 ad3e c836 d83e a25e 003f ce93 bd3e
00000250: 0c9d 453f 44ac 293f f0c1 063f a2c3 143f
00000260: 88bd a83e b812 403f bff6 ab3e af9f 903e
00000270: ede2 113e 959e b43f c676 b73e 3e11 123f
00000280: dcb9 f73e 4135 863e 3623 aa3e 7f68 de3e
00000290: 32d0 163e 7019 8e3f 3e92 f63e 7a32 4a3e
000002a0: 1a8f 003f 50f7 fe3e 443e 8a3e d0f4 da3e
000002b0: 0b92 223e 7850 0d3e d595 8b3f 594f 4c3e
000002c0: e72d be3e 70fc a33e d52f 573e 7c62 1c3f
000002d0: 5db8 9d3e 50d9 1b3f 8f77 023f 4e1f e03e
000002e0: 30f4 8c3e fade 9c3e b2df d93e 4ba0 8a3e
000002f0: 2c63 cb3e dc97 b63e 10cf 143f 7dbc 9e3e
00000300: 5b2a 823e 4376 f83e 235e 083f d8c6 793e
00000310: aaf3 d93e bb48 913e c202 213f c695 7e3f
0.47843504 0.22914127 0.41620106 0.27197218 0.30819604 0.46955812 0.36045352 0.3274467
0.35086113 0.87121916 0.19601059 0.46034688 0.38164687 0.31819347 0.23373926 0.44952396
0.6503394 0.23027845 0.26354223 0.27505174 0.37417015 0.50751704 0.69156796 0.34950933
0.3766276 0.41608652 0.22392024 0.3852415 0.25913522 0.3310907 0.41941047 0.60624665
0.30985373 0.41822457 0.44476396 0.789048 0.33350733 0.6471569 0.31530234 0.2781606
0.2409916 0.52222174 0.27604455 0.3571151 0.2700056 0.2394702 0.41300228 0.18095468
0.39830613 0.5718253 0.23354666 0.20405886 0.6359906 0.6698707 0.232447 0.1904028
0.13765408 0.34941676 0.3207924 0.62205213 0.36961675 0.41010922 0.5645483 1.0348581
0.16114978 0.47233942 0.61201733 0.4319317 0.8635608 0.45621708 0.6405613 0.55035675
0.46741918 0.25943366 0.90450984 0.41053152 0.5746703 0.22954042 0.47930688 0.30969462
0.48187128 0.37996024 0.24018332 0.38280985 0.6440825 0.38365698 0.4200083 0.48900473
0.3672131 0.4735026 0.5498015 1.0317324 1.0098473 0.3817631 0.1873112 0.24238679
0.3699668 0.54734534 0.13870136 0.20060435 0.62696284 0.74003375 0.5349455 0.31139982
1.1415849 0.46213984 0.23551296 0.25187057 1.0724056 0.36962014 0.48867464 0.46797797
0.81062907 0.13497315 0.4686061 0.46699533 0.7161092 0.37079504 0.25531837 0.5269277
0.3142584 0.48501045 0.34431112 0.3458368 0.2537964 0.28920785 0.6432529 0.1784057
0.1869224 0.27960175 0.33811745 0.60650444 0.5632906 0.68842137 0.49674758 0.26073813
0.6801032 0.3067341 0.48276925 0.3571375 0.31257552 0.17371707 0.29992634 0.7663383
0.33868098 0.42229295 0.501444 0.3702683 0.7719276 0.6627848 0.52639675 0.5811101
0.329571 0.7502856 0.3358669 0.2824683 0.14246722 1.4110895 0.35832804 0.5705756
0.48383987 0.26212505 0.3322999 0.434391 0.14727858 1.1101513 0.4815845 0.19745818
0.50218356 0.4979806 0.2700063 0.42764902 0.15876023 0.13800228 1.09051 0.19952144
0.37144396 0.32028532 0.2101434 0.61087775 0.3080472 0.6087847 0.5096368 0.43773884
0.2753005 0.30638868 0.42553478 0.2707542 0.397241 0.35662735 0.5812845 0.3100318
0.2542294 0.48527727 0.5326864 0.24392259 0.42568713 0.283758 0.62894833 0.99447286
