pytorch_models/TD3_walker_stand_099_actor.pth (torch, 521670 bytes, 6 tensors)

layer_1.weight f4 [400, 18]
0	0xbea1326a	-0.31483775
1	0x3db0affd	0.08627317
2	0xbebd7ae6	-0.37007827
3	0xbda7ac79	-0.081871934
4	0xbd667bd7	-0.056270447
5	0x3ce1e5e4	0.02757544
6	0x3e01f814	0.1269229
7	0x3ea59ef4	0.32347834
8	0x3daf6da3	0.085658334
9	0xbd2e1d3c	-0.04250835
10	0xbd24ff6c	-0.04028265
11	0xbd54f1da	-0.05198846
12	0xbe673686	-0.22579393
13	0xbe01814f	-0.12646984
14	0xbd9893cc	-0.07450065
15	0x3bc836cb	0.0061100475
16	0x3dd03fff	0.10168456
17	0x3e0f2fa0	0.13983011
18	0xbeaa5e1a	-0.3327492
19	0xbde1ef88	-0.11032015
20	0x3de2df73	0.11077776
21	0x3ee5c242	0.4487477
22	0xbdc7c05f	-0.09753489
23	0x3e9fefb0	0.31237555
24	0xbd7874f5	-0.060658414
25	0x3daa9dcb	0.08330878
26	0x3e5a98cd	0.21347351
27	0xbe4a1613	-0.19734983
28	0xbe57899a	-0.21048585
29	0xbde77696	-0.11301915
30	0xbdef6d0f	-0.11690723
31	0x3e5a05e2	0.21291307
32	0xbda02182	-0.07818891
33	0xbe273d79	-0.16332044
34	0xbde255f5	-0.11051551
35	0xbe6054d7	-0.21907364
36	0xbe276335	-0.16346438
37	0x3e5f570e	0.21810552
38	0x3e39aed8	0.18133104
39	0xbd155cb4	-0.03646536
40	0xbd08d2a5	-0.03340401
41	0xbde30be9	-0.11086256
42	0xbe01ff2e	-0.12695
43	0xbead4568	-0.33842015
44	0xbef1be3e	-0.47215456
45	0xbedb0099	-0.42773893
46	0x3e871b32	0.26387936
47	0x3e272a02	0.16324618
48	0xbdf2ec8b	-0.11861523
49	0x3bff8b6f	0.007798604
50	0x3d4cefbf	0.050033327
51	0x3e80da44	0.25166523
52	0x3dbbae0c	0.09164056
53	0x3db3eb15	0.08785073
54	0x3e22d09d	0.15899892
55	0xbec53179	-0.38514307
56	0x3db239bb	0.087024175
57	0xbed942c4	-0.4243375
58	0xbea5e825	-0.32403675
59	0xbe31728d	-0.17328854
60	0x3e84e568	0.25956273
61	0x3dca6779	0.09883017
62	0xbc9b6dfc	-0.018973343
63	0x3e7ec4c5	0.24879749
64	0x3e520ad3	0.20511942
65	0xbd5d6a9a	-0.05405674
66	0xbc6dde90	-0.014518395
67	0x3da46810	0.08027661
68	0x3df2520f	0.11832058
69	0x3e3cf7f0	0.18453956
70	0xbe438607	-0.19094096
71	0xbd969deb	-0.07354339
72	0x3e1e85d6	0.15480742
73	0x3ea31fdc	0.31860244
74	0x3e05868f	0.13039611
75	0x3e7a6d64	0.24455792
76	0x3db07d19	0.086176105
77	0xbd8f1527	-0.06986456
78	0xbce89af1	-0.028394194
79	0xbebf7120	-0.37390995
80	0xbe9a7935	-0.301706
81	0x3e7b90f0	0.24567008
82	0x3e14b1af	0.14520906
83	0xbe9e6e39	-0.30943468
84	0x3d5870d4	0.052841976
85	0xbdb55867	-0.08854752
86	0xbd385161	-0.044999484
87	0xbe2693c1	-0.16267301
88	0x3e063641	0.13106634
89	0xbda953d0	-0.08267939
90	0xbd963fb6	-0.07336371
91	0x3d9450ed	0.07241998
92	0x3e4ee248	0.20203507
93	0x3ea77cfd	0.32712546
94	0xbec2e10c	-0.38062322
95	0xbdff8a39	-0.12477536
96	0x3d52f478	0.051502675
97	0x3ccb8bb4	0.02484689
98	0x3ce312e5	0.02771897
99	0xbe59145c	-0.21199173
100	0x3e89043a	0.26761037
101	0x3e2cc099	0.16870345
102	0xbde217cb	-0.110396944
103	0xbdd6db7b	-0.10491081
104	0xbe38ce9c	-0.18047565
105	0xbcc18585	-0.023623237
106	0xbe422375	-0.18958838
107	0xbe43211b	-0.19055597
108	0x3e810057	0.25195572
109	0xbcf4ee25	-0.029898712
110	0xbe91e565	-0.28495327
111	0x3e2ca381	0.16859247
112	0xbe4fd45d	-0.20295854
113	0x3ecc5931	0.39911798
114	0x3ddaa8e5	0.10676745
115	0xbe8edbeb	-0.2790216
116	0xbd8876fc	-0.066633195
117	0xbd14f7a7	-0.036368992
118	0x3de885a7	0.11353617
119	0x3d7fa545	0.062413473
120	0x3dcd682b	0.10029634
121	0xbb543bd4	-0.0032384293
122	0xbd6fc55d	-0.05853783
123	0x3e1199ff	0.14218901
124	0xbe5829db	-0.21109717
125	0xbe230075	-0.15918143
126	0xbe80a53f	-0.25126073
127	0xbe50b621	-0.20381977
128	0x3dc6538b	0.09683903
129	0xbe1189b1	-0.14212681
130	0xbe174bde	-0.14775035
131	0xbe620116	-0.22070727
132	0x3dc8a726	0.09797506
133	0xbe5fac81	-0.21843149
134	0x3e52957d	0.20564838
135	0xbe04081d	-0.1289372
136	0xbd10deaf	-0.035368618
137	0xbda4ae3f	-0.08041047
138	0x3c9548a9	0.018223124
139	0x3e159993	0.14609365
140	0x3e72de8b	0.23717706
141	0x3e17c76c	0.14822167
142	0x3e6ed34f	0.23322795
143	0xbc85578a	-0.016277093
144	0xbeb6c865	-0.35699764
145	0xbd172c70	-0.036907613
146	0x3e67ab3c	0.22623914
147	0xbd48ad49	-0.048993383
148	0xbea9774a	-0.33098823
149	0xbe533d6a	-0.20628896
150	0xbeddbd86	-0.43308657
151	0xbe50062d	-0.20314856
152	0x3dc22010	0.09478772
153	0xbd9bbcd4	-0.076043755
154	0xbcaa741e	-0.020807322
155	0xbe9802c5	-0.29689613
156	0x3e14eb39	0.14542855
157	0xbe6835e0	-0.22676802
158	0xbd3f6746	-0.04672935
159	0xbddea350	-0.10870993
160	0xbd7635f5	-0.06011005
161	0xbc82f86d	-0.0159876
162	0xbebdb3a9	-0.37051132
163	0x3d035be8	0.03207007
164	0xbd31fc58	-0.043453544
165	0xbbb32105	-0.0054665827
166	0xbe35be53	-0.17748384
167	0xbcef242b	-0.02919205
168	0xbe0b7b29	-0.136212
169	0xbe2f125c	-0.17096847
170	0x3ef59af3	0.4796978
171	0x3dade760	0.08491397
172	0x3e741907	0.23837672
173	0x3df6d8a0	0.12053037
174	0xbe5354e2	-0.20637849
175	0x3e07381b	0.13204996
176	0xbc044fcf	-0.0080756685
177	0xbd9e905d	-0.07742379
178	0x3e2aefd7	0.16693054
179	0xbe368070	-0.17822433
180	0x3ed135ca	0.4086135
181	0xbda7d9d6	-0.08195846
182	0x3e65c135	0.22436984
183	0xbbbfc456	-0.0058522625
184	0x3e6a8573	0.2290247
185	0x3e74c11a	0.23901787
186	0xbd072cda	-0.03300176
187	0x3d2ce478	0.042210072
188	0xbe8c0f5a	-0.27355462
189	0x3ec21411	0.37905934
190	0x3e69daef	0.22837423
191	0x3e2459ad	0.16049834
192	0xbe652ab2	-0.22379568
193	0x3c9e8b38	0.019353494
194	0xbe060d50	-0.13091016
195	0xbe44229d	-0.19153829
196	0xbdd12f19	-0.10214061
197	0x3da4b56c	0.08042416
198	0xbe8fd866	-0.28094786
199	0x3d230896	0.03980311
200	0x3db1cdf1	0.08681858
201	0x3d652c4f	0.05595046
202	0xbe88eefd	-0.26744834
203	0xbe860f3b	-0.26183495
204	0xbe8fa0d5	-0.28052393
205	0x3eaeffc4	0.3417951
206	0xbe0a1db6	-0.13487896
207	0x3ebea129	0.3723233
208	0xbba5c97e	-0.00505942
209	0x3d9272dc	0.07150814
210	0xbb57d8c1	-0.0032935592
211	0xbc313fe3	-0.010818454
212	0xbc177bfa	-0.009245867
213	0xbd3f4801	-0.046699528
214	0xbd2531a9	-0.040330563
215	0x3a59f6ed	0.0008314688
216	0xbe85cd66	-0.2613327
217	0xbc0757a2	-0.008260639
218	0x3ec50be4	0.38485634
219	0xbdff5164	-0.12466696
220	0xba80745e	-0.0009800305
221	0x3ead712a	0.338754
222	0x3e7df67f	0.24801062
223	0xbd28b08d	-0.041183997
224	0xbe1c7351	-0.15278365
225	0x3e7c6fc4	0.2465201
226	0xbe94a2fc	-0.29030597
227	0xbdbb94e1	-0.09159256
228	0xbdc6c71f	-0.09705948
229	0xbccaeb4d	-0.024770403
230	0xbb825703	-0.0039776578
231	0x3e7a44d7	0.24440323
232	0x3b35c3d2	0.0027735126
233	0x3e3777e6	0.17916831
234	0xbd5c90b6	-0.053848945
235	0xbe623689	-0.22091116
236	0x3e2a4add	0.1663012
237	0xbeb7bc0f	-0.35885665
238	0xbeae9712	-0.34099633
239	0xbd16acbc	-0.036785826
240	0x3e8801e5	0.26563945
241	0x3dfeb1e8	0.12436277
242	0x3e9c38a0	0.3051195
243	0xbd7cfe94	-0.061766222
244	0x3cdb699f	0.026783762
245	0xbe9ea502	-0.30985266
246	0x3dbcf2a4	0.092259675
247	0xbe5212bd	-0.2051496
248	0xbc1cc77b	-0.009569044
249	0xbdaa1b60	-0.083060026
250	0xbd43d418	-0.04780969
251	0xbb3c5eec	-0.0028743101
252	0x3eb5e3b7	0.35525295
253	0xbdfe534a	-0.1241823
254	0xbe87e253	-0.2653986
255	0xbd262ce1	-0.040570144

layer_1.bias f4 [400]
0	0x3e97d3a6	0.29653662
1	0x3da2ba9f	0.079457514
2	0x3d23a932	0.03995628
3	0x3dc6f032	0.09713782
4	0x3e059330	0.13044429
5	0x3d929c91	0.07158769
6	0x3d352432	0.04422397
7	0x3e39a90e	0.18130895
8	0xbd5bd12e	-0.053666286
9	0x3d018460	0.031620383
10	0xbe548b73	-0.2075632
11	0x3ea7ada6	0.3274967
12	0x3d9a04a9	0.0752042
13	0x3e95dddf	0.29270837
14	0xbe308401	-0.17237855
15	0xbcec6508	-0.02885677
16	0xbdfcd87c	-0.123459786
17	0x3d6561bd	0.056001414
18	0x3e71d4b8	0.23616302
19	0x3ee345eb	0.4438928
20	0xbd13d3b4	-0.036090568
21	0xbd870d89	-0.065943785
22	0x3ca4dac1	0.020123841
23	0xbe63788b	-0.22213952
24	0x3eacde88	0.33763528
25	0xbdce2527	-0.1006568
26	0x3e42b207	0.19013225
27	0xbd8a6b2d	-0.067587234
28	0x3ee5d1e6	0.44886702
29	0xbe4ab6b5	-0.1979626
30	0x3d45decf	0.04830819
31	0x3e5d37fe	0.2160339
32	0x3eacc395	0.33742967
33	0x3edf60b0	0.43628454
34	0x3ee411da	0.4454487
35	0xbe498162	-0.19678262
36	0x3de710aa	0.11282475
37	0xbe19b3b0	-0.15009952
38	0x3ec26347	0.37966368
39	0x3ea52486	0.32254428
40	0xbd5a7a7c	-0.053339466
41	0x3e879f09	0.26488522
42	0x3e987584	0.29777157
43	0x3e4edfa2	0.20202497
44	0x3e247cb1	0.16063191
45	0x3e19daa9	0.15024818
46	0x3d92f598	0.071757495
47	0x3e0f2dc4	0.13982302
48	0x3dccb12f	0.099947326
49	0xbdee7f2f	-0.11645352
50	0x3e47b739	0.19503488
51	0xbe810a4e	-0.25203174
52	0x3e894b64	0.2681533
53	0x3edaf35b	0.4276379
54	0x3e94d411	0.29068044
55	0x3ea752c0	0.3268032
56	0x3d04b9d9	0.0324038
57	0x3ec87d3a	0.3915804
58	0x3e314c7d	0.17314334
59	0xbe51248c	-0.20424098
60	0xbe16efe5	-0.1473995
61	0xbd10fe25	-0.03539862
62	0x3e3e8c62	0.1860824
63	0xbddb22bd	-0.10699985
64	0x3dd77e87	0.1052218
65	0x3e625f67	0.22106706
66	0x3f019ca3	0.50629634
67	0x3e652611	0.22377802
68	0x3dfa0514	0.12208
69	0x3c9f7080	0.019462824
70	0x3d82d725	0.06388692
71	0xbdbbd959	-0.09172315
72	0xbe3cca0b	-0.18436448
73	0xbe229808	-0.15878308
74	0xbc829466	-0.015939903
75	0x3e82ffd8	0.25585818
76	0xbdce6fe8	-0.10079938
77	0xbbae5bda	-0.005321008
78	0xbe23a12a	-0.15979448
79	0x3df2f084	0.11862281
80	0xbe41616e	-0.18884823
81	0xbe79c03f	-0.24389742
82	0x3e214c4b	0.1575176
83	0x3d3fec62	0.04685629
84	0x3d82e337	0.06390994
85	0xbce56b99	-0.028005408
86	0xbcef750d	-0.029230619
87	0x3df1923d	0.11795471
88	0xbe0ca916	-0.13736376
89	0xbc5b282c	-0.013376277
90	0xbde0ea4d	-0.10982189
91	0x3ed76657	0.42070267
92	0x3c32ec9f	0.010920673
93	0x3e886c17	0.26644966
94	0x3e85b314	0.26113188
95	0x3d898b19	0.06715984
96	0x3df768ab	0.12080511
97	0x3ceeb9da	0.029141355
98	0x3eba9534	0.36441958
99	0x3ee3dc71	0.4450412
100	0x3e1067dd	0.1410212
101	0x3eca9d21	0.39573005
102	0xbe2eac95	-0.17058022
103	0x3ed2f5da	0.41203195
104	0x3d9efbb2	0.07762851
105	0x3e538581	0.20656396
106	0xbda4fb24	-0.08055714
107	0x3e0023ab	0.12513606
108	0x3e78a13b	0.24280255
109	0xbe4cf234	-0.20014268
110	0x3e84ebf8	0.2596128
111	0x3da3a078	0.07989591
112	0x3ea787bd	0.32720748
113	0x3cc47824	0.023983069
114	0x3ded85c0	0.115977764
115	0x3e5e4e34	0.2170952
116	0xbe67be64	-0.22631222
117	0xbdac1782	-0.08402921
118	0xbbfa2e2e	-0.0076348996
119	0xbe85018c	-0.25977743
120	0xbe39d147	-0.18146239
121	0xbe489fcc	-0.19592208
122	0x3ddab748	0.106794894
123	0xbe2cbe9a	-0.16869584
124	0x3d985b9d	0.07439349
125	0xbdd4241b	-0.10358449
126	0xbd841a61	-0.06450344
127	0xbd3ca39c	-0.046054468
128	0x3d8f290d	0.06990252
129	0x3e01bcfc	0.12669748
130	0xbd09a23f	-0.033601996
131	0x3ee56c0b	0.44808993
132	0xbe0b6705	-0.13613518
133	0x3d35feaa	0.04443232
134	0xbda52b0c	-0.08064851
135	0x3edc33b3	0.43008193
136	0xbdb39a78	-0.08769697
137	0x3ea8ddcb	0.32981715
138	0x3da3d2dc	0.079992026
139	0x3ea37458	0.319247
140	0x3d5008f7	0.0507898
141	0xbe219adb	-0.15781729
142	0x3ce808f7	0.028324587
143	0x3e98a963	0.29816732
144	0x3ec2bc2a	0.38034183
145	0xbc58d168	-0.01323352
146	0x3cd7d77d	0.02634787
147	0xbd97f3b0	-0.074195266
148	0xbc4c851d	-0.012482909
149	0x3cfa6803	0.030567175
150	0x3e34acdc	0.17644066
151	0xbe295efd	-0.16540141
152	0x3da618bb	0.08110186
153	0xbcb84560	-0.022494018
154	0xbde4c7d4	-0.11170927
155	0x3d6ea249	0.058260236
156	0x3dc383f2	0.09546651
157	0xbe419bc6	-0.18907079
158	0xbe015d7a	-0.12633315
159	0x3d4232a6	0.047411583
160	0x3d1c3158	0.038132995
161	0xbca234b9	-0.01980053
162	0x3da4638c	0.080267996
163	0x3e2a398a	0.16623512
164	0xbe3bbb07	-0.18333064
165	0xbd208500	-0.03918934
166	0x3e878761	0.26470473
167	0x3d191e68	0.037382513
168	0x3d8e4326	0.06946401
169	0xbe6054c8	-0.21907341
170	0xbced80c0	-0.028992057
171	0xbceffb6b	-0.02929469
172	0xbe3e01fb	-0.18555443
173	0x3e4bac78	0.1989001
174	0x3d484e40	0.04890275
175	0xbe904db9	-0.28184298
176	0x3e86e5ff	0.26347348
177	0xbe20ea9e	-0.157145
178	0x3d577068	0.052597433
179	0xbd3e561b	-0.046468835
180	0x3e8e31a6	0.27772254
181	0xbe3efafc	-0.1865043
182	0x3ef247a1	0.47320274
183	0x3ea29d8f	0.31760833
184	0xbcd09784	-0.025462873
185	0xbe2ebdbe	-0.17064568
186	0x3c8038c0	0.01565206
187	0xbdf03268	-0.11728364
188	0x3e9341c1	0.28761104
189	0x3e49ab64	0.19694287
190	0x3eb4e5ae	0.35331482
191	0x3eaca525	0.33719745
192	0xbe17d67e	-0.14827916
193	0xbd2b5f5b	-0.041838985
194	0x3ea8ef5d	0.3299512
195	0x3e8f18d4	0.2794863
196	0x3ec01441	0.37515453
197	0xbdc862cd	-0.0978447
198	0x3e1a963f	0.15096377
199	0xbe2816b5	-0.16414912
200	0x3e725bf2	0.23667887
201	0xbe6fc6a1	-0.23415615
202	0x3eb00db8	0.34385467
203	0xbddffe18	-0.109371364
204	0x3e6a5191	0.22882678
205	0x3ea531f6	0.3226468
206	0xbe46e762	-0.19424203
207	0x3e808b62	0.2510634
208	0xbe63fbb7	-0.2226399
209	0x3e24b7f8	0.16085804
210	0x3ea3dcb0	0.3200431
211	0xbd56a1af	-0.052400287
212	0xbdce7925	-0.100817
213	0xbdc5a206	-0.09650044
214	0x3eafdead	0.34349576
215	0xbd1d4ffd	-0.03840636
216	0x3da90607	0.08253103
217	0x3ebae5ac	0.3650335
218	0x3d95b458	0.073097885
219	0xbdb38242	-0.08765079
220	0x3e441f74	0.19152623
221	0x3e14f920	0.14548159
222	0x3ee526e2	0.44756228
223	0x3ea35967	0.31904146
224	0x3d9d6af6	0.07686417
225	0xbd61324f	-0.05497962
226	0x3e00e96c	0.12589043
227	0xbd82ccd3	-0.06386723
228	0x3e7d046f	0.24708723
229	0x3e2e47a5	0.17019518
230	0x3ea8f506	0.32999438
231	0x3e5ef1b5	0.21771891
232	0xbd747e50	-0.059690773
233	0xbe98aae2	-0.29817873
234	0xbe5f5d87	-0.21813022
235	0x3ed6be94	0.41942275
236	0x3d402232	0.04690761
237	0xbe15ac85	-0.14616592
238	0x3ed19833	0.4093643
239	0xbeab9336	-0.3351075
240	0x3e99c97e	0.3003654
241	0x3ed3dfe0	0.4138174
242	0x3cd3627b	0.025803795
243	0x3e4f1982	0.20224574
244	0x3eb7a86f	0.35870692
245	0xbdc6a421	-0.09699274
246	0xbde38b7e	-0.111105904
247	0x3e19fb95	0.15037377
248	0x3db46fee	0.088104114
249	0xbdc8c5de	-0.09803365
250	0xbdf397f3	-0.118942164
251	0x3ef6f5e7	0.48234484
252	0x3dd6c949	0.10487611
253	0xbe36704d	-0.17816277
254	0x3e9031ac	0.28162897
255	0x3dcdc509	0.10047347

layer_2.weight f4 [300, 400]
0	0x3cc2c404	0.023775108
1	0x3bc65ab5	0.0060532936
2	0x3d2ab0f2	0.041672654
3	0xbcbd785b	-0.023128679
4	0x3d72d666	0.059286498
5	0x3c885210	0.016640693
6	0xbdbe9640	-0.09306002
7	0xbdbd8ab2	-0.0925497
8	0x3d475a7c	0.048670277
9	0x3c94bdd0	0.018156916
10	0x3d34f1d2	0.04417593
11	0xbbebd644	-0.0071971733
12	0x3c56afb1	0.0131034115
13	0xbaa54d69	-0.0012611571
14	0xbe1a0de0	-0.15044355
15	0xbd86ed85	-0.06588272
16	0xbddfa0a9	-0.10919315
17	0xbc879ba7	-0.016553713
18	0x3d976014	0.07391372
19	0xbdf0bbd4	-0.11754575
20	0xbd08b647	-0.03337696
21	0xbd0e7a37	-0.034784522
22	0xbe093d89	-0.1340238
23	0xbd69b5f5	-0.057058293
24	0xbd7642e4	-0.060122386
25	0x3d6e673f	0.058203932
26	0x3c4f31d0	0.012646154
27	0xbd597b53	-0.053096127
28	0xbd81679b	-0.06318589
29	0xbd8b6ba0	-0.06807637
30	0x3cc8f733	0.024531936
31	0xbc96f4f7	-0.018427355
32	0x3c5a1960	0.013311714
33	0xbd0d08b4	-0.034432128
34	0xbd970855	-0.07374636
35	0x3c8bca18	0.01706414
36	0x3ddbc3d5	0.10730711
37	0x3c837443	0.016046649
38	0xbd1d71bf	-0.038438555
39	0x3d5f7aa4	0.05456032
40	0xbddf146e	-0.108925685
41	0x3c353fc4	0.011062566
42	0xbc911592	-0.01771048
43	0x3cbbb1cc	0.022911929
44	0xbd5dbe97	-0.05413684
45	0xbd98bc5a	-0.074578
46	0x3e0dd4cb	0.13850705
47	0x3ccf1c8b	0.025282165
48	0xbdab6150	-0.0836817
49	0x3e391181	0.18073083
50	0x3d028e41	0.031873945
51	0xbda07e90	-0.0783664
52	0x3d24190c	0.04006295
53	0xbc7b1877	-0.015325657
54	0xbdc115ca	-0.09427984
55	0x3dba03f9	0.09082789
56	0xbc55af88	-0.013042338
57	0xbd262fde	-0.040572993
58	0x3cd7ed02	0.026358131
59	0xbd526683	-0.051367294
60	0x3d84047d	0.064461686
61	0x3b4a8d65	0.0030907032
62	0xbdab70f1	-0.08371151
63	0x3dc8fc89	0.09813792
64	0x3d4c7e27	0.049924996
65	0xbcef4b6c	-0.029210769
66	0xbdf7e7fb	-0.12104794
67	0x3c941a80	0.018079042
68	0xbd33c56e	-0.043889455
69	0xbd009306	-0.031390212
70	0x3d90f066	0.07077102
71	0xbc99b54e	-0.01876321
72	0xbdb1ef53	-0.086882256
73	0x3d464b84	0.04841186
74	0x3cc5f13a	0.024162877
75	0x3db124c5	0.08649591
76	0xbc815469	-0.01578732
77	0x3c05c71c	0.008165147
78	0x3c88bff1	0.016693087
79	0xbdabe062	-0.08392407
80	0xbb01585d	-0.0019736507
81	0xbd0dac60	-0.034588218
82	0x3d9c35b2	0.07627429
83	0x3d820485	0.06348518
84	0xbd4fbfb7	-0.050719943
85	0xbdfac206	-0.12244038
86	0x3e17bab1	0.14817311
87	0xbe36587e	-0.17807195
88	0xbd877f3b	-0.06616064
89	0x3d0c5972	0.03426499
90	0xbc861ef8	-0.016372189
91	0x3d63c21a	0.05560503
92	0x3d1d57ed	0.03841393
93	0x3e192c00	0.14958191
94	0xbbf7e686	-0.0075653223
95	0xbd18160d	-0.037130404
96	0xbd831fed	-0.06402574
97	0xbdc8766b	-0.097882114
98	0xbde3396a	-0.11094935
99	0xbd007501	-0.031361584
100	0xbdb262f1	-0.08710278
101	0xbe04cdbe	-0.1296911
102	0x3bf0d88a	0.007350032
103	0x3db3bd76	0.08776371
104	0x3be94e71	0.0071199466
105	0x3dd477e2	0.10374428
106	0xbda96e7b	-0.082730256
107	0x3cae403f	0.02127087
108	0x3c5a1ead	0.013312978
109	0x3d6730cd	0.056443024
110	0xbd0f5d4d	-0.035001088
111	0xbc3814c1	-0.011235417
112	0xbdb8e86c	-0.09028706
113	0x3d5f9fa9	0.054595623
114	0x3d623489	0.055225883
115	0x3d299490	0.041401446
116	0xbbb3b7b1	-0.005484544
117	0x3da70906	0.08156018
118	0x3d13a46f	0.036045488
119	0x3dcc848f	0.09986221
120	0xbe01e5b7	-0.12685286
121	0xbcb1e2b3	-0.021714544
122	0x3b5bb412	0.0033524078
123	0x3c245de4	0.010032151
124	0x3cad2969	0.02113791
125	0x3d91ab46	0.07112746
126	0x3dfab5f9	0.1224174
127	0x3b4eaab7	0.003153486
128	0xbc3bd1cb	-0.011463593
129	0x3b271963	0.002549731
130	0xba1582c0	-0.0005703382
131	0x3d465467	0.048420336
132	0x3ce41424	0.027841635
133	0xbd00e2a5	-0.031466145
134	0xbd2e6ee6	-0.04258623
135	0xbd76fb23	-0.060298096
136	0xbd874247	-0.06604438
137	0xbdd44605	-0.10364918
138	0x3c89ff56	0.016845386
139	0x3b7abe23	0.0038260303
140	0xbc10f0f4	-0.00884651
141	0xbc846a40	-0.016163945
142	0x3d1abfda	0.03778062
143	0xbdad4ac7	-0.08461528
144	0x3ca3a087	0.019974006
145	0xbd835c9b	-0.064141475
146	0xbd20b64f	-0.039236363
147	0x3d71f5b3	0.059072208
148	0x3bccb8f7	0.0062476355
149	0xbd8f3cb0	-0.06993997
150	0x3c87fd00	0.016600132
151	0xbc232fc1	-0.009960116
152	0x3e1cd7d9	0.15316714
153	0xbca1ee63	-0.019766992
154	0x3c1949d3	0.00935598
155	0x3caa1062	0.020759765
156	0x3d35d751	0.044394795
157	0xbdcab502	-0.09897806
158	0x3d00f994	0.031488016
159	0x3e2a2b0e	0.16617987
160	0x3d540320	0.051760793
161	0x3c143266	0.009045219
162	0x3c32f86a	0.010923484
163	0x3df827d0	0.12116969
164	0xba573dbe	-0.00082107994
165	0xbd8f7a1b	-0.07005712
166	0x3d536c14	0.051616743
167	0x3d92ad8c	0.07162008
168	0xbc9445af	-0.018099634
169	0x3d419ae3	0.047266852
170	0xbdcc3e99	-0.09972877
171	0x3cea681e	0.0286141
172	0x3cbd07c9	0.023075001
173	0x3d14a910	0.036294043
174	0xbd4f5284	-0.050615802
175	0xbd23cfc8	-0.039993078
176	0xbc6b2656	-0.014352402
177	0xbe0303a8	-0.12794363
178	0x3c4a85b4	0.012360979
179	0xbad3773a	-0.0016133555
180	0xbc927452	-0.017877731
181	0xbd1f5f0d	-0.038909007
182	0xbda0ee17	-0.07857912
183	0xbdb1195c	-0.08647415
184	0xba262c47	-0.00063389953
185	0xbd5e5f89	-0.05429033
186	0xbd19b780	-0.037528515
187	0x3cb046ff	0.021518229
188	0x3db84454	0.089974076
189	0xbc97f427	-0.018549038
190	0xbdd2f232	-0.10300101
191	0x3c8ce53b	0.01719915
192	0xbdff9072	-0.12478723
193	0xbde28b81	-0.110617645
194	0x3d1a4316	0.037661634
195	0x3d0570b9	0.032578204
196	0xbd6c7c76	-0.057735883
197	0x3db71253	0.08939042
198	0x3c0d6820	0.008630782
199	0xbc79a250	-0.015236452
200	0xbc7f1255	-0.015568336
201	0x3d64a183	0.055818092
202	0xbbf64615	-0.0075156786
203	0x3e062a5d	0.13102098
204	0x3b7f1806	0.0038924231
205	0xbc8e2e91	-0.017356189
206	0x3dcf79ae	0.101306304
207	0x3d36ef72	0.044661947
208	0x3d72f1cb	0.059312623
209	0x3dbbe92a	0.09175332
210	0xbcd30f21	-0.02576405
211	0x3d890df8	0.066921175
212	0x3d847729	0.064680405
213	0x3e10385e	0.14084002
214	0x3d3adedb	0.045622688
215	0xbd2a1b5e	-0.041530006
216	0x3d32ac73	0.04362149
217	0xbe1172ce	-0.14203951
218	0xbd90589c	-0.07048151
219	0x3cdb0c47	0.026739253
220	0xbceede46	-0.029158723
221	0xbd9b8cde	-0.07595228
222	0xbd247f0a	-0.040160216
223	0x3e52e3eb	0.20594756
224	0x3d2b585a	0.041832305
225	0x3cb4d525	0.022074291
226	0xbd4acc02	-0.049510963
227	0xbc0adb38	-0.008475117
228	0x3d5d5f61	0.05404604
229	0x3d665f65	0.05624332
230	0x3d3fc1d2	0.0468157
231	0xbd5efa40	-0.054437876
232	0x3dc4980d	0.09599314
233	0x3cd77e21	0.02630526
234	0xbd702dd8	-0.05863747
235	0x3e2f1640	0.17098331
236	0x3d7f4713	0.06232364
237	0xbbe89a66	-0.007098484
238	0xbb7cc830	-0.003857147
239	0x3db21a51	0.08696426
240	0x3c16dfcd	0.009208632
241	0x3d0a17cd	0.033714104
242	0xbd8c24c7	-0.06842952
243	0xbde444d2	-0.11145939
244	0x3d2a2b46	0.041545175
245	0xbdc3c55d	-0.095591284
246	0x3db33bea	0.08751662
247	0x3dd36edb	0.103238784
248	0x3e46251a	0.1935009
249	0xbd45dee1	-0.048308257
250	0x3c9c96da	0.0191149
251	0xbdc80d08	-0.097681105
252	0xbd4adfeb	-0.04952995
253	0xbdd721e4	-0.10504511
254	0xbd470a79	-0.048593972
255	0x3d25d75b	0.040488582

layer_2.bias f4 [300]
0	0xbcf1a46c	-0.029497348
1	0x3c073943	0.008253398
2	0xbd3e7a5e	-0.046503417
3	0x3d8cbd12	0.06872
4	0xbda01f7b	-0.078185044
5	0xbe030b68	-0.1279732
6	0xbe24fbf8	-0.16111743
7	0xbd87dbe9	-0.066337414
8	0xbc604ccd	-0.013690186
9	0x3e02c293	0.12769537
10	0xbc064e94	-0.008197445
11	0xbc70db5b	-0.014700736
12	0x3d9ee8cc	0.07759246
13	0x3d88f575	0.06687442
14	0xbc811d80	-0.015761137
15	0xbd264cb1	-0.040600482
16	0xbdaeca6a	-0.08534701
17	0x3df1957c	0.1179609
18	0x3c3b1026	0.011417424
19	0xbe311976	-0.17294869
20	0x3cef4c95	0.029211322
21	0x3ccf5642	0.025309686
22	0x3cfd50ce	0.03092232
23	0x3c7db4ec	0.01548503
24	0xbe09c60d	-0.13454457
25	0xbd616780	-0.055030346
26	0xbdf23117	-0.118257694
27	0xbd910943	-0.07081845
28	0x3d5d3dae	0.0540139
29	0x3d01db88	0.031703502
30	0x3d856233	0.06512871
31	0xbe14357d	-0.14473529
32	0xbd8d962c	-0.06913409
33	0x3e0b2b7f	0.13590811
34	0x3d4f6e25	0.05064215
35	0xbd618800	-0.05506134
36	0xbd8f08ef	-0.06984126
37	0xba81e991	-0.0009911527
38	0x3cdb1c2e	0.026746836
39	0xbbb58180	-0.0055391192
40	0xbd7f749d	-0.06236707
41	0xbdabfbaa	-0.083976105
42	0x3d835aef	0.064138286
43	0xbdf70020	-0.12060571
44	0x3dc43940	0.09581232
45	0x3d995134	0.074861914
46	0xbd81b963	-0.06334188
47	0x3e0551dc	0.13019508
48	0x3c820edc	0.015876226
49	0x3d258e04	0.04041864
50	0xbd8bcfc9	-0.06826741
51	0x3c11f68f	0.008908882
52	0x3d5ad15e	0.053422324
53	0xbdcb7293	-0.09933963
54	0x3cdbb321	0.026818814
55	0x3d2115bd	0.039327372
56	0xbd3ffe4e	-0.046873383
57	0x3d9830e1	0.07431198
58	0xbdf9684c	-0.12178096
59	0x3d9817f4	0.07426444
60	0xbc502cef	-0.0127060255
61	0x3d9305be	0.071788296
62	0x3d0a3771	0.03374428
63	0xbc15a92b	-0.009134571
64	0x3b765034	0.0037584426
65	0xbd82984f	-0.06376707
66	0xbbe469c5	-0.0069706165
67	0xbe53479d	-0.20632787
68	0xbda60c3f	-0.081078045
69	0xbd280662	-0.041021712
70	0xbcd6512e	-0.026161756
71	0xbda0450b	-0.07825669
72	0xbd872b8b	-0.06600102
73	0x3d2f956e	0.042867117
74	0x3ccd564e	0.025065567
75	0x3dbfd450	0.09366667
76	0x3d32e193	0.043672156
77	0xbde4c1a2	-0.11169745
78	0xbb94a052	-0.0045357132
79	0x3c5df2c1	0.013546647
80	0xbdaecbfd	-0.085350014
81	0xbb1e74af	-0.0024178436
82	0x3cecdf9c	0.028915219
83	0x3d0d17b9	0.03444645
84	0x3dd9494f	0.10609686
85	0x3c5682c0	0.013092697
86	0x3ca1838a	0.019716043
87	0x3ce10847	0.027469767
88	0xbe166fdd	-0.1469111
89	0xbc7ddc82	-0.015494468
90	0xbe44067a	-0.19143096
91	0xbcab9312	-0.020944152
92	0x3d081a12	0.033227988
93	0x3d9ff774	0.0781087
94	0x3dcde498	0.100533664
95	0x3d986fcd	0.07443199
96	0xbdb6b4c2	-0.089211956
97	0xbcb09db2	-0.02155957
98	0x3dc453b5	0.09586278
99	0x3da1d039	0.079010434
100	0xbd50bd7b	-0.050961953
101	0x3c139f47	0.009010143
102	0x3dc6af9d	0.09701464
103	0xbdab4f1c	-0.08364698
104	0x3de7541c	0.112953395
105	0xbd203c6b	-0.03912012
106	0x3c8edfd4	0.017440714
107	0x3d007003	0.031356823
108	0xbdc0a422	-0.09406306
109	0xbe09c7d5	-0.13455136
110	0xbd758d1e	-0.059949033
111	0xbe630210	-0.22168756
112	0x3c0fbe05	0.0087733315
113	0xbde26f19	-0.110563464
114	0x3d2c67ea	0.042091288
115	0xbd7a0e82	-0.061048992
116	0xbc8a1330	-0.016854852
117	0x3da2a7e6	0.0794218
118	0x3d49050e	0.049077086
119	0xbba19a34	-0.0049317125
120	0x3c55fc15	0.013060589
121	0x3dd1b197	0.10238951
122	0x3cc5504b	0.024086138
123	0x3d22fb9f	0.039790746
124	0xbca7f515	-0.020502606
125	0xbd0111d0	-0.031511128
126	0xbd706f2b	-0.058699768
127	0x3d575e50	0.052580178
128	0x3d8c6374	0.06854907
129	0xbd99f739	-0.07517857
130	0x3ce1f328	0.027581766
131	0x3d0b46d6	0.0340031
132	0xbb895238	-0.0041907094
133	0xbe1b9f2d	-0.1519744
134	0x3d9129a5	0.07088021
135	0x3cc3cbcb	0.023900887
136	0xba26e911	-0.0006367127
137	0x3d0e4ca2	0.03474105
138	0x3dc96686	0.09834008
139	0xbbcdb619	-0.0062778112
140	0xbd948adf	-0.0725305
141	0x3aa6e9a0	0.0012734421
142	0x3da9e5d9	0.08295793
143	0x3d297cf0	0.041378915
144	0xbd956566	-0.07294731
145	0xbd419d9a	-0.04726944
146	0x3af2ca04	0.001852334
147	0x3de51afe	0.11186789
148	0x3ddf252a	0.1089576
149	0xbbf8262d	-0.0075729103
150	0x3dfb84e6	0.12281208
151	0xbdf83921	-0.121202715
152	0xbe09a832	-0.13443068
153	0x3dd49331	0.10379637
154	0xbd3a1bfa	-0.045436837
155	0xbd96e728	-0.07368308
156	0x3c900778	0.017581686
157	0x3c75b6cc	0.014997195
158	0x3df20c39	0.118187375
159	0x3d595d08	0.053067237
160	0x3b6dd1a1	0.0036288279
161	0x3d549a2f	0.051904853
162	0x3dbc6632	0.0919918
163	0x3e67773e	0.22604081
164	0xbd4d67ab	-0.050147694
165	0xbd98467a	-0.07435317
166	0xbdaeaa51	-0.08528579
167	0xbcc5fd40	-0.02416861
168	0x3d5b1d5b	0.053494792
169	0x3dba614a	0.09100588
170	0xbd6ac7b3	-0.057319354
171	0x3dcd21f6	0.10016243
172	0x3dcbfa9a	0.09959908
173	0x3d43fad5	0.047846634
174	0xbde86f5c	-0.11349365
175	0x3da97a15	0.082752384
176	0xbe2d77ed	-0.1694028
177	0xbda3f513	-0.080057286
178	0x3e3b5558	0.18294275
179	0x3de53809	0.111923285
180	0xbcee50aa	-0.029091198
181	0xbda1dae7	-0.079030804
182	0xbdb3ac0b	-0.08773049
183	0xbd99723c	-0.074924916
184	0xbe8074fb	-0.2508925
185	0xbda0ed83	-0.07857802
186	0x3d52bf9f	0.051452275
187	0x3dcc754c	0.0998331
188	0xbd978319	-0.07398052
189	0x3d051d55	0.032498676
190	0x3b9913de	0.004671558
191	0x3d0d49ef	0.034494337
192	0xbe9c377b	-0.30511078
193	0xbc6701ab	-0.014099519
194	0x3cea5a64	0.028607555
195	0x3df8d61d	0.12150214
196	0xbd9e9bbc	-0.07744548
197	0x3d67ba62	0.056574233
198	0x3da80327	0.08203726
199	0xbd34e11b	-0.04415999
200	0x3d3af2c7	0.045641687
201	0x3daf8799	0.08570785
202	0x3ca96807	0.020679487
203	0xbc6e589a	-0.014547491
204	0x3e18dd38	0.14928138
205	0x3c9db364	0.01925058
206	0xbe077610	-0.13228631
207	0x3d1bb066	0.038010024
208	0x3e032d40	0.1281023
209	0xbceb574c	-0.02872815
210	0x3d3b44c0	0.045719862
211	0xbd902c46	-0.070396945
212	0x3c90e11f	0.017685471
213	0x3d6d6a9d	0.057963002
214	0xbdaece79	-0.08535475
215	0x3df20ac7	0.11818462
216	0x3d2addcc	0.04171543
217	0x3d46ef22	0.0485679
218	0x3da98396	0.08277051
219	0x3d028ae9	0.031870756
220	0x3db23b03	0.08702662
221	0xbe0acebb	-0.13555424
222	0x3c2869a1	0.01027909
223	0xbc88bb84	-0.016690977
224	0x3d4a41ee	0.04937928
225	0x3ca09973	0.01960442
226	0x3daa16f0	0.08305156
227	0x3d6f3a1c	0.058405027
228	0xbcbbb7d4	-0.022914805
229	0x3d9a98bf	0.07548665
230	0x3cc32c3f	0.02382481
231	0xbd17332a	-0.03691403
232	0xbca89515	-0.0205789
233	0x3d944cca	0.07241209
234	0x3da20135	0.079103865
235	0x3dcf8100	0.10132027
236	0x3dde2f76	0.10848896
237	0x3e252e6f	0.16130994
238	0x3b37d903	0.0028052933
239	0x3de6b2df	0.11264586
240	0x3dcf7e08	0.101314604
241	0x3db1b67d	0.08677385
242	0x3cdf2033	0.027237033
243	0x3e0489cd	0.12943192
244	0x3d0de968	0.03464642
245	0xbcb82894	-0.022480287
246	0x3d0df4f4	0.034657434
247	0xbc9aafb2	-0.018882606
248	0xbdb99403	-0.09061434
249	0x3d0dc66b	0.034613054
250	0x3d8bb5ff	0.068218224
251	0x3d8edee5	0.069761075
252	0xbe075961	-0.13217689
253	0x3d887ec0	0.06664801
254	0x3cd2977f	0.025707005
255	0xbd2105d7	-0.03931221

layer_3.weight f4 [6, 300]
0	0xbe15b0a0	-0.14618158
1	0xbdac8f11	-0.08425725
2	0x3cc0d65d	0.023539716
3	0xbd73ca98	-0.05951938
4	0xbe0270a5	-0.12738283
5	0x3e82d5f8	0.2555387
6	0xbcbeb95b	-0.023281744
7	0x3c968f06	0.018378746
8	0xbc914d3f	-0.01773703
9	0x3dc1dab3	0.09465542
10	0x3eb3838a	0.35061294
11	0xbe2c5f22	-0.16833165
12	0x3d02813e	0.031861536
13	0x3d91da6f	0.07121741
14	0xbe05ce78	-0.13067043
15	0x3e8bfeb5	0.27342764
16	0xbdaeb4fb	-0.08530613
17	0x3e233e3b	0.15941708
18	0xbe52b714	-0.20577651
19	0x3ea10295	0.31447282
20	0x3e279ca3	0.16368346
21	0x3b828921	0.003983632
22	0x3c8a46e4	0.016879506
23	0xbdc6c95e	-0.097063765
24	0x3e62e4d1	0.22157599
25	0xbda3fe72	-0.08007516
26	0x3e0c62b6	0.1370953
27	0xbdbd2e5c	-0.09237358
28	0x3ce92443	0.028459674
29	0xbe4c38da	-0.19943562
30	0xbba0a592	-0.00490255
31	0xbcb46190	-0.022019178
32	0x3ddc9665	0.10770873
33	0x3d3a8338	0.045535296
34	0x3d165c93	0.03670938
35	0x3ee74aa1	0.45174125
36	0x3dbab046	0.09115653
37	0x3d1de4ee	0.038548402
38	0xbd5e54cb	-0.054280084
39	0xbdbebcd7	-0.09313362
40	0xbd50ea86	-0.05100491
41	0xbdb42a9b	-0.08797189
42	0xbdf3b1d7	-0.11899155
43	0xbdc43e30	-0.09582174
44	0x3dc314d4	0.09525457
45	0x3c11351c	0.00886276
46	0xbd73205f	-0.059357043
47	0xbe41c7ad	-0.18923827
48	0x3e07dfbd	0.13268943
49	0x3d619d94	0.05508192
50	0x3e3ca755	0.18423207
51	0xbe0c8228	-0.13721526
52	0x3b252d88	0.002520414
53	0xbddeec12	-0.108848706
54	0x3c80bfe3	0.015716499
55	0x3dcb108c	0.099152654
56	0xbd88e0e8	-0.066835225
57	0x3e0b50a2	0.13604978
58	0x3d61573e	0.05501484
59	0xbe85b277	-0.2611272
60	0xbdb57725	-0.08860616
61	0x3e12cf43	0.14336877
62	0x3d90fc75	0.07079402
63	0x3d89441f	0.06702446
64	0xbd85f988	-0.06541735
65	0xbdeeb8e3	-0.11656358
66	0x3c93cc27	0.018041683
67	0x3e583ca5	0.21116884
68	0x3cedc4b9	0.029024469
69	0xbc923ee9	-0.017852264
70	0xbb197b8d	-0.002341959
71	0x3e8b04f9	0.2715223
72	0xbd7ab7f0	-0.061210573
73	0xbd3dda61	-0.04635084
74	0x3cefcfd6	0.029273909
75	0xb925eaf2	-0.0001582315
76	0xbbec5fad	-0.007213554
77	0xbd668cc0	-0.056286573
78	0x3d57045a	0.052494384
79	0x3e3399e8	0.1753918
80	0x3ce8212a	0.028336126
81	0x3c1ab8c2	0.009443464
82	0x3b9d7917	0.004805695
83	0x3ccde4c0	0.02513349
84	0xbcacb924	-0.021084376
85	0xbd374af3	-0.04474921
86	0xbdb4b9d6	-0.08824508
87	0xbd517c9b	-0.051144224
88	0xbd8ba01b	-0.06817647
89	0xbcd0396a	-0.025418002
90	0xbe20c6d5	-0.15700848
91	0x3e1e4cf0	0.15459037
92	0x3de78f1c	0.11306593
93	0xbd3a2204	-0.045442596
94	0x3cb1768f	0.021662978
95	0x3dec51d4	0.11539045
96	0xbee776af	-0.45207736
97	0xbdf762f6	-0.12079422
98	0x3db07564	0.086161405
99	0x3b032da1	0.002001621
100	0x3e922b66	0.28548735
101	0xbd9df311	-0.07712377
102	0x3c76896b	0.015047411
103	0xbd8651bf	-0.065585606
104	0x3d8fe2e4	0.07025698
105	0x3ebdf736	0.3710267
106	0x3e435ad8	0.19077623
107	0xbd41d254	-0.047319725
108	0x3e3dfdeb	0.18553893
109	0xbe5e7608	-0.21724713
110	0xbdc11995	-0.094287075
111	0x3c82e8f6	0.015980225
112	0x3d997fbc	0.074950665
113	0x3e4ef13d	0.20209213
114	0xbdde86c8	-0.10865551
115	0x3e1d78ee	0.15378162
116	0xbde163f3	-0.11005392
117	0x3c1a13a6	0.009404099
118	0x3c38a03c	0.011268672
119	0xbcb14751	-0.021640452
120	0xbd9f8710	-0.07789433
121	0x3b3c290d	0.0028710992
122	0xbdd3e68a	-0.10346706
123	0x3de6d4b9	0.112710424
124	0xbd57ba58	-0.052667946
125	0xbdaaaaa8	-0.08333331
126	0xbd052d58	-0.032513946
127	0xbc6f3cb9	-0.01460188
128	0xbd8c9eb6	-0.06866209
129	0xbc71fc1b	-0.014769579
130	0xbe48620c	-0.19568652
131	0x3d2ef2af	0.04271191
132	0xbd9c772a	-0.07639916
133	0xbe0f5997	-0.1399902
134	0x3d616232	0.055025287
135	0xbd4982b2	-0.049196906
136	0xbc860f0e	-0.0163646
137	0x3dbe7acd	0.09300766
138	0xbd097b8d	-0.033565093
139	0x3ec3f527	0.38272974
140	0xbd8ac934	-0.06776658
141	0xbd2611d9	-0.040544365
142	0x3d8e545a	0.069496825
143	0x3d36f6ea	0.04466907
144	0xbbaffa11	-0.0053703864
145	0xbcea3d46	-0.02859367
146	0x3dd46aac	0.103719085
147	0x3e3f8901	0.18704607
148	0x3d052bf0	0.032512605
149	0xbdbe146c	-0.09281239
150	0x3b75a865	0.0037484404
151	0xbda59064	-0.08084181
152	0xbdedcbae	-0.116111144
153	0x3d3df845	0.046379346
154	0xbd171f5f	-0.036895152
155	0xbcfe64c1	-0.031053903
156	0xbd98517a	-0.074374154
157	0xbcb346e2	-0.021884385
158	0xbc822bd7	-0.015890045
159	0x3eae5d2b	0.34055457
160	0x3d3e3687	0.04643872
161	0xbd8f476a	-0.06996043
162	0x3ca2ff1d	0.019897038
163	0x3caa55c0	0.020792842
164	0xbccf58c4	-0.025310881
165	0xbd5b80ab	-0.053589504
166	0xbd7fa7f1	-0.06241602
167	0xbd8d2e80	-0.06893635
168	0x3d30036f	0.042972025
169	0x3bfe8c2a	0.0077681737
170	0xbd777703	-0.060416233
171	0x3b4a1057	0.0030832493
172	0x3ecfba0e	0.40571636
173	0x3d9948c7	0.07484584
174	0xbe4eb4ac	-0.20186108
175	0x3db671fd	0.0890846
176	0xbe092014	-0.13391143
177	0xbd8c73d5	-0.06858031
178	0x3e09c851	0.13455321
179	0x3ddf3108	0.10898024
180	0x3e7f1c64	0.24913174
181	0xbdd57ee6	-0.104245946
182	0x3e26ef14	0.16302139
183	0xbe34fb6f	-0.1767404
184	0x3ea2cf7d	0.31798926
185	0x3dda1a9c	0.106496066
186	0x3e673fae	0.22582886
187	0x3d2cb091	0.042160574
188	0xbcffaeed	-0.03121134
189	0x3d901b40	0.070364475
190	0xbd9427cc	-0.07234153
191	0x3d9d1bf4	0.07671347
192	0xbe926ae5	-0.2859718
193	0xbd977197	-0.073947124
194	0xbdd61d1e	-0.104547724
195	0x3d5a6a75	0.05332418
196	0x3da9a65d	0.082836844
197	0xbd0621c7	-0.032747056
198	0xbe440f41	-0.19146444
199	0x37b14008	2.1129861e-05
200	0x3a755e52	0.0009360063
201	0x3c943afe	0.018094536
202	0x3c87daff	0.016583918
203	0xbcddef67	-0.027091695
204	0xbbf8ca4e	-0.007592476
205	0x3d9f1b02	0.07768823
206	0xbe063812	-0.13107327
207	0x3cfbc67c	0.030734293
208	0xbd8aceb9	-0.067777105
209	0x3e20dd1b	0.15709345
210	0xbd9f0e49	-0.077663966
211	0xbdbfafa8	-0.09359676
212	0x3d7861cb	0.060640138
213	0x3e02fbb6	0.12791333
214	0xbe67c2d5	-0.22632916
215	0x3dc088a9	0.09401066
216	0x3b05f2fe	0.0020439024
217	0x3cff8760	0.031192482
218	0xbe2f714b	-0.17133062
219	0x3d0727df	0.03299701
220	0x3d478894	0.048714235
221	0x3d5a1f0c	0.053252265
222	0xbda79e2e	-0.08184467
223	0x3e258580	0.16164207
224	0xbd3a065a	-0.045416214
225	0xbd5743a0	-0.052554727
226	0x3ce76353	0.028245604
227	0xbe3922e0	-0.1807971
228	0x3df2f8d0	0.118638635
229	0xbd1763ef	-0.03696054
230	0x3c5197f6	0.012792578
231	0xbdd813df	-0.10550665
232	0xbdb875cb	-0.09006842
233	0xbd549319	-0.051898096
234	0x3da7317c	0.08163735
235	0x3d75642d	0.05990999
236	0x3bba9736	0.0056942953
237	0x3d4ad846	0.04952266
238	0xbd411b61	-0.04714525
239	0xbda40de2	-0.080104604
240	0x3df3e368	0.11908609
241	0xba98886f	-0.001163734
242	0x3d86ab1c	0.06575605
243	0x3dba1159	0.0908534
244	0xbde3be7f	-0.111203186
245	0x3e066025	0.13122614
246	0xbe4faaf0	-0.20280051
247	0x3d2eabb1	0.042644206
248	0x3efb1c86	0.490452
249	0x3ead3f58	0.3383739
250	0x3d97e2bf	0.07416295
251	0x3d39f554	0.04539998
252	0x3d8e082a	0.06935151
253	0x3e1fe719	0.156155
254	0xbce4a798	-0.027911946
255	0xbd7b9fb7	-0.061431613

layer_3.bias f4 [6]
0	0x3d053eb8	0.032530516
1	0xbc177f61	-0.009246678
2	0x3d075fd1	0.033050362
3	0xbd543ee8	-0.051817805
4	0x3da21d2b	0.079157196
5	0xbd5658b1	-0.052330676
