pytorch_models/TD3_walker_stand_022_actor.pth (torch, 521670 bytes, 6 tensors)

layer_1.weight f4 [400, 18]
-0.11258167 0.09233963 -0.24835178 -0.11413733 -0.109771006 0.07846086 0.0787417 0.22431211
0.05688355 0.12511046 -0.08345037 -0.033333346 -0.24449986 -0.121170424 -0.08019846 0.020703683
0.15663905 0.171152 -0.2614081 -0.095102146 0.11379833 0.3137925 -0.0994646 0.26673672
-0.030000003 0.084724195 0.1665033 -0.21290489 -0.22646217 -0.12470907 -0.11097103 0.24651946
-0.13202652 -0.16028337 -0.15523407 -0.20237729 -0.10726213 0.22417176 0.14044905 0.0895473
0.06122694 -0.018801887 -0.0407132 -0.26136875 -0.20039761 -0.16620816 0.2902314 0.17905001
-0.07932499 0.001207594 0.095643006 0.26293233 0.11879655 0.072478205 0.14462544 -0.22482245
0.051146366 -0.17134698 -0.24801762 -0.13930865 0.08483832 0.15080771 -0.07414607 0.14399081
0.14906107 -0.009754435 0.00926621 0.06600731 0.16553764 0.20901689 -0.19313507 -0.08768092
0.07066685 0.2643811 0.15582523 0.21768956 0.05112659 -0.065673016 -0.046255127 -0.2993981
-0.22039904 0.19535384 0.34696537 -0.25518757 0.05870195 -0.08278938 -0.05940545 -0.13548861
0.10035985 -0.12785216 0.049686506 0.060370136 0.16396657 0.1896872 -0.32406637 -0.11220171
0.10078546 0.06137052 -0.1762412 -0.2328944 0.21310069 0.1403538 -0.114142664 -0.10076468
-0.25638565 -0.011488255 -0.22419696 -0.15965489 0.07156281 -0.04519436 -0.08948735 0.19292907
-0.2578207 0.21044682 0.23916313 -0.2736118 -0.07482011 -0.0429328 0.13734077 0.05814353
0.081160516 0.0038715745 -0.123331465 0.10968925 -0.23396564 -0.17395958 -0.18681172 -0.10113074
-0.006936302 -0.079046026 -0.086327724 -0.1118823 0.0009591931 -0.06967134 0.23322971 -0.0033316845
-0.050038245 -0.038141012 0.00067253876 0.13549043 0.2710571 0.17894532 0.22476603 -0.057940092
-0.27799183 -0.070011675 0.106167704 -0.03675881 -0.19644943 -0.14417812 -0.32824576 -0.18957493
0.037391897 0.013525336 0.097492196 -0.27182844 0.17089556 -0.23210187 -0.049763598 -0.110121
-0.03717481 -0.03630225 -0.30647692 -0.134991 -0.0052504954 0.07475307 -0.14967743 0.06141335
-0.22877266 -0.010033786 0.33475453 -0.09004759 0.28983638 0.06832227 -0.24164592 0.15427405
-0.0146720065 -0.13338459 0.18504721 -0.19726953 0.015561027 -0.06747491 0.2539188 0.07794544
0.057390552 0.16508427 -0.08107319 -0.00087140617 -0.161961 0.17109808 0.22762544 0.123543024
-0.18816496 0.028222112 -0.18122528 -0.17366228 -0.1367408 0.10328123 -0.22453061 0.055875592
0.077698946 0.19724183 -0.2645967 -0.27428645 -0.11388198 0.1791945 -0.087249 0.2492101
-0.014858735 0.0029269813 -0.023284456 -0.05292133 0.016479867 -0.061713632 -0.0025236653 0.022238491
-0.2495072 -0.12638518 0.2946567 -0.19030458 0.0010075499 0.32173055 0.094602816 0.014854007
-0.13006875 0.10488552 -0.21127641 -0.12134268 -0.11788635 0.00089161185 0.0070534996 0.22427727
0.012330682 0.20845613 0.05362264 -0.08516874 0.09422172 -0.27710274 -0.20616978 -0.018876046
0.10412763 0.12791468 -0.013608777 -0.02210708 0.020734362 -0.26856962 0.1759145 -0.2420107
0.013372737 -0.045901626 -0.08522935 0.01404729 0.18996346 -0.13528045 -0.20649624 -0.041992385
00000000: 3891 e6bd 8f1c bd3d ee4f 7ebe d5c0 e9bd
00000010: 9fcf e0bd 16b0 a03d 5443 a13d 13b2 653e
00000020: bafe 683d f51c 003e 07e8 aabd 8c88 08bd
00000030: 2c5e 7abe 3328 f8bd 173f a4bd c59a a93c
00000040: fd65 203e 7842 2f3e 48d7 85be eac4 c2bd
00000050: 190f e93d 69a9 a03e 19b4 cbbd b791 883e
00000060: 91c2 f5bc e183 ad3d d77f 2a3e bd03 5abe
00000070: b3e5 67be 7867 ffbd c844 e3bd 996f 7c3e
00000080: f631 07be 5321 24be aef5 1ebe fe3b 4fbe
00000090: 3fac dbbd 488d 653e e0d1 0f3e 9364 b73d
000000a0: 1ac9 7a3d 6a06 9abc e2c2 26bd 20d2 85be
000000b0: 0835 4dbe 7932 2abe 3699 943e e358 373e
000000c0: 2475 a2bd 2148 9e3a 7be0 c33d 119f 863e
000000d0: 9b4b f33d 746f 943d b118 143e db37 66be
000000e0: da7e 513d 9575 2fbe 55f8 7dbe eda6 0ebe
000000f0: b7bf ad3d 566d 1a3e e5d9 97bd 5472 133e
00000100: 77a3 183e 11d1 1fbc 4dd1 173c d72e 873d
00000110: b382 293e 8608 563e 33c5 45be 0e92 b3bd
00000120: c8b9 903d f65c 873e a690 1f3e 03ea 5e3e
00000130: 1e6a 513d 937f 86bd 0476 3dbd b54a 99be
00000140: 49b0 61be d60a 483e 72a5 b13e f2a7 82be
00000150: 7571 703d 7a8d a9bd 2153 73bd 87bd 0abe
00000160: 7789 cd3d adeb 02be 1484 4b3d ad46 773d
00000170: dae6 273e 5d3d 423e 07ec a5be 03ca e5bd
00000180: 9b68 ce3d a85f 7b3d 9378 34be df7b 6ebe
00000190: 1137 5a3e e8b8 0f3e a1c3 e9bd b65d cebd
000001a0: fb44 83be 3c39 3cbc e393 65be 927c 23be
000001b0: 868f 923d b91d 39bd 2545 b7bd 338f 453e
000001c0: 1301 84be 5f7f 573e 2ee7 743e d916 8cbe
000001d0: 493b 99bd 4eda 2fbd 0fa3 0c3e e927 6e3d
000001e0: 7c37 a63d 3eba 7d3b 3595 fcbd c2a4 e03d
000001f0: b094 6fbe 7622 32be 924b 3fbe a21d cfbd
00000200: eb49 e3bb e2e2 a1bd 97cc b0bd 8c22 e5bd
00000210: 5c72 7b3a d9af 8ebd c5d3 6e3e 6458 5abb
00000220: e7f4 4cbd c039 1cbd 504d 303a 01be 0a3e
00000230: ffc7 8a3e 713d 373e 1129 663e 9752 6dbd
00000240: f254 8ebe 4862 8fbd 746e d93d 6890 16bd
00000250: 0a2a 49be 6ea3 13be d40f a8be ee1f 42be
00000260: 3f28 193d 5f99 5d3c fda9 c73d 192d 8bbe
00000270: 3fff 2e3e 1dac 6dbe ead4 4bbd 1e87 e1bd
00000280: 9d44 18bd abb1 14bd 8bea 9cbe 153b 0abe
00000290: 590c acbb 2318 993d 0a45 19be 918c 7b3d
000002a0: 6143 6abe c064 24bc f264 ab3e df6a b8bd
000002b0: 6f65 943e 8cec 8b3d 0772 77be 04fa 1d3e
000002c0: db62 70bc f895 08be 047d 3d3e 0601 4abe
000002d0: aef3 7e3c 4930 8abd a501 823e dca1 9f3d
000002e0: 5b12 6b3d da0b 293e b309 a6bd 146f 64ba
000002f0: 1bd9 25be 5634 2f3e a516 693e 2004 fd3d
00000300: 51ae 40be 0f32 e73c 1f93 39be 86d4 31be
00000310: c805 0cbe 1c85 d33d 5aeb 65be cedd 643d
00000320: a020 9f3d c3f9 493e 3879 87be 466f 8cbe
00000330: f53a e9bd c37e 373e 9baf b2bd ef30 7f3e
00000340: 0d72 73bc 99d2 3f3b 0bbf bebc 09c4 58bd
00000350: c900 873c 6fc7 7cbd 1464 25bb 7f2d b63c
00000360: d17e 7fbe 1e6b 01be 3edd 963e 34df 42be
00000370: c40f 843a deb9 a43e 1fbf c13d 395e 733c
00000380: be30 05be 38ce d63d d858 58be 8382 f8bd
00000390: 666e f1bd 0fbb 693a 0b21 e73b f1a8 653e
000003a0: a106 4a3c 8675 553e 6aa3 5b3d f36c aebd
000003b0: 51f7 c03d 69e0 8dbe 2c1e 53be f0a1 9abc
000003c0: de40 d53d 11fc 023e 59f7 5ebc e819 b5bc
000003d0: 1cdb a93c f581 89be ee22 343e a7d1 77be
000003e0: 5319 5b3c 5803 3cbd ba8c aebd 9b26 663c
000003f0: c885 423e f586 0abe c073 53be 3500 2cbd

layer_1.bias f4 [400]
0.26451826 0.069308035 -0.08861502 0.1031295 -0.043179046 -0.0010583071 -0.08174026 0.18863781
-0.0742841 -0.10455946 -0.19439922 0.3385275 0.06416607 0.22532873 -0.18606381 -0.035293892
-0.16750261 -0.024599077 0.23447338 0.27304804 -0.08714707 -0.1134882 0.005149771 -0.17358896
0.13092965 -0.09056172 0.13882224 -0.04288979 0.31416667 -0.124843985 0.045791943 0.20525055
0.21293089 0.2919316 0.3348021 -0.25164732 0.13929746 -0.03406718 0.2567643 0.31904644
0.022969736 0.20559664 0.103942 0.08992444 0.18867256 0.08974172 -0.00012122409 0.08219664
0.046983883 -0.14726593 0.10616391 -0.16537584 0.26382887 0.25061572 0.13206555 0.1621507
0.16457853 0.20342304 0.1876778 -0.17306343 -0.09500907 -0.11793374 0.12699695 0.0051529156
0.08886879 0.19622777 0.31746578 0.07722906 0.19681393 0.19403087 0.15785712 -0.14297274
-0.08775524 -0.09663943 -0.16170146 0.17548649 0.05274226 -0.024200857 0.124673225 0.031887528
-0.12797922 -0.1868021 0.13003471 0.019889379 -0.00537897 -0.0340498 0.0049469816 0.250383
-0.12628572 -0.011467705 -0.0075674737 0.3025159 0.034443136 0.1629528 0.035789955 0.11163889
0.2210065 -0.07120585 0.20671773 0.3067032 0.1279534 0.22391345 -0.10852575 0.3294891
-0.041727103 0.16970731 0.20405404 0.106966004 0.20967297 -0.21631855 0.26163375 0.040536467
0.2345894 -0.02120103 0.0528547 0.13532412 -0.06864787 -0.047105316 0.05009306 -0.16220607
-0.120452434 -0.10588114 0.06850439 -0.1555775 0.046730075 -0.11730157 -0.11858781 -0.012027865
0.15085362 0.17436077 0.059208825 0.30921778 -0.09787702 0.094718605 -0.16341677 0.26571983
-0.067196965 0.20875733 0.13436438 -0.018484432 -0.010143469 -0.012277777 0.20705087 0.26470122
0.31167555 0.033748645 0.020158945 -0.07931597 0.032543752 0.16241446 0.06394319 -0.112954564
0.048807934 0.032041322 -0.09260293 0.08321134 0.001309802 -0.112814285 0.03350772 0.07282902
0.03612601 0.03164615 0.037722033 0.2026628 -0.13680473 0.00812901 0.19523795 -0.0042119063
0.09751119 -0.14891347 -0.11757755 0.046368163 -0.067806125 0.2812378 0.029342493 -0.11431731
0.1744372 -0.021307152 0.26027715 -0.009368433 0.1763172 -0.2616974 0.3518442 0.017598135
-0.08486242 -0.10727454 0.057993922 -0.19638574 0.23025683 0.27781734 0.3366599 0.35530835
-0.15588604 -0.038978912 0.29783505 0.23787901 0.22664914 -0.082636625 0.097854085 0.023461966
0.23574401 -0.14802986 0.36102203 -0.026948093 0.20048799 0.22634107 -0.14319216 0.11932259
-0.15297271 0.11993502 0.2699555 -0.11270866 -0.09481885 -0.089738764 0.32938015 -0.03829866
-0.097247414 0.26531824 0.1292585 0.016542397 0.06343858 0.062672235 0.35097423 0.16231596
0.053410873 0.06648206 0.06663441 0.04689484 0.11323761 0.1343148 0.17221773 0.15610343
-0.034124773 -0.22006066 -0.18616432 0.31183776 -0.05824894 -0.08582031 0.27854788 -0.17853877
0.18774502 0.32985315 0.052642528 0.26081994 0.1973326 -0.14609627 -0.06768682 0.08050438
0.053191762 -0.15943852 -0.12159125 0.34181637 -0.059846427 -0.22484641 0.18415654 -0.051198337
00000000: f06e 873e 5ff1 8d3d cb7b b5bd 8f35 d33d
00000010: 83dc 30bd e5b6 8aba 7067 a7bd 452a 413e
00000020: 4322 98bd 4523 d6bd 9710 47be 7a53 ad3e
00000030: 8069 833d 93bc 663e 8387 3ebe 5490 10bd
00000040: ce85 2bbe 0184 c9bc ca19 703e f4cc 8b3e
00000050: 2a7a b2bd 806c e8bd 69bf a83b 4ec1 31be
00000060: 6c12 063e 6c78 b9bd 6b27 0e3e 34ad 2fbd
00000070: 74da a03e 34ae ffbd 5590 3b3d 332d 523e
00000080: 8e0a 5a3e 0f78 953e 2e6b ab3e ebd7 80be
00000090: fea3 0e3e 078a 0bbd 9c76 833e 0e5a a33e
000000a0: 072b bc3c ed87 523e 8bdf d43d 4e2a b83d
000000b0: 6133 413e 82ca b73d b039 feb8 b656 a83d
000000c0: 2c72 403d e1cc 16be 776c d93d 4958 29be
000000d0: 9414 873e b450 803e 313c 073e d50a 263e
000000e0: 4687 283e 214e 503e 9c2e 403e 8a37 31be
000000f0: 1e94 c2bd 3f87 f1bd 7d0b 023e cad9 a83b
00000100: d700 b63d efef 483e e08a a23e 452a 9e3d
00000110: 9789 493e 07b0 463e 4ca5 213e 7267 12be
00000120: 05b9 b3bd e5ea c5bd 1195 25be bbb2 333e
00000130: 4508 583d e040 c6bc ad54 ff3d 7f9c 023d
00000140: fc0c 03be 0d49 3fbe d227 053e 0def a23c
00000150: 1242 b0bb ce77 0bbd 4a1a a23b 3332 803e
00000160: 0b51 01be 0ae3 3bbc 92f8 f7bb 5de3 9a3e
00000170: 3f14 0d3d 19dd 263e 7d98 123d eea2 e43d
00000180: 874f 623e 5fd4 91bd d0ad 533e 3408 9d3e
00000190: 3706 033e 9149 653e c042 debd ccb2 a83e
000001a0: 0aea 2abd c1c7 2d3e 8bf3 503e fe10 db3d
000001b0: 83b4 563e 9c82 5dbe dcf4 853e 9109 263d
000001c0: 3438 703e c8ad adbc 2b7e 583d 6892 0a3e
000001d0: 4197 8cbd 81f1 40bd 612e 4d3d 5919 26be
000001e0: c4af f6bd 36d8 d8bd 084c 8c3d b54f 1fbe
000001f0: 0968 3f3d ce3b f0bd 2ade f2bd 8610 45bc
00000200: 5f79 1a3e a18b 323e f484 723d cb51 9e3e
00000210: bf73 c8bd d4fb c13d ba56 27be 6e0c 883e
00000220: 909e 89bd 7bc4 553e d196 093e aa6c 97bc
00000230: cb30 26bc bb28 49bc 2505 543e eb86 873e
00000240: f093 9f3e 053c 0a3d 5f24 a53c 6970 a2bd
00000250: 994c 053d fa4f 263e a6f4 823d b954 e7bd
00000260: d4ea 473d c33d 033d 9ba6 bdbd b56a aa3d
00000270: aaad ab3a 2d0b e7bd 643f 093d 6227 953d
00000280: def8 133d 659f 013d 6b82 1a3d d686 4f3e
00000290: 8a16 0cbe 8a2f 053c 75ec 473e 0804 8abb
000002a0: f2b3 c73d c67c 18be 80cc f0bd 8bec 3d3d
000002b0: f0dd 8abd 67fe 8f3e ab5f f03c 321f eabd
000002c0: aa9f 323e 568c aebc 0c43 853e 0e7e 19bc
000002d0: 7f8c 343e 34fd 85be ec24 b43e f729 903c
000002e0: 59cc adbd c1b2 dbbd 098b 6d3d 5819 49be
000002f0: 72c8 6b3e 133e 8e3e b05e ac3e faea b53e
00000300: 97a0 1fbe 5aa8 1fbd d67d 983e 8e96 733e
00000310: b616 683e 643d a9bd b967 c83d 4f33 c03c
00000320: e166 713e 2495 17be e1d7 b83e 3fc2 dcbc
00000330: b94c 4d3e f4c5 673e f7a0 12be 675f f43d
00000340: e1a4 1cbe 7ea0 f53d 9b37 8a3e ccd3 e6bd
00000350: 6330 c2bd f5c8 b7bd 84a4 a83e 0edf 1cbd
00000360: a729 c7bd cbd7 873e 575c 043e ec83 873c
00000370: 16ec 813d 4d5a 803d e5b2 b33e 2836 263e
00000380: 5cc5 5a3d bf27 883d 9f77 883d ce14 403d
00000390: 1fe9 e73d d289 093e d859 303e 94d9 1f3e
000003a0: 6bc6 0bbd 9557 61be dca1 3ebe 33a9 9f3e
000003b0: 7196 6ebd 8fc2 afbd d49d 8e3e ded2 36be
000003c0: 3b40 403e 83e2 a83e b19f 573d 318a 853e
000003d0: 8f11 4a3e 439a 15be 639f 8abd 7bdf a43d
000003e0: 9bdf 593d da43 23be d504 f9bd 8e02 af3e
000003f0: 8721 75bd 233e 66be 8893 3c3e 59b5 51bd

layer_2.weight f4 [300, 400]
0.032775015 -0.025493186 0.024340471 0.010198444 0.0017541368 0.0026910838 -0.05475863 -0.06338033
3.3530305e-05 -0.012802777 0.023102103 -0.027772818 -0.0074981856 0.0022386643 -0.0401012 -0.021989347
-0.08195857 0.018842235 0.06340211 -0.06840804 0.020260729 -0.033052452 -0.060183253 -0.03402953
-0.051855985 0.041582912 0.0014380399 -0.048934624 -0.0136783505 -0.03207906 -0.011279791 0.02216119
0.008752923 -0.0069944086 -0.028593846 -0.010765047 0.023178773 0.03794518 -0.064262524 0.055376973
-0.07324213 0.040283184 -0.024918843 0.028146746 -0.030198213 -0.12722398 0.011025179 -0.010922472
-0.026081247 0.015287011 0.0142413 0.0023192023 0.00481097 -0.02215111 -0.037317485 0.06392047
-0.03864791 -0.06920032 0.053513415 -0.03198446 0.027756702 5.4344215e-05 -0.04680627 0.08525859
0.021579018 -0.01603337 -0.03726767 -0.013682367 -0.012311905 0.0058751605 0.02121227 0.021422407
-0.07220681 0.07051525 0.033053342 0.05878656 0.006211145 0.015666397 0.0033984727 -0.019006195
0.053796295 -0.007679636 0.039674077 -0.003224447 -0.013630469 -0.096682616 0.06633914 -0.05941633
-0.031464413 0.030632718 0.0021257878 0.025699615 0.039563112 0.014291965 0.01412323 0.019844767
-0.013047326 0.006209115 -0.060501292 -0.011523058 -0.040803637 -0.10111946 0.015934452 0.02936001
0.011793354 0.008054448 -0.02827644 -0.053730175 -0.06612246 0.040742557 -0.015162709 -0.038959987
-0.0782595 0.012040573 -0.0054867314 -0.003958728 -0.014225861 0.02874053 -0.0035522347 0.06345161
-0.05676691 -0.046420135 0.014901947 -0.00031966384 0.024990473 0.066726476 0.09088746 0.009568928
-0.0473773 0.0152752325 0.03543035 -0.035471316 -0.0037502297 -0.030865705 -0.029958397 -0.04672904
-0.010414966 -0.07113099 -0.02909541 -0.029439023 0.007358511 -0.04739823 0.05628395 -0.043382592
0.01776844 -0.037225485 -0.045974735 0.011779796 0.025314126 -0.036003906 -0.015032662 0.0013565129
0.007928426 0.01045455 0.012818752 0.010113035 0.046937045 -0.049209915 0.039319064 0.07866652
0.034955308 0.0147269545 0.0049855188 0.05835081 -0.0073029436 -0.0796242 -0.026519679 0.027998794
-0.0062701977 0.050578274 -0.020630736 0.014605653 0.05333872 0.050400544 -0.052310105 -0.010734757
-0.04736506 -0.0711136 0.022088457 0.011700355 -0.028212361 0.001527038 -0.058661804 -0.028754748
-0.01868612 -0.019110003 0.021894826 0.046073586 0.075384215 0.014613718 -0.07625443 -0.002902714
-0.05450987 0.0039486303 0.008921869 -0.010624268 0.014801384 0.06506819 0.00018224785 -0.027229952
0.033058476 0.057514705 -0.033223078 0.084915295 0.025149215 0.045001946 0.0837181 0.015191585
0.042960167 0.06134104 -0.047509413 -0.036413454 0.044603694 0.048221778 0.0029042696 -0.015178949
0.050919645 -0.09801002 -0.03372362 0.028547002 -0.024414068 -0.014776515 -0.027785832 0.07273287
0.04773116 0.03027664 -0.040046662 0.014169614 0.013794617 0.029517476 -0.021003725 -0.04094662
0.06388587 0.05648538 -0.013295775 0.06286486 -0.0094782 -0.04180466 0.014813201 0.075168096
0.0033108885 0.031261053 -0.05500242 -0.06008283 -0.02229018 -0.042359777 0.06414894 0.007761409
0.09919809 0.007916383 -0.0015037158 -0.073806465 -0.040046584 -0.06197317 -0.044695366 0.0558448
00000000: 183f 063d 16d7 d0bc ab65 c73c 6017 273c
00000010: 10eb e53a e55c 303b 964a 60bd 8ccd 81bd
00000020: e4a2 0c38 bdc2 51bc 9f40 bd3c d283 e3bc
00000030: 57b3 f5bb 8eb6 123b 2841 24bd 0123 b4bc
00000040: e5d9 a7bd 085b 9a3c f7d8 813d 8419 8cbd
00000050: d4f9 a53c 0262 07bd b782 76bd 8c62 0bbd
00000060: f166 54bd d852 2a3d 9d7c bc3a ac6f 48bd
00000070: 291b 60bc 5565 03bd dfce 38bc 628b b53c
00000080: 6c68 0f3c 5a31 e5bb a43d eabc e15f 30bc
00000090: 69e1 bd3c 686c 1b3d 129c 83bd f7d2 623d
000000a0: f8ff 95bd fbff 243d 9a22 ccbc 0194 e63c
000000b0: 3e62 f7bc 0147 02be f4a2 343c 2bf4 32bc
000000c0: 57a8 d5bc 5f76 7a3c 5754 693c c2fd 173b
000000d0: 57a5 9d3b 3f76 b5bc 38da 18bd bce8 823d
000000e0: 454d 1ebd e6b8 8dbd e230 5b3d 2302 03bd
000000f0: 0662 e33c a8ef 6338 eeb7 3fbd 0e9c ae3d
00000100: 7bc6 b03c 6a58 83bc fca5 18bd 022c 60bc
00000110: dfb7 49bc 6b84 c03b 5bc5 ad3c 0b7e af3c
00000120: 2ae1 93bd 4d6a 903d f162 073d 2dca 703d
00000130: dc86 cb3b d156 803c e9b8 5e3b e1b2 9bbc
00000140: 8159 5c3d 75a5 fbbb 4981 223d 3e51 53bb
00000150: 5552 5fbc 8901 c6bd d1dc 873d 8a5e 73bd
00000160: d4e0 00bd 77f1 fa3c cd50 0b3b 0088 d23c
00000170: ee0c 223d d928 6a3c 1f65 673c 7e91 a23c
00000180: 74c4 55bc d575 cb3b 34d0 77bd 35cb 3cbc
00000190: b721 27bd b817 cfbd f888 823c 6784 f03c
000001a0: e938 413c cef6 033c fea3 e7bc 2c14 5cbd
000001b0: 366b 87bd abe1 263d 036d 78bc 8294 1fbd
000001c0: 8446 a0bd d345 453c 0aca b3bb 38b8 81bb
000001d0: 9613 69bc 4371 eb3c 9ccc 68bb ebf2 813d
000001e0: 6b84 68bd 0a23 3ebd 4c27 743c 8e98 a7b9
000001f0: d2b8 cc3c e4a7 883d 3423 ba3d fec6 1c3c
00000200: b30e 42bd f844 7a3c 6a1f 113d 5f4a 11bd
00000210: 6ac6 75bb 13da fcbc 506b f5bc f366 3fbd
00000220: 89a3 2abc 20ad 91bd 7f59 eebc 1b2a f1bc
00000230: aa1f f13b a524 42bd 008a 663d f2b1 31bd
00000240: 1f8f 913c c079 18bd 0150 3cbd 0c00 413c
00000250: 925f cf3c d578 13bd 8e4b 76bc 05cd b13a
00000260: 3be6 013c 9049 2b3c be05 523c 25b1 253c
00000270: 0f41 403d 5690 49bd 070d 213d ea1b a13d
00000280: 4c2d 0f3d 5349 713c 905d a33b 4201 6f3d
00000290: 884d efbb 0312 a3bd cc3f d9bc ba5d e53c
000002a0: 3b76 cdbb 2a2b 4f3d ca01 a9bc 8c4c 6f3c
000002b0: b479 5a3d cd70 4e3d 1f43 56bd d6e0 2fbc
000002c0: dd01 42bd 02a4 91bd daf2 b43c d9b2 3f3c
000002d0: 9c1d e7bc e526 c83a 5c47 70bd 148f ebbc
000002e0: a213 99bc 958c 9cbc c75c b33c a8b7 3c3d
000002f0: 0a63 9a3d 606e 6f3c 482b 9cbd 763b 3ebb
00000300: be45 5fbd 8363 813b 082d 123c 6911 2ebc
00000310: 8181 723c 7942 853d c919 3f39 5911 dfbc
00000320: 5368 073d 8a94 6b3d ec14 08bd 12e8 ad3d
00000330: ba05 ce3c f653 383d 6574 ab3d 20e6 783c
00000340: 00f7 2f3d be40 7b3d 3b99 42bd 4626 15bd
00000350: 5db2 363d 3384 453d 8f55 3e3b 20b1 78bc
00000360: 1e91 503d 7ab9 c8bd c721 0abd 67db e93c
00000370: 0300 c8bc 3219 72bc 1d9f e3bc f9f4 943d
00000380: c081 433d b706 f83c f807 24bd ab27 683c
00000390: d102 623c a2ce f13c 0110 acbc a5b7 27bd
000003a0: 98d6 823d 375d 673d 86d6 59bc 4bbf 803d
000003b0: 744a 1bbc 5d3b 2bbd 11b3 723c bbf1 993d
000003c0: 7efb 583b 970b 003d 384a 61bd 6a19 76bd
000003d0: e599 b6bc 7281 2dbd 8560 833d 6b53 fe3b
000003e0: 5e28 cb3d b8b3 013c 5418 c5ba d827 97bd
000003f0: e307 24bd 94d7 7dbd 7d12 37bd 84bd 643d

layer_2.bias f4 [300]
-0.032569904 0.04014703 0.04356828 0.08341291 0.01030996 0.06339463 -0.01712753 -0.050203037
0.014926238 -0.026698131 -0.07466759 0.048867933 0.07529272 -0.005036598 0.05348572 0.028112048
0.019631663 0.032082867 0.017096108 0.025047772 -0.077424444 -0.07362701 0.025776166 0.054684147
0.055518206 0.048550017 -0.025661837 0.0053425687 -0.003951233 0.04590596 0.10937276 -0.0035873882
0.023072703 0.060724262 0.044056866 -0.0220345 -0.038687766 -0.058709655 0.07976611 0.060026266
-0.013700181 0.027611358 0.036226988 -0.016116736 0.087030545 0.0847067 -0.0028712729 0.054238603
0.020623486 0.048856698 0.06372195 0.028784083 0.07411902 -0.007224918 0.01148804 -0.020275015
-0.050833963 -0.004415048 0.102616765 0.027558962 0.06722536 -0.0028554793 0.04820501 0.050604876
0.068152376 -0.030550292 -0.015976667 0.0075529297 0.08854588 -0.06265131 0.085350506 -0.037916925
-0.062866114 0.08016427 0.07625097 0.027842315 0.018220099 -0.035162404 0.0024836613 -0.011705356
-0.07040984 0.047540624 0.07304125 0.036552984 0.015035681 -0.0042042662 0.034690216 0.09109599
-0.07391991 -0.02844593 0.023277568 -0.03713632 0.078388974 -0.016938008 0.0779022 -0.009980792
0.06583834 0.033743784 0.012266761 0.08647814 -0.002421292 0.035928886 0.056405105 -0.009660444
-0.012429524 -0.030513672 -0.016176961 0.02728893 -0.008656398 0.012718912 0.044413373 -0.059636425
0.056968857 0.06395594 0.056407463 -0.020708276 0.007459758 0.021037696 0.05317728 0.04063441
-0.0091058975 0.037794426 0.04758278 -0.008047984 0.09938743 0.07115472 -0.006215651 0.011280665
0.06134677 -0.059543017 0.008608145 0.0153008755 0.0319769 0.022775501 0.0958288 -0.027345853
-0.004477505 0.020488726 -0.046307363 -0.0021894476 0.02461209 0.049387626 -0.007895439 0.025734542
0.053146932 -0.05490165 0.043288507 -0.00885998 -0.041709863 0.0045071132 0.013153656 0.0007008875
-0.013971392 -0.017489452 -0.044486105 -0.009776239 0.115359776 0.022052253 0.08494308 0.0039433977
-0.034389824 0.08305269 -0.011261277 0.051110543 -0.0014073066 -0.054399803 0.05910292 -0.032376047
-0.037977073 -0.07462275 0.013551913 0.10490263 -0.024424627 0.04198426 0.0055107553 0.06546789
0.0021857843 -0.015452896 0.008260538 0.03132091 0.0007862245 0.04065518 -0.043927375 0.06423386
-0.014544226 0.027208338 -0.020758433 -0.0037058191 -0.091379866 0.07723792 -0.01991055 -0.016670221
-0.05316225 -0.0070706084 0.054012842 -0.01150468 0.040426284 0.09938159 0.026962578 0.06500936
-0.0337273 -0.04217283 0.0857706 0.098437846 0.0011425245 0.03323828 0.019608885 -0.017046094
0.07971207 0.076321766 0.04924371 0.005069227 0.014950072 0.023575395 -0.09558344 -0.008645822
0.06737493 0.016606068 0.07859835 0.068822354 0.068325244 -0.05934991 0.023404067 -0.0028049417
0.0957878 -0.04256683 -0.033959217 0.027272394 -0.048193242 0.072306395 0.02927195 -0.016014611
0.0037278722 0.021438072 0.07741738 0.09934182 0.11025219 0.07410909 0.077835456 0.1126134
-0.0143423285 0.06261055 -0.03175834 0.019696688 0.05439189 -0.022466514 -0.042737756 0.04956553
-0.04878904 0.02323069 0.049010105 0.061744027 0.0985957 0.055821434 0.05475963 0.06170078
00000000: 0568 05bd 3671 243d a774 323d 63d4 aa3d
00000010: 1beb 283c 0bd5 813d 094f 8cbc b3a1 4dbd
00000020: 2e8d 743c 0ab6 dabc 52eb 98bd be29 483d
00000030: 1233 9a3d 0c0a a5bb d813 5b3d 3d4b e63c
00000040: 95d2 a03c 5369 033d 230d 8c3c fc30 cd3c
00000050: b590 9ebd c2c9 96bd 8a28 d33c 7cfc 5f3d
00000060: 0f67 633d 62dc 463d c638 d2bc b710 af3b
00000070: 5879 81bb e307 3c3d d3fe df3d 631a 6bbb
00000080: f702 bd3c 01ba 783d f974 343d b281 b4bc
00000090: 1077 1ebd 8979 70bd 6a5c a33d 1ade 753d
000000a0: b976 60bc 3731 e23c c062 143d 3f07 84bc
000000b0: 123d b23d b57a ad3d f72b 3cbb 4c29 5e3d
000000c0: 96f2 a83c f61d 483d a780 823d 99cc eb3c
000000d0: b6cb 973d 01bf ecbb 5538 3c3c ca17 a6bc
000000e0: 4637 50bd 1bac 90bb bd28 d23d 55c3 e13c
000000f0: 73ad 893d fe22 3bbb 9e72 453d 0f47 4f3d
00000100: 7993 8b3d 9b44 fabc 80e1 82bc 917e f73b
00000110: 8b57 b53d 544f 80bd 3fcc ae3d c74e 1bbd
00000120: f3bf 80bd 2a2d a43d 7829 9c3d 9115 e43c
00000130: 5142 953c 7406 10bd ecc4 223b d2c7 3fbc
00000140: 0933 90bd f5b9 423d a796 953d 95b8 153d
00000150: 3858 763c f1c3 89bb 5417 0e3d 8990 ba3d
00000160: 5263 97bd 7007 e9bc 99b0 be3c 411c 18bd
00000170: 668a a03d 94c1 8abc 308b 9f3d 7a86 23bc
00000180: 40d6 863d ec36 0a3d 86fa 483c 731b b13d
00000190: 8aae 1ebb 2b2a 133d 0a09 673d d746 1ebc
000001a0: 34a5 4bbc cff7 f9bc 8c85 84bc 098d df3c
000001b0: 91d3 0dbc fc62 503c ccea 353d 5345 74bd
000001c0: 2d58 693d 55fb 823d 830b 673d 67a4 a9bc
000001d0: fc70 f43b 3f57 ac3c 6bd0 593d 4470 263d
000001e0: e730 15bc 54ce 1a3d 29e6 423d b1db 03bc
000001f0: a38b cb3d 91b9 913d a9ac cbbb 8ad2 383c
00000200: c046 7b3d 61e3 73bd 2d09 0d3c 86b0 7a3c
00000210: 36fa 023d b093 ba3c e441 c43d 6904 e0bc
00000220: 09b8 92bb f9d7 a73c caac 3dbd d67c 0fbb
00000230: 4b9f c93c ae4a 4a3d df5b 01bc 3fd1 d23c
00000240: 99b0 593d 8de0 60bd 4a4f 313d 7329 11bc
00000250: f6d7 2abd 68b0 933b 6f82 573c c4bb 373a
00000260: 44e8 64bc 0a46 8fbc 1037 36bd 852c 20bc
00000270: bf41 ec3d eda6 b43c a3f6 ad3d 9e37 813b
00000280: 58dc 0cbd 8717 aa3d 3881 38bc 4a59 513d
00000290: 6075 b8ba 54d2 5ebd e715 723d bf9c 04bd
000002a0: d98d 1bbd d0d3 98bd d808 5e3c 31d7 d63d
000002b0: 2816 c8bc b0f7 2b3d 9193 b43b 0714 863d
000002c0: 603f 0f3b 252e 7dbc 3557 073c 5b4a 003d
000002d0: a21a 4e3a 0c86 263d 31ed 33bd 0b8d 833d
000002e0: e84a 6ebc 05e4 de3c 970d aabc 54dd 72bb
000002f0: 5e25 bbbd ea2e 9e3d 731b a3bc fd8f 88bc
00000300: a9c0 59bd 90b0 e7bb 923c 5d3d 207e 3cbc
00000310: 0896 253d 9388 cb3d a0e0 dc3c a123 853d
00000320: a325 0abd 6bbd 2cbd 7fa8 af3d c899 c93d
00000330: c3c0 953a dd24 083d d0a2 a03c 40a4 8bbc
00000340: 1540 a33d 964e 9c3d c6b3 493d c21b a63b
00000350: 26f1 743c 3021 c13c 40c1 c3bd 35a7 0dbc
00000360: defb 893d 7309 883c 2cf8 a03d bcf2 8c3d
00000370: 1bee 8b3d e418 73bd e3b9 bf3c 1dd3 37bb
00000380: 652c c43d 8e5a 2ebd d218 0bbd 5b6a df3c
00000390: 4766 45bd 6015 943d bacb ef3c 1331 83bc
000003a0: 514f 743b e59e af3c 018d 9e3d b973 cb3d
000003b0: e6cb e13d 82c6 973d 3268 9f3d dba1 e63d
000003c0: 16fc 6abc f639 803d 0815 02bd f35a a13c
000003d0: 08ca 5e3d b20b b8bc c90d 2fbd 3a05 4b3d
000003e0: 04d7 47bd 4a4e be3c d2be 483d 4ee7 7c3d
000003f0: 8bec c93d 04a5 643d a24b 603d f5b9 7c3d

layer_3.weight f4 [6, 300]
-0.08417242 -0.06962399 0.008933232 -0.05374616 -0.08735731 0.075281985 -0.029274095 -0.011305318
-0.012548206 0.048134133 0.08914522 -0.16297893 0.03205802 0.05012964 -0.117647186 0.13535613
-0.097805016 0.089108236 -0.10111813 0.064438395 0.050409 0.015003522 0.019245954 -0.07472844
0.05924204 -0.11794999 0.08171269 -0.11118656 -0.04877417 -0.012423588 -0.022905942 -0.05612397
0.064089045 0.044337314 0.044200066 0.22136441 0.08081324 0.045496542 -0.11870811 -0.10447272
-0.05445467 -0.08005502 -0.1147338 -0.036078833 0.081866086 0.011453419 -0.07287291 -0.14784022
0.074988864 0.043477044 -0.012215985 -0.05804019 -0.0100184325 -0.10688588 0.01907697 0.07888318
-0.04437416 0.074620605 0.010775428 -0.13941376 -0.06782704 0.10831276 0.03863217 0.047822814
-0.0814698 -0.04155357 0.03540858 0.0651198 -0.0477961 -0.012547177 -0.01127904 0.14278874
-0.0010884998 -0.0313921 0.030901967 0.0056859907 -0.01872348 0.03362325 0.051662758 0.045855895
0.011471099 -0.0067344 0.012911251 0.02513349 0.035852287 -0.008301583 -0.058094878 -0.03948861
-0.06428042 -0.0075486097 -0.07191969 0.08717518 -0.01229798 -0.04550259 0.017938772 0.033183385
-0.13386519 -0.0767985 0.076707914 -0.016462585 0.10547562 -0.083821155 0.01522074 -0.067697465
0.08672592 0.09361483 0.1454256 -0.04819501 0.108637676 -0.15806873 -0.0853446 -0.039346747
0.04857012 -0.020235628 -0.08835727 0.034373604 -0.12378081 0.02696484 0.0025036973 -0.02964702
-0.07222983 -0.01321235 -0.09711664 0.111082815 -0.0579007 -0.083545245 -0.022622544 -0.0160982
-0.07305163 0.0408727 -0.147402 0.04833411 -0.03011784 -0.07320811 0.029561924 -0.029609885
0.01033632 0.06944051 -0.07508157 0.1465119 -0.08555237 -0.048812345 0.094312906 0.050973203
0.030669738 -0.045109518 0.09259445 0.124544606 0.032700427 -0.05849322 0.039103717 -0.09590009
-0.02536293 0.05956963 -0.035983354 0.009335097 -0.066599146 -0.009949592 0.013083634 0.057842035
0.042725813 -0.075738564 0.022473974 0.054628115 -0.045247924 -0.05376986 -0.07940623 0.0026598084
0.051391654 0.019904466 -0.016250025 0.026538951 0.20129275 0.039625067 -0.089261495 0.06712736
-0.035726838 -0.078051746 0.071302325 -0.0033982787 0.10898748 -0.117354125 0.034546096 -0.08111669
0.03629242 0.00045225676 0.14009698 0.014241842 -0.031252056 0.08034116 -0.06388112 0.09431757
-0.062222764 -0.04648013 -0.11994539 0.06537342 0.008013369 -0.04697319 -0.058155283 -0.021073012
0.009407263 0.051550653 0.0030799275 -0.042107522 0.04733329 0.056573834 -0.048389696 0.044084437
-0.016587177 0.002393916 -0.07857839 -0.10812417 0.06719863 0.109485544 -0.057536583 0.11760863
0.008232769 -0.05892488 0.04717107 0.03947879 0.053001706 0.02894686 -0.0642229 0.069333375
-0.042971507 -0.05881833 0.042534426 -0.060355015 0.12003333 -0.0136807365 -0.0076577524 -0.09156304
0.05482819 -0.038288027 0.07780252 -0.064691484 0.004021837 -0.050032355 -0.074765675 -0.0687374
0.09139273 -0.09780045 0.05631638 0.018135725 -0.120613605 0.085587025 -0.14643858 0.03569522
0.205903 0.069447055 0.06566847 0.041690268 -0.078777604 0.08375618 -0.017213786 -0.06234244
00000000: 9762 acbd 0697 8ebd b15c 123c ef24 5cbd
00000010: 64e8 b2bd 712d 9a3d 3ad0 efbc f139 39bc
00000020: fe96 4dbc 4c28 453d c591 b63d f3e3 26be
00000030: 454f 033d bd54 4d3d 02f1 f0bd cc9a 0a3e
00000040: ff4d c8bd 617e b63d 0617 cfbd 47f8 833d
00000050: ab79 4e3d 55d1 753c b1a9 9d3c 390b 99bd
00000060: c8a7 723d c48f f1bd fc58 a73d c7b5 e3bd
00000070: 6dc7 47bd 4e8c 4bbc 3ea5 bbbc 3fe2 65bd
00000080: 1e41 833d 0b9b 353d 210b 353d 5aad 623e
00000090: 6981 a53d 955a 3a3d 3d1d f3bd cbf5 d5bd
000000a0: dc0b 5fbd e3f3 a3bd 8ef9 eabd 66c7 13bd
000000b0: 68a9 a73d 1fa7 3b3c 643e 95bd 6d63 17be
000000c0: c393 993d fc14 323d 8e25 48bc 8dbb 6dbd
000000d0: 5a24 24bc fce6 dabd 4e47 9c3c 818d a13d
000000e0: aec1 35bd b0d2 983d 6c8b 303c 7bc2 0ebe
000000f0: e7e8 8abd 15d3 dd3d c43c 1e3d dbe1 433d
00000100: a3d9 a6bd 1434 2abd 9608 113d 885d 853d
00000110: d8c5 43bd ad92 4dbc b9cb 38bc 3637 123e
00000120: feab 8eba 0195 00bd 1f26 fd3c 8c51 ba3b
00000130: fc61 99bc 88b8 093d 549c 533d 64d3 3b3d
00000140: 47f1 3b3c 3eac dcbb b689 533c c0e4 cd3c
00000150: d9d9 123d 5d03 08bc e5f4 6dbd cfbe 21bd
00000160: 74a5 83bd 545a f7bb a14a 93bd e788 b23d
00000170: 777d 49bc ec60 3abd 55f4 923c 4deb 073d
00000180: f513 09be 8848 9dbd 0a19 9d3d 8bdc 86bc
00000190: 9a03 d83d 6daa abbd 6960 793c f8a4 8abd
000001a0: 5c9d b13d 22b9 bf3d 73ea 143e 2168 45bd
000001b0: 6e7d de3d c5dc 21be 26c9 aebd 0e2a 21bd
000001c0: 76f1 463d 30c5 a5bc a8f4 b4bd 56cb 0c3d
000001d0: cb80 fdbd 5ee5 dc3c 1215 243b 4fde f2bc
000001e0: 3ced 93bd 9d78 58bc 17e5 c6bd 637f e33d
000001f0: 4929 6dbd c519 abbd ea52 b9bc 5fe0 83bc
00000200: 189c 95bd 226a 273d 8df0 16be fdf9 453d
00000210: b0b9 f6bc 22ee 95bd d92b f23c 6e90 f2bc
00000220: ab59 293c d336 8e3d 5ec4 99bd 3707 163e
00000230: 1536 afbd 74ef 47bd 2027 c13d 47c9 503d
00000240: 1a3f fb3c c2c4 38bd 29a2 bd3d 3e11 ff3d
00000250: e2f0 053d 9696 6fbd 382b 203d 4467 c4bd
00000260: ebc5 cfbc 49ff 733d 4863 13bd 3cf2 183c
00000270: 2265 88bd 9d03 23bc bd5c 563c c5eb 6c3d
00000280: 4301 2f3d d21c 9bbd 571b b83c bbc1 5f3d
00000290: e355 39bd c93d 5cbd bc9f a2bd 2e50 2e3b
000002a0: 0e80 523d b10e a33c c61e 85bc 3768 d93c
000002b0: b01f 4e3e e54d 223d bbce b6bd 127a 893d
000002c0: 4e56 12bd 98d9 9fbd f406 923d a8b5 5ebb
000002d0: d434 df3d 5c57 f0bd 3580 0d3d 8220 a6bd
000002e0: 5ca7 143d e01c ed39 9575 0f3e 9d56 693c
000002f0: 2802 00bd e889 a43d 1bd4 82bd 9229 c13d
00000300: 4cdd 7ebd f361 3ebd eea5 f5bd 80e2 853d
00000310: 814a 033c f666 40bd 3c34 6ebd 4fa1 acbc
00000320: ec20 1a3c c726 533d 9cd8 493b f078 2cbd
00000330: 8de0 413d f7b9 673d 4634 46bd e291 343d
00000340: d5e1 87bc 3fe3 1c3b b5ed a0bd 3470 ddbd
00000350: 6f9f 893d f539 e03d 7bab 6bbd cbdc f03d
00000360: bce2 063c 375b 71bd 7436 413d 83b4 213d
00000370: 5118 593d f721 ed3c 4c87 83bd a8fe 8d3d
00000380: e402 30bd 7deb 70bd 9438 2e3d d236 77bd
00000390: 09d4 f53d 2b25 60bc e2ed fabb 6785 bbbd
000003a0: 8693 603d e8d3 1cbd ed56 9f3d f87c 84bd
000003b0: 9dc9 833b baee 4cbd bf1e 99bd 32c6 8cbd
000003c0: 1d2c bb3d 9a4b c8bd 01ac 663d 5f91 943c
000003d0: 4404 f7bd 4048 af3d fff3 15be 2735 123d
000003e0: 3cd8 523e 423a 8e3d 317d 863d 6ac3 2a3d
000003f0: 2756 a1bd 5c88 ab3d ed03 8dbc c95a 7fbd

layer_3.bias f4 [6]
-0.05677349 -0.09881867 -0.015607146 0.0038300117 0.042773485 -0.10800696
00000000: 528b 68bd 7161 cabd 1db5 7fbc ef00 7b3b
00000010: 4033 2f3d c132 ddbd
