pytorch_models/TD3_walker_stand_0119_actor.pth (torch, 521680 bytes, 6 tensors)

layer_1.weight f4 [400, 18]
-0.2914637 0.06198223 -0.38839933 -0.11566893 -0.07520799 -0.009539753 0.096044086 0.32797664
0.06566984 -0.059274185 -0.041883145 -0.059363436 -0.22897673 -0.13602671 -0.068959594 0.0048325104
0.098443516 0.12899186 -0.33876005 -0.12077178 0.16812053 0.45372966 -0.062230065 0.3319446
-0.10673373 0.15474385 0.2506175 -0.20799501 -0.14456587 -0.10652809 -0.10650901 0.21068843
-0.06478536 -0.15983343 -0.106786475 -0.238286 -0.21317025 0.17557321 0.17284262 -0.01365717
-0.05190489 -0.12448317 -0.06932414 -0.37211174 -0.45714283 -0.44235554 0.27872455 0.16645531
-0.114559636 -0.0047768936 0.051581196 0.25431585 0.07347707 0.08681877 0.19386859 -0.39489374
0.11214261 -0.4289204 -0.35606095 -0.17348355 0.22774872 0.10133367 0.012004922 0.2603273
0.20561261 -0.04400959 -0.015051471 0.07367091 0.11996695 0.17604485 -0.18953896 -0.055054527
0.14225484 0.27783912 0.1166139 0.26033562 0.04905716 -0.0896723 -0.016442176 -0.4090408
-0.27985865 0.25478557 0.20975983 -0.3044277 0.05714001 -0.07343641 -0.029864674 -0.15053241
0.13007969 -0.08945261 -0.14562666 0.055683587 0.19438127 0.38158214 -0.39397675 -0.07871121
0.08768746 -0.02252312 0.07883879 -0.21143946 0.3021185 0.16428034 -0.11806765 -0.115565665
-0.17583418 -0.027457636 -0.18851645 -0.186489 0.24778399 -0.026366709 -0.29493153 0.13101052
-0.21375857 0.37401396 0.13617149 -0.2945914 -0.097099334 -0.060317624 0.13289179 0.05956028
0.09447452 -0.00823553 -0.067689955 0.1379877 -0.21383698 -0.15208861 -0.25355557 -0.2251379
0.09812843 -0.15026061 -0.14735088 -0.17058147 0.08920018 -0.25571418 0.1586785 -0.14887202
-0.012846213 -0.08292019 0.010645168 0.14256123 0.22304215 0.1507013 0.24181105 -0.018129297
-0.4130982 -0.072678305 0.28742373 0.016362812 -0.37018654 -0.14715731 -0.41902572 -0.1914312
0.13590097 -0.065360874 0.025889635 -0.29372513 0.14244609 -0.2214323 -0.039238557 -0.10699359
-0.06277734 -0.0107984 -0.42418006 -0.018130388 -0.075096734 -0.030725839 -0.1557424 -0.094049096
-0.15908141 -0.1850475 0.5286314 0.046384506 0.2850855 0.14130495 -0.1913583 0.13077912
-0.012598475 -0.07598468 0.17138503 -0.16051258 0.44688034 -0.11656864 0.25504926 -0.03170769
0.20613569 0.2672264 -0.018159676 0.07674711 -0.265366 0.37574792 0.21671309 0.16860296
-0.2210574 0.019014042 -0.12278414 -0.19115618 -0.1098908 0.08029089 -0.27233392 0.04033782
0.15035295 0.033735104 -0.28493118 -0.21328513 -0.28974715 0.34008098 -0.18119258 0.3889148
-0.025718473 0.07765914 -0.0017549 -0.0037767286 0.0002676987 -0.04363347 -0.039894678 -0.0035433087
-0.23347922 0.028412402 0.3853306 -0.13444066 0.03538529 0.37221718 0.2683217 -0.02603279
-0.15705025 0.25470832 -0.2896239 -0.08463966 -0.09652632 -0.0129200425 -0.007232843 0.23898387
-0.0019027293 0.17272642 -0.026765104 -0.2525055 0.14137326 -0.35630715 -0.39624822 -0.031344566
0.2976708 0.115253545 0.24142496 -0.07025664 0.022446241 -0.30786747 0.08073271 -0.1798532
-0.02011685 -0.08889094 -0.044470485 0.005070168 0.3589834 -0.13233137 -0.2643052 -0.051667444
00000000: bb3a 95be 14e1 7d3d 47dc c6be d5e3 ecbd
00000010: a606 9abd a04c 1cbc c3b2 c43d 8eec a73e
00000020: e97d 863d 7dc9 72bd a98d 2bbd 1327 73bd
00000030: e078 6abe 964a 0bbe b03a 8dbd 095a 9e3b
00000040: c19c c93d 7116 043e f571 adbe 3257 f7bd
00000050: ca27 2c3e 414f e83e f4e4 7ebd a5f4 a93e
00000060: 3797 dabd 2c75 1e3e f050 803e a5fc 54be
00000070: 1309 14be 662b dabd 6521 dabd b5be 573e
00000080: 30ae 84bd 60ab 23be deb2 dabd 3f01 74be
00000090: 4d49 5abe 77c9 333e a8fd 303e 53c2 5fbc
000000a0: 399a 54bd 08f1 febd d1f9 8dbd 6e85 bebe
000000b0: a00e eabe 6d7c e2be fcb4 8e3e 4373 2a3e
000000c0: 3e9e eabd 7d87 9cbb ce46 533d b035 823e
000000d0: 257b 963d 0ace b13d 7d85 463e 832f cabe
000000e0: 06ab e53d 749b dbbe 9f4d b6be aca5 31be
000000f0: f636 693e 0788 cf3d 4bb0 443c 9f49 853e
00000100: 1d8c 523e 6643 34bd 729a 76bc c6e0 963d
00000110: 3bb1 f53d 1a45 343e 8016 42be db80 61bd
00000120: 41ab 113e ee40 8e3e 45d3 ee3d b64a 853e
00000130: 29f0 483d 1ca6 b7bd beb1 86bc cc6d d1be
00000140: a249 8fbe 4173 823e 48cb 563e f3dd 9bbe
00000150: a50b 6a3d d465 96bd c3a6 f4bc 2b25 1abe
00000160: 9c33 053e ee32 b7bd 281f 15be 7914 643d
00000170: e20b 473e bc5e c33e 52b7 c9be 5833 a1bd
00000180: 7c95 b33d 6882 b8bc 3b76 a13d 9683 58be
00000190: 47af 9a3e 1b39 283e 74cd f1bd b1ad ecbd
000001a0: e00d 34be d6ee e0bc 750a 41be f9f6 3ebe
000001b0: 16bb 7d3e fffe d7bc 4401 97be 9f27 063e
000001c0: 87e3 5abe c27e bf3e 8a70 0b3e afd4 96be
000001d0: 04dc c6bd 9d0f 77bd c914 083e 7bf5 733d
000001e0: db7b c13d 51ee 06bc 08a1 8abd a64c 0d3e
000001f0: 15f8 5abe 1ebd 1bbe 09d2 81be 8d8a 66be
00000200: 8ff7 c83d ebdd 19be 26e3 16be e9ac 2ebe
00000210: 95ae b63d f8ec 82be 9e7c 223e e871 18be
00000220: ec78 52bc 10d2 a9bd 1269 2e3c 92fb 113e
00000230: 2965 643e 7151 1a3e 519d 773e e483 94bc
00000240: 9b81 d3be 5dd8 94bd 3429 933e 4e0b 863c
00000250: 1789 bdbe 68b0 16be 8a8a d6be 8a06 44be
00000260: a029 0b3e ecdb 85bd 8016 d43c 2463 96be
00000270: 63dd 113e 26bf 62be 9cb8 20bd 751f dbbd
00000280: 6891 80bd c6eb 30bc 212e d9be 2e86 94bc
00000290: 51cc 99bd c1b4 fbbc f07a 1fbe d09c c0bd
000002a0: 3de6 22be 187d 3dbe 6354 073f aefd 3d3d
000002b0: baf6 913e 3fb2 103e 6ef3 43be f6ea 053e
000002c0: d669 4ebc db9d 9bbd 8f7f 2f3e 695d 24be
000002d0: 80cd e43e 8abb eebd d195 823e ecdf 01bd
000002e0: 3c15 533e e6d1 883e 9ac3 94bc 972d 9d3d
000002f0: 0dde 87be 0862 c03e 09ea 5d3e 41a6 2c3e
00000300: df5c 62be 56c3 9b3c 4076 fbbd 72be 43be
00000310: 6e0e e1bd 8d6f a43d 5a6f 8bbe 4539 253d
00000320: 20f6 193e d22d 0a3d 80e2 91be 6b67 5abe
00000330: bd59 94be 181f ae3e 8c8a 39be d71f c73e
00000340: 8caf d2bc c10b 9f3d ac04 e6ba fe82 77bb
00000350: e959 8c39 02b9 32bd 9a68 23bd db36 68bb
00000360: 2d15 6fbe 20c1 e83c 0d4a c53e d0aa 09be
00000370: 2af0 103d 4093 be3e 7661 893e b842 d5bc
00000380: c8d1 20be 2169 823e 9549 94be 8f57 adbd
00000390: 97af c5bd 96ae 53bc 7c01 edbb 30b8 743e
000003a0: 0065 f9ba 32df 303e 7e42 dbbc 6748 81be
000003b0: 27c4 103e e46d b6be 0ce1 cabe 2963 00bd
000003c0: 4f68 983e 0d0a ec3d 1b38 773e b7e2 8fbd
000003d0: 2ee1 b73c cea0 9dbe 3157 a53d 702b 38be
000003e0: 18cc a4bc 740c b6bd af26 36bd a723 a63b
000003f0: accc b73e e081 07be 0353 87be 3ea1 53bd

layer_1.bias f4 [400]
0.33172467 0.021481762 0.037861485 0.109750874 0.14037088 0.09284844 0.012185676 0.23952226
-0.05319245 0.078449145 -0.22500871 0.3784399 0.073410675 0.3188882 -0.1911183 -0.04021915
-0.06240619 0.06517984 0.23471777 0.46840754 -0.07549475 -0.08445814 0.0060154162 -0.23692498
0.31658867 -0.035670415 0.1583221 -0.10232234 0.44706112 -0.198725 0.034483816 0.24182257
0.4116073 0.44182047 0.45092806 -0.16776255 0.10908359 -0.13396417 0.3754669 0.33973852
0.023757784 0.27748638 0.34610403 0.22799401 0.14799905 0.16318248 0.067530386 0.15768026
0.061346766 -0.17135939 0.20141804 -0.3313439 0.27823645 0.45909888 0.28739932 0.3377346
0.029728577 0.39671826 0.19127317 -0.21069172 -0.13039762 -0.0022884293 0.23274182 -0.14069504
0.07650267 0.24613862 0.53556556 0.25516126 0.041920952 0.035758752 0.006038994 -0.09279975
-0.16662498 -0.15467934 -0.05682834 0.28845274 -0.06610998 -0.040649425 -0.17181584 0.1124109
-0.22176032 -0.2563073 0.17329045 0.010440942 0.10459777 -0.014670688 -0.047230184 0.0854635
-0.124666005 -0.017833827 -0.12823671 0.46075585 -0.006853908 0.29108348 0.27440274 0.07463966
0.14019856 -0.020061487 0.38297412 0.45697427 0.16745473 0.42342782 -0.23415305 0.47767845
0.054856487 0.25043747 -0.073969424 0.15767252 0.24604036 -0.22720361 0.25386035 0.054975104
0.30461928 0.0009245229 0.08260024 0.20215209 -0.25689453 -0.10287153 -0.041527137 -0.26467508
-0.2161213 -0.20612311 0.12556407 -0.19317067 0.05900944 -0.024106668 -0.078960694 -0.10621576
0.069081426 0.16844773 -0.05753756 0.42868954 -0.20319769 0.031309146 -0.091312736 0.46337843
-0.033623055 0.35021463 0.0641196 0.36025175 0.019977735 -0.14017825 -0.063571416 0.31994224
0.39317232 -0.019532904 0.0136415465 -0.104446664 -0.011300237 -0.02149346 0.20486523 -0.20146088
0.05200451 -0.013762674 -0.13464165 0.101597846 0.09842114 -0.21239172 -0.15221305 0.012504784
0.017273018 0.006777433 0.071905166 0.17062452 -0.22779654 -0.03808969 0.23639037 0.031104714
0.091522016 -0.2518131 0.025821276 -0.0448454 -0.22819269 0.17510845 0.076403655 -0.2642427
0.26603588 -0.1842574 -0.0179467 -0.090115756 0.2732578 -0.13261151 0.48988256 0.30638707
-0.047240645 -0.17450917 0.042319167 -0.123580284 0.30294466 0.19553648 0.3529386 0.33882454
-0.17192252 -0.095523335 0.3670013 0.29996923 0.37177107 -0.124198824 0.15022662 -0.19486618
0.2433532 -0.25680208 0.37113172 -0.12903042 0.20016699 0.35163495 -0.17186569 0.26286054
-0.265338 0.16735303 0.33123586 -0.013004398 -0.09635452 -0.115535796 0.3328638 0.0153739285
0.129744 0.389928 0.057130728 -0.15845068 0.20663819 0.14930148 0.45592016 0.32505223
0.04858197 -0.13185877 0.16213076 -0.08201783 0.22307849 0.1941519 0.3505922 0.2088575
-0.004466548 -0.3514432 -0.23714384 0.44255772 0.05636205 -0.14955704 0.41290838 -0.40668562
0.30798912 0.43584904 -0.04256324 0.17814691 0.38907382 -0.039962944 -0.18910812 0.15352368
0.07727057 -0.09689416 -0.11139479 0.5081357 0.104216956 -0.13982455 0.3302822 0.13153872
00000000: d1d7 a93e 85fa af3c a514 1b3d 11c5 e03d
00000010: 62bd 0f3e 5327 be3d 6ea6 473c 5345 753e
00000020: 54e0 59bd f2a9 a03d af68 66be e0c2 c13e
00000030: 5658 963d 5045 a33e 84b4 43be d6bc 24bd
00000040: a29d 7fbd 027d 853d db59 703e 1dd3 ef3e
00000050: fe9c 9abd 64f8 acbd f81c c53b 769c 72be
00000060: e917 a23e 241b 12bd 301f 223e 608e d1bd
00000070: 32e5 e43e 917e 4bbe e73e 0d3d 56a0 773e
00000080: 31be d23e 4b36 e23e 0be0 e63e f2c9 2bbe
00000090: 3867 df3d e72d 09be 333d c03e 35f2 ad3e
000000a0: af9f c23c b212 8e3e 8c34 b13e 4377 693e
000000b0: 108d 173e 4f19 273e 5f4d 8a3d ef76 213e
000000c0: bf46 7b3d d678 2fbe 8840 4e3e e8a5 a9be
000000d0: 0275 8e3e 020f eb3e 0126 933e 8deb ac3e
000000e0: 5889 f33c a81e cb3e 1ddd 433e 92bf 57be
000000f0: f486 05be 79f9 15bb df53 6e3e 5c12 10be
00000100: 6fad 9c3d c30b 7c3e d31a 093f 7fa4 823e
00000110: 4eb5 2b3d c577 123d c1e2 c53b cc0d bebd
00000120: bd9f 2abe 4364 1ebe d5c4 68bd 14b0 933e
00000130: ab64 87bd 0380 26bd 7ef0 2fbe b037 e63d
00000140: 2315 63be b63a 83be 0d73 313e 7c10 2b3c
00000150: 5b37 d63d 535d 70bc 7074 41bd 7d07 af3d
00000160: e450 ffbd 3f18 92bc 7c50 03be 31e8 eb3e
00000170: bf96 e0bb e508 953e 847e 8c3e aedc 983d
00000180: 3690 0f3e fd57 a4bc 2f15 c43e 88f8 e93e
00000190: 4179 2b3e 88cb d83e d1c5 6fbe 4592 f43e
000001a0: 32b1 603d 5739 803e 487d 97bd e874 213e
000001b0: 01f2 7b3e 10a8 68be fcf9 813e 932d 613d
000001c0: 0ff7 9b3e ae5b 723a 512a a93d f500 4f3e
000001d0: ae87 83be 4fae d2bd 5c18 2abd 7e83 87be
000001e0: e74e 5dbe f011 53be de93 003e 88ce 45be
000001f0: e2b3 713d 597b c5bc 25b6 a1bd a687 d9bd
00000200: 907a 8d3d 907d 2c3e 81ac 6bbd 327d db3e
00000210: 0e13 50be 053e 003d 2c02 bbbd f03f ed3e
00000220: 54b8 09bd 554f b33e 2351 833d eb72 b83e
00000230: 59a8 a33c e38a 0fbe bb31 82bd 78cf a33e
00000240: e24d c93e 7803 a0bc cb80 5f3c 22e8 d5bd
00000250: a124 39bc 0d13 b0bc 31c8 513e c34b 4ebe
00000260: ae02 553d d77c 61bc 80df 09be 8812 d03d
00000270: 0691 c93d 377d 59be bddd 1bbe dee0 4c3c
00000280: 2580 8d3c 3b15 de3b 0443 933d 32b8 2e3e
00000290: 7f43 69be ef03 1cbd 5110 723e 50cf fe3c
000002a0: e56f bb3d a6ed 80be 2487 d33c cfaf 37bd
000002b0: 58ab 69be a14f 333e 8579 9c3d d24a 87be
000002c0: db35 883e f9ad 3cbe f504 93bc 9c8e b8bd
000002d0: 72e8 8b3e 50cb 07be e3d1 fa3e c4de 9c3e
000002e0: 687f 41bd 88b2 32be dd56 2d3d a917 fdbd
000002f0: 901b 9b3e b73a 483e 5eb4 b43e 697a ad3e
00000300: 750c 30be bda1 c3bd 98e7 bb3e 9195 993e
00000310: c758 be3e f45b febd 02d5 193e 008b 47be
00000320: 9531 793e 907b 83be fa04 be3e 8d20 04be
00000330: 93f8 4c3e 7f09 b43e 8ffd 2fbe a895 863e
00000340: 62da 87be 985e 2b3e bf97 a93e 6610 55bc
00000350: 8555 c5bd 089e ecbd 206d aa3e eee2 7b3c
00000360: 9cdb 043e a5a4 c73e e901 6a3d e540 22be
00000370: f698 533e 7de2 183e 5e6e e93e 3f6d a63e
00000380: e3fd 463d fc05 07be 9b05 263e f7f8 a7bd
00000390: b06e 643e c1cf 463e d280 b33e bede 553e
000003a0: 1f5c 92bb 5df0 b3be d6d5 72be ed96 e23e
000003b0: e5db 663d 7b25 19be ba68 d33e 1939 d0be
000003c0: c0b0 9d3e 9b27 df3e cb56 2ebd 256c 363e
000003d0: af34 c73e 2fb0 23bd 8fa5 41be 5035 1d3e
000003e0: 0840 9e3d 7270 c6bd f422 e4bd 2e15 023f
000003f0: b36f d53d 2b2e 0fbe c01a a93e 16b2 063e

layer_2.weight f4 [300, 400]
0.036465086 0.0051953867 -0.047848377 -0.0621838 0.023559963 0.006601561 -0.12234298 -0.09145296
0.04442054 0.019173162 0.032215312 0.03888221 -0.014793957 -0.025047325 -0.16540308 -0.10656074
-0.12509137 -0.042358756 0.08974919 -0.18314143 -0.07128344 0.006301843 -0.12359729 -0.050779413
-0.09252854 0.03499665 -0.02227727 -0.05281074 -0.05238034 -0.08535916 -0.0037684347 0.056986216
0.033259682 -0.078876324 -0.0824214 0.007838457 0.11922463 0.0474173 -0.046384405 0.058489487
-0.13363081 0.018216385 -0.006480859 0.018971087 -0.04514532 -0.026976045 0.12814079 0.011157405
-0.08759674 0.1847844 0.023216661 -0.08886102 0.03956965 -0.007954821 -0.09172091 0.093945056
0.010302851 -0.11291521 0.020271134 -0.048135355 0.05261824 0.009282892 -0.10692836 0.106894106
0.018858502 -0.028907338 -0.11401791 -0.02647189 -0.06691657 -0.032647017 0.0617396 -0.043450553
-0.08659938 0.027222175 0.007894384 0.08200615 -0.025927296 0.04694918 0.017049626 -0.10119955
0.0031427192 -0.028621873 0.08593918 0.014450331 -0.04909851 -0.1253857 0.13771495 -0.2553856
-0.07441805 0.018930376 -0.0042361068 0.04667039 0.038020466 0.13709185 -0.0030016818 -0.035169024
-0.07176385 -0.16823289 -0.13140877 -0.028874053 -0.073253706 -0.1386824 0.022544391 0.08574389
0.016595358 0.079962455 -0.07856026 0.060822215 0.0028886243 0.013990688 -0.060659446 -0.030583162
-0.11928246 0.088432044 0.03769786 0.017985556 -0.01905497 0.12830089 0.046452053 0.08621256
-0.122974 -0.014076562 -0.0054552816 0.015703445 -0.0114631625 0.039618134 0.10126795 0.0035972164
0.0022790853 -0.035988588 -0.039277326 0.057685938 0.023425646 -0.041068632 -0.055098295 -0.10038466
-0.09375688 -0.12534899 0.04133682 0.014422262 -0.032664757 -0.02060829 0.037494957 -0.07495868
0.02330258 -0.06603797 -0.03321697 0.039445277 -0.005660289 -0.08709573 0.012548261 -0.011252467
0.12448721 -0.08486959 -0.062063858 0.016522143 0.023370596 -0.09049519 0.039831854 0.14756078
0.063688785 0.010106512 -0.005355057 0.13709472 -0.010941174 -0.07047784 0.028402675 0.077292055
-0.041020844 0.05089005 -0.093561836 0.040430408 0.03260643 0.034828745 -0.05743955 -0.033562433
-0.030023672 -0.12249694 0.022053929 -0.008305929 -0.020820552 -0.042624254 -0.08320031 -0.08405025
-0.029294532 -0.05936631 -0.056629993 0.002605003 0.03705665 -0.012342584 -0.10457868 0.024616467
-0.17153612 -0.1309372 0.03733411 0.036296863 -0.05476323 0.09648398 0.026348341 -0.007669978
-0.07863014 0.048060436 0.00603282 0.124185234 -0.04934156 -0.031627335 0.07288531 0.03521707
0.0704056 0.03028836 -0.035830814 0.0693651 0.052591957 0.11306275 0.044547442 -0.074817315
-0.007688058 -0.15103632 -0.077440314 0.01105888 -0.049916506 -0.12456394 -0.05801868 0.19164307
0.05447505 0.016144397 -0.055051927 0.0014945818 0.038769092 0.02486418 0.05391933 -0.091393664
0.09165777 -0.005448691 -0.058035914 0.1734756 0.031749453 -0.044743072 -0.00779514 0.094143085
-0.037201725 0.017812481 -0.070452295 -0.12163412 0.018345386 -0.08773546 0.064861186 0.080914065
0.1440916 -0.057132542 0.008993644 -0.14578956 -0.050976172 -0.11710508 -0.026666181 0.045665845
00000000: 6a5c 153d 103e aa3b a9fc 43bd 71b4 7ebd
00000010: d300 c13c e851 d83b f58e fabd b14b bbbd
00000020: 50f2 353d 0911 9d3c 34f4 033d f442 1f3d
00000030: 5a62 72bc 0c30 cdbc 6d5f 29be 843c dabd
00000040: f417 00be 6080 2dbd 6cce b73d 6d89 3bbe
00000050: 0dfd 91bd b17f ce3b 9320 fdbd 13fe 4fbd
00000060: 9a7f bdbd a658 0f3d d27e b6bc 1350 58bd
00000070: c48c 56bd c9d0 aebd d8f7 76bb 616a 693d
00000080: 4e3b 083d e989 a1bd 8dcc a8bd df6c 003c
00000090: 0b2c f43d a538 423d 93fd 3dbd ac92 6f3d
000000a0: 84d6 08be 873a 953c 635d d4bb 4169 9b3c
000000b0: 4dea 38bd defc dcbc 5737 033e 8ccd 363c
000000c0: eb65 b3bd 1f38 3d3e de30 be3c c4fc b5bd
000000d0: c913 223d f054 02bc 2cd8 bbbd 4466 c03d
000000e0: 4acd 283c 1740 e7bd a60f a63c 9429 45bd
000000f0: 3986 573d 4517 183c 42fd dabd 4ceb da3d
00000100: 257d 9a3c 15cf ecbc 3982 e9bd 94db d8bc
00000110: 8e0b 89bd e1b8 05bd aae2 7c3d 35f9 31bd
00000120: 045b b1bd 0a01 df3c 7257 013c d7f2 a73d
00000130: 7b65 d4bc c94d 403d a8ab 8b3c b641 cfbd
00000140: 14f6 4d3b 6b78 eabc e100 b03d 15c1 6c3c
00000150: 851b 49bd 1c65 00be 2605 0d3e e7c1 82be
00000160: 7e68 98bd e013 9b3c 0acf 8abb 7329 3f3d
00000170: 59bb 1b3d ce61 0c3e ddb7 44bb 650d 10bd
00000180: edf8 92bd 3e45 2cbe 0590 06be 4789 ecbc
00000190: 0a06 96bd c202 0ebe 04af b83c 7e9a af3d
000001a0: fdf2 873c 5bc3 a33d 34e4 a0bd b720 793d
000001b0: 134f 3d3b 3339 653c 0a76 78bd 8a89 fabc
000001c0: 5d4a f4bd dc1b b53d 1269 1a3d 7256 933c
000001d0: 2b19 9cbc 4f61 033e 8244 3e3d 3690 b03d
000001e0: cbd9 fbbd 61a1 66bc 38c2 b2bb 83a4 803c
000001f0: fdcf 3bbc a046 223d 9265 cf3d 47bf 6b3b
00000200: b55c 153b c568 13bd 43e1 20bd 1748 6c3d
00000210: 24e7 bf3c 9537 28bd c0ae 61bd 7996 cdbd
00000220: 9b03 c0bd 7c5b 00be cc50 293d 5a4b 6c3c
00000230: 7bcb 05bd b7d2 a8bc 5094 193d f083 99bd
00000240: 0de5 be3c ea3e 87bd 840e 08bd 5f91 213d
00000250: f279 b9bb 3f5f b2bd 3997 4d3c 445c 38bc
00000260: 26f3 fe3d 1cd0 adbd ac36 7ebd 7259 873c
00000270: b173 bf3c 8b55 b9bd ba26 233d 2c1a 173e
00000280: 446f 823d c995 253c 7979 afbb 8f62 0c3e
00000290: 9c42 33bc b056 90bd baac e83c 4c4b 9e3d
000002a0: 7905 28bd 1672 503d 599d bfbd 5b9a 253d
000002b0: 528e 053d 96a8 0e3d bc45 6bbd c378 09bd
000002c0: 34f4 f5bc addf fabd 71aa b43c 9715 08bc
000002d0: dd8f aabc c596 2ebd ed64 aabd 8a22 acbd
000002e0: 16fb efbc 162a 73bd daf4 67bd b3b8 2a3b
000002f0: b7c8 173d 8d38 4abc 592d d6bd 79a8 c93c
00000300: 2aa7 2fbe 6714 06be a7eb 183d 05ac 143d
00000310: 694f 60bd 6599 c53d 7ad8 d73c 7054 fbbb
00000320: d708 a1bd 05db 443d f6ae c53b d454 fe3d
00000330: 601a 4abd aa8b 01bd e544 953d c63f 103d
00000340: d030 903d 4b1f f83c 55c3 12bd 4a0f 8e3d
00000350: aa6a 573d 718d e73d 6177 363d d239 99bd
00000360: 1bec fbbb 44a9 1abe 0799 9ebd 4e30 353c
00000370: 4075 4cbd 611b ffbd ffa4 6dbd 153e 443e
00000380: 3b21 5f3d 4141 843c 217e 61bd d8e5 c33a
00000390: 57cc 1e3d f7af cb3c 84da 5c3d 9a2c bbbd
000003a0: 12b7 bb3d ef8a b2bb 11b7 6dbd 96a3 313e
000003b0: b70b 023d 8344 37bd 606e ffbb 17ce c03d
000003c0: d660 18bd 7beb 913c 4b49 90bd 4f1b f9bd
000003d0: 1049 963c a6ae b3bd f1d5 843d 46b6 a53d
000003e0: c08c 133e d003 6abd 145a 133c dc49 15be
000003f0: 64cc 50bd cad4 efbd 0973 dabc 1c0c 3b3d

layer_2.bias f4 [300]
-0.024265198 -0.041801065 -0.06115752 0.071930066 -0.104879856 -0.15880457 -0.22902267 -0.09423298
-0.021067176 0.12648575 -0.03178107 0.011247323 0.074865356 0.090932384 -0.03191185 -0.07986582
-0.08343032 0.15056846 0.023228614 -0.2307604 0.03478875 0.036040053 0.034834664 0.020836987
-0.13825275 -0.051319886 -0.09606657 -0.082927324 0.08639211 0.032332014 0.05948838 -0.16363503
-0.09317617 0.13610394 0.052258555 -0.09295971 -0.07209982 0.010559292 0.05944037 -0.015608922
-0.08501984 -0.08986788 0.056669578 -0.11239411 0.08514883 0.07700123 -0.074760444 0.13628061
0.026268343 0.03054343 -0.074175425 0.016447674 0.038404856 -0.09484013 0.017467452 0.03583972
-0.03646707 0.07352755 -0.14824681 0.082911864 -0.03457957 0.04650784 0.08053017 -0.08323284
0.004616621 -0.061425876 0.013051224 -0.22560544 -0.06919115 -0.063535295 -0.07932472 -0.097049214
-0.06477209 0.05618634 0.02428095 0.08872525 0.019771151 -0.1628478 -0.0054042744 0.041112866
-0.111752495 -0.004443739 0.04808768 0.03444645 0.10883667 0.032955624 0.021554261 0.026665205
-0.17261252 -0.01769132 -0.222051 -0.0402664 0.024361735 0.10825358 0.080046564 0.084111065
-0.13245243 -0.038574915 0.101780415 0.058348928 -0.029791044 0.012565931 0.09839066 -0.08476472
0.11528524 -0.03519082 0.010092051 0.04940876 -0.10615486 -0.1547953 -0.07187057 -0.23409478
-0.010464612 -0.15290138 0.040443134 -0.061952457 -0.010349515 0.0827831 0.039171185 -0.01670548
0.03673124 0.09721681 0.028515972 0.030530538 -0.012117532 -0.05685097 -0.049323775 0.05005661
0.08772525 -0.0035508322 0.030918626 0.042377226 0.006619057 -0.16361082 0.028030396 0.037441716
-0.063683756 0.038220685 0.08386333 -0.008287884 -0.046153996 -0.011300735 0.0937639 0.037327357
-0.081448525 -0.050480854 0.03554745 0.12002883 0.12642513 0.003522828 0.12128404 -0.11020455
-0.10064264 0.11749636 -0.045436837 -0.098146535 0.029242052 0.03043894 0.13007826 0.054025915
-0.010130766 0.07471338 0.10207519 0.22299768 -0.06307372 -0.098121226 -0.13396695 0.0059249504
0.05943997 0.09603057 -0.08313782 0.111176565 0.1294745 0.038587056 -0.09382696 0.065917425
-0.18999226 -0.08798483 0.20122147 0.12780342 0.040388923 -0.08024371 -0.12905008 -0.061325736
-0.32414103 -0.10627544 0.026104813 0.14513797 -0.090961896 -0.0010168157 0.014816793 0.027488634
-0.31770155 -0.0006518768 0.030386534 0.13137525 -0.092887856 0.040344108 0.07760931 -0.03740892
0.05956288 0.06346339 0.020054726 -0.040463638 0.1368627 0.024691379 -0.151067 0.046564627
0.14186935 -0.047377173 0.030168407 -0.07339985 0.020768726 0.044533517 -0.07404819 0.10995333
0.028516166 0.047167845 0.12320761 0.030687392 0.08075998 -0.13547942 0.015436304 -0.033171184
0.075858645 0.019631112 0.098126374 0.06284994 -0.043134857 0.1087825 0.01973797 -0.027170416
-0.02186568 0.08123404 0.09458487 0.13076247 0.10111832 0.1868352 -0.015198082 0.11554378
0.10527096 0.04340475 0.03442404 0.13059428 0.03820299 0.027451357 0.05001332 -0.039132535
-0.092651 0.08147573 0.054007344 0.0678273 -0.16725475 0.0623354 0.029052956 -0.05858605
00000000: cfc7 c6bc 9837 2bbd 4f80 7abd 1250 933d
00000010: 40cb d6bd aa9d 22be eb84 6abe 38fd c0bd
00000020: 1295 acbc 7b85 013e de2c 02bd b146 383c
00000030: 0253 993d c23a ba3d 00b6 02bd b190 a3bd
00000040: 84dd aabd 9e2e 1a3e ef49 be3c 744c 6cbe
00000050: a67e 0e3d bc9e 133d cbae 0e3d 54b2 aa3c
00000060: 2192 0dbe cd34 52bd 8dbe c4bd cdd5 a9bd
00000070: 59ee b03d 936e 043d 16aa 733d f18f 27be
00000080: 26d3 bebd d55e 0b3e 110d 563d a961 bebd
00000090: 12a9 93bd e100 2d3c bf77 733d 90bc 7fbc
000000a0: e21e aebd a70c b8bd 5c1e 683d e22e e6bd
000000b0: 8362 ae3d d2b2 9d3d 011c 99bd 258d 0b3e
000000c0: b530 d73c 3736 fa3c 49e9 97bd 46bd 863c
000000d0: 694e 1d3d 8b3b c2bd e717 8f3c accc 123d
000000e0: 7f5e 15bd 9d95 963d 03ce 17be b2cd a93d
000000f0: 4fa3 0dbd 017f 3e3d 00ed a43d fb75 aabd
00000100: 0647 973b b399 7bbd cdd4 553c 1d05 67be
00000110: 17b4 8dbd cb1e 82bd 0075 a2bd bdc1 c6bd
00000120: 3ba7 84bd a623 663d d8e8 c63c 95b5 b53d
00000130: 1cf7 a13c 93c1 26be 5716 b1bb f765 283d
00000140: 7ede e4bd c99c 91bb 96f7 443d b917 0d3d
00000150: c3e5 de3d 7afc 063d 9092 b03c fd70 da3c
00000160: 56c1 30be 63ed 90bc 5661 63be 61ee 24bd
00000170: 4392 c73c 0eb4 dd3d 74ef a33d 6c42 ac3d
00000180: 9ca1 07be bb00 1ebd 4072 d03d 49ff 6e3d
00000190: 590c f4bc 56e1 4d3c 0b81 c93d 2099 adbd
000001a0: ab1a ec3d 4024 10bd 2159 253c d760 4a3d
000001b0: b867 d9bd a982 1ebe e130 93bd 8bb6 6fbe
000001c0: c473 2bbc 2e92 1cbe b3a7 253d dcc1 7dbd
000001d0: 0391 29bc 308a a93d f771 203d eed9 88bc
000001e0: 7f73 163d 9b19 c73d 549a e93c 2e1b fa3c
000001f0: 9d88 46bc 90dc 68bd ba07 4abd 2908 4d3d
00000200: 4ca9 b33d 14b5 68bb 0f49 fd3c be93 2d3d
00000210: ade4 d83b 9889 27be 00a0 e53c 7c5c 193d
00000220: a16c 82bd 4b8d 1c3d 8ac0 ab3d e8c9 07bc
00000230: f90b 3dbd b826 39bc 4a07 c03d 92e4 183d
00000240: 7cce a6bd 03c5 4ebd 349a 113d add1 f53d
00000250: 9775 013e 3fdf 663b c463 f83d ecb2 e1bd
00000260: ba1d cebd eea1 f03d fa1b 3abd 0d01 c9bd
00000270: 078d ef3c 155b f93c 3c33 053e 474a 5d3d
00000280: 83fb 25bc 5403 993d cc0c d13d 8159 643e
00000290: cb2c 81bd c8f3 c8bd a22e 09be 1626 c23b
000002a0: 5377 733d adab c43d 2944 aabd 8ab0 e33d
000002b0: f794 043e 760d 1e3d 5928 c0bd b7ff 863d
000002c0: 558d 42be 6431 b4bd 000d 4e3e e6de 023e
000002d0: db6e 253d d056 a4bd b425 04be b230 7bbd
000002e0: d0f5 a5be f0a6 d9bd c3d9 d53c 0c9f 143e
000002f0: 3b4a babd ac46 85ba 22c2 723c d82f e13c
00000300: c7a9 a2be b6e2 2aba 2eed f83c 3c87 063e
00000310: fd3b bebd dd3f 253d a1f1 9e3d 183a 19bd
00000320: 35f8 733d 18f9 813d cf49 a43c 33bd 25bd
00000330: bc25 0c3e 9345 ca3c 4fb1 1abe 8dba 3e3d
00000340: 3346 113e 910e 42bd bc23 f73c a952 96bd
00000350: 2d23 aa3c c768 363d 94a6 97bd 362f e13d
00000360: bc9a e93c 1233 413d 4554 fc3d 2064 fb3c
00000370: 7d65 a53d 1ebb 0abe 8de8 7c3c 82de 07bd
00000380: c75b 9b3d 6dd1 a03c 7bf6 c83d 78b7 803d
00000390: 2dae 30bd 5cc9 de3d 86b1 a13c 7e94 debc
000003a0: a81f b3bc 085e a63d b6b5 c13d 99e6 053e
000003b0: 1f17 cf3d ba51 3f3e 6001 79bc 38a2 ec3d
000003c0: 4d98 d73d 2ec9 313d 3900 0d3d 82ba 053e
000003d0: bd7a 1c3d abe1 e03c c4da 4c3d 7049 20bd
000003e0: cfbf bdbd bfdc a63d ce36 5d3d 0ae9 8a3d
000003f0: d444 2bbe 6853 7f3d 7700 ee3c edf7 6fbd

layer_3.weight f4 [6, 300]
-0.13381658 -0.11275763 0.019024836 -0.06680364 -0.1293253 0.3502573 -0.018258644 0.041682273
-0.034727324 0.10255496 0.39207563 -0.19753109 0.030493313 0.11628797 -0.13419914 0.29289147
-0.09130124 0.19870219 -0.20732413 0.35880843 0.16471018 0.0066330913 0.014623656 -0.09872891
0.30312976 -0.08607677 0.14203522 -0.11061221 0.027230483 -0.21889174 -0.012750002 -0.03533658
0.115092084 0.044926867 0.037144516 0.4954044 0.10381635 0.045430783 -0.07938132 -0.09279781
-0.055405278 -0.09103431 -0.121693835 -0.087255746 0.09286828 0.003939199 -0.060535926 -0.18956757
0.13555466 0.051715866 0.18774192 -0.17036925 -0.0009392701 -0.14006776 0.015832806 0.101136155
-0.064546615 0.13474606 0.05453806 -0.25451943 -0.092760265 0.14714839 0.07527179 0.06796894
-0.07050097 -0.13998686 0.01779012 0.25648066 0.044929776 -0.018643368 -0.009086991 0.29956368
-0.07292452 -0.059552133 0.02466722 0.016188929 -0.014763125 -0.07795755 0.0467634 0.17798762
0.038080208 0.036221884 0.0033407295 0.02513349 -0.03294597 -0.047248747 -0.10591383 -0.05124521
-0.077152394 -0.051304094 -0.18974386 0.1731611 0.111108124 -0.04020548 0.016943825 0.11390814
-0.5056565 -0.15700513 0.08503308 -0.0017682695 0.29456243 -0.07190156 0.01434286 -0.07036859
0.07447246 0.37042406 0.19166788 -0.04455684 0.25903174 -0.24746358 -0.10514348 -0.0012732699
0.060770042 0.21973765 -0.11454311 0.13112515 -0.108280115 0.012238835 0.012677986 -0.025478238
-0.08433091 0.05679313 -0.10212903 0.111405335 -0.057459753 -0.13246278 -0.047092993 -0.008602304
-0.04587444 -0.018486198 -0.19666608 0.040729843 -0.08223643 -0.15843552 0.057508446 -0.0456293
-0.029188132 0.09813723 -0.04171518 0.45369804 -0.08581622 -0.043492086 0.07382426 0.03802231
-0.009632923 -0.030255783 0.1067265 0.19358267 0.04491149 -0.09151184 0.0077709057 -0.10225903
-0.09852022 0.049543515 -0.036895152 -0.035595976 -0.094812594 -0.02076109 -0.039058726 0.3384762
0.06756375 -0.084308 0.02356723 0.023909943 -0.036357064 -0.03217239 -0.06831052 -0.075386055
0.04281124 0.017082188 -0.06715219 -0.008644449 0.43420908 0.091430835 -0.21652037 0.09730479
-0.13403206 -0.07315815 0.15861095 0.10521959 0.27743 -0.111761406 0.18238418 -0.21456443
0.34922415 0.09698379 0.24913724 0.061278306 -0.010612174 0.05890789 -0.065391496 0.07403661
-0.3108143 -0.07178499 -0.11873243 0.05759093 0.06870176 -0.05731021 -0.20417207 -0.014483734
0.00274528 0.023834335 0.00950513 -0.032993667 -0.014100979 0.068288326 -0.1282283 0.031452637
-0.07908396 0.1734233 -0.1003745 -0.09578741 0.05873881 0.14023623 -0.22862346 0.10162001
0.0015502819 0.027971543 -0.18059726 0.030800533 0.047751892 0.053925477 -0.0822886 0.1493323
-0.049817268 -0.045671623 0.035965137 -0.18668932 0.1284676 -0.060764443 0.008078716 -0.10354894
-0.08836845 -0.052352034 0.08343901 0.08105495 0.0030288002 0.06250819 -0.053712044 -0.09055483
0.14931373 0.015063596 0.073208824 0.113929436 -0.108366795 0.15332578 -0.21214674 0.03690205
0.53698987 0.35776013 0.0698309 0.042159848 0.09243199 0.15411972 -0.029072035 -0.064673394
00000000: 3707 09be 79ed e6bd f9d9 9b3c 59d0 88bd
00000010: da6d 04be ed54 b33e 2793 95bc 08bb 2a3d
00000020: 3d3e 0ebd 5608 d23d 23be c83e 9745 4abe
00000030: 1dcd f93c 6328 ee3d 806b 09be dff5 953e
00000040: 25fc babd 9678 4b3e c74c 54be bdb5 b73e
00000050: c9a9 283e 675a d93b 0f98 6f3c 6232 cabd
00000060: d333 9b3e 0549 b0bd ae71 113e a888 e2bd
00000070: 7612 df3c 2825 60be 62e5 50bc 17bd 10bd
00000080: 66b5 eb3d 3c05 383d d924 183d a5a5 fd3e
00000090: ab9d d43d a115 3a3d ac92 a2bd c70c bebd
000000a0: a5f0 62bd 3270 babd 9e3a f9bd 24b3 b2bd
000000b0: ba31 be3d 6514 813b 85f4 77bd 001e 42be
000000c0: d7ce 0a3e 04d4 533d 6b3f 403e 4775 2ebe
000000d0: 5939 76ba ec6d 0fbe cdb3 813c 7920 cf3d
000000e0: 0431 84bd dffa 093e 4d63 5f3d 5f50 82be
000000f0: 18f9 bdbd 11ae 163e 1928 9a3d 4d33 8b3d
00000100: d062 90bd b758 0fbe 96bc 913c 6f51 833e
00000110: 4908 383d fab9 98bc 9ae1 14bc 6960 993e
00000120: 7359 95bd f0ec 73bd e912 ca3c a59e 843c
00000130: 09e1 71bc 35a8 9fbd fb8a 3f3d 6342 363e
00000140: fef9 1b3d 665d 143d 24f0 5a3b c0e4 cd3c
00000150: 5af2 06bd e787 41bd 5ae9 d8bd 7fe6 51bd
00000160: 1302 9ebd 3e24 52bd 374c 42be 2551 313e
00000170: a88c e33d 80ae 24bd c7cd 8a3c ac48 e93d
00000180: b472 01bf f4c5 20be d325 ae3d 47c5 e7ba
00000190: e3d0 963e 2041 93bd 51fe 6a3c 681d 90bd
000001a0: 0485 983d 39a8 bd3e 9644 443e 3c81 36bd
000001b0: cf9f 843e 1867 7dbe 7755 d7bd d9e3 a6ba
000001c0: 02ea 783d e802 613e 9495 eabd ac45 063e
000001d0: f7c1 ddbd 6585 483c 54b7 4f3c bdb7 d0bc
000001e0: afb5 acbd ea9f 683d 0629 d1bd 7b28 e43d
000001f0: eb5a 6bbd 53a4 07be 95e4 40bd aef0 0cbc
00000200: d6e6 3bbd 5e70 97bc d562 49be 56d4 263d
00000210: 936b a8bd ec3c 22be fa8d 6b3d cae5 3abd
00000220: f31b efbc 2cfc c83d 89dd 2abd 1c4b e83e
00000230: 6ac0 afbd c224 32bd 2c31 973d 48bd 1b3d
00000240: 68d3 1dbc fada f7bc 6c93 da3d 893a 463e
00000250: 1cf5 373d 8f6a bbbd 15a3 fe3b 2f6d d1bd
00000260: f8c4 c9bd 24ee 4a3d 5f1f 17bd 16cd 11bd
00000270: 1b2d c2bd 2913 aabc 0bfc 1fbd c14c ad3e
00000280: dd5e 8a3d aca9 acbd 1010 c13c c9de c33c
00000290: 25eb 14bd 32c7 03bd 63e6 8bbd 0164 9abd
000002a0: d75a 2f3d f2ef 8b3c 1687 89bd 72a1 0dbc
000002b0: a750 de3e 1740 bb3d 84b7 5dbe bc47 c73d
000002c0: b33f 09be f1d3 95bd e96a 223e 5e7d d73d
000002d0: 4e0b 8e3e 2ae3 e4bd ebc2 3a3e c7b6 5bbe
000002e0: 82cd b23e 709f c63d d51d 7f3e f6fe 7a3d
000002f0: afde 2dbc 6649 713d faeb 85bd 82a0 973d
00000300: 0d23 9fbe 0204 93bd fd29 f3bd 78e4 6b3d
00000310: 82b3 8c3d 1cbe 6abd 7c12 51be 2f4d 6dbc
00000320: 28ea 333b 3940 c33c 68bb 1b3c 5e24 07bd
00000330: cb07 67bc c0da 8b3d 484e 03be 7bd4 003d
00000340: c5f6 a1bd e195 313e 2591 cdbd 312c c4bd
00000350: 1b98 703d 169a 0f3e 451c 6abe 271e d03d
00000360: d432 cb3a 9424 e53c 7dee 38be 6651 fc3c
00000370: 7d97 433d f6e0 5c3d ed86 a8bd 91ea 183e
00000380: 310d 4cbd 2b12 3bbd 2e50 133d 7c2b 3fbe
00000390: 038d 033e 23e4 78bd 975c 043c 7711 d4bd
000003a0: 85fa b4bd 166f 56bd 12e2 aa3d 2300 a63d
000003b0: d67e 463b 4b04 803d 2901 5cbd d074 b9bd
000003c0: b3e5 183e 4dcd 763c 82ee 953d d653 e93d
000003d0: 69ef ddbd 6f01 1d3e ff3c 59be 9b26 173d
000003e0: 2b78 093f 562c b73e 8103 8f3d ceaf 2c3d
000003f0: fc4c bd3d 8fd1 1d3e 7a28 eebc 7c73 84bd

layer_3.bias f4 [6]
0.03164797 -0.015183647 0.04568178 -0.05408871 0.10055903 -0.041650712
00000000: 4da1 013d d5c4 78bc d11c 3b3d 208c 5dbd
00000010: e5f1 cd3d f099 2abd
