pytorch_models/TD3_walker_stand_0206_actor.pth (torch, 521680 bytes, 6 tensors)

layer_1.weight f4 [400, 18]
00000000: deec a7be 5680 263d 6efe e7be 3a22 c5bd
00000010: 2450 43bd 24da d3bb 9efc d93d 49f7 b93e
00000020: 9d58 e23c 5b3b 9fbc 870b 32bd 6506 80bd
00000030: ab83 81be e002 04be 9671 87bd e456 443c
00000040: e0bf a63d 3369 e63d 5bbe 9dbe 3fff 96bd
00000050: 218a 503e 8a0e ec3e 6ec5 e1bd 35ca ac3e
00000060: 80e8 cbbd 3234 4b3e fb85 913e e464 51be
00000070: 3485 d3bd b648 c1bd 04f9 80bd 5f8f 393e
00000080: acc0 45bd c48a 0ebe 2474 c2bd 732e 68be
00000090: 2ba2 79be 7b5d 4a3e b8b3 623e bdca 893b
000000a0: 9adc 57bd a410 e3bd cf9c 9ebd 2c09 e5be
000000b0: ad3e 19bf 92fd 0bbf 2957 933e f1c6 163e
000000c0: 37df 10be 9a14 e2ba cb23 9a3c 0515 6b3e
000000d0: 6c00 9a3d 6dd8 793d 13ed 3b3e 5cc0 f3be
000000e0: 0efb 853d 9c7b dabe a223 c0be c723 62be
000000f0: 644f 5b3e 2cf8 a03d 07c2 6d3e 77e6 963e
00000100: 9651 203e 16be 46bd 7817 abbc ce07 823d
00000110: 2cb1 fa3d 5710 283e bf7a 3fbe 345b 9f3b
00000120: 8e9e 453e 8600 a23e 8cd7 8c3e 853d b93e
00000130: 369c 533d 73a9 0dbe 04db 21be 24c7 debe
00000140: 59f6 89be d902 563e 23b7 893e 0564 8dbe
00000150: 0d1d 703d 83ca 37bd 2cad efbc 67f9 09be
00000160: ccbd 073e d4d6 cdbd bad6 41be 1fbc cb3d
00000170: c137 563e 5ac1 d83e b7ed dcbe 7b9a c3bd
00000180: dc2c f13d 03b1 83bd b97f 133e fd74 32be
00000190: bdbe b43e 1c0e 363e d0c7 f8bd cdaf 0ebe
000001a0: 9e95 0abe 8696 81bc cafa 42be d927 0fbe
000001b0: b35f b03e f7cf 32be 070b d0be 2588 2f3d
000001c0: f8b4 22be 457f c13e 21bb f33d d372 88be
000001d0: 70bc 57be a763 9cbd 2037 243e 0fb9 3d3d
000001e0: 25f4 b93d d0ce 3dbc 2cbf 1bbd 9172 f13d
000001f0: 605c 72be 99c6 05be 0648 bebe 87e9 93be
00000200: 55b9 023e eddc 40be 7a0b 9dbd 6c82 66be
00000210: 4361 003d 2003 9bbe 2ba6 f93d 1d90 2bbe
00000220: 3d4c 6cbd b921 04be e204 46bc 9f0f 0c3e
00000230: f3ff 5e3e 5729 1d3e 5693 6c3e faf9 2ebb
00000240: 268e f6be fd2f a3bd f2c5 943e 3ac2 1b3c
00000250: cb63 f0be a02a 25bd 55b1 03bf b875 6cbe
00000260: 0405 a43e 1fda 91bd c4d5 c23d 0246 93be
00000270: f0a1 f83d bc9d 30be b725 f9bc ddfa dcbd
00000280: ff97 92bd 19df d837 8737 15bf 10c5 0d3b
00000290: a781 ebbd fadb b3bd 6a2e e4bd 0a88 e3bd
000002a0: 6c64 42be 600c 14be 4995 0a3f ba43 c43d
000002b0: 530e c83e 772a 5f3e 47da 18be 10c3 0b3e
000002c0: 9ca0 93bc 1221 49bd f817 113e f87d d8bd
000002d0: 5ffc f13e 5691 16be f295 a13e 52fd e2bd
000002e0: 222d 113e 9df7 1f3e b985 a13c c6b7 553d
000002f0: 77ef 17be 2cdd b03e 61fa 833e a44d 553e
00000300: e422 36be 720e c0bc f620 f4bd 3646 45be
00000310: fb84 26be 5233 8e3d 5fa5 91be 89be 783d
00000320: 26ab 063e 3d83 873d 9373 acbe cc77 86be
00000330: 4e6a c4be 40ad c13e 4c99 18be a308 d73e
00000340: aa9a 7bbc 408b 743d 4f1c 78bc 7a81 1ebb
00000350: 525e 49bb 4d94 36bd e5ba f1bc 7af8 c83b
00000360: 799f 6cbe e191 ea3d 12d4 d03e 1cf3 4bbe
00000370: 2dc7 0a3e ef24 cf3e e048 623e 8314 d7bb
00000380: 0341 82be 29d6 b03e 6488 85be 0d0b abbd
00000390: cab7 bebd b5fc f7bb 88b4 323b 4a28 763e
000003a0: ec7a 793d d8b9 113e 8aea f93b 24c6 9ebe
000003b0: 4f28 5e3e 5c61 b1be e084 d1be 7029 403d
000003c0: 53e7 903e 7ff1 093e e15f 813e 63d9 96bd
000003d0: 9b5c 8e3c a985 8fbe 007e 863d 72f7 2fbe
000003e0: e8c6 acbc 7a2f 8ebd 0bf9 24bd 906d a7b9
000003f0: d827 d23e 7da6 08be 983e 8bbe dd5e 4abd
-0.32797903 0.040649734 -0.45311302 -0.09625669 -0.04768385 -0.0064652134 0.10643886 0.36321476
0.027630145 -0.019437483 -0.043468025 -0.0625122 -0.25295767 -0.12891722 -0.06613462 0.011983607
0.08142066 0.11250534 -0.30809292 -0.07372903 0.20365192 0.46104842 -0.11023985 0.33748022
-0.09956455 0.1984413 0.2842253 -0.20448643 -0.10328141 -0.09437697 -0.06297496 0.18121098
-0.04827945 -0.13920122 -0.09494808 -0.22673969 -0.24378268 0.19762222 0.2213887 0.0042050765
-0.052700616 -0.11087158 -0.077447526 -0.4473356 -0.5986126 -0.5468379 0.28777435 0.14724328
-0.1414765 -0.0017248571 0.018815896 0.22957237 0.07519612 0.060997415 0.18352155 -0.47607696
0.065420255 -0.4267243 -0.37527186 -0.2208396 0.21417004 0.07859835 0.23218547 0.29472706
0.15656123 -0.048521124 -0.020885214 0.06349145 0.12240824 0.16412483 -0.18699168 0.004863167
0.19298765 0.31641024 0.275082 0.36179748 0.051662646 -0.13834171 -0.15806204 -0.43511307
-0.2694576 0.20899524 0.26897535 -0.2761537 0.058621455 -0.044870865 -0.02925738 -0.13474046
0.13255996 -0.10050741 -0.18929568 0.099479906 0.20919706 0.42335016 -0.43150112 -0.09550949
0.11776134 -0.06430247 0.14404191 -0.1742744 0.35301772 0.1777882 -0.12147486 -0.1393425
-0.13533637 -0.015818845 -0.19040981 -0.13980044 0.34448013 -0.17462145 -0.40633413 0.042854447
-0.15889347 0.3779241 0.119009264 -0.26650104 -0.21067977 -0.07636195 0.16036654 0.046319064
0.0907977 -0.0115849525 -0.038024113 0.1178943 -0.23668051 -0.1306404 -0.37164325 -0.28889105
0.12766011 -0.18834276 -0.076682046 -0.2251069 0.031342756 -0.30275822 0.12189897 -0.16754194
-0.057689894 -0.12903489 -0.012086125 0.13677834 0.21777324 0.15347801 0.23103079 -0.002669929
-0.48155326 -0.079681374 0.2905727 0.009506756 -0.46951136 -0.040323853 -0.5144246 -0.23091781
0.32035077 -0.071216814 0.09513429 -0.2876435 0.12140262 -0.17247671 -0.030413492 -0.10790036
-0.07157897 2.5853094e-05 -0.58287853 0.002163235 -0.114993386 -0.087821916 -0.11141665 -0.11109932
-0.1898362 -0.14457846 0.5413404 0.0958323 0.3907343 0.21793543 -0.14927016 0.13648629
-0.01802092 -0.049103804 0.141693 -0.10570902 0.47262856 -0.14703879 0.31559712 -0.11083473
0.14177373 0.156218 0.019717084 0.052177213 -0.14837442 0.3454374 0.2577696 0.20830399
-0.17786747 -0.023444388 -0.11920349 -0.19265065 -0.16261666 0.06943382 -0.2844648 0.060728583
0.13151225 0.066168286 -0.33681926 -0.26263273 -0.38362354 0.37827492 -0.14902228 0.41998777
-0.015356699 0.05970311 -0.015143468 -0.002418606 -0.0030726385 -0.044575024 -0.029508064 0.0061331363
-0.23107709 0.114536054 0.40786797 -0.19916958 0.13552542 0.40457866 0.22098112 -0.0065637245
-0.25440225 0.3453839 -0.2608062 -0.08351717 -0.09312399 -0.007567967 0.002726825 0.24038807
0.060908243 0.1423105 0.007626836 -0.31010544 0.21695064 -0.34644592 -0.40921688 0.046914518
0.28301486 0.1347103 0.25268462 -0.07365682 0.017378142 -0.28031662 0.06567001 -0.17184237
-0.02109094 -0.06942649 -0.04027657 -0.00031934353 0.41046023 -0.1334476 -0.27196193 -0.049406875

layer_1.bias f4 [400]
00000000: 1513 cb3e fea5 35bd 7989 6b3c a4da 673e
00000010: cf98 d43d 795e 833d 61f6 9abd 0701 6b3e
00000020: eea8 87bc ec27 0e3e 8b75 90be a62d f93e
00000030: 6111 2b3d 38db b73e 1dba 81be 3f20 0cbe
00000040: ce70 93bd 77c6 533e 06d2 6a3e 1737 db3e
00000050: a6ce 0cbe 608f 48bd 7e56 01bc 7d1b a0be
00000060: 3257 9e3e 934e aebb 9b69 fa3d 2959 31be
00000070: 317f e93e 2553 86be 2ad8 4c3c 7f01 893e
00000080: 8709 a13e 9f8e e73e 1d28 ed3e c030 8cbe
00000090: 0a87 843d 9943 f4bd 97a0 c33e d043 c63e
000000a0: 4af3 843c f024 aa3e 84f9 cd3e 3b29 613e
000000b0: 77b9 7d3e 0d1b 923e e85d a33d a63a 903e
000000c0: 6458 fb3c 8e7b 12be fccc 813e d289 b6be
000000d0: 5441 893e 1ca2 e73e fb1d b03e ab48 e73e
000000e0: ccb4 693c f3cf cf3e 5e51 613e aedf 00be
000000f0: f071 35be 07af edbd 9475 883e 042c fbbd
00000100: cba9 acbc 7c7a 793e a1ee 043f 51d2 973e
00000110: e74d f03b b807 173e fb9a e83d 3c2a 5fbe
00000120: 96c4 1fbd 5cc4 28be fa19 d5bd 833f d03e
00000130: 959b 35bc 3ec5 f0bc d930 29be a251 673d
00000140: 80b6 8bbe 3e1f 85be 9ebf 493e 038d 8dbd
00000150: ae13 163e 9bd0 b03c a0e2 5a3d c1d7 303d
00000160: a103 67bd fd0f 023d 8989 d6bd 74ce fe3e
00000170: a5d5 1e3d 072a 8f3e c6a2 943e ee87 703d
00000180: 9fcc 763d 77af 75bc 94a8 bd3e bb5d c63e
00000190: 24a9 8e3e 6f19 d03e 4a81 05be 94ad db3e
000001a0: c6ae df3d 22a3 b53e 2c98 a4bd 458a 283e
000001b0: 3711 8f3e 733c 90be 2348 453e 7943 9b3c
000001c0: 3bf6 b33e cec2 b03d fa56 7c3d 3597 893e
000001d0: 93b9 99be 34a2 debd d908 7fbb 2e68 80be
000001e0: e347 3abe 8bb3 10be e349 1f3e fb88 38be
000001f0: 7e18 b53d c57c eabb 3aa2 ecbd 7777 e8bd
00000200: 856e 773d 4b36 583e c203 07be aca7 063f
00000210: 20f9 1ebe 3cdc 6dbd c6c4 eebd 0526 ec3e
00000220: 41d7 a5bd 453f c33e 8e58 fb3c d294 fc3e
00000230: fd3f ff3c 9b6c 1ebe 28b8 a2bd c493 a43e
00000240: ddbe d83e 1706 01bd 6e32 903a 5333 f4bd
00000250: 4375 4a3d 1512 483d e5c1 403e 6dc9 5ebe
00000260: 0b2b 993d 2b22 eebc 3e38 42be 3e2b 763e
00000270: c163 0f3e de16 d1bd 641f ebbd 3a6a 653d
00000280: 77bb 903b dcac 323c 2daa c93d 51b0 193e
00000290: 189e 80be 1874 d2bb 13a2 973e cd32 863d
000002a0: 0ca5 163e 3d86 89be 57cd d53c 1738 12bd
000002b0: d2f2 48be 37fa 8a3e f494 75bc 573f 96be
000002c0: 4d13 8d3e f2e2 69be 6689 553c a9e0 c0bd
000002d0: 06cf 833e 5e76 2ebe 66b4 153f 9461 b53e
000002e0: d4d3 2c3d 984f 84be a966 8a3b b5e8 d7bc
000002f0: 6a66 a03e 9d37 723e 4865 cb3e 1e9f b03e
00000300: 0621 48be c404 dfbd a1dd e23e d7d9 aa3e
00000310: 229f d13e 989b 22be 5443 dd3d f720 94be
00000320: 51a6 7d3e 598d 9ebe 2f9a f93e 2356 f1bd
00000330: 3158 3d3e 59f0 d53e 821b 17be 3028 ac3e
00000340: 1aa4 81be f8e9 253e 4a81 9f3e 15d9 7d3d
00000350: c7ab 47bd 27c1 01be 19e7 b13e e488 14bd
00000360: 80fd e43d ad11 d83e aab0 c0bc f21b 40be
00000370: 5a50 673e 275a e13d 6e23 e43e 9239 ad3e
00000380: 1e48 9d3c 659b b7bd be0d 343e 8147 18be
00000390: b996 713e 613d 773e 5819 be3e 39b5 773e
000003a0: b01b 88bd 2561 cbbe 1bf0 58be 432a d73e
000003b0: 2fa2 1a3e ac6e 77be e264 c43e a718 08bf
000003c0: e40c ad3e 65f2 e93e 8f07 af3c a250 223d
000003d0: d585 f83e cccf 5bbd c1fe 31be de3b 4d3e
000003e0: 82e0 943d 73ab 90bd 0947 86bd 883f 143f
000003f0: b49e ac3c 4fc7 88bd 02f2 af3e 411c 393e
0.39662996 -0.044347756 0.014376038 0.22641999 0.103807084 0.064145036 -0.07566524 0.2294961
-0.016560044 0.13882416 -0.28214678 0.4866764 0.04176462 0.35909438 -0.25337306 -0.13684176
-0.0719925 0.20681177 0.2293168 0.42815468 -0.13750705 -0.048964858 -0.0078941565 -0.31270972
0.309259 -0.0053194254 0.12227174 -0.17319168 0.45604852 -0.2623531 0.012502709 0.26758954
0.3145258 0.45226 0.46319667 -0.27380943 0.06471069 -0.11926956 0.38208458 0.38723612
0.01622929 0.33231306 0.40229428 0.21988384 0.2477778 0.28536263 0.079768956 0.28169745
0.030681796 -0.14304945 0.25351703 -0.35652024 0.26807654 0.45240867 0.34397873 0.4517263
0.014264297 0.4058834 0.22003695 -0.12585327 -0.17719245 -0.116056494 0.26652205 -0.12264255
-0.021077057 0.2436313 0.5192662 0.29652646 0.0073335054 0.14749038 0.11357685 -0.21793455
-0.03900584 -0.16481155 -0.10405345 0.40673456 -0.011084457 -0.029390927 -0.1652254 0.056474335
-0.27287674 -0.26000398 0.19702002 -0.069116615 0.14655945 0.021583846 0.053438783 0.04317451
-0.056399945 0.03175353 -0.104754515 0.49766886 0.038777966 0.27961752 0.29030436 0.058723383
0.060253736 -0.014995447 0.37042677 0.38743386 0.2786342 0.40644404 -0.13037601 0.42905867
0.10922007 0.35476023 -0.08036837 0.16458996 0.2794282 -0.2817112 0.19265799 0.018953072
0.35148796 0.08630906 0.061606385 0.26873174 -0.30024394 -0.108707815 -0.0038915186 -0.25079483
-0.18191485 -0.1413099 0.1555553 -0.18021004 0.08842562 -0.007155987 -0.1155438 -0.11350911
0.060408134 0.21114461 -0.13185027 0.52599597 -0.15524721 -0.05807136 -0.11658625 0.46122757
-0.08097697 0.38134208 0.030681875 0.4933229 0.031158442 -0.15471117 -0.07945281 0.32143986
0.42333117 -0.03149995 0.0011001357 -0.11923852 0.049428236 0.04884537 0.18823965 -0.21756525
0.07478913 -0.029069027 -0.18966767 0.24039933 0.14002897 -0.1020944 -0.11480597 0.05600951
0.004416879 0.010905471 0.098469116 0.15008666 -0.25120616 -0.006422531 0.2961584 0.06552658
0.14711398 -0.26860228 0.02609889 -0.035698023 -0.19623879 0.27144024 -0.0149891265 -0.293452
0.27553788 -0.22840479 0.013033247 -0.094178505 0.25743884 -0.17037341 0.5847839 0.3542601
0.042194203 -0.25841975 0.004223664 -0.02635608 0.31328136 0.23654027 0.3972571 0.34496397
-0.19543847 -0.10889581 0.44309714 0.33369324 0.4094172 -0.15879667 0.108038574 -0.289314
0.24770476 -0.30967215 0.48750445 -0.117840074 0.18490674 0.41784933 -0.14756587 0.3362441
-0.25320512 0.16202533 0.31153327 0.061974604 -0.048747804 -0.12671338 0.34746626 -0.03626336
0.11181164 0.42200986 -0.02352174 -0.1876066 0.22589245 0.11003523 0.4455828 0.33832985
0.019199427 -0.08965186 0.17583367 -0.14871027 0.23592652 0.24144508 0.3712871 0.24190225
-0.06645906 -0.39722553 -0.21185343 0.4202443 0.1510093 -0.24163312 0.38358217 -0.53162616
0.33798897 0.45692745 0.021365909 0.03962768 0.48539606 -0.053664967 -0.17382337 0.20042369
0.07269384 -0.07063951 -0.06556518 0.5790944 0.02107177 -0.0667864 0.34364325 0.18077184

layer_2.weight f4 [300, 400]
00000000: 7bee 883c 5c96 323d 7495 b7bd 4f94 b6bd
00000010: 394e 053c 2a56 903d 6874 cebd 2cbb 02be
00000020: adcc df3c 1983 da3c 846e a6ba d4eb 1f3d
00000030: b16a 2abc 2a77 35bd 1b83 1dbe dc52 1fbe
00000040: cf5f 13be 5d82 97bd 3730 c13d c7e5 53be
00000050: 31f0 a4bd 3c22 253d 00b5 03be 7fe1 e2bb
00000060: 8658 18be 05ea 893d 7475 af3a b76d 9abc
00000070: f480 28bd 1402 d2bd cc9f 32bd 4cb5 873d
00000080: 9bd6 ce3b ea54 9abd f903 a4bd 1620 8b3b
00000090: 4d45 9e3d e124 e23d fe5c cdbd 12a0 a13d
000000a0: 0b36 fdbd e49c 81bc 5c58 b3bc 3c7c c9bd
000000b0: 67e8 abbd 281c b6bd dbb9 ae3d 2d2f a2bc
000000c0: 4e01 70bd f98e 353e 0f33 7d3d 4cab f3bd
000000d0: 80ea bb3c 70b9 a2bc 52cb b6bd dafe 913d
000000e0: bb95 b53d 7b86 28be 69f4 c33a dfa3 90bc
000000f0: 5f14 8a3d ae68 493c dd9d f0bd 90f7 d13d
00000100: c82f a0bc d3e7 17bc db6d b4bd ef81 89bd
00000110: 614a 14bd 9828 73bd 8ede 663d e0fd 92bd
00000120: 9283 b2bd c9ae 9f3d 6296 7d3b ca61 f63d
00000130: d55d 473c f4f0 e53d 84d0 b23b 5e6e bdbd
00000140: fdbb 8dbc 5fda e4bc 1d6b d23d 629a ee3c
00000150: ec19 473b ac59 f0bd 23f7 133e 9d19 98be
00000160: 9e21 6bbd be97 d33b 1463 333d c327 9f3c
00000170: 1d74 a63c 308d d83d dccb 1e3d 866a 34bb
00000180: a59b 32bc 0d3f 49be 3be4 1ebe 55e1 ecbd
00000190: ef38 8fbd 426a 1cbe 0636 3f3d b1b1 f23d
000001a0: 1139 5abd af7f 913c 4627 8bbd 2491 e43d
000001b0: 347f e83c d9ed a13b 2cb3 b3bd dea1 d0bc
000001c0: 4847 bdbd 933f 083e 862e 223d 9633 96bc
000001d0: 96e6 3fbd dfbb 203e 2d4c 533d 7df0 9e3d
000001e0: 67e8 b7bd 8d4f 1fbd 0601 02bc 6c39 5ebc
000001f0: 2780 28bd 988c 9f3d 7067 d83d 16d8 e2bb
00000200: f738 6f3b 7f60 55bd 58c6 163d fef0 483c
00000210: 27d2 ccba 6cb8 26bd 4cc4 cebd 2d17 86bd
00000220: a6f7 fabd fb24 49be a8c1 a73d 064a 7abb
00000230: f184 8bbd a269 acbc 3322 55bd bb40 9bbc
00000240: cc98 7b3d 4796 2dbd 6db9 8abb c66a b63d
00000250: 3a90 603d 728b 94bd 13e5 75bc a896 233d
00000260: ce01 d43d df9e 2abd dcd2 57bd e5a6 babc
00000270: 10c5 ba3c 5478 a6bd 9388 2b3d ba1c 333d
00000280: e255 103e 6110 1d3c f541 0d3b edc8 453e
00000290: 08aa cdbd f8dd 52bd 414d 2cbd bbc2 413d
000002a0: 701f 09be 3fe4 473d 4a4f 76bd d398 3c3d
000002b0: 822f db3d f4fd b13b 9a16 a8bc 093f b4bc
000002c0: 488f a6bc 77f6 e7bd b76f 54bc 2523 633c
000002d0: 1978 53bd 4a57 2dbc 0805 c2bd 24e2 bfbd
000002e0: 26b6 53bc ef24 26bd f276 80bc 6fc3 babc
000002f0: cee0 f63c f48e 2c3c 1d97 d6bd 57e4 1e3d
00000300: c50d 29be 3510 26be c593 b93c d750 4c3d
00000310: c890 f0bd 81b3 c53d 3f3c 363c 5a74 f13c
00000320: 0ff3 d2bd 1d22 e23c 833b f1ba 8912 bc3d
00000330: 8f78 06bd 485c bbbd 0bb6 073e ffae 2a3d
00000340: eb77 0e3d af74 64bc f13e 26bc 4f50 c83d
00000350: bc85 093c b646 cc3d 68c1 273d 62fe 48bd
00000360: 6681 17bd 775e 21be 877d abbd d67e dfbc
00000370: f9c5 2cbd 80a1 66be c08c 6ebd a4e2 043e
00000380: 7e31 37bc ec43 c03c bedd 01bd b390 abbc
00000390: e244 1b3d 69d3 383d 0d5b a73d 6be3 0bbe
000003a0: bc07 b33d 4618 4fbb 38b6 cabd 0357 4d3e
000003b0: 0e6b 0e3d 79e4 303b 9861 8bbb a760 a13d
000003c0: 8d0d c3bc 17d3 39bc ab88 d2bc 961a 05be
000003d0: ce83 bbbc 2b11 a0bd 48c8 e53d 079d a53d
000003e0: cf6c ee3d c91e 21bd 4fdf 6e3c 7dc2 1ebe
000003f0: cf7a 5ebd 1ac7 1bbe d113 ccbd fdce 5e3d
0.016715279 0.043600425 -0.08964053 -0.08915006 0.0081363255 0.070476845 -0.100807965 -0.12766713
0.027319277 0.02667384 -0.0012697731 0.039043263 -0.010401414 -0.044303097 -0.15382044 -0.15558952
-0.14392017 -0.07397912 0.094330244 -0.20693122 -0.080536254 0.04031585 -0.12862015 -0.006923854
-0.14877519 0.06734089 0.0013386444 -0.018851144 -0.041138604 -0.102543026 -0.043609425 0.066263765
0.006312204 -0.07535727 -0.0800857 0.0042457683 0.07728062 0.1104219 -0.100275025 0.07891859
-0.123638235 -0.015821882 -0.021892719 -0.09838149 -0.083939366 -0.08892089 0.08531543 -0.019797886
-0.058594994 0.17730321 0.06181627 -0.11897907 0.022938967 -0.019863814 -0.08925499 0.07128687
0.088664494 -0.1645755 0.0014950159 -0.017656265 0.06742167 0.012293024 -0.1174886 0.10252297
-0.019554034 -0.00927158 -0.08810016 -0.06714236 -0.036203746 -0.059364885 0.05636459 -0.07177329
-0.08716501 0.077970095 0.0038694371 0.120303705 0.012168367 0.11227599 0.005456986 -0.092495665
-0.017301554 -0.027936159 0.102743365 0.02912635 0.003038044 -0.117358536 0.14449744 -0.2970704
-0.057405107 0.006457298 0.04379566 0.01942814 0.020319039 0.105738044 0.038768634 -0.0027529313
-0.010901366 -0.19652958 -0.1551675 -0.11566416 -0.06993281 -0.15274909 0.04668238 0.11850298
-0.05327708 0.01776108 -0.067946 0.11160496 0.028380968 0.0049416837 -0.08774409 -0.02546781
-0.092421114 0.13305502 0.03959515 -0.018335145 -0.046850763 0.15696667 0.05158632 0.07760713
-0.08979874 -0.038894225 -0.007934814 -0.013563495 -0.04113784 0.07790488 0.10566604 -0.006922732
0.003650246 -0.05209398 0.03681025 0.012264488 -0.0015626595 -0.040703222 -0.100960344 -0.06547389
-0.122542664 -0.19643013 0.08191234 -0.0038191094 -0.06812466 -0.021046463 -0.052034568 -0.018951764
0.061425015 -0.042379644 -0.0042335303 0.08907084 0.054825045 -0.072531596 -0.015008229 0.0399386
0.10351907 -0.041655418 -0.052691326 -0.02278466 0.022799045 -0.081284195 0.041878294 0.043728568
0.14095262 0.009586425 0.0021554206 0.19314928 -0.100421965 -0.051481217 -0.042065863 0.04730485
-0.13390899 0.048801657 -0.06013421 0.046044182 0.10702421 0.005431885 -0.02051859 -0.022002714
-0.020331994 -0.11326306 -0.012966088 0.01386336 -0.051628206 -0.010579893 -0.09473616 -0.09369305
-0.012921846 -0.040562566 -0.015681718 -0.022798268 0.030136492 0.01053213 -0.10478041 0.03879198
-0.16509159 -0.1621712 0.02265347 0.049881782 -0.11746365 0.09653378 0.011122762 0.029474426
-0.10300266 0.027604157 -0.0018404577 0.09183223 -0.032829817 -0.091484606 0.13253038 0.041670796
0.03478233 -0.013943835 -0.010146842 0.09780943 0.008393701 0.099744245 0.04095593 -0.049070723
-0.03698864 -0.15758692 -0.08373552 -0.02728216 -0.04218099 -0.22522545 -0.0582397 0.12977082
-0.011181233 0.023469888 -0.03170561 -0.020943021 0.03790749 0.04512349 0.081716634 -0.13660972
0.087417096 -0.0031600161 -0.09898037 0.20052724 0.034770064 0.002699165 -0.0042535774 0.07879763
-0.023810172 -0.011341832 -0.025699934 -0.12998423 -0.022889998 -0.078157745 0.11219841 0.08086591
0.11641847 -0.039336 0.014579608 -0.15503879 -0.05431634 -0.1521267 -0.09964717 0.05439662

layer_2.bias f4 [300]
00000000: b361 48bd b5b0 72bb 1087 03bd 1a1e bc3d
00000010: 9ecb 1cbe fa87 18be f7ff 9abe adf3 d0bd
00000020: db43 8fbc fbb2 a43d eb6e a3bd ef81 793d
00000030: 0369 743d 7c6e a23d ec7c 5bbc 3760 b2bd
00000040: e6f4 89bd 70ea 333e 7663 30bd 8d2f 94be
00000050: f4e6 3bbc 1061 c6bb 1c03 223d 3f26 1b3d
00000060: 66ad bbbd 70a7 3dbd 4ca1 49be 3bdc b6bd
00000070: d09d 7d3d fc7b efbc 61c2 7e3d 03c1 00be
00000080: 1472 15be ac88 c53d d0ee 953c f542 ffbd
00000090: 072e e9bd f967 93bc f551 9f3d 29ee 043b
000000a0: a18a ebbd 9b43 82bd 829a 593d 613e 34be
000000b0: c512 ea3d 03c5 793d ca03 4cbd f6d2 ec3d
000000c0: 8b37 5f3d f6e5 903c d866 c6bd 5724 1b3d
000000d0: 914d 463d ab2b 7fbd 26f7 44bc 9787 1d3d
000000e0: e247 2dbd 2271 de3d 2ca4 99bd 2d72 963d
000000f0: e375 5bbd 7ac1 2c3d 635c ab3d c7c6 15be
00000100: f923 95ba c403 edbd 0461 16bd 6b5b b2be
00000110: 9225 56bc 38d5 07bd 1228 11be d88b 89bd
00000120: 8fda 99bd d982 b73d a2d4 e13c 9e0b 0c3d
00000130: 2867 b83c 9885 8dbe ac17 e2bc 7478 763d
00000140: 6cad 4abe 04aa 853d 4419 ed3c b917 0d3d
00000150: 17dd 063e db47 353d b9b9 8a3d fd5a d63c
00000160: 31d9 3cbe ab3e 98bd 378c 80be aa08 46bd
00000170: 9ec3 063d 9324 893d 8185 b53d 1a54 c23d
00000180: bedc ddbd 01e5 60bd 1fc4 ae3d 0580 723d
00000190: 7166 1bbd 683b 1fbb 06b1 903d 77b1 b2bd
000001a0: 05f7 933d f32a 32bd 3591 d538 ff90 5c3d
000001b0: 32bc cabd 53b6 fdbd ff0b 0bbd bc2f 38be
000001c0: 5199 3bbb 5945 4abe bf66 1a3d 2f7e 1bbe
000001d0: ddd7 a9bc 78fc 333d 7cc0 5f3c b3ef 19bb
000001e0: 4b32 283d 69bd ab3d b974 9f3c 86fb a93b
000001f0: c58e 883b 7daf 8bbd bce5 1f3b bb4d aebb
00000200: d25a bb3d 8f01 1a3d 65d5 743d ef64 d33c
00000210: 1511 ae3b 937b 59be 3d41 db3b 37e8 883c
00000220: cd3b 22be 778d 203d 26d8 b43d dcf2 42bd
00000230: a7e4 09bd 9fdf 923c 55ab 843d 59b1 a23d
00000240: 5d6e f3bd 4811 d9bc e2ce f53c a34c b53d
00000250: a7d6 b43d 06b1 9ebc 3965 1a3e 767e fabd
00000260: c6e3 56bd f2cb 933d 1ac0 3dbd f568 43bd
00000270: a08d 0d3d 5ca9 a03c 4579 0c3e 895e 0e3d
00000280: e578 41bd 127b d13d 67c1 273d d4a1 523e
00000290: bf36 5fbd 9344 d9bd 480c cfbd efa2 513d
000002a0: 4626 273d 605f a63d 920b abbd d603 c83d
000002b0: fe5a 163e 72a4 8d3d 9d46 88bd 6378 9d3d
000002c0: 06a6 80be d81f 98bd 0577 523e 14cb 9f3d
000002d0: ed6b bbbc 9211 52bd 1e1d 09be d026 a4bc
000002e0: 65c5 b2be fb6f babd 3bc1 2f3d 3d9f 023e
000002f0: e08d c8bd c296 5bbd 5f35 d4bc 1791 b33c
00000300: ea60 c4be 8f59 15bd f319 6d3d 18f3 ae3d
00000310: f319 f3bd 416d 543d e533 d63d 77f4 bcbc
00000320: 8525 843d ec13 c13d 582c 243d dc24 1ebb
00000330: 7fac 6a3d 7c34 693d 6a2f 3fbe ab03 103d
00000340: 7095 0e3e 712b 7dbd e296 493c afba 80bd
00000350: 3e5c 3b3c 91f1 af3d 8ca6 8c3a d417 ce3d
00000360: 6790 f33b 605f 693b fb4b 8c3c cde6 3f3c
00000370: 4bfa a73d 3ad6 0dbe 0aee 123b a1aa 88bd
00000380: b1ac b13d 917d 733a 3df0 493d 8625 863d
00000390: b19e 4cbd f10a 813d 8e92 de3b 8fd5 f7bc
000003a0: 0471 87bd f792 b73d 2272 c53d 474f 3b3e
000003b0: bd28 c93d 5a63 493e 201e fabc cba2 2d3e
000003c0: 8e3c eb3d 5707 f83b e321 5d3d 53ac 103e
000003d0: 3a22 e33c e4ab 6d3d 18f8 723d 0159 4bbc
000003e0: 23e9 76bd ab7a c43d f582 823d dbf3 8b3d
000003f0: 6d9b f8bd 1c1d a83d 50ce 003d db69 08bc
-0.0489213 -0.0037031595 -0.032111228 0.09185429 -0.15312049 -0.14895621 -0.3027341 -0.102027275
-0.01748841 0.0804195 -0.0798014 0.06091493 0.05967046 0.079312295 -0.013396483 -0.08709758
-0.06736164 0.175699 -0.043063603 -0.28942528 -0.011468638 -0.006054051 0.039553747 0.03787827
-0.091639325 -0.04630226 -0.19690436 -0.089287244 0.06191808 -0.029233925 0.062197093 -0.12573628
-0.14594299 0.09645209 0.018302351 -0.12463943 -0.11385732 -0.017993914 0.07779304 0.0020283556
-0.11501051 -0.06360551 0.053125866 -0.1760192 0.11429361 0.0609789 -0.0498083 0.11563675
0.05449633 0.017687779 -0.09687585 0.037876453 0.048413817 -0.062297504 -0.012021815 0.038459387
-0.04230488 0.10861422 -0.075020164 0.07345996 -0.053579222 0.0421767 0.08367231 -0.14626609
-0.0011378519 -0.11572984 -0.036713615 -0.3483537 -0.013070481 -0.033162326 -0.14175442 -0.06716126
-0.0751239 0.08960504 0.027567212 0.034190767 0.022510126 -0.27640986 -0.027599178 0.060173467
-0.19792718 0.065265685 0.028942712 0.03444645 0.13170277 0.04425798 0.06773705 0.026166433
-0.18442227 -0.07433828 -0.25106975 -0.048348106 0.0329014 0.06696429 0.088633545 0.09488697
-0.10833119 -0.054905895 0.08533501 0.05920412 -0.037939493 -0.0024296883 0.070650145 -0.08725255
0.072248496 -0.04349799 0.000101836784 0.053849217 -0.09899177 -0.12388291 -0.033946987 -0.17986959
-0.002862532 -0.19753017 0.037695643 -0.15184854 -0.020732814 0.043941945 0.013656732 -0.002348882
0.041063588 0.083857365 0.019464837 0.0051874546 0.00416741 -0.06820581 0.0024398407 -0.005319325
0.09148182 0.037599143 0.05977382 0.025804965 0.005312095 -0.21238546 0.0066911266 0.016712291
-0.15843125 0.03919741 0.088302895 -0.04759489 -0.033665325 0.017928896 0.064779915 0.07943983
-0.118862845 -0.026497498 0.030005876 0.08852508 0.08830004 -0.01937152 0.15077676 -0.12231152
-0.052463315 0.07216634 -0.04632578 -0.047707517 0.034558892 0.019612007 0.13718136 0.034758125
-0.047234435 0.10228552 0.040955927 0.20569545 -0.05449557 -0.106087826 -0.10109764 0.051180776
0.040807985 0.0812366 -0.08351816 0.09766357 0.14683148 0.06916131 -0.066540934 0.076889776
-0.25126666 -0.07427949 0.20553215 0.07802406 -0.022878611 -0.051286288 -0.13390014 -0.020038038
-0.34916225 -0.0910339 0.04290889 0.12756057 -0.097926855 -0.05361057 -0.025904356 0.02191977
-0.3835519 -0.036462363 0.057886075 0.0854246 -0.11870184 0.051862005 0.10459117 -0.023065789
0.06452469 0.09427628 0.040081352 -0.0024130857 0.05729341 0.05693482 -0.18670431 0.035159748
0.13924193 -0.061809007 0.01230404 -0.06285607 0.0114355665 0.08590997 0.0010730787 0.100631386
0.0074329856 0.0035609826 0.017126074 0.011712742 0.082020365 -0.13851252 0.0022419714 -0.0667317
0.086755164 0.0009288425 0.049301375 0.06550126 -0.049956027 0.06300915 0.006792373 -0.0302532
-0.06613353 0.08963578 0.0964091 0.1829196 0.09822223 0.19666806 -0.030531943 0.16956632
0.11486159 0.0075692344 0.053987395 0.14128236 0.027726281 0.058025256 0.059318632 -0.012411357
-0.06028093 0.095937096 0.06372634 0.06833621 -0.1213902 0.08208677 0.031446755 -0.008326019

layer_3.weight f4 [6, 300]
00000000: 14ca 9bbd e6c6 3cbe bd13 873c 4c29 7abd
00000010: 14fd 16be 30cd ed3e a146 603c 9231 833d
00000020: 8654 9d3d df38 c73d dcf2 f73e c148 96be
00000030: 600a ae3c ba58 133e 2074 05be 67eb c03e
00000040: e026 82bd 8114 883e 2d5a 5fbe b0cd 023f
00000050: c050 2c3e 5f1e 3d3c 6862 483c e8c7 abbd
00000060: 041f ec3e 5c4e 9dbd b4ba 2e3e af8a 01be
00000070: 6dcd a83c ea88 67be d9fc 5bbd ba49 32bd
00000080: 7652 013e 7327 253d c836 103d b9c6 f43e
00000090: 616c f13d cc04 353d 65ba bfbd 7c29 a5bd
000000a0: 9e6e 85bd a310 a7bd 758c f1bd 2139 9bbd
000000b0: 01e3 e13d fb43 14bc 9c68 7dbd f548 2ebe
000000c0: aad5 473e b2e8 343d 6d02 813e efcc 9bbe
000000d0: 0630 bbbb ec4f 13be ca89 153c 3128 123e
000000e0: d514 49bd 5eae ed3d e2a7 c83d af7f 8bbe
000000f0: 3616 bdbd 1d16 263e f01f ac3d ecb5 1b3e
00000100: 1261 5ebe a8cb 17be 9401 713c 7155 d23e
00000110: 7dbe 883d 6216 8bbc 7417 c5bc 244b a03e
00000120: 51fb 9cbd f3ab dfbd 5634 893c 615a 083d
00000130: e9f5 bfbb fba4 1bbe 1685 ab3d 99d6 463e
00000140: 21ba 493d 62a3 353d fb21 c13b c0e4 cd3c
00000150: 5ec2 65bd 9555 01bd 4456 09be 06a6 5dbd
00000160: 8629 07be c3fb b7bd 1660 82be fb2e 323e
00000170: 1ee1 363e 2ec3 16bd 016d 913b 2a72 f33d
00000180: d02e 09bf 3f71 2bbe 23aa 913d 2b33 2ebc
00000190: 60dd 9c3e 5957 a5bd e73d 293c c0c8 d3be
000001a0: 5379 8b3d 5ba1 ca3e 1df3 353e 0a16 26bd
000001b0: ea9a b13e 0c6c 8abe d2d2 1abe 6b4b c1bc
000001c0: dab6 8c3d fa33 c43e a0ef 13be da77 1a3e
000001d0: 4294 cfbd 2162 0e3c 6c4d 163c 26d0 dcbc
000001e0: 91de 93bd 0e1c a33d 9359 abbd 1de9 043e
000001f0: 1103 48bd 77b2 62be 04f2 37bd 7f49 7bbc
00000200: d14c 51bd c4a0 12bd 1421 4fbe 85ee 123d
00000210: 9497 cfbd e42a 48be 6158 ae3d 3399 21bd
00000220: 5467 86bd 8431 143e a0cf 0bbd 7e83 0f3f
00000230: 2477 c1bd ef48 1bbd 8ca7 713d b99d 373d
00000240: 99a7 a8b9 ccf5 d4bc c78d d73d baa9 433e
00000250: f71b e43c 0121 f4bd 8ff0 153d f6af dbbd
00000260: 6fc8 8cbd 5544 423d 730b 17bd 1f30 53bc
00000270: 43f4 c7bd ade1 e9bb ae5e 80be 5c64 e73e
00000280: 9a18 fa3d 51d9 cebd bf81 073d 691f 913d
00000290: e770 3ebd 8d71 20bd 2217 99bd acec 79bd
000002a0: 1400 193d 456f 823c 4aeb 65bd 5789 79bc
000002b0: f9c2 d63e b2bf df3d 33e5 70be 962c eb3d
000002c0: 3373 6ebe 2785 53bd a8b4 683e 03ca cf3d
000002d0: e63e e13e fa18 06be b28a 363e 03aa 8bbe
000002e0: 4275 d83e 624d 9d3d 00ad 9f3e 99d6 8c3d
000002f0: f055 68bc 18e5 333d 7002 6cbd b5f7 7b3d
00000300: d67c cabe 8b01 7abd 209d 05be d862 5b3d
00000310: 09f0 253d 158b 85bd 958c 25be f6d2 563b
00000320: fd4e f139 0652 ba3b d5f7 a53c f873 0abd
00000330: 22a1 583c e31b 893d ff27 48be b507 c23c
00000340: 33bf 00be 8c43 483e eecd 06be 601e bdbd
00000350: 0d39 423d f692 113e 7e7c 62be e566 d53d
00000360: 4e14 083c d10e 443c 4d0e a5be c47e c53c
00000370: 7785 143d 1fde 623d aab1 80bd 83c4 263e
00000380: 0443 3dbd 5147 32bd d116 f83d 8085 66be
00000390: 5b9f 433e f33a e5bd 704b 833b 952d adbd
000003a0: 16b1 00be fd74 2abd 5f91 343e 9b25 d23d
000003b0: 2922 cbbb 6051 a63d 298e 99bd 67b1 9dbd
000003c0: b679 883e 6bda 32bd 2e07 f43d 7841 043e
000003d0: ad8f c7bd 435d 333e db3d 5dbe f35e fd3c
000003e0: 587d 073f e4ad 163f ee07 563d c7c3 033d
000003f0: ba86 fd3d 7dc8 143e 1fa3 4abc 816f 5ebd
-0.07606903 -0.18435249 0.016488904 -0.06107454 -0.14744979 0.46445608 0.013688714 0.06405939
0.07682137 0.09727644 0.48427474 -0.29352382 0.021245182 0.14389315 -0.1303258 0.37679598
-0.06355071 0.26578143 -0.21811743 0.51095104 0.16827679 0.011542886 0.012230493 -0.083877385
0.46117413 -0.076809615 0.17063409 -0.1265056 0.020605767 -0.22610822 -0.05370793 -0.043527342
0.12629113 0.040320825 0.035208493 0.47807863 0.1178825 0.044194028 -0.09361724 -0.08064553
-0.06515239 -0.0815747 -0.11794368 -0.07579256 0.11029626 -0.009049411 -0.06186734 -0.17020018
0.195151 0.044167228 0.25197163 -0.3042979 -0.005712512 -0.14385957 0.00912709 0.14273144
-0.049092133 0.116055235 0.09797646 -0.27245852 -0.09232752 0.16219373 0.08404529 0.15206116
-0.21716717 -0.14823782 0.014709849 0.41080812 0.06676958 -0.016978446 -0.024059035 0.31307328
-0.07665122 -0.109214686 0.016748589 0.033289317 -0.005858172 -0.15199654 0.083749935 0.194178
0.049249772 0.044345267 0.0058939434 0.02513349 -0.056093566 -0.031575758 -0.13411814 -0.05411341
-0.13199434 -0.089835666 -0.25463933 0.17400734 0.17859313 -0.03680723 0.004438043 0.118870094
-0.53587055 -0.16742419 0.07112529 -0.010632317 0.30637646 -0.08073301 0.0103297 -0.41364098
0.0681025 0.3957623 0.17768522 -0.04054836 0.34688503 -0.27035558 -0.15119484 -0.023595532
0.06870814 0.38320905 -0.14446878 0.15084782 -0.101357 0.008690388 0.009173732 -0.026954722
-0.072201855 0.079643354 -0.08366694 0.1297955 -0.04883105 -0.22138391 -0.04490854 -0.015337347
-0.05109865 -0.03579785 -0.20227462 0.035872 -0.10136333 -0.19547611 0.08512951 -0.039452743
-0.06562677 0.14472014 -0.034133554 0.56060016 -0.094465524 -0.03791135 0.058997676 0.04482815
-0.00032168327 -0.025996111 0.10525089 0.19107714 0.027845366 -0.119203575 0.036606368 -0.10726921
-0.06874167 0.047428448 -0.036876153 -0.012889891 -0.09763386 -0.0071374984 -0.25072235 0.45193756
0.122117236 -0.101000436 0.03308272 0.07086069 -0.04649439 -0.03917079 -0.07475115 -0.061016724
0.03735359 0.015922198 -0.056132592 -0.015230498 0.41945627 0.10925235 -0.23524933 0.114831135
-0.23286133 -0.051640656 0.22725165 0.101459526 0.439933 -0.13095465 0.17826346 -0.27278146
0.4227696 0.07680775 0.31186676 0.06876869 -0.014180645 0.043919653 -0.057619512 0.06151553
-0.39548367 -0.061036628 -0.1304822 0.05356106 0.04051212 -0.065206684 -0.16166909 0.003277955
0.00046025953 0.0056860475 0.020259777 -0.033802003 0.013222011 0.06694772 -0.19546507 0.023685316
-0.12572937 0.19557017 -0.13164493 -0.09234309 0.04741769 0.14216217 -0.22117803 0.10420016
0.008305622 0.011966423 -0.32237473 0.024108298 0.036260094 0.055387612 -0.06283887 0.16285901
-0.04620649 -0.043525044 0.12113727 -0.22511864 0.19103758 -0.11192884 0.0040067956 -0.0845596
-0.12567553 -0.041615475 0.1763358 0.10261079 -0.0061991406 0.0812099 -0.07497818 -0.076998524
0.26655358 -0.04366533 0.11915432 0.129156 -0.09744201 0.17516045 -0.21605627 0.030929064
0.52925634 0.58859086 0.052253656 0.03216913 0.12379213 0.14529605 -0.012367993 -0.054305557

layer_3.bias f4 [6]
00000000: a387 c23c 427a fdbc da54 033b f8ad 11bd
00000010: 1adf 933d 7623 45bd
0.023746317 -0.030942086 0.002003959 -0.0355663 0.072202876 -0.04812952
