pytorch_models/TD3_walker_stand_0113_actor.pth (torch, 521680 bytes, 6 tensors)

layer_1.weight f4 [400, 18]
0	0xbe99ba32	-0.30024868
1	0x3d969c14	0.07353988
2	0xbec1d3be	-0.3785686
3	0xbde7bec2	-0.11315681
4	0xbd86b5d9	-0.065776534
5	0x3bd9b156	0.0066434545
6	0x3dd620ac	0.104554504
7	0x3ea7d08d	0.327763
8	0x3d563e59	0.052305553
9	0xbd4caef4	-0.049971536
10	0xbd27131f	-0.04078972
11	0xbd6a17f2	-0.057151742
12	0xbe68ca75	-0.22733481
13	0xbe0953e8	-0.13410914
14	0xbd946fc7	-0.07247882
15	0x3b43e7ca	0.0029892796
16	0x3dd03a19	0.10167331
17	0x3e0a6c24	0.13517815
18	0xbeade1de	-0.33961385
19	0xbe055af0	-0.13022971
20	0x3e212bd4	0.15739375
21	0x3eef6cf1	0.46762803
22	0xbd9f7644	-0.07786229
23	0x3ea2f635	0.31828466
24	0xbdb1ecce	-0.08687745
25	0x3e05ae81	0.13054849
26	0x3e6ffdf9	0.23436727
27	0xbe4e2a8d	-0.2013342
28	0xbe2a6939	-0.16641702
29	0xbde364cf	-0.11103212
30	0xbde1cd6b	-0.110255085
31	0x3e58c6f7	0.21169649
32	0xbd8e608f	-0.06952011
33	0xbe2492d5	-0.16071637
34	0xbdd667a6	-0.10468988
35	0xbe6c5663	-0.23079829
36	0xbe461d0c	-0.19347018
37	0x3e2cdd41	0.16881277
38	0x3e26374c	0.16232032
39	0xbd1b3fa8	-0.037902504
40	0xbd3e62db	-0.046480995
41	0xbde89e0c	-0.1135827
42	0xbd8d2f7c	-0.068938226
43	0xbebd7e0f	-0.37010238
44	0xbef739ad	-0.4828619
45	0xbedfad3d	-0.43686858
46	0x3e8e575c	0.27801025
47	0x3e2a6b19	0.16642417
48	0xbde69a1f	-0.11259865
49	0xbb5e1ab4	-0.0033890428
50	0x3d4c2df1	0.0498485
51	0x3e81eb31	0.2537475
52	0x3d9d2d18	0.076746166
53	0x3db62dbc	0.08895442
54	0x3e5141fa	0.20435324
55	0xbec9d962	-0.39423662
56	0x3de1e0bc	0.11029193
57	0xbeddd66f	-0.43327662
58	0xbeaecfce	-0.34142917
59	0xbe1f6fd5	-0.15570004
60	0x3e668b7f	0.22514151
61	0x3de54f34	0.111967474
62	0x3c7a04f8	0.015259974
63	0x3e82efbd	0.2557353
64	0x3e538a22	0.20658162
65	0xbd38eecf	-0.04514962
66	0xbc660f97	-0.014041803
67	0x3d9a57ec	0.07536301
68	0x3df9dbbf	0.12200116
69	0x3e367552	0.17818192
70	0xbe41c486	-0.18922624
71	0xbd818fce	-0.06326257
72	0x3e0db292	0.1383765
73	0x3e8e895e	0.27839178
74	0x3de78c9f	0.11306118
75	0x3e8148b2	0.25250775
76	0x3d5b3918	0.053521246
77	0xbdd30491	-0.10303605
78	0xbcb08ff5	-0.021553019
79	0xbecf4bc1	-0.40487483
80	0xbe8d373a	-0.27581197
81	0x3e7f5e4d	0.24938317
82	0x3e3e5136	0.18585667
83	0xbe9de456	-0.3083827
84	0x3d63959d	0.055562604
85	0xbd9b1df6	-0.07574074
86	0xbd049fd8	-0.032379
87	0xbe1fa8b0	-0.15591693
88	0x3e05758a	0.13033119
89	0xbdb8f224	-0.0903056
90	0xbe0c154d	-0.1368
91	0x3d6a7e41	0.05724931
92	0x3e3e5cdf	0.18590115
93	0x3ec9007c	0.39258182
94	0xbecdd900	-0.4020462
95	0xbdb505db	-0.088390075
96	0x3da58be0	0.0808332
97	0xbc80ab13	-0.015706575
98	0x3d6b225d	0.05740582
99	0xbe54a68a	-0.20766655
100	0x3e96b38f	0.29433867
101	0x3e2b5ac5	0.16733845
102	0xbde8f9dd	-0.11375783
103	0xbddd16f4	-0.107953936
104	0xbe341b3a	-0.17588511
105	0xbcc251a6	-0.023720574
106	0xbe3fd049	-0.18731798
107	0xbe3eaa15	-0.18619569
108	0x3e728ab9	0.23685731
109	0xbcafce25	-0.021460602
110	0xbe9693a0	-0.29409504
111	0x3e1b61b9	0.15173997
112	0xbe622dde	-0.2208781
113	0x3ec26148	0.37964845
114	0x3e084d52	0.13310745
115	0xbe9842db	-0.29738507
116	0xbdacd8c7	-0.084397845
117	0xbd4bcaa4	-0.0497538
118	0x3de840cd	0.11340485
119	0x3d785653	0.0606292
120	0x3dcd3172	0.100191966
121	0xbbc5083d	-0.006012945
122	0xbd8bbd5d	-0.068232276
123	0x3e0f4a8e	0.13993284
124	0xbe5b2c73	-0.21403675
125	0xbe1b5c70	-0.15171981
126	0xbe881bfc	-0.2658385
127	0xbe5e44db	-0.21705954
128	0x3dd4d1eb	0.10391601
129	0xbe124afb	-0.14286415
130	0xbe14a6a6	-0.14516696
131	0xbe2937b6	-0.16525158
132	0x3db03880	0.086045265
133	0xbe8014c6	-0.2501585
134	0x3e27e74a	0.16396824
135	0xbe0d7d2b	-0.13817279
136	0xbcc249c2	-0.023716811
137	0xbda78093	-0.081788205
138	0x3c7a53b5	0.015278746
139	0x3e107b8f	0.14109634
140	0x3e6fd34d	0.23420449
141	0x3e17bceb	0.1481816
142	0x3e798e94	0.24370795
143	0xbc8e71b4	-0.017388202
144	0xbeca3ef5	-0.39501157
145	0xbd78245e	-0.060581557
146	0x3e898d4a	0.26865608
147	0x3c612846	0.013742512
148	0xbeb9ab89	-0.36263683
149	0xbe20fc0a	-0.15721145
150	0xbed4d84c	-0.4157127
151	0xbe4bd869	-0.19906773
152	0x3dfb5df9	0.12273783
153	0xbd91022b	-0.07080492
154	0x3c99510c	0.018715404
155	0xbe975dc9	-0.2956374
156	0x3e12ac7d	0.14323612
157	0xbe67cd59	-0.22636928
158	0xbd29b91a	-0.041436292
159	0xbddc69fa	-0.10762401
160	0xbd721131	-0.059098426
161	0xbc405500	-0.011739016
162	0xbedc41fd	-0.43019095
163	0xbb2b4796	-0.0026135198
164	0xbd8956e9	-0.0670603
165	0xbc6df54d	-0.014523816
166	0xbe2f0126	-0.17090282
167	0xbd918441	-0.071053036
168	0xbe105fcf	-0.14099048
169	0xbe3ac005	-0.18237312
170	0x3f029a74	0.51016927
171	0x3d70716b	0.058701914
172	0x3e8992c9	0.268698
173	0x3e08389d	0.13302846
174	0xbe489ee9	-0.1959187
175	0x3e01e7f3	0.12686138
176	0xbc27f7fa	-0.010251993
177	0xbd9f6626	-0.07783155
178	0x3e2dd894	0.16977149
179	0xbe24fe26	-0.16112575
180	0x3ed9150f	0.4239888
181	0xbdc170d5	-0.09445349
182	0x3e73c4da	0.23805562
183	0xbd078270	-0.03308338
184	0x3e520093	0.20508032
185	0x3e88b819	0.26702955
186	0xbccc4155	-0.024933496
187	0x3d6d5355	0.0579408
188	0xbe8d4fe6	-0.2760002
189	0x3ec42290	0.3830762
190	0x3e6772ff	0.22602461
191	0x3e2c15d0	0.16805196
192	0xbe654bad	-0.2239215
193	0x3cc2ecf3	0.023794627
194	0xbe01fed3	-0.12694864
195	0xbe435724	-0.1907621
196	0xbde14a45	-0.11000494
197	0x3da23f97	0.07922285
198	0xbe8d3c8a	-0.2758525
199	0x3d03a1e3	0.03213681
200	0x3e089bc5	0.13340671
201	0x3d46a5cf	0.04849797
202	0xbe908dcc	-0.28233182
203	0xbe53b8e7	-0.20676003
204	0xbe90f471	-0.28311494
205	0x3ea980c4	0.33106053
206	0xbe3bbf64	-0.18334728
207	0x3ec2e8c4	0.3806821
208	0xbcad98e7	-0.021191074
209	0x3d92d8f7	0.07170289
210	0xbb7d9b66	-0.003869736
211	0xbbb82494	-0.005619595
212	0x3afeec0f	0.0019449013
213	0xbd3dbf48	-0.046325
214	0xbd39f090	-0.045395434
215	0xba9f43d8	-0.0012150956
216	0xbe7d8552	-0.24757889
217	0x3c8a6f84	0.016898878
218	0x3ec1969d	0.3781022
219	0xbe0aafc8	-0.13543618
220	0x3cb6b8ba	0.022304881
221	0x3ebed851	0.3727441
222	0x3e86cfdf	0.26330468
223	0xbd01b45d	-0.03166615
224	0xbe1ed1af	-0.15509675
225	0x3e826055	0.2546412
226	0xbe8cd4ab	-0.27506003
227	0xbdab9564	-0.083781034
228	0xbdc41cc0	-0.09575796
229	0xbc981a49	-0.018567221
230	0xbba7f67d	-0.0051258192
231	0x3e766bdd	0.24064584
232	0xbb9c06af	-0.004761539
233	0x3e328b2b	0.17435901
234	0xbd2139c1	-0.03936172
235	0xbe7e65be	-0.24843499
236	0x3e0dcc61	0.13847496
237	0xbeb97e1e	-0.36229032
238	0xbec6e5c3	-0.3884717
239	0xbd285af3	-0.04110236
240	0x3e987cd1	0.29782727
241	0x3ddd308c	0.10800275
242	0x3e7c364d	0.24630089
243	0xbd871720	-0.065962076
244	0x3cb9aabd	0.022664422
245	0xbe9f3379	-0.31093958
246	0x3dac3f2b	0.08410486
247	0xbe3e4eaa	-0.18584695
248	0xbc495656	-0.0122886505
249	0xbdb91bff	-0.09038543
250	0xbd364e2a	-0.044508137
251	0xbab4434f	-0.001375297
252	0x3eb8f87a	0.36127073
253	0xbe005657	-0.12532936
254	0xbe8c5eb3	-0.27416
255	0xbd5c9991	-0.05385739

layer_1.bias f4 [400]
0	0x3ea276ff	0.31731412
1	0x3d401c9f	0.046902295
2	0x3cc16428	0.023607329
3	0x3ddbd113	0.10733237
4	0x3e0fa434	0.14027482
5	0x3dc6c7e8	0.09706098
6	0x3cf23b92	0.029569421
7	0x3e7067a9	0.23477043
8	0xbd47b218	-0.048753828
9	0x3d7bb047	0.061447408
10	0xbe6297e2	-0.22128251
11	0x3ec24997	0.3794677
12	0x3d923e4f	0.07140791
13	0x3e9e2cf4	0.30893672
14	0xbe3d40c5	-0.18481739
15	0xbd055c6c	-0.032558843
16	0xbd9344b8	-0.071908414
17	0x3d0ece4d	0.034864713
18	0x3e683676	0.22677025
19	0x3ee68fdd	0.45031634
20	0xbd83ca96	-0.064351246
21	0xbdae3dc5	-0.08507875
22	0x3c4dddd5	0.012565096
23	0xbe748f3b	-0.23882763
24	0x3ea37e99	0.31932524
25	0xbcf1cc3f	-0.029516337
26	0x3e2f34eb	0.1711003
27	0xbdc2f2c8	-0.09518963
28	0x3ee79d2e	0.45237106
29	0xbe53550d	-0.20637913
30	0x3d3e5e9a	0.046476938
31	0x3e74ffea	0.23925748
32	0x3eceb6b3	0.40373763
33	0x3edfe760	0.43731213
34	0x3ee6ebc7	0.4510176
35	0xbe3ee40a	-0.18641677
36	0x3dc0f5af	0.094218604
37	0xbe0d18e8	-0.13779032
38	0x3ec16f2a	0.37780124
39	0x3eadffc9	0.3398421
40	0xbba931a3	-0.005163388
41	0x3e867ed0	0.26268625
42	0x3eb0aa1a	0.34504777
43	0x3e645941	0.22299673
44	0x3e1a5040	0.15069675
45	0x3e26ac31	0.16276623
46	0x3d9183c7	0.07105213
47	0x3e3500be	0.17676064
48	0x3dc39679	0.09550185
49	0xbe37945c	-0.17927688
50	0x3e4da64e	0.20082971
51	0xbe9a4fc1	-0.30138972
52	0x3e9640bc	0.29346263
53	0x3eeaff22	0.45897776
54	0x3e918603	0.28422555
55	0x3eb4760e	0.3524632
56	0x3cb4ec38	0.022085294
57	0x3ec5aec6	0.38609904
58	0x3e383665	0.179895
59	0xbe4c25bf	-0.19936274
60	0xbe203854	-0.15646487
61	0xb7b0a3ea	-2.1057163e-05
62	0x3e540d5e	0.20708224
63	0xbe15a506	-0.14613733
64	0x3dd3e677	0.10346692
65	0x3e6d093f	0.23148058
66	0x3f05db20	0.52287483
67	0x3e71488c	0.2356283
68	0x3d783dea	0.06060592
69	0x3d2cc0c6	0.04217603
70	0x3bdb9734	0.0067013744
71	0xbdb09d44	-0.08623746
72	0xbe2ea253	-0.1705411
73	0xbe179a05	-0.14804848
74	0xbd0ea158	-0.03482184
75	0x3e8e3b7c	0.27779758
76	0xbd8d731e	-0.069067225
77	0xbd1785d0	-0.036992848
78	0xbe25295a	-0.16129056
79	0x3e08a749	0.13345064
80	0xbe4a0588	-0.19728673
81	0xbe8690cf	-0.26282355
82	0x3e2fbfa1	0.17162944
83	0x3ca49034	0.020088293
84	0x3dc57b1d	0.096426226
85	0x3bddb736	0.006766225
86	0xbca5e890	-0.020252496
87	0x3da20e49	0.07912881
88	0xbdfd004e	-0.12353574
89	0xbcaed3e3	-0.02134127
90	0xbe0978b2	-0.13424948
91	0x3ee16832	0.44024807
92	0xbc4d9328	-0.012547292
93	0x3e93a471	0.28836396
94	0x3e893f72	0.26806217
95	0x3d98f106	0.074678466
96	0x3e0f11d2	0.13971642
97	0xbc8edce8	-0.01743932
98	0x3ec1c9ae	0.37849182
99	0x3eed4319	0.46340254
100	0x3e26cfaf	0.16290163
101	0x3ed106ba	0.40825444
102	0xbe7d96e6	-0.24764594
103	0x3eeaad8d	0.45835534
104	0x3d2450df	0.040116187
105	0x3e7465e0	0.23866987
106	0xbd957469	-0.07297594
107	0x3e1f2d76	0.15544686
108	0x3e7717dd	0.24130197
109	0xbe5f8341	-0.21827413
110	0x3e84454a	0.25834113
111	0x3d78a4bd	0.06070398
112	0x3e98cea7	0.29845163
113	0x3ca66add	0.020314628
114	0x3de64ad1	0.11244739
115	0x3e53a1ca	0.20667186
116	0xbe818969	-0.25300148
117	0xbdbc787e	-0.092026696
118	0xbce73e6e	-0.028228011
119	0xbe91ba69	-0.28462532
120	0xbe52ee96	-0.20598826
121	0xbe5e3503	-0.2169991
122	0x3df3903c	0.11892745
123	0xbe48cc17	-0.19609104
124	0x3d83de6b	0.06438907
125	0xbc079e65	-0.00827751
126	0xbd95efe6	-0.073211476
127	0xbda04944	-0.07826474
128	0x3d92ff97	0.07177656
129	0x3e0bdac2	0.13657668
130	0xbd428d34	-0.047497943
131	0x3ee57bda	0.44821054
132	0xbe333bf8	-0.17503345
133	0x3d0a1a73	0.03371663
134	0xbd8eb647	-0.069683604
135	0x3ee1bee2	0.44090945
136	0xbd3a26ed	-0.04544728
137	0x3eabb829	0.3353894
138	0x3d9c68a1	0.07637144
139	0x3eb6e048	0.35717988
140	0x3cc1b617	0.023646398
141	0xbe122579	-0.14272107
142	0xbd3cf92a	-0.04613606
143	0x3e9ba0cc	0.30396116
144	0x3ec3c092	0.38232857
145	0xbcbb8028	-0.022888258
146	0x3cbede1a	0.023299266
147	0xbdc4ce75	-0.09609691
148	0xbb81fa79	-0.0039666262
149	0xbcf6f1b5	-0.030144552
150	0x3e4c4a3d	0.19950195
151	0xbe4c4041	-0.19946386
152	0x3d86ab67	0.06575661
153	0xbc9da683	-0.019244438
154	0xbde06687	-0.109570555
155	0x3d9d8bea	0.07692702
156	0x3dc813b7	0.09769385
157	0xbe4e2784	-0.20132262
158	0xbe1f9e8b	-0.15587823
159	0x3ca20dfc	0.019782059
160	0x3d16dc04	0.036830917
161	0x3b9763d5	0.004620055
162	0x3db71c40	0.08940935
163	0x3e2d359f	0.16914986
164	0xbe77118a	-0.24127784
165	0xbcee6129	-0.029099064
166	0x3e64c661	0.223413
167	0x3c9bb213	0.01900581
168	0x3d89a879	0.06721587
169	0xbe7f1484	-0.2491017
170	0xba3cf918	-0.0007208749
171	0xbd3b1e83	-0.045683395
172	0xbe6fc9b4	-0.23416787
173	0x3e4a953f	0.19783495
174	0x3d7fd946	0.062463067
175	0xbe8c3490	-0.27383852
176	0x3e819994	0.25312483
177	0xbe3a4c9a	-0.18193284
178	0x3be37011	0.0069408496
179	0xbd972f65	-0.07382087
180	0x3e8efb32	0.27926022
181	0xbe1ae353	-0.1512578
182	0x3ef57d54	0.4794718
183	0x3ea61168	0.32435155
184	0xbd2c8747	-0.042121198
185	0xbe2ace11	-0.1668017
186	0x3ce01d58	0.027357742
187	0xbdee9b13	-0.11650672
188	0x3e9767d6	0.29571408
189	0x3e54dc16	0.20787081
190	0x3eb45e39	0.35228136
191	0x3eae3831	0.34027246
192	0xbe3764d8	-0.17909563
193	0xbdbaa6bb	-0.091138326
194	0x3eb5e405	0.35525528
195	0x3e9df4fd	0.30850974
196	0x3ebec742	0.37261397
197	0xbdf05ca5	-0.117364205
198	0x3e149fc2	0.14514068
199	0xbe3ae2c7	-0.18250571
200	0x3e6625e6	0.22475395
201	0xbe801fdd	-0.2502431
202	0x3eb575f4	0.35441554
203	0xbdf379ed	-0.1188849
204	0x3e51e4d8	0.20497453
205	0x3eb751a4	0.35804474
206	0xbe31c91a	-0.1736187
207	0x3e8a1504	0.2696916
208	0xbe87a58a	-0.26493484
209	0x3e31e5e7	0.17372857
210	0x3ea8a76a	0.32940227
211	0xbcb59487	-0.02216555
212	0xbd939998	-0.0720703
213	0xbdc91431	-0.09818304
214	0x3ea53ed6	0.32274503
215	0xbb75d0d5	-0.0037508507
216	0x3ddae803	0.10688784
217	0x3ec5cfd9	0.38635138
218	0x3d3c622a	0.045992054
219	0xbe10cc02	-0.14140323
220	0x3e579b8a	0.21055427
221	0x3e2960d2	0.1654084
222	0x3ee86680	0.453907
223	0x3e9dc2c4	0.30812657
224	0x3d9820d1	0.07428134
225	0xbe1442a3	-0.14478545
226	0x3e120ad8	0.14261949
227	0xbda3e855	-0.08003298
228	0x3e6b5277	0.22980677
229	0x3e3f7db3	0.18700294
230	0x3eb6dd57	0.35715744
231	0x3e4fa9b5	0.20279582
232	0x3bddeaf3	0.006772393
233	0xbeaa4763	-0.3325759
234	0xbe6ef020	-0.23333788
235	0x3ee39b65	0.44454494
236	0x3d469f86	0.048491977
237	0xbe095e2f	-0.13414834
238	0x3ed27a18	0.41108775
239	0xbec66779	-0.38750818
240	0x3ea0bc9f	0.31393906
241	0x3ee06690	0.4382825
242	0xbd1a891f	-0.037728425
243	0x3e346d42	0.17619804
244	0x3ec8909a	0.39172822
245	0xbd76f40d	-0.06029134
246	0xbe3c3dbf	-0.1838293
247	0x3e1cda7e	0.15317723
248	0x3dc3f738	0.095686376
249	0xbddd658c	-0.10810384
250	0xbdddc3d0	-0.10828364
251	0x3ef8165d	0.48454562
252	0x3dbf97d8	0.09355134
253	0xbe1037a6	-0.14083728
254	0x3ea5ad36	0.32358712
255	0x3df44e52	0.11929001

layer_2.weight f4 [300, 400]
0	0x3d1ae8c7	0.03781965
1	0x3c77e435	0.015130092
2	0xbca54eca	-0.020179171
3	0xbd793718	-0.060843557
4	0x3d22a8cc	0.03971176
5	0x3c964246	0.018342149
6	0xbdd26bf3	-0.10274496
7	0xbdd18be4	-0.1023176
8	0x3d42a3c1	0.04751945
9	0x3c887602	0.016657833
10	0x3d0e438f	0.034732398
11	0x3d2f56ee	0.042807512
12	0x3af73132	0.0018859266
13	0xbcd07655	-0.02544705
14	0xbe28c740	-0.16482258
15	0xbdc459c8	-0.09587437
16	0xbdf8a910	-0.12141621
17	0xbd07d50a	-0.033162154
18	0x3d95a474	0.073067576
19	0xbe0ac96f	-0.13553403
20	0xbd51bd5f	-0.05120599
21	0xbc03abd7	-0.008036575
22	0xbde918fe	-0.1138172
23	0xbd5c5fe2	-0.05380238
24	0xbd9d1261	-0.07669521
25	0x3d52c314	0.051455572
26	0x3bbe4a45	0.0058071935
27	0xbd86daa1	-0.06584669
28	0xbd380037	-0.04492208
29	0xbdac3117	-0.08407801
30	0x3c0bde55	0.008536895
31	0x3d2b070d	0.04175477
32	0x3ce70c82	0.028204206
33	0xbd3956e2	-0.045248874
34	0xbd914cdd	-0.07094739
35	0x3bb20e09	0.005433802
36	0x3ddf66ee	0.10908304
37	0x3d0f0013	0.03491218
38	0xbd4c6756	-0.049903236
39	0x3d8baaeb	0.068197094
40	0xbe0ae7ee	-0.13565037
41	0x3c1d4eda	0.009601319
42	0xbbb776c4	-0.0055988748
43	0x3ca1c195	0.019745627
44	0xbd5264ab	-0.051365536
45	0xbd37420c	-0.04474072
46	0x3e177c30	0.14793468
47	0x3c6fa3bc	0.01462644
48	0xbd9aa29b	-0.07550546
49	0x3e3b7344	0.18305689
50	0x3cfd72a6	0.030938458
51	0xbdad55c1	-0.08463622
52	0x3d1debb3	0.03855486
53	0xbc71fcc8	-0.01476974
54	0xbda0d318	-0.07852763
55	0x3dcaea61	0.099079855
56	0xb962b3ce	-0.00021620022
57	0xbd6ebfba	-0.058288313
58	0x3ca682e6	0.02032609
59	0xbd56fc85	-0.052486915
60	0x3d6df6f1	0.05809683
61	0x3c050913	0.008119839
62	0xbdba201b	-0.09088155
63	0x3ddbb081	0.10727025
64	0x3d2a393b	0.041558485
65	0xbcfbdeb7	-0.030745847
66	0xbde7c3b9	-0.11316628
67	0xbc913424	-0.017725058
68	0xbd76005f	-0.060058948
69	0xbd0f23ef	-0.03494638
70	0x3d81a272	0.06329812
71	0xbd3c0685	-0.045904655
72	0xbdb96904	-0.09053233
73	0x3cebe771	0.028796883
74	0x3b4f0f1a	0.0031594695
75	0x3dc7203a	0.097229436
76	0xbca9bf68	-0.020721152
77	0x3d5c0d73	0.053723764
78	0x3c8409ad	0.016117895
79	0xbdb05af4	-0.08611098
80	0xbb4c4910	-0.0031171478
81	0xbd1eb73d	-0.03874897
82	0x3da65ea4	0.0812352
83	0x3c953892	0.018215451
84	0xbd6b9a4c	-0.057520196
85	0xbdfca24b	-0.123356424
86	0x3e12eab7	0.14347349
87	0xbe64e473	-0.22352771
88	0xbd91ca45	-0.07118658
89	0x3c8b0318	0.016969249
90	0xbc14fb1b	-0.009093071
91	0x3d47c97c	0.048776135
92	0x3d0b42a8	0.033999115
93	0x3e1f4ffc	0.15557855
94	0x3c3a9604	0.011388306
95	0xbd2665fd	-0.040624607
96	0xbd9a5404	-0.07535556
97	0xbe0c8703	-0.13723378
98	0xbe03d36b	-0.12873618
99	0xbd27426f	-0.04083484
100	0xbda1e513	-0.079050206
101	0xbe0ab6c2	-0.13546279
102	0x3cbf290e	0.023335006
103	0x3dca2fde	0.09872411
104	0x3c08760a	0.008328924
105	0x3da81f9c	0.08209154
106	0xbdb8cb47	-0.09023147
107	0x3d39c026	0.045349263
108	0x3ca63ba9	0.02029212
109	0x3c8899ca	0.016674895
110	0xbd4cd686	-0.050009273
111	0xbc41a858	-0.011819921
112	0xbde0ef2a	-0.10983117
113	0x3d8e3d02	0.0694523
114	0x3d7f8206	0.06237986
115	0x3ce7ee40	0.028311849
116	0xbc7babb2	-0.01536076
117	0x3deace9f	0.11465191
118	0x3d26b945	0.04070403
119	0x3dae998f	0.08525383
120	0xbe000f2c	-0.12505788
121	0xbc7b9582	-0.01535547
122	0xbb0520bf	-0.0020313708
123	0x3c7534e8	0.014966227
124	0x3c4efeaa	0.012633959
125	0x3d65a6ab	0.05606715
126	0x3dff6d3b	0.12472006
127	0x3ace095a	0.001571934
128	0xbbd64075	-0.0065384456
129	0xbd314355	-0.043277103
130	0xbc4cf21a	-0.012508893
131	0x3d6ab707	0.057303455
132	0x3cd612d7	0.02613203
133	0xbd2f0f28	-0.042739064
134	0xbd6adac3	-0.057337534
135	0xbd7644d3	-0.06012423
136	0xbda4a721	-0.0803969
137	0xbde4fdd0	-0.111812234
138	0x3d2129b9	0.03934643
139	0x3c2da31c	0.01059797
140	0xbd1c228b	-0.03811888
141	0xbcbee1d6	-0.023301046
142	0x3d38da81	0.045130257
143	0xbd718aa6	-0.058970116
144	0x3cebb9a5	0.028775046
145	0xbd9ce9fd	-0.07661817
146	0xbcd25f2f	-0.025680153
147	0x3d4a32fb	0.049365025
148	0xbc855350	-0.016275078
149	0xbdbc9023	-0.092071794
150	0x3c6994c3	0.014256659
151	0xbc6f77f6	-0.014616003
152	0x3e137cac	0.14403027
153	0xbd7db3ea	-0.061939158
154	0xbcec7acf	-0.028867153
155	0x3bcb6e7a	0.006208238
156	0x3d3796d5	0.04482158
157	0xbdcc96bd	-0.099896885
158	0x3d02d6d5	0.03194316
159	0x3e1e1b49	0.15440096
160	0x3d6aca9f	0.05732214
161	0x3c542c42	0.012950005
162	0xbb09813d	-0.0020981573
163	0x3e1b6dc1	0.15178587
164	0xbb47ba72	-0.003047612
165	0xbda0d0a1	-0.07852293
166	0x3d0deeca	0.034651555
167	0x3da46a0e	0.08028041
168	0xbd0307f0	-0.03198999
169	0x3d1513d3	0.03639586
170	0xbdc9dae6	-0.09856205
171	0x3d231bc1	0.03982139
172	0x3d0ce43b	0.034397345
173	0x3cb18814	0.021671332
174	0xbd526bef	-0.051372465
175	0xbd131048	-0.0359042
176	0xbcec925c	-0.028878383
177	0xbdf4fd4a	-0.119623736
178	0x3c85db27	0.016339852
179	0xbb813361	-0.0039428924
180	0xbc8fde07	-0.017561926
181	0xbd2a08d9	-0.041512344
182	0xbd9454c9	-0.07242734
183	0xbda460f2	-0.08026303
184	0xbd310b70	-0.0432238
185	0xbd87927c	-0.066197366
186	0xbd2a3b34	-0.041560367
187	0xbb9677a5	-0.0045918995
188	0x3da09d49	0.078425
189	0xbc4f9177	-0.012668959
190	0xbde7c3f3	-0.11316671
191	0x3d18a846	0.037269853
192	0xbe1bbd30	-0.15208888
193	0xbdfdc0d5	-0.123902954
194	0x3d3b5e46	0.045744203
195	0x3d1cee1a	0.03831301
196	0xbd3ef26c	-0.04661791
197	0x3dc2f9d4	0.09520307
198	0x3c88783d	0.016658897
199	0xbc38aea4	-0.011272106
200	0xbcfcf855	-0.030880133
201	0x3d294bc2	0.041332014
202	0x3ad54266	0.0016270399
203	0x3dfd3479	0.12363524
204	0xbcec5251	-0.028847845
205	0xbc7b2d4c	-0.015330624
206	0x3db1856a	0.08668025
207	0x3d4035dc	0.046926364
208	0x3d8bac54	0.06819978
209	0x3d59162c	0.05299966
210	0xbd074fe7	-0.033035185
211	0x3d91332c	0.070898384
212	0x3d617dbd	0.055051554
213	0x3e038482	0.12843516
214	0x3d400cee	0.04688733
215	0xbd6205cb	-0.055181306
216	0xba90e30e	-0.0011053996
217	0xbe1336f3	-0.1437643
218	0xbd9c08bd	-0.07618854
219	0x3c4b8caa	0.012423674
220	0xbd20dd7a	-0.039273717
221	0xbdb9658f	-0.09052574
222	0xbd3fdf53	-0.046843838
223	0x3e4a96db	0.1978411
224	0x3d3feab2	0.046854682
225	0x3c8a3b65	0.016874025
226	0xbd7fda48	-0.06246403
227	0x3aea669e	0.0017883366
228	0x3d4b2e9f	0.04960501
229	0x3d33fdc7	0.043943193
230	0x3d465079	0.04841659
231	0xbd9ba707	-0.07600217
232	0x3dba1c0e	0.09087382
233	0x3c14e23e	0.0090871435
234	0xbd825fca	-0.063659266
235	0x3e44aec1	0.19207288
236	0x3cf54ea5	0.029944727
237	0xbc8d5ecb	-0.017257115
238	0xba2b9ba7	-0.00065463263
239	0x3db54254	0.08850542
240	0xbca7a2b2	-0.020463321
241	0x3d0b4270	0.033998907
242	0xbd946420	-0.0724566
243	0xbdebad34	-0.11507645
244	0x3ce6218f	0.028092174
245	0xbdbb874c	-0.09156665
246	0x3dbfaf0a	0.09359558
247	0x3d977695	0.073956646
248	0x3e299144	0.1655932
249	0xbd845b3f	-0.06462716
250	0x3c74aa43	0.014933172
251	0xbdd385bb	-0.103282414
252	0xbd8208a6	-0.06349306
253	0xbe03ccda	-0.12871113
254	0xbd0ebd02	-0.03484822
255	0x3d216b80	0.03940916

layer_2.bias f4 [300]
0	0xbc773d08	-0.015090235
1	0xbd249ea0	-0.04019034
2	0xbd7252ed	-0.059161115
3	0x3d9227c4	0.07136491
4	0xbdbaf0f5	-0.0912799
5	0xbe211a96	-0.15732798
6	0xbe53bcb7	-0.20677458
7	0xbdc83ba9	-0.09777004
8	0xbcb5406f	-0.02212545
9	0x3df5db44	0.12004712
10	0xbce7e37b	-0.028306713
11	0x3a2c60e4	0.0006575717
12	0x3d911ce8	0.070855916
13	0x3d91cc26	0.07119016
14	0xbcb2c8e0	-0.0218243
15	0xbd8a3bc5	-0.067496814
16	0xbda861ff	-0.08221816
17	0x3e088914	0.13333541
18	0x3ce82fb4	0.02834306
19	0xbe466738	-0.19375312
20	0x3d071d1d	0.03298675
21	0x3d236706	0.039893173
22	0x3d1dc3e1	0.038516883
23	0x3ccebf98	0.025237843
24	0xbe0981de	-0.13428447
25	0xbd558170	-0.052125394
26	0xbdbefa0c	-0.093250364
27	0xbd8af93b	-0.06785818
28	0x3d9fe4fb	0.078073464
29	0x3d339af1	0.043848936
30	0x3d7793c5	0.06044366
31	0xbe293e00	-0.16527557
32	0xbdb81912	-0.08989157
33	0x3e0a40ce	0.13501284
34	0x3d1d9207	0.03846934
35	0xbdb58c23	-0.088646196
36	0xbd9e29c0	-0.07722807
37	0xbbcffa7e	-0.0063469997
38	0x3cd6b5e7	0.026209785
39	0xbbbaaaa5	-0.005696612
40	0xbd95a8a8	-0.07307559
41	0xbdb070b1	-0.08615244
42	0x3d7be782	0.06150008
43	0xbdf0819e	-0.117434725
44	0x3dab883f	0.08375596
45	0x3d92ab95	0.07161633
46	0xbd86eb0c	-0.065878004
47	0x3e0aa926	0.13541088
48	0x3c9bf710	0.019038707
49	0x3cf1da68	0.02952309
50	0xbda13d07	-0.07872968
51	0x3bd05e48	0.0063588955
52	0x3d379006	0.044815086
53	0xbdbb4c3e	-0.091454014
54	0x3c8509ce	0.016240027
55	0x3d2f068c	0.042730853
56	0xbd0891f8	-0.03334233
57	0x3d7d2d71	0.061810914
58	0xbe0fc6c1	-0.14040662
59	0x3daf1bf3	0.08550253
60	0xbcabf5db	-0.020991256
61	0x3d700ebd	0.058607806
62	0x3d868db5	0.06569997
63	0xbd7f73d8	-0.062366337
64	0x3ba4f5ac	0.005034169
65	0xbd6c580f	-0.057701167
66	0xbbd58ed3	-0.00651727
67	0xbe558e1c	-0.20854992
68	0xbd99e402	-0.07514192
69	0xbd2bc0da	-0.041931964
70	0xbd7c9ef3	-0.061675023
71	0xbdbd5821	-0.09245325
72	0xbd63d0a2	-0.05561889
73	0x3d53a86c	0.05167429
74	0x3c696b97	0.014246843
75	0x3db66cda	0.089074805
76	0x3d153b6b	0.03643362
77	0xbe23b20f	-0.15985893
78	0xbc1b8de0	-0.009494275
79	0x3d1af540	0.037831545
80	0xbdf3a5ba	-0.11896844
81	0x3bb4db70	0.005519323
82	0x3cc87eb3	0.024474477
83	0x3d0d17b9	0.03444645
84	0x3de55dac	0.11199507
85	0x3d0c3f18	0.03423986
86	0x3c6e8606	0.014558321
87	0x3c80c04c	0.015716694
88	0xbe257ac6	-0.16160116
89	0xbcc2c384	-0.02377487
90	0xbe5d91da	-0.21637669
91	0xbd070e8b	-0.032972854
92	0x3caf5e07	0.02140714
93	0x3dc14ead	0.09438834
94	0x3dbe00b8	0.09277481
95	0x3d90422b	0.070438705
96	0xbdfea84f	-0.12434446
97	0xbccfdb71	-0.025373193
98	0x3dce6545	0.100779094
99	0x3d8fed67	0.07027703
100	0xbcf7d18e	-0.03025129
101	0x3c0023bc	0.00782102
102	0x3dc483a0	0.09595418
103	0xbda7c9b1	-0.081927665
104	0x3de2e546	0.11078887
105	0xbd0a2723	-0.03372873
106	0x3c2ecfa0	0.010669619
107	0x3d37737c	0.04478787
108	0xbdd4f197	-0.10397642
109	0xbe09d4c6	-0.13460073
110	0xbd8b2ad0	-0.06795275
111	0xbe639790	-0.22225785
112	0xbbd5fa00	-0.0065300465
113	0xbe0affa0	-0.13574076
114	0x3d027be1	0.03185642
115	0xbd59dba9	-0.053188
116	0xbc63f285	-0.013912802
117	0x3d98d51c	0.074625224
118	0x3d28efd8	0.041244358
119	0xbca55bf4	-0.020185448
120	0x3cf843de	0.0303058
121	0x3dbd1d61	0.09234119
122	0x3d054753	0.032538723
123	0x3d239231	0.03993434
124	0xbcadd47c	-0.021219485
125	0xbd4b00e0	-0.04956138
126	0xbd50f65c	-0.051016197
127	0x3d62f436	0.05540868
128	0x3d930313	0.07178321
129	0xbccccbf0	-0.024999589
130	0x3d08c5a7	0.03339162
131	0x3d13208b	0.035919707
132	0x3c3d9465	0.011571025
133	0xbe17bbb1	-0.14817692
134	0x3d0cdfc3	0.034393083
135	0x3d20912f	0.039200958
136	0xbd4e92e6	-0.050433062
137	0x3d3941d3	0.04522879
138	0x3dce24c6	0.10065608
139	0x3b6d0698	0.003616726
140	0xbd324cb0	-0.043530166
141	0x3bcd3684	0.0062626023
142	0x3db5c170	0.08874786
143	0x3d468572	0.048467107
144	0xbdb78549	-0.08960969
145	0xbd1bfc1a	-0.03808222
146	0x3c85a18e	0.016312387
147	0x3de41453	0.11136689
148	0x3dfd2c6c	0.123619884
149	0x3be6f6c8	0.0070484616
150	0x3e08fca0	0.13377619
151	0xbdf1ae1b	-0.11800786
152	0xbdfed33f	-0.12442636
153	0x3de11a2c	0.1099132
154	0xbd3a1bfa	-0.045436837
155	0xbdd95d04	-0.106134444
156	0x3cc42e3a	0.023947824
157	0x3cd0488d	0.02542522
158	0x3df3d9d5	0.119067825
159	0x3d80aee6	0.06283359
160	0xbc9d3fc8	-0.019195452
161	0x3d8c52b2	0.068517104
162	0x3dcad360	0.09903598
163	0x3e74a7b3	0.23892097
164	0xbd4ee24b	-0.05050878
165	0xbdb48b35	-0.08815614
166	0xbdf658b6	-0.12028639
167	0x3a89c5a7	0.0010511175
168	0x3d8281bc	0.06372401
169	0x3dcf2206	0.10113911
170	0xbd9cfec8	-0.07665783
171	0x3dc400e8	0.09570485
172	0x3df1b3b4	0.11801854
173	0x3d1498af	0.036278423
174	0xbda64577	-0.08118718
175	0x3dac0dec	0.08401093
176	0xbe36ba63	-0.17844538
177	0xbd97f9dc	-0.07420704
178	0x3e51ecbf	0.20500468
179	0x3e08542c	0.13313359
180	0x3cf01d64	0.02931089
181	0xbda44d46	-0.08022551
182	0xbde79eba	-0.113095716
183	0xbd918e31	-0.07107199
184	0xbe96c85c	-0.29449737
185	0xbdc5dd77	-0.09661382
186	0x3d0a2da6	0.03373494
187	0x3e01bb70	0.12669158
188	0xbda3892b	-0.07985147
189	0x3a96f05f	0.0011515728
190	0x3b06f4a1	0.0020592588
191	0x3d05949b	0.032612424
192	0xbea282fb	-0.31740555
193	0xbafe9289	-0.0019422333
194	0x3d058802	0.03260041
195	0x3e0439c6	0.12912664
196	0xbdc5a228	-0.096500695
197	0x3d14f145	0.036362905
198	0x3dcdf979	0.10057349
199	0xbd882b2b	-0.06648859
200	0x3d760129	0.0600597
201	0x3d9ab2cf	0.07553636
202	0x3cb0183d	0.021495933
203	0xbcb79a52	-0.022412453
204	0x3e1f3053	0.15545778
205	0x3cb85f54	0.022506393
206	0xbe08b622	-0.13350728
207	0x3d428f8b	0.047500174
208	0x3e11e0c7	0.14245902
209	0xbcac6299	-0.021043109
210	0x3d3255da	0.043538906
211	0xbd895c28	-0.067070305
212	0x3c671722	0.014104636
213	0x3d53fcb7	0.05175468
214	0xbda5223b	-0.080631696
215	0x3df333fe	0.11875151
216	0x3d04a8ca	0.032387532
217	0x3d20995c	0.039208755
218	0x3e04cf09	0.12969603
219	0x3c9b7518	0.018976733
220	0x3dafb036	0.085785314
221	0xbe0acebb	-0.13555424
222	0x3cb53e95	0.022124568
223	0xbd0f4364	-0.034976378
224	0x3d8fee18	0.07027835
225	0x3c98a43f	0.018633006
226	0x3db29a7a	0.0872087
227	0x3d942b48	0.07234818
228	0xbd0a846a	-0.033817686
229	0x3dad3efb	0.08459278
230	0x3c5f59ce	0.013632251
231	0xbcdf1a32	-0.02723417
232	0xbc9a84fe	-0.018862244
233	0x3dafe555	0.085886635
234	0x3da9370a	0.08262451
235	0x3ddf862c	0.10914263
236	0x3dd564f3	0.10419645
237	0x3e2164dc	0.15761131
238	0xb8b866c7	-8.7929475e-05
239	0x3def9b86	0.116995856
240	0x3dd316ef	0.103071086
241	0x3d73833d	0.05945133
242	0x3cf5420c	0.02993872
243	0x3de8ef22	0.11373736
244	0x3d1343e4	0.035953417
245	0x3c85c5bf	0.016329644
246	0x3d3cee10	0.04612547
247	0xbcfc56c7	-0.030803097
248	0xbdbc75b7	-0.0920214
249	0x3d812000	0.06304932
250	0x3d82078c	0.06349096
251	0x3d8fad4c	0.07015476
252	0xbe1afe24	-0.1513601
253	0x3d8b3d71	0.067988284
254	0x3d1117a6	0.035422944
255	0xbd2c8a53	-0.042124104

layer_3.weight f4 [6, 300]
0	0xbe0ce1ef	-0.13758062
1	0xbddf4817	-0.10902422
2	0x3cae76e2	0.021296922
3	0xbd8799f1	-0.06621159
4	0xbe00af5c	-0.12566894
5	0x3ea307fa	0.31842023
6	0xbc8bb209	-0.017052667
7	0x3d05d824	0.03267683
8	0xbd1eecf3	-0.03880019
9	0x3dcbd40a	0.099525526
10	0x3ec83377	0.39101765
11	0xbe48a16c	-0.19592828
12	0x3cfd6400	0.030931473
13	0x3dd49522	0.10380007
14	0xbe071bdb	-0.1319422
15	0x3e90fa61	0.28316024
16	0xbdb580bf	-0.08862447
17	0x3e3987bc	0.18118185
18	0xbe58de98	-0.21178663
19	0x3eaeb8b9	0.34125307
20	0x3e293b86	0.16526613
21	0x3ba04ef8	0.0048922263
22	0x3c6f6355	0.014611085
23	0xbdca7964	-0.09886435
24	0x3ea0938f	0.31362578
25	0xbdac2527	-0.08405524
26	0x3e0a1191	0.13483264
27	0xbdda99db	-0.10673877
28	0x3cfd8bd7	0.03095047
29	0xbe61c1b9	-0.22046556
30	0xbc237333	-0.009976196
31	0xbd00592d	-0.031335045
32	0x3dee53cd	0.116370775
33	0x3d32d66b	0.043661516
34	0x3d1707ed	0.036872793
35	0x3ef7a6f3	0.4836956
36	0x3dc93371	0.09824265
37	0x3d2d3ea6	0.042296074
38	0xbd8e7a3b	-0.06956907
39	0xbdbdcc04	-0.092674285
40	0xbd5d4c13	-0.05402763
41	0xbdb84e40	-0.089993
42	0xbdfad035	-0.122467436
43	0xbdaee467	-0.08539658
44	0x3dbfc2c0	0.093633175
45	0x3bb40dad	0.0054947943
46	0xbd738e07	-0.05946162
47	0xbe43f15c	-0.1913504
48	0x3e0590fd	0.1304359
49	0x3d588ce4	0.05286874
50	0x3e3ea0c7	0.18616019
51	0xbe2cfe06	-0.16893777
52	0x3ab6455b	0.0013906168
53	0xbe08ea36	-0.13370594
54	0x3c777272	0.0151029695
55	0x3dcba085	0.09942726
56	0xbd85e3a3	-0.06537559
57	0x3e09233f	0.13392352
58	0x3d644816	0.05573281
59	0xbe84d256	-0.25941724
60	0xbdc07a4c	-0.09398326
61	0x3e17e318	0.14832723
62	0x3d993862	0.07481457
63	0x3d8db499	0.06919212
64	0xbd8cdfc2	-0.06878616
65	0xbe097a7c	-0.1342563
66	0x3c96da8e	0.018414762
67	0x3e750384	0.23927122
68	0x3d312a68	0.043253332
69	0xbc92e46b	-0.017931184
70	0xbbebe3a5	-0.007198768
71	0x3e94b45a	0.29043847
72	0xbd955664	-0.07291868
73	0xbd57d5be	-0.052694075
74	0x3cd7ef97	0.026359363
75	0x3c01c3f6	0.007920256
76	0xbc6e1863	-0.014532181
77	0xbd99d6da	-0.07511683
78	0x3d43fd32	0.047848888
79	0x3e36126d	0.17780466
80	0x3d1e55f5	0.038656194
81	0x3ce38d2e	0.02777728
82	0x3ba9ff58	0.00518791
83	0x3ccde4c0	0.02513349
84	0xbd01011a	-0.03149519
85	0xbd444297	-0.047915068
86	0xbde41415	-0.11136643
87	0xbd4a539d	-0.049396146
88	0xbd8dd050	-0.06924498
89	0xbd1ebbda	-0.038753368
90	0xbe364b7a	-0.1780223
91	0x3e3228b3	0.17398338
92	0x3df97048	0.12179619
93	0xbd2f7872	-0.042839475
94	0x3c93ec44	0.018056996
95	0x3dee9a98	0.1165058
96	0xbefdb2de	-0.49550527
97	0xbe1c29e4	-0.15250355
98	0x3dac3c9f	0.0841
99	0xbaa6a625	-0.001271431
100	0x3e95fddb	0.2929524
101	0xbd9730f6	-0.073823854
102	0x3c625389	0.013813862
103	0xbd8db6f0	-0.06919658
104	0x3d923509	0.07139022
105	0x3ebd93e7	0.37026903
106	0x3e4358c9	0.19076838
107	0xbd3f2377	-0.04666468
108	0x3e62888f	0.22122405
109	0xbe758eb4	-0.23980218
110	0xbdd44571	-0.103648074
111	0x3a408ab6	0.0007344888
112	0x3d83281f	0.06404137
113	0x3e5d54c4	0.21614367
114	0xbde5e5bb	-0.11225458
115	0x3e05fde1	0.13085128
116	0xbddfb78f	-0.10923683
117	0x3c2f26c2	0.010690393
118	0x3c3915fd	0.011296746
119	0xbcc417e5	-0.023937175
120	0xbdbd94b8	-0.092568815
121	0x3d3d419e	0.046205156
122	0xbdd41519	-0.103555866
123	0x3de7dc51	0.11321319
124	0xbd637a44	-0.055536523
125	0xbdfa3586	-0.1221724
126	0xbd39a57d	-0.045323838
127	0xbc4123fd	-0.011788365
128	0xbd689787	-0.056785133
129	0xbc87e8c3	-0.016590482
130	0xbe49e69c	-0.19716877
131	0x3d27857b	0.04089878
132	0xbda9c485	-0.08289436
133	0xbe1a4e38	-0.150689
134	0x3d719458	0.058979362
135	0xbd43ee61	-0.047834758
136	0xbca0215c	-0.019547157
137	0x3dc2c20a	0.09509666
138	0xbd34acaf	-0.044109996
139	0x3ed46646	0.41484278
140	0xbdb0e999	-0.08638305
141	0xbd3009f5	-0.042978246
142	0x3d93ac46	0.07210593
143	0x3d288c0d	0.041149188
144	0xbbf5324a	-0.0074828016
145	0xbcf6c6f1	-0.03012416
146	0x3ddb21ff	0.106998436
147	0x3e44778f	0.19186233
148	0x3d1a91d4	0.03773673
149	0xbdbe54ae	-0.09293495
150	0x3bdbb6b5	0.00670513
151	0xbdcceafd	-0.10005758
152	0xbdeaafe5	-0.114593305
153	0x3d4043dc	0.046939716
154	0xbd171f5f	-0.036895152
155	0xbd08866d	-0.033331323
156	0xbdb7904d	-0.0896307
157	0xbcae4416	-0.0212727
158	0xbcd1424d	-0.02554431
159	0x3eacd1f0	0.3375392
160	0x3d82769e	0.06370281
161	0xbda63f91	-0.08117593
162	0x3cb3f227	0.021966053
163	0x3c9fb079	0.019493328
164	0xbcf3f273	-0.029778695
165	0xbd1904d3	-0.037358116
166	0xbd83153b	-0.06400534
167	0xbd9c74c3	-0.07639458
168	0x3d2ab46d	0.041675974
169	0x3c769d52	0.0150521565
170	0xbd81437e	-0.06311701
171	0xbbe36e63	-0.0069406494
172	0x3ed8a72c	0.42315042
173	0x3db57b60	0.088614225
174	0xbe5d6b09	-0.21622862
175	0x3dc17ae9	0.094472714
176	0xbe0d4deb	-0.13799255
177	0xbd928826	-0.071548745
178	0x3e18a21a	0.14905587
179	0x3dd355fd	0.10319135
180	0x3e91eb60	0.2849989
181	0xbddfa41c	-0.10919973
182	0x3e3b7765	0.18307264
183	0xbe4bc8f1	-0.19900872
184	0x3eb0f7a9	0.3456395
185	0x3dcbe652	0.099560395
186	0x3e7f1191	0.24909045
187	0x3d6215b6	0.055196486
188	0xbce16c4a	-0.027517457
189	0x3d88d2bc	0.066808194
190	0xbd8d43cc	-0.06897697
191	0x3d9768f9	0.07393069
192	0xbe9c0307	-0.3047106
193	0xbd946406	-0.072456405
194	0xbdefd3c6	-0.117103145
195	0x3d5f7d3c	0.054562792
196	0x3d8c3b76	0.06847279
197	0xbd536b2d	-0.051615883
198	0xbe45c7b2	-0.19314459
199	0xbc3700fa	-0.011169666
200	0x3a1d80e1	0.0006008279
201	0x3cb8c974	0.022556998
202	0x3c4118e3	0.011785719
203	0xbcfb6ce3	-0.03069157
204	0xbc8118d9	-0.015758919
205	0x3d942490	0.07233536
206	0xbe07b7ed	-0.13253756
207	0x3cfc7594	0.030817784
208	0xbda14b8f	-0.0787574
209	0x3e285418	0.16438329
210	0xbdbfd62b	-0.09367021
211	0xbdc4d0f1	-0.09610165
212	0x3d741cd5	0.05959781
213	0x3e0a39c1	0.13498594
214	0xbe65c247	-0.22437392
215	0x3dc94769	0.098280735
216	0x3a9aeea9	0.0011820394
217	0x3cc32cd5	0.023825089
218	0xbe34fbdc	-0.17674202
219	0x3d042897	0.032265272
220	0x3d43aed6	0.04777416
221	0x3d5a1f0c	0.053252265
222	0xbda8f948	-0.082506716
223	0x3e1eecba	0.15519992
224	0xbd492578	-0.049108
225	0xbd46c657	-0.048528995
226	0x3d05afec	0.032638475
227	0xbe3fc386	-0.1872693
228	0x3dfbaa82	0.12288381
229	0xbd828b7b	-0.0637426
230	0x3c2fce53	0.010730344
231	0xbdd7870d	-0.10523806
232	0xbdb0feb7	-0.08642333
233	0xbd5b776b	-0.053580683
234	0x3dad0de2	0.084499136
235	0x3d97b4c9	0.07407529
236	0x3b73ad81	0.0037182274
237	0x3d65efe8	0.056136996
238	0xbd56a447	-0.05240276
239	0xbdb92ff1	-0.09042347
240	0x3e04a9fd	0.1295547
241	0x3c093403	0.008374217
242	0x3d931ee8	0.07183629
243	0x3dd6b5f9	0.10483927
244	0xbde14a2c	-0.11000475
245	0x3e121d5f	0.14269017
246	0xbe5920ad	-0.21203871
247	0x3d219533	0.039448928
248	0x3f06ce07	0.5265812
249	0x3eb4b44a	0.352938
250	0x3d91f801	0.07127381
251	0x3d30dad2	0.043177433
252	0x3db91615	0.09037415
253	0x3e1d9608	0.15389264
254	0xbced55fb	-0.028971663
255	0xbd803249	-0.06259591

layer_3.bias f4 [6]
0	0x3cf549fd	0.029942507
1	0xbc03d4ab	-0.008046309
2	0x3ce00284	0.02734495
3	0xbd5ccb65	-0.05390491
4	0x3db9b3f0	0.090675235
5	0xbd194b85	-0.037425537
