pytorch_models/TD3_walker_stand_058_actor.pth (torch, 521670 bytes, 6 tensors)

layer_1.weight f4 [400, 18]
00000000: 31b5 61be a875 003e f906 96be 0f17 6fbd
00000010: 9e76 6abd 9074 353d bde9 153e 6eaa 903e
00000020: 1061 213d 1afe 90bc a3f3 d9bd f7c2 6cbd
00000030: d22c 60be a528 e5bd 55bc acbd 02c4 953c
00000040: 8753 da3d eb99 283e c4ed 7fbe d752 a0bd
00000050: 0a02 9c3d dd66 c23e b192 ccbd 176a 7b3e
00000060: e1cb 87ba 385b 6f3d 4858 503e 3221 40be
00000070: 56f0 75be de6b f0bd 7e3c 0ebe f573 5f3e
00000080: 6b2d adbd e3b3 2abe 31ad fabd ffd0 63be
00000090: 39e6 11be 5788 813e 6616 453e f2c4 bb39
000000a0: e477 6e3c 95e2 2dbe 13c1 12be 14f2 a1be
000000b0: 1729 d0be f782 88be ff72 943e 9e1e 2f3e
000000c0: a318 e8bd dff1 29bc deb3 913d a6eb 843e
000000d0: 5c60 c43d 19fa 9d3d a020 0e3e 4582 93be
000000e0: f984 263e 92df bebe b32a 80be a2b0 ddbd
000000f0: 6319 813e fb98 4d3e 6fc2 bdbd 2b46 303e
00000100: 5f17 1c3e 5b22 35bd 6ab3 1c3c 3901 963d
00000110: 2f92 ff3d 4a19 533e c713 50be b7c9 99bd
00000120: fc74 7d3d ef6c 953e a545 0d3e 9882 823e
00000130: 9cd5 7b3d a787 c9bd 4310 c1bd 7f90 b4be
00000140: e173 80be 306e f73d ec38 3d3e 25ca 8fbe
00000150: 3bc3 0b3d ec46 c7bd c2d1 16bd fcde 27be
00000160: cd85 f03d 0c07 cfbd 8b31 3d3b 0af6 bf3d
00000170: 0aa7 443e df44 743e 15e9 c7be f88c 73be
00000180: 153c 043e f034 3d3d f5b7 9abd 437d 17be
00000190: de7a 7b3e 5b5f 2d3e 1817 eebd e2f2 f3bd
000001a0: 7544 59be 1507 b5bc 7268 39be 6576 24be
000001b0: 2071 e23d 82d4 e7bd 7b76 e0bd 5b22 593e
000001c0: 2a53 94be 8a9f 6a3e de31 5a3e 6440 93be
000001d0: d9bb f7bb c309 bdbc 72a8 f23d cd7e 543d
000001e0: 2b6f a13d aece 16bd 1bc4 bebd 0ab7 0d3e
000001f0: c467 59be 91a3 23be 2e2b 4fbe 2497 fdbd
00000200: 8210 e9bc 90b5 42be 710b e4bd fa98 27be
00000210: 7983 d53d 2602 b9bd 6abd 883e 88f0 8abd
00000220: b455 0bbd ab81 9bbd f7a6 dd3c a51b 143e
00000230: 89a9 773e be14 1a3e 7104 5b3e d5f2 02bd
00000240: 2318 85be 11ce 43bd 4689 ac3d a41f 89bd
00000250: fe49 82be 04f9 7abe 28c4 c5be 1e39 10be
00000260: f280 0d3e cb63 ff3b 64e5 91bd 9994 92be
00000270: cac7 213e 2684 6fbe fa41 4abd 4772 ebbd
00000280: bb86 67bd 22bc b9bc 47d0 c1be 34ec f2bc
00000290: 3ad9 3abd cf9b a83c fc86 10be 3dbe c7bd
000002a0: b6cc 82be 061a 55bd af9c e53e 2ce1 823d
000002b0: 2f4b 713e 9253 c33d da72 68be 9164 153e
000002c0: 4c0c fe3a 3273 dabd e073 443e 3422 35be
000002d0: 77fa 433e b1af a4bd e423 563e f1c5 273d
000002e0: 4202 3a3e 4f41 393e 9ef3 86bd b545 64bd
000002f0: bbb2 25be 382e c23e 19dd 723e a363 163e
00000300: 74b4 73be 7d89 1e3c fa98 07be d928 49be
00000310: 83fb babd 5685 8e3d 41ed 86be e705 403d
00000320: be22 4e3c 87df b83d 5e00 6cbe 20fb 91be
00000330: 3629 22be b0a8 713e 23a6 02be 0e21 9b3e
00000340: 706e 1fbd 7b2d 803d 8bf7 a63c e00d 09bd
00000350: 0aef ce3c 6adb 35bd 7e2a bcbc fba5 3b3b
00000360: 7adb 8bbe d5e1 843c c461 a03e 9213 00be
00000370: 1e9c 1abd e157 be3e 2c13 313e 09d7 cbbc
00000380: 002b e1bd 8659 403e 5e4c 7bbe 59b0 d4bd
00000390: 3acf cebd e4ea 17bd 2a83 77bc 1bb5 7c3e
000003a0: 8b60 513c 8fc3 463e 5771 363b d1f4 04be
000003b0: 80ed 1c3e 3fd3 c6be c81f 74be a737 cb3c
000003c0: e656 803e 74c1 2f3e 4403 023e b0c8 91bc
000003d0: 51f3 d83c d23d 9cbe d8a6 013e 60e0 67be
000003e0: 94bc 38bc 5a70 7bbd ad51 97bd 37a9 0bba
000003f0: 1ea7 343e d667 21be ca89 81be dda8 8abd
-0.22041775 0.12544882 -0.29302195 -0.0583716 -0.05724203 0.044300616 0.14639945 0.28255028
0.039399207 -0.01769929 -0.10642173 -0.05780312 -0.21892098 -0.11189393 -0.08434359 0.01828194
0.10660463 0.16464965 -0.24993044 -0.078283004 0.076175764 0.37969103 -0.09988917 0.24552189
-0.0010360443 0.058436602 0.20346177 -0.18762663 -0.24017462 -0.11739324 -0.13890263 0.21821578
-0.084559284 -0.16670184 -0.12240065 -0.22247694 -0.14247979 0.25299332 0.19246826 0.00035814155
0.014554951 -0.16980965 -0.14331464 -0.31630003 -0.4065635 -0.26662418 0.28993985 0.17101523
-0.11332824 -0.010372608 0.07114385 0.25961035 0.095886916 0.07713718 0.13879633 -0.28810325
0.16261663 -0.37279946 -0.25032577 -0.10824706 0.2521468 0.20077889 -0.09265601 0.17214267
0.1524329 -0.044222217 0.00956426 0.07324452 0.12479054 0.20615116 -0.20320044 -0.07509177
0.061879143 0.29184672 0.13796099 0.2549026 0.06148301 -0.09840327 -0.0942693 -0.35266492
-0.2508841 0.120815635 0.18478745 -0.28083912 0.034121733 -0.09730324 -0.036821134 -0.16393656
0.117442705 -0.10108766 0.0028868641 0.093731 0.19204345 0.23854397 -0.39045015 -0.23784244
0.12913544 0.046193063 -0.07554618 -0.14793877 0.24558589 0.16930906 -0.116254985 -0.119115606
-0.2121752 -0.022098104 -0.18106249 -0.16060789 0.11056733 -0.113198295 -0.10960098 0.21204512
-0.289697 0.22912422 0.21308085 -0.28760064 -0.007560235 -0.023075944 0.11848535 0.05187874
0.07882532 -0.0368182 -0.09314748 0.13839355 -0.2123099 -0.15980364 -0.20231315 -0.123823434
-0.028450254 -0.19014573 -0.11134995 -0.1636695 0.10425467 -0.09033613 0.2670701 -0.06784159
-0.03401728 -0.075930916 0.027057154 0.1446367 0.24185766 0.15046975 0.21388413 -0.031969864
-0.25994977 -0.047803942 0.0842462 -0.06695488 -0.25447077 -0.24509054 -0.38626218 -0.14084288
0.1381872 0.0077938787 -0.07123831 -0.28628996 0.1579887 -0.23390254 -0.049379326 -0.11496406
-0.056524973 -0.022672717 -0.37854216 -0.029653646 -0.04561732 0.020582108 -0.14113992 -0.09753082
-0.25546807 -0.05202677 0.44846103 0.063906044 0.23563837 0.09537424 -0.22700062 0.14589144
0.0019382327 -0.10666503 0.19184828 -0.17688829 0.19138514 -0.08041323 0.20912129 0.040960256
0.18164924 0.1809132 -0.06589435 -0.05573054 -0.16181462 0.37925887 0.23717155 0.14686446
-0.23799306 0.009676334 -0.1324195 -0.19644488 -0.09130003 0.069590256 -0.26352885 0.04688063
0.012581525 0.090270095 -0.23047015 -0.28511906 -0.15836033 0.23599505 -0.12758689 0.30298656
-0.03892368 0.06258675 0.02038171 -0.033460498 0.025260467 -0.044398703 -0.02296948 0.0028632868
-0.27315885 0.016220966 0.3132459 -0.12507465 -0.03774654 0.3717642 0.1729247 -0.02488281
-0.1099453 0.1878415 -0.2454085 -0.10385198 -0.10098119 -0.037089244 -0.015106956 0.24678461
0.012779365 0.19410537 0.0027838552 -0.12984015 0.15324974 -0.38833043 -0.23840249 0.02480681
0.25066298 0.1716364 0.12696558 -0.01779589 0.02648321 -0.30515915 0.12661302 -0.22644186
-0.011275429 -0.061386444 -0.07388625 -0.0005327644 0.17641875 -0.15762267 -0.25300437 -0.06770489

layer_1.bias f4 [400]
00000000: 89bb 8e3e 5fe1 ec3d 0524 13bd 335a 8b3d
00000010: c718 1c3d 0bfd 1cbc 0646 8ebd 5a51 253e
00000020: d4b2 92bd 2659 32bc 68b3 76be a3f0 b23e
00000030: c45b b53d c23f 8f3e 8421 35be 7e1e 96bd
00000040: 840c 1bbe 580c 87bd 3829 4c3e 1fba e33e
00000050: de48 d1bc 571e 07be 83f2 843d 1a3e 86be
00000060: a04e 543e bd2c 8ebd dbb2 453e 3f21 5fbd
00000070: e12d bd3e bf46 16be 4282 403d d936 343e
00000080: 9190 703e ba85 b53e 0398 c83e 8c02 57be
00000090: 300e 1e3e 4500 e5bd 325f 933e b681 b83e
000000a0: f2ba 2dbd 5729 0d3e e0e5 0b3e 1ed2 0a3e
000000b0: 8a7b 243e a054 8d3d 6517 5d3d fe9a d63d
000000c0: 6f3d 273d ba40 f3bd 6283 253e f5e1 26be
000000d0: 9143 7e3e 2f00 aa3e b731 2b3e 3635 f53d
000000e0: 69e6 1a3e 46fb 953e d366 6c3e c558 4fbe
000000f0: 8f62 efbd e89a e9bd cb61 593e c809 4dbd
00000100: 1ed5 7f3d 654e 623e 6068 c73e f059 3f3d
00000110: e51e 203e 8e1e a73d 3be5 0a3e b79d 73be
00000120: 7f96 0bbe 315a a0bd 5951 9cbd 61b9 5d3e
00000130: d6d3 a53b 603b bcbc 6130 a6bc 5cba 413c
00000140: 89d6 27be dfc0 42be 056b 1f3e 91f6 aabc
00000150: aa07 db3c 7b31 b6bd 1ef6 97bc 40a5 563e
00000160: ba39 02be 4389 dc3a f412 cfbd 32d0 a23e
00000170: 6b32 0abd 7994 2f3e 470b 013e 71a0 d23d
00000180: 33a8 543e 69ed 90bd 811b 813e 7992 a13e
00000190: 87e1 1e3e 2d61 843e 9f01 02be efa8 c83e
000001a0: b8ed cc3c 2897 453e c749 9e3d bde1 ef3d
000001b0: 381f 573e aa6b 3bbe 0dd8 813e 09dc 2eba
000001c0: 3e03 833e 613d 4dbd 92d0 d23d 73a7 3a3e
000001d0: d0c2 1fbe 61c7 4fbd a271 b03d 9e6d 74be
000001e0: 6f3a 29be ac73 54be 182f 5e3d bf38 39be
000001f0: fda9 4b3d 84a9 a4bd 4baf 3cbd 03a0 23bd
00000200: 97bf ae3d 7e50 b33d 250d 083d 5afa c03e
00000210: f4d6 c8bd bdc8 7b3d e231 5abe 9647 a73e
00000220: 5235 bbbd 66d4 833e a69d 903d 6e23 c93d
00000230: 325b 7fbd d51f 70bd c059 053e 9c01 be3e
00000240: c06c a43e 396a 503d 49ab cdbc d57b f1bd
00000250: a5bf 803b 0bb7 ef3d 96e1 d53d ad89 21be
00000260: 86fe 803d 0ef0 ec3c 4928 d9bd 0aee 983d
00000270: 6275 853d a65c 22be 3fb3 58bb b559 8a3d
00000280: 34df 9abb df70 62bc a994 30bd 8123 713e
00000290: 68b0 23be a14d e1bc 72c4 3b3e cd17 223c
000002a0: 62da 6b3c 6429 46be ca05 dcbd f6ad 11bd
000002b0: be4e e0bd 7678 793e bddf 903d 1e61 38be
000002c0: f8e2 063e 727e ebbd 04f4 7b3e f852 123d
000002d0: 8d8f 453e 459d 97be 1486 dd3e 80bd f03d
000002e0: bf32 46bc 2ba7 2fbe 6896 533d 45e6 87be
000002f0: 622b 993e 25b8 923e 173d 8a3e 09d0 bb3e
00000300: 8d9d 41be eb31 85bd 1e1a 8c3e a54d 983e
00000310: 0325 813e 4d89 c0bd 5385 bf3d 4e04 debc
00000320: edcd 8f3e 71bf 41be ef3c a63e c874 28bd
00000330: f853 453e 0f63 7a3e ce69 12be 1772 353e
00000340: f8c5 44be 66e2 8b3d cb8f 923e 7c2b efbd
00000350: bcdb edbd 9ff6 9dbc c80b 943e 8a2d a2bd
00000360: 7203 8cbd 2283 a33e 5ce3 0d3d 7641 6abc
00000370: dd8d f13d 4644 203e 7edd cf3e bac5 873e
00000380: 6e10 d63c 58a9 843b 2ca6 bb3d 3c67 953b
00000390: e11e 373e 983d 223e 6f6d 233e 5722 203e
000003a0: 0eee 513d 79d0 90be 6fea 54be cae1 ad3e
000003b0: e45b a7bd 6100 6ebd c176 a03e ca3f 88be
000003c0: 09f3 783e 074b ce3e 810e c03d b97a 973e
000003d0: 91aa 8f3e 5082 0dbe 4f64 16bd 76f5 373e
000003e0: ca41 933d fcec 40be b57c 01be c34e bd3e
000003f0: 4312 57bd 622c 10be fa63 3c3e f982 5abd
0.27877453 0.115664236 -0.035923023 0.068043135 0.038109567 -0.0095818145 -0.0694695 0.16144314
-0.07163015 -0.010885512 -0.24091876 0.34949216 0.088553935 0.2797833 -0.17688566 -0.07330035
-0.15141493 -0.06594151 0.19937599 0.44477937 -0.025547441 -0.13195167 0.06491568 -0.26219255
0.20733118 -0.06942127 0.19306509 -0.054475065 0.36949065 -0.14675425 0.046999224 0.17599048
0.23492648 0.35453588 0.39178476 -0.20997065 0.154351 -0.11181692 0.28783566 0.36036462
-0.042414613 0.13785301 0.13661909 0.13556716 0.16062751 0.069009066 0.05397739 0.10478781
0.040830072 -0.1187758 0.161634 -0.16297133 0.24830462 0.33203265 0.16718183 0.1197304
0.15126957 0.2929327 0.230861 -0.20248707 -0.116887204 -0.11406499 0.21228711 -0.050058156
0.062459104 0.22100218 0.3894682 0.04671663 0.15636785 0.08160125 0.13564007 -0.23790632
-0.13631628 -0.07829703 -0.07632703 0.21652748 0.005060653 -0.022977531 -0.02028674 0.011824217
-0.16390432 -0.19018887 0.15568168 -0.020869525 0.026737053 -0.088961564 -0.018549975 0.20961475
-0.12717333 0.0016825575 -0.10111037 0.31799465 -0.03373949 0.17146482 0.12601958 0.10284508
0.20767288 -0.070765324 0.25216296 0.31557062 0.1551572 0.2585539 -0.12695931 0.39191386
0.025015697 0.19295943 0.07728916 0.11712978 0.21008003 -0.1830279 0.25360146 -0.0006670361
0.2558841 -0.050107364 0.10293688 0.1822794 -0.15601659 -0.050727252 0.08615424 -0.2386994
-0.16526197 -0.2074725 0.05424413 -0.18088053 0.04972266 -0.08040145 -0.04606561 -0.03994752
0.085326366 0.08755587 0.03321566 0.37691003 -0.09806624 0.061470736 -0.21308091 0.32671803
-0.091410294 0.25747985 0.07061319 0.09821211 -0.06234283 -0.058624107 0.13022518 0.37110603
0.3211422 0.05088255 -0.02510609 -0.11791197 0.003929096 0.117048346 0.10443418 -0.15775175
0.062985465 0.02892306 -0.10603387 0.07467277 0.065165296 -0.15855655 -0.0033065823 0.067553915
-0.004726315 -0.013820856 -0.043110523 0.235487 -0.15985262 -0.027502837 0.18336657 0.00989337
0.014395328 -0.19351727 -0.10743292 -0.035566293 -0.10952519 0.24362358 0.07073925 -0.18005797
0.13172519 -0.11498727 0.24604803 0.035723656 0.19293042 -0.29612175 0.43266356 0.11754894
-0.01209706 -0.17153613 0.05165711 -0.2654287 0.2991591 0.28656116 0.26999733 0.36682156
-0.18907757 -0.06503662 0.27363676 0.29746738 0.2522355 -0.09401188 0.093516015 -0.027101662
0.28086796 -0.18920685 0.32468364 -0.041126996 0.19270313 0.2445185 -0.14298174 0.17719303
-0.19216144 0.068302915 0.2862533 -0.11678216 -0.11614177 -0.019282637 0.28915238 -0.07918842
-0.06836595 0.31935984 0.034640655 -0.014297834 0.117946364 0.15651044 0.40598673 0.2651804
0.026130881 0.0040485077 0.09162554 0.0045594256 0.17882873 0.15843809 0.15959714 0.156381
0.051252417 -0.28284052 -0.20792554 0.33961326 -0.081718236 -0.05810583 0.31340602 -0.26611167
0.2431146 0.40291616 0.093777664 0.29585817 0.2805982 -0.13819242 -0.036716755 0.1796473
0.07190283 -0.18840402 -0.12645228 0.36974153 -0.05250765 -0.1407943 0.18397513 -0.05334756

layer_2.weight f4 [300, 400]
00000000: d74c 003c deb7 c8bc cd1b 0a3d f089 95bc
00000010: a22d 533d b797 4ebc 7036 b4bd c3b0 a5bd
00000020: a4ea 823d 50d0 d1ba dc27 423d 2d6d f0ba
00000030: 7bc4 c6bb beec 473c bb6a e1bd 23c4 85bd
00000040: 0224 16be 7d80 ff3c 0d11 a33d 0a97 bebd
00000050: 441c f3bc debf 93bd b752 0ebe e65e 35bd
00000060: 760e a5bd 7451 4b3d 430c a63b afa2 5cbd
00000070: 80af 40bd 1826 8fbd 16e5 233d 8aba b83b
00000080: cabc 863c 5cfe 0fbd 63c3 28bd e113 973c
00000090: 429d a33d 792a 453c 0988 09bd c0df 4c3d
000000a0: 6f42 cdbd b23a df3c 69f5 c0bc 3e00 4c3c
000000b0: fb0e 32bd 9b1a 01be b514 d63d d982 193c
000000c0: 0967 97bd 8140 093e b767 1a3d b517 ddbc
000000d0: 9714 ea3c 2eca 02bc 9930 acbd b1a4 a23d
000000e0: 67a6 bebc 1c89 3abd 4ebf 553d d46a ccbc
000000f0: fde6 1f3d dc1c 0cbc 7c79 82bd de16 d53d
00000100: e99d 0b3d e433 90bb 421a b3bd f198 82bc
00000110: 5808 0cbd 3216 82bc 5ade 273d 2f79 02bd
00000120: 9417 ccbd f377 2b3d 58e5 d73c 7f86 6f3d
00000130: 2503 5dbc 39a7 843b d74f 113d 6e14 72bd
00000140: 0629 c53c a8f5 29bc 6de2 833d 7c3e 833c
00000150: 8809 7bbd 3d1d cfbd 7fe8 f83d ae97 e8bd
00000160: 2e16 5bbd 96b7 af3c cf0f f4bb 8f61 593d
00000170: 8b4b 323d fcea 9a3d 38a7 a2bc 5ee0 99bc
00000180: 4e17 23bd 04d1 c8bd b633 85bd 274f 26bc
00000190: b173 bbbd f967 f3bd bb34 5a3c ab2d 8c3d
000001a0: dbe3 a03c 7707 ac3d e5f2 5ebd 70d0 8cbc
000001b0: 7fca 29bc b856 0f3d 7d2f 5dbc 3ca5 49bd
000001c0: 4c5d bebd 6401 4a3d 5e89 083d 1763 d33c
000001d0: 37f8 2cbc 1a37 7e3d 1e47 ef3c 12a4 a63d
000001e0: 15f5 a3bd 0426 16bd 3014 ab3b ea53 543c
000001f0: 58ec eebc 84e7 8b3d 1694 e23d 4200 b13b
00000200: 4bf5 cdbc bb3f 3b3b 2955 133c 6b4b b73c
00000210: f226 35bb 6170 29bd 6c20 3cbc c410 75bd
00000220: 5bfb 7abd 8839 e3bd e9f4 5dbc 5529 45bc
00000230: 6717 e3bb b52f 9dbd 8f5c 703d af4f 8ebd
00000240: 232a 3bbb bba1 92bd 2690 5cbd d47b ad3a
00000250: dd73 4a3c adbe 84bd 5888 573c eaa2 7dbb
00000260: 692e d33d 267f 93bc fac5 bd3a 26a2 36bb
00000270: db5b e83b ff0f a6bd 6456 0e3d cb7b 243e
00000280: 87fa e53c dc4b 0e3c 274d a2bc 3c15 c13d
00000290: 4a48 8c3b a88a b5bd 692a f23c e074 603d
000002a0: 1ebb d6bc 599b 3d3d 353c d9bd 5cf7 4c3c
000002b0: be6d cc3c 7fa2 343d e02a 46bd 2964 4bbd
000002c0: f62a 07bd d8cf adbd 78cc 4d3b 2111 ad3c
000002d0: 2dee 08bc 298d efbc ac35 9ebd 1960 70bd
000002e0: a3f9 95bc 64e6 13bd 2057 1ebc 2a34 273d
000002f0: a0c2 a33d 731b 5cbc f0ae a9bd b341 f1bb
00000300: 9b1c 1fbe 0cbe c3bd a771 943b 17d6 0cbc
00000310: 7516 3ebd a20a 833d 9136 223c 6827 d6bb
00000320: df43 753c 52d7 803d a4e0 6bbc 83ec 063e
00000330: 7f1d b9bb abac 8a3b 7cb1 d33d 90a7 033d
00000340: 6a35 873d 0968 a63d 7729 2cbd 417b ca3c
00000350: 1599 5c3d d088 bd3d fd5a 1f3d a750 35bd
00000360: 9df7 5d3d ae0a 16be 451a 8bbd 8647 283d
00000370: 6db7 3dbd 53c0 2dbd d6a6 13bd ec86 323e
00000380: c0b5 713d f061 083d e68d 59bd e651 bdb9
00000390: bd89 473d 5762 ff3c a162 a93c e8ba 91bd
000003a0: 2444 a73d 18d5 733d e400 23bd f67b 043e
000003b0: f5df df3b c78d fbbc 598e 0bbc cd06 bd3d
000003c0: e5fa d539 4610 a13b f209 74bd 63bd bdbd
000003d0: 63d6 163d 370a a3bd 4ab3 903d b6d5 2c3d
000003e0: be5d 203e 6223 a5bc e2f4 9f3b 4ed1 c9bd
000003f0: c5c5 21bd 7efe 9fbd 2e12 29bd 27e6 2c3d
0.00783082 -0.024501737 0.03371792 -0.01825425 0.05155719 -0.012609414 -0.08799446 -0.08090355
0.063924104 -0.0016007517 0.047401294 -0.0018343084 -0.0060659028 0.01220244 -0.11006685 -0.06531551
-0.14662173 0.031189198 0.079622366 -0.09306152 -0.029676564 -0.0721433 -0.1389874 -0.044279955
-0.08059399 0.049638227 0.0050673797 -0.053866085 -0.04704237 -0.06989688 0.040013395 0.0056374716
0.016447444 -0.035154685 -0.04120196 0.018442096 0.07988979 0.012034052 -0.033577 0.050018072
-0.10022437 0.027249668 -0.02355452 0.01245123 -0.043471318 -0.12607805 0.10453168 0.009369575
-0.07392699 0.13403513 0.037696566 -0.026988843 0.028574271 -0.007982774 -0.08407707 0.07941569
-0.023272706 -0.045540914 0.052184395 -0.024953283 0.039038647 -0.0085518025 -0.063708276 0.10404752
0.03408614 -0.004400717 -0.08745243 -0.015942069 -0.034187645 -0.015879724 0.040983535 -0.03185385
-0.09965435 0.04186244 0.026354477 0.058477875 -0.013489519 0.004048255 0.03547653 -0.059101515
0.024067413 -0.01037351 0.06439672 0.016021006 -0.061288387 -0.10112999 0.1215372 -0.113570556
-0.05348795 0.021449845 -0.0074481736 0.053071555 0.043529075 0.07564351 -0.019855127 -0.018783744
-0.039817147 -0.098054916 -0.06504004 -0.010150707 -0.09152926 -0.118850656 0.013318236 0.06844648
0.0196399 0.08399861 -0.05443086 -0.017189234 -0.01036322 0.03499481 -0.013500092 -0.049229845
-0.09295139 0.049317732 0.03333413 0.025804086 -0.010557226 0.062064268 0.029208716 0.08136763
-0.0800573 -0.03665735 0.0052209124 0.01295946 -0.029165432 0.068312675 0.110634014 0.005401642
-0.025141379 0.0028571922 0.008992472 0.02237483 -0.0027641621 -0.04136694 -0.011482339 -0.059830442
-0.061274868 -0.110949576 -0.013547161 -0.01203378 -0.00693028 -0.07675115 0.05868202 -0.06948792
-0.002855905 -0.07159754 -0.05384841 0.0013235756 0.0123567255 -0.06481681 0.0131550655 -0.003870184
0.103115864 -0.018004965 0.0014478557 -0.0027867644 0.007091028 -0.0810852 0.034750357 0.16062848
0.028073562 0.0086850785 -0.01981218 0.09427878 0.0042810785 -0.08864337 0.029561238 0.05479896
-0.026212271 0.04629073 -0.10607187 0.012510147 0.024954673 0.04410028 -0.048380733 -0.049656067
-0.032999955 -0.08486909 0.003140239 0.021126332 -0.008357567 -0.029242115 -0.07725081 -0.058685396
-0.018307513 -0.03610839 -0.009664327 0.040821232 0.07996106 -0.013434279 -0.0828532 -0.0073625683
-0.15538256 -0.09557733 0.00453015 -0.008595965 -0.046408135 0.063985124 0.009900705 -0.0065354593
0.014969795 0.06291069 -0.01439682 0.1317616 -0.005649268 0.0042320094 0.10336587 0.032142222
0.06601985 0.08125312 -0.04203173 0.024716975 0.053856928 0.092546105 0.038905133 -0.04426637
0.05419122 -0.14652511 -0.0679212 0.041083835 -0.046317507 -0.042419743 -0.03604778 0.17434281
0.05901122 0.033296525 -0.05311384 -0.00036109908 0.04871534 0.031174822 0.020676913 -0.07115728
0.08167294 0.059529394 -0.03979577 0.12937912 0.0068321177 -0.030707253 -0.008517825 0.09229813
0.00040813457 0.00491527 -0.059579797 -0.09264638 0.03682555 -0.07960933 0.07065447 0.042195998
0.1566076 -0.020158473 0.004881487 -0.09854375 -0.03949525 -0.078122124 -0.041277103 0.042211678

layer_2.bias f4 [300]
00000000: 6eb5 77bc 9f39 333d dca7 743d 0779 a23d
00000010: 5487 98bc f8c0 113d fe37 babd 6813 9dbd
00000020: c669 503c 2213 c83c 4113 b3bd a306 a53d
00000030: 868c 943d f48a c2bb b2e4 963d 4ae6 38bb
00000040: 327c 46bc b7ea 5e3d d3b6 4f3d 380e bbbc
00000050: d813 11bd e462 b0bd 78a3 8eb9 0c41 fb3c
00000060: f61a 0f3c 3e84 c53c 155e e2bd bdae dfbc
00000070: 12ab 24bb 23fa 4f3d bd8a cf3d 3fff afbc
00000080: 7bfc 653c 139b 8e3d 9ec1 d23d 4159 69bd
00000090: 30e0 53bd 4c53 75bd a150 a53d 2416 283d
000000a0: 6937 59bc 8581 bb3c 5c3d 993d e0dd 9dbd
000000b0: d64d df3d a58d 973d 6b5a 11bb 332d 043e
000000c0: dbd0 d43c 5b5a 5f3d 5763 8c3b 1a84 023d
000000d0: ea26 9a3d 2948 a7bd 70f0 c43c 5f02 36bd
000000e0: 4e48 8ebd 3a25 043d 3321 9f3c 9144 6a3d
000000f0: 3902 393d af71 1f35 aafe 503d 1d87 9d3d
00000100: 7e1b 3e3d 3eef e8bc a80f c4bb 724e e7bd
00000110: da01 8bbc cf10 93bd d0fb e43d 5c8c 78bd
00000120: 8b30 cfbd e823 f43d 5106 8b3d a6e1 8c3d
00000130: 2cb5 713d 07ef 1fbd dc2a 8abb 08ba 13bd
00000140: bf5d e9bd 8ebb 30bc ac55 ad3d b917 0d3d
00000150: ce93 183c 90e5 083c 45ba ac3c e0d7 c63d
00000160: d198 c7bd c4a6 b23a eb25 59bd 2910 83bd
00000170: 4982 6f3d 1a44 113c 6fe0 ad3d b45e 343d
00000180: 843d fbbb 5e4a 9e3c 84e8 1b3c 9c5f c53d
00000190: 77fe 97bc 3a84 cf3c 1d34 6b3d 08ee 1abd
000001a0: b0b3 833c 74d4 63bb fdec ae3b 23d6 113a
000001b0: 573c bb3c 2386 9ebd dbae 113d 1d27 01be
000001c0: de3c 763d b5dc 803c 5c19 e13d 8f50 89bc
000001d0: acd2 403c 5220 8a3d 3532 8f3d 339b b83d
000001e0: 9a83 f3ba 2499 3a3d 9cb8 dc3c e503 8dbc
000001f0: ca67 8b3d 08a1 043d 8399 67bd fbb3 bf3c
00000200: e338 463d 1b6f b0bd d665 373d 1392 a33b
00000210: c382 30bb e5e2 9bbd 69c5 ce3d df7d 32bd
00000220: f18e 35bd 356a f63c b76e bbbd e18c 3dbc
00000230: 1914 cc3b 6a23 563c 7719 a7bb f7bb 693c
00000240: fc54 623d 8536 9dbd 1db7 8d3c 01e7 fa3c
00000250: 854e e6bc 744d 59bc 6708 aa3c 6e7b a6bd
00000260: d8ba b9bd 4c76 6bba 1037 36bd 99ad e4bc
00000270: d1fb 8f3d d574 953a 85b4 c53d 6f41 ea3c
00000280: ccec 44bd 1387 ce3d 6495 adbb f793 a83d
00000290: 1f9d 83bc d198 a0bd f3bc 173d 46b7 24bd
000002a0: 1933 6cbd 07b8 81bd 0975 b33b 8f6f d23d
000002b0: d0ee 8abd 835f 0b3d 317f 7abd f4fb 843d
000002c0: 339c 96bd 6b9a 50bd ca47 643d a8b8 5d3d
000002d0: 6ba3 263d 6e68 903c aca6 34bd 570b 81bc
000002e0: a45d 71bd 2497 18bd 5e0d eebb 3cb6 8db9
000002f0: 2615 dcbd fbba 133e 74a6 68bb 62a4 39bc
00000300: b9a5 43be 8aa2 cdbc 3fd9 db3c 60dc 26bb
00000310: be0d f33c 073f bc3d 992d 823d 88fe 863c
00000320: 1eac e3bc b182 6bbd 43bb 803d dc39 9d3d
00000330: e5b2 a73d 3307 403d ca80 14bd 7717 05bd
00000340: 7a58 bc3d 9aae 0d3d 5e58 5a3d ef93 80bc
00000350: 1ee9 263c 80a7 cb3c 4613 53bd 2c4e 373d
00000360: 8f9d b03d b8e4 b93c 3038 cf3d 09f5 cd3d
00000370: 3055 933d bbce 0abe 2e42 04bc 6595 343c
00000380: 8bbb db3d 6a63 a7ba 1b29 a9bc efa0 bb3c
00000390: 80dd 77bd be4f e23d 5726 1f3d b710 f9bc
000003a0: 9d85 6ebd 1929 093d adbe b23d 55aa 983d
000003b0: 441b e63d 32e7 f53d eddf 673d 2f00 013e
000003c0: 2c80 2e3d b497 853d a702 47bd d3c3 473d
000003d0: 38f0 803d fd72 d8bc 6f64 933c fb44 3f3d
000003e0: 8224 55bd a17f 8c3d d174 313d 6a16 253d
000003f0: 22cc 443d 639d 3b3d 0661 fd3c 7d68 4c3d
-0.01511894 0.043756124 0.059730396 0.079332404 -0.018619217 0.03558442 -0.09092711 -0.07669717
0.012720531 0.024423186 -0.08743907 0.080579065 0.07253365 -0.0059369747 0.07367839 -0.0028213435
-0.012114571 0.05442306 0.050711464 -0.022833928 -0.035419315 -0.08612612 -0.00027206144 0.030670665
0.008734455 0.02411091 -0.11053101 -0.027305001 -0.002512638 0.05077566 0.10133884 -0.021484016
0.014037247 0.06963172 0.10290836 -0.056969885 -0.051727474 -0.05989389 0.08072019 0.04103674
-0.01325784 0.022888908 0.074824065 -0.07708335 0.10903518 0.074000634 -0.0022179137 0.12907867
0.025978496 0.05452953 0.004284303 0.031864263 0.075269535 -0.0816806 0.02404043 -0.044435855
-0.06947385 0.032262065 0.01942501 0.057194296 0.045168135 5.9397547e-07 0.051024117 0.076917864
0.046412937 -0.028434392 -0.0059833117 -0.11294259 -0.016968656 -0.0718094 0.11180842 -0.060680732
-0.10116681 0.11920911 0.06788314 0.068789765 0.05901067 -0.039046314 -0.004216535 -0.036066085
-0.11394834 -0.010786904 0.08463606 0.03444645 0.009312583 0.008355513 0.021084914 0.09709144
-0.09745944 0.0013630022 -0.053014677 -0.06399567 0.05847386 0.008866334 0.08490073 0.04403563
-0.0076672453 0.01932257 0.009515885 0.09637377 -0.018553955 0.025331605 0.057422746 -0.03782466
0.016076893 -0.0034764083 0.00533831 0.000556322 0.02285592 -0.07740428 0.035567146 -0.12612577
0.06011664 0.015730241 0.10991165 -0.016762046 0.011768978 0.06744446 0.06991998 0.09013977
-0.0018578649 0.045556203 0.026943497 -0.017213771 0.068069056 0.032380134 -0.056542885 0.023401251
0.048394095 -0.08614942 0.044774853 0.0049917786 -0.0026933409 -0.07611636 0.10096247 -0.04357707
-0.044325773 0.03007994 -0.091519766 -0.011569233 0.0062279818 0.013069967 -0.005099471 0.014266006
0.05525683 -0.076764144 0.01729923 0.03062773 -0.028113613 -0.013263095 0.02075596 -0.08129011
-0.09068841 -0.0008982166 -0.044486105 -0.027914809 0.07030452 0.0011402617 0.09653572 0.028595654
-0.04807739 0.10084357 -0.0052973498 0.08231347 -0.016066132 -0.078416474 0.03704543 -0.040213846
-0.057665918 -0.063339286 0.005476598 0.10275184 -0.06783831 0.034026634 -0.061156455 0.06493369
-0.073540114 -0.050928514 0.055732526 0.05413118 0.04068319 0.017627921 -0.044104263 -0.015752478
-0.058927193 -0.037253514 -0.007264777 -0.0002702939 -0.10746221 0.14426796 -0.0035499604 -0.011330696
-0.19106187 -0.025101919 0.02683699 -0.0025460944 0.029669639 0.09191709 0.06356353 0.016478792
-0.027792033 -0.057497684 0.06285717 0.076770514 0.08188418 0.046881866 -0.036255635 -0.03249308
0.09196563 0.03459034 0.05330693 -0.01569554 0.010187415 0.024860144 -0.051532052 0.044752285
0.08623802 0.02269207 0.10118139 0.10056502 0.071939826 -0.13555424 -0.008072419 0.011021947
0.1072913 -0.0012770717 -0.020649483 0.022903888 -0.060513973 0.11050366 0.038854923 -0.030403478
-0.058232892 0.03348646 0.08727775 0.07454363 0.11235669 0.12006988 0.056610037 0.12597726
0.042602703 0.06523076 -0.048586514 0.048770737 0.06295818 -0.026422018 0.017992226 0.046696644
-0.05203677 0.06860281 0.043324295 0.04030458 0.04804624 0.045804393 0.030930053 0.049904335

layer_3.weight f4 [6, 300]
00000000: fe33 e8bd 7ab7 83bd 2221 e83c ceb9 66bd
00000010: 8f32 bfbd e303 053e d881 15bd 5ba7 8abd
00000020: dbac f73c 11f7 963d 7cfc 3e3e 4f99 42be
00000030: 0f6c 1b3d 8e54 043d ed03 02be f159 393e
00000040: a7c3 a1bd 0a51 bb3d 5d04 1dbe 2f6b 2d3e
00000050: d911 273e 4d9a beba ac6d b53c 9f88 c7bd
00000060: 78c3 003e f0d5 9ebd 7c07 883d d259 d5bd
00000070: 821d 28bc 0c33 56bd 4eb7 793b cd23 3fbc
00000080: f64e b83d d61b 443d 7bf5 2b3d 3ccc ae3e
00000090: 3832 8e3d 3d49 3d3d 89c9 59bd b841 c8bd
000000a0: 15da 6bbd 6ad3 aabd 0dd3 f2bd 32c5 7fbd
000000b0: 4470 db3d b6a9 a53c 2508 82bd 55d9 47be
000000c0: 081e e13d 2c52 843d accf e33d 9eb4 8cbd
000000d0: 831c 123c e949 12be 05be b83c 90ae a63d
000000e0: 6eac 8fbd a64d e63d 6612 be3c fe03 72be
000000f0: 150c c8bd a6df d43d 1adc 6e3d e629 943d
00000100: eb59 7ebd 2298 a5bd f1d8 c53c 5964 3e3e
00000110: 3f0a 25bd 2927 81bc 53c7 2b3c a160 6f3e
00000120: 358c cbbd f12b 48bc 5057 323d 82c4 a5bc
00000130: 4706 a0bc b272 86bd b110 913d 5b3d 0f3e
00000140: 6b73 1a3d 9a70 52bc bf2c bf3c c0e4 cd3c
00000150: 68b9 d8bb 1e0c 6cbd f36b 83bd 2b30 bfbc
00000160: 5dfb aebd 1bd8 b33c ecf2 febd 899d bd3d
00000170: 3619 e83d 197a 44bd c5c3 e13c c2cc 043e
00000180: 88f5 c6be 78ad b9bd bcea af3d 21c2 983a
00000190: 53dd 813e e21a acbd 407b 9e3c 185b 5cbd
000001a0: 3c9f 8b3d fbde 863e 005f 453e 133a 4cbd
000001b0: 3ed6 063e 7ba3 7cbe aea7 aebd 6172 f1bc
000001c0: 0bec a73d 43df df3d ae34 dabd 910a 333e
000001d0: c30e e3bd a0a1 e53b 13ca 393c 60f9 40bc
000001e0: ac2c 96bd a5eb a23c 947b d6bd 9167 f63d
000001f0: fef5 23bd 15ff 9dbd e1cb 3abd b4aa e4bc
00000200: 9ccc adbd e85b d9bc 2ff8 3dbe 1dac 593d
00000210: 848c 9fbd 1599 c6bd c900 7b3d b3f3 5dbd
00000220: 7796 87bc 8f62 993d 52c8 92bc 6732 a93e
00000230: b3c2 6abd 628c 35bd a69f 903d 7be7 3a3d
00000240: 91f4 76ba 3b1d 04bd b0ea aa3d 92d5 313e
00000250: d741 8b3b 3977 91bd ac01 a23a 5713 b5bd
00000260: e234 6cbd 431f 473d 4863 13bd a52c 17bd
00000270: 501b 55bd 1c9a aebc 72ca 303c 1239 6f3e
00000280: c897 2f3d 2b97 40bd bdfc 233c e93b 583c
00000290: c017 f9bc a5c1 61bd 5e93 8dbd b584 9bbd
000002a0: 1858 2e3d 8b09 023b 8e54 05bd 6d14 113d
000002b0: 8dac c83e 7ea2 8a3d f4d1 69be 1046 9d3d
000002c0: e884 0abe 4731 8dbd 652b a73d 7c6e a33d
000002d0: b4d0 db3d 1978 b5bd c4ee fc3d 2bf9 26be
000002e0: 73c3 b33d 6dc4 b73d 60f5 1a3e e3ca af3b
000002f0: b64c 71bd 4831 933d 895e 97bd d7e9 aa3d
00000300: cc64 5cbe 21d4 a6bd 95c0 d3bd 9bbf 4d3d
00000310: b8fa 0b3c e4c5 93bc da0f 2dbe 5b37 46bc
00000320: 0145 4dbb e0e5 233d abbe b53c cd90 06bd
00000330: 1113 9c3b 47fb 8c3d a1bb e8bd 43db 163d
00000340: c00c 6bbd 04d5 c53d f176 a9bd 0bc6 c4bd
00000350: f051 943d 487c cf3d e4f1 49be 66ba b33d
00000360: c753 eeba f9cd 21bb d77c 30bd 83d4 373d
00000370: 2884 5c3d 0c1f 5a3d 2bdb acbd f294 f93d
00000380: f399 09bd 27a5 8fbd 5a81 f83c c737 02be
00000390: b101 ce3d 9194 1cbd 7817 a23c 4765 dbbd
000003a0: 61ea 9dbc f370 62bd 37f4 bc3d e1d3 93bd
000003b0: 60a5 273c c050 d73c d554 68bd 9b83 98bd
000003c0: a994 dc3d fd71 67b9 3550 803d 3965 553d
000003d0: a4b8 eebd 6cde ac3d c633 59be d897 463d
000003e0: f3e1 b93e c4ca 923e 2fb4 993d f1d7 563d
000003f0: 3f6c 8d3c 195e 103e 03e4 f5bc 3c98 58bd
-0.11338042 -0.0643148 0.028336111 -0.05632954 -0.09335815 0.12989764 -0.03650078 -0.06770202
0.030233791 0.07371343 0.18651003 -0.19003795 0.03794485 0.0323072 -0.1269681 0.18100716
-0.07898646 0.09146316 -0.15333696 0.16935419 0.16315402 -0.0014541835 0.022147022 -0.09742855
0.12574565 -0.07755649 0.066420525 -0.104175225 -0.010260941 -0.052294776 0.0038103643 -0.01166625
0.089994356 0.04787811 0.041982155 0.34140193 0.06943172 0.046212424 -0.053170715 -0.0977816
-0.057581026 -0.08341105 -0.11856661 -0.06244392 0.10714772 0.020222526 -0.0634921 -0.195165
0.10992056 0.064609855 0.11123595 -0.068703875 0.008917931 -0.14286007 0.022551546 0.08138764
-0.0701531 0.11245279 0.023202132 -0.23634335 -0.097679295 0.1039422 0.058315374 0.07234554
-0.06209747 -0.08085658 0.024151297 0.18592967 -0.040292975 -0.015765743 0.010484534 0.23376705
-0.09938852 -0.012217508 0.0435403 -0.020235304 -0.019534243 -0.06564845 0.07083262 0.13988249
0.037707727 -0.012844229 0.023336766 0.02513349 -0.006613899 -0.057628743 -0.06417074 -0.023338398
-0.085440375 0.021953633 -0.124486774 0.09258563 0.113329336 -0.047968004 0.02755917 0.12968734
-0.388592 -0.0906629 0.08589694 0.0011654535 0.2536417 -0.08403565 0.01934588 -0.05379781
0.06817481 0.26341996 0.19274521 -0.04986007 0.13167664 -0.24671738 -0.08528076 -0.029473485
0.081993185 0.10931256 -0.10654579 0.174845 -0.110868 0.0070077926 0.011339682 -0.011778206
-0.07332739 0.019887755 -0.104727894 0.120314725 -0.04002952 -0.07714669 -0.04560459 -0.027913429
-0.08486292 -0.026533082 -0.18551706 0.053142656 -0.07790473 -0.09697167 0.061280046 -0.054187488
-0.01655124 0.07489502 -0.017917786 0.33046266 -0.057314586 -0.044323333 0.070617005 0.045630913
-0.00094205985 -0.03225444 0.08345544 0.17366627 0.004249792 -0.07102818 0.0012360117 -0.088415794
-0.05766762 0.048613798 -0.035983354 -0.03690781 -0.052028 -0.02131372 0.010790454 0.23361614
0.04286936 -0.047019165 0.010008988 0.013197877 -0.030406833 -0.055116314 -0.06912874 -0.07593671
0.04256448 0.0019842114 -0.03255134 0.03541987 0.39194146 0.06769274 -0.22833997 0.07679379
-0.13527262 -0.068941645 0.08162574 0.079800576 0.10733166 -0.088607974 0.123502284 -0.16305988
0.08777513 0.08973012 0.15132666 0.005364762 -0.058911048 0.07187134 -0.07391078 0.08345383
-0.21522826 -0.08145929 -0.103394665 0.050231557 0.008543663 -0.018038698 -0.16900578 -0.012098159
-0.0031321647 0.040014148 0.022185644 -0.032852937 0.004763015 0.06883865 -0.113639124 0.036830198
-0.057385206 0.0965977 -0.082746394 -0.09608086 0.07242191 0.10131127 -0.1972118 0.08775787
-0.0018182927 -0.002468942 -0.043087807 0.0448804 0.05383697 0.053252265 -0.084402405 0.12186612
-0.033594083 -0.07013922 0.030335117 -0.1271659 0.10058916 -0.03822762 0.019786581 -0.107126765
-0.0192768 -0.055283498 0.09226268 -0.07218147 0.0102323 0.026283622 -0.056721527 -0.07446977
0.10770542 -0.0002207234 0.06265298 0.052098487 -0.11656311 0.08440861 -0.21211156 0.048484653
0.36305198 0.28670323 0.075050704 0.05245203 0.01726353 0.14098395 -0.030015951 -0.052879557

layer_3.bias f4 [6]
00000000: 3246 21bd ba17 a3bd e14c 923c e586 5fbc
00000010: 9747 013d 586f 1abe
-0.039373584 -0.0796351 0.017858924 -0.013643001 0.031562414 -0.15081537
