pytorch_models/TD3_walker_stand_032_actor.pth (torch, 521670 bytes, 6 tensors)

layer_1.weight f4 [400, 18]
00000000: ab8a 1abe 0f05 fd3d 5109 8fbe 2cb6 febd
00000010: 0e9e 91bd adb8 bb3d d220 b43d b9d0 7b3e
00000020: fba9 893d 63de c73d 2129 a5bd 8503 34bd
00000030: 8cce 67be 0c2d 02be a9a1 a8bd 1142 ba3c
00000040: ee85 113e f48a 2a3e 6169 6cbe 0277 b3bd
00000050: 6710 033e 600d b63e 6993 04be 5539 8e3e
00000060: 81ef 13bd 126c bf3d 6b79 613e 72e4 1cbe
00000070: 5056 50be e89e eebd 47b8 13be a479 733e
00000080: d9f1 f0bd f2af 32be 8077 f0bd 0262 62be
00000090: 25fe e3bd 3b4f 863e 7713 213e 7a62 ed3d
000000a0: fcf2 633d a031 11bd fa4c 7abd 39c2 8fbe
000000b0: f297 87be bc34 11be 756f 8e3e af82 3e3e
000000c0: 1f36 d7bd 4b5a cfbb dd42 c83d bb13 8a3e
000000d0: 8d96 d93d 8023 8f3d 5c7d 303e f512 96be
000000e0: 595c c53d 4646 96be 182b 67be 397e 0cbe
000000f0: 3afb 393e 9e8d 1c3e d71e 74bd 19b1 093e
00000100: 1118 393e 397b 0b3a e84e 133d 3647 943d
00000110: 5ad6 0c3e 7906 5c3e 3483 54be d060 b0bd
00000120: 1fdf 3f3d 37f3 8f3e 3228 0a3e 1f76 8f3e
00000130: 0c27 b83c 69ef c1bd f71b 98bd f8d4 a6be
00000140: cf25 62be dd42 573e 9715 a83e 0557 81be
00000150: 10ab 143d 1813 dcbd ea11 3dbd 0971 09be
00000160: 90cd be3d 093d 0dbe 3ed9 7d3d e5b9 073e
00000170: f033 113e cd8b 6c3e be18 b9be 2505 27be
00000180: afca ad3d f60c fc3c e29a 07be 6877 21be
00000190: ba47 763e 7d93 083e 3a93 09be 4dca 0abe
000001a0: 608f 6ebe 33c6 10bd 5cd2 4fbe a5dd 2fbe
000001b0: 977d 8b3d e732 19bd cf42 a0bd b9e1 673e
000001c0: 9de0 90be f3c8 2c3e c5d8 533e 0bdc 9bbe
000001d0: b045 63bd f547 bebc 19f9 0a3e 6916 403d
000001e0: 2734 813d 037d 1ebd 4ba7 cabd 698a dd3d
000001f0: e118 64be b6ca 3ebe 0ac9 61be cd7f febd
00000200: 3a16 0c3c d29c 25be 06fa 8cbd 7f2d f5bd
00000210: a404 323d 0aec afbd ab77 5d3e 3750 c3bc
00000220: eae7 0fbd 43fc 15bd 1399 9e3c ff37 1a3e
00000230: 6732 813e 4d2f 343e 19c6 693e 9a25 3bbd
00000240: 1eec 83be 3fd9 83bd 9b5e ce3d 67a4 ccba
00000250: a05f 6bbe f3f1 04be efd3 b3be 94f6 24be
00000260: 3994 9c3d 897b d33c a4d4 813d 76c6 8abe
00000270: 6ec7 173e b00f 53be 40e1 7cbd cdda 04be
00000280: 8421 43bd 0918 1bbd 257b a6be 39db 00be
00000290: 8bb1 e8bb 9c54 8b3d 9ea9 34be 2e95 0d3c
000002a0: 753a 91be 38b5 0fbd e1b9 ac3e aab9 90bd
000002b0: e195 953e e7fc 873d acac 81be 23ad 1e3e
000002c0: 910d b9bc ca7f f5bd c7b9 373e 9037 46be
000002d0: 0524 483d 7f59 adbc 1904 4c3e e061 fe3d
000002e0: 2c10 763d e193 493e 67f2 adbd a3f0 ccbc
000002f0: e31c 58be 3fc1 623e 025a 643e 6f85 ff3d
00000300: e0cf 51be aec5 913c 8e8d 30be 0165 3cbe
00000310: eea3 f6bd 9664 b53d 819c 79be 522f 0d3d
00000320: c372 413d 0454 123e 0012 5bbe 3457 83be
00000330: 75e2 d6bd d9d3 463e c8e1 acbd c0cd 793e
00000340: dfa3 dabc 222a 4f3c d175 a9bc 3744 ffbc
00000350: d5d8 f23b 8190 83bd 640c bebb 5ff0 e83c
00000360: 05e8 62be a7c0 f2bd d044 ac3e 4602 28be
00000370: 2de8 c83b b2c9 c33e be68 bd3d 72a4 133d
00000380: 0af3 17be 8bd7 bc3d b854 75be 72f1 f1bd
00000390: 5476 e3bd 0c28 83bc 8606 32ba ad98 653e
000003a0: 7d12 4f3c a3c0 563e fcbd e93c 7708 e3bd
000003b0: e511 fa3d 8bd3 c1be 2711 44be d3a8 b1bb
000003c0: 1407 383e 84d1 073e 0544 7c3d 1d5f b9bc
000003d0: bdb3 223d 0708 88be feea 373e b6f9 68be
000003e0: 08fb ce39 7396 1bbd 2184 cabd eb6f 1fbb
000003f0: 80c7 473e 1a42 01be b146 6fbe 1dde 91bc
-0.1509196 0.123544805 -0.27936795 -0.1243709 -0.07110225 0.091660835 0.087953225 0.2459134
0.06721874 0.09759214 -0.08064485 -0.04394867 -0.22637385 -0.12712497 -0.08233959 0.022736581
0.14211246 0.16654569 -0.23087074 -0.08762933 0.12799226 0.3555708 -0.12946858 0.27778116
-0.03611708 0.09346785 0.22018974 -0.1532152 -0.20345426 -0.11651403 -0.14425765 0.23776871
-0.11764879 -0.1744993 -0.11741543 -0.221077 -0.111324586 0.26232323 0.15730081 0.115910485
0.05565165 -0.035447717 -0.061108567 -0.28077868 -0.26483113 -0.14180273 0.2781941 0.1860454
-0.1050837 -0.0063279024 0.09778378 0.26968178 0.106244184 0.06989193 0.17235321 -0.29311338
0.096367545 -0.2935049 -0.22575033 -0.13720025 0.18162242 0.15288398 -0.059599724 0.13446464
0.18075587 0.0005320791 0.035963923 0.07240145 0.13753644 0.21486844 -0.20753175 -0.086122155
0.046843644 0.28115246 0.13491896 0.28019807 0.022479557 -0.09469492 -0.07427209 -0.32584357
-0.22084735 0.210216 0.32828972 -0.25261703 0.03629595 -0.10745829 -0.046159662 -0.13422026
0.09316552 -0.13792814 0.061974756 0.13254507 0.14179969 0.23100205 -0.3615169 -0.16310556
0.084859245 0.030767899 -0.13242677 -0.15768206 0.24050799 0.13337512 -0.13435069 -0.13553734
-0.2329688 -0.035345268 -0.2029509 -0.17174394 0.06811064 -0.03740206 -0.07825243 0.226447
-0.28296366 0.16873531 0.2068816 -0.30441317 -0.05548638 -0.023227671 0.13571586 0.046896372
0.063087754 -0.03869344 -0.0989519 0.10817415 -0.22275116 -0.18632016 -0.22049347 -0.1242672
0.008550221 -0.16173103 -0.06883626 -0.11971568 0.043461457 -0.08589943 0.21627681 -0.02384196
-0.03513328 -0.03661753 0.0193601 0.15060423 0.25233766 0.17596169 0.22829475 -0.045690157
-0.2576608 -0.06437921 0.10076638 -0.001561296 -0.22985697 -0.12982921 -0.3512263 -0.16109687
0.07645459 0.025815742 0.06339386 -0.2710454 0.1482217 -0.20611453 -0.061738253 -0.12974091
-0.047639385 -0.03786472 -0.32515827 -0.12583627 -0.007101243 0.06803247 -0.17642829 0.008641524
-0.28364912 -0.035084933 0.33735564 -0.070666626 0.2921591 0.06640034 -0.2532705 0.15495734
-0.022589477 -0.119872645 0.17941962 -0.19357133 0.048862476 -0.02116084 0.19923438 0.12421012
0.060074016 0.19685318 -0.084935 -0.025017088 -0.2110477 0.2214403 0.2229996 0.12476622
-0.20489454 0.017794456 -0.17241499 -0.18397905 -0.12042986 0.08857076 -0.24376108 0.034468956
0.047228586 0.14289862 -0.21393585 -0.25652468 -0.10492412 0.19416751 -0.08441502 0.24394894
-0.026689468 0.012644323 -0.020686062 -0.031160457 0.0074111023 -0.06424046 -0.005799817 0.02843493
-0.22158821 -0.11853152 0.3364625 -0.16407117 0.006131193 0.3823982 0.092484936 0.0360455
-0.14838806 0.09220799 -0.23958099 -0.1181363 -0.11106554 -0.016010307 -0.0006791133 0.22421522
0.012638685 0.20971923 0.028532974 -0.11085599 0.12210444 -0.37856707 -0.19147168 -0.0054217367
0.1797145 0.13263518 0.061588306 -0.022628361 0.039722193 -0.26568624 0.17960736 -0.22751507
0.00039478415 -0.037985276 -0.09888483 -0.0024328183 0.19509697 -0.12622872 -0.2336681 -0.017806107

layer_1.bias f4 [400]
00000000: 8f18 903e 2d81 823d 9117 b4bd 2433 b43d
00000010: 8b6d b1bc a6e6 54bc 7327 91bd aca8 493e
00000020: f55d 9cbd 5a85 cabd a2b3 5ebe 9698 b23e
00000030: 3df3 753d 10df 813e 8786 4dbe a9b3 84bd
00000040: b0ac 28be 9d2f 83bc 2611 553e 517c a93e
00000050: 3f97 abbd 5fe4 e8bd 324e ab3c efa1 57be
00000060: 7f87 083e 9138 ddbd 8a98 143e e80e 22bd
00000070: 9c02 ad3e b989 e7bd e974 3c3d 2d8c 233e
00000080: 9747 4b3e 2b43 a33e eb96 ac3e 7e8d 78be
00000090: 4ae9 0d3e fcd0 50bd 6f3e 8f3e 002c af3e
000000a0: 0675 ddbb cdeb 483e b7ed fc3d 5ade e73d
000000b0: 366d 3e3e 1fe2 d13d b090 b63c 7bc4 923d
000000c0: 2685 403d 7074 06be 6174 e43d 8989 1ebe
000000d0: 59c2 833e d223 8c3e 0fe3 183e 7c88 273e
000000e0: 2723 f53d 8bf1 653e af14 4b3e 9c4f 2fbe
000000f0: 0ea3 d2bd aece ebbd c909 223e e175 babc
00000100: 92f0 963d 3f61 503e a771 a43e f1f3 613d
00000110: ac90 6a3e 00c3 403e 7caf 173e a883 42be
00000120: f4f4 e5bd 1859 01be 0758 c5bd b21b 393e
00000130: b759 763d 5ac3 cbbc 0867 cc3d 0dd4 683c
00000140: 0236 1cbe ff48 40be 5de4 e63d d817 0cbd
00000150: fa8b bdbc 5991 3ebd 4263 f9bc 7019 653e
00000160: 7476 99bd 239d 86bc e745 69bd 3e37 9b3e
00000170: a9f5 a03b c79c 313e c494 2d3d b108 2e3e
00000180: bf38 403e 1be6 a4bd 61f5 653e c398 983e
00000190: c8ed f73d df89 793e a7ee fbbd 55d3 b23e
000001a0: 9cfc 9dbc 0755 3e3e d872 533e d056 073e
000001b0: 3f1e 743e 8b94 6fbe 6ca3 7d3e 5d80 593d
000001c0: bc00 733e 5c16 cd3a b53e cf3d f32d 153e
000001d0: bc64 b3bd 9589 93bd 3794 e23c 3857 6fbe
000001e0: 2606 d7bd 3afc d6bd 10cd 353d 39c1 26be
000001f0: 8251 893d 882a cdbd f22b f2bd 477c b9bc
00000200: 851d 243e 7580 103e 71b8 8c3d 56f5 b53e
00000210: f4e7 00be f539 aa3d 65e1 56be 138f 823e
00000220: 5ad6 acbd 018c 5a3e 2c07 003e 6603 ee3c
00000230: 4f5c b7bc fe03 dbbc 2227 4e3e d2fe 8a3e
00000240: acec 9f3e d40e 9e3c 7e95 6fbc 8faf ecbd
00000250: 84a7 5a3c 2c36 013e fd6f 893d 943d cbbd
00000260: 11d6 6c3d ff38 a83c a97d eabd f14e 9f3d
00000270: 00eb 8b3c 029d edbd 4ead 7c3c ee51 703d
00000280: 814a 0f3c 99b4 ff3c 0935 cb3c c01c 403e
00000290: 0b33 02be c601 aeba 6add 563e 061d 61bc
000002a0: 5848 e73d e789 34be 411f 14be 8dc8 00ba
000002b0: 7576 80bd f375 7b3e c4ff 583d e388 03be
000002c0: 3fd3 2f3e f934 19bd 6ec2 893e b8d4 c13b
000002d0: 9822 423e d184 86be 2684 c03e 5f32 be3c
000002e0: a5b9 cabc 368e d9bd a390 933d d0de 53be
000002f0: e074 733e 8c82 843e 588d a93e 9195 b73e
00000300: ee9c 2cbe 73a2 b8bc 39d4 963e 7f22 803e
00000310: 8530 713e 99c8 f6bd baed 073e 1466 1ebb
00000320: d16b 863e fe00 07be bec8 b23e de1b 07bd
00000330: 8dda 483e b49d 6b3e 75be 33be 1e04 f03d
00000340: 75f7 47be b576 c43d 371e 8a3e 30ff 62bd
00000350: 892b e8bd a52c a3bd 5a4c ae3e b71a 34bd
00000360: 5556 f1bd 0e05 8b3e 72fa ef3d 67d9 e73b
00000370: 2233 7c3d bdc1 c23d c261 bd3e f03e 353e
00000380: eef3 023d 5479 563c 1a13 663d d736 773d
00000390: 91a9 ba3d 6fab 003e 0d19 463e cdff 223e
000003a0: 7668 72bc d9dd 64be ec22 50be 68ed 943e
000003b0: f7be 4fbd 2c26 54bd df01 923e 35b5 54be
000003c0: bd0b 3c3e 75ab a03e 175c 633d b8c3 993e
000003d0: 0c15 633e bce8 06be f4fc 85bd 4e0c 9f3d
000003e0: 48a0 773c 364c 2cbe a84a c9bd e584 bb3e
000003f0: 3e2b 43bd 6a17 5fbe fc24 5a3e ac4b 8dbd
0.28143737 0.063722946 -0.087935574 0.08798817 -0.02165868 -0.012994444 -0.070876025 0.1969325
-0.076351084 -0.09888716 -0.21748212 0.3488204 0.060046423 0.25365496 -0.2007085 -0.0647958
-0.16472125 -0.016013915 0.20807323 0.33102658 -0.08378457 -0.11371683 0.02091131 -0.21057867
0.13332938 -0.10801805 0.14511314 -0.039564997 0.33791053 -0.113055654 0.04600993 0.15971442
0.19851528 0.31887183 0.3370889 -0.24272725 0.13858524 -0.050980553 0.2797732 0.34213257
-0.006758335 0.19621201 0.12350028 0.11321707 0.18596348 0.10248207 0.02228579 0.07166382
0.04700198 -0.13130355 0.1115501 -0.15482153 0.25734213 0.2737108 0.14930366 0.16360658
0.119695954 0.22455423 0.19832109 -0.17120212 -0.102850065 -0.115140304 0.15824045 -0.022761287
0.07370104 0.20349596 0.3211796 0.05516428 0.2290675 0.18824387 0.14813036 -0.18995535
-0.11228362 -0.12631643 -0.096359305 0.18076971 0.060144152 -0.024873424 0.09980589 0.014210713
-0.15254977 -0.18777846 0.112740256 -0.034202427 -0.023138035 -0.046525333 -0.030442838 0.22372985
-0.07493296 -0.01643235 -0.05695143 0.30315584 0.0049120975 0.17344962 0.042378202 0.16995503
0.18771647 -0.08051702 0.22456886 0.29804048 0.121059 0.24369 -0.12301379 0.3492686
-0.019285493 0.18587123 0.20649278 0.1321671 0.23839663 -0.23396508 0.24769372 0.053100932
0.23730749 0.0015646922 0.10119382 0.1456831 -0.08759448 -0.07203976 0.027658565 -0.23373115
-0.104992196 -0.10497327 0.044385016 -0.16284646 0.067049995 -0.10017878 -0.11824788 -0.022642268
0.16026886 0.14111502 0.06871117 0.3553874 -0.12588483 0.08311836 -0.20984419 0.25499782
-0.08439322 0.2134247 0.12502736 0.029054355 -0.022382883 -0.026735302 0.20132115 0.27147537
0.31235254 0.01929418 -0.014623044 -0.11556923 0.013345603 0.12618321 0.06710813 -0.099238545
0.057821337 0.02053499 -0.11449749 0.07778729 0.01707983 -0.116022125 0.015422178 0.058671884
0.00874579 0.031214045 0.024805563 0.18760967 -0.12714784 -0.0013275675 0.209829 -0.01373983
0.11293095 -0.1763073 -0.14465047 -0.0004912697 -0.06272594 0.24556713 0.052978292 -0.12845187
0.17170428 -0.037404034 0.2690615 0.0059152506 0.18958509 -0.26273206 0.3760082 0.023217378
-0.024746725 -0.10622828 0.07205322 -0.20690465 0.23775053 0.2588085 0.3311565 0.35856298
-0.16856739 -0.0225384 0.29458788 0.25026318 0.23553665 -0.1204998 0.13274279 -0.002416973
0.26254132 -0.13183972 0.3491878 -0.03298556 0.1961462 0.23009378 -0.17553122 0.11719535
-0.19527991 0.09592954 0.26976177 -0.055419147 -0.11336429 -0.079675 0.34042627 -0.04397079
-0.11784045 0.27152294 0.117176905 0.007075477 0.0615722 0.09509609 0.36988646 0.1769979
0.03197091 0.01309045 0.05617056 0.060355034 0.091143735 0.12565397 0.19345494 0.15917893
-0.014795413 -0.22350253 -0.20325822 0.29087377 -0.050719228 -0.051794216 0.28517053 -0.2077225
0.18363853 0.3138081 0.055507746 0.30032134 0.22175997 -0.13174719 -0.065423876 0.07766019
0.015113898 -0.16825947 -0.09828693 0.36624828 -0.04764866 -0.21786276 0.21303171 -0.06899199

layer_2.weight f4 [300, 400]
00000000: 33bb 7e3c ea54 b9bc 3896 473c 0e17 7f3c
00000010: b038 5f3c 355d 7a3c 4566 55bd 4294 91bd
00000020: 783f d63c 1ead 02bd 9bab 233d 1f76 32bd
00000030: e7cb cfbc c788 8c3b db65 44bd 2392 07bc
00000040: 52bc c5bd 9e7e 883c bbb3 663d c23f 8abd
00000050: 0b29 953c 2467 57bd 6247 9ebd 102a a1bc
00000060: b9b4 8cbd 0e54 b03c a074 20bc 3dc5 89bd
00000070: e7ca bebc b06b d2bc 95da 76bc a0a7 9a3c
00000080: 5278 2b3c 7616 6cbc c99d afbc a1c6 19bc
00000090: d0af 543c 5d56 fc3c 017d 84bd fb2e 563d
000000a0: 346c b2bd 8124 7e3d b6bf 1fbd 5788 bbbb
000000b0: 5dc9 13bd 4ba7 1ebe 0adb 90bb ff00 bfbc
000000c0: 6115 0dbd 09fc 3e3d 2a32 773c 4c4f 3cbc
000000d0: ad62 953c 157e 50bd 440a 40bd c14c 943d
000000e0: 3d3b 51bd 8338 6abd dd67 553d a0be a3bc
000000f0: 435f 363b d22d 193c 813c 77bd ad1f ae3d
00000100: d5e9 963b 4685 debb fd45 cfbc 190b b8bc
00000110: 4267 05bc 8d14 203b 73fe 9e3b a8ad 9e3c
00000120: f11b bcbd a946 883d 4fef dc3c 209a 153d
00000130: 0f55 c73b 430c 2f3d 4c35 2ebc 2347 69bc
00000140: 806b 413d bb5b c1bb acfc 2a3d ad11 06bb
00000150: 38a6 37bd 611c fcbd cf7f af3d f73b 4bbd
00000160: d604 06bd 35a1 0c3d bce1 2a3c 33cb d83c
00000170: 4f9f 1e3d 01d4 e5bb 2333 a63c 39a5 683c
00000180: 196d 0e3c 9602 463c 8d8a 80bd 38d4 0cbd
00000190: 5a93 52bd fd5a c2bd 4a93 6b3c af77 f93b
000001a0: 8675 883c afe9 d0bb 43b4 56bd d5a3 fabc
000001b0: 7732 9bbd cd74 2d3d 86f0 b1bc 484e 74bd
000001c0: 775b 90bd 8928 873c 27de 933c 89e1 1abc
000001d0: d230 92bc 36fa 223d 1216 d3bb 921e ab3d
000001e0: e9c4 80bd 8082 7fbd 2d7d 843b 4081 82ba
000001f0: 1ac8 093c 3043 8e3d 6e82 943d ccb7 2e3c
00000200: 7b91 63bd 81d8 ba3c 7838 3f3d a9fd 34bd
00000210: eb48 b23b 4ecc 21bd ab87 31bd 789a 61bd
00000220: bbdd 73bc 03fd ccbd 2906 5bbd e81c 50bd
00000230: 0c11 3c3c b35b 7dbd 21be 413d dcff 5abd
00000240: e67b bb3c 6f0d 4dbd cfe2 54bd 8853 c7bb
00000250: f6af dc3c 6f6f 27bd 5199 2dbb dc1d 4b3c
00000260: 137f 243c a28e 883c 419c 153c 0244 983c
00000270: f128 133d ff24 68bd 4ad0 303d abb4 a43d
00000280: 08ef ab3b e9ce d73c 7a1c 6c3b 9b33 593d
00000290: cf13 04bc f84f a4bd 8707 54bd d08e 033c
000002a0: 09c8 cdbb 6774 6f3d bd9d 5cbd 054e 1a3d
000002b0: 3954 8b3d 858e 803d a54b 20bd ff3a 98bc
000002c0: 9f5d 5dbd 5f74 9bbd 3cc5 983c 87e1 d93c
000002d0: f027 39bd 844e 843c dbfc 8bbd 40b1 0fbd
000002e0: 7129 ddbc fb86 b8bc 2ba9 2c3d 5263 313d
000002f0: e5de 683d e2ad 993c 591d e2bd 0f91 0bbd
00000300: 9f3c 5ebd f900 dabb fbd3 06bc 1d9b bbbc
00000310: 9366 1e3c 1480 873d f7cc 4ebb 61e2 2dbc
00000320: c010 003d 83f9 5b3d 3550 1cbd 602b 883d
00000330: ccfe c23c e16f 2d3d be55 9c3d c6f2 c73b
00000340: e8f2 103d df55 6e3d 557e 62bd 8b8e aebc
00000350: f826 463d cb83 543d e40a afbc 095b 0cbd
00000360: 9430 563d 1a2b e8bd f46a c9bc 7274 b43c
00000370: 7741 edbc 6255 47bc e1ba c5bc 35f3 a23d
00000380: 86fc 283d 8806 ff3c 4103 3dbd 114f 883b
00000390: 4486 3c3c 6b39 e33c 412c 16bd 929f 13bd
000003a0: c2bf 6c3d 855c 963d dffc 17bc d176 5a3d
000003b0: 6285 00bd c25e 11bd f088 16bb 3708 963d
000003c0: 45ec 753b a2c2 923c 2389 76bd 8802 3abd
000003d0: 9b26 e3bc f6ca 0dbd 5602 6b3d eb6e f2ba
000003e0: ffda a03d f247 65bc d87c 4dbc b5e7 c6bd
000003f0: ceca dfbc a938 37bd 78ad 57bd 9722 823d
0.015547561 -0.022623498 0.012181811 0.0155694615 0.013624355 0.015281011 -0.052099485 -0.07108356
0.026153311 -0.03190338 0.039958578 -0.04356968 -0.025365783 0.004288766 -0.0479487 -0.008274588
-0.0965506 0.016661938 0.056323748 -0.06750442 0.018208047 -0.052588597 -0.07728459 -0.019673377
-0.068704076 0.021524455 -0.009793431 -0.06727073 -0.02329011 -0.025686115 -0.015066762 0.018878758
0.010465698 -0.014409652 -0.021437543 -0.009385736 0.01298137 0.0308029 -0.06469155 0.052290898
-0.08712044 0.06204653 -0.03900119 -0.00572304 -0.036080707 -0.15493505 -0.0044206427 -0.023315905
-0.034444217 0.04662708 0.015087644 -0.011493515 0.018235529 -0.05090149 -0.04688479 0.07241202
-0.051081885 -0.0571828 0.052101005 -0.019988358 0.0027827777 0.009349303 -0.060360435 0.085021354
0.0046055117 -0.00679079 -0.025301928 -0.02246623 -0.008142294 0.0024426312 0.00485211 0.019369915
-0.09185017 0.06654102 0.02696958 0.03652394 0.006083138 0.042736303 -0.010632824 -0.014238152
0.04722166 -0.0059008277 0.041744873 -0.0020457313 -0.044836253 -0.123101 0.085692994 -0.049617734
-0.032719456 0.034333427 0.010429796 0.02646408 0.038726147 -0.007013798 0.020288056 0.014199548
0.008693003 0.0120855775 -0.062764265 -0.034382075 -0.051410057 -0.09490011 0.014378378 0.0076131443
0.016657602 -0.0063755135 -0.052418005 -0.0305957 -0.07577985 0.042347718 -0.021721136 -0.059644967
-0.070486955 0.01649882 0.018050266 -0.009453186 -0.017845545 0.0397894 -0.00644184 0.0835544
-0.06287558 -0.062380314 0.0040432424 -0.0009956732 0.008409524 0.06946409 0.0725144 0.010663938
-0.055558663 0.022808315 0.046684712 -0.04418722 0.0054408214 -0.03950148 -0.043342274 -0.055078954
-0.014884408 -0.10009196 -0.05347267 -0.050808817 0.011478674 -0.06185503 0.04730046 -0.053466663
0.022886228 -0.05006164 -0.051974114 -0.0060829557 0.026939373 -0.040877756 -0.0026489089 0.012397256
0.0100400625 0.016669575 0.009131492 0.018587116 0.035927717 -0.056675907 0.04316739 0.08042272
0.0052470006 0.02634378 0.0036027716 0.05302773 -0.008061363 -0.08023065 -0.05176499 0.008029655
-0.0062799496 0.05846062 -0.05386137 0.03767206 0.068031736 0.062771834 -0.03913464 -0.018582819
-0.054044362 -0.075905554 0.018648736 0.026596798 -0.045204103 0.01615072 -0.06835338 -0.03508115
-0.0269973 -0.022525301 0.04215352 0.04330761 0.056853194 0.018759672 -0.11040754 -0.034073886
-0.05425703 -0.006652948 -0.008229251 -0.022901112 0.00966801 0.06616226 -0.0031555274 -0.010613055
0.031265974 0.05370475 -0.03816243 0.06648898 0.023803137 0.042343024 0.076335415 0.006101939
0.035387903 0.05818736 -0.05529626 -0.021308204 0.048377007 0.0518835 -0.021367498 -0.034266505
0.05229242 -0.11336346 -0.024587132 0.022028182 -0.02896188 -0.012166353 -0.024136962 0.07956544
0.04125645 0.031131044 -0.04614568 0.004159816 0.011506621 0.02773734 -0.036663298 -0.03604085
0.057800062 0.073418655 -0.009276598 0.05333597 -0.031377204 -0.03549076 -0.0022969805 0.073257856
0.003752486 0.017915074 -0.060189378 -0.04541257 -0.02772837 -0.034617387 0.057375275 -0.0018496191
0.0785427 -0.013994204 -0.012541972 -0.09712163 -0.027318384 -0.04473177 -0.052655667 0.06354254

layer_2.bias f4 [300]
00000000: f1c2 35bd f8a2 b23c bd09 7d3d 6c10 953d
00000010: 871b b1bb cb93 463d 8f06 ccbc e5a7 a0bd
00000020: 8956 63bb bdd8 b0bc 78bc 9cbd dcba 8c3d
00000030: 0043 903d ddfc 5abc 5b08 853d 2845 dd3c
00000040: f4a6 043c cdc2 133d c8e3 dc3c 20a7 063d
00000050: 59bf a6bd 807e a3bd 5d6b 0c3d a105 533d
00000060: 30a9 273d 5ae8 5a3d c3bf 0dbd 83c8 96bb
00000070: d6d0 d4bc 7952 f93c 2db1 e13d 6da9 943c
00000080: 687e 1b3d 8da6 863d 8570 5f3d 65c6 d3bc
00000090: f286 18bd 241c a4bd 3589 a83d 2b65 733d
000000a0: 1670 27bc 3060 0d3d b51b e23c 1f58 1fbd
000000b0: 2b1d d03d d932 983d aeb7 f5bb 4032 813d
000000c0: 3ade ea3c 4b5a 4d3d ae0b 8e3d cb7e e23c
000000d0: 7c5f 9f3d 8d6f 8fbb a003 063c 9657 87bc
000000e0: 2fdb 7dbd c0aa a83a 5d9a f33d 66c5 f13c
000000f0: 8952 993d b4b4 583c 879a 0c3d fb32 6f3d
00000100: dd5a 5b3d d6f4 07bd e370 53bd c55b 06bc
00000110: e232 963d 21aa 4dbd e69f c03d 503c 6dbd
00000120: 19ce a5bd 4330 9f3d 6246 943d bfc1 0c3d
00000130: e323 f53c 9d0e 16bd 4e09 d83b 4b9b 0bbd
00000140: a9b8 ebbd 6daf 4d3d bc78 6e3d 8f5e 113d
00000150: 6137 223c 62ac e039 753f 263d 745e b23d
00000160: 21d5 b2bd ca0c 77bd 42be 80bc 4e20 24bd
00000170: c6a7 c43d cbdb a2bc e762 bb3d df4a 8dbc
00000180: 67db 193d af56 eb3c 4834 8c3c 30e6 cd3d
00000190: 9c3e a3bc 217f b33c b9f1 483d 13ec 8dbc
000001a0: 7048 50bc 15f0 5bbc cd9c ae3b c3d4 753c
000001b0: bf18 18bd c624 033c bfe3 383d 942c a2bd
000001c0: e44f 7a3d 6f02 8f3d 297e a33d 66fe 1abd
000001d0: b37f f6bb 59b0 f83c 5c2e 8b3d 6774 6d3d
000001e0: 6ad0 e1bc ebb8 233d 2f1c 1b3d bf99 c63b
000001f0: 6f3f b33d 6f6a 363d 632d eebc 9710 7b3c
00000200: 35d4 223d 8a89 a6bd d63f 843c e5ee 4a3c
00000210: a21a 963c 7735 603c 01a8 c33d c7f2 25bd
00000220: 59f4 94ba cc5b 113d 806a b9bd 90db 31bd
00000230: 2966 693c 5dc3 7d3d c419 2dbc 2022 303d
00000240: c6af 893d db25 34bd 63d1 083d 20ad 8f3b
00000250: d14b 76bd 0d33 68bc 41e1 603a 5998 77bc
00000260: f423 8ebd 12ac eabc 1037 36bd 6f6a 243c
00000270: 2a3c cb3d 33f6 3c3c 0d32 a33d d5f5 863c
00000280: 2dfb 14bd 1be6 a83d 7800 b8bc 9226 8a3d
00000290: 3d06 81bb 7ad5 70bd 2e7d 8f3d a304 f5bc
000002a0: b168 17bd 5bd4 8cbd 9cf6 093c 4f2d c73d
000002b0: f0aa 6fbd 1f90 203d ea87 41bc be73 b83d
000002c0: 2975 d2bc 51b7 cfbb 8168 a93c 2023 cb3c
000002d0: 39fa 253c a3fe cd3c 140e 37bd 25bd 453d
000002e0: 3830 d5bc 9e08 ad3c 0eb3 41bb c919 3ebc
000002f0: 6179 dbbd 5fbd c53d 4c06 19bd d8da 12bb
00000300: 2242 88bd 891e b6bc eadf 2e3d 6c22 7fbc
00000310: a28d 4f3d 0751 d73d c021 ae3c 848d 743d
00000320: 8234 1cbd 2732 42bd 56b4 c33d 99c7 f43d
00000330: 496e 043d 2469 653d 91e8 18bc 7546 41bc
00000340: 43f7 8c3d 86df bd3d b5e6 3a3d 05a0 7cbb
00000350: aeba 5a3c f1e6 423d c21a 8cbd 783b 713b
00000360: 617a 993d 4af8 483c 41cb a23d 0bb8 923d
00000370: 6885 b83d f5ef ddbd 6d2a 2b3c 7493 563b
00000380: 9e87 b23d b6ee 5fbd 50ba 6cbd 7e8c a83c
00000390: cfbc 67bd 359d 8d3d 8eb4 873c ac17 d3bc
000003a0: 56a7 c9bc 2301 b83c f8c4 b73d 2080 e83d
000003b0: 217d ef3d 4c85 573d 6616 a83d 3746 db3d
000003c0: 2a26 413c 81d8 703d fc25 0ebd e6d5 e1bb
000003d0: ae73 353d e0a5 47bc 9cb0 37bd 9e3a 923d
000003e0: 47ef 49bd 4c12 fe3c 58ae 803d b85a 833d
000003f0: 64f6 b23d 6893 a93d 9782 623d 10e5 a53d
-0.044375364 0.021806225 0.061776865 0.07278523 -0.005404893 0.04848079 -0.024905471 -0.07844523
-0.003468903 -0.021587724 -0.07653135 0.06871578 0.07044029 -0.013365951 0.06495734 0.027010515
0.008096445 0.03607445 0.026964083 0.032874227 -0.081419654 -0.07983112 0.034282077 0.05151904
0.040932834 0.053444244 -0.034606706 -0.0046015396 -0.025978487 0.030434834 0.11020122 0.018147195
0.037962347 0.06574736 0.054550666 -0.025851438 -0.03723807 -0.0801318 0.08229295 0.059422653
-0.010219594 0.03451556 0.027601102 -0.0389024 0.10161813 0.074315734 -0.007498703 0.063084126
0.028670419 0.05013494 0.069358215 0.02764835 0.07781884 -0.0043773116 0.008179575 -0.016521256
-0.061976608 0.001286827 0.11894677 0.029513072 0.074864455 0.013226677 0.034327056 0.05839823
0.05355345 -0.033192478 -0.05162133 -0.0082005905 0.07333924 -0.050211076 0.09405498 -0.057918847
-0.08095951 0.07772877 0.07239987 0.03436446 0.029924339 -0.03663503 0.006592906 -0.034083646
-0.115098305 0.050216127 0.05822061 0.03549057 0.009900899 0.00042853045 0.04058786 0.08709422
-0.08732057 -0.06031493 -0.015715722 -0.04006987 0.09602313 -0.019880196 0.091497235 -0.017247615
0.037562754 0.028727857 0.017114773 0.100536704 -0.019927315 0.021911206 0.04905865 -0.017324483
-0.012712583 -0.013423939 0.0053287507 0.01500434 -0.037132975 0.008004373 0.04513907 -0.07918659
0.061111346 0.06982886 0.079830475 -0.03784027 -0.007522547 0.030357527 0.06795952 0.057972338
-0.0275652 0.039971273 0.037868675 0.0060608084 0.087523334 0.044535097 -0.029074376 0.01532378
0.039753158 -0.08131702 0.01614372 0.012386058 0.018323246 0.013684622 0.095535286 -0.040514734
-0.0011364325 0.035487935 -0.090535164 -0.04342228 0.014245548 0.06195389 -0.010565225 0.043001294
0.06722979 -0.043981414 0.03340281 0.004384652 -0.060130898 -0.014172328 0.00085784873 -0.015112006
-0.06940451 -0.028646503 -0.044486105 0.010035141 0.09923585 0.011533308 0.07968531 0.016474644
-0.036372352 0.08247014 -0.022461161 0.06745638 -0.0039375112 -0.058797337 0.07006298 -0.029909438
-0.036965076 -0.06876441 0.008420613 0.09725439 -0.058512628 0.039199945 -0.01181219 0.09006451
-0.025690632 -0.0063389917 0.020679714 0.024797022 0.0101304585 0.025145834 -0.04469116 0.048276085
-0.026023969 0.021122273 -0.0029556188 -0.011602827 -0.107165106 0.0965526 -0.03735952 -0.0022408273
-0.06653239 -0.022231357 0.04269401 -0.015572172 0.05067218 0.105135016 0.021256328 0.059705272
-0.038136013 -0.04741111 0.09555881 0.11952133 0.03233174 0.056008473 -0.009332792 -0.011796583
0.06883099 0.09271149 0.045630176 -0.0038547528 0.013350172 0.047583524 -0.06841041 0.0036809128
0.07494045 0.012266228 0.07948924 0.0716401 0.0900982 -0.10836784 0.010447127 0.0032741698
0.08717273 -0.054671012 -0.05779487 0.020574804 -0.056576546 0.069147505 0.016565587 -0.025768124
-0.024615925 0.02246148 0.08973116 0.11352563 0.11693788 0.052617356 0.08207397 0.10706752
0.011788884 0.058800224 -0.034704193 -0.0068919538 0.044299774 -0.012185544 -0.044846162 0.071400866
-0.04930046 0.031014584 0.062832534 0.064137876 0.087384015 0.08280069 0.05530032 0.08100331

layer_3.weight f4 [6, 300]
00000000: 5ef6 50bd 2660 56bd 381b 633c 967e 3abd
00000010: 2dd6 c0bd 0955 9c3d 5b81 15bd b50c fdba
00000020: ee6a 543c 4ca7 8f3d 5706 bf3d 0f62 31be
00000030: 1393 253d ad9c 613d e6fc eabd 9ab0 043e
00000040: 355d bbbd 375e c23d 56b7 bebd f6f7 563d
00000050: 87fe ae3d 7101 c63b d53f ac3c 8a4a d2bd
00000060: 693a e33d c07f cdbd 5352 cd3d 0a4e e6bd
00000070: 30cc f1bc be37 02bc e991 d8bb 3ccd cbbc
00000080: 9d92 5d3d 7cd6 4d3d 51c3 143d 4814 653e
00000090: f6cb 8b3d 5d12 583d f4e3 c6bd b4d7 d8bd
000000a0: 2570 8cbd 9c7e b8bd 5b46 e2bd 7a2c 14bd
000000b0: c526 c53d baa7 a33c 3aa4 8cbd b2ca 27be
000000c0: 2611 d13d 3d0d 753d 5505 bb3c 24c4 2bbd
000000d0: d39b cf3b b412 1ebe c464 d83c 8b07 803d
000000e0: 6ba6 82bd bce1 be3d e37d b13c 43e5 25be
000000f0: 8efe b8bd c79b c33d 57ab f13c aaf6 673d
00000100: 803a 96bd 4bea 83bd 593e 003d a2e5 c03d
00000110: ea7d 6ebd 5034 7cbc 4796 4bbb 5668 153e
00000120: b76c 58bc 5119 a7bc 188d 3e3d 5496 4ebc
00000130: 2523 c9bc 02a0 483d b6f7 883d 1c52 6c3d
00000140: b2a2 c63c 6eba 73bc 4dbd bd3c c0e4 cd3c
00000150: e599 513d e7ca 0fbd 255c 96bd 42a4 bcbc
00000160: f33f a8bd def2 49bc 2250 aabd 3bd4 983d
00000170: 935c 843d 47ae 14bd 8bec ba3c 34f7 a63d
00000180: 03d4 39be 14a9 bbbd eed1 a13d 9367 26bb
00000190: 9172 b83d 947f 9fbd 0bd8 bc3c 518b 71bd
000001a0: c079 a23d c522 ea3d 9075 3b3e fb83 57bd
000001b0: 7baf 003e da64 44be 3a3c a2bd 43a9 613d
000001c0: 2029 793d 8817 ae3c 9117 b1bd 5539 943d
000001d0: adc5 e7bd 45a8 c83c 343e 573c c761 0ebc
000001e0: fd7f 76bd bdc0 553c b207 d0bd 2b46 043e
000001f0: 1064 3fbd d1d7 81bd ddb3 07bd f0cb eebc
00000200: c69c 9dbd bce6 193d a0f8 0dbe 0106 603d
00000210: aa2c 74bd 4074 99bd 4daf 533d 4939 2cbd
00000220: f6c0 23bc c775 8c3d e1c0 8abd 3f5b 1c3e
00000230: 0e59 61bd 61e9 51bd 2917 a63d 9b6d 413d
00000240: 461f 343c fb0a 38bd dff7 d53d 254a 0c3e
00000250: 1eab cc3c 2e87 5ebd cfbe 2c3d 6aa0 c5bd
00000260: fec1 48bd d236 643d 4863 13bd 23d4 9fbc
00000270: 82c2 62bd 43c7 aebc df20 b93c d462 cd3d
00000280: 0650 2a3d d31a 88bd d305 653c 6abd 773d
00000290: 4882 1fbd 7fcd 73bd e118 aebd 301a 82bd
000002a0: 1880 3d3d 1eeb fd3c 408a 8cbc 1390 353d
000002b0: a817 653e 8e58 7a3d cb7d 0dbe 2343 b13d
000002c0: 86fc 77bd edcf a5bd d85d 9c3d f850 843c
000002d0: 9996 cb3d 2025 d0bd 6ca8 323d eb4a cfbd
000002e0: 763d 803d 7052 503c 1794 ed3d 3670 4d3c
000002f0: f88e 3ebd 7581 993d 1b05 7abd e44a c13d
00000300: 3ab3 c9bd 82bf 90bd ded8 febd c16d 753d
00000310: d4fe 3a3a a964 2cbd 1adc 92bd f16c 5dbc
00000320: 3274 183b ed88 5c3d 8104 163c 8764 3ebd
00000330: e32e 3e3d 45a0 863d efdc 2fbd d829 343d
00000340: 1842 15bc 3b2d 1a3d 1ec2 b9bd a2db d7bd
00000350: b38b 9a3d 0498 bc3d 782d ccbd ea4e cf3d
00000360: 1398 1bbc 0868 0dbd 79df fb3c 2282 273d
00000370: 9107 563d 7e9e 233d f70e 97bd fa24 383d
00000380: e4a4 d0bc 1aa3 67bd 2784 403d d294 aabd
00000390: 6406 de3d 54ec 6ebc bc94 fa3b 2fda cdbd
000003a0: b776 2b3d 6d38 38bd cc0e c93d b225 32bd
000003b0: 6846 743c aeb6 21bd 946a a8bd 8bdd 80bd
000003c0: 41f4 bf3d e9a3 a7bd cce1 593d b882 193d
000003d0: 05ee edbd d63a a13d aa0e 1ebe eb4d 1c3d
000003e0: 4abb 553e c3cb 9f3d c12c 893d ebbc 433d
000003f0: 41c6 cfbd 13fa e73d b6df fbbc 9bde 65bd
-0.051016204 -0.052337788 0.01386147 -0.045530878 -0.09415851 0.07633407 -0.036500316 -0.0019306155
0.012964947 0.07014331 0.09327381 -0.17322563 0.040423464 0.05508106 -0.11474018 0.12957993
-0.09148637 0.09490626 -0.09312312 0.052482568 0.08544641 0.0060426523 0.021026531 -0.102681234
0.11095125 -0.10034132 0.10025468 -0.112453535 -0.02951631 -0.00794786 -0.0066091907 -0.024878137
0.0540949 0.050253376 0.03631908 0.22371018 0.06826012 0.052751888 -0.09711447 -0.10588017
-0.06857327 -0.09008524 -0.110485755 -0.03617523 0.09626535 0.01997744 -0.06867261 -0.16385916
0.10208349 0.059827078 0.022829691 -0.0419351 0.0063357144 -0.15436822 0.026415236 0.06251439
-0.06379398 0.09320399 0.021666473 -0.16200738 -0.090329275 0.095511965 0.029500647 0.05663172
-0.07335377 -0.06441172 0.03130946 0.09418799 -0.05822555 -0.015393332 -0.0031064914 0.14590582
-0.013209513 -0.020397814 0.046521276 -0.012609083 -0.024552891 0.04898072 0.06687872 0.057695493
0.024247501 -0.014875991 0.023161555 0.02513349 0.051172156 -0.035105612 -0.07341794 -0.023027543
-0.08215322 -0.01232597 -0.08316065 0.07462355 0.0646297 -0.036299016 0.02281787 0.08152619
-0.18147282 -0.091631085 0.07901369 -0.0025391325 0.09006227 -0.077880055 0.023052236 -0.058970753
0.07933378 0.11432413 0.18306565 -0.0526161 0.1256694 -0.19179097 -0.079216436 0.05509306
0.060830235 0.021251455 -0.08647073 0.07237498 -0.113170005 0.0244943 0.013137389 -0.008690304
-0.060180653 0.013046441 -0.10157718 0.12917392 -0.046726286 -0.06339992 -0.033130515 -0.02914998
-0.07695918 0.03757356 -0.13864374 0.054693226 -0.059612907 -0.07492876 0.05168085 -0.04204682
-0.009994736 0.06858402 -0.0677507 0.15269183 -0.05501657 -0.051247958 0.08109886 0.04722367
0.010993784 -0.044932347 0.10447668 0.13700159 0.024983939 -0.054328136 0.042174157 -0.09649737
-0.04901313 0.055716343 -0.035983354 -0.019510334 -0.05536128 -0.02133525 0.022598682 0.100286156
0.041580223 -0.06645741 0.013978439 0.060483374 -0.038942605 -0.05952215 -0.08500839 -0.06352651
0.046264738 0.030995902 -0.017155766 0.044326853 0.22372305 0.06111961 -0.13817517 0.086553834
-0.06054356 -0.08096299 0.07635087 0.01615189 0.099408336 -0.10163331 0.04361765 -0.10121711
0.06261723 0.012714967 0.116005115 0.01253896 -0.046523064 0.07495395 -0.061040025 0.094381124
-0.09848638 -0.07067777 -0.12443708 0.059919123 0.0007133309 -0.042088185 -0.07170887 -0.013514743
0.0023262617 0.05384152 0.009156347 -0.04648259 0.046431433 0.06573538 -0.042935308 0.043985218
-0.009109996 0.03764079 -0.09070228 -0.105399385 0.07546177 0.09208682 -0.0996961 0.101224735
-0.009496707 -0.03452304 0.030746209 0.04089559 0.05225331 0.03994607 -0.07375901 0.04495714
-0.025469251 -0.05655203 0.04700103 -0.083291665 0.10841063 -0.014582712 0.007647125 -0.10051381
0.041861262 -0.044975687 0.098172754 -0.04349298 0.014909364 -0.039480858 -0.08223453 -0.06292256
0.093727596 -0.0818556 0.053193852 0.03747818 -0.11617664 0.0787255 -0.15435281 0.038160246
0.20872226 0.07802536 0.06697989 0.047787588 -0.10145236 0.11326995 -0.030746322 -0.056120496

layer_3.bias f4 [6]
00000000: 4b52 54bd 4421 c0bd 7158 0fbd 3f59 2f3c
00000010: 6a88 0a3d 8b93 f9bd
-0.051836293 -0.09381345 -0.034996454 0.01070243 0.0338215 -0.12186345
