artifacts/240_walkerDynamics.pt (torch, 196730 bytes, 20 tensors)

linear1.weight f4 [100, 30]
0	0xbe9e0218	-0.30860972
1	0xbd193650	-0.037405312
2	0xbeb1775f	-0.34661385
3	0x3e6bb97d	0.23019977
4	0xbe423469	-0.18965305
5	0xbde832a1	-0.11337782
6	0xbad69190	-0.0016370285
7	0xbd8d768d	-0.069073774
8	0xbe169c19	-0.14707984
9	0x3e7a08d4	0.2441743
10	0xbe9828ac	-0.2971853
11	0xbc6bc992	-0.01439132
12	0x3eb71ace	0.35762638
13	0xbdb96b1f	-0.09053635
14	0x3f3b6653	0.7320301
15	0x3d2a36c6	0.041556142
16	0x3d27625b	0.040865283
17	0x3db8c819	0.090225406
18	0x3d6bfc5a	0.057613708
19	0x3ce60c02	0.028081898
20	0xbd1b2987	-0.0378814
21	0xbd682a1f	-0.056680795
22	0xbd571e5c	-0.052519187
23	0x3d950dff	0.0727806
24	0x3e589788	0.21151555
25	0x3ad5dec0	0.0016316995
26	0xbea622be	-0.3244838
27	0xbd019ea1	-0.03164542
28	0x3d86f92e	0.06590496
29	0x3e6818e1	0.2266574
30	0x3e1a5bbf	0.15074061
31	0xbd83216e	-0.064028606
32	0x3f018e18	0.5060744
33	0xbe8efe0f	-0.27928206
34	0x3d857edd	0.06518338
35	0x3e8a7044	0.27038777
36	0xb9c8f979	-0.00038332844
37	0x3e04e7fc	0.1297912
38	0xbd8e1728	-0.069380105
39	0xbe60cebe	-0.21953866
40	0x3e3f0287	0.18653308
41	0x3ce421a4	0.027848072
42	0xbe84d095	-0.25940385
43	0x3db271da	0.08713122
44	0xbed7b2ab	-0.421285
45	0xbe0d3bdc	-0.13792366
46	0xbd017e69	-0.031614695
47	0x3bfa3230	0.0076353773
48	0xbdf7f287	-0.12106805
49	0xbd8bb1dc	-0.06821033
50	0x3d8fce6e	0.07021795
51	0xbc28782a	-0.010282556
52	0x3d5e0b9c	0.05421029
53	0xbe19810e	-0.14990637
54	0xbe0a8557	-0.13527428
55	0x3dbac088	0.09118754
56	0x3ea7dfd0	0.32787943
57	0x3c90f798	0.017696187
58	0xbc98d482	-0.01865602
59	0xbea22bce	-0.31674045
60	0xbe22c680	-0.15896034
61	0x3e13ba77	0.144266
62	0xbcb9ad9e	-0.022665795
63	0xbd29bf51	-0.04144222
64	0x3efb7ab7	0.49117061
65	0xbc57b4ce	-0.013165666
66	0xbd0ba201	-0.034090046
67	0xbe0ca435	-0.13734515
68	0xbc461097	-0.012088916
69	0x3db47d6b	0.08812984
70	0x3e538646	0.2065669
71	0x3dab4d3c	0.08364341
72	0x3d22ecdf	0.03977668
73	0x3e72a0c2	0.23694137
74	0xbe9e29fb	-0.30891404
75	0xbc239ba9	-0.009985843
76	0xbd87c10a	-0.06628616
77	0x3d567a05	0.05236246
78	0xbc8b651a	-0.017015982
79	0x3d41388d	0.04717307
80	0xbd90347c	-0.070412606
81	0x3dc77aa6	0.0974019
82	0xbc781d67	-0.015143729
83	0xbd780670	-0.060553014
84	0x3de9ab57	0.114096336
85	0xbe47709f	-0.19476555
86	0xbea2a179	-0.3176382
87	0x3e229048	0.15875351
88	0xbd8021b4	-0.06256428
89	0xbe6b06ee	-0.22951862
90	0xbefca797	-0.4934661
91	0x3e1bcdf3	0.15215282
92	0xbe4238ee	-0.1896703
93	0xbaf4a14d	-0.0018663794
94	0xbe9881a6	-0.29786414
95	0x3d8e904a	0.06961115
96	0xbc161a80	-0.0091615915
97	0x3d5991c0	0.053117514
98	0x3ee6671b	0.45000538
99	0xbe5598ba	-0.20859042
100	0xbef339fa	-0.4750517
101	0xbe198998	-0.14993894
102	0xbc828cf6	-0.015936356
103	0x3ea6b799	0.3256195
104	0x3e61a1b3	0.2203434
105	0x3c3e6cdc	0.011622634
106	0xbd9cf4df	-0.07663893
107	0xbcc43918	-0.023953006
108	0x3c69b385	0.014263992
109	0x3ba0e99e	0.004910662
110	0x39aed48c	0.00033346226
111	0x3aa28300	0.001239866
112	0x3c458a94	0.012056965
113	0xbbaee886	-0.0053377775
114	0x3d867669	0.06565554
115	0xbd0d7c78	-0.03454253
116	0x3a58ba3c	0.0008267497
117	0x3e3913c6	0.18073949
118	0xbe396ecc	-0.18108672
119	0xbe663f51	-0.22485091
120	0xbe8877b8	-0.26653838
121	0x3cc0057f	0.02344012
122	0xbe3d3deb	-0.18480651
123	0xbd5ae7ee	-0.05344384
124	0xbe992134	-0.29908144
125	0x3e2c9d49	0.16856875
126	0xbd8474a9	-0.06467564
127	0xbc776339	-0.01509934
128	0x3e9bbd2f	0.30417773
129	0xbe20fc65	-0.15721281
130	0x3eadb338	0.33925796
131	0x3e447e79	0.1918887
132	0xbe0e9c09	-0.1392671
133	0x3dcee6c8	0.10102612
134	0x3e565c68	0.20933688
135	0x3bc1a13a	0.0059091123
136	0xba848060	-0.001010906
137	0x3dae481a	0.08509846
138	0xbd36938c	-0.044574305
139	0xbcb4ff63	-0.022094434
140	0xba877ac7	-0.0010336273
141	0xbd0a4ec7	-0.033766534
142	0xbc7fa852	-0.0156040955
143	0xbce1360b	-0.02749159
144	0x3d849fbe	0.06475781
145	0xbd9c94f6	-0.076455995
146	0xbdb5dc52	-0.088799134
147	0xbd0dd7af	-0.03462952
148	0x3dc64b39	0.09682316
149	0xbeb20790	-0.34771395
150	0x3c8c3cf1	0.017118903
151	0xbe112406	-0.14173898
152	0x3ee2612b	0.44214758
153	0x3dbbe9b9	0.091754384
154	0xbd4e4ca4	-0.05036606
155	0x3dba2060	0.09088206
156	0x3e638da0	0.22221994
157	0xbe37ddd6	-0.17955717
158	0xbc5600f3	-0.01306175
159	0xbd702cb2	-0.058636375
160	0xbdf79408	-0.120887816
161	0xbe32a5aa	-0.17446008
162	0xbe27a061	-0.16369773
163	0xbd8ccbea	-0.06874831
164	0x3f05e323	0.5229971
165	0xbdcade7a	-0.09905715
166	0xbe329e69	-0.17443241
167	0xbe035b68	-0.12827837
168	0x3c9dc23f	0.019257663
169	0xbd368e6f	-0.04456943
170	0x3d832b25	0.064047135
171	0xbd6aa184	-0.05728294
172	0xb9910659	-0.00027661285
173	0x3d445723	0.047934663
174	0xbe8499b1	-0.25898507
175	0x3e4c9a03	0.19980626
176	0x3e6b53ea	0.2298123
177	0xbe9fe1e6	-0.31227034
178	0x38b995ea	8.849411e-05
179	0x3e25e867	0.16201936
180	0xbea845fb	-0.3286589
181	0xbe18bce8	-0.14915812
182	0xbeaf1adf	-0.3420019
183	0x3c39d8b5	0.011343171
184	0x3dd93996	0.10606687
185	0xbd028ffc	-0.031875595
186	0x3dd98d6f	0.106226794
187	0xbd0bf9fd	-0.034173954
188	0x3d2a2cf4	0.041546777
189	0x3da1a3b9	0.07892556
190	0x3f4e46ae	0.805766
191	0xbd4d6ecb	-0.05015449
192	0xbe35afc6	-0.17742833
193	0x3f0e2b52	0.5553485
194	0x3d4e4485	0.050358314
195	0xbcff03f6	-0.031129818
196	0xbc9dd9da	-0.019268919
197	0xbd38ceec	-0.04511921
198	0xbd994f76	-0.07485859
199	0xbd108338	-0.03528139
200	0x3b5a268d	0.0033287138
201	0x3de0dfa2	0.109801546
202	0x3d9230e4	0.071382314
203	0x3cd74f17	0.02628283
204	0xbe11490e	-0.14188024
205	0xbcda8718	-0.026675746
206	0x3e413753	0.18868761
207	0xbc8159eb	-0.015789947
208	0xbd2cbd66	-0.042172812
209	0x3e50f91d	0.20407529
210	0x3e7ce202	0.2469559
211	0x3c5179ab	0.012785356
212	0xbe3c5133	-0.1839035
213	0x3e032add	0.1280932
214	0xbf337228	-0.70096064
215	0xbc7185cb	-0.014741371
216	0x3e89e7af	0.26934573
217	0x3ea9bc2f	0.33151385
218	0x3ec5025d	0.38478366
219	0x3e534e0f	0.20635246
220	0xbe391783	-0.18075375
221	0xbdbf88be	-0.093522534
222	0x3dd6c094	0.1048595
223	0x3d96ae25	0.07357434
224	0x3e939369	0.28823403
225	0x3c3dc7e4	0.011583302
226	0xbc4bc95c	-0.012438145
227	0xbcfe92dd	-0.03107589
228	0xbc711a3d	-0.014715728
229	0xbc99c24b	-0.018769404
230	0x3bc417a1	0.005984262
231	0x3d0ee57f	0.034886833
232	0x3c0f0900	0.008730173
233	0x3b25f30c	0.002532187
234	0x3cd36dd9	0.025809215
235	0xbd67cf37	-0.0565941
236	0x3cc8ef51	0.024528177
237	0x3d3e7d10	0.046505988
238	0x3be1d047	0.0068912837
239	0xbbee0ad1	-0.007264473
240	0x3e0c7d10	0.13719583
241	0x3e2e9d0d	0.17052098
242	0x3e30c237	0.17261587
243	0xbe42ef9a	-0.19036713
244	0xbf4f2b3f	-0.80925363
245	0x3c0cc0ef	0.008590921
246	0x3e959b15	0.2921988
247	0xbda13620	-0.07871652
248	0xbd07c6d4	-0.0331486
249	0xbe07dd38	-0.13267982
250	0x3cc2f971	0.023800584
251	0x3bd56cc2	0.006513209
252	0xbbc20951	-0.0059215208
253	0xbd49b405	-0.049243946
254	0x3ebc65c6	0.36796397
255	0x3d937766	0.07200508

linear1.bias f4 [100]
0	0x3dfd41e3	0.123660825
1	0xbd097b9b	-0.033565145
2	0x3dca8d59	0.09890241
3	0xbe241931	-0.16025235
4	0x3d178ddc	0.037000522
5	0x3d66cc73	0.05634732
6	0xbe18ede4	-0.14934498
7	0x3ddc3881	0.10752965
8	0x3e17dae7	0.14829598
9	0x3cf67ca4	0.03008873
10	0x3dfd1eb3	0.12359371
11	0x3e0c604e	0.13708612
12	0x3e33357b	0.1750087
13	0xbd07549f	-0.033039685
14	0x3c956c87	0.018240226
15	0x3e0b43a3	0.1360002
16	0xbd7af3a1	-0.0612675
17	0x3dba7cd8	0.09105843
18	0x3e1b4c46	0.15165815
19	0x3dbad738	0.09123081
20	0xbc1669cf	-0.0091805
21	0xbd3e50dd	-0.046463836
22	0xbe2fce1d	-0.1716847
23	0x3e03cbbc	0.12870687
24	0xbe16cb1b	-0.14725916
25	0xbe22854a	-0.15871158
26	0x3d49dfce	0.049285702
27	0xbe1b9c93	-0.15196447
28	0x3dd245cc	0.10267219
29	0x3e334b02	0.17509082
30	0xbd7161a1	-0.058930997
31	0x3e2cd57f	0.16878317
32	0xbe19e5fc	-0.15029138
33	0x3cff9815	0.031200448
34	0xbc965876	-0.018352728
35	0x3df967f8	0.121780336
36	0x3e0b5d69	0.13609852
37	0xbcc78b61	-0.024358453
38	0xbe00820f	-0.12549613
39	0x3c433d82	0.01191652
40	0x3d87c21a	0.06628819
41	0x3c322ab8	0.010874443
42	0x3dd9acf7	0.106286936
43	0xbe0b59ea	-0.13608518
44	0xbbba5875	-0.0056868144
45	0x3dc61cb6	0.09673445
46	0x3dc81454	0.09769502
47	0x3d112bbf	0.03544211
48	0xbe03e4dd	-0.12880273
49	0xbcc8334e	-0.024438526
50	0xbdca8012	-0.09887709
51	0xbd12c746	-0.035834573
52	0xbe0a37b9	-0.13497819
53	0xbdeacb79	-0.114645906
54	0xbd7ce81e	-0.0617448
55	0xbe18dea7	-0.14928685
56	0x3de35fac	0.11102232
57	0x3da88e3d	0.08230255
58	0xbdca1899	-0.09867973
59	0xbdab9419	-0.08377857
60	0x3cf0e2a0	0.029404938
61	0xbde68e6e	-0.11257635
62	0xbbc11847	-0.0058927867
63	0x3e1b6a4a	0.15177265
64	0xbe25c6a2	-0.16189054
65	0x3da78954	0.0818049
66	0x3d16d7aa	0.036826767
67	0x3cd0a7f0	0.025470704
68	0xbc7ca9be	-0.015421329
69	0x3c3fdc15	0.0117101865
70	0x3cd80d55	0.026373545
71	0xbdc97753	-0.098372124
72	0x3d866503	0.06562235
73	0x3e19bff4	0.1501463
74	0xbd43b9a0	-0.047784448
75	0x3d05286a	0.032509245
76	0xbdb75efd	-0.089536645
77	0xbde1cb5b	-0.11025115
78	0xbe2f1327	-0.1709715
79	0xbe2d746b	-0.16938941
80	0xbd5cb041	-0.053879026
81	0x3d8898c3	0.06669762
82	0xbdc81292	-0.09769167
83	0xbe1239fa	-0.14279929
84	0xbe15ce93	-0.14629583
85	0xbe20a34f	-0.15687297
86	0xbd3da15b	-0.04629646
87	0xbd3ebda8	-0.04656759
88	0xbcd35032	-0.025795076
89	0xbcbaa288	-0.022782579
90	0x3d9a3340	0.075293064
91	0x3be986a0	0.0071266443
92	0x3d8f45da	0.06995745
93	0x3dbad53b	0.09122702
94	0xbe3754b8	-0.17903411
95	0x3e232f5b	0.15936033
96	0xbe053e42	-0.1301203
97	0xbdad75df	-0.08469748
98	0xbe036ca6	-0.12834415
99	0x3c4f371f	0.012647419

bn1.weight f4 [100]
0	0x3f3b0c25	0.73065406
1	0x3f4b46ba	0.79404795
2	0x3f2f2e83	0.68430346
3	0x3f710257	0.94144195
4	0x3f6a3425	0.91485816
5	0x3f2a7077	0.6657786
6	0x3f225dcc	0.6342437
7	0x3fa7d164	1.3110776
8	0x3f327f26	0.69725263
9	0x3f35bba3	0.70989436
10	0x3f8139fc	1.009582
11	0x3fa14338	1.2598639
12	0x3fa3df92	1.2802603
13	0x3f368620	0.7129841
14	0x3fa42ef7	1.2826833
15	0x3f51a2c3	0.8188898
16	0x3f413361	0.75469023
17	0x3f0621f8	0.5239558
18	0x3fa19a67	1.2625245
19	0x3f2c9418	0.67413473
20	0x3f88d80c	1.0690932
21	0x3f3f9aff	0.7484588
22	0x3f733af6	0.9501184
23	0x3f3bbff5	0.7333978
24	0x3fa2e901	1.2727357
25	0x3f850a73	1.0393814
26	0x3f4b7ae2	0.7948438
27	0x3f93c32f	1.154394
28	0x3f8e76e1	1.1130029
29	0x3f3fde6a	0.7494875
30	0x3f2a544b	0.6653487
31	0x3f3934c0	0.72346115
32	0x3f897c3c	1.0741038
33	0x3f9bea37	1.2180852
34	0x3f78778d	0.9705742
35	0x3f6507c6	0.89464986
36	0x3f36a82d	0.71350366
37	0x3f649a44	0.8929789
38	0x3f8c1081	1.0942537
39	0x3f384e82	0.71994793
40	0x3f86f2f4	1.0542893
41	0x3f90a72d	1.1301018
42	0x3f0ebaf9	0.5575405
43	0x3f434a4e	0.76285255
44	0x3f1b5aac	0.6068523
45	0x3f59cc80	0.8507767
46	0x3f67b921	0.9051686
47	0x3f94b4c6	1.1617668
48	0x3f98dc78	1.1942282
49	0x3f4faf2a	0.81126654
50	0x3f5c1150	0.85963917
51	0x3f965d5c	1.1747241
52	0x3f82ddcb	1.0223936
53	0x3f4b39d9	0.79385144
54	0x3f5ba898	0.8580413
55	0x3fb5e298	1.4209776
56	0x3f6f9b9b	0.9359681
57	0x3f6f2490	0.93415165
58	0x3f9ebb32	1.2400877
59	0x3f53afa3	0.82689875
60	0x3f935046	1.1508873
61	0x3f114f94	0.5676205
62	0x3f65378a	0.8953787
63	0x3f3a6f8b	0.7282645
64	0x3f810000	1.0078125
65	0x3f60c942	0.87807095
66	0x3f51f41f	0.82013124
67	0x3f0798f2	0.5296775
68	0x3f3d940d	0.7405403
69	0x3f88d134	1.0688844
70	0x3faa67d9	1.3312942
71	0x3f0c04fd	0.5469511
72	0x3f35c9d8	0.71011114
73	0x3f2e6e7b	0.6813733
74	0x3f45c4cf	0.7725343
75	0x3f364859	0.71204144
76	0x3f9b2a30	1.212225
77	0x3f1dbb46	0.6161388
78	0x3f2a4968	0.6651826
79	0x3f543b3c	0.82902884
80	0x3f39b625	0.72543555
81	0x3f57fcc9	0.84370095
82	0x3f3bb809	0.7332769
83	0x3f43bcc3	0.764599
84	0x3f339e16	0.70163095
85	0x3f4e40de	0.8056773
86	0x3f45ad19	0.7721725
87	0x3f44b83c	0.7684362
88	0x3f86ebcd	1.0540711
89	0x3f815f79	1.0107261
90	0x3f34932f	0.70537084
91	0x3f956a03	1.1672977
92	0x3f259414	0.64679074
93	0x3f402b22	0.75065815
94	0x3f42f628	0.76156855
95	0x3f10aa7c	0.5651014
96	0x3f47e6e1	0.7808667
97	0x3f401393	0.7502987
98	0x3f36e1d7	0.71438354
99	0x3fa0acdf	1.2552756

bn1.bias f4 [100]
0	0x3d9ed489	0.077553816
1	0xbd6593dc	-0.056049213
2	0xbcf2c338	-0.029634103
3	0x3e2096a2	0.15682462
4	0xbd78bba8	-0.060725838
5	0x3d0d9f74	0.034575894
6	0x3f12a6e1	0.57285887
7	0x3dc53be6	0.09630565
8	0x3e9f7d48	0.3115027
9	0x3cfd238b	0.030900737
10	0x3e2b75d6	0.1674417
11	0x3f0c9b49	0.54924446
12	0x3d366f93	0.04454
13	0xbd2128be	-0.039345495
14	0x3e93da19	0.28877333
15	0x3e8d95c0	0.27653313
16	0xbb57f28a	-0.003295096
17	0x3ebb7e4b	0.3661979
18	0x3cdbb032	0.026817415
19	0x3dbdbecd	0.09264908
20	0x3ee1e465	0.44119564
21	0x3cb6b4f8	0.02230309
22	0x3eba29f7	0.36360142
23	0x3c9812a6	0.01856358
24	0xbd222cb6	-0.03959342
25	0x3e0b8325	0.13624246
26	0xbd86522e	-0.06558643
27	0x3ead12d9	0.33803442
28	0xbcbd999b	-0.023144534
29	0x3d0df282	0.0346551
30	0x3c804f7f	0.015662907
31	0x3cfb4ba2	0.030675713
32	0x3e8087fd	0.2510375
33	0x3ecaf2d4	0.39638388
34	0x3e982474	0.29715312
35	0x3d5206d8	0.051276058
36	0x3de6c5f2	0.11268224
37	0x3ed7cc08	0.4214785
38	0x3e9bb9dc	0.30415237
39	0x3d9f7a85	0.077870406
40	0x3e2b195f	0.16708897
41	0x3e94ad23	0.29038343
42	0x3d1af502	0.037831314
43	0x3f816984	1.0110326
44	0x3fbb2e56	1.4623516
45	0x3e9188ed	0.2842478
46	0x3e83d486	0.2574808
47	0x3e42c1d0	0.19019246
48	0xbd552565	-0.052037615
49	0x3e14cc88	0.14531147
50	0x3ed02156	0.40650433
51	0x3d28f3b4	0.04124804
52	0x3d521813	0.05129249
53	0xbc6ef6a4	-0.014585171
54	0x3f5394df	0.82649034
55	0xbcee8b9c	-0.029119305
56	0x3ec3b084	0.38220608
57	0x3d75e740	0.06003499
58	0x3e2d6b29	0.1693541
59	0xbd35883a	-0.04431937
60	0x3cf18366	0.029481601
61	0xbcaa7db7	-0.020811899
62	0xbd7a0c05	-0.06104662
63	0x3de6b573	0.112650774
64	0x3ddc9cae	0.10772072
65	0x3ed1aff1	0.40954545
66	0x3e70f799	0.23531951
67	0x3fa58b9f	1.2933234
68	0xbd934f58	-0.07192868
69	0x3cad77d2	0.021175299
70	0x3e975e7a	0.29564267
71	0x3eb59a7f	0.35469434
72	0x3b23678b	0.0024933543
73	0x3c047915	0.008085509
74	0xbd722cae	-0.05912464
75	0x3dfc26bd	0.12312076
76	0x3d16985d	0.0367664
77	0x3d5147b5	0.051093776
78	0x3e5da919	0.21646537
79	0x3e2c2589	0.16811194
80	0xbe43f67f	-0.19137
81	0x3e173477	0.14766107
82	0x3dfc9d13	0.12334647
83	0x3ed4d814	0.41571105
84	0xbd39bf73	-0.045348596
85	0xbb3716b3	-0.0027937114
86	0xbdf51a86	-0.119679496
87	0x3da1bf7b	0.0789785
88	0x3e5c0c68	0.21489108
89	0x3db6c151	0.08923591
90	0x3d0733f8	0.033008546
91	0x3e0d22a5	0.13782747
92	0x3f041267	0.5159058
93	0x3cffe8bf	0.031238912
94	0x3d85f0e0	0.06540084
95	0x3f90ab91	1.1302358
96	0x3b766224	0.0037595117
97	0x3ca6671d	0.02031284
98	0x3e02f337	0.12788092
99	0x3e378ed4	0.17925578

bn1.running_mean f4 [100]
0	0x3eeab38b	0.45840105
1	0xbea14944	-0.3150121
2	0x3e219a02	0.15781406
3	0xbe86a7a2	-0.2629977
4	0x3b229605	0.0024808657
5	0x3d3bf651	0.045889203
6	0x3d9e3271	0.07724465
7	0x3e05c09d	0.13061757
8	0x3d8695ba	0.06571527
9	0xbd3c1780	-0.04592085
10	0x3da1e00f	0.07904064
11	0xbe86f1c6	-0.26356333
12	0x3e304374	0.17213231
13	0x3d85d3b7	0.06534522
14	0xbeb11865	-0.34588924
15	0x3e912818	0.28350902
16	0xbe2252df	-0.15851925
17	0xbd298134	-0.041382983
18	0xbd6b81ed	-0.057496954
19	0x3deb81b0	0.11499345
20	0xbe8277b4	-0.2548195
21	0xbe24c921	-0.1609235
22	0x3c9ee868	0.01939793
23	0x3e15eda8	0.1464144
24	0xbed3c398	-0.41360164
25	0xbe94eff6	-0.29089326
26	0x3e2aeb18	0.16691244
27	0xbdc75901	-0.09733773
28	0xbcabd473	-0.020975327
29	0x3f017875	0.5057443
30	0x3d9195b0	0.07108629
31	0x3e2d99d2	0.16953209
32	0x3ce8f1c9	0.028435605
33	0x3e022bfb	0.1271209
34	0x3e604610	0.21901727
35	0x3e0d29f2	0.13785532
36	0x3e178ff5	0.14801009
37	0x3e1ebf59	0.15502681
38	0x3b87f213	0.0041487305
39	0xbce766f0	-0.028247327
40	0x3e8a1316	0.26967686
41	0x3e2c1547	0.16804992
42	0x3e46f2b8	0.19428527
43	0xbebebe5a	-0.37254602
44	0xbdf204f9	-0.11817355
45	0x3e3f38f7	0.18674074
46	0xbea2415c	-0.3169049
47	0x3e450c12	0.19242886
48	0xbcee780d	-0.029109979
49	0x3de0b152	0.10971321
50	0x3dbc8dd5	0.0920674
51	0xbe6aa954	-0.22916156
52	0xbee3f181	-0.4452019
53	0xbe8b491f	-0.27204224
54	0x3e7a3d5b	0.24437468
55	0xbe39084d	-0.18069573
56	0xbcb4dd9c	-0.022078328
57	0x3e845a17	0.25849983
58	0xbde5ca0b	-0.11220177
59	0xbe15d0da	-0.14630452
60	0x3ea2dd82	0.31809622
61	0xbdd84f12	-0.105619565
62	0xbe338a98	-0.17533338
63	0x3f00e2b4	0.5034592
64	0xbe516567	-0.20448838
65	0x3e9b3e5f	0.30321023
66	0xbe8cd914	-0.27509367
67	0xbae31935	-0.0017326238
68	0xba2756c6	-0.00063834747
69	0x3d3162cb	0.043307107
70	0xbe1f6adf	-0.15568112
71	0xbd0e1192	-0.034684725
72	0x3e88e19d	0.2673463
73	0x3e3f580b	0.1868593
74	0x3d672e28	0.056440502
75	0xbd39d7fc	-0.045371994
76	0xbddbf5a7	-0.10740214
77	0xbde930f7	-0.113862924
78	0xbdfd78c6	-0.12376551
79	0xbeab81c4	-0.3349744
80	0x3d995e8f	0.07488739
81	0x3e0e6fdb	0.13909857
82	0xbe155ade	-0.14585444
83	0xbe8038d1	-0.25043347
84	0xbdf4b244	-0.11948064
85	0xbdf6a13b	-0.12042471
86	0xbdbd2c4b	-0.09236964
87	0x3df90894	0.12159839
88	0x3e8be7ae	0.27325195
89	0xbdd07628	-0.101787865
90	0x3d87df08	0.06634337
91	0x3e5e6b3d	0.21720596
92	0xbde05fb6	-0.109557554
93	0x3dc09fa1	0.09405447
94	0xbe75853a	-0.23976603
95	0x3d3ff302	0.04686261
96	0xbce1102d	-0.027473534
97	0xbdceb092	-0.10092272
98	0xbda7f09e	-0.08200191
99	0xbd99f451	-0.07517303

bn1.running_var f4 [100]
0	0x3f8e65a7	1.1124772
1	0x407d193d	3.9546654
2	0x3fe99a64	1.8250241
3	0x3f32de48	0.69870424
4	0x3e9acd88	0.30234933
5	0x3fb93744	1.4469991
6	0x3f12c29e	0.5732821
7	0x3f23fa79	0.64054066
8	0x3e66c673	0.2253664
9	0x3fbe23a5	1.4854628
10	0x3f354343	0.7080576
11	0x3df3aca2	0.118981615
12	0x3ed296f7	0.41130802
13	0x400d2277	2.2052286
14	0x3f67118e	0.9026116
15	0x3f87bfea	1.0605443
16	0x40bb7fb8	5.8593407
17	0x3f2cc88a	0.674935
18	0x3ddbbad5	0.10728995
19	0x4058f756	3.3900962
20	0x3f2c5978	0.6732402
21	0x3e83fe23	0.25779828
22	0x3f170f33	0.5900757
23	0x3fcb48b1	1.5881559
24	0x3eb6af1e	0.3568048
25	0x403da40f	2.9631383
26	0x401cc14e	2.4492984
27	0x3eced33b	0.4039553
28	0x3f8f9646	1.1217735
29	0x40972534	4.7232914
30	0x3f94f1fe	1.163635
31	0x401aa484	2.4162912
32	0x3f2d3433	0.67657775
33	0x3e731eb7	0.23742186
34	0x3e48e010	0.19616723
35	0x3ec8e3b8	0.39236236
36	0x3e80e9fc	0.25178516
37	0x3e0ff871	0.14059617
38	0x3e58ccd2	0.21171883
39	0x40258d20	2.5867386
40	0x3f8c2e28	1.0951586
41	0x40094fb9	2.145491
42	0x3ebaa852	0.36456543
43	0x3d1ad333	0.03779907
44	0x3dc2a675	0.095044054
45	0x3faf8c10	1.3714619
46	0x3dd55abd	0.104176976
47	0x3f816803	1.0109867
48	0x3f0e52a1	0.5559483
49	0x3f295bfb	0.66155976
50	0x3e407101	0.18793108
51	0x3fd82e03	1.6889042
52	0x3ee72aaf	0.45149752
53	0x405799e4	3.3687677
54	0x3f334752	0.700307
55	0x3e0d1c8f	0.13780425
56	0x3db87bda	0.09007998
57	0x3f80ea45	1.0071493
58	0x3e6a6dbe	0.22893426
59	0x3ec0df3e	0.3767032
60	0x3fa24e3d	1.2680126
61	0x401dfcba	2.4685502
62	0x3faadc04	1.3348393
63	0x3ec604f1	0.38675645
64	0x3f3be661	0.73398405
65	0x3f74cffc	0.9562986
66	0x3e996466	0.2995941
67	0x3ea1db71	0.31612733
68	0x3f944752	1.1584265
69	0x3f95bf5c	1.1699023
70	0x3f68e077	0.90967506
71	0x3e496090	0.19665742
72	0x3f853b84	1.0408788
73	0x4021be40	2.527237
74	0x40126f90	2.2880592
75	0x3eb450f9	0.35218027
76	0x3e5b2655	0.21401341
77	0x400c6c8c	2.1941252
78	0x3f4c3c0c	0.79779124
79	0x40474943	3.1138465
80	0x3ec4fba2	0.3847323
81	0x3f7f3f53	0.99706
82	0x3ed0c692	0.40776497
83	0x3ee276c1	0.44231227
84	0x4071089a	3.76615
85	0x3fe294ac	1.7701621
86	0x3fcd94f0	1.6061077
87	0x3ec26e8a	0.3797496
88	0x3f6b9f1e	0.9203967
89	0x3fbeb883	1.4900059
90	0x40779ef0	3.8690758
91	0x3f74c146	0.9560741
92	0x3ea6c3d6	0.32571286
93	0x4004df10	2.0761147
94	0x40964bd5	4.696757
95	0x3e001331	0.12507321
96	0x4047714e	3.1162906
97	0x407d5ff7	3.9589822
98	0x3f93bf56	1.1542766
99	0x3f2d7020	0.67749214

linear2.weight f4 [200, 100]
0	0x3d6141b2	0.054994293
1	0xbd31bae2	-0.043391116
2	0x3d28c0eb	0.041199606
3	0xbdadbccf	-0.08483278
4	0xbda9113f	-0.082552426
5	0x3ccfb776	0.025356036
6	0xbdbdec7c	-0.092736214
7	0x3d42901b	0.04750071
8	0x3d102787	0.035193946
9	0x3d2c2533	0.042027663
10	0xbbbc6297	-0.0057490575
11	0xbdf4ad3c	-0.11947104
12	0x3dcc02f0	0.09961498
13	0xbcced81e	-0.025249537
14	0x3e18b6e0	0.14913511
15	0xbcfb6b95	-0.030690948
16	0xbbf349d7	-0.007424574
17	0xbd41441c	-0.047184095
18	0x3da6d0e2	0.0814531
19	0x3c613d47	0.01374752
20	0xba024f5d	-0.00049709325
21	0xbcad4613	-0.021151578
22	0xbc1a579c	-0.009420302
23	0x3ccdd1d3	0.025124466
24	0x3bd650d4	0.006540397
25	0x3c65d6d0	0.014028266
26	0xbd25a216	-0.04043778
27	0xbbb74c0a	-0.0055937814
28	0x3dab108b	0.08352765
29	0xbcf2fb77	-0.029660923
30	0x3c8bf8a1	0.017086329
31	0xbbb72dea	-0.00559019
32	0x3ddcd60e	0.10783015
33	0xbbefa146	-0.0073129265
34	0xbe129c68	-0.14317477
35	0x3d0a588b	0.033775847
36	0x3cde407e	0.027130362
37	0xbd38355f	-0.044972774
38	0x3da12fba	0.07870431
39	0xbb71f1de	-0.0036917846
40	0x3cdf8db1	0.027289243
41	0x3d647238	0.05577299
42	0xbd94a603	-0.07258227
43	0xbc9cd85d	-0.019146139
44	0x3bf45b0f	0.007457144
45	0xbd9c0416	-0.07617967
46	0x3cce829d	0.025208766
47	0xbdf2d338	-0.11856693
48	0x3dc1dd3b	0.094660245
49	0x3cb70d0f	0.022345094
50	0x3d05cf96	0.032668673
51	0x3df95834	0.121750265
52	0xbd4b8f42	-0.04969717
53	0xbb1cf7b0	-0.0023951344
54	0x3a957d99	0.0011405229
55	0xbda23ad8	-0.0792138
56	0xbd0b3086	-0.033981822
57	0xbd88e249	-0.066837855
58	0x3bc8aa5b	0.0061238236
59	0xbb2744ce	-0.0025523189
60	0x3cebbde3	0.028777068
61	0xbb8128c6	-0.003941628
62	0x3ca455bb	0.02006041
63	0xbd892286	-0.06696038
64	0x3d353c35	0.04424687
65	0x3c7d6a30	0.015467212
66	0x3dc4e05d	0.096131064
67	0x3e1ba53c	0.1519975
68	0xbc9f135b	-0.01941841
69	0x3cc6afdc	0.024253778
70	0xbde26bca	-0.110557154
71	0xbbf1a1c9	-0.0073740226
72	0xbd6f0011	-0.058349673
73	0xbd052db4	-0.03251429
74	0xbd0be50d	-0.034153987
75	0x3cfcdb93	0.03086642
76	0xbc1af31f	-0.009457379
77	0xbc63cb0d	-0.013903392
78	0x3ab9a152	0.0014162457
79	0x3d17a1f9	0.037019704
80	0xbd8585a7	-0.06519633
81	0xbbff1fc8	-0.007785771
82	0xbd57499d	-0.052560437
83	0xbc9e9bb6	-0.019361358
84	0x3bc1e8d7	0.0059176493
85	0x3cc93923	0.024563378
86	0xbc873378	-0.016504034
87	0x3d3d42cf	0.04620629
88	0x3d8ea4eb	0.06965049
89	0x3d925b19	0.07146282
90	0x3dc8607d	0.09784029
91	0x3d5ba722	0.053626187
92	0x3d21a491	0.039463583
93	0x3d43a189	0.047761474
94	0x3c308365	0.010773514
95	0xbbd54102	-0.0065079937
96	0xbd2090f8	-0.039200753
97	0x3d0c2d82	0.034223087
98	0x3a002de0	0.00048896484
99	0x3d825d29	0.06365425
100	0xbcbc1209	-0.022957819
101	0x3da0f942	0.07860042
102	0xbd4e62dc	-0.05038725
103	0x3d57ec06	0.052715324
104	0x3d3d63ea	0.046237864
105	0xbd721760	-0.059104323
106	0x3d5a2fce	0.053268246
107	0xbd1165f4	-0.03549762
108	0xbd50b5d0	-0.05095464
109	0x3ce06096	0.027389806
110	0xbd0f106d	-0.034927774
111	0xbd307ce2	-0.043087848
112	0xbe193c30	-0.14964366
113	0x3db8f58c	0.09031209
114	0xbd880f8e	-0.06643592
115	0x3cf9b4ba	0.030481685
116	0xbd1cc29e	-0.03827154
117	0x3cb23ced	0.021757567
118	0xbd6ba716	-0.057532392
119	0xbd203fec	-0.03912346
120	0xbcde1cbe	-0.027113315
121	0x3c886907	0.016651643
122	0xbb90e65c	-0.004421992
123	0x3bf708d2	0.0075388933
124	0x3b71022d	0.0036774979
125	0xbd1ecbea	-0.038768686
126	0x3dd476ae	0.10374199
127	0x3bf42568	0.0074507482
128	0xbe05811c	-0.13037533
129	0xbda4d98b	-0.080493055
130	0xbdd1e12e	-0.10248028
131	0x3c8c9408	0.01716043
132	0x3cf4275c	0.029803924
133	0xbd3c20be	-0.045929663
134	0x3cb975ee	0.022639241
135	0xbe02919f	-0.12750863
136	0xbc64c162	-0.013962122
137	0xbc5523ed	-0.013009054
138	0xbe03a042	-0.12854102
139	0x3ceb63d8	0.028734133
140	0x3d27791d	0.040886987
141	0x3d222fa4	0.039596215
142	0x3d21f4ac	0.039539978
143	0x3c3fb48a	0.011700759
144	0x3d6bd755	0.057578404
145	0x3c8c6ae9	0.017140822
146	0xbdd499a8	-0.1038087
147	0xbe093b36	-0.13401493
148	0xbb27817f	-0.0025559363
149	0xbd5e69bc	-0.054300055
150	0x3c4ca0b4	0.0124894865
151	0xbd3fc867	-0.046821978
152	0xbd9d3a9a	-0.07677193
153	0x3d62c5fb	0.05536459
154	0xbbf0b04a	-0.007345234
155	0x3d432a54	0.04764779
156	0xbcdc4fad	-0.026893461
157	0xbca48b4d	-0.020085955
158	0xbd7b6512	-0.061375685
159	0x3d9efccf	0.07763063
160	0xbe7abd8f	-0.24486373
161	0xbd036157	-0.032075252
162	0xbd6561f3	-0.056001615
163	0xbc0c5eff	-0.008567571
164	0x3de1f2a4	0.11032608
165	0xbd809687	-0.06278711
166	0xbd10f287	-0.035387542
167	0xbcff49a9	-0.031163054
168	0xbc631dd1	-0.013862089
169	0x3d2bbe96	0.041929804
170	0x3d78ca13	0.060739588
171	0x3c548f82	0.012973668
172	0x3b3742aa	0.002796332
173	0x3dda6b9d	0.10665057
174	0xbce1c4d8	-0.027559683
175	0x3ce446e5	0.027865836
176	0xbd3fe78f	-0.04685169
177	0xbbbe4f12	-0.0058077658
178	0x3bba58ff	0.0056868787
179	0x3c658ba2	0.014010342
180	0x3c70a217	0.014687083
181	0xbd765906	-0.060143493
182	0x3d65937c	0.056048855
183	0x3da6b5dd	0.081401564
184	0x3ce5d6b1	0.028056474
185	0x3d9b69f3	0.075885676
186	0xbca10a74	-0.019658305
187	0x3ad87b05	0.0016516155
188	0x3d5a77c8	0.05333689
189	0xbdadc0bd	-0.084840275
190	0xbc40a43f	-0.011757909
191	0x3bec8a3d	0.0072186277
192	0xbcedb59b	-0.02901726
193	0xbdf0973b	-0.11747595
194	0xbd4534ab	-0.04814593
195	0x3d95a8c2	0.073075786
196	0x3c56f588	0.013120063
197	0x3b96c18b	0.004600709
198	0x3d316904	0.04331304
199	0xbd9678ed	-0.073472835
200	0x3d905bfa	0.07048793
201	0xbc2031a2	-0.009777458
202	0xbda3a63a	-0.079906896
203	0xbd1a292d	-0.037636925
204	0x3c9dab7d	0.019246811
205	0x3cdab529	0.026697712
206	0x3db031ef	0.08603274
207	0x3d62c9cd	0.055368233
208	0x3d14095c	0.03614174
209	0x3d0e1e92	0.034697123
210	0xbdcbd0d2	-0.09951939
211	0x3d73521e	0.059404485
212	0xbd280f36	-0.04103013
213	0xbc8fb00b	-0.017539999
214	0x3d96a70e	0.07356082
215	0xbd10df84	-0.03536941
216	0xbc56257d	-0.013070461
217	0xbce5df72	-0.028060649
218	0x3cd3f56b	0.02587386
219	0x3ccf9c72	0.025343154
220	0xbda3e98e	-0.080035314
221	0x3c566375	0.013085236
222	0x3dcaa06c	0.09893879
223	0xbc663d46	-0.014052695
224	0x3d013084	0.03154041
225	0x3cd47bc2	0.025937919
226	0x3d76e4c7	0.060276773
227	0x3cfddcec	0.030989133
228	0x3d53db56	0.051722847
229	0x3c61c077	0.013778797
230	0xbcb844b2	-0.022493694
231	0xbdd93137	-0.1060509
232	0xbd390a66	-0.045175932
233	0x3c8ce10b	0.017197153
234	0x3d9186ae	0.07105766
235	0x3d07110d	0.032975245
236	0xbdb75d09	-0.08953292
237	0xbcd3adab	-0.025839647
238	0x3d065e88	0.032804996
239	0xbd5b8266	-0.053591155
240	0x3e268310	0.16260934
241	0xbd7d33ac	-0.061816856
242	0x3d3fb09e	0.046799295
243	0xbc05c1b4	-0.008163858
244	0x3c10eda1	0.008845718
245	0xbce44d99	-0.027869033
246	0xbd0537bc	-0.032523856
247	0x3cbfb20a	0.023400325
248	0xbd59429c	-0.05304204
249	0x3d1b4f27	0.037917282
250	0x3d3bc781	0.04584456
251	0xbdb58f10	-0.08865178
252	0xbc9ea7d8	-0.019367144
253	0xbb27f1ae	-0.002562623
254	0x3c6281f0	0.013824925
255	0xbecbbb37	-0.3979127

linear2.bias f4 [200]
0	0x3cf52759	0.029925989
1	0x3d8a7d92	0.06762232
2	0x3c77ae06	0.015117174
3	0xbddf8481	-0.10913945
4	0xbd512bd5	-0.051067192
5	0x3d29ff84	0.041503444
6	0x3d6beb94	0.05759771
7	0x3c9298ab	0.017895063
8	0x3d0d54ac	0.034504578
9	0x3d5070c1	0.05088878
10	0x3dc48e71	0.09597481
11	0xba94f164	-0.0011363444
12	0x3d6a047f	0.057133194
13	0x3d0afa8e	0.033930354
14	0x3cb546c1	0.022128465
15	0xbd5c51f5	-0.053789098
16	0xbd8e80bc	-0.06958148
17	0xbd1113ba	-0.035419203
18	0x3dc06ad9	0.093953796
19	0x3d5bb3d3	0.05363829
20	0xbdb67553	-0.089090966
21	0x3b0b9d8f	0.002130363
22	0x3d85571e	0.06510757
23	0xbd8bb47e	-0.068215355
24	0x3d9e88ba	0.07740922
25	0x3d75b2f4	0.059985116
26	0xbd28119f	-0.04103243
27	0xbd3b1825	-0.045677323
28	0xbcb21b04	-0.021741398
29	0xbd81add1	-0.06331981
30	0xbc8e86ce	-0.017398264
31	0x3ca4b5fb	0.020106306
32	0xbd4abf6b	-0.049498957
33	0xbd5c8fe8	-0.053848177
34	0x3da1dc63	0.079033636
35	0xbdba2fc5	-0.090911426
36	0xbc8ef32d	-0.01744994
37	0xbc942b78	-0.018087134
38	0xbd5cf7f1	-0.053947393
39	0xbd199813	-0.037498545
40	0x3d35f1a3	0.044419896
41	0xbdc865d6	-0.09785049
42	0xbd95d737	-0.073164396
43	0xbd65b09a	-0.056076623
44	0x3d1222b1	0.035677616
45	0xbcebebee	-0.028799023
46	0xbbc09bc2	-0.005877943
47	0x3cd6b85b	0.026210954
48	0x3da7fcdd	0.08202527
49	0x3cf0b952	0.029385243
50	0xbd305408	-0.04304889
51	0xbd8a78da	-0.06761332
52	0xbd8d47ed	-0.068984844
53	0x3c5e2a79	0.013559931
54	0xbd4a9c7b	-0.049465638
55	0xbd1f4126	-0.03888049
56	0xbb13ea9b	-0.0022570256
57	0xbd643970	-0.05571884
58	0xbdab7b12	-0.08373083
59	0xbda2d5af	-0.07950913
60	0x3db55a7e	0.08855151
61	0xbc631f1d	-0.013862398
62	0xbd81682e	-0.06318699
63	0xbdcf20dd	-0.1011369
64	0xbcb1c622	-0.021700922
65	0xbdb03020	-0.08602929
66	0x3d03c674	0.03217168
67	0xbd9e3a4f	-0.07725965
68	0xbcf9d1f2	-0.030495618
69	0x3ddf1067	0.108918004
70	0x3cd07b0e	0.025449302
71	0x3bbfe886	0.0058565764
72	0xbd89a4ec	-0.067209095
73	0x3d8f2525	0.06989507
74	0x3c23ba69	0.009993174
75	0xbd6d0bc5	-0.057872552
76	0xbc346a42	-0.011011662
77	0xbd8daa46	-0.06917243
78	0x3daa0e87	0.08303552
79	0xbdf2012d	-0.118166305
80	0x3d75a496	0.059971415
81	0xbd1ac293	-0.037783217
82	0x3dbb1c0b	0.09136208
83	0xbdbfe87e	-0.09370516
84	0xbd1e22b4	-0.038607314
85	0x3d2beb70	0.041972578
86	0xbcea6410	-0.028612167
87	0x3d507163	0.050889384
88	0xbdbb2ccc	-0.09139404
89	0xbd109072	-0.035294004
90	0xbd5e9565	-0.054341692
91	0xba85b234	-0.0010200203
92	0x3cbca9a5	0.023030112
93	0xbcf1305c	-0.029442005
94	0xbd9a8193	-0.075442456
95	0xbd93c396	-0.072150394
96	0x3b31d322	0.0027133902
97	0xbd210f13	-0.039321017
98	0xbd1846bc	-0.037176833
99	0xbca2076e	-0.019778933
100	0xbbfe0a30	-0.0077526793
101	0x3d1660be	0.036713354
102	0x3da7044e	0.08155118
103	0xbdd6099d	-0.10451052
104	0x3dfb6e86	0.1227694
105	0xbca5151b	-0.020151665
106	0x3d51b54e	0.051198296
107	0xbd3e7634	-0.046499446
108	0xbccb5b9d	-0.024823958
109	0xbde1058f	-0.10987388
110	0xbcc155dc	-0.023600511
111	0x3c126a34	0.008936454
112	0x3ca8eead	0.020621622
113	0x3c0a02e9	0.008423545
114	0xbd32e21f	-0.043672677
115	0x3d901e83	0.0703707
116	0x3b9a0ff6	0.0047016097
117	0xbd3d7044	-0.046249643
118	0xbd28b2ac	-0.04118602
119	0x3bb9c1e6	0.0056688664
120	0x3d6c2e76	0.057661496
121	0x3c924e70	0.017859668
122	0x3d5d0fd8	0.053970188
123	0x3bb46422	0.005505101
124	0x3cac440c	0.021028541
125	0xbd804844	-0.062637836
126	0xbd94fc24	-0.072746545
127	0xbd09b62c	-0.033621
128	0x3dc386fa	0.09547229
129	0x3c416dba	0.011805946
130	0xbd9b4816	-0.07582109
131	0xbd766c00	-0.06016159
132	0x3d8f733c	0.07004401
133	0xbdcb9ed5	-0.09942404
134	0x3ba2785c	0.0049581956
135	0xbcbbfe0c	-0.022948287
136	0xbd569933	-0.052392196
137	0x3da5e76b	0.0810078
138	0xbd912a8e	-0.07088195
139	0x3da50c20	0.08058953
140	0xbc8f90e1	-0.017525138
141	0xbd71a427	-0.05899444
142	0x3daa1ac1	0.08305884
143	0x3c85151b	0.016245415
144	0x3cb92b46	0.022603642
145	0xbd654072	-0.055969663
146	0xbcf92de6	-0.030417394
147	0xbc9135a5	-0.017725775
148	0x3d6d9d81	0.058011536
149	0xbb7cfa13	-0.0038601204
150	0xbdcb8ef8	-0.099393785
151	0x3d24f32f	0.04027098
152	0x3dc3bbb6	0.095572874
153	0x3c248071	0.010040388
154	0x3d123005	0.035690326
155	0xbd2617b0	-0.040549934
156	0x3d80e441	0.06293536
157	0x3ae51c1f	0.0017479694
158	0x3dbf9812	0.09355177
159	0xbcaa0ad2	-0.020757113
160	0xbc5b0cd5	-0.013369759
161	0xbd756eab	-0.059919994
162	0x3c072578	0.008248679
163	0xbcc9e9b6	-0.024647575
164	0x3dc642a4	0.096806794
165	0xbcc86ca0	-0.024465859
166	0xbd3329bf	-0.043740984
167	0xbdb3a28f	-0.0877124
168	0x3dc52960	0.09627032
169	0xbd15c414	-0.036563948
170	0xbdb8e148	-0.09027344
171	0x3c83cb2b	0.016088089
172	0xbdc24522	-0.09485842
173	0xbb871511	-0.0041223844
174	0x3c88f5f4	0.016718842
175	0x3d346765	0.044043917
176	0xbd822bf4	-0.0635604
177	0xbd8d0621	-0.068859346
178	0x3bf735f5	0.007544274
179	0x3dd534e4	0.10410479
180	0xbb92498a	-0.004464333
181	0x3dc6843e	0.09693192
182	0x3d9056fd	0.07047842
183	0x3d4522d7	0.04812893
184	0x3dc9e9e2	0.09859063
185	0xbcc6b143	-0.024254447
186	0xbde3d4c9	-0.1112457
187	0x3dac1ef0	0.08404338
188	0x3d6d8baf	0.05799454
189	0x3d5daec8	0.054121763
190	0xbda41847	-0.08012443
191	0xbd6a675b	-0.057227474
192	0x3d604d2b	0.054761093
193	0x3d1f9c98	0.0389677
194	0xbd165eec	-0.03671162
195	0x3db3dc14	0.08782211
196	0x3dbdf61b	0.092754565
197	0xbda65e67	-0.081234746
198	0x3bdde0e9	0.006771196
199	0xbc573f68	-0.013137676

bn2.weight f4 [200]
0	0x3f5ca1e2	0.86184514
1	0x3f71ff38	0.9453006
2	0x3f6de5ae	0.9292859
3	0x3f98e197	1.1943845
4	0x3f742d39	0.95381504
5	0x3f90c5ab	1.1310323
6	0x3f61a589	0.8814321
7	0x3f5c5f20	0.8608265
8	0x3f287847	0.6580853
9	0x3f816f31	1.0112058
10	0x3f47457b	0.77840394
11	0x3f89536a	1.0728581
12	0x3f53156d	0.8245457
13	0x3f858e5c	1.043407
14	0x3f7afd3e	0.98042667
15	0x3f6e23a0	0.9302311
16	0x3f75293f	0.9576606
17	0x3f5920d3	0.8481571
18	0x3f739f91	0.95165354
19	0x3f7564b6	0.958568
20	0x3f7e51fe	0.9934386
21	0x3f62f26d	0.8865116
22	0x3f6ec769	0.93273026
23	0x3f83fd11	1.0311605
24	0x3f87cf68	1.061017
25	0x3f6fa74c	0.9361465
26	0x3f19b278	0.60037947
27	0x3f808a0f	1.0042132
28	0x3f7e7b26	0.9940666
29	0x3f69ae23	0.91281337
30	0x3f271201	0.65261847
31	0x3f8c90f0	1.0981731
32	0x3f91188e	1.1335618
33	0x3f44ae47	0.76828426
34	0x3f8b0b88	1.0862894
35	0x3f70edf0	0.94113064
36	0x3f7e20f0	0.9926901
37	0x3f81c3e1	1.0137902
38	0x3f4f5fda	0.8100563
39	0x3f81db77	1.01451
40	0x3f750d4c	0.95723414
41	0x3f7009e9	0.9376512
42	0x3f78809a	0.9707123
43	0x3f5bb5de	0.8582438
44	0x3f861da0	1.0477791
45	0x3f80f618	1.0075102
46	0x3f59c1fc	0.8506162
47	0x3f8148f8	1.0100393
48	0x3f4070d2	0.7517215
49	0x3f7abfde	0.97949016
50	0x3f575c63	0.84125346
51	0x3f78d7db	0.9720437
52	0x3f8e8945	1.1135641
53	0x3f7837be	0.96960056
54	0x3f8f0352	1.1172888
55	0x3f7318b3	0.94959563
56	0x3f3e6edb	0.743879
57	0x3f5a0dd5	0.85177356
58	0x3f78e83b	0.97229356
59	0x3f799986	0.97499883
60	0x3f70a33a	0.93999064
61	0x3f794d4a	0.9738356
62	0x3f87a720	1.0597878
63	0x3f421b57	0.7582297
64	0x3f7314a3	0.94953364
65	0x3f86bff4	1.052733
66	0x3f492fd4	0.78588605
67	0x3f8712f0	1.0552654
68	0x3f6a0848	0.91418886
69	0x3f8a74dc	1.0816913
70	0x3f65f8d5	0.8983281
71	0x3f841ba7	1.0320939
72	0x3f62c1ce	0.8857697
73	0x3f500950	0.8126421
74	0x3f808320	1.0040016
75	0x3f49be74	0.78806233
76	0x3f823618	1.0172758
77	0x3f75915e	0.9592494
78	0x3f5efcb1	0.87104326
79	0x3f916647	1.1359338
80	0x3f45210e	0.7700356
81	0x3f8206bb	1.0158304
82	0x3f7c02ef	0.98441976
83	0x3f96e80d	1.1789566
84	0x3f75745e	0.9588069
85	0x3f8404fb	1.031402
86	0x3f7fe583	0.9995958
87	0x3f4a0511	0.7891398
88	0x3f6a4c60	0.9152279
89	0x3f874eb1	1.057089
90	0x3f3f7626	0.74789655
91	0x3f6f4357	0.9346213
92	0x3f67f8d9	0.90614086
93	0x3f4a64c9	0.79060036
94	0x3f84fd69	1.0389835
95	0x3f845ff6	1.0341785
96	0x3f906d86	1.1283424
97	0x3f434a36	0.7628511
98	0x3f6b1ec0	0.91843796
99	0x3f93fa83	1.1560825
100	0x3f7eb6bc	0.9949758
101	0x3f81d1b6	1.0142124
102	0x3f80497c	1.0022426
103	0x3f577ca0	0.8417454
104	0x3f745e29	0.95456177
105	0x3f4f7098	0.8103118
106	0x3f7b4faa	0.9816843
107	0x3f76e42d	0.9644192
108	0x3f5b3b28	0.8563714
109	0x3f71d768	0.9446931
110	0x3f6dd773	0.92906874
111	0x3f818cbb	1.0121073
112	0x3f71c135	0.94435436
113	0x3f876442	1.0577471
114	0x3f532c97	0.82489914
115	0x3f825485	1.0182043
116	0x3f6dd41b	0.9290177
117	0x3f5f5a0d	0.8724678
118	0x3f277179	0.6540752
119	0x3f83174e	1.0241487
120	0x3f642a61	0.89127165
121	0x3f823f98	1.0175657
122	0x3f694607	0.9112248
123	0x3f8a0805	1.0783697
124	0x3f455acb	0.77091664
125	0x3f41630e	0.7554177
126	0x3f7bd043	0.9836466
127	0x3f4d8b14	0.8029034
128	0x3f7bc219	0.98343045
129	0x3f8722b2	1.0557463
130	0x3f85a216	1.044009
131	0x3f783733	0.9695923
132	0x3f746157	0.9546103
133	0x3f749ed1	0.95554835
134	0x3f7ec5c1	0.995205
135	0x3f765eef	0.9623861
136	0x3f7d8f0d	0.99046403
137	0x3f77bb29	0.9676996
138	0x3f59b66e	0.8504399
139	0x3f91d1f6	1.13922
140	0x3f81e4f4	1.0147996
141	0x3f72447e	0.9463576
142	0x3f6139c0	0.87978745
143	0x3f82da77	1.022292
144	0x3f85c16d	1.0449654
145	0x3f79c7d7	0.97570556
146	0x3f52efca	0.8239714
147	0x3f87f1ed	1.0620705
148	0x3f5133e4	0.81719804
149	0x3f6f5ad4	0.9349797
150	0x3f61625a	0.880407
151	0x3f76a0d8	0.9633918
152	0x3f4d3fdb	0.8017556
153	0x3f5619aa	0.8363291
154	0x3f831652	1.0241187
155	0x3f59c46e	0.8506535
156	0x3f82951f	1.0201758
157	0x3f8dd68c	1.10811
158	0x3f4840ad	0.7822369
159	0x3f6e470f	0.93077177
160	0x3f831e7d	1.0243679
161	0x3f3938ea	0.7235247
162	0x3f61e091	0.88233286
163	0x3f6ef05f	0.9333553
164	0x3f54a643	0.83066195
165	0x3f7908c5	0.97279006
166	0x3f8ef20d	1.1167618
167	0x3f5f10cb	0.87135
168	0x3f66c0ad	0.9013775
169	0x3f5ebaec	0.8700397
170	0x3f2e0182	0.6797105
171	0x3f5b4d7c	0.85665107
172	0x3f7facba	0.99872935
173	0x3f6ae732	0.91759026
174	0x3f5e342d	0.86798364
175	0x3f87b333	1.0601562
176	0x3f584f62	0.8449613
177	0x3f44fad2	0.7694522
178	0x3f78b616	0.9715284
179	0x3f6ce769	0.92540604
180	0x3f882dc9	1.0638973
181	0x3f65511e	0.895769
182	0x3f6acdca	0.9172026
183	0x3f8b67d6	1.0891063
184	0x3f6401b2	0.89065087
185	0x3f54ee35	0.83175975
186	0x3f8630a9	1.04836
187	0x3f80676b	1.0031561
188	0x3f64db29	0.8939691
189	0x3f80bad6	1.0057018
190	0x3f844f18	1.0336637
191	0x3f930879	1.1486961
192	0x3f4327b5	0.76232463
193	0x3f4962d5	0.7866643
194	0x3f69a8d7	0.91273254
195	0x3f62f408	0.8865361
196	0x3f14cb69	0.5812288
197	0x3f5ca912	0.8619548
198	0x3f6f0300	0.9336395
199	0x3f75b385	0.9597705

bn2.bias f4 [200]
0	0xbe2c5fbf	-0.16833399
1	0x3e27a8ff	0.1637306
2	0xbe362e26	-0.17791042
3	0x3d8cd80b	0.068771444
4	0x3b7e1b02	0.0038773422
5	0x3e75038e	0.23927137
6	0xbc88964e	-0.016673233
7	0x3e44cbcf	0.19218372
8	0x3f077d6f	0.5292577
9	0xbe585768	-0.21127093
10	0x3ebc4e39	0.3677843
11	0xbd2226fc	-0.03958796
12	0x3d95024e	0.0727583
13	0x3cdfa53c	0.02730047
14	0xbeb98c0c	-0.3623966
15	0xbee634d5	-0.44962183
16	0x3d88df0a	0.06683166
17	0xbdedf805	-0.116195716
18	0xbd7e893f	-0.062142607
19	0xbd28079d	-0.041022886
20	0xbe96215d	-0.2932233
21	0xbd0d9707	-0.03456786
22	0xbdf612ab	-0.120152794
23	0x3da537d6	0.080672905
24	0xbcfaa0be	-0.030594226
25	0x3cf8a46f	0.030351846
26	0x3e217cd3	0.15770273
27	0xbd21302d	-0.039352585
28	0xbece9b89	-0.4035304
29	0xbe48d264	-0.19611508
30	0x3edcad78	0.43101096
31	0xbf257ad7	-0.64640564
32	0xbec03992	-0.37543923
33	0x3d65869b	0.056036573
34	0x3e563d33	0.20921783
35	0xbb3bf24c	-0.0028678356
36	0xbd4580ca	-0.048218526
37	0xbe08d2e1	-0.13361694
38	0xbde0fa0a	-0.10985191
39	0x3e567a40	0.20945072
40	0xbe08d067	-0.13360749
41	0xbe1adfa8	-0.1512438
42	0xbe1bc1c5	-0.15210636
43	0xbf286282	-0.6577531
44	0xbd46b10d	-0.048508693
45	0x3e22cd46	0.15898618
46	0xbafa093e	-0.0019076241
47	0xbdc59810	-0.09648144
48	0x3dce5a39	0.10075802
49	0xbc6a363e	-0.014295159
50	0x3e698d91	0.2280791
51	0xbda378b0	-0.07982004
52	0x3b9b1b78	0.004733499
53	0xbf04260f	-0.5162057
54	0x3cc9f4d2	0.024652872
55	0x3d1a288a	0.037636317
56	0xbcb82734	-0.022479631
57	0x3e537f56	0.20654044
58	0xbd10b26e	-0.035326414
59	0xbdca5e32	-0.098812476
60	0x3c7c01c3	0.015381279
61	0x3ddcbde3	0.107784055
62	0x3e6f7a45	0.23386486
63	0x3debc03f	0.115112774
64	0xbd13e515	-0.03610714
65	0xbe550860	-0.20803976
66	0xbd62dfea	-0.055389322
67	0xbe7b9775	-0.24569495
68	0x3cb5c467	0.022188378
69	0x3d14cb5c	0.03632675
70	0xbe56e95c	-0.20987457
71	0x3d15a5e9	0.036535177
72	0x3e421dd6	0.18956694
73	0x3bd9a9fa	0.0066425772
74	0xbe134d18	-0.14384878
75	0x3e3b704f	0.18304561
76	0x3d49e9c0	0.049295187
77	0x3e1c2968	0.1525017
78	0x3e54788d	0.20749111
79	0x3dfa80e1	0.12231613
80	0x3e8e12a9	0.27748612
81	0x3c3de89c	0.011591103
82	0x3d780d5e	0.060559623
83	0xbd1f4ac2	-0.038889654
84	0x3e61ffe4	0.22070271
85	0xbca72399	-0.020402716
86	0xbcf1f132	-0.029533956
87	0x3e63a1eb	0.22229736
88	0xbbeb3c70	-0.0071788356
89	0x3d72e94b	0.059304517
90	0x3d965c24	0.07341793
91	0xbd272b09	-0.040812526
92	0xbc1fc436	-0.00975137
93	0x3dd2bb4c	0.1028963
94	0xbe0a6748	-0.13515961
95	0xbe404f6a	-0.18780294
96	0x3d329fed	0.04360955
97	0x3db1d84f	0.08683836
98	0x3edece17	0.4351661
99	0x3ea41594	0.32047713
100	0xbe5061e6	-0.20349845
101	0xbe08771d	-0.13326688
102	0x3be01c6f	0.006839327
103	0x3ef0c472	0.47024876
104	0x3d47b3eb	0.048755568
105	0x3d8cec17	0.06880968
106	0x3d9b645f	0.07587504
107	0x3d8915d6	0.06693618
108	0x3dc66264	0.09686735
109	0x3e4a0683	0.19729047
110	0xbdc928fb	-0.098222695
111	0x3cc69a7c	0.024243586
112	0xbd380426	-0.04492583
113	0xbdf21cb8	-0.11821884
114	0x3daa7299	0.08322639
115	0xbcd78156	-0.02630679
116	0xbf419f27	-0.7563347
117	0xbde38998	-0.11110228
118	0x3efb8889	0.49127606
119	0xbd4888eb	-0.0489587
120	0xbcf65b85	-0.030072937
121	0x3dc3fd0f	0.095697515
122	0xbe14acf4	-0.14519101
123	0xbd589bd0	-0.05288297
124	0x3e9f3492	0.31094795
125	0x3e525285	0.20539291
126	0x3d260c52	0.040539093
127	0x3e3e4c8e	0.18583891
128	0xbc16940f	-0.009190573
129	0x3dba0ec3	0.09084847
130	0x3e5fbe63	0.2184997
131	0xbd87ee02	-0.06637193
132	0x3d9024a4	0.07038239
133	0x3c8af006	0.016960155
134	0x3e1a4255	0.15064366
135	0xbcc70ee4	-0.024299093
136	0x3c44f997	0.0120223975
137	0x3d6f8dd3	0.058484863
138	0x3e9f410e	0.3110432
139	0xbe1e9836	-0.15487751
140	0x3c150048	0.009094305
141	0xbc48a024	-0.012245212
142	0xbdb7a5ff	-0.08967208
143	0x3d7b6218	0.061372846
144	0x3c98db99	0.0186594
145	0x3d97efcf	0.07418787
146	0x3d0347d9	0.03205094
147	0xbe3b9295	-0.18317635
148	0x3de8c475	0.11365596
149	0xbecdeccb	-0.4021972
150	0x3e332492	0.17494419
151	0x3d2fb8d3	0.04290087
152	0x3e3c9af7	0.1841849
153	0xbdd56ec8	-0.104215205
154	0x3d50d610	0.050985396
155	0xbd895383	-0.06705382
156	0xbd26554f	-0.0406087
157	0xbd0889e8	-0.033334643
158	0x3e1521bc	0.1456365
159	0x3ede3331	0.4339843
160	0x3ed84a40	0.42244148
161	0x3eb13add	0.34615222
162	0x3eb2437d	0.34817114
163	0xbe0d3d59	-0.13792934
164	0xbea108dc	-0.31452072
165	0x3c54cf86	0.012988931
166	0xbd8eedae	-0.069789276
167	0xbdef144a	-0.11673792
168	0x3e5f3aaa	0.21799722
169	0x3e82adb9	0.25523165
170	0x3ea9d9c9	0.3317397
171	0xbdefc8b5	-0.11708204
172	0x3d83716a	0.064181164
173	0xbf32147f	-0.69562525
174	0xbdcf81e8	-0.101321995
175	0x3cdb195f	0.026745496
176	0x3e77ed1b	0.24211542
177	0x3ea6fc78	0.32614493
178	0x3ae54fd9	0.001749511
179	0x3de34849	0.11097772
180	0x3d9c4db7	0.076320104
181	0xbee4ba02	-0.44673163
182	0xbd8a4bde	-0.06752752
183	0xbd992b46	-0.07478957
184	0xbd787e08	-0.060667068
185	0x3dcc8c76	0.09987728
186	0x3d6acc02	0.057323463
187	0xbd09b265	-0.033617396
188	0x3e41f0c7	0.18939506
189	0x3c23ab69	0.009989598
190	0x3c974c79	0.018469082
191	0xbe8c5bf2	-0.274139
192	0x3ddcc716	0.1078016
193	0xbe1ee23d	-0.1551599
194	0x3d4b1747	0.049582746
195	0x3dfb2b17	0.12264078
196	0x3ed9064d	0.4238762
197	0xbe4c7bcf	-0.19969104
198	0x3e37a17f	0.179327
199	0x3dcde448	0.10053307

bn2.running_mean f4 [200]
0	0x3ede17f0	0.43377638
1	0xbef6c417	-0.4819648
2	0x3e71c365	0.23609693
3	0xbf25dde3	-0.647917
4	0x3e8e4fb8	0.27795196
5	0xbde898a5	-0.1135724
6	0x3d74b554	0.05974324
7	0xbdd32fec	-0.10311875
8	0xbe905889	-0.28192547
9	0x3d305db6	0.04305812
10	0x3db7a55a	0.08967085
11	0x3df564d7	0.11982124
12	0x3e33584f	0.17514156
13	0x3f12e3d1	0.5737887
14	0x3e11860c	0.14211291
15	0xbdd70665	-0.104992665
16	0xbe404fbe	-0.18780419
17	0x3f0373fc	0.51348853
18	0xbd7e5b86	-0.062099002
19	0x3df72895	0.12068287
20	0x3d7bbd49	0.061459813
21	0xbedfe182	-0.43726736
22	0xbf2f7e87	-0.6855244
23	0x3c88ce88	0.016700044
24	0x3ea3e18e	0.32008022
25	0x3e142fd8	0.14471376
26	0xbf13c05a	-0.5771538
27	0x3e88708d	0.2664837
28	0x3e0d5ffa	0.13806143
29	0x3e240771	0.16018464
30	0xbeb4b775	-0.35296217
31	0xbc046311	-0.00808026
32	0x3e7ff2fa	0.24995032
33	0x3e63bd6e	0.2224023
34	0xbe4db6fb	-0.20089333
35	0x3dccc6ba	0.099988416
36	0x3e80423d	0.25050536
37	0xbd0905b9	-0.033452723
38	0x3f214853	0.63000983
39	0xbe408f77	-0.18804727
40	0x3e834969	0.25641945
41	0x3d8b0230	0.067875266
42	0xbdfd07f2	-0.12355031
43	0x3e8736e6	0.26409072
44	0xbcf566b0	-0.029956192
45	0x3e4c2431	0.19935681
46	0xbd03d4d2	-0.032185383
47	0x3dabad9c	0.08382723
48	0xbd823af1	-0.063588984
49	0xbf29e544	-0.66365457
50	0x3de4b0cd	0.111665346
51	0x3edeba39	0.43501452
52	0x3e0ee69e	0.13955161
53	0xbd8dfe26	-0.069332406
54	0xbea5ed7c	-0.3240775
55	0xbdcd4ea2	-0.10024764
56	0xbef714c9	-0.48258045
57	0x3d1db7cd	0.038505364
58	0xbdf496e0	-0.119428396
59	0x3d3103c7	0.043216493
60	0xbdd0d0d1	-0.101960786
61	0xbf890de2	-1.0707362
62	0x3e399d72	0.18126467
63	0xbef7c9a8	-0.4839604
64	0x3d52668f	0.05136734
65	0x3cbc56f3	0.02299068
66	0x3ecf0a90	0.40437746
67	0xbf0a44b0	-0.5401106
68	0xbea246b0	-0.31694555
69	0x3d82cada	0.06386347
70	0xbdedd0e4	-0.11612108
71	0xbc15270a	-0.009103546
72	0xbe3a5166	-0.18195114
73	0xbcfb156c	-0.030649863
74	0x3f07dcd9	0.5307136
75	0xbed53072	-0.41638523
76	0xbf06d970	-0.52675533
77	0xbef1a9ab	-0.4719976
78	0x3ea2a333	0.31765136
79	0xbdfdd7cf	-0.12394678
80	0xbecdffb4	-0.40234149
81	0x3da48ba2	0.08034445
82	0xbf43bdc5	-0.7646144
83	0x3eb290e2	0.34876162
84	0x3dc8d3af	0.098060004
85	0x3f4d997d	0.8031233
86	0xbeb8ce9a	-0.36095124
87	0xbee1d1a5	-0.4410526
88	0xbf79a84b	-0.9752242
89	0xbd97a747	-0.074049525
90	0x3f1f5a41	0.6224709
91	0xbee19a1c	-0.4406289
92	0x3f2fc5a9	0.6866098
93	0xbf53005b	-0.8242242
94	0x3e270c0e	0.16313192
95	0xbb9dd209	-0.004816298
96	0xbe935d35	-0.2878205
97	0xbe9fe445	-0.31228843
98	0xbea674c8	-0.32510972
99	0x3e3bd5a6	0.18343219
100	0xbe6bdc36	-0.23033223
101	0xbf630ba4	-0.8868964
102	0x3d9b4a06	0.07582478
103	0xbef370fa	-0.47547132
104	0xbd3505ad	-0.044194866
105	0x3ecb4707	0.39702627
106	0xbefca136	-0.49341744
107	0x3e6625f5	0.22475417
108	0xbf8cd85c	-1.1003528
109	0xbe6e3a7d	-0.23264499
110	0xbad8d3d8	-0.0016542627
111	0x3e8ecc2c	0.27890146
112	0xbe9d4ddd	-0.30723467
113	0x3dfd59ce	0.123706445
114	0xbf08980a	-0.53356993
115	0xbd62007f	-0.055176254
116	0x3e82957d	0.25504676
117	0x3ea47926	0.3212368
118	0xbde080e8	-0.10962087
119	0x3c30492c	0.010759633
120	0xbe163dfc	-0.14672083
121	0xbd1d1a26	-0.038355015
122	0x3f0688dc	0.5255258
123	0xbe5ab100	-0.21356583
124	0xbe4624fb	-0.19350044
125	0xbf482e3d	-0.78195554
126	0x3d250e9a	0.04029713
127	0xbea355ad	-0.31901303
128	0xbf09f89f	-0.5389499
129	0x3f2f557b	0.6848981
130	0x3d4890da	0.048966266
131	0x3e89d07a	0.26916867
132	0x3e2addc2	0.16686156
133	0x3f13666a	0.57578146
134	0xbdbbb2f0	-0.09164989
135	0x3d591660	0.052999854
136	0xbdeb5d68	-0.11492425
137	0x3e5508c5	0.20804127
138	0xbef489a6	-0.47761267
139	0x3e411551	0.18855788
140	0xbcbbf5a8	-0.022944286
141	0x3da39d10	0.07988942
142	0xbe95603c	-0.29174984
143	0xbf358d04	-0.709183
144	0x3f2cb785	0.6746753
145	0xbe16b8a5	-0.14718874
146	0xbf1b7535	-0.6072572
147	0xbec9353b	-0.39298424
148	0xbea0ecb6	-0.31430596
149	0x3dd086d6	0.10181968
150	0xbee81ecf	-0.45336005
151	0x3dbe65d1	0.09296764
152	0xbee7ecb8	-0.4529779
153	0x3d3cb04d	0.04606657
154	0xbec35d08	-0.38156915
155	0xbd6c34c2	-0.0576675
156	0xbf096356	-0.536672
157	0xbe13012d	-0.14355917
158	0xbe9e628f	-0.3093457
159	0xbd16504e	-0.03669768
160	0x3e47dade	0.19517085
161	0xbeeca787	-0.46221563
162	0xbe4b1f07	-0.19836055
163	0xbee56461	-0.44803146
164	0x3f2ebdfd	0.6825865
165	0xbe4d6f9d	-0.20062108
166	0x398b2fff	0.00026547906
167	0x3e4ddd71	0.20104004
168	0xbe256a51	-0.16153838
169	0x3e4960e0	0.19665861
170	0xbddf2284	-0.10895255
171	0x3de04216	0.10950105
172	0xbeef21a1	-0.46705344
173	0x3c54abd7	0.012980423
174	0xbe01b0d3	-0.1266511
175	0xbee1bb82	-0.4408837
176	0xbf0f8bdb	-0.5607278
177	0xbe181b91	-0.14854266
178	0x3cdba143	0.026810294
179	0x3dea6478	0.11444944
180	0xbeb3b797	-0.35101005
181	0x3ee1f377	0.4413106
182	0x3e05abaf	0.13053773
183	0xbf1d0f3a	-0.6135136
184	0x3e9a7216	0.30165166
185	0x3e7ca692	0.24672917
186	0xbef9287f	-0.4866371
187	0xbe33b275	-0.17548545
188	0x3ce1df95	0.027572433
189	0x3d6e060a	0.058111228
190	0xbe79fe27	-0.24413358
191	0x3f0ab2e3	0.5417921
192	0x3ee311fe	0.44349664
193	0x3c552be1	0.01301095
194	0xbdd6ed6d	-0.10494504
195	0x3d99a75e	0.07502626
196	0x3ec134a9	0.3773549
197	0xbe8def56	-0.2772166
198	0x3ee569de	0.44807333
199	0xbf003f74	-0.5009682
