artifacts/410_walkerDynamics.pt (torch, 196730 bytes, 20 tensors)

linear1.weight f4 [100, 30]
-0.31113994 -0.048723396 -0.3839572 0.2683184 -0.1664543 -0.15125354 -0.012830724 -0.12273446
-0.07822915 0.18228902 -0.3225704 0.029725153 0.36033282 -0.13617726 0.7503863 0.052803893
0.022233687 0.05145244 0.07560172 0.03831435 -0.034428935 -0.0395052 -0.047323123 0.07631583
0.2334086 0.012670296 -0.29213345 -0.019259784 0.08717811 0.23254955 0.2909765 -0.028917292
0.5334223 -0.30433562 0.08261462 0.23447448 0.030968735 0.14371762 -0.049536597 -0.25597098
0.2701449 0.047138516 -0.33308113 0.17645708 -0.6750804 -0.080110356 -0.032801114 -0.010254792
-0.09504287 -0.0518368 0.04344186 0.0064808256 0.04605776 -0.10414535 -0.2249666 0.042735588
0.34321892 0.030517887 -0.054047227 -0.27266926 -0.11297503 0.15606403 0.03658183 -0.06496896
0.5210849 -0.085917324 0.0022846258 -0.17735519 0.032412373 0.10367068 0.17294753 0.103399225
0.12756348 0.23355326 -0.32857528 0.021811703 -0.017577227 0.025129374 -0.0034667435 0.04161143
-0.05121865 0.08139634 -0.007856887 -0.040325608 0.22659555 -0.25218204 -0.32003653 0.2311743
-0.06604304 -0.18307482 -0.46004802 0.161622 -0.21242867 -0.055916894 -0.28066495 0.052467503
-0.012186985 0.05964392 0.46508902 -0.21755446 -0.5436902 -0.15883163 -0.03262757 0.38371018
0.23684962 0.007577833 -0.06453443 -0.013541106 0.015898023 0.009059013 -0.00033781148 -0.0056564594
0.0068987887 -0.0031567141 0.06813677 -0.026913865 -0.008633966 0.15898985 -0.19373243 -0.15214534
-0.3160946 0.026016383 -0.193007 -0.050053943 -0.33615828 0.1779043 -0.07507481 -0.009835569
0.26604274 -0.17048614 0.3789271 0.23076059 -0.12841348 0.12664723 0.23764801 -0.0051906044
0.002010086 0.06639578 -0.031868964 -0.019354379 -0.0025449353 -0.030315133 -0.022609137 -0.02427819
0.05355568 -0.066796064 -0.10039455 -0.030246248 0.094663434 -0.3388901 0.0011710656 -0.04703846
0.42702714 0.052772082 -0.03250382 0.13914828 0.21574375 -0.11785006 0.058767516 -0.1517383
-0.11995352 -0.1952301 -0.15777381 -0.07453021 0.47339037 -0.1580976 -0.19639407 -0.122289754
0.038144168 -0.036853246 0.054042276 -0.061985064 -0.0055538537 0.037808664 -0.33470806 0.2198927
0.2662574 -0.37240466 0.05538282 0.15173721 -0.17434157 -0.17578943 -0.24370094 -0.020217927
0.03350369 0.04003571 0.101093546 -0.041174617 0.028700072 0.14552915 0.87587804 -0.106195964
-0.14995839 0.6612658 0.010773431 -0.011248513 -0.031837694 -0.053000957 -0.04050391 -0.017443134
-0.00062130485 0.08825811 0.063340105 0.023561032 -0.079120964 -0.0011109335 0.09560178 -0.05974984
-0.04861837 0.20429695 0.26833898 0.050274443 -0.21184911 0.19340216 -0.6977146 0.034468554
0.2994182 0.3405004 0.3864335 0.19388425 -0.18023391 -0.05127184 0.094398186 0.09268183
0.288609 0.009039995 -0.01605177 -0.034248006 -0.015352137 -0.020557245 0.0073103476 0.039007235
0.008645258 0.0026368706 0.021860193 -0.049655788 0.029551277 0.06317816 -0.002382325 -0.012450237
0.15752634 0.15667677 0.24822871 -0.24183391 -0.82312584 -0.0023215169 0.27310786 -0.11776573
-0.041289143 -0.12454137 0.0001847054 -0.02045619 -0.0066388575 -0.01279215 0.33730248 0.06740525
00000000: bc4d 9fbe 2f92 47bd 0a96 c4be 0861 893e
00000010: ff72 2abe 35e2 1abe f537 52bc 345c fbbd
00000020: 9b36 a0bd f9a9 3a3e f327 a5be 2a82 f33c
00000030: 8b7d b83e 0d72 0bbe 5119 403f e548 583d
00000040: 6c23 b63c cbbf 523d 13d5 9a3d 82ef 1c3d
00000050: 5b05 0dbd 34d0 21bd e4d5 41bd 794b 9c3d
00000060: aa02 6f3e 1397 4f3c 8492 95be b2c6 9dbc
00000070: 708a b23d 7821 6e3e dffa 943e f5e3 ecbc
00000080: 5d8e 083f e1d1 9bbe db31 a93d 141a 703e
00000090: 25b2 fd3c b62a 133e e3e6 4abd a10e 83be
000000a0: 6f50 8a3e 5114 413d 9c89 aabe 2ab1 343e
000000b0: 12d2 2cbf e610 a4bd 765a 06bd b703 28bc
000000c0: d6a5 c2bd d352 54bd 17f0 313d 1b5d d43b
000000d0: 10a7 3c3d 284a d5bd a55d 66be 830b 2f3d
000000e0: 64ba af3e a600 fa3c a060 5dbd 4e9b 8bbe
000000f0: 745f e7bd 40cf 1f3e d4d6 153d 720e 85bd
00000100: d265 053f 6cf5 afbd a9b9 153b 999c 35be
00000110: d6c2 043d 4b51 d43d 2819 313e f9c2 d33d
00000120: 00a0 023e 9628 6f3e 053b a8be 75ae b23c
00000130: 1efe 8fbc 1edc cd3c 4e32 63bb bf70 2a3d
00000140: a6ca 51bd 20b3 a63d 2cba 00bc 772c 25bd
00000150: aa08 683e 011e 81be d4db a3be f5b8 6c3e
00000160: 9341 87bd f777 3bbe 6a8b ebbe 3d80 253e
00000170: e786 59be 1d09 65bd 51b3 8fbe 2ae8 563d
00000180: ecab 47bc 2f4d 743d 2620 ee3e 99c6 5ebe
00000190: 482f 0bbf c2a4 22be 7da4 05bd a975 c43e
000001a0: b588 723e 784f f83b a12a 84bd 84db 5dbc
000001b0: 923c 823c 416c 143c 4a1c b1b9 d259 b9bb
000001c0: 3c0f e23b e0e0 4ebb 4a8b 8b3d 777a dcbc
000001d0: 7a75 0dbc 3cce 223e cb61 46be fdcb 1bbe
000001e0: 27d7 a1be 4f20 d53c a1a3 45be 5d05 4dbd
000001f0: f01c acbe 8b2c 363e d2c0 99bd 5e25 21bc
00000200: c136 883e eb93 2ebe bc02 c23e 814c 6c3e
00000210: d37e 03be d0af 013e 005a 733e f215 aabb
00000220: a6bb 033b 83fa 873d 0889 02bd 138d 9ebc
00000230: eec8 26bb 7157 f8bc cc36 b9bc 0ee3 c6bc
00000240: 335d 5b3d 60cc 88bd a89b cdbd fbc6 f7bc
00000250: e7de c13d 0183 adbe 717e 993a 66ab 40bd
00000260: 4da3 da3e 8a27 583d ba22 05bd e37c 0e3e
00000270: eeeb 5c3e 5f5b f1bd 35b6 703d 4961 1bbe
00000280: 31aa f5bd 66ea 47be 758f 21be 4ba3 98bd
00000290: 3960 f23e 56e4 21be 871b 49be 0d73 fabd
000002a0: 0f3d 1c3d 6ef3 16bd 6f5b 5d3d 0de4 7dbd
000002b0: 1afd b5bb 42dd 1a3d db5e abbe 8d2b 613e
000002c0: e452 883e d3ab bebe 19d9 623d 0061 1b3e
000002d0: 9986 32be 2502 34be bd8c 79be 11a0 a5bc
000002e0: 2a3b 093d 7cfc 233d 220a cf3d b7a6 28bd
000002f0: 6a1c eb3c 9805 153e 8b39 603f 457d d9bd
00000300: b18e 19be b748 293f 0b83 303c af4b 38bc
00000310: 3e68 02bd 8817 59bd 6ee7 25bd e7e4 8ebc
00000320: 10df 22ba abc0 b43d 75b8 813d 1103 c13c
00000330: 2c0a a2bd be9c 91ba deca c33d 40bc 74bd
00000340: 0e24 47bd 3833 513e ba63 893e 93ec 4d3d
00000350: f9ee 58be 370b 463e 6d9d 32bf e62e 0d3d
00000360: 584d 993e 1256 ae3e 9dda c53e 9889 463e
00000370: 3d8f 38be 6c02 52bd d653 c13d f9cf bd3d
00000380: 8fc4 933e 7d1c 143c 007f 83bc a347 0cbd
00000390: 8887 7bbc ab67 a8bc a48b ef3b 0dc6 1f3d
000003a0: d7a4 0d3c 59cf 2c3b 2614 b33c de63 4bbd
000003b0: 8515 f23c 8d63 813d c820 1cbb 14fc 4bbc
000003c0: 964e 213e e06f 203e ab2f 7e3e 4fa3 77be
000003d0: 60b8 52bf 9724 18bb cbd4 8b3e 292f f1bd
000003e0: ce1e 29bd 8c0f ffbd 7aad 4139 bd93 a7bc
000003f0: c68a d9bb 2a96 51bc e9b2 ac3e c40b 8a3d

linear1.bias f4 [100]
0.11788045 -0.028787427 0.10043478 -0.16286437 0.0121917715 0.057791114 -0.14830741 0.11998643
0.13919857 0.0316421 0.12423405 0.12703902 0.14421646 -0.028803647 -0.008817249 0.13876778
-0.0628636 0.08680709 0.1421752 0.090670675 -0.0011259684 -0.06668119 -0.16304603 0.13435416
-0.15012579 -0.14497623 0.050565295 -0.1240618 0.09942 0.17306152 -0.054974265 0.17013805
-0.14799567 0.05807973 0.021876117 0.13338955 0.1382136 -0.02008512 -0.12060871 0.013043792
0.051533934 0.007879897 0.0978991 -0.13121039 -0.0030868675 0.10144353 0.10873389 0.050997127
-0.14598821 -0.019999653 -0.092494294 -0.02474376 -0.1231693 -0.115706846 -0.04947045 -0.21595858
0.115604565 0.08220668 -0.08764127 -0.0918978 0.04732455 -0.11291218 -0.0007726789 0.16149877
-0.16490193 0.07601201 0.058030043 0.04349731 -0.023839084 0.015771512 0.012240504 -0.08514058
0.0675207 0.15226008 -0.044585444 0.041744016 -0.091272265 -0.108446464 -0.16836011 -0.17161499
-0.06661301 0.06583836 -0.088768944 -0.13473977 -0.1473256 -0.1572062 -0.04528734 -0.04640781
-0.031667683 -0.011875674 0.07738317 0.0062398785 0.07176891 0.09407482 -0.18614668 0.15030375
-0.13395241 -0.08318514 -0.133172 0.0074683903
00000000: 4e6b f13d 9cd3 ebbc c0b0 cd3d ebc5 26be
00000010: ffbf 473c 60b6 6c3d e6dd 17be 72bb f53d
00000020: 128a 0e3e 269b 013d 6c6e fe3d 8416 023e
00000030: 7bad 133e a0f5 ebbc 3976 10bc 2419 0e3e
00000040: a2be 80bd eac7 b13d 6096 113e 8cb1 b93d
00000050: 3b95 93ba 2690 88bd 8af5 26be 2394 093e
00000060: 93ba 19be a674 14be 8e1d 4f3d 1d14 febd
00000070: b79c cb3d 0a37 313e b22c 61bd ab38 2e3e
00000080: 2d8c 17be 03e5 6d3d 8b35 b33c 4597 083e
00000090: de87 0d3e 8d89 a4bc b301 f7bd a1b5 553c
000000a0: 3f15 533d af1a 013c 537f c83d 045c 06be
000000b0: 0b4d 4abb a0c1 cf3d e0af de3d 5de2 503d
000000c0: ef7d 15be 50d6 a3bc a66d bdbd 6db3 cabc
000000d0: 3040 fcbd b6f7 ecbd 87a1 4abd 3f24 5dbe
000000e0: 16c2 ec3d fa5b a83d 447d b3bd ea34 bcbd
000000f0: 63d7 413d 803e e7bd 9a8d 4aba ef5f 253e
00000100: 0ddc 28be 2fac 9b3d e9b0 6d3d 3c2a 323d
00000110: 2f4a c3bc 4233 813c 658c 483c 2f5e aebd
00000120: 4b48 8a3d 11ea 1b3e 3a9f 36bd c6fb 2a3d
00000130: f4ec babd 2e19 debd 9866 2cbe d7bb 2fbe
00000140: 676c 88bd 43d6 863d 7ecc b5bd 39f9 09be
00000150: 86dc 16be a9fa 20be 387f 39bd 1e16 3ebd
00000160: f9b5 01bd 3092 42bc 117b 9e3d e577 cc3b
00000170: 94fb 923d 4daa c03d 3c9d 3ebe 3ae9 193e
00000180: d22a 09be f85c aabd 3e5e 08be 66b9 f43b

bn1.weight f4 [100]
0.65487766 0.703531 0.56073207 0.9458757 0.8860765 0.6030756 0.6256007 1.328558
0.6634975 0.61354643 1.0180091 1.2442468 1.282716 0.65056 1.2785014 0.76494235
0.6768602 0.5096437 1.2671924 0.56221336 1.0807492 0.8010958 1.0258801 0.6887349
1.3098963 1.0444926 0.6700543 1.1288095 1.1492006 0.6516533 0.52994865 0.58360755
1.1177071 1.2196664 0.91627425 0.8248484 0.69698215 0.8479522 1.1022141 0.5657668
1.0772483 1.1879501 0.53014696 0.7068748 0.59293234 0.90044916 0.943258 1.1814232
1.2327632 0.8418216 0.8357078 1.2136822 1.0925337 0.7100805 0.8259458 1.428157
1.0338372 0.91859865 1.2481349 0.7763655 1.1623205 0.4899018 0.88438404 0.7081667
1.0582752 0.848864 0.8059387 0.5043131 0.64249074 1.0666844 1.3023102 0.5429708
0.6554753 0.5357047 0.69335836 0.7674905 1.2164433 0.52200353 0.6515841 0.89081603
0.7083773 0.82563204 0.7736138 0.8146967 0.6455886 0.87011206 0.7675934 0.7229528
1.0534796 1.0884924 0.7025068 1.1813293 0.6161387 0.68136203 0.673434 0.5627691
0.7086347 0.63065237 0.6481855 1.2363697
00000000: 10a6 273f 9c1a 343f 238c 0f3f e924 723f
00000010: e9d5 623f 2a63 1a3f 5e27 203f 300e aa3f
00000020: f9da 293f 6111 1d3f 1f4e 823f 7b43 9f3f
00000030: 0a30 a43f 1a8b 263f efa5 a33f 43d3 433f
00000040: b646 2d3f 0278 023f 5c33 a23f 37ed 0f3f
00000050: fd55 8a3f 9d14 4d3f 0a50 833f ee50 303f
00000060: afaa a73f efb1 853f ae88 2b3f d47c 903f
00000070: 0119 933f c0d2 263f b7aa 073f 4e67 153f
00000080: 0711 8f3f 071e 9c3f f390 6a3f 4429 533f
00000090: 6c6d 323f 6513 593f 5a15 8d3f 18d6 103f
000000a0: 46e3 893f c00e 983f b6b7 073f bff5 343f
000000b0: 6aca 173f d683 663f 5b79 713f e038 973f
000000c0: 2fcb 9d3f 9f81 573f f2f0 553f f059 9b3f
000000d0: 25d8 8b3f d6c7 353f 2f71 533f d9cd b63f
000000e0: c754 843f 4829 6b3f e2c2 9f3f e4bf 463f
000000f0: ebc6 943f 69d4 fa3e fe66 623f 6a4a 353f
00000100: 9075 873f 274f 593f 0052 4e3f aa1a 013f
00000110: 467a 243f 1d89 883f 1ab2 a63f 2200 0b3f
00000120: 3bcd 273f f123 093f ef7f 313f 427a 443f
00000130: 6ab4 9b3f 06a2 053f 37ce 263f 850c 643f
00000140: 3758 353f 9f5c 533f 8e0b 463f f78f 503f
00000150: 4b45 253f aabf 5e3f 0081 443f 6f13 393f
00000160: 6bd8 863f b853 8b3f 7cd7 333f cc35 973f
00000170: 44bb 1d3f be6d 2e3f 2c66 2c3f a311 103f
00000180: 1569 353f 6f72 213f 7cef 253f 5d41 9e3f

bn1.bias f4 [100]
0.02867477 -0.023160757 -0.037629176 0.1675228 -0.08042055 0.043200873 0.6844195 0.078461505
0.35983443 0.0328859 0.17083731 0.65269744 0.029600471 -0.017232515 0.250249 0.2721524
-0.015572763 0.4717735 -0.020029934 0.07046547 0.41783842 -0.16606717 0.27974793 0.005522766
-0.11045779 0.13425338 -0.07113619 0.3702968 -0.09059441 0.019706296 0.013791636 0.031100972
0.14617619 0.4401034 0.39269105 0.06290972 0.08969824 0.31866986 0.27306914 0.07056919
0.13569313 0.24010071 0.008550071 1.1344012 1.7264498 0.26614583 0.3731419 0.14851707
-0.102261506 0.15427662 0.47035515 0.025629042 0.07072879 -0.006976687 0.84949917 0.031622455
0.19730051 0.085533395 0.14164183 -0.11586083 0.04610903 -0.0027749776 -0.09093626 0.10787758
0.03628295 0.36680195 0.2347797 1.8319937 -0.0753361 0.010874301 0.25569358 0.4301365
0.010943499 -0.022749014 -0.07248572 0.10851136 0.03186889 0.0060133305 0.21525013 0.1489161
-0.22413467 0.13528538 0.124432445 0.33635253 -0.0766304 0.047901507 -0.11194891 0.1392306
0.19141024 0.08213669 0.055930447 0.12469119 0.6680426 0.008700224 0.089315355 1.3322314
0.010489894 0.014950646 0.08657439 0.19700663
00000000: 5ae7 ea3c a1bb bdbc 0d21 1abd 198b 2b3e
00000010: 88b3 a4bd 66f3 303d 1e36 2f3f 6db0 a03d
00000020: 383c b83e 5eb3 063d faef 2e3e 2e17 273f
00000030: b07c f23c 342b 8dbc a320 803e 8f57 8b3e
00000040: e724 7fbc 4c8c f13e d115 a4bc 3350 903d
00000050: ebee d53e 830d 2abe 1f3b 8f3e 52f8 b43b
00000060: b237 e2bd b879 093e daaf 91bd 8b97 bd3e
00000070: 9089 b9bd 196f a13c 50f6 613c 77c7 fe3c
00000080: 36af 153e 3c55 e13e cd0e c93e d0d6 803d
00000090: b6b3 b73d b228 a33e b8cf 8b3e 9486 903d
000000a0: 24f3 0a3e f6dc 753e 9915 0c3c 0f34 913f
000000b0: 4ffc dc3f 4444 883e 750c bf3e dc14 183e
000000c0: 7b6e d1bd b1fa 1d3e 64d2 f03e fff3 d13c
000000d0: 41da 903d b19c e4bb c778 593f 8c86 013d
000000e0: 2509 4a3e 222c af3d 8e0a 113e 7148 edbd
000000f0: d2dc 3c3d 66dc 35bb ca3c babd ecee dc3d
00000100: 6e9d 143d 77cd bb3e 176a 703e c57e ea3f
00000110: d049 9abd 202a 323c 45ea 823e da3a dc3e
00000120: 5d4c 333c 245c babc 6573 94bd 343b de3d
00000130: f488 023d 790b c53b 886a 5c3e 767d 183e
00000140: 8f83 65be 4088 0a3e 70d6 fe3d 6636 ac3e
00000150: 66f0 9cbd 5f34 443d 7845 e5bd 7792 0e3e
00000160: 0c01 443e 4837 a83d 5317 653d 185e ff3d
00000170: d704 2b3f 628b 0e3c f8ea b63d 8f86 aa3f
00000180: cedd 2b3c 8ef3 743c ea4d b13d 1bbc 493e

bn1.running_mean f4 [100]
0.42771924 -0.35036156 0.14673209 -0.28276172 0.0039019808 0.012163517 0.061508708 0.15428762
0.022487855 -0.0861633 0.059679 -0.2924301 0.14420216 0.032765895 -0.37533298 0.2932737
-0.14379528 -0.03285778 -0.073939 0.10355441 -0.2700408 -0.18264322 0.069493525 0.09315746
-0.45277655 -0.27423832 0.19396535 -0.069701165 -0.026165174 0.46882772 0.10470527 0.15645973
0.013827283 0.16065477 0.25278172 0.118434116 0.15481535 0.18139066 0.050321523 0.006918603
0.2949865 0.18201588 0.16717716 -0.3961056 -0.121735774 0.20499289 -0.33647054 0.21887223
-0.0129957665 0.11608311 0.08078256 -0.19965546 -0.4629899 -0.30273652 0.24626538 -0.24962656
-0.08274142 0.2301006 -0.0983988 -0.2076853 0.33753386 -0.056059834 -0.15712899 0.5270691
-0.2317331 0.32673636 -0.28263178 -0.006740527 -0.075036235 0.05048996 -0.15595695 -0.033451248
0.20850332 0.23827542 0.04007698 -0.037053004 -0.112919606 -0.02451283 -0.13781707 -0.33156472
0.11143886 0.11553506 -0.15319657 -0.24346876 -0.10382299 -0.14771637 -0.11634239 0.13132456
0.24951148 -0.13215601 0.02745832 0.23421326 -0.07569858 0.1079234 -0.2870285 0.0723863
0.0594483 -0.13432583 -0.06488351 -0.09369205
00000000: 04fe da3e 9762 b3be f040 163e 25c6 90be
00000010: 60b8 7f3b 7d49 473c 8ef0 7b3d 93fd 1d3e
00000020: 7338 b83c 6276 b0bd f871 743d 66b9 95be
00000030: bba9 133e 8835 063d a52b c0be f827 963e
00000040: 123f 13be e195 06bd 556d 97bd 5614 d43d
00000050: ca42 8abe d306 3bbe 9f52 8e3d 57c9 be3d
00000060: 54d2 e7be f768 8cbe da9e 463e 7cbf 8ebd
00000070: 5958 d6bc 300a f03e b76f d63d fb36 203e
00000080: d48b 623c af82 243e 9b6c 813e 968d f23d
00000090: ea87 1e3e 79be 393e f11d 4e3d 73b5 e23b
000000a0: 7808 973e 5f62 3a3e 7d30 2b3e 5ace cabe
000000b0: 9b50 f9bd a8e9 513e de45 acbe 0b20 603e
000000c0: 32ec 54bc fbbc ed3d 5471 a53d 7b72 4cbe
000000d0: 030d edbe 4800 9bbe fe2c 7c3e 1b9e 7fbe
000000e0: 5574 a9bd 7e9f 6b3e 4f85 c9bd 75ab 54be
000000f0: 3dd1 ac3e ff9e 65bd 6ce6 20be 00ee 063f
00000100: 714b 6dbe fd49 a73e 1db5 90be a4df dcbb
00000110: 99ac 99bd 8fce 4e3d 2eb3 1fbe 2d04 09bd
00000120: e581 553e 79fe 733e c227 243d e4c4 17bd
00000130: 6542 e7bd 21cf c8bc eb1f 0dbe dac2 a9be
00000140: 0f3a e43d a59d ec3d 90df 1cbe e04f 79be
00000150: 26a1 d4bd f642 17be eb44 eebd f279 063e
00000160: f07f 7f3e e853 07be 45f0 e03c 9ad5 6f3e
00000170: db07 9bbd f206 dd3d 66f5 92be 453f 943d
00000180: 1080 733d b68c 09be a5e1 84bd 9ee1 bfbd

bn1.running_var f4 [100]
1.1956581 2.0625257 1.1452074 0.7037742 0.29759452 1.1334058 0.4997959 0.82289016
0.21737647 1.176766 0.8190695 0.13960716 0.46421298 1.5795994 1.0389777 1.1630685
5.0335364 0.4841543 0.08727574 2.3288968 0.8108972 0.26515093 0.7050563 1.4189676
0.39412728 3.2512875 1.704537 0.38325515 1.3386024 4.1827254 0.74682546 1.9355525
0.78188586 0.2852582 0.23308891 0.34686458 0.15071164 0.14057118 0.21689647 2.1090837
1.2924174 2.3571682 0.18590708 0.04041988 0.08050706 1.4556139 0.12164753 1.2534862
0.6303698 0.5154407 0.20084384 1.7946433 0.44951567 2.2046494 0.62828064 0.156385
0.07085075 1.1032761 0.28298116 0.37180278 1.3810441 1.649131 1.3833913 0.26547942
0.83572316 1.1740359 0.2593374 0.3216526 0.7245457 1.1748621 0.9913525 0.1919764
1.0426555 1.9114449 1.3497008 0.28209722 0.24816988 1.1542925 0.7700076 3.8447497
0.3049285 1.0059774 0.4254872 0.48071316 3.5188398 1.6347175 1.2824329 0.40830126
1.001664 1.8118889 3.5526109 1.0133313 0.27963713 1.1893057 4.804874 0.108413726
1.8327426 3.6962883 0.5921403 0.71365666
00000000: 530b 993f 6c00 0440 2896 923f 8c2a 343f
00000010: 4f5e 983e 7113 913f 40e5 ff3e eea8 523f
00000020: f097 5e3e 45a0 963f 8aae 513f 2ef5 0e3e
00000030: 53ad ed3e 5030 ca3f 39fd 843f 6edf 943f
00000040: bb12 a140 13e3 f73e a0bd b23d a50c 1540
00000050: f596 4f3f ddc1 873e 927e 343f bba0 b53f
00000060: 0dcb c93e 1815 5040 452e da3f 053a c43e
00000070: 5357 ab3f e3d8 8540 f42f 3f3f 2fc0 f73f
00000080: ac29 483f 5d0d 923e dcae 6e3e 3c98 b13e
00000090: 2754 1a3e e4f1 0f3e 1c1a 5e3e 3afb 0640
000000a0: ef6d a53f d8db 1640 6d5e 3e3e 518f 253d
000000b0: e3e0 a43d 8e51 ba3f 5722 f93d 3c72 a03f
000000c0: ea5f 213f ecf3 033f 02aa 4d3e dfb6 e53f
000000d0: eb26 e63e fa18 0d40 00d7 203f 6423 203e
000000e0: 331a 913d 2738 8d3f e8e2 903e ef5c be3e
000000f0: 0ec6 b03f b916 d33f f712 b13f ebec 873e
00000100: f4f1 553f cf46 963f dfc7 843e a6af a43e
00000110: d47b 393f e261 963f 47c9 7d3f 7695 443e
00000120: bc75 853f 3aaa f43f ffc2 ac3f 0c6f 903e
00000130: 3f20 7e3e dbbf 933f 381f 453f 6110 7640
00000140: 971f 9c3e dec3 803f 75d9 d93e 0920 f63e
00000150: ac34 6140 6c3e d13f c326 a43f dd0c d13e
00000160: 8736 803f faeb e73f fa5d 6340 d7b4 813f
00000170: 992c 8f3e 2b3b 983f 87c1 9940 0408 de3d
00000180: 4f97 ea3f fd8f 6c40 8296 173f 34b2 363f

linear2.weight f4 [200, 100]
0.038679212 -0.042046577 0.0109604355 -0.06515083 -0.05993536 0.05932656 -0.09351234 0.0022292717
-0.00648578 0.019847048 0.006773845 -0.081033036 0.080198154 -0.062744096 0.12899461 -0.081869885
-0.02000505 -0.048913203 0.026819125 0.008658389 -0.022717638 -0.0041431105 -0.024343932 0.041458268
-0.03137427 -0.076618426 0.001254935 -0.013329505 0.061861414 -0.023843067 0.00473944 -0.026267564
0.15164477 -0.0066810846 -0.166689 0.00361187 0.029040387 -0.008962081 0.022125803 0.0010151652
-0.045360427 0.123398304 -0.06340108 -0.0317007 -0.014779999 -0.09085758 -0.05641125 -0.1460539
0.08352609 0.041908875 -0.019826384 0.17542706 0.006038273 0.022533435 -0.005003346 0.014940442
-0.07347447 -0.03636271 0.00823094 -0.0008288717 -0.0035552823 0.032312207 0.0040884814 -0.04652374
-0.029113758 -0.013140315 0.0730246 0.15481932 0.004999492 -0.0061579505 -0.13542952 0.0039141397
-0.07207579 -0.025207484 -0.10098306 0.02509675 -0.0069911177 -0.053333603 -0.027564337 0.08049177
-0.025805542 0.077264026 -0.07627116 -0.03157457 0.0037616205 0.07363735 -0.03664535 0.041968882
0.07662653 0.07768658 0.089796536 0.020348174 -0.010140119 0.04480243 0.026670441 0.011591964
-0.027165309 0.042287532 0.0017011934 0.057408325 -0.03465651 0.067693666 -0.082177006 0.06641785
0.07070584 -0.030999271 -0.0006848771 -0.0031833746 -0.029007314 0.010726898 -0.08042852 -0.047345098
-0.0996062 0.123489626 -0.07312035 0.053557385 -0.0017248015 0.05058708 -0.062043693 -0.045614798
-0.02623233 -0.014919496 -0.05902266 -0.010621618 -0.043402154 -0.05041666 0.06811315 -0.033316795
-0.17799547 -0.09249674 -0.06609774 0.023639223 0.03430963 -0.06617441 -0.040060278 -0.113894746
0.008565883 -0.0057333065 -0.09732268 0.019477159 0.060349766 0.040883876 0.07138877 0.006458379
0.046704337 -0.022126732 -0.08615433 -0.14066066 0.09398527 -0.08930014 -0.02738673 -0.057110924
-0.04603279 0.032037336 -0.0012078478 0.055883236 -0.09698441 -0.01670498 -0.05733075 0.049710445
-0.24978301 -0.04476784 0.0038612918 0.004971503 0.11586278 -0.079954356 -0.041004427 -0.032251682
-0.008215214 0.04463535 0.09077325 0.022110024 0.020902319 0.09330463 0.015241212 -0.019220753
-0.09085158 0.0136075355 -0.010614133 -0.006511198 0.04220655 -0.023761466 0.032358408 0.046134055
0.046368647 0.086454146 0.029945226 0.0027408972 0.04537483 -0.10685883 -0.055428423 -0.022335077
-0.011743606 -0.09996305 -0.03789815 0.12629887 0.0012903893 0.010634333 0.046883132 -0.097602054
0.022897784 -0.007807165 -0.06968329 -0.025463944 0.019170001 -0.0018608631 0.12874904 0.036236208
0.055284094 0.042837195 -0.122457646 0.03575303 -0.08366418 -0.017909389 0.038878936 -0.018503541
-0.025722226 -0.03143104 -0.012845765 0.024159074 -0.06603515 0.036755268 0.06775829 -0.0043077
0.05043242 0.089401625 0.06275963 0.03277496 0.03728621 -0.01618127 -0.031544153 -0.09713706
-0.0047410545 0.028718462 0.06271379 0.033194162 -0.06014652 -0.06628004 0.03256138 -0.037262227
0.13206194 -0.03669237 0.0071728406 -0.006076319 -0.015946066 0.019187633 0.035945985 0.014376242
-0.0089088185 -0.037131608 0.059783537 -0.053194676 -0.02392418 -0.01247348 0.008630599 -0.5325668
00000000: 186e 1e3d 0839 2cbd 6693 333c cc6d 85bd
00000010: c87e 75bd 6800 733d 6683 bfbd f918 123b
00000020: aa86 d4bb 4796 a23c 21f7 dd3b a6f4 a5bd
00000030: ee3e a43d fa7f 80bd 2a17 043e 66ab a7bd
00000040: a1e1 a3bc 3659 48bd c8b3 db3c eadb 0d3c
00000050: 571a babc eec2 87bb ed6c c7bc 25d0 293d
00000060: 4e82 00bd 1fea 9cbd a27c a43a ff63 5abc
00000070: 6562 7d3d 8952 c3bc 4e4d 9b3b 132f d7bc
00000080: c448 1b3e 00ed dabb 85b0 2abe 20b5 6c3b
00000090: 1be6 ed3c b1d5 12bc 2c41 b53c 4b0f 853a
000000a0: dbcb 39bd 40b8 fc3d 6dd8 81bd 98d8 01bd
000000b0: cf27 72bc 8a13 babd 7c0f 67bd 278f 15be
000000c0: ba0f ab3d a4a8 2b3d f16a a2bc 27a3 333e
000000d0: b5dc c53b 0a98 b83c 1cf3 a3bb c1c8 743c
000000e0: c879 96bd 11f1 14bd 11db 063c a348 59ba
000000f0: bdff 68bb ce59 043d abf8 853b ad8f 3ebd
00000100: fa7f eebc 7a4a 57bc ec8d 953d f588 1e3e
00000110: c7d2 a33b a2c8 c9bb 09ae 0abe 2f42 803b
00000120: 799c 93bd ed7f cebc 35d0 cebd b397 cd3c
00000130: bf15 e5bb 5674 5abd 9bce e1bc ded8 a43d
00000140: 2566 d3bc 9a3c 9e3d 0e34 9cbd 5654 01bd
00000150: 8585 763b 2ecf 963d 6f19 16bd 90e7 2b3d
00000160: 5fee 9c3d 241a 9f3d 3fe7 b73d 37b1 a63c
00000170: be22 26bc c182 373d f87b da3c 39ec 3d3c
00000180: c889 debc b135 2d3d 94fa de3a fe24 6b3d
00000190: fcf3 0dbd faa2 8a3d 6b4c a8bd 1506 883d
000001a0: 39ce 903d 2ff2 fdbc 5389 33ba 2aa0 50bb
000001b0: bfa0 edbc dfbf 2f3c b5b7 a4bd efec 41bd
000001c0: 56fe cbbd 21e8 fc3d 1fc0 95bd fd5e 5b3d
000001d0: bc12 e2ba 6634 4f3d 8721 7ebd 95d6 3abd
000001e0: 2fe5 d6bc e770 74bc bfc1 71bd 4b06 2ebc
000001f0: 75c6 31bd b381 4ebd e87e 8b3d 3177 08bd
00000200: 7244 36be ee6e bdbd 405e 87bd 0ba7 c13c
00000210: 4188 0c3d 7386 87bd 3f16 24bd a641 e9bd
00000220: eb57 0c3c 76de bbbb 1d51 c7bd 908e 9f3c
00000230: 5131 773d da75 273d 4734 923d cfa0 d33b
00000240: 0c4d 3f3d 1f43 b5bc ae71 b0bd 5909 10be
00000250: 597b c03d fee2 b6bd 235a e0bc 25ed 69bd
00000260: e18c 3cbd 9539 033d a650 9eba d2e5 643d
00000270: c39f c6bd e2d8 88bc a6d3 6abd 2e9d 4b3d
00000280: 1ec7 7fbe 7c5e 37bd ba0d 7d3b fde7 a23b
00000290: 7749 ed3d 1cbf a3bd 42f4 27bd 571a 04bd
000002a0: 1b99 06bc 8fd3 363d 53e7 b93d 1520 b53c
000002b0: 573b ab3c 7f16 bf3d 47b6 793c d774 9dbc
000002c0: 6510 babd 24f2 5e3c e7e6 2dbc e35b d5bb
000002d0: c6e0 2c3d 68a7 c2bc 408a 043d 10f7 3c3d
000002e0: 0ded 3d3d df0e b13d b14f f53c a0a0 333b
000002f0: f5da 393d cdd8 dabd ea08 63bd 0df8 b6bc
00000300: 4168 40bc 6db9 ccbd 173b 1bbd 7e54 013e
00000310: 4822 a93a a03b 2e3c 8708 403d 96e3 c7bd
00000320: 2294 bb3c 3fd3 ffbb 1db6 8ebd c399 d0bc
00000330: 680a 9d3c 34e8 f3ba cad6 033e 6b6c 143d
00000340: 9371 623d 0e76 2f3d 13cb fabd c571 123d
00000350: 2058 abbd b6b6 92bc 853f 1f3d bd94 97bc
00000360: 6bb7 d2bc d6bd 00bd 0b77 52bc 40e9 c53c
00000370: 703d 87bd b18c 163d dcc4 8a3d 9b27 8dbb
00000380: 3a92 4e3d 3318 b73d 1f88 803d 093f 063d
00000390: 6db9 183d 958e 84bc 7134 01bd cbef c6bd
000003a0: d95a 9bbb fb42 eb3c 1670 803d 9af6 073d
000003b0: 335c 76bd d4bd 87bd 155f 053d 47a0 18bd
000003c0: 3f3b 073e bd4a 16bd 260a eb3b dc1b c7bb
000003d0: 53a1 82bc 622f 9d3c 193c 133d 548a 6b3c
000003e0: 4bf6 11bc 5017 18bd 95df 743d a9e2 59bd
000003f0: a4fc c3bc 915d 4cbc 5b67 0d3c 4c56 08bf

linear2.bias f4 [200]
0.013519187 0.07357641 0.017854547 -0.08887942 -0.04768264 0.057509705 0.07512934 0.015684271
0.019522963 0.054260854 0.09021458 -0.0043997387 0.07204301 0.037912153 0.029422149 -0.070175916
-0.07018138 -0.043328643 0.10330409 0.049444575 -0.09756958 -0.0021503204 0.058031715 -0.07965265
0.064741835 0.064017825 -0.051749174 -0.04877557 -0.025164824 -0.057064574 -0.016009308 0.03128591
-0.034559138 -0.054352 0.08005842 -0.09315724 -0.031746995 -0.017247342 -0.055102307 -0.019412981
0.03544127 -0.10388287 -0.071108826 -0.07785713 0.04091827 -0.008043167 -0.0077885697 0.026194097
0.069258094 0.03335519 -0.04224021 -0.06586179 -0.058489725 0.026954383 -0.06589848 -0.032741953
-0.0031089734 -0.043337986 -0.070289046 -0.061056975 0.06626552 -0.0063402522 -0.032498505 -0.09771283
-0.03437699 -0.08160936 0.023398561 -0.07736725 -0.04825957 0.109277725 0.03755669 0.020105546
-0.061818957 0.06839915 -0.0013910249 -0.062510334 -0.0073992354 -0.08665689 0.072479285 -0.09554185
0.06288941 -0.018933142 0.10150803 -0.10027465 -0.0300093 0.041429676 -0.027391793 0.049452968
-0.09262566 -0.031185107 -0.040914316 0.0067830416 0.020870535 -0.03668857 -0.07383728 -0.08528864
-0.003407467 -0.027781516 -0.051994827 -0.019894121 -5.3244716e-05 0.033891957 0.076997034 -0.11104234
0.11477627 -0.012212453 0.046604484 -0.049105242 -0.030337524 -0.09145234 -0.023010315 0.0041640536
0.0176798 0.018739497 -0.041655257 0.066801734 0.0017880885 -0.04803323 -0.05046321 0.006240127
0.03848553 0.014234625 0.05844717 0.012523288 0.0146587165 -0.057513576 -0.074433245 -0.024204882
0.08060415 0.015082843 -0.086490996 -0.035875596 0.056397084 -0.09517384 0.014595225 -0.023955949
-0.050850455 0.103895396 -0.058715437 0.092049286 -0.027768813 -0.06330809 0.073475786 0.026428042
0.036353324 -0.05285413 -0.03292309 0.00018996243 0.04924514 -0.016969958 -0.09917252 0.049201805
0.10044431 0.00624014 0.031325847 -0.042316653 0.06948581 -0.026051672 0.09200264 -0.021950854
-0.00595501 -0.064001784 -0.010624488 -0.024343679 0.1069602 -0.020341 -0.034308616 -0.10526472
0.10514253 -0.041015055 -0.10448364 0.03150162 -0.08117812 -0.030419484 0.004173918 0.0354768
-0.063241154 -0.06696686 0.0105523225 0.107913956 0.009743486 0.09965133 0.067729354 0.060678717
0.10349977 -0.035357773 -0.112808675 0.10604689 0.06655938 0.061934937 -0.07460202 -0.0908511
0.035049964 0.046323717 -0.030701602 0.0775351 0.08563313 -0.08176771 0.014325983 -0.0028554962
00000000: 957f 5d3c 3baf 963d b343 923c 6a06 b6bd
00000010: df4e 43bd 4c8f 6b3d 69dd 993d 4d7c 803c
00000020: 9fee 9f3c a140 5e3d 6cc2 b83d af2b 90bb
00000030: 498b 933d c649 1b3d b806 f13c 64b8 8fbd
00000040: 41bb 8fbd 6079 31bd 1891 d33d 6586 4a3d
00000050: 8fd2 c7bd 64ec 0cbb aab2 6d3d ee20 a3bd
00000060: 5e97 843d c71b 833d f1f6 53bd e4c8 47bd
00000070: 7626 cebc 8bbc 69bd f425 83bc a825 003d
00000080: e28d 0dbd 34a0 5ebd abf5 a33d 39c9 bebd
00000090: 2309 02bd 4c4a 8dbc f5b2 61bd f907 9fbc
000000a0: dd2a 113d 8bc0 d4bd 81a1 91bd 8f73 9fbd
000000b0: ea99 273d 7dc7 03bc 4237 ffbb 0195 d63c
000000c0: 30d7 8d3d 749f 083d 1204 2dbd 8ce2 86bd
000000d0: ec92 6fbd 70cf dc3c c8f5 86bd 6d1c 06bd
000000e0: ebbf 4bbb 2c83 31bd b4f3 8fbd e116 7abd
000000f0: 38b6 873d e4c1 cfbb 271d 05bd aa1d c8bd
00000100: e3ce 0cbd cf22 a7bd 57ae bf3c b972 9ebd
00000110: d4ab 45bd 00cd df3d 0bd5 193d 63b4 a43c
00000120: e035 7dbd db14 8c3d 0d53 b6ba 6b05 80bd
00000130: 4975 f2bb 2b79 b1bd 0570 943d 72ab c3bd
00000140: 2acc 803d ad19 9bbc 71e3 cf3d cc5c cdbd
00000150: 10d6 f5bc 2ab2 293d c164 e0bc 328f 4a3d
00000160: 86b2 bdbd e977 ffbc c595 27bd 4744 de3b
00000170: aff8 aa3c c146 16bd 0038 97bd cfab aebd
00000180: cf4f 5fbb 1096 e3bc 87f8 54bd fff8 a2bc
00000190: 1453 5fb8 4bd2 0a3d 9fb0 9d3d 2b6a e3bd
000001a0: d20f eb3d be16 48bc 58e4 3e3d 9422 49bd
000001b0: 6686 f8bc 5d4b bbbd 2180 bcbc 9d72 883b
000001c0: 3ad5 903c 9383 993c b49e 2abd 59cf 883d
000001d0: 4b5e ea3a 7ebe 44bd 83b2 4ebd fb79 cc3b
000001e0: 01a3 1d3d 5838 693c 4d66 6f3d 7a2e 4d3c
000001f0: 1d2b 703c 5b93 6bbd 7570 98bd 5149 c6bc
00000200: ca13 a53d 071e 773c 3122 b1bd 4af2 12bd
00000210: a100 673d 81ea c2bd d020 6f3c 443f c4bc
00000220: 9148 50bd 1cc7 d43d 997f 70bd 5684 bc3d
00000230: 6c7b e3bc aca7 81bd 797a 963d 9f7f d83c
00000240: 39e7 143d 927d 58bd 5dda 06bd a730 4739
00000250: 46b5 493d 9504 8bbc f61a cbbd d587 493d
00000260: bfb5 cd3d 177a cc3b 884f 003d 3a54 2dbd
00000270: 944e 8e3d 516a d5bc e16b bc3d 47d2 b3bc
00000280: 3f22 c3bb 5e13 83bd 5512 2ebc 656c c7bc
00000290: f30d db3d 2ba2 a6bc 3187 0cbd 0895 d7bd
000002a0: f754 d73d 67ff 27bd 85fb d5bd d807 013d
000002b0: b740 a6bd 4832 f9bc 5dc5 883b 1f50 113d
000002c0: 9484 81bd ec25 89bd a6e3 2c3c fe01 dd3d
000002d0: 24a3 1f3c ff15 cc3d b0b5 8a3d 3f8a 783d
000002e0: b0f7 d33d 50d3 10bd 3c08 e7bd 1d2f d93d
000002f0: 4950 883d 7daf 7d3d f2c8 98bd 2410 babd
00000300: 8d90 0f3d f0bd 3d3d ed81 fbbc b9ca 9e3d
00000310: 6c60 af3d d475 a7bd 87b7 6a3c 4723 3bbb

bn2.weight f4 [200]
0.84986866 0.9557151 0.9395813 1.1874822 0.9454562 1.115078 0.8549869 0.8138062
0.6359143 1.1624744 0.7407341 1.0654474 0.83292645 1.0276337 0.9592101 0.91971946
0.9427748 0.8204709 0.92796534 0.9420303 0.98579526 0.876112 0.9287928 1.019011
1.050754 1.0221677 0.51981306 0.9924455 0.9542172 0.9337002 0.53455126 1.104209
1.1462073 0.7044809 1.1019292 0.9421132 0.9926271 1.0036858 0.79938745 1.0141894
0.95115113 0.95297086 0.9946616 0.829118 1.0157584 0.9516126 0.8196841 1.0140747
0.665382 0.9930059 0.7983944 0.95013833 1.1050942 0.9715615 1.1250635 0.96425575
0.72916573 0.8040438 0.9584184 0.9571314 0.942216 0.9781457 1.0562125 0.70587486
0.96125036 1.0370803 0.68770033 1.1008312 0.9079413 1.0949092 0.82085896 1.0285853
0.9182133 0.71552926 1.1121265 0.7346752 1.0033839 0.93147993 0.80636686 1.1286104
0.7012813 1.0117161 0.968299 1.1690007 0.88516456 1.0281689 0.995486 0.7611614
0.92045873 1.0918683 0.6789721 0.9060342 0.9309308 0.7130518 1.0349365 1.0375291
1.1219817 0.7384301 0.85402215 1.182478 0.9519725 1.0136158 0.98293704 0.77654344
0.9418535 0.8049862 0.97910756 0.9449665 0.7757442 0.8924387 0.926481 1.0107547
0.86022806 1.0612829 0.7002439 1.0240017 0.92633516 0.8577635 0.55827045 1.0089484
0.8931951 1.0090684 0.9278673 1.0731705 0.73098046 0.71089303 0.94122905 0.7971156
0.97055393 1.0437213 1.0082122 0.9532116 0.94379956 0.9527781 0.97691536 0.99713606
0.9869594 0.96219134 0.84143597 1.1442598 1.000502 0.96251214 0.89389974 1.0206382
1.0326793 0.9704109 0.8071175 1.0717785 0.7884393 0.8978339 0.82144225 0.9380246
0.7830046 0.79914784 1.037092 0.8004803 1.0047219 1.105068 0.71135646 0.89929676
1.0744897 0.7395074 0.83175975 0.9045698 0.8235305 0.9555844 1.1095202 0.84286815
0.8430704 0.8116978 0.6352063 0.8355984 1.0176685 0.8765608 0.8141484 1.0651065
0.8566437 0.7107181 0.9575797 0.8863143 1.0523664 0.83564484 0.90622044 1.098458
0.8779112 0.7776704 1.0375608 0.96831596 0.8682493 1.0082269 1.0541663 1.1541387
0.67220974 0.7715206 0.8931702 0.83084315 0.49680614 0.7982374 1.001166 0.9510536
00000000: fe90 593f bfa9 743f 6688 703f 6bff 973f
00000010: 6b09 723f e0ba 8e3f 6ce0 5a3f 9a55 503f
00000020: 48cb 223f f6cb 943f c0a0 3d3f 9560 883f
00000030: ab3a 553f 8089 833f cb8e 753f bc72 6b3f
00000040: b059 713f 620a 523f 238f 6d3f e628 713f
00000050: 145d 7c3f e048 603f 5dc5 6d3f f46e 823f
00000060: 1b7f 863f 64d6 823f 7812 053f e910 7e3f
00000070: 9447 743f fa06 6f3f 5ad8 083f b856 8d3f
00000080: ecb6 923f dc58 343f 040c 8d3f 552e 713f
00000090: cf1c 7e3f c778 803f a8a4 4c3f f5d0 813f
000000a0: a47e 733f e6f5 733f 25a2 7e3f 1441 543f
000000b0: 5f04 823f e29c 733f d1d6 513f 33cd 813f
000000c0: 7a56 2a3f a235 7e3f 9363 4c3f 443c 733f
000000d0: ba73 8d3f 41b8 783f 1502 903f 77d9 763f
000000e0: 9baa 3a3f d1d5 4d3f e95a 753f 9006 753f
000000f0: 1135 713f c267 7a3f f931 873f 37b4 343f
00000100: 8114 763f 0cbf 843f 210d 303f 09e8 8c3f
00000110: d76e 683f fc25 8c3f d023 523f afa8 833f
00000120: 0710 6b3f ed2c 373f 295a 8e3f ad13 3c3f
00000130: e26e 803f 7875 6e3f 0f6e 4e3f 4e76 903f
00000140: 2c87 333f ea7f 813f 71e2 773f d1a1 953f
00000150: 259a 623f 0a9b 833f 2cd8 7e3f 79db 423f
00000160: 2fa3 6b3f 57c2 8b3f 1ed1 2d3f dbf1 673f
00000170: 7b51 6e3f 908a 363f cd78 843f c1cd 843f
00000180: 199d 8f3f c109 3d3f 32a1 5a3f 705b 973f
00000190: 78b4 733f 2abe 813f c3a1 7b3f 8dcb 463f
000001a0: 501d 713f 9313 4e3f cba6 7a3f 53e9 713f
000001b0: 2c97 463f dd76 643f dc2d 6d3f 6960 813f
000001c0: e837 5c3f 1ed8 873f 2f43 333f 7d12 833f
000001d0: 4d24 6d3f 6496 5b3f d0ea 0e3f 3925 813f
000001e0: 6fa8 643f 2729 813f b688 6d3f a75d 893f
000001f0: 8921 3b3f 16fd 353f 63f4 703f c50f 4c3f
00000200: 3976 783f a998 853f 190d 813f ad05 743f
00000210: d99c 713f 44e9 733f 2017 7a3f 4f44 7f3f
00000220: 5fa9 7c3f 2c52 763f 5968 573f 1b77 923f
00000230: 7310 803f 3267 763f 9dd6 643f 46a4 823f
00000240: d62e 843f d96c 783f 419f 4e3f 0a30 893f
00000250: 28d7 493f 71d8 653f 0a4a 523f 6122 703f
00000260: fd72 483f f494 4c3f 6ebf 843f 47ec 4c3f
00000270: ba9a 803f de72 8d3f 751b 363f 5038 663f
00000280: e188 893f 5b50 3d3f 35ee 543f e391 673f
00000290: e5d2 523f 2ea1 743f c204 8e3f 35c6 573f
000002a0: 76d3 573f 6dcb 4f3f e19c 223f c7e9 553f
000002b0: f642 823f 4a66 603f 086c 503f 6955 883f
000002c0: 004d 5b3f 9ff1 353f f123 753f 7ee5 623f
000002d0: f1b3 863f d2ec 553f 10fe 673f 469a 8c3f
000002e0: cabe 603f 6815 473f cbce 843f 8ee3 773f
000002f0: 9645 5e3f 940d 813f ecee 863f d1ba 933f
00000300: f015 2c3f 6082 453f cda6 643f 23b2 543f
00000310: 605d fe3e 4959 4c3f 3526 803f 4078 733f

bn2.bias f4 [200]
-0.21258283 0.13436016 -0.2519176 0.037811805 -0.012305993 0.23086296 -0.15465228 0.21283565
0.4786011 -0.34280384 0.33707342 -0.034671195 0.066260755 0.01834159 -0.45278317 -0.5652585
0.054166388 -0.19334224 -0.090899184 -0.04819518 -0.3513558 -0.020332174 -0.1687186 0.059639085
-0.055631828 -0.32616746 0.06976773 -0.052201316 -0.61205304 -0.16217224 0.47106272 -0.79794866
-0.5728343 0.118500166 0.18586913 -0.018100383 -0.04961448 -0.17335865 -0.08463959 0.16538683
-0.20320368 -0.31257895 -0.18089761 -0.7543014 -0.06932706 0.18008724 -0.13863459 -0.09264275
0.056906156 -0.097263776 0.26231605 -0.085948214 0.011269303 -0.75116456 -0.03546861 0.062338687
-0.04767094 0.26907694 0.0054795817 -0.19253504 0.0552569 0.070581235 0.25555703 0.087165624
-0.052341357 -0.20477729 0.059823904 -0.29932725 -0.054964025 -0.0037815226 -0.4045047 0.037533257
0.11585472 0.23689444 -0.03394975 0.13963613 0.06314272 0.08613056 0.23128583 0.112970255
0.26128754 0.019583272 0.039214812 -0.042101618 0.2774768 -0.019141128 -0.024151547 0.24125797
-0.0072347946 0.021325659 0.08110587 -0.04888526 0.03527466 0.118935235 -0.15488687 -0.1558797
0.03621033 -0.016042601 0.44077694 0.3121072 -0.49024504 -0.16763125 -0.02421929 0.57354873
0.027011648 -0.033043787 0.057754688 0.036392514 0.16367345 0.2327765 -0.102228254 0.009043477
-0.05814989 -0.15278785 0.09987422 -0.0034035125 -0.85964936 -0.13200183 0.5184789 -0.062388238
-0.10668972 0.06828155 -0.18201897 -0.06106 0.3517019 0.19623576 0.007053582 0.21315534
-0.04818263 0.073346056 0.18497977 -0.09152451 0.054915562 0.0139089925 0.11699301 -0.057139557
0.012155661 0.06230048 0.2479725 -0.18310717 0.019904481 -0.0005605505 -0.13926432 0.06785564
0.0071212095 0.0822318 -0.11801321 -0.17464657 0.19651058 -0.44731435 0.17356835 0.011875798
0.15442872 -0.19745062 0.022994507 -0.012749697 -0.031391203 -0.018200666 0.10117111 0.54988074
0.4583582 0.36534175 0.36454922 -0.3193785 -0.41466764 -0.0040834444 -0.07627249 -0.08442098
0.22621861 0.29254192 0.32288244 -0.24410541 0.05598932 -0.76482725 -0.19620101 -0.0154163735
0.30709794 0.35046014 -0.026822982 0.10076016 0.055180635 -0.63674164 -0.06300042 -0.070912
-0.12067129 0.16669784 0.04474417 0.074230015 0.12061169 -0.0064196503 -0.052464876 -0.38970047
0.23224534 -0.12780397 -0.17480943 0.11434923 0.4998895 -0.26682302 0.16158415 0.08144245
00000000: 50af 59be b695 093e 58fb 80be 8de0 1a3d
00000010: 139f 49bc 5767 6c3e 2b5d 1ebe 97f1 593e
00000020: 340b f53e fc83 afbe e394 ac3e 6203 0ebd
00000030: b8b3 873d 1a41 963c 32d3 e7be c8b4 10bf
00000040: 93dd 5d3d 82fb 45be 5a29 babd 4f68 45bd
00000050: e8e4 b3be a98f a6bc 92c4 2cbe 1d48 743d
00000060: 33de 63bd 6cff a6be 62e2 8e3d 0cd1 55bd
00000070: 82af 1cbf 7b10 26be 222f f13e 5d46 4cbf
00000080: 45a5 12bf 37b0 f23d 7a54 3e3e 4147 94bc
00000090: 8e38 4bbd ee84 31be 8557 adbd 2a5b 293e
000000a0: a014 50be 590a a0be 393d 39be e619 41bf
000000b0: 58fb 8dbd ca68 383e 3af6 0dbe 7bbb bdbd
000000c0: 6e16 693d 3b32 c7bd 4a4e 863e 9e05 b0bd
000000d0: e2a2 383c 524c 40bf 8847 11bd da56 7f3d
000000e0: 9b42 43bd 74c4 893e 108e b33b e827 45be
000000f0: 0f55 623d e58c 903d 5fd8 823e e483 b23d
00000100: e463 56bd 23b1 51be e909 753d 6c41 99be
00000110: f521 61bd 6cd3 77bb 3d1b cfbe 79bc 193d
00000120: 3d45 ed3d 7594 723e e50e 0bbd c6fc 0e3e
00000130: f850 813d 3865 b03d 31d6 6c3e f35c e73d
00000140: 7bc7 853e 196d a03c b69f 203d bf72 2cbd
00000150: 7011 8e3e dbcd 9cbc 77d9 c5bc 540c 773e
00000160: db11 edbb 26b3 ae3c d61a a63d e93b 48bd
00000170: 297c 103d 5194 f33d aa9a 1ebe ee9e 1fbe
00000180: 4851 143d c66b 83bc 84ad e13e 84cc 9f3e
00000190: 6601 fbbe 87a7 2bbe 8867 c6bc 17d4 123f
000001a0: 8847 dd3c ec58 07bd 2e90 6c3d 5110 153d
000001b0: 039a 273e f65c 6e3e 0c5d d1bd 172b 143c
000001c0: 942e 6ebd 6b74 1cbe db8a cc3d 770d 5fbb
000001d0: fb11 5cbf 7d2b 07be 08bb 043f cf8a 7fbd
000001e0: 2480 dabd 33d7 8b3d 2e63 3abe 0d1a 7abd
000001f0: 4512 b43e 07f2 483e bc21 e73b 6545 5a3e
00000200: 265b 45bd 7536 963d 566b 3d3e 3471 bbbd
00000210: 24ef 603d 8be2 633c 089a ef3d 2b0b 6abd
00000220: 8a28 473c ca2e 7f3d 81ec 7d3e 7280 3bbe
00000230: b90e a33c e8f1 12ba 4e9b 0ebe e6f7 8a3d
00000240: 0959 e93b 2569 a83d e9b0 f1bd 8dd6 32be
00000250: 123a 493e 6306 e5be e7bb 313e b592 423c
00000260: 9022 1e3e 7f30 4abe fa5e bc3c 1be4 50bc
00000270: 1094 00bd 9019 95bc cd32 cf3d fcc4 0c3f
00000280: edad ea3e 130e bb3e 32a6 ba3e 9485 a3be
00000290: 514f d4be 6ace 85bb c034 9cbd e8e4 acbd
000002a0: daa5 673e 0ec8 953e d950 a53e c5f6 79be
000002b0: 0f55 653d b8cb 43bf ebe8 48be f594 7cbc
000002c0: f13b 9d3e 836f b33e dfbb dbbc 585b ce3d
000002d0: 1705 623d 8001 23bf 5d06 81bd 503a 91bd
000002e0: 8222 f7bd d7b2 2a3e aa45 373d e805 983d
000002f0: 4303 f73d ee5b d2bb 69e5 56bd d286 c7be
00000300: b9d1 6d3e 0bdf 02be 3e01 33be ee2f ea3d
00000310: 84f1 ff3e 079d 88be 5176 253e 4dcb a63d

bn2.running_mean f4 [200]
0.1494116 -0.5918244 -0.011685359 -0.71971273 0.1949181 -0.06527573 0.20704886 -0.06396651
-0.38593227 0.16888432 0.009925176 0.108980596 0.30793834 0.69423413 0.34422264 0.030381434
-0.08608662 0.8490317 -0.0505818 0.3857607 0.17168039 -0.37151715 -0.9006614 -0.20370595
0.43152553 0.45987278 -0.64135575 0.5960239 0.22601305 0.071854234 -0.43811893 0.12974338
0.3887644 0.5034483 -0.23674962 0.14493407 -0.10909644 -0.02319349 0.18934907 -0.15254946
0.21939336 -0.1697834 0.17411134 0.22005431 -0.083637714 0.19010514 -0.081188925 -0.07475614
-0.11972158 -0.3433333 0.23921484 0.46660736 0.19281413 -0.0231457 -0.20640612 0.031926274
-0.5628569 0.16491741 -0.14019836 0.07934706 -0.18860926 -1.1152153 0.3149636 -0.58902794
-0.21761845 -0.06404457 0.40436122 -0.526085 -0.28774318 0.0030868445 -0.05745405 0.0437337
-0.12332029 0.022005565 0.30788156 -0.4573327 -0.7289854 -0.508085 0.33538222 0.094013184
-0.52617586 0.015914714 -0.8954964 0.2655052 0.09825061 0.7482141 -0.41260713 -0.30516648
-0.9389251 -0.1588512 0.75110745 -0.46123886 0.44400242 -1.0295045 -0.013046134 0.2011994
-0.53639704 -0.2834424 -0.4364204 0.24459323 0.004818974 -0.79738593 0.2086526 -0.60340923
0.16976795 0.22659089 -0.5258044 0.22819349 -0.87573034 -0.09850517 0.032371707 0.23194063
-0.41506964 0.1661847 -0.3521699 -0.07353927 0.35070512 0.3812136 -0.29249695 0.045470033
-0.24978474 0.020374857 0.48729733 -0.296825 -0.18850456 -0.50627357 -0.0647737 -0.5300384
-0.51364636 0.6884964 0.053848185 0.0074629174 0.33572933 0.63563144 -0.17348613 0.013113833
-0.10108432 -0.112802476 -0.33605766 0.13349265 0.017537894 -0.047857292 -0.29590324 -0.8092452
0.67102367 -0.13635336 -0.70876336 -0.31007585 -0.3443339 0.26586458 -0.2928169 0.12539881
-0.3998363 -0.0007301882 -0.45441103 0.07226262 -0.78272283 -0.07186638 -0.40903294 -0.12191343
0.39828655 -0.15531757 -0.3093891 -0.46551093 0.7165966 -0.20931648 0.11341701 0.39091372
-0.2717674 0.30775392 -0.121793814 0.026697401 -0.45745367 -0.087503694 0.043246027 -0.7743556
-0.41279557 -0.16332449 -0.057813786 -0.11971074 -0.5107052 0.3639196 0.09097188 -0.9259637
0.2358648 0.44291434 -0.18728918 -0.12684077 -0.0014715166 0.104244456 -0.28196794 0.74515194
0.57978153 -0.31423566 -0.23283665 0.02808319 0.62611014 -0.5009061 0.33219925 -0.37699023
00000000: 5bff 183e ce81 17bf f373 3fbc 183f 38bf
00000010: 9c98 473e 48af 85bd 9e04 543e e000 83bd
00000020: ea98 c5be 03f0 2c3e 359d 223c 3831 df3d
00000030: 18aa 9d3e 54b9 313f f33d b03e 7ce2 f83c
00000040: 2f4e b0bd 245a 593f dd2e 4fbd 6d82 c53e
00000050: fccc 2f3e 7f37 bebe bf91 66bf 4b98 50be
00000060: eaf0 dc3e 7274 eb3e e42f 24bf 0695 183f
00000070: f76f 673e 5028 933d 2051 e0be 73db 043e
00000080: 210c c73e fde1 003f 7e6e 72be 9969 143e
00000090: f46d dfbd 4600 bebc b9e4 413e ed35 1cbe
000000a0: a7a8 603e b3db 2dbe 3e4a 323e eb55 613e
000000b0: 404a abbd ecaa 423e 6146 a6bd bf19 99bd
000000c0: 9630 f5bd 62c9 afbe bcf4 743e 29e7 ee3e
000000d0: 1171 453e 0d9c bdbc 205c 53be 20c5 023d
000000e0: 6417 10bf 1ce0 283e 2990 0fbe b680 a23d
000000f0: c922 41be 60bf 8ebf e942 a13e 89ca 16bf
00000100: 5fd7 5ebe cd29 83bd 6f08 cf3e 82ad 06bf
00000110: 1353 93be a84c 4a3b f054 6bbd 1c22 333d
00000120: 598f fcbd 0445 b43c a7a2 9d3e 8327 eabe
00000130: ca9e 3abf dc11 02bf 38b7 ab3e fc89 c03d
00000140: 76b3 06bf 935f 823c 413f 65bf 4cf0 873e
00000150: 9e37 c93d f68a 3f3f 3e41 d3be c83e 9cbe
00000160: 655d 70bf e4a9 22be 9448 403f 8027 ecbe
00000170: 4954 e33e cec6 83bf 74bf 55bc 3707 4e3e
00000180: 5151 09bf 5d1f 91be 7f72 dfbe a676 7a3e
00000190: 7ce8 9d3b 7c21 4cbf 07a9 553e 0779 1abf
000001a0: a6d7 2d3e 7107 683e 1e9b 06bf 8eab 693e
000001b0: dd2f 60bf 14bd c9bd 3298 043d d881 6d3e
000001c0: 0284 d4be 522c 2a3e 9d4f b4be c29b 96bd
000001d0: 9f8f b33e 6e2e c33e 29c2 95be c93e 3a3d
000001e0: 92c7 7fbe 2ce9 a63c 097f f93e 72f9 97be
000001f0: 5707 41be 259b 01bf 13a8 84bd 99b0 07bf
00000200: 547e 03bf 4d41 303f ea8f 5c3d 7d8b f43b
00000210: b7e4 ab3e beb8 223f 59a6 31be 67db 563c
00000220: 4c05 cfbd fc04 e7bd c00f acbe 4cb2 083e
00000230: a1ab 8f3c 0206 44bd a180 97be b22a 4fbf
00000240: 35c8 2b3f 37a0 0bbe 8471 35bf 43c2 9ebe
00000250: 884c b0be 671f 883e 19ec 95be 8c68 003e
00000260: 58b7 ccbe 1a6a 3fba 90a8 e8be 6dfe 933d
00000270: 8660 48bf ae2e 93bd c46c d1be c0ad f9bd
00000280: 37ec cb3e 920b 1fbe 4068 9ebe 7357 eebe
00000290: e072 373f 0f57 56be 2d47 e83d d825 c83e
000002a0: 1925 8bbe ec91 9d3e 096f f9bd 82b4 da3c
000002b0: 5e37 eabe 2335 b3bd bf22 313d 2b3c 46bf
000002c0: f159 d3be 893e 27be 26ce 6cbd e82a f5bd
000002d0: 93bd 02bf ab53 ba3e 774f ba3d f50b 6dbf
000002e0: 8b86 713e abc5 e23e bcc8 3fbe 8ce2 01be
000002f0: e7df c0ba 1e7e d53d 1a5e 90be 47c2 3e3f
00000300: 906c 143f 7fe3 a0be bb6c 6ebe b80e e63c
00000310: c148 203f 623b 00bf 0516 aa3e dd04 c1be

bn2.running_var f4 [200]
0.10602734 0.1119405 0.37668782 0.22609225 0.26131672 0.3586316 0.10601906 0.10628969
0.09546287 0.19316538 0.1498063 0.7658555 0.17153686 0.7753578 0.06486379 0.16191947
0.19842549 0.0732997 0.13048077 0.35017672 0.19786409 0.11553767 0.29537705 0.6276035
0.38095522 0.04817905 0.04412714 0.532445 0.08354095 0.18245885 0.044142753 0.096954405
0.046918973 0.050827637 0.23323971 0.13441315 0.3053131 0.25486296 0.08000126 0.21300305
0.11733175 0.10891363 0.07443226 0.03377312 0.08517826 0.07905339 0.10195637 0.3737408
0.068524785 0.3648101 0.102269575 0.14567855 0.6368587 0.08029395 0.6731412 0.14072362
0.056505445 0.17679535 0.11099777 0.054859642 0.0971105 0.42745578 0.25913873 0.07814857
0.2956574 0.42412007 0.052536786 0.069185935 0.18891314 0.3940208 0.13513736 0.5378808
0.17106842 0.10048829 0.20983993 0.1123279 0.37712017 0.17900017 0.10432079 1.647435
0.05121183 0.34160277 0.43751463 0.65984344 0.22078098 0.39216053 0.27564344 0.116366446
0.5448102 0.2540579 0.07294303 0.23421963 0.12472385 0.077590354 0.38761395 0.31924418
0.7175906 0.04889782 0.10599041 0.31044662 0.05078295 0.26657352 0.3494654 0.12477045
0.2345477 0.12651254 0.4128398 0.31882572 0.04635873 0.11315448 0.29587963 0.31643778
0.07476624 0.2225798 0.055473745 0.24110141 0.10834638 0.117486894 0.061492007 0.29599884
0.09478423 0.32672054 0.1240521 0.44627294 0.07035081 0.060418263 0.12918434 0.0663036
0.121966496 0.4390472 0.23162185 0.33573824 0.30648914 0.23318611 0.057325613 0.20291522
0.2165832 0.35273755 0.11487874 0.0809581 0.33707297 0.1791743 0.06937028 0.69237554
0.26284578 0.24526767 0.080599256 0.16931632 0.058879502 0.06459165 0.09909397 0.08838773
0.0868101 0.091164455 0.11730319 0.06067959 0.27069947 0.8183667 0.07548705 0.089926615
0.23589942 0.06475776 0.03505829 0.049461428 0.05745608 0.25006106 0.6199401 0.11056123
0.11846108 0.08292669 0.032536097 0.074784845 0.089741975 0.07259692 0.09679066 0.4768008
0.1541974 0.09381513 0.27575415 0.06362176 0.74920774 0.03542515 0.13938262 0.6778163
0.12823461 0.079834186 0.7624785 0.110421106 0.084465966 0.3077693 0.15108214 0.11318955
0.049577836 0.18172102 0.048270717 0.17721461 0.0459185 0.052978892 0.150426 0.25520703
00000000: dd24 d93d 1041 e53d 3add c03e ba84 673e
00000010: 4ecb 853e 909e b73e 8520 d93d 69ae d93d
00000020: 0a82 c33d 25cd 453e d366 193e 1b0f 443f
00000030: 5ca7 2f3e d97d 463f 4fd7 843d 38ce 253e
00000040: 0d30 4b3e 271e 963d c09c 053e 5d4a b33e
00000050: e29c 4a3e 049f ec3d a93b 973e 9faa 203f
00000060: 900c c33e 6557 453d a9be 343d 514e 083f
00000070: 8517 ab3d 7ed6 3a3e 08cf 343d 0890 c63d
00000080: 1c2e 403d a430 503d 64d6 6e3e 9aa3 093e
00000090: 0052 9c3e 667d 823e b3d7 a33d 791d 5a3e
000000a0: a14b f03d 1c0e df3d f16f 983d af55 0a3d
000000b0: f171 ae3d bee6 a13d 80ce d03d f45a bf3e
000000c0: b956 8c3d 64c8 ba3e b672 d13d c22c 153e
000000d0: 2c09 233f 2871 a43d fb52 2c3f da19 103e
000000e0: 4172 673d d709 353e cd52 e33d 81b4 603d
000000f0: dfe1 c63d 7cdb da3e d5ad 843e 5c0c a03d
00000100: 6860 973e 4426 d93e d030 573d 5bb1 8d3d
00000110: 7272 413e 18bd c93e 7361 0a3e 8eb2 093f
00000120: 8f2c 2f3e cecc cd3d 47e0 563e 2c0c e63d
00000130: e515 c13e d24b 373e 23a6 d53d 26df d23f
00000140: 7fc3 513d 8fe6 ae3e eb01 e03e 80eb 283f
00000150: 6914 623e 44c9 c83e 2321 8d3e 8851 ee3d
00000160: ae78 0b3f e113 823e 2863 953d 45d7 6f3e
00000170: 386f ff3d b1e7 9e3d 5675 c63e f973 a33e
00000180: 04b4 373f 1549 483d 8011 d93d dcf2 9e3e
00000190: c801 503d 537c 883e 21ed b23e a687 ff3d
000001a0: 462d 703e 818c 013e bd5f d33e 203d a33e
000001b0: a7e2 3d3d 89bd e73d 897d 973e 2204 a23e
000001c0: 0b1f 993d f6eb 633e 7038 633d 4ae3 763e
000001d0: b5e4 dd3d f89c f03d 0bdf 7b3d 298d 973e
000001e0: 3c1e c23d ea47 a73e 070f fe3d e37d e43e
000001f0: 1614 903d 2479 773d e648 043e 2fca 873d
00000200: 92c9 f93d cbca e03e 472e 6d3e e2e5 ab3e
00000210: 25ec 9c3e 57c8 6e3e 43ce 6a3d 02c9 4f3e
00000220: fdc7 5d3e 049a b43e 8b45 eb3d 5ccd a53d
00000230: d494 ac3e 7879 373e 0112 8e3d 863f 313f
00000240: b993 863e 7327 7b3e 3911 a53d 4261 2d3e
00000250: a22b 713d a148 843d c8f1 ca3d a004 b53d
00000260: 7ec9 b13d 6eb4 ba3d a83c f03d 298b 783d
00000270: 1f99 8a3e 7b80 513f f498 9a3d 722b b83d
00000280: 9e8f 713e b79f 843d 4899 0f3d 1198 4a3d
00000290: 1157 6b3d 0108 803e 65b4 1e3f ed6d e23d
000002a0: b99b f23d 78d5 a93d 9244 053d cc28 993d
000002b0: a4ca b73d b2ad 943d 2e3a c63d 3c1f f43e
000002c0: ece5 1d3e 2622 c03d a62f 8d3e 204c 823d
000002d0: 14cc 3f3f f619 113d 51ba 0e3e 5e85 2d3f
000002e0: ef4f 033e 1b80 a33d ca31 433f 7624 e23d
000002f0: 7efc ac3d f093 9d3e 47b5 1a3e eccf e73d
00000300: 2112 4b3d 1315 3a3e 84b7 453d bf77 353e
00000310: 0915 3c3d 6500 593d 4609 1a3e 7faa 823e
