artifacts/460_walkerDynamics.pt (torch, 196730 bytes, 20 tensors)

linear1.weight f4 [100, 30]
00000000: 363c a3be b9fc 33bd 50ae d0be ff46 913e
00000010: f05b 1dbe f467 22be 31d5 81bc a3b5 02be
00000020: a17d a4bd bb31 313e 7d15 a4be 0fc0 2d3d
00000030: 71d7 b63e 50f1 11be 7ea3 3a3f 136f 5d3d
00000040: 9dd4 6a3c 6676 193d 8e94 9b3d 642b 173d
00000050: df06 00bd ef8d 23bd 3449 33bd de33 953d
00000060: 9341 743e 7351 a93c 23dc 99be bbad 9fbc
00000070: b534 b13d a5f9 6f3e 06ae ab3e ea52 92bc
00000080: 9a5b 093f bb15 a0be c052 b03d 8a68 673e
00000090: 5add c43c 5671 103e 5b72 39bd 1999 87be
000000a0: e295 933e 7e97 3c3d 533a b8be ea68 323e
000000b0: 22a3 36bf 0aa1 8dbd 09d5 b6bc c3a3 c6bb
000000c0: 5b9b b3bd 25bf 36bd 39d3 103d c65e 713c
000000d0: 303f 273d 18bb b8bd c604 77be 614e c43c
000000e0: e1bc ad3e 51fc 173d d8cd 6dbd 687c 86be
000000f0: 412a aebd b63c 2c3e 0c06 533d 8320 88bd
00000100: 9f28 083f d11d ccbd 7099 033c 07a6 3cbe
00000110: d7f6 2b3d 8872 d63d 5b36 263e 6daa d93d
00000120: 60b4 083e 38ab 723e a922 b3be 2ba7 b83c
00000130: b6de d2bb 8434 883c c801 dc3a 79e2 1f3d
00000140: 242a 3fbd d6a7 a33d ddcd debb 28a8 1dbd
00000150: d912 6c3e 9549 82be 6884 9abe 2375 6d3e
00000160: 4fc8 81bd 212d 34be 8479 ecbe 6f03 253e
00000170: d5de 61be 85de 87bd 03ac 8cbe df5e 403d
00000180: 9e4d 5abc 41a7 7f3d bac1 f03e 67e0 5cbe
00000190: c686 0fbf 73ea 20be dff6 0cbd 9f7d c83e
000001a0: 072f 733e 43c5 f73b 1e7f 88bd 7980 50bc
000001b0: 8708 843c b046 2e3c 6c84 8cba 9870 e3bb
000001c0: c109 cd3b d273 39bb 5d53 9f3d c1f7 e0bc
000001d0: 18fe 09bc 2a9a 1f3e 6048 48be 58e3 08be
000001e0: 301e a6be 48cc f73c f543 4cbe 48ce 43bd
000001f0: ed83 afbe bb2b 363e 3aad a5bd 3b14 1bbc
00000200: 59f4 873e 5b4f 31be 94da c63e 6f88 773e
00000210: 435b ffbd 240d 0a3e dd8e 823e dbcb a7bb
00000220: 0c5d db38 e730 803d 74be f3bc fbc6 97bc
00000230: dbb6 1dbb 0cb9 e7bc ed45 bfbc 0275 bdbc
00000240: ad73 513d d15a 78bd 4160 c8bd 07e0 b6bc
00000250: 28e2 bb3d f039 a9be 4b3f ecba 9b97 b4bc
00000260: 5357 db3e 3f29 1e3d 005d 17bd 67bc 1e3e
00000270: f1cc 5b3e da91 e6bd 9886 8d3d e293 2dbe
00000280: 1c87 e9bd 102c 4cbe 9bba 21be 1afe 95bd
00000290: 8613 f03e e09e 29be a460 4ebe 9580 fabd
000002a0: 4ba5 273d 6077 06bd 3903 573d e479 7bbd
000002b0: 477b dbbb 696c 0d3d 41b4 b2be 8e7a 5c3e
000002c0: d94e 873e 0d84 bebe 3296 7b3d 97d0 103e
000002d0: 4199 07be bfde 31be 6150 68be f8d1 aabc
000002e0: 1728 b33c e2be 2e3d 122f c33d 8a5d 49bd
000002f0: c40c 013d b823 243e 7b8d 613f 1cc7 eabd
00000300: 141f 10be 0567 2d3f 7f5b a83b 1591 28bc
00000310: f8dd 06bd 3ec7 67bd 80d5 0ebd d723 7ebc
00000320: 5530 95ba ac21 af3d a75d 813d c869 bf3c
00000330: b51d 75bd 6efe 153c da66 963d 3665 93bd
00000340: dfbf 24bd 98a2 4a3e d720 893e a202 803d
00000350: 86b9 5fbe df59 4d3e 5197 33bf 02e0 333d
00000360: 2ec8 9b3e 9de5 b03e 4cff c53e 4f34 3d3e
00000370: 56d9 3abe 4cda 2bbd 60b2 b53d bc58 c63d
00000380: 9c6b 973e d3e9 163c 2e13 92bc 3e33 13bd
00000390: 7f0d 80bc 2c6a a7bc 764a f23b f82c 243d
000003a0: 585c 123c 1ade 383b 8230 a53c e7a3 4bbd
000003b0: 1807 ec3c 02a7 853d 8dad 89bb 71b9 54bc
000003c0: 57e4 213e 34dd 173e ea1a 883e 0b4d 7ebe
000003d0: 4ee0 53bf 4566 1bbc b88a 8b3e 7fc8 f1bd
000003e0: 7266 23bd ab96 f4bd 879d bdbb 6915 b4bc
000003f0: e2de 63bc ae32 71bb ac10 ac3e 8453 8a3d
-0.31881875 -0.043942187 -0.4075799 0.28374478 -0.15367103 -0.15859967 -0.015848728 -0.12764601
-0.08031774 0.17304127 -0.32047644 0.04241949 0.35711244 -0.1425221 0.7290572 0.054061007
0.0143329175 0.03746643 0.07596694 0.036906615 -0.031256553 -0.03993028 -0.043770984 0.072852835
0.2385314 0.02066872 -0.30050763 -0.01949202 0.08652631 0.23435076 0.33531207 -0.017861802
0.536554 -0.3126658 0.08609533 0.22598472 0.02403133 0.14105734 -0.045275073 -0.26483992
0.2882529 0.04604291 -0.35981998 0.17422834 -0.7134267 -0.069154814 -0.02231838 -0.0060620024
-0.08769866 -0.044615883 0.035357688 0.014732068 0.040831745 -0.0902006 -0.24122915 0.023963155
0.33933166 0.037105862 -0.058057636 -0.2626679 -0.08504153 0.16820034 0.05151944 -0.06646826
0.5318698 -0.099666245 0.008032188 -0.1842271 0.04198345 0.10471064 0.16231672 0.10628209
0.13350058 0.23698127 -0.3498738 0.02254065 -0.0064352406 0.016626604 0.0016785199 0.03903434
-0.046671048 0.079909965 -0.006799443 -0.038490444 0.23054065 -0.25446764 -0.30179143 0.23189215
-0.06337034 -0.1759534 -0.4618646 0.16114591 -0.2205766 -0.06634239 -0.27474985 0.046965476
-0.013324169 0.062415365 0.47022802 -0.21569978 -0.5606502 -0.15714435 -0.034415122 0.3915834
0.23748408 0.007561357 -0.06664871 -0.012725943 0.016117347 0.01063697 -0.0010720617 -0.0069409125
0.0062572663 -0.0028297794 0.07779572 -0.027461888 -0.008422397 0.15586153 -0.19558859 -0.13367975
-0.32444906 0.030248776 -0.19947799 -0.047804147 -0.3428034 0.1779012 -0.08089681 -0.009465273
0.2655361 -0.17315428 0.38838637 0.24173139 -0.12468579 0.13481575 0.2549962 -0.005120737
0.00010460065 0.062593274 -0.029753901 -0.018527498 -0.002406529 -0.02828648 -0.023348773 -0.023127083
0.051135708 -0.060633484 -0.09783984 -0.022323621 0.09173995 -0.33052015 -0.0018024234 -0.022044947
0.4284006 0.038613554 -0.036953926 0.15501557 0.21464898 -0.11258288 0.06910437 -0.16950944
-0.11402723 -0.19938684 -0.1579384 -0.07323857 0.46889895 -0.16564512 -0.20154053 -0.12231556
0.04092912 -0.03282869 0.052493308 -0.06139554 -0.0066980454 0.034527216 -0.34903148 0.21531126
0.26427343 -0.37210122 0.061422534 0.1414207 -0.13242055 -0.17370127 -0.22686912 -0.020852074
0.021869702 0.04266251 0.09530462 -0.04916147 0.031506315 0.1602925 0.8810651 -0.11463758
-0.14074355 0.6773532 0.0051378603 -0.0102884965 -0.03292653 -0.056586497 -0.03487158 -0.015511475
-0.0011382202 0.08551344 0.06316691 0.02336587 -0.059842784 0.009154899 0.07343836 -0.07197039
-0.040222045 0.19788587 0.26782867 0.06250502 -0.21848115 0.20053814 -0.70152766 0.043914802
0.30426162 0.3455018 0.3867134 0.18476985 -0.1824697 -0.04195623 0.08871913 0.096848935
0.29574287 0.0092110215 -0.017831411 -0.03593754 -0.015631435 -0.020436369 0.0073941303 0.040081948
0.008933149 0.0028208555 0.020164732 -0.049716856 0.028811976 0.06525995 -0.004201597 -0.012983666
0.15809761 0.14830476 0.26583034 -0.24834077 -0.82764137 -0.009484832 0.27254272 -0.1180582
-0.03989262 -0.119428 -0.005786601 -0.021982865 -0.01390812 -0.003680389 0.3360647 0.067542106

linear1.bias f4 [100]
00000000: 43be eb3d 49c7 f8bc 6a02 c93d bbc2 2cbe
00000010: 094a 963c 9499 733d 9bd1 13be d02b 013e
00000020: b357 123e 478f fc3c d0cb ee3d 15c9 fe3d
00000030: f202 2a3e bffa 03bd 5d46 88bc 534b 123e
00000040: b760 79bd b9c1 b53d 5428 1b3e fbfb b73d
00000050: be91 b53b 0d39 87bd a84a 26be 5498 0e3e
00000060: cde3 28be 112f 18be 35e5 533d f677 06be
00000070: 2750 c63d 6eda 303e b1c8 5dbd 4ce9 2f3e
00000080: 272c 1fbe ba4d 723d 8963 7f3c 2615 0d3e
00000090: 3fc4 0b3e 7dfb 64bc e316 02be a797 413c
000000a0: a162 5d3d 64a0 513b 64e9 c63d 3096 01be
000000b0: c340 c6bb 7e39 d13d a8ba dc3d 5410 2e3d
000000c0: c5a2 11be a893 8dbc 3413 a2bd dcfc d5bc
000000d0: 739b f0bd 032c edbd 9f49 5fbd 4422 6cbe
000000e0: 3f16 fb3d 72b8 a53d 7e77 94bd a6c8 b5bd
000000f0: 06e0 5d3d 3efb e9bd 382d cb3a b594 223e
00000100: d853 2fbe 8796 953d 451c 693d fbf5 313d
00000110: 5c58 dbbc c058 a83c 1acb 7f3c 834b a9bd
00000120: e3c2 8f3d 39b2 1c3e 28ca 2bbd c288 4d3d
00000130: 5808 cdbd c7df dfbd d3ee 2bbe 2e46 2ebe
00000140: b3d1 93bd 9fa0 863d 6cad c0bd b6e1 16be
00000150: 9727 17be a28f 1dbe 8f6e 3dbd ac69 3fbd
00000160: f212 dbbc d95f 97ba 7af6 a43d 8f03 253c
00000170: dafe a33d 869e bb3d 77c8 3ebe 889c 2d3e
00000180: c300 0bbe 1fac abbd 8ce6 09be eb56 563c
0.11510899 -0.030368464 0.098149136 -0.16871159 0.01834585 0.059472635 -0.14435427 0.1261437
0.14291267 0.030830039 0.11659968 0.12440697 0.16602686 -0.032221552 -0.016635114 0.14286546
-0.06088325 0.0887484 0.15152103 0.08983608 0.0055410555 -0.066026784 -0.16239417 0.13925296
-0.16493149 -0.14861704 0.05173226 -0.13131699 0.096832566 0.17270824 -0.054146472 0.1717884
-0.15544187 0.059156157 0.015587696 0.13777599 0.1364908 -0.013975975 -0.12704043 0.011815942
0.054049138 0.003198647 0.097124845 -0.12654948 -0.0060502007 0.10216044 0.10777789 0.04249604
-0.14222248 -0.017282322 -0.07913819 -0.02612155 -0.117483996 -0.1158066 -0.05451357 -0.23059946
0.122601025 0.08091821 -0.07249354 -0.08876161 0.054168724 -0.11424874 0.0015501147 0.1587704
-0.17121828 0.073041014 0.056911726 0.043447476 -0.026775531 0.020550132 0.015612388 -0.08266356
0.070195936 0.15302362 -0.041940838 0.05017925 -0.10011357 -0.10931354 -0.16790323 -0.17018959
-0.07217731 0.06573605 -0.094080776 -0.1473454 -0.14761196 -0.15386823 -0.046248015 -0.046731636
-0.026742432 -0.001154895 0.08054824 0.010071649 0.080075935 0.09161095 -0.18631159 0.16954243
-0.1357451 -0.08382439 -0.13466853 0.013082246

bn1.weight f4 [100]
00000000: d421 243f 3e6c 2d3f dabe 073f 9974 723f
00000010: 432d 613f 353e 183f 3d6c 1e3f 8651 aa3f
00000020: e181 293f 0300 183f f56f 823f f3d1 9e3f
00000030: b01d a43f 990d 223f bc59 a33f 7efc 413f
00000040: ac5e 283f 0d30 023f 1ca1 a23f 5c0e 093f
00000050: 2e71 8a3f 3f73 4f3f 7c1f 853f e20e 2e3f
00000060: be75 a83f fef4 853f 74c3 233f cd08 903f
00000070: 6d83 933f e72b 203f 5fd3 fd3e 4b5c 0e3f
00000080: be96 903f 7cc6 9b3f 779b 673f cf62 503f
00000090: 7bbe 323f 783e 583f cac9 8c3f 5c0d 073f
000000a0: a274 8a3f efaf 993f 055f 053f cbd9 323f
000000b0: c309 173f a4cb 683f 3711 733f 721c 973f
000000c0: fcfc 9e3f c9ee 593f c046 543f c5ff 9b3f
000000d0: 6392 8d3f d225 313f d2d6 513f 37c8 b63f
000000e0: fc1f 863f e05b 6a3f 6ddf 9f3f b480 443f
000000f0: 7314 953f eabc f53e 9262 613f 101f 363f
00000100: 0d83 883f 7fe0 583f 617e 4c3f 1f89 003f
00000110: 6d39 213f f5a1 883f 349b a63f 9649 0b3f
00000120: a3bf 253f 0c4c ff3e 4061 2d3f 04df 453f
00000130: c1a8 9b3f ed30 003f 63aa 263f 9ea9 663f
00000140: 2edc 333f 6a7c 523f c08e 493f 4402 553f
00000150: e653 213f 8efe 623f 7eff 423f 38ff 363f
00000160: 1d2f 873f 930a 8d3f 22c8 353f d376 973f
00000170: 3aec 1d3f 5379 293f 1da1 273f c58c 0f3f
00000180: 42d0 303f 5acd 183f 64a6 223f 3530 9e3f
0.6411412 0.6774329 0.5302559 0.94709164 0.8795969 0.5946992 0.6188391 1.3306129
0.66213804 0.5937502 1.0190417 1.2407821 1.282156 0.63302 1.276176 0.757759
0.6576946 0.5085457 1.2705417 0.53537536 1.081579 0.81035227 1.0400233 0.6799146
1.3160932 1.0465391 0.6397011 1.1252686 1.1524483 0.6256699 0.49575326 0.5560958
1.1296003 1.2169948 0.90471596 0.8140077 0.698219 0.8447032 1.0999081 0.5275476
1.0816844 1.2006816 0.52098113 0.69863576 0.5899927 0.9093573 0.9494814 1.1805556
1.2420955 0.8512998 0.82920456 1.218743 1.1060299 0.69198334 0.81968415 1.4279851
1.0478511 0.9154644 1.2490059 0.76758885 1.1646866 0.47995692 0.8804103 0.7114115
1.0664994 0.84717554 0.7988034 0.5020923 0.6297825 1.0674425 1.3016114 0.5440916
0.6474554 0.49862707 0.67726517 0.7729342 1.2160875 0.50074655 0.6510374 0.90102565
0.7025784 0.8222109 0.78733444 0.8320658 0.63018644 0.8866967 0.761711 0.7148318
1.0561253 1.1018852 0.71008503 1.1833137 0.6168858 0.6620075 0.65480214 0.5607417
0.69067776 0.5968834 0.6353514 1.2358462

bn1.bias f4 [100]
00000000: 9014 8c3c 3e92 91bc 4292 d0bc 00d7 2e3e
00000010: 2388 b2bd e4e0 323d 1f8d 343f e8f8 993d
00000020: 7fd4 bb3e 12b1 f83c 19e5 2f3e 04d4 2b3f
00000030: 685d e33c 6672 68bb 7c2e 783e d7b4 8a3e
00000040: 2fa6 6cbc 0497 f43e 2a02 e3bc a6b1 903d
00000050: 757f d13e 06b2 37be ef68 883e ed48 93ba
00000060: 6ddb 06be e6d7 083e 1b2a 8abd 0716 c23e
00000070: 9c4e cdbd 8490 663c df76 5ebb 163e 0f3d
00000080: f596 f33d dc13 e23e cf7b d23e add3 923d
00000090: 200f d43d 6250 913e c32c 8a3e a69c 923d
000000a0: 66cb 023e e670 6a3e 26b3 c6ba 1002 933f
000000b0: ade5 e03f fcf5 833e e01d c73e 64eb 123e
000000c0: 3366 e0bd 03da 123e 3f5f f63e 3f29 a63c
000000d0: 5cf7 a13d be18 afbb 5401 5a3f e52b 283d
000000e0: 148c 343e d024 ba3d 03a0 0a3e 24ea 0bbe
000000f0: 25dd 513d 7315 7cbb 3a37 c1bd 51de 013e
00000100: f2df f03c 7396 b43e 24f9 743e 1285 f73f
00000110: e037 99bd 6403 093c f9a8 753e f89e e03e
00000120: a395 863c b1f6 d9bc d36c 8abd b390 d33d
00000130: 426a f93c f623 5cbc d402 663e 4c20 0a3e
00000140: 13f1 68be b7ee 143e 9ece ea3d 79af a23e
00000150: e6e9 95bd d4ca 573d b701 fbbd f20d 243e
00000160: b426 3f3e 428e 983d f8f7 6d3d d437 fd3d
00000170: d21d 2f3f 215a 0abb b2a8 ad3d f00d ad3f
00000180: 0fac 2c3c 24da 423c 00c2 a03d 29fd 4a3e
0.017099649 -0.017769929 -0.025460366 0.17074203 -0.08717372 0.043671504 0.70527834 0.07518178
0.3668556 0.030357871 0.17177238 0.67120385 0.0277545 -0.0035468577 0.24236482 0.27091095
-0.014443918 0.47771466 -0.027710993 0.07065134 0.40917554 -0.17939004 0.26642558 -0.0011236944
-0.13169642 0.13363609 -0.06746312 0.3790743 -0.10024759 0.014072541 -0.0033945364 0.03497132
0.11894027 0.44155777 0.41110083 0.0716928 0.10354447 0.2838164 0.26987275 0.071587846
0.12772903 0.2289463 -0.0015159592 1.1485004 1.7570091 0.2577361 0.3888998 0.14347607
-0.10956993 0.14340977 0.48119542 0.02028334 0.07908508 -0.0053435257 0.85158277 0.041057486
0.1763156 0.09089053 0.13537602 -0.13663536 0.05123629 -0.0038464933 -0.09434362 0.12682463
0.02940366 0.35271034 0.23923165 1.9337485 -0.074813604 0.008362625 0.23990239 0.43871284
0.016428774 -0.02660689 -0.06759038 0.103303336 0.030446175 -0.013436308 0.22462016 0.13488883
-0.22748213 0.14544187 0.1146519 0.317745 -0.07320003 0.052683666 -0.122561865 0.16020945
0.18667108 0.074490085 0.05809781 0.12364164 0.6840488 -0.002111085 0.08479442 1.3519878
0.010539069 0.011892829 0.078495026 0.19823135

bn1.running_mean f4 [100]
00000000: 3b6b d33e c871 b3be 593f 033e 8399 8dbe
00000010: 154d a53c d125 503c 4633 573d a5a5 323e
00000020: 4de4 c93c 8ea4 b4bd dfa3 633d e0a3 9bbe
00000030: 51a5 1e3e 19a6 a43c 82a7 b9be c142 8e3e
00000040: 8606 febd 7c2e adbc aa9e 8bbd c0a5 c43d
00000050: 2371 85be e5b2 38be 5c95 793d 8f15 c63d
00000060: 82e5 efbe 3d65 7bbe 8770 423e d544 a8bd
00000070: eceb 33bd 6e5b df3e f659 ed3d 25ee 2c3e
00000080: 6606 ebbb a061 1c3e 65b8 743e 2862 e53d
00000090: adcb 193e 2783 453e 2065 663d 356b a63c
000000a0: 9e21 943e a18a 1f3e 387a 213e 1c6f cbbe
000000b0: d5f6 00be ed7d 643e f14d aebe eea9 693e
000000c0: 1323 be3b 120f eb3d cc2d aa3d 0393 52be
000000d0: be77 f0be dd8d a5be ebaf 673e 477c 87be
000000e0: 108f b6bd f6f5 763e c847 bfbd 5501 61be
000000f0: 1d4f b93e 99ad 43bd 3618 32be a690 043f
00000100: a6aa 81be 70b2 b23e 776e 92be 2307 0c3a
00000110: f97b b6bd e310 833d 534d 00be 846a e8bc
00000120: 9aba 443e d763 853e 1af1 f83c 9222 d1bc
00000130: 3e32 e2bd 3fdc 323c 8658 0dbe a5dd 99be
00000140: 71db f63d 6fe0 ed3d 09ee 1cbe 798d 83be
00000150: eef8 b2bd bf90 2ebe ffbb f3bd bd0d 073e
00000160: ff0e 863e 395d d6bd 0488 6b3d 27dc 6d3e
00000170: 7de6 67bd 721b e13d f520 93be b7f8 c43d
00000180: 650b 9b3d 3c3c 28be 9e39 77bd b764 9dbd
0.41292748 -0.35047746 0.12817134 -0.27656183 0.020178357 0.012704329 0.052539133 0.17446001
0.024644995 -0.08820449 0.0555762 -0.30398464 0.1549275 0.020098733 -0.3626061 0.27785304
-0.12403588 -0.02114033 -0.06817372 0.09601927 -0.2606288 -0.18036993 0.060933456 0.09672081
-0.46854788 -0.24550338 0.18988238 -0.08216254 -0.043926165 0.43624443 0.11589424 0.1688772
-0.0071723936 0.15271616 0.23898466 0.112003624 0.15019102 0.19288312 0.056248784 0.020314792
0.28931898 0.15580226 0.15769279 -0.39733207 -0.12594159 0.22313662 -0.3404384 0.2281873
0.005802521 0.11477484 0.08309516 -0.20563893 -0.46966356 -0.32334796 0.22625701 -0.26462004
-0.08914006 0.24117264 -0.09339863 -0.21973164 0.3619317 -0.047772978 -0.17392048 0.51783216
-0.25325507 0.34901762 -0.28599903 0.00053416396 -0.08910365 0.06399705 -0.12529497 -0.028371103
0.19211808 0.26052734 0.030388404 -0.02552918 -0.11044739 0.010916769 -0.138033 -0.30051914
0.12053574 0.11615073 -0.15325178 -0.25693873 -0.08738886 -0.17047404 -0.11901092 0.13188834
0.26183316 -0.104669996 0.05750276 0.23228513 -0.056616295 0.10991563 -0.28736082 0.09617751
0.07570533 -0.16429228 -0.060357682 -0.076852255

bn1.running_var f4 [100]
00000000: 7ed0 8a3f 18b2 c93f b43a 863f c8ac 363f
00000010: 079b 9c3e 2157 893f 7727 f93e 8791 5e3f
00000020: cbc8 653e 1232 933f 997a 5a3f f8d0 073e
00000030: f573 f33e dcae b13f 0a3b 893f 18f3 933f
00000040: 6811 a040 2c25 db3e a393 a43d f08c 0b40
00000050: 0d8b 573f 0bc2 903e dba4 3b3f 9467 ac3f
00000060: 85ec ce3e 8d11 4f40 f9df ce3f 6a0b c23e
00000070: d69c b03f ab9a 8040 a5f2 1c3f 3e3d ec3f
00000080: fb33 4c3f 02b9 993e 5358 7a3e 79c4 b23e
00000090: 83af 143e 5ae4 0d3e c148 5d3e 3e4c fd3f
000000a0: 0dbc ac3f b317 1a40 74c4 3a3e 1a4a 2b3d
000000b0: 5026 a23d ee87 bb3f 600a fd3d c3de a43f
000000c0: f766 263f 7ca1 ff3e fcab 563e 7f64 ec3f
000000d0: af1f e83e ccc6 f53f 01c2 1e3f 2194 243e
000000e0: 1a14 8d3d 01e1 933f 0ae0 963e 3630 c43e
000000f0: 87ad b23f ed87 c83f 796f ba3f aacb 833e
00000100: e886 593f af38 9d3f 0a73 813e 139f ab3e
00000110: 25e3 263f 864c 943f 4090 803f 5f0d 4b3e
00000120: 2314 863f 0324 d03f aba2 963f a951 8e3e
00000130: 2dcb 813e f942 623f 12ee 3e3f 76bc 7a40
00000140: 5fde 953e 7948 7b3f a681 e33e 4994 fd3e
00000150: 3476 6840 0ab5 ce3f 4b4a 9d3f 0242 d83e
00000160: 0b0c 823f 1088 f43f 135b 6840 850a 803f
00000170: 98a1 8e3e e0f3 803f 379f 9c40 856e db3d
00000180: 3e04 cf3f 1497 6d40 bf9e 033f cad5 3a3f
1.0844877 1.5757475 1.0486665 0.71357393 0.30587026 1.0729715 0.48662922 0.8694081
0.22439878 1.1499655 0.8534332 0.13263309 0.47549406 1.3881488 1.0721142 1.1558561
5.002125 0.42801797 0.08035972 2.1804771 0.8419655 0.28273043 0.73298424 1.346911
0.40414825 3.2354462 1.6162101 0.37899333 1.3797863 4.0188804 0.61307746 1.845619
0.79766816 0.30023962 0.24447756 0.34915522 0.14520077 0.1385664 0.21609785 1.9788892
1.3494889 2.4076965 0.18239003 0.041818716 0.07917464 1.4650857 0.123554945 1.2880481
0.6500086 0.4992789 0.20964044 1.8468169 0.45336673 1.9201293 0.62014776 0.16072132
0.068886 1.1553041 0.29467803 0.38318032 1.3959206 1.5666481 1.4565269 0.2574132
0.84971476 1.2282923 0.2528308 0.33519801 0.65190345 1.1585853 1.0044022 0.1982932
1.0474895 1.626099 1.1768392 0.27796677 0.25350323 0.8838344 0.74582016 3.9177527
0.29271218 0.9815746 0.4443485 0.49527195 3.6322145 1.6148999 1.2288297 0.4223786
1.0159925 1.9104023 3.6305587 1.000321 0.2785766 1.0074425 4.8944354 0.10714439
1.617317 3.712346 0.514141 0.72982466

linear2.weight f4 [200, 100]
00000000: 4362 0e3d 75dd 2dbd c1f5 4a3c 139d 62bd
00000010: 9063 6fbd ad8d 903d 3583 bebd a2ed b0bb
00000020: 9f2e 08bc 0720 513c 3eef ad3c 97b8 84bd
00000030: 32a6 af3d 2173 82bd 30aa 013e d728 cfbd
00000040: 4406 7abc 44f2 39bd ebd0 183c d71d a03b
00000050: ac29 debc 0494 79bc 79ec f3bc 0344 403d
00000060: 1f91 ebbc 2e19 b7bd 477e 213c 108b 3bbc
00000070: ad33 373d ca3d 8dbc b417 363c d665 e1bc
00000080: 597a 1f3e 920b dfbb 58c3 2ebe 8f76 c33b
00000090: 680c be3c d80e 0ebb 5ba4 773c 98fb b03b
000000a0: 95cf 55bd 9caa 0f3e 8f6e 83bd 3d36 9cbc
000000b0: aa05 a5bc 4117 c1bd b434 a4bd e656 1bbe
000000c0: 1602 8f3d a90b 4e3d d74b a7bc 26fc 363e
000000d0: f542 e83c 7049 a03c 2138 26bc edd3 b73c
000000e0: b863 a4bd 544b d5bc 7320 563c e62f e2bb
000000f0: 953d 483a 448b 033d 6d44 1a3c 3ca7 2dbd
00000100: 7bd1 efbc 971c bdbb 701c 8b3d aa10 143e
00000110: 97fe b83b a776 0ebc d7b3 04be 1c4e 843b
00000120: 5fdd 97bd df75 a8bc d9e4 d7bd 6d18 893c
00000130: eea7 79bb 9b78 6cbd 6c7a bdbc 076d a73d
00000140: ecb1 a9bb 4082 c63d bc83 89bd 9ff3 ffbc
00000150: d735 573b b7f4 bd3d 7c3e 3ebd 62ae 2c3d
00000160: 9fcc 8b3d 4528 963d 4a3d b63d b6da ca3c
00000170: 90ae 75bc 22aa 163d 3af7 d53c ac60 593c
00000180: efe8 adbc f251 1f3d acfd d9bb 95a4 7d3d
00000190: af96 eabc 886a 873d e329 a6bd 0e1e 933d
000001a0: 11c7 973d 5538 c4bc c8d3 f0bb efb4 043b
000001b0: 6941 e1bc 5e45 3d3c 8a11 b2bd ca00 4cbd
000001c0: b2df b9bd 5ffe ee3d 863a 96bd f086 5e3d
000001d0: fc09 1d3c 9d61 633d d6f4 4ebd ec5c 2cbd
000001e0: c567 c5bc 8ed5 a3bc ddc1 7fbd ba84 98bb
000001f0: 1f97 1bbd 987e 51bd c192 763d 55a2 17bd
00000200: 65ed 3cbe 1d1f b7bd 2e07 80bd e217 e33c
00000210: af12 043d d8cd 84bd c01b 7abd 2274 e1bd
00000220: ba75 f53b 7bad 89ba 766f bcbd 20a9 963c
00000230: 28c5 8c3d 4e83 243d 6641 9a3d ae7c ff3b
00000240: 61b5 513d 8b0a fabc 861c a6bd fbe9 18be
00000250: 96c9 d23d 6153 c6bd ee84 febc 2944 82bd
00000260: 8818 3dbd fad5 fe3c fb2e bd3a a51f 623d
00000270: b5a7 cfbd 138b a4bc 0333 7fbd 9b7f 353d
00000280: 0786 83be 73ad 45bd c5ba 793c 71ef 2a3c
00000290: dc16 ea3d 92cf 9dbd 67fe 22bd c229 08bd
000002a0: 1213 46bc e516 403d 83e2 bf3d 32af b03c
000002b0: 2f2e a13c 7d51 b33d 98a9 df3c 44fa a7bc
000002c0: 01e2 c3bd b482 9e3c dd64 0cbc 16aa a7bc
000002d0: dfcd 1e3d 9c37 f0bc a7ec bc3c 1f4f 223d
000002e0: 88f7 4b3d 7853 c23d e220 103d 06a9 783b
000002f0: b827 413d 9a3f dcbd 77ef 59bd febe d4bc
00000300: edb8 b7bb 4d22 aabd 6d20 24bd 830e 073e
00000310: ac51 c4bb 6eac 183c 6896 2e3d 8c1d cdbd
00000320: 704b 3c3c 9e8a b7ba f9fb 79bd 68b7 80bc
00000330: eacf 773c d2b0 19bc a3c2 0d3e ce99 0a3d
00000340: 68e7 743d 2bcd 293d f90d 05be 837c fb3c
00000350: ebab b1bd 4c5d 90bc e5b3 cd3c 7e57 36bc
00000360: 7ead c5bc eaae dfbc 950c 4bbc 2361 b93c
00000370: 63a7 80bd 2a01 1a3d 46d8 4b3d e8be adbb
00000380: 109a 3b3d 8d0e c43d 92dd 783d 1a73 c73c
00000390: b618 b23c b47f 7bbc 1dfe 04bd 2fdb cebd
000003a0: 92b6 6a3c 60ec ec3c 60ed 803d 7b51 0d3d
000003b0: 0488 4dbd 4fa1 9abd b304 043d 22c6 23bd
000003c0: 82cb ed3d 7158 fabc a198 06bb c6e6 e3bb
000003d0: c72b babc 015e d13c 47a7 343d a2e0 593c
000003e0: 7cf3 0d3c 8b98 58bd 3f9f 773d d7c9 30bd
000003f0: f41d cbbc 8771 3cbc 314d e33b c9a8 0ebf
0.03476168 -0.042447526 0.012387694 -0.05532558 -0.05844456 0.070582725 -0.093023695 -0.005399422
-0.008311897 0.012763984 0.021232244 -0.0648052 0.08576621 -0.06369615 0.12662578 -0.101152115
-0.015260283 -0.045397058 0.009327154 0.0048863697 -0.02711948 -0.015233044 -0.029775845 0.04693986
-0.028755723 -0.089403495 0.009856767 -0.011446729 0.044727016 -0.017241377 0.01111405 -0.02751438
0.15574016 -0.006806799 -0.17066705 0.005965061 0.023199275 -0.0021676328 0.015114869 0.005401086
-0.05219992 0.14029926 -0.06417572 -0.019068832 -0.020144302 -0.094282635 -0.08017865 -0.15169868
0.0698282 0.05030409 -0.020421905 0.17869624 0.02835224 0.019566268 -0.010145218 0.022439921
-0.08026832 -0.026036896 0.01306926 -0.0069026826 0.0007638571 0.032115236 0.009415728 -0.042395815
-0.029274693 -0.0057712304 0.067925334 0.14459482 0.005645584 -0.008695281 -0.12959228 0.0040376317
-0.0741527 -0.020564018 -0.10541696 0.01673528 -0.0038094479 -0.057732206 -0.023129664 0.08175092
-0.0051786806 0.09692812 -0.067145795 -0.031244097 0.0032838488 0.09275191 -0.04644631 0.042158492
0.06826138 0.073318996 0.08898409 0.024762493 -0.014995232 0.036783345 0.026118863 0.013267677
-0.021229235 0.03889651 -0.0066525545 0.061924536 -0.028636305 0.06612116 -0.08113458 0.07183467
0.07411016 -0.023952642 -0.007349465 0.0020249446 -0.02749701 0.011552183 -0.086947516 -0.04980544
-0.090758696 0.11669611 -0.07335381 0.054327905 0.0095849 0.055513013 -0.050526462 -0.042080805
-0.024097333 -0.019999292 -0.06244074 -0.004654494 -0.037985917 -0.05114612 0.06019855 -0.037020046
-0.18449934 -0.08941481 -0.062513694 0.02772135 0.03224438 -0.06484574 -0.06106162 -0.11008479
0.0074908407 -0.0010503972 -0.09200947 0.018391192 0.06873542 0.040164284 0.07532005 0.0077968454
0.051198367 -0.030522605 -0.08110909 -0.14933006 0.10292356 -0.09683872 -0.031069245 -0.06360657
-0.046165973 0.031107891 0.0014433557 0.05520596 -0.101394095 -0.020085847 -0.062304508 0.044311147
-0.25688192 -0.048261117 0.015242283 0.010433064 0.11430141 -0.077056065 -0.0397934 -0.03324295
-0.012089508 0.046896834 0.093693756 0.021567915 0.019675342 0.08755777 0.027302548 -0.020505078
-0.09564591 0.019349433 -0.00856897 -0.020466845 0.038770553 -0.029323392 0.023062063 0.039626237
0.04979661 0.09488577 0.03518761 0.0037942543 0.04715702 -0.107543185 -0.053206887 -0.025969978
-0.0056067617 -0.083073236 -0.040069986 0.1318913 -0.0059911814 0.009318454 0.042623907 -0.10015401
0.011492595 -0.0014003103 -0.061031315 -0.015712455 0.015125254 -0.009380536 0.1384378 0.033838086
0.059791 0.04145543 -0.12993611 0.03069902 -0.08675369 -0.017622612 0.025110194 -0.011129258
-0.02413058 -0.027305085 -0.0123931365 0.022629326 -0.062819265 0.037598766 0.0497668 -0.005302299
0.045801222 0.09573088 0.06075818 0.024346877 0.021740299 -0.015350271 -0.032468904 -0.101004
0.014325755 0.028921306 0.06295276 0.034501534 -0.050178543 -0.075502984 0.032231044 -0.039983876
0.11611082 -0.03055975 -0.0020537751 -0.0069550006 -0.022725953 0.02555752 0.04410484 0.013298186
0.008664008 -0.05287985 0.060454603 -0.04316124 -0.024794556 -0.011501676 0.006936692 -0.55726296

linear2.bias f4 [200]
00000000: fb8a 9f3c d736 903d 0340 993c 1ae4 e3bd
00000010: e05a 47bd eee9 433d 3ab9 993d a02d 813c
00000020: ae9c a43c 94cb 603d 03da ab3d ce23 34bc
00000030: 042e 963d 71de 3a3d a0e3 203d 0aea 82bd
00000040: 1876 88bd 5bab 39bd 4c87 e13d af5c 583d
00000050: 44d4 b5bd 795d 643b 3bfa 6f3d e0c7 a7bd
00000060: d7d3 903d cc2f b83d 449b 56bd a9e8 46bd
00000070: 4f2c c0bc 0f1b 58bd 4251 60bc 2c77 fd3c
00000080: b5cf 00bd b095 6cbd e7e0 b83d b190 c6bd
00000090: 0f68 e7bc ff6f c0bc 2d6a 6cbd 506f d0bc
000000a0: 05f7 0e3d 95b6 d1bd c665 86bd 8cc9 a6bd
000000b0: de17 1d3d 8ec0 a13b 25d6 0abc bdb9 983c
000000c0: 17ff 8a3d afcc 0e3d 18a9 1abd 46b8 8abd
000000d0: 2a30 8cbd 3096 cd3c acde 63bd d957 e5bc
000000e0: f2e9 0dbc 4579 1fbd cf36 8fbd 941e 79bd
000000f0: eb09 8b3d 927e 9bbb af35 1ebd 6153 c6bd
00000100: e8df 04bd 8e54 97bd 627c b13c 14d4 9ebd
00000110: ef38 4ebd 1e24 e63d 2401 183d cc69 f43a
00000120: 172c 79bd 6bc6 863d eb9f d93b a96b 87bd
00000130: 755a 29bc 3dcc aebd 82c1 963d 2300 dbbd
00000140: 70ea 773d c214 4fbc 3371 cd3d 7686 c9bd
00000150: 71fe 07bd 61a0 643d 4dd1 f4bc 34ed 443d
00000160: 7c56 b6bd 78e7 14bd 8a8f 1dbd c891 9eba
00000170: 3a94 7e3c f372 1dbd c53e 95bd 9446 b0bd
00000180: ba86 0ebc 1ca9 e7bc 3136 56bd 0e4c d3bc
00000190: d23b 3fbb 99b3 263d c6ee 8c3d b7d5 dbbd
000001a0: 1ccb ef3d 7af2 22bc 45b3 3b3d 4d6c 3fbd
000001b0: 3a78 dbbc 7717 b3bd 32e1 aabc 829c 5b3b
000001c0: 9614 6a3c 54e3 813c 5467 4bbd ee5b 873d
000001d0: e961 ea3b b569 3dbd 5639 46bd 27b9 143c
000001e0: a509 233d d0c3 323c a011 5d3d 0992 733c
000001f0: c9d9 833c 41c4 50bd 1edf 90bd 42a9 c7bc
00000200: 8b69 b13d 7a3c be3c 52d2 93bd 12eb 07bd
00000210: 9b28 6b3d a0c8 a1bd 80f1 d93c e320 f6bc
00000220: 20aa 6bbd 7a1b c73d ccad 80bd 85e3 c63d
00000230: 7893 09bd 0f72 5ebd 2f56 933d c31b a53c
00000240: f9a7 473d eb70 60bd 41ec 13bd d0b5 443c
00000250: eb3f 3e3d a8cf 3dbc 0a5b cebd e416 6d3d
00000260: 6db4 bc3d 1a90 f63b c5c4 243d 99d7 3abd
00000270: 575c 823d 2235 01bd 280e b73d 095c 8cbc
00000280: 02c4 3ebc bde2 77bd 71ee 12bc c869 7bbc
00000290: 8847 c43d f8d7 23bd 7a4c 14bd 8c37 d8bd
000002a0: ba2c d53d 26c2 14bd c558 e0bd 40e3 153d
000002b0: 7659 a3bd 4a37 0bbd 090a 59bb 84ca 0b3d
000002c0: 76a4 8fbd cf1d 8bbd dd15 403c b5d5 d43d
000002d0: 1786 c8bb 37a2 bd3d 6733 853d 943b 7a3d
000002e0: 3224 c63d 8050 24bd 2b5b f7bd d4c7 da3d
000002f0: 8d3b 6a3d 3a44 873d d46a 8fbd 11f3 bcbd
00000300: f56a fa3c dc32 423d d7f9 c0bc 8bee 9d3d
00000310: 5343 b53d 9882 a7bd 20ff f03c ccce 0bbc
0.01947545 0.0704171 0.018707281 -0.11127491 -0.04867065 0.047830515 0.07506032 0.015768826
0.020094242 0.054881647 0.08391192 -0.010994865 0.073329955 0.045622293 0.03927958 -0.06392296
-0.066631496 -0.045329433 0.11012134 0.052822765 -0.08878377 0.0034845753 0.058588248 -0.0819242
0.07071655 0.089934915 -0.052394167 -0.048561726 -0.023458628 -0.05276018 -0.013691248 0.030940615
-0.031448085 -0.05775994 0.09027272 -0.096955664 -0.028247861 -0.023490904 -0.057718445 -0.025443703
0.034903545 -0.10239903 -0.065623805 -0.08143911 0.03835284 0.0049362844 -0.008473908 0.018643254
0.06786936 0.03486317 -0.037758917 -0.067734286 -0.06845124 0.025096029 -0.05563228 -0.02799599
-0.008661734 -0.03893401 -0.06992876 -0.060820177 0.06789001 -0.004745313 -0.038625415 -0.09683872
-0.032440096 -0.073891744 0.021665756 -0.077552944 -0.050347265 0.112373576 0.037110463 0.0018647253
-0.060833063 0.06580814 0.006641378 -0.066123314 -0.010336508 -0.08535049 0.073611274 -0.106933855
0.06052631 -0.012639226 0.10031357 -0.098400995 -0.03320164 0.05581701 -0.029884959 0.048077777
-0.08903214 -0.03635356 -0.038466968 -0.001209789 0.01553827 -0.038439702 -0.07287363 -0.08607212
-0.0086991135 -0.02827888 -0.052297775 -0.025793102 -0.0029179943 0.04069862 0.0688148 -0.10734122
0.11708662 -0.009945506 0.04582526 -0.046734143 -0.026790727 -0.0874471 -0.020859335 0.0033510034
0.014287135 0.015855469 -0.04965909 0.06609331 0.007152785 -0.04624339 -0.048394524 0.009077347
0.03980412 0.010910943 0.053971887 0.01486636 0.016095059 -0.050968412 -0.07073806 -0.0243727
0.08662709 0.023222197 -0.0721785 -0.033183165 0.05741177 -0.07899594 0.026604414 -0.030044978
-0.05753529 0.097220376 -0.06283149 0.09711365 -0.033587903 -0.054307994 0.071941726 0.02015484
0.048744176 -0.054795187 -0.03611398 0.012006238 0.046447676 -0.011585154 -0.10075958 0.05788316
0.09214101 0.0075245025 0.040226717 -0.045615766 0.06365269 -0.031544812 0.08938247 -0.01713373
-0.011643412 -0.06051897 -0.008967982 -0.015345044 0.09583956 -0.040000886 -0.036205746 -0.1055747
0.104089215 -0.036317967 -0.109544314 0.036593676 -0.07976048 -0.033988275 -0.0033117554 0.03412868
-0.0701379 -0.06792795 0.011723963 0.10392324 -0.0061195004 0.09259456 0.06503945 0.061091974
0.096748725 -0.040115833 -0.12077936 0.106826454 0.0571857 0.0660481 -0.07002798 -0.09226049
0.03056858 0.047411785 -0.023556633 0.07711514 0.08850732 -0.08179206 0.029418528 -0.008533191

bn2.weight f4 [200]
00000000: c814 5a3f b3e3 723f 659d 713f b9cc 973f
00000010: 5d39 713f 4c57 8e3f 5a3a 5a3f f2a7 4b3f
00000020: a2ed 223f fbfe 993f aa77 3b3f 4424 883f
00000030: df18 553f a44b 833f 3083 763f eedf 6b3f
00000040: e036 703f d157 503f 056c 6c3f 48f4 703f
00000050: a2c7 7b3f 0e3c 613f 9b7a 6d3f 152b 823f
00000060: 474e 863f f9ae 843f 532e 083f e9c7 7d3f
00000070: c128 733f 44d3 6e3f 5829 033f 41d7 8c3f
00000080: 2128 923f 0773 303f 522f 8d3f 6595 703f
00000090: c5e0 7d3f 0602 803f bfdd 4c3f 701c 823f
000000a0: 690b 733f da53 743f 066a 7f3f 0bb0 543f
000000b0: e439 813f 7194 703f 80a7 513f 0201 823f
000000c0: 85b0 263f 5f49 7e3f d127 483f f40a 713f
000000d0: b52e 8d3f e626 783f 8f2e 903f 02c4 763f
000000e0: 3d17 393f 540c 4b3f 42b4 743f a9e1 713f
000000f0: 7f84 713f 1869 7b3f ea41 873f e3cf 303f
00000100: 9080 763f db43 843f 3cb7 293f 1e1a 8e3f
00000110: 1076 673f 669a 8c3f 332c 4e3f 575e 833f
00000120: ef63 6d3f a242 2d3f 5f21 903f e48d 393f
00000130: 0b9e 7f3f be27 6c3f aae9 493f 0247 903f
00000140: 6a80 2f3f 0f48 813f b704 773f e136 953f
00000150: 7cd0 5f3f cd68 833f 442c 7f3f 524d 423f
00000160: 3db0 6b3f 4000 8d3f b5cb 283f eb0e 673f
00000170: ff2b 733f babf 333f 06b3 843f f086 843f
00000180: db5d 8f3f 81df 3b3f 8dd1 563f 3ee0 973f
00000190: e67d 723f 22c4 813f e653 7a3f 8aa9 433f
000001a0: 57ca 6f3f 6cf8 4e3f 2ccb 793f fa10 713f
000001b0: 49ea 423f acc1 613f 788f 6c3f 68b5 813f
000001c0: b684 563f 4222 883f 238b 2d3f c219 833f
000001d0: 1b18 6d3f 4eb0 5a3f 21a1 0a3f 43c2 803f
000001e0: d7b9 633f 3655 813f c3f7 6c3f 8ae8 883f
000001f0: 8b33 383f 3039 313f eec6 6c3f 8337 4a3f
00000200: 6777 793f cd51 853f 3203 803f b13e 733f
00000210: 8a3c 713f 765a 733f 7e41 7a3f 036e 803f
00000220: 7308 7d3f edc9 753f 60ba 563f 4dec 923f
00000230: 8e83 7f3f d94b 773f e279 643f ca6f 823f
00000240: 15b0 833f 48b0 783f 5115 4d3f 934f 893f
00000250: 56f3 4a3f 9c6c 633f 5ebf 4d3f e374 6f3f
00000260: 1236 483f 0bcc 493f 1257 853f 1b56 483f
00000270: 3555 7f3f bc5f 8d3f 4360 323f ce4d 643f
00000280: 7273 8a3f 24a8 3b3f 3c3f 523f 65b1 663f
00000290: 7479 513f 98a3 733f cdeb 8d3f b153 563f
000002a0: 05cc 513f 6807 4d3f 10f6 203f 6cd3 523f
000002b0: 1e7e 833f 348d 5f3f 9c76 4c3f 8e70 883f
000002c0: e1fa 593f 2294 333f 0123 743f 4bd3 5d3f
000002d0: d74c 863f dad9 533f 38c1 673f 462c 8d3f
000002e0: 36bd 623f 480b 433f 3684 843f 05e2 723f
000002f0: bc1c 5c3f 4e24 813f 3017 873f d665 923f
00000300: 4f8e 243f af12 443f 098c 633f 6414 523f
00000310: ac69 fb3e 3c3f 4a3f a504 813f 31b8 723f
0.8518796 0.9487869 0.9438079 1.1859351 0.94228154 1.1120391 0.8524529 0.7955314
0.6364385 1.2030939 0.7322947 1.0636067 0.83241075 1.0257459 0.96293926 0.92138565
0.9383373 0.81384 0.92352325 0.94122744 0.9835149 0.8798226 0.92765206 1.0169398
1.0492638 1.0365897 0.53195685 0.99133164 0.9498406 0.93291116 0.5123496 1.100319
1.1418496 0.6892552 1.1030066 0.9397796 0.99171096 1.0000618 0.8002586 1.0164928
0.94939286 0.9544045 0.99771154 0.8308112 1.0095792 0.93976504 0.8189621 1.0156558
0.651131 0.99330705 0.78185755 0.9415734 1.1029879 0.96934354 1.1264209 0.96392834
0.72301084 0.79315686 0.9558755 0.94484955 0.943428 0.98207235 1.056699 0.6906721
0.9628992 1.0333208 0.6629522 1.110172 0.90414524 1.0984619 0.8053619 1.0263165
0.9273061 0.676798 1.1260184 0.7248213 0.9985053 0.9224814 0.7887217 1.127167
0.6855532 1.0100116 0.9649157 1.1657373 0.87427497 1.0266358 0.9967692 0.7589923
0.92065793 1.1015701 0.6593583 0.9025714 0.9498901 0.70214427 1.0367134 1.035368
1.1200517 0.73387915 0.839135 1.1865308 0.94723356 1.013798 0.9778427 0.7643057
0.9366812 0.8084781 0.9757564 0.9416653 0.7613874 0.88186145 0.92406416 1.0133486
0.8379625 1.0635455 0.6779043 1.0242236 0.9261491 0.8542527 0.54152113 1.0059284
0.88955444 1.0104129 0.92565554 1.0695965 0.7195365 0.69227886 0.9249104 0.78990954
0.9744782 1.0415589 1.0000975 0.95017534 0.94233 0.9505991 0.97756183 1.0033573
0.9884102 0.9601124 0.83878136 1.1478363 0.9981011 0.9660011 0.8924848 1.0190365
1.0288111 0.97143984 0.8011065 1.0727409 0.7927755 0.888376 0.8037013 0.9353773
0.78207505 0.7882697 1.0417197 0.78256387 0.9973939 1.1044841 0.69678134 0.8918122
1.0816481 0.7330344 0.8212774 0.9011443 0.8182595 0.951715 1.1087586 0.8372145
0.81951934 0.80089426 0.6287546 0.82353854 1.0272863 0.87324834 0.79868484 1.0659349
0.85148436 0.7014791 0.9536591 0.8665053 1.04922 0.8275429 0.90529203 1.1029136
0.8856996 0.7618909 1.0352848 0.9487613 0.85981345 1.0089204 1.0553951 1.1437328
0.64279646 0.7659101 0.8888555 0.82062364 0.4910406 0.7900274 1.0079542 0.94812304

bn2.bias f4 [200]
00000000: ed2e 5cbe 0120 f93d adeb 86be 36bc f33c
00000010: a6e3 81bc e2c9 6a3e 6201 46be eb01 633e
00000020: e4d5 e53e c12a b0be e189 a93e 182a 10bd
00000030: 9b20 813d e670 8f3c fd13 eebe 451b 16bf
00000040: 0ec1 643d b74f 50be 0140 d5bd c425 54bd
00000050: dea7 b9be 25d8 dfbc 0fd5 38be 308f 613d
00000060: b74c 83bd f2f3 cbbe 551a 2f3d e1d0 5bbd
00000070: 7bcf 25bf 8ded 23be d437 ff3e 5797 4fbf
00000080: 7908 17bf d52f 043e 2c45 3c3e d711 1bbc
00000090: 53e0 57bd 47ca 38be d298 98bd e725 1c3e
000000a0: c154 61be 8375 a9be 4fbd 47be 059a 42bf
000000b0: eee5 8ebd 27f2 383e d911 2bbe 7782 bebd
000000c0: e781 5e3d 33ce ebbd a61e 813e 65f0 c0bd
000000d0: 04f5 6a3c 55b9 4bbf eb23 50bd 7158 883d
000000e0: 28c1 4bbd 7542 913e 496a 693b d9c7 43be
000000f0: 6c87 843d cc8a 6a3d 76ff 823e 627e a03d
00000100: fddd 5dbd 8ed5 4fbe 8146 bc3d 525b 9ebe
00000110: 74b1 91bd c1f0 4bbc 2d09 e1be ea9b 1b3d
00000120: b1c9 c03d 0ca3 933e 128a 8cbc 05a4 0c3e
00000130: 5404 863d 4fca 983d c9f5 663e 4715 e13d
00000140: 50c2 813e 1f34 b03c 289d 0b3d 5de3 3abd
00000150: 5a70 8d3e 956e a3bc a4d9 c7bc 16f5 7e3e
00000160: 34de 0abc 127b 873c 3691 c63d 9af4 44bd
00000170: b877 4a3d 7ec1 003e 1989 20be af93 1cbe
00000180: de2e 0b3d 0d46 fcbc 96bb e33e 6df1 9e3e
00000190: 4461 0cbf ae8a 35be ae4f 16bd c4ea 163f
000001a0: 4207 bb3c 9e04 8cbd 7f56 613d ad12 043d
000001b0: 6f9e 303e 8c7c 703e 453d dabd 121a 733a
000001c0: e680 43bd 76ee 26be 0ac0 c13d c3c5 90ba
000001d0: e0fa 5dbf 3e18 0ebe 2a6f 043f 6fdb 84bd
000001e0: 6b2b 02be 8dc0 7a3d 7646 41be fdf0 74bd
000001f0: 7e5e b53e 5253 4a3e 812c ae3b 7193 603e
00000200: a2d0 5ebd 2839 983d 1181 343e 3e3d c8bd
00000210: 7f37 543d c230 f23b 9a31 e03d 8452 81bd
00000220: 55fc 1a3c 2593 773d a050 753e 9413 4dbe
00000230: 4934 513c a246 c43b 13c9 19be ff41 8d3d
00000240: b25d b53b b52a ab3d 119a 12be 5402 2dbe
00000250: dfe4 403e 606b edbe 0bbd 2c3e 09f8 333c
00000260: 964e 173e c08d 4ebe 1e86 9d3c 9645 2bbc
00000270: 5dcc edbc a358 71bc bf9d d73d 6a29 113f
00000280: 9eb1 ed3e 11eb c23e 269d bd3e 10be b4be
00000290: d536 ddbe 2113 f6bb 947f a3bd 94d0 aabd
000002a0: 475c 6b3e e2d3 943e 6d9f 9a3e 940f 95be
000002b0: e7ad 5c3d 452f 45bf 9468 5dbe ec51 b3bc
000002c0: 78e6 a33e cfbc ae3e 1fd1 06bd f02f c93d
000002d0: 3e08 4c3d 30cb 2dbf 9f88 8cbd e5ed 89bd
000002e0: 8b62 1abe e1a9 3e3e 0db1 283d eb3c cc3d
000002f0: a3a5 f43d cb72 4fbc fe1e 88bd 2fef e0be
00000300: cfd9 7b3e 3ebf febd 08c6 67be 87ed d73d
00000310: 69a8 023f f96a 8fbe 0dd3 183e 6edd 9c3d
-0.21502276 0.121643074 -0.2635168 0.029752832 -0.015855622 0.22928575 -0.19336465 0.221687
0.44889748 -0.3440762 0.33113006 -0.035196394 0.06305047 0.017509889 -0.46499625 -0.5863536
0.055848174 -0.20342909 -0.104125984 -0.05179383 -0.36260885 -0.027324745 -0.18050025 0.055068195
-0.064111166 -0.39834553 0.04274972 -0.053666 -0.64769715 -0.16008587 0.4984728 -0.810903
-0.58997303 0.12908871 0.18385762 -0.009464703 -0.052704167 -0.18045913 -0.07451023 0.15248834
-0.22004987 -0.33097467 -0.19505809 -0.76016265 -0.06977449 0.18061124 -0.16706027 -0.09302228
0.054323103 -0.11513939 0.25218695 -0.094208516 0.014340643 -0.7957967 -0.050815504 0.06657494
-0.049744755 0.28371015 0.003561633 -0.19119205 0.06471142 0.057261273 0.25585526 0.078366056
-0.054166783 -0.20296308 0.09193135 -0.30929047 -0.071139246 -0.012447537 -0.43952313 0.037990488
0.094134696 0.28835332 -0.01715568 0.13734443 0.06543794 0.07460462 0.22554697 0.109903865
0.2534356 0.021509228 0.034085423 -0.045626987 0.2762478 -0.01995019 -0.024395771 0.2489818
-0.008475829 0.016538177 0.096956655 -0.048084833 0.04943058 0.12573811 -0.15677299 -0.15290712
0.033980243 -0.030795122 0.44479054 0.31043568 -0.54835916 -0.17728683 -0.036697082 0.58951974
0.02283061 -0.06836818 0.05501413 0.032244373 0.17247938 0.23485011 -0.106562175 0.0009273599
-0.04773035 -0.16301903 0.09460457 -0.0011045266 -0.8671093 -0.13876435 0.5173212 -0.06487166
-0.12711875 0.061218787 -0.18874535 -0.059800137 0.35423654 0.19758347 0.005315364 0.21931244
-0.054398187 0.07432777 0.1762736 -0.09777306 0.051810738 0.0073910663 0.10946961 -0.06314567
0.009459575 0.060443062 0.23956537 -0.20027 0.012768813 0.0059898654 -0.1501811 0.068973534
0.005534851 0.08357755 -0.14316584 -0.1689542 0.18837307 -0.46370983 0.16868989 0.010984429
0.14776072 -0.20171261 0.019228991 -0.010453602 -0.029028112 -0.014730605 0.105281346 0.5670382
0.46424574 0.38069966 0.37033957 -0.35301256 -0.43205896 -0.0075096046 -0.07983318 -0.08340564
0.2298442 0.29067904 0.30199757 -0.29113448 0.053876784 -0.7702525 -0.21621925 -0.02188965
0.3201177 0.34128425 -0.032914277 0.098235965 0.049812548 -0.67888165 -0.06861996 -0.06734828
-0.15076654 0.18619491 0.041184474 0.09972557 0.11945655 -0.012661646 -0.06646536 -0.43932483
0.24594806 -0.1243882 -0.22634137 0.105433516 0.51038224 -0.280113 0.1492426 0.07659422

bn2.running_mean f4 [200]
00000000: 59a6 2b3e 5aeb 17bf 45f0 a5bd 4326 42bf
00000010: 4a48 223e 42ae 77bd 2dda 493e c04d a7bd
00000020: e842 bdbe e84c 2d3e 6043 6bbd 40a1 c53d
00000030: 17ca af3e 1afe 353f a05d bf3e 32a5 853d
00000040: d611 55bd d909 5f3f d96a e3bc 3de8 e33e
00000050: fd61 433e cb27 bebe 3db0 70bf d00d 9abe
00000060: 4cb2 f03e 03df f03e a314 1dbf c006 293f
00000070: cf9c 6d3e df39 b03d f872 e8be 2f09 1e3e
00000080: 1fb4 cd3e 9c1c 053f e925 70be 638e 0e3e
00000090: 9aba 2ebe 725c ccbc 46c2 aa3d 5fa0 1fbe
000000a0: 73ff 743e 066b 29be 8194 7c3e 29eb 753e
000000b0: 378f 9fbd 9abe 3e3e 235d fabd d31e bcbd
000000c0: bcf6 2dbe a65d 97be 710e 5d3e e6ed ec3e
000000d0: 4555 4a3e f122 f73b 54d3 21be 2311 0c3d
000000e0: 2169 0fbf e836 273e 8ec9 ffbd 4c2c c03d
000000f0: 1bf6 61be 7c36 94bf 6991 a63e 7520 13bf
00000100: bc2a 6fbe 3904 86bd 226e bf3e e97e 08bf
00000110: 9f87 98be 276b df3c 947d 5abd 7ed1 683c
00000120: 4569 04be 0ffb ac3d 1cf5 833e 9e23 f6be
00000130: df6e 4cbf 10e7 0dbf 5893 a83e faf3 113e
00000140: a802 08bf 0185 ec3b f4c8 6ebf 4966 8c3e
00000150: ecd8 0a3e d90f 3e3f b858 debe cfea 58be
00000160: 1e7f 73bf 8108 3fbe 3eb5 493f c480 fbbe
00000170: d9ff ca3e 0c3d 84bf 9ed1 2fbd b3f5 843e
00000180: 470d 11bf 8d56 92be 12c2 e3be 7332 803e
00000190: 6676 c23c ab55 46bf 8b05 5b3e 9826 23bf
000001a0: bf4d 363e ccbf 543e a060 0abf e045 3c3e
000001b0: 083b 4fbf 48a7 93bd c2aa 8b3c 9537 713e
000001c0: 8752 eebe 0ec6 253e a4ca a8be 7380 3ebd
000001d0: 759c b83e b974 c23e b351 a2be d29a 713c
000001e0: 472a 84be 54b9 603d afe7 f53e 83c5 98be
000001f0: c25e 28be 6cff fbbe decc 6dbd a049 0cbf
00000200: 02a9 ebbe 48c7 303f 6046 9f3d 41f3 fbbc
00000210: 2253 bd3e 4e73 303f c75a 18be 174c 3a3c
00000220: 79be b2bd a7fb e7bd 384d 99be d14a 0f3e
00000230: 4ff1 db3c 6004 a6bc 1d07 a5be 1667 56bf
00000240: 0a95 2b3f b89a babd 7db0 3abf d712 96be
00000250: 9c7f adbe 95e7 843e 9261 8bbe 6aa1 163e
00000260: 27cf d4be ab11 2ebc 7d65 dfbe 7c97 c43d
00000270: d20a 4fbf c393 70bd 6603 d0be 55a4 e5bd
00000280: 4baa e23e 7dcb 7dbd 9003 a1be 2fd9 cfbe
00000290: 5b33 2b3f 973d 60be 3901 193e 0463 e43e
000002a0: 2398 98be 79c3 9b3e fa2d 31be c2bd 693d
000002b0: 5fb9 f5be 01a6 c1bd 99e3 aa3d 1359 54bf
000002c0: 41f9 babe a3af 35be 041f 5cbd b5e7 3abe
000002d0: 42c9 0abf 99e4 ac3e e9bd 593d 802f 7cbf
000002e0: ef8c 503e 2a8c e63e c5aa 01be 2cec 0dbe
000002f0: fe15 25ba 4b73 aa3d f52a 8fbe fcd5 463f
00000300: 21bf 173f bcd4 e3be 7237 78be 4a7f 9e3c
00000310: 349e 2b3f ab7e 0abf d781 af3e 697c c7be
0.16762675 -0.59343493 -0.081024684 -0.7583963 0.15847889 -0.06046892 0.19712134 -0.081691265
-0.36965108 0.16923869 -0.0574373 0.096498966 0.3433387 0.71090853 0.37376118 0.06525649
-0.052018963 0.871244 -0.02776091 0.4451312 0.19080348 -0.37139735 -0.9401892 -0.30088663
0.4701103 0.47045144 -0.61359614 0.66025925 0.23204349 0.08604788 -0.45400214 0.15433191
0.40176484 0.5199678 -0.23451962 0.13921504 -0.1706337 -0.024946425 0.08337836 -0.1558852
0.23925571 -0.16544732 0.24666025 0.24015488 -0.07790988 0.18627396 -0.12224796 -0.09185567
-0.16988653 -0.29563636 0.2158754 0.46275252 0.1975909 0.007542007 -0.15803272 0.03419603
-0.5601979 0.16329539 -0.124896154 0.09383449 -0.22066538 -1.1579127 0.32532814 -0.574714
-0.23356146 -0.06543774 0.37388712 -0.5331865 -0.2979097 0.027272774 -0.053342417 0.014210103
-0.12930782 0.08446323 0.2577294 -0.4807405 -0.79856676 -0.554307 0.32924914 0.14253226
-0.53129053 0.0072180037 -0.9327538 0.27421787 0.13559312 0.7424293 -0.43427062 -0.21183322
-0.9511584 -0.18655588 0.7879218 -0.49121678 0.3964832 -1.033113 -0.042924516 0.25968704
-0.56660885 -0.28581658 -0.44484 0.2503849 0.023738097 -0.7747447 0.21388833 -0.63730764
0.17803095 0.2077629 -0.5405369 0.1838603 -0.8094945 -0.07209641 0.017049197 0.23556359
-0.46547338 0.16188833 -0.32967103 -0.046509217 0.36056867 0.37979677 -0.31702957 0.014746385
-0.25813505 0.054864243 0.48028323 -0.2983819 -0.16442397 -0.4921831 -0.058056705 -0.5479984
-0.4602738 0.6905408 0.07777095 -0.030755641 0.36977488 0.6892594 -0.14878379 0.01137068
-0.08727736 -0.11327296 -0.29941726 0.13993384 0.026848463 -0.020265758 -0.3223199 -0.83751047
0.6702429 -0.091115415 -0.7292555 -0.2931125 -0.3388642 0.25957933 -0.27222878 0.14710012
-0.41564295 -0.01062433 -0.43632117 0.09599206 -0.80875885 -0.058734667 -0.40627593 -0.112129845
0.44270548 -0.06196164 -0.3144803 -0.40595385 0.6687524 -0.21898495 0.14941873 0.44606793
-0.2980357 0.3042257 -0.17302695 0.057065733 -0.4799299 -0.09455491 0.08344192 -0.82948416
-0.3651829 -0.17742781 -0.053740516 -0.18252452 -0.54213345 0.33768156 0.053159628 -0.9850998
0.20366262 0.45028812 -0.126628 -0.13859624 -0.00062975276 0.08322772 -0.2796246 0.77670264
0.59276015 -0.4449824 -0.242399 0.019347806 0.67038274 -0.5409953 0.34278747 -0.38962105

bn2.running_var f4 [200]
00000000: 5f75 e23d 0352 e33d bfa5 c73e b889 6a3e
00000010: 77de 823e bbdc b93e 4c3f cb3d a060 d43d
00000020: 67ef cb3d 9101 5b3e 80cf 1e3e baec 443f
00000030: 1436 2b3e bbed 3a3f d818 8e3d 08d2 1d3e
00000040: 18be 583e 1469 943d dcc2 063e a762 a73e
00000050: 3b50 543e 7d7c d83d 0eb4 a23e a192 223f
00000060: b1b5 c33e ffe6 383d 1d2a 463d c3cf 103f
00000070: ef77 b03d f548 483e a30d 283d eea2 cc3d
00000080: 9abf 533d f448 453d a593 753e 7de2 153e
00000090: eaec a53e a32b 883e e5c9 b33d 0a81 653e
000000a0: d3e7 f33d 8b74 ed3d eaa4 9b3d dcfd 143d
000000b0: e7c5 af3d d353 ac3d 0268 dc3d 4cc3 ba3e
000000c0: 2841 813d 7d3c c53e c78e d23d d0d7 1c3e
000000d0: 2460 223f e6b8 ac3d 12d2 2e3f 10a8 123e
000000e0: 4830 663d ac92 323e 2b29 f43d dea4 633d
000000f0: 93a1 d53d d6c8 d03e 220d 883e f321 a33d
00000100: ab36 a13e d1c2 da3e 0f8b 573d 6cea 973d
00000110: 8c5e 433e 0853 c83e 5b10 003e 83b5 0b3f
00000120: 1291 2e3e efc0 ca3d 54d3 5e3e 2e2f ed3d
00000130: 963f c33e d7bf 333e eafb cf3d bb85 cc3f
00000140: fdfd 573d 709a b83e ad9d d73e 5aef 353f
00000150: 3414 733e 8756 d13e af13 903e 3e5d 093e
00000160: de8d 0d3f 85b4 8f3e 50e5 8f3d 46d6 6f3e
00000170: 37f1 073e bcaf 9e3d 70d8 c53e fcc2 a53e
00000180: 13f4 3e3f a2ad 503d a7da d23d f7d0 a73e
00000190: 23a0 4f3d 4942 953e a882 b73e 3f26 043e
000001a0: 84f4 743e 759b 023e a7d8 d13e efd3 9a3e
000001b0: 8913 413d a39e ea3d 0a12 983e f4c1 a73e
000001c0: 2416 ac3d 5eca 6d3e 0aad 4c3d f8ec 783e
000001d0: 88bd de3d 35f8 f53d 981b 803d 6251 933e
000001e0: dd53 c23d e493 aa3e c4dd fa3d fcd0 e43e
000001f0: 5df3 943d 4371 833d 1f91 073e 9573 8c3d
00000200: 724e 033e 54db d83e cb24 6c3e 18fb a53e
00000210: b03e a03e 2dc6 6d3e 412e 743d b2d0 553e
00000220: f33b 6b3e ef3f ba3e b0ed fe3d 8896 b13d
00000230: 7576 af3e f1b3 373e 633f 9a3d ec37 2f3f
00000240: 5830 853e 7d10 843e 384a ad3d aabe 333e
00000250: f364 7b3d 3159 803d 8133 c03d b928 bc3d
00000260: 0830 a33d baad b83d 3ded f03d 6d7e 7c3d
00000270: c024 843e 756d 563f 104e 933d 3507 c13d
00000280: 26a7 783e 2345 873d 306c 133d e584 513d
00000290: d76c 873d 7e3c 833e b2b6 1f3f 20a8 f43d
000002a0: d73b fe3d 4aa3 b33d 065e 093d c8fd 9c3d
000002b0: cbf2 bd3d dbbd 993d 2f27 c23d 4f8f f33e
000002c0: 51de 193e 5f65 d13d 8908 903e 6f7d 883d
000002d0: 82ca 403f 188c 1a3d e563 153e 88a7 293f
000002e0: 8abf 073e 2f6d ad3d 5a1f 463f 63d0 db3d
000002f0: e7ff b63d c97f a23e 744b 1f3e 30e1 e23d
00000300: 115f 4e3d b164 433e 2f16 4b3d 81df 2d3e
00000310: 1b30 4e3d 734a 4b3d 3559 1f3e e0a2 893e
0.11057543 0.11099627 0.38993642 0.22904098 0.25560352 0.36301216 0.09924182 0.10369992
0.09957772 0.21387316 0.15508842 0.76923716 0.16719848 0.73019 0.06938332 0.15412152
0.21166265 0.072466046 0.1316027 0.32692453 0.2073373 0.10570619 0.31777996 0.6350499
0.38224557 0.04514217 0.048380006 0.5656702 0.086166255 0.19559081 0.04102863 0.09992014
0.051696397 0.048165277 0.23982103 0.1463718 0.32407314 0.26595792 0.08778743 0.22412506
0.11909451 0.115944944 0.07599814 0.03637491 0.08582669 0.08414426 0.107620254 0.36477125
0.06311256 0.3852271 0.10281139 0.15316701 0.6342795 0.08433704 0.6828929 0.14321923
0.05619839 0.17438763 0.11921915 0.05557715 0.104312085 0.40778226 0.2657252 0.0796546
0.3148702 0.42726758 0.05262285 0.07417759 0.19079036 0.39125848 0.12506239 0.5457384
0.17047527 0.099000804 0.21760303 0.115812644 0.3813445 0.1755365 0.10155471 1.5978311
0.052732456 0.36055326 0.42112485 0.71068347 0.23738176 0.40886328 0.28140017 0.13414475
0.552946 0.28067413 0.0702616 0.23421583 0.1327561 0.077483624 0.3864169 0.32375324
0.7459118 0.05094684 0.10295611 0.32776615 0.050689828 0.29152134 0.3584187 0.12905215
0.239214 0.12754615 0.40985605 0.30239818 0.04713777 0.11456039 0.29701263 0.32765162
0.084026605 0.23221728 0.04996971 0.24309146 0.10875994 0.12010232 0.06255263 0.28773028
0.09488652 0.33315957 0.1224933 0.44690692 0.0727298 0.06418087 0.13238953 0.06857983
0.12822893 0.42354834 0.2306091 0.32418132 0.31297827 0.2322013 0.059614424 0.20880392
0.22972088 0.36376902 0.12447679 0.0867129 0.34270063 0.17939736 0.07531621 0.68444705
0.26013446 0.2579383 0.08461422 0.17553201 0.06137557 0.06267012 0.093848236 0.09187455
0.079681456 0.09017511 0.117639996 0.061644007 0.25809288 0.8376077 0.071926236 0.09425203
0.24282512 0.06604984 0.035991848 0.05115213 0.066125564 0.2563209 0.62388146 0.1194613
0.12413757 0.08771379 0.033536933 0.076655924 0.09274825 0.07506915 0.0948013 0.47570273
0.15026213 0.10224413 0.28131512 0.066645496 0.75309 0.03773126 0.14588888 0.6627126
0.1325666 0.08468091 0.7739159 0.10733106 0.08935528 0.31738117 0.15556127 0.11078107
0.05038363 0.1908138 0.049581703 0.16979791 0.050338846 0.049631547 0.15561374 0.26882076
