artifacts/560_walkerDynamics.pt (torch, 196730 bytes, 20 tensors)

linear1.weight f4 [100, 30]
0	0xbeaee09f	-0.34155747
1	0xbd15e2a6	-0.036593102
2	0xbee0e09a	-0.43921357
3	0x3e9e90b9	0.3096979
4	0xbe019b90	-0.12656999
5	0xbe28e543	-0.16493706
6	0xbc26526a	-0.010151485
7	0xbded0a95	-0.11574284
8	0xbd6fe8b6	-0.05857154
9	0x3e23185f	0.15927266
10	0xbeab368c	-0.33440053
11	0x3d82bf97	0.06384199
12	0x3ec19170	0.37806273
13	0xbe15ba0c	-0.14621753
14	0x3f34942d	0.705386
15	0x3d1f1014	0.038833693
16	0x3c78cfa2	0.015186222
17	0x3cbd22cc	0.023087882
18	0x3d8f343b	0.06992384
19	0x3cfeec59	0.031118559
20	0xbcc7f65c	-0.024409465
21	0xbd1ccfb3	-0.038284015
22	0xbd12ac87	-0.035809066
23	0x3d753cee	0.05987256
24	0x3e83ba03	0.25727853
25	0x3ce22293	0.027604377
26	0xbe9ceec1	-0.30650905
27	0xbc5dac92	-0.0135299135
28	0x3d9d1d1b	0.07671567
29	0x3e63c47d	0.22242923
30	0x3ec4963b	0.38395867
31	0xbc02c756	-0.007982096
32	0x3f0875ea	0.5330492
33	0xbeabcbd3	-0.33553943
34	0x3dc2fb3e	0.09520577
35	0x3e5540d9	0.20825519
36	0xbab0ec21	-0.0013498106
37	0x3e0ecd2f	0.13945459
38	0xbd094907	-0.03351691
39	0xbe848bdc	-0.25887954
40	0x3e9dcbf4	0.30819666
41	0x3caf58c0	0.021404624
42	0xbecb9369	-0.39760903
43	0x3e30c11f	0.1726117
44	0xbf47e4b1	-0.7808333
45	0xbd26c919	-0.040719125
46	0xbcdc4bac	-0.026891552
47	0xbbbdfdfb	-0.005798099
48	0xbda2eb28	-0.07955009
49	0xbd1a22b6	-0.03763076
50	0x3ccf89dc	0.025334291
51	0x3ce88077	0.02838157
52	0x3d1905ff	0.037359234
53	0xbd8c6115	-0.068544544
54	0xbe8a4bf5	-0.27011076
55	0xba835329	-0.001001929
56	0x3ea97f0a	0.33104736
57	0x3cc4492f	0.023960678
58	0xbd8ddbed	-0.06926713
59	0xbe69797b	-0.22800247
60	0xbd8a065a	-0.06739493
61	0x3e4a306b	0.19745032
62	0x3d8f3163	0.06991842
63	0xbd707c01	-0.05871201
64	0x3f0aeb45	0.5426524
65	0xbe08af26	-0.13348064
66	0x3ce0e245	0.027451644
67	0xbe49762f	-0.1967399
68	0x3d2213e0	0.039569736
69	0x3dd533fa	0.10410304
70	0x3e216b22	0.15763524
71	0x3df8fa2f	0.12157094
72	0x3e0a10b7	0.13482939
73	0x3e6e5567	0.23274766
74	0xbedc1967	-0.4298813
75	0x3c17eefd	0.009273288
76	0xbbf99025	-0.0076160603
77	0x3bc9cfa2	0.006158785
78	0x3b5d65e8	0.0033782665
79	0x3d1ab840	0.03777337
80	0xbd227d90	-0.039670527
81	0x3d984b75	0.07436267
82	0xbc089a65	-0.008337592
83	0xbd057c26	-0.0325891
84	0x3e745821	0.23861744
85	0xbe70e660	-0.23525381
86	0xbe8bccd6	-0.27304715
87	0x3e68357d	0.22676654
88	0xbd7d8d77	-0.06190249
89	0xbe1f9386	-0.1558362
90	0xbeed06ee	-0.4629435
91	0x3e23e9dd	0.1600718
92	0xbe79450a	-0.24342743
93	0xbd9d07e0	-0.07667518
94	0xbe889175	-0.26673475
95	0x3d2a6257	0.04159769
96	0xbc152965	-0.0091041075
97	0x3d7cc234	0.061708644
98	0x3ef70f71	0.48253968
99	0xbe517d40	-0.20457935
100	0xbf16d272	-0.58914864
101	0xbe253fab	-0.16137569
102	0xbd0350a8	-0.03205934
103	0x3ed16e38	0.40904403
104	0x3e811f96	0.2521941
105	0x3c032e1c	0.008006599
106	0xbd86e14f	-0.06585943
107	0xbc507cbf	-0.012725054
108	0x3c7cd273	0.015431034
109	0x3c2e36d1	0.010633186
110	0xba6ebde5	-0.0009107276
111	0xbbdfd445	-0.0068307244
112	0x3bb21075	0.0054340907
113	0xbb1787ec	-0.0023121787
114	0x3da86414	0.082222134
115	0xbcd2ae00	-0.025717735
116	0xbc0600df	-0.008178919
117	0x3e173deb	0.14769714
118	0xbe453243	-0.19257455
119	0xbdd26c73	-0.10274591
120	0xbead0daa	-0.33799487
121	0x3d271669	0.040792856
122	0xbe5aacc6	-0.2135497
123	0xbd398d71	-0.045300905
124	0xbeb052df	-0.34438226
125	0x3e2ac908	0.1667825
126	0xbdb76a63	-0.089558385
127	0xbc983fde	-0.018585142
128	0x3e8c4364	0.27395165
129	0xbe2b1bbd	-0.167098
130	0x3ed254b7	0.41080257
131	0x3e851e4a	0.2599967
132	0xbdf4acd4	-0.11947027
133	0x3e1c9d9e	0.15294501
134	0x3e93ac5a	0.2884243
135	0xbc026b76	-0.007960191
136	0xbaecd165	-0.0018067776
137	0x3d6e1bc9	0.058131967
138	0xbce37d07	-0.027769579
139	0xbc82e87a	-0.015979994
140	0xbab01c35	-0.0013436141
141	0xbcce9dac	-0.025221668
142	0xbcce352a	-0.025171835
143	0xbca84b33	-0.02054367
144	0x3d5a01db	0.053224426
145	0xbd42a13d	-0.04751705
146	0xbdb97343	-0.090551876
147	0xbc533f70	-0.012893543
148	0x3db8a3f1	0.09015644
149	0xbea204b9	-0.31644228
150	0xbcb999f4	-0.022656418
151	0x3cdec814	0.027195014
152	0x3edf34f4	0.43595088
153	0x3c0761a4	0.008263025
154	0xbd3ac578	-0.045598477
155	0x3e36f5ab	0.17867152
156	0x3e571f4d	0.21008034
157	0xbdeb5202	-0.11490251
158	0x3db1ce59	0.08681936
159	0xbe4636c8	-0.19356835
160	0xbdc81d90	-0.097712636
161	0xbe565daa	-0.20934168
162	0xbe26b18b	-0.16278665
163	0xbd801ce9	-0.06255514
164	0x3ef0e34b	0.4704841
165	0xbe3c657b	-0.18398087
166	0xbe5917fe	-0.21200559
167	0xbdfa13e5	-0.12210826
168	0x3d346505	0.044041652
169	0xbcda34b6	-0.026636463
170	0x3d432090	0.047638476
171	0xbd601ed5	-0.054716904
172	0xbb657fb5	-0.0035018746
173	0x3cea2a4c	0.028584622
174	0xbebc74b9	-0.36807802
175	0x3e527c3e	0.20555207
176	0x3e83f992	0.25776345
177	0xbeb9ee42	-0.3631459
178	0x3d8f3834	0.06993142
179	0x3df8ee32	0.12154807
180	0xbd5ae01e	-0.05343639
181	0xbe26db12	-0.16294506
182	0xbe4b425c	-0.19849533
183	0xbca98c7e	-0.020696875
184	0x3b38ed91	0.0028217772
185	0x3d2b9834	0.0418932
186	0x3da0d52a	0.07853158
187	0xbd51d50c	-0.051228568
188	0x3d2d39af	0.04229134
189	0x3e3d4095	0.18481667
190	0x3f63ccad	0.88984185
191	0xbdf4170d	-0.11918459
192	0xbe045434	-0.12922746
193	0x3f337165	0.700949
194	0xbc16d1f4	-0.00920533
195	0xbc253f1d	-0.010085848
196	0xbce1e396	-0.027574342
197	0xbd7ea80e	-0.06217199
198	0xbcd07aa7	-0.02544911
199	0xbc40f27d	-0.011776564
200	0xbaa47d86	-0.0012549616
201	0x3dac55f2	0.0841483
202	0x3d811b4d	0.06304035
203	0x3caa0e3c	0.02075874
204	0xbcece27a	-0.028916586
205	0x3c8930bc	0.016746871
206	0x3d4abea9	0.049498234
207	0xbdacafb4	-0.0843195
208	0xbcbbb3e2	-0.022912923
209	0x3e40b50c	0.18819064
210	0x3e85f63b	0.2616442
211	0x3dc3e8e2	0.09565903
212	0xbe6fb743	-0.23409753
213	0x3e4cd6cd	0.20003815
214	0xbf381164	-0.71901536
215	0x3d725064	0.059158698
216	0x3e9db347	0.3080084
217	0x3eb2b8e8	0.34906697
218	0x3ec6d0d5	0.388312
219	0x3e2e823b	0.17041866
220	0xbe415ce2	-0.18883088
221	0xbce59003	-0.028022772
222	0x3daa82c8	0.08325726
223	0x3dc612f9	0.096715875
224	0x3e9a9b61	0.3019667
225	0x3c20954e	0.009801222
226	0xbcb70386	-0.022340547
227	0xbd1ffd48	-0.039059907
228	0xbc7ebee6	-0.015548443
229	0xbcb1f288	-0.021722093
230	0x3bfabeac	0.0076521244
231	0x3d2adac0	0.041712523
232	0x3c104c27	0.008807219
233	0x3b42c714	0.002972071
234	0x3cb2479d	0.021762663
235	0xbd431d0f	-0.047635134
236	0x3ce27ea9	0.027648287
237	0x3d9276a2	0.07151534
238	0xbbbf8148	-0.005844269
239	0xbc46ff90	-0.012145892
240	0x3e246471	0.1605394
241	0x3e02a440	0.12757969
242	0x3e9c122a	0.30482608
243	0xbe8aa6b3	-0.27080306
244	0xbf55ad04	-0.83467126
245	0xbc79deef	-0.015250905
246	0x3e89a80a	0.26886016
247	0xbde62925	-0.112383164
248	0xbd172d1c	-0.036908254
249	0xbdd19d28	-0.10235053
250	0xbc45e682	-0.012078883
251	0xbc98d9e2	-0.018658582
252	0xbca7b746	-0.020473134
253	0x3b932b7c	0.0044912677
254	0x3ea641bd	0.3247203
255	0x3d87a226	0.06622724

linear1.bias f4 [100]
0	0x3de9a871	0.11409081
1	0xbce15a4b	-0.027508875
2	0x3dc4073a	0.09571691
3	0xbe2bd3ab	-0.16779964
4	0x3cc6ebf1	0.024282428
5	0x3d636914	0.055520132
6	0xbe0f66f7	-0.14004122
7	0x3de527d0	0.11189234
8	0x3e08e41b	0.13368265
9	0x3d0655e8	0.03279677
10	0x3dfa118c	0.12210378
11	0x3e0dad6f	0.13835691
12	0x3e33b06b	0.17547767
13	0xbd023d2d	-0.031796623
14	0xbc9957de	-0.018718656
15	0x3e06a283	0.13147931
16	0xbd80159d	-0.062541224
17	0x3da63df7	0.081172876
18	0x3e1e1083	0.15435986
19	0x3db80491	0.08985246
20	0x3c1fdca2	0.009757193
21	0xbd69f9f9	-0.057123158
22	0xbe2b30f6	-0.16717896
23	0x3e107ea6	0.14110813
24	0xbe28d730	-0.16488338
25	0xbe11cb52	-0.14237717
26	0x3d4e1bd4	0.050319508
27	0xbe0a90b8	-0.13531768
28	0x3dc60fa6	0.096709535
29	0x3e30cb56	0.17265067
30	0xbd560116	-0.05224713
31	0x3e33ea3c	0.17569822
32	0xbe231059	-0.15924205
33	0x3d3b3cf6	0.045712434
34	0x3c0d907c	0.008640405
35	0x3e080cd0	0.13286138
36	0x3e0b62fc	0.13611978
37	0xbc4a006e	-0.012329204
38	0xbdf27900	-0.11839485
39	0x3c475f0c	0.012168657
40	0x3d630b51	0.055430714
41	0x3b40bfd4	0.0029411213
42	0x3dbf3903	0.09337046
43	0xbe02c393	-0.12769918
44	0xbb87e797	-0.0041474807
45	0x3dc8dd0a	0.09807785
46	0x3dfd7cc7	0.12377315
47	0x3d1f1128	0.03883472
48	0xbe046eb7	-0.1293286
49	0xbcb64428	-0.022249296
50	0xbd90e3bf	-0.07074689
51	0xbc8af796	-0.016963761
52	0xbdd9327d	-0.10605333
53	0xbdf2ac68	-0.1184929
54	0xbd6aedca	-0.05735568
55	0xbe65cb88	-0.22440922
56	0x3dce3711	0.10069097
57	0x3d9a5ac4	0.075368434
58	0xbd8a132e	-0.067419395
59	0xbdab4357	-0.083624534
60	0x3d98f5e4	0.07468775
61	0xbde945b0	-0.11390245
62	0x3b92eca5	0.0044837766
63	0x3e28c310	0.1648066
64	0xbe304417	-0.17213474
65	0x3d96d552	0.07364906
66	0x3d725f6a	0.059173025
67	0x3d6c86c4	0.05774571
68	0xbcbdf624	-0.023188658
69	0x3c82ec8b	0.015981933
70	0x3cba147d	0.022714848
71	0xbda1ed78	-0.07906622
72	0x3d8ec3eb	0.06970962
73	0x3e1a55c9	0.15071787
74	0xbd3744ac	-0.044743225
75	0x3d61b0ab	0.055100124
76	0xbdc0f461	-0.094216116
77	0xbddbf481	-0.10739995
78	0xbe2c57e2	-0.168304
79	0xbe2dbc90	-0.16966462
80	0xbd82aabc	-0.06380221
81	0x3d831d1f	0.06402039
82	0xbdb8af60	-0.09017825
83	0xbe0c42c9	-0.13697352
84	0xbe1740ba	-0.14770785
85	0xbe1dbb49	-0.15403475
86	0xbd4b9d3a	-0.04971049
87	0xbd1a5093	-0.037674498
88	0xbc847a83	-0.0161717
89	0x3c3f9b03	0.0116946725
90	0x3d9fc75c	0.07801697
91	0xb8a2b2ff	-7.7581026e-05
92	0x3db0ab5b	0.086264335
93	0x3dc3ddf6	0.0956382
94	0xbe3e61b9	-0.18591966
95	0x3e2d80fa	0.16943732
96	0xbe0bfc20	-0.13670397
97	0xbda97d08	-0.08275801
98	0xbe0842c3	-0.13306718
99	0x3ca90f3b	0.020637145

bn1.weight f4 [100]
0	0x3f1d1732	0.6136352
1	0x3f22392e	0.633685
2	0x3ef1e17a	0.47242337
3	0x3f72ab3c	0.9479253
4	0x3f5d6ca4	0.864939
5	0x3f13a317	0.5767073
6	0x3f1a7f9b	0.6035096
7	0x3faa6a51	1.3313695
8	0x3f28dde8	0.659636
9	0x3f0e1310	0.5549784
10	0x3f82d231	1.0220395
11	0x3f9e42d3	1.2364143
12	0x3fa42829	1.2824756
13	0x3f1931d5	0.5984166
14	0x3fa1ec8e	1.2650316
15	0x3f403edd	0.7509592
16	0x3f1f6968	0.6227021
17	0x3f025a82	0.50919354
18	0x3fa3e843	1.2805256
19	0x3efa5430	0.48892355
20	0x3f8a9566	1.0826843
21	0x3f534c18	0.82537985
22	0x3f87fd11	1.0624105
23	0x3f2aa3fc	0.6665647
24	0x3fa9e3e3	1.327267
25	0x3f85e915	1.0461756
26	0x3f166808	0.5875249
27	0x3f8fd3f4	1.1236558
28	0x3f94b4b7	1.161765
29	0x3f11ed9e	0.570032
30	0x3edf51db	0.43617138
31	0x3f048755	0.51769
32	0x3f9327bb	1.14965
33	0x3f9b7778	1.2145834
34	0x3f628566	0.884848
35	0x3f4adef7	0.7924647
36	0x3f359cc9	0.7094236
37	0x3f551cf5	0.8324731
38	0x3f8c1ec2	1.0946887
39	0x3eedeca9	0.4646962
40	0x3f8b37bf	1.0876387
41	0x3f9bed63	1.218182
42	0x3f011acf	0.5043153
43	0x3f2f9f7d	0.68602735
44	0x3f15af0b	0.5847022
45	0x3f6b945c	0.92023253
46	0x3f757171	0.9587622
47	0x3f972e29	1.1810962
48	0x3fa1b6d7	1.2633923
49	0x3f5d7e15	0.8652051
50	0x3f4fa1f4	0.81106496
51	0x3f9ccd06	1.2250068
52	0x3f8fa97a	1.1223595
53	0x3f287f03	0.65818805
54	0x3f4f8b61	0.8107205
55	0x3fb6d39d	1.4283329
56	0x3f899628	1.0748949
57	0x3f691b10	0.9105692
58	0x3f9fceab	1.2484945
59	0x3f40cce5	0.75312644
60	0x3f95d535	1.1705691
61	0x3eee54f2	0.46549183
62	0x3f5f2494	0.8716519
63	0x3f38c1f4	0.7217095
64	0x3f89f30b	1.0777296
65	0x3f5a14dc	0.8518808
66	0x3f4804b9	0.78132206
67	0x3eff44f5	0.49857298
68	0x3f1b9ec1	0.60789114
69	0x3f88ef6c	1.0698066
70	0x3fa6db93	1.3035759
71	0x3f0a350e	0.53987205
72	0x3f22ceb9	0.63596684
73	0x3edc21b5	0.42994466
74	0x3f262fa9	0.64916474
75	0x3f462442	0.77399075
76	0x3f9b826a	1.2149174
77	0x3eef35a6	0.46720618
78	0x3f266b45	0.6500743
79	0x3f6a94eb	0.9163348
80	0x3f305693	0.688821
81	0x3f50b6c4	0.8152888
82	0x3f4fac34	0.81122136
83	0x3f5c3679	0.8602062
84	0x3f1c0e00	0.6095886
85	0x3f6a199c	0.91445327
86	0x3f408266	0.7519897
87	0x3f33242a	0.69977057
88	0x3f87e2da	1.0616105
89	0x3f8f5138	1.1196661
90	0x3f38f3f8	0.72247267
91	0x3f97f0b6	1.1870334
92	0x3f1e2f4a	0.6179091
93	0x3f20c91c	0.6280687
94	0x3f1ffe6c	0.6249759
95	0x3f0e190f	0.55506986
96	0x3f29bde9	0.66305405
97	0x3f0a1ade	0.53947246
98	0x3f1e2a1b	0.61783
99	0x3f9e2090	1.2353687

bn1.bias f4 [100]
0	0x3cc24304	0.023713596
1	0xbce29d05	-0.027662763
2	0xbc9bf18c	-0.019036077
3	0x3e352eff	0.17693709
4	0xbdd155bc	-0.10221431
5	0x3d419df3	0.047269773
6	0x3f410b5b	0.7540795
7	0x3d95a4bf	0.073068134
8	0x3ec3e0fe	0.38257593
9	0x3d037df4	0.03210254
10	0x3e2de215	0.16980775
11	0x3f333494	0.700021
12	0x3cc65504	0.02421046
13	0x3c5a6768	0.013330318
14	0x3e6b9d93	0.23009329
15	0x3e86206f	0.2619662
16	0xbbf82e09	-0.007573847
17	0x3ef54ec1	0.47911647
18	0xbd54d7bb	-0.05196355
19	0x3da7faa3	0.08202102
20	0x3ec6bbe4	0.38815224
21	0xbe4b95aa	-0.19881311
22	0x3e7f50fc	0.24933237
23	0xbc8aa087	-0.016922249
24	0xbe2ac1f0	-0.16675544
25	0x3e086572	0.13319948
26	0xbd883785	-0.066512145
27	0x3ecafa93	0.39644298
28	0xbde95348	-0.11392838
29	0x3bfdee51	0.007749357
30	0xbcc23a84	-0.023709543
31	0x3d38aa3a	0.045084216
32	0x3da517b9	0.08061165
33	0x3ee373fb	0.44424424
34	0x3eda66db	0.42656597
35	0x3dabafc4	0.08383134
36	0x3e014525	0.12624033
37	0x3e5c4dab	0.21514003
38	0x3e842443	0.25808915
39	0x3d937393	0.071997784
40	0x3defa6c8	0.11701733
41	0x3e5834c2	0.21113876
42	0xbc0e65af	-0.008691235
43	0x3f962903	1.1731266
44	0x3fe982be	1.8243024
45	0x3e7a36cb	0.24434964
46	0x3ed6285d	0.4182767
47	0x3e07ecfa	0.13273993
48	0xbde367ec	-0.11103806
49	0x3dd30a62	0.10304715
50	0x3f03737d	0.51348096
51	0x3bf20056	0.007385294
52	0x3db61852	0.088913575
53	0x3a25a0e9	0.0006318228
54	0x3f5c5b23	0.86076564
55	0x3d7b6519	0.06137571
56	0x3e0f2670	0.13979506
57	0x3dcccde8	0.10000211
58	0x3e00887a	0.12552062
59	0xbe1f62b2	-0.15564993
60	0x3d6fa4af	0.058506664
61	0xbc938b7f	-0.018010853
62	0xbdc63582	-0.096781746
63	0x3e1dd4f0	0.1541326
64	0x3ce3e1d8	0.027817652
65	0x3ea16378	0.315212
66	0x3e802faa	0.25036365
67	0x4000c556	2.0120444
68	0xbd993e96	-0.074826404
69	0xbbdcb1b4	-0.006735051
70	0x3e58c363	0.21168284
71	0x3eedb3fa	0.46426374
72	0x3cdc44c9	0.026888268
73	0x393a79cd	0.00017783717
74	0xbd81c88c	-0.063370794
75	0x3dbcd40d	0.09220133
76	0x3cf0aba8	0.029378727
77	0xbcd05ca9	-0.025434809
78	0x3e6c63e2	0.23084977
79	0x3ddca910	0.107744336
80	0xbe730c02	-0.2373505
81	0x3e28d537	0.16487585
82	0x3db1bb22	0.08678271
83	0x3e93fe05	0.2890474
84	0xbda09372	-0.07840623
85	0x3d44fb9a	0.04809151
86	0xbe104fa3	-0.14092879
87	0x3e35e9b9	0.1776494
88	0x3e3b1945	0.18271358
89	0x3d81c5ab	0.0633653
90	0x3d857ed0	0.06518328
91	0x3df42b65	0.11922339
92	0x3f385409	0.7200323
93	0xbc4fbb68	-0.0126789585
94	0x3dafa055	0.08575503
95	0x3fb057a8	1.377675
96	0x3b7a44b4	0.0038187923
97	0x3bc7ab57	0.0060934233
98	0x3d9a7213	0.07541289
99	0x3e4750eb	0.19464462

bn1.running_mean f4 [100]
0	0x3ed97038	0.4246843
1	0xbec3bd7e	-0.3823051
2	0x3dd9a626	0.106273934
3	0xbe8cccb3	-0.27499923
4	0x3d0916bd	0.03346895
5	0xbb1dabc3	-0.0024058677
6	0x3d2df3ed	0.042468954
7	0x3e1d7d4c	0.15379828
8	0xbb7e6f56	-0.0038823686
9	0xbdd0592e	-0.1017326
10	0x3d3c76f0	0.046011865
11	0xbe9b9655	-0.30388132
12	0x3e339825	0.17538507
13	0x3c6c1e5d	0.014411536
14	0xbebd1a0b	-0.36933932
15	0x3e888aa3	0.2666827
16	0xbe163ed2	-0.14672402
17	0xbcdf43d8	-0.02725403
18	0xbd9516db	-0.0727975
19	0x3d97f997	0.07420652
20	0xbe8e1db1	-0.27757028
21	0xbe307e84	-0.17235762
22	0x3d88afb7	0.0667414
23	0x3da357ee	0.07975756
24	0xbefb56da	-0.490897
25	0xbe7a3608	-0.24434674
26	0x3e4adb22	0.19810155
27	0xbda76959	-0.0817439
28	0xbd40339f	-0.04692423
29	0x3ede5fd9	0.434325
30	0x3deb5905	0.114915885
31	0x3e46ebc9	0.19425882
32	0xbc1e8cfe	-0.00967717
33	0x3e1092bc	0.14118475
34	0x3e77dbb3	0.24204902
35	0x3dca6527	0.098825745
36	0x3e0d9a5f	0.13828419
37	0x3e5536a8	0.20821631
38	0x3da68764	0.081312925
39	0x3d745d37	0.05965921
40	0x3e98eff4	0.2987057
41	0x3e282844	0.1642161
42	0x3e144300	0.14478683
43	0xbed345ba	-0.41264135
44	0xbe019088	-0.1265279
45	0x3e6ad9fe	0.2293472
46	0xbeaefbfb	-0.3417662
47	0x3e583224	0.21112877
48	0x3ca01fae	0.019546356
49	0x3dc00499	0.09375877
50	0x3dac5463	0.08414533
51	0xbe347302	-0.17621997
52	0xbeec7f0d	-0.46190682
53	0xbeb02dd1	-0.34409955
54	0x3e613119	0.21991386
55	0xbe854a96	-0.26033467
56	0xbe06671e	-0.13125274
57	0x3e68f4f8	0.22749698
58	0xbdb0b3e5	-0.08628062
59	0xbe7ab1e6	-0.24481925
60	0x3ec58a3d	0.3858203
61	0xbd1f611c	-0.03891097
62	0xbe26df98	-0.16296232
63	0x3f01703f	0.505619
64	0xbe810c61	-0.25204757
65	0x3eb848eb	0.35993132
66	0xbe93617e	-0.28785318
67	0x3c346dbb	0.01101249
68	0xbdbd51b9	-0.09244103
69	0x3d32155b	0.043477397
70	0xbdf62e70	-0.12020576
71	0xbcfe286b	-0.031025132
72	0x3e3f463d	0.18679138
73	0x3e87d8c8	0.26532578
74	0x3cbbea80	0.022938967
75	0xbc63f515	-0.013913413
76	0xbdd2bcb4	-0.102898985
77	0x3d91af57	0.071135215
78	0xbe15d7a3	-0.1463304
79	0xbea36dca	-0.319197
80	0x3e177223	0.14789633
81	0x3de918d9	0.113816924
82	0xbe297d2f	-0.1655166
83	0xbe751090	-0.239321
84	0xbd5d09bf	-0.053964373
85	0xbe250ca0	-0.16118097
86	0xbdf2d582	-0.1185713
87	0x3e183bac	0.14866513
88	0x3e89c495	0.26907793
89	0xbdd81ff8	-0.105529726
90	0x3c97671d	0.018481785
91	0x3e770193	0.24121694
92	0xbce67206	-0.028130542
93	0x3ddd6f54	0.1081225
94	0xbe94d01a	-0.2906502
95	0x3de0508a	0.109528616
96	0x3dbc7fac	0.09204039
97	0xbe47a036	-0.1949471
98	0xbd8f3ad7	-0.06993645
99	0xbdab37f7	-0.08360284

bn1.running_var f4 [100]
0	0x3f483e0b	0.7821967
1	0x3f805001	1.0024415
2	0x3f5bfb2d	0.8593014
3	0x3f3a678b	0.72814244
4	0x3e9e91a9	0.30970505
5	0x3f70f0f7	0.94117683
6	0x3ee34584	0.44388974
7	0x3f73ddbe	0.95260227
8	0x3e738823	0.23782401
9	0x3f8a7817	1.0817899
10	0x3f677475	0.90412074
11	0x3e256098	0.16150129
12	0x3f046ccf	0.5172853
13	0x3f850750	1.0392857
14	0x3f8ef588	1.116868
15	0x3f922f3e	1.1420667
16	0x40a0c376	5.02386
17	0x3eafe245	0.34352317
18	0x3da2609a	0.079285815
19	0x3fecec90	1.8509693
20	0x3f678f31	0.9045287
21	0x3e9944ba	0.29935247
22	0x3f4b2df0	0.7936697
23	0x3fa01222	1.2505534
24	0x3edc7535	0.43058172
25	0x404a27e3	3.1586845
26	0x3fb74c3f	1.4320143
27	0x3ebf4a56	0.373614
28	0x3fb5c78f	1.4201525
29	0x4072dc7b	3.794707
30	0x3edc6acc	0.4305023
31	0x3fd3f24b	1.6558317
32	0x3f57f830	0.8436308
33	0x3e9eaaa4	0.30989563
34	0x3e896387	0.26833746
35	0x3eb02186	0.34400576
36	0x3e0ef32e	0.13959953
37	0x3e0b313f	0.13593005
38	0x3e624cee	0.22099659
39	0x3fd620ba	1.6728737
40	0x3fbc8429	1.4727832
41	0x402064ba	2.5061479
42	0x3e2f0d32	0.17094877
43	0x3d4cb2ec	0.04997532
44	0x3d9ca1e8	0.07648069
45	0x3fbc9012	1.4731467
46	0x3e0908fe	0.13382336
47	0x3fac7218	1.3472319
48	0x3f3809a2	0.718897
49	0x3eeac769	0.45855263
50	0x3e54837a	0.2075328
51	0x3ff31f4c	1.8993926
52	0x3ee4e520	0.44706059
53	0x3fb5cc58	1.4202986
54	0x3f1e52b3	0.6184494
55	0x3e2f0b61	0.17094184
56	0x3d8cd3c4	0.068763286
57	0x3f9d5d15	1.2294031
58	0x3ea61909	0.32440975
59	0x3ec0d76a	0.37664348
60	0x3fb64809	1.4240733
61	0x3fb14114	1.3847985
62	0x3fc5b5b5	1.5446078
63	0x3e85edad	0.26157895
64	0x3f5fa956	0.8736776
65	0x3fa4fca2	1.2889597
66	0x3e8327a5	0.25616184
67	0x3eaf0019	0.34179762
68	0x3f0788c4	0.5294306
69	0x3f94bf76	1.1620929
70	0x3f83da07	1.0300912
71	0x3e521360	0.20515203
72	0x3f84e0c1	1.038109
73	0x3f7f1b99	0.99651486
74	0x3f801342	1.0005877
75	0x3e8544d6	0.2602908
76	0x3e89afbc	0.26891887
77	0x3ef8e995	0.4861571
78	0x3f329f54	0.69774365
79	0x4083051a	4.0943727
80	0x3e8f63b1	0.28005746
81	0x3f7263c5	0.94683486
82	0x3ef700f1	0.48242906
83	0x3f07beb4	0.53025365
84	0x40601a65	3.501611
85	0x3fca6634	1.581244
86	0x3f95b3df	1.1695517
87	0x3ed89924	0.42304337
88	0x3f83f9e0	1.0310631
89	0x4002ea04	2.0455332
90	0x406f293a	3.7368913
91	0x3f7a39c6	0.97744405
92	0x3e8f470b	0.2798389
93	0x3f40aa87	0.75260204
94	0x4090a2f6	4.5198927
95	0x3dd9ef86	0.106413886
96	0x3f9f3e2f	1.2440852
97	0x4064a50a	3.5725732
98	0x3ed299e4	0.41133034
99	0x3f4413b8	0.7659259

linear2.weight f4 [200, 100]
0	0x3d1933e4	0.037403002
1	0xbd1b1bde	-0.037868373
2	0x3c0bdf7a	0.008537168
3	0xbcee0ba1	-0.02905828
4	0xbd32b350	-0.043628037
5	0x3dad0502	0.08448221
6	0xbdc6bed5	-0.09704367
7	0xbc803676	-0.015650969
8	0xbb845964	-0.0040389765
9	0x3ba90781	0.0051583652
10	0x3d19461b	0.037420373
11	0xbd25e1cb	-0.040498536
12	0x3db961ce	0.09051858
13	0xbd60ccfa	-0.05488298
14	0x3e064dd0	0.1311562
15	0xbe084c0a	-0.13310257
16	0xbc388069	-0.011261084
17	0xbd2c2eec	-0.042036936
18	0xbc607d94	-0.013701815
19	0x3b0daefb	0.002161919
20	0xbd1c0d51	-0.038098637
21	0xbd25ec05	-0.04050829
22	0xbd36d24a	-0.04463414
23	0x3d539cf0	0.05166334
24	0xbcd46775	-0.025928238
25	0xbddf7ace	-0.10912095
26	0x3c1c0975	0.009523739
27	0xbc1ac494	-0.009446282
28	0x3c835caa	0.016035397
29	0xbc23a4eb	-0.00998805
30	0x3c9e8dd9	0.019354748
31	0xbcb1b45f	-0.021692453
32	0x3e21add7	0.15788971
33	0xbbb0cee7	-0.0053957584
34	0xbe33eea9	-0.1757151
35	0x3c5c509c	0.013446953
36	0x3ca1e51b	0.019762566
37	0x3bd95e07	0.0066335234
38	0x3c4fff97	0.012695215
39	0x3c42eef7	0.011897794
40	0xbd646d59	-0.055768345
41	0x3e1c84e0	0.15285063
42	0xbd65a5b1	-0.05606622
43	0x3ac468d9	0.001498486
44	0xbcec4008	-0.028839126
45	0xbdb5781e	-0.08860801
46	0xbde1220c	-0.10992822
47	0xbe2521b2	-0.16126135
48	0x3d368ea7	0.044569638
49	0x3d64b032	0.055832095
50	0xbcb19308	-0.021676555
51	0x3e40a15d	0.18811555
52	0x3d89cdd3	0.06728711
53	0x3c4da925	0.012552534
54	0xbcbd3ad7	-0.023099346
55	0x3d16a2e8	0.036776453
56	0xbdadba62	-0.08482815
57	0xbc3f69ce	-0.011682941
58	0x3cb07d65	0.021544168
59	0xbc04a692	-0.008096354
60	0x3ce471d0	0.027886301
61	0x3cee0155	0.02905337
62	0x3c4589b2	0.012056755
63	0xbd630429	-0.05542389
64	0xbc86e56a	-0.016466815
65	0x3c8d1b3a	0.017224897
66	0x3d639e6c	0.055571005
67	0x3e05eb2f	0.13077997
68	0x3bac8a5c	0.005265517
69	0xbcbd843f	-0.023134349
70	0xbdea9ada	-0.11455317
71	0x3b0d207e	0.002153426
72	0xbd9fe4b8	-0.078072965
73	0xbc889eb2	-0.016677234
74	0xbdde0346	-0.10840468
75	0x3c02b9f6	0.007978907
76	0xbaa35556	-0.0012461345
77	0xbd257d03	-0.040402424
78	0xbc73b121	-0.014873774
79	0x3da4081d	0.0800936
80	0x3c38929a	0.011265421
81	0x3dfa3af9	0.122182794
82	0xbd38ecd7	-0.045147743
83	0xbd089051	-0.033340756
84	0xba4d447a	-0.0007830333
85	0x3de5e8d8	0.11226052
86	0xbd74a985	-0.05973198
87	0x3d27b4e5	0.040944
88	0x3d5f6d1c	0.054547414
89	0x3d7c7264	0.06163253
90	0x3d95e15a	0.07318373
91	0x3cd3e0e9	0.025864081
92	0xbcbb60e9	-0.022873359
93	0x3cc0ec0c	0.023550056
94	0x3cac74ee	0.02105185
95	0x3ca42000	0.02003479
96	0xbc159a15	-0.009130974
97	0x3d011fac	0.031524345
98	0xbc9869ff	-0.01860523
99	0x3d633d59	0.055478428
100	0xbc8cb9bc	-0.017178409
101	0x3d671e5e	0.056425445
102	0xbd7b9cde	-0.061428897
103	0x3d9ba756	0.07600276
104	0x3dab386d	0.08360372
105	0xbc92ea85	-0.017934093
106	0xbb12d4ce	-0.0022404674
107	0x3c0c60dc	0.008568015
108	0xbcfce47d	-0.03087067
109	0x3c68fc38	0.01422029
110	0xbdba60d4	-0.091005
111	0xbd747370	-0.059680402
112	0xbd9e9c14	-0.07744613
113	0x3ddf02b6	0.10889189
114	0xbd90e743	-0.0707536
115	0x3d69cadd	0.05707823
116	0x3cf444da	0.029817987
117	0x3d895850	0.067062974
118	0xbd10696f	-0.0352568
119	0xbd16e434	-0.036838725
120	0xbce24c73	-0.027624344
121	0xbccae620	-0.024767935
122	0xbd8456cf	-0.0646187
123	0x3b498fec	0.003075595
124	0xbd11f55d	-0.035634387
125	0xbd559b2e	-0.052149944
126	0x3d3e9a8a	0.0465341
127	0xbd085071	-0.03327984
128	0xbe410873	-0.1885088
129	0xbd9ed343	-0.07755139
130	0xbd970588	-0.07374102
131	0x3cd2c905	0.02573062
132	0x3ce0e63e	0.027453538
133	0xbd708ac0	-0.058726072
134	0xbdae44b1	-0.085091956
135	0xbdc46443	-0.09589436
136	0x3bbe2cb0	0.005803667
137	0x3c1e7108	0.009670503
138	0xbdbd3e94	-0.092404515
139	0x3c86798c	0.01641538
140	0x3da51212	0.08060087
141	0x3d1d9d8a	0.03848032
142	0x3da60d2d	0.08107982
143	0x3b8d7ee1	0.0043181037
144	0x3d7f031d	0.06225883
145	0xbd15d20b	-0.036577266
146	0xbda54c67	-0.08071213
147	0xbe229ca9	-0.15880074
148	0x3de4311a	0.11142178
149	0xbde55f7e	-0.11199854
150	0xbcca228a	-0.024674673
151	0xbd9bd5df	-0.07609152
152	0xbd6d08e6	-0.057869814
153	0x3cf30a97	0.029668136
154	0x3c6bf85f	0.014402478
155	0x3d73b94b	0.05950288
156	0xbdd68900	-0.104753494
157	0xbcc97605	-0.024592409
158	0xbd8bc2e4	-0.06824282
159	0x3d2bf478	0.04198119
160	0xbe885698	-0.26628566
161	0xbd7629df	-0.060098525
162	0x3cd3b82c	0.025844656
163	0x3c55fa01	0.013060094
164	0x3deccf4a	0.11562975
165	0xbd92a266	-0.07159881
166	0xbd2f5fac	-0.04281585
167	0xbcf853cb	-0.030313393
168	0xbc8539ff	-0.016263006
169	0x3d87d259	0.066319175
170	0x3dc7de95	0.09759251
171	0x3c86e3b2	0.016465995
172	0x3ca194d5	0.019724289
173	0x3d9463e8	0.07245618
174	0x3d0e9c54	0.034817055
175	0xbc542206	-0.012947565
176	0xbdce3912	-0.10069479
177	0x3cf2d95a	0.029644657
178	0xbc197390	-0.009365931
179	0xbd3085cc	-0.04309635
180	0x3d0f9b95	0.035060484
181	0xbd355a38	-0.044275492
182	0x3c2a7d7b	0.010405893
183	0x3d150d62	0.036389716
184	0x3d37451a	0.044743635
185	0x3de22bc3	0.11043503
186	0x3d4f88b9	0.0506675
187	0x3c1a2657	0.009408555
188	0x3d62a21c	0.05533038
189	0xbdcecff7	-0.1009826
190	0xbd317745	-0.043326635
191	0xbcfd28b3	-0.030903196
192	0x3a0d09ea	0.00053802005
193	0xbd7790a3	-0.06044067
194	0xbd05b55e	-0.03264367
195	0x3e162ae7	0.14664803
196	0xbc59c709	-0.013292083
197	0x3bf365de	0.007427915
198	0x3d1e561c	0.03865634
199	0xbdc21c64	-0.09478071
200	0xbc3ad5db	-0.011403526
201	0x3bb53591	0.0055300673
202	0xbd30ea61	-0.04319227
203	0xbba7ea69	-0.0051243794
204	0x3bf34d7b	0.007425008
205	0xbceb3675	-0.02871249
206	0x3e25a55f	0.16176365
207	0x3cd44008	0.025909439
208	0x3d605a9d	0.054773916
209	0x3d138716	0.0360175
210	0xbe1499c4	-0.14511782
211	0x3c6f8d30	0.014621064
212	0xbdafe53d	-0.085886456
213	0xbc4e70a4	-0.012600098
214	0x3c77f059	0.015132987
215	0x3b44d53a	0.003003432
216	0xbca86106	-0.020554077
217	0xbc927849	-0.017879622
218	0xbc31951c	-0.010838773
219	0x3cb67124	0.022270747
220	0xbd7c79d0	-0.061639607
221	0x3cfa2bb4	0.030538417
222	0x3c58b450	0.013226584
223	0xbc6af76a	-0.014341215
224	0x3d25bdf9	0.040464375
225	0x3ddbc85d	0.10731576
226	0x3d5f79fb	0.05455969
227	0x3c5e01bd	0.013550219
228	0xbbc1d4f6	-0.0059152795
229	0xbc27d57e	-0.010243772
230	0xbcdfa89f	-0.027302084
231	0xbddbc9d2	-0.107318535
232	0x3d413475	0.047169168
233	0x3ce250ad	0.02762636
234	0x3d750981	0.059823517
235	0x3cfdf4d6	0.031000536
236	0xbd0642cd	-0.03277855
237	0xbdaf097c	-0.08546731
238	0x3d51f5cc	0.0512598
239	0xbd36d97a	-0.044640996
240	0x3db3d515	0.087808765
241	0xbccdc345	-0.025117526
242	0xbc5abcdf	-0.013350694
243	0xbc6dbce6	-0.014510369
244	0xbd1a6282	-0.0376916
245	0x3d23e039	0.040008757
246	0x3d2dbbb4	0.042415336
247	0x3c2fc5c3	0.010728302
248	0x3d00da7b	0.03145836
249	0xbd782bbd	-0.060588587
250	0x3d71e7b3	0.059058856
251	0xbcdb6e2c	-0.026785932
252	0xbcc52381	-0.024064781
253	0xbc3c94e4	-0.011510108
254	0x3ab4d1fa	0.0013795488
255	0xbf15cf1c	-0.5851915

linear2.bias f4 [200]
0	0x3c8ee76f	0.01744434
1	0x3d81dd32	0.06341018
2	0x3c863686	0.01638342
3	0xbddcc342	-0.1077943
4	0xbd67e12c	-0.056611225
5	0x3d2031df	0.03911006
6	0x3d83d68e	0.064374074
7	0x3ce136c2	0.02749193
8	0x3cc7a153	0.024368918
9	0x3d08b634	0.033376887
10	0x3d9454f1	0.07242764
11	0xbc3334c0	-0.01093787
12	0x3d941533	0.07230606
13	0x3d741a87	0.05959561
14	0x3d4a629c	0.049410447
15	0xbd9fbf25	-0.0780013
16	0xbd74d9c0	-0.059777975
17	0xbd549134	-0.05189629
18	0x3dea8910	0.11451924
19	0x3d6f5a65	0.058435816
20	0xbdc7873a	-0.09742589
21	0x3c92fa52	0.017941628
22	0x3d7810e6	0.06056299
23	0xbda8bae2	-0.0823877
24	0x3d860f3f	0.06545877
25	0x3db05e1a	0.086116984
26	0xbd797b4f	-0.060908612
27	0xbd446de2	-0.047956355
28	0xbc5a3ba0	-0.01331988
29	0xbd3cde9b	-0.04611073
30	0xbc1dc4f4	-0.009629477
31	0x3ce8dd8c	0.028425954
32	0xbd38c4d1	-0.045109574
33	0xbd6633bc	-0.05620168
34	0x3d89e9b1	0.06734026
35	0xbdc59bb5	-0.096488394
36	0xbce8a6e8	-0.0283999
37	0xbcf97450	-0.03045097
38	0xbd78a81f	-0.060707208
39	0xbccd314f	-0.025047926
40	0x3d334091	0.043762747
41	0xbdf271f0	-0.11838138
42	0xbd820f18	-0.06350535
43	0xbda179f1	-0.078845866
44	0x3ce4b1e2	0.027916852
45	0xbbd7f5da	-0.006590587
46	0xbc77a398	-0.015114687
47	0x3ce98e73	0.028510308
48	0x3d9e0ad4	0.07716909
49	0x3cf6b0f5	0.030113677
50	0xbcef97c7	-0.029247178
51	0xbd823a8f	-0.063588254
52	0xbd8e4024	-0.069458276
53	0x3c880b89	0.016607063
54	0xbd45f2bf	-0.048327204
55	0xbcbaa566	-0.022783946
56	0x3b17d3be	0.002316698
57	0xbd1892a4	-0.037249222
58	0xbd8ac38c	-0.06775579
59	0xbd89ce86	-0.06728844
60	0x3d6651bf	0.056230303
61	0x3aec8618	0.0018045334
62	0xbc82c0f3	-0.015961146
63	0xbdb7a8d7	-0.089677505
64	0xbd12c71a	-0.03583441
65	0xbd8d5812	-0.06901564
66	0x3ca9bd0d	0.02072003
67	0xbda91dbe	-0.08257626
68	0xbd32f532	-0.043690868
69	0x3df216be	0.11820744
70	0x3d1f256f	0.03885406
71	0x3b999857	0.00468735
72	0xbd7b19f8	-0.061304063
73	0x3d7357ec	0.05941002
74	0x3ab98dd2	0.0014156646
75	0xbd4ff91e	-0.050774686
76	0xbc40d164	-0.011768673
77	0xbdbb6caa	-0.091515854
78	0x3da73b0d	0.0816556
79	0xbde6fe7d	-0.112790085
80	0x3d814f1c	0.06313917
81	0xbc34c8cb	-0.011034201
82	0x3dd93dde	0.10607503
83	0xbddcdfce	-0.10784875
84	0xbcfd2a9c	-0.030904107
85	0x3d61a037	0.055084433
86	0xbcd0cc34	-0.025487997
87	0x3d3b5f9f	0.04574549
88	0xbdc33134	-0.09530869
89	0xbd32e53d	-0.04367565
90	0xbd195c4e	-0.037441544
91	0xb9a40b84	-0.00031289097
92	0x3c8d680a	0.017261524
93	0xbd289f78	-0.041167706
94	0xbd8a9100	-0.06765938
95	0xbdeecbcd	-0.11659966
96	0x3b93936e	0.004503659
97	0xbcb6c798	-0.02231197
98	0xbd6f1c0d	-0.05837636
99	0xbd130ca4	-0.035900727
100	0xbc9dc968	-0.019261077
101	0x3ce65525	0.028116772
102	0x3d902537	0.07038348
103	0xbdebcb44	-0.11513379
104	0x3de7009d	0.11279414
105	0xbbe835b3	-0.0070864796
106	0x3d2ee0e0	0.042694926
107	0xbd1a0b30	-0.037608325
108	0xbce08aa1	-0.027409853
109	0xbda8fd25	-0.082514085
110	0xbcc65e2e	-0.02421483
111	0xba254eb5	-0.0006305979
112	0x3cc246ab	0.023715338
113	0x3c85846c	0.016298495
114	0xbd4d3f33	-0.0501091
115	0x3d8ec363	0.06970861
116	0x3b25e5a7	0.0025313885
117	0xbd1a4541	-0.037663702
118	0xbd3cf009	-0.046127353
119	0x3c98f91e	0.018673476
120	0x3d684da8	0.056714684
121	0x3cd4bc2f	0.02596864
122	0x3d463bd3	0.048396897
123	0x3cf26b6c	0.029592238
124	0x3ca03ced	0.019560302
125	0xbd183317	-0.037158098
126	0xbd9f0293	-0.07764163
127	0xbc62c0bc	-0.013839897
128	0x3db3cd93	0.087794445
129	0x3c9829e9	0.018574672
130	0xbd847aed	-0.06468759
131	0xbd0ceac7	-0.03440359
132	0x3d638fc3	0.055557024
133	0xbdc13ac3	-0.09435036
134	0x3d15c5cf	0.036565598
135	0xbd093daf	-0.03350609
136	0xbd88aefb	-0.06674
137	0x3dd430e8	0.103608906
138	0xbd8d4f1d	-0.06899855
139	0x3db2303b	0.087006055
140	0xbd016089	-0.031586204
141	0xbd3a90ab	-0.045548122
142	0x3d900e41	0.07033969
143	0x3c857c88	0.016294733
144	0x3d5711ef	0.052507337
145	0xbd7c7f11	-0.061644617
146	0xbd144907	-0.036202457
147	0x3cd682b9	0.02618538
148	0x3d29ff18	0.041503042
149	0x3a8d95ec	0.0010802126
150	0xbdc57afe	-0.096425995
151	0x3d35ffea	0.04443351
152	0x3db8148d	0.08988295
153	0x3bfada09	0.0076553863
154	0x3cdd73a6	0.027032685
155	0xbd1fce66	-0.039015196
156	0x3d4e1dd5	0.05032142
157	0xbd6b41e7	-0.057435896
158	0x3dc38068	0.09545976
159	0xbc7e48d9	-0.015520298
160	0xbbd4ffc7	-0.0065002176
161	0xbd8b8855	-0.06813113
162	0xb9c84bc8	-0.00038203434
163	0xbc5cb4cd	-0.013470841
164	0x3dc4f989	0.096179076
165	0xbd34a908	-0.044106513
166	0xbd128807	-0.035774257
167	0xbdc6ee31	-0.097134
168	0x3dd183e2	0.10230233
169	0xbd33dc2f	-0.043911155
170	0xbdd0b69e	-0.101910815
171	0x3d527673	0.051382493
172	0xbda504ea	-0.08057578
173	0xbd46e0fb	-0.0485544
174	0xbc27bc2b	-0.010237734
175	0x3d1a7ed7	0.03771862
176	0xbd6de405	-0.058078784
177	0xbd81a1a7	-0.06329661
178	0x3c56f803	0.013120654
179	0x3dc0a38f	0.09406196
180	0xbc4b7849	-0.012418815
181	0x3db1bde8	0.086788
182	0x3d9109f0	0.070819736
183	0x3d78304a	0.060592927
184	0x3dd1eec0	0.10250616
185	0xbd1ab5c3	-0.037770998
186	0xbdf3525d	-0.11880944
187	0x3debe7af	0.115187995
188	0x3d72fa52	0.059320755
189	0x3d7d5c3c	0.06185554
190	0xbd88fb5f	-0.0668857
191	0xbddc464f	-0.10755598
192	0x3d14f0ad	0.03636234
193	0x3d2fa0b9	0.042877886
194	0xbcfa4e01	-0.030554773
195	0x3d961881	0.073288925
196	0x3db83ec0	0.089963436
197	0xbda259a3	-0.07927253
198	0x3d2bbb6e	0.041926794
199	0xbc0b63fd	-0.008507726

bn2.weight f4 [200]
0	0x3f5aa791	0.85411936
1	0x3f6eea3a	0.9332615
2	0x3f7414cf	0.9534425
3	0x3f977c17	1.1834744
4	0x3f6f8023	0.93554896
5	0x3f8d59b3	1.1042999
6	0x3f587672	0.84555733
7	0x3f4437b4	0.76647496
8	0x3f218f2c	0.6310909
9	0x3fa21ff5	1.2666003
10	0x3f37cbc3	0.7179529
11	0x3f87d8db	1.0613054
12	0x3f54f9d5	0.83193713
13	0x3f830348	1.0235376
14	0x3f782f55	0.9694722
15	0x3f6c48fc	0.92298865
16	0x3f6e161a	0.93002474
17	0x3f4ccc49	0.79999214
18	0x3f6a71ef	0.915801
19	0x3f717226	0.943148
20	0x3f794eff	0.97386163
21	0x3f646cad	0.89228326
22	0x3f6c283e	0.92248905
23	0x3f812f99	1.0092651
24	0x3f85a447	1.0440758
25	0x3f8658af	1.0495814
26	0x3f0a2e53	0.53976935
27	0x3f7d8128	0.990252
28	0x3f723c7a	0.9462353
29	0x3f6de25e	0.92923534
30	0x3ef1ec4b	0.4725059
31	0x3f8b9057	1.0903424
32	0x3f90e456	1.1319683
33	0x3f2bd02b	0.67114514
34	0x3f8d683e	1.1047437
35	0x3f70102e	0.9377469
36	0x3f7daaa1	0.99088484
37	0x3f7f41a0	0.9970951
38	0x3f4a282e	0.7896756
39	0x3f83184f	1.0241793
40	0x3f717513	0.94319266
41	0x3f74b6fe	0.95591724
42	0x3f802233	1.0010437
43	0x3f5602fa	0.8359829
44	0x3f7eb0c3	0.99488467
45	0x3f6b717b	0.9197003
46	0x3f50d2d5	0.81571704
47	0x3f82447b	1.0177149
48	0x3f2135b0	0.62972546
49	0x3f7e8e7d	0.9943617
50	0x3f3f4d6e	0.74727523
51	0x3f6c343e	0.92267215
52	0x3f8c92b2	1.0982268
53	0x3f781fa6	0.9692329
54	0x3f90ab6e	1.1302316
55	0x3f739465	0.9514831
56	0x3f36bd38	0.71382475
57	0x3f467233	0.77518004
58	0x3f73cb24	0.95231843
59	0x3f6ab381	0.9168015
60	0x3f726f51	0.94701105
61	0x3f7dd949	0.99159676
62	0x3f87744d	1.0582367
63	0x3f2a3fb4	0.66503453
64	0x3f76d02b	0.9641139
65	0x3f836ab9	1.0266944
66	0x3f1ef182	0.6208726
67	0x3f90717c	1.1284633
68	0x3f659d1f	0.8969287
69	0x3f8d4a5b	1.1038316
70	0x3f4aaece	0.7917298
71	0x3f82be34	1.0214295
72	0x3f710cf8	0.94160414
73	0x3f1f090e	0.6212319
74	0x3f92767c	1.1442409
75	0x3f32fc89	0.6991659
76	0x3f7e2024	0.9926779
77	0x3f679c53	0.90472907
78	0x3f407e48	0.7519269
79	0x3f8fe54a	1.1241848
80	0x3f285e43	0.6576883
81	0x3f80d0c5	1.0063711
82	0x3f760d9d	0.9611452
83	0x3f94561e	1.1588781
84	0x3f5d1719	0.8636337
85	0x3f82bc7a	1.0213768
86	0x3f7ff7c2	0.99987423
87	0x3f41a4c3	0.7564203
88	0x3f6bb894	0.9207852
89	0x3f8efd4e	1.1171052
90	0x3f212996	0.6295408
91	0x3f659c23	0.8969137
92	0x3f7a2088	0.9770589
93	0x3f32cf7d	0.6984785
94	0x3f853f0a	1.0409863
95	0x3f840ffb	1.0317377
96	0x3f8f03f1	1.1173078
97	0x3f37ade8	0.71749735
98	0x3f51a16a	0.81886923
99	0x3f985cdc	1.1903338
100	0x3f6f84f0	0.9356222
101	0x3f81dd97	1.0145749
102	0x3f77c4fd	0.96784955
103	0x3f3f140d	0.7463997
104	0x3f6f0852	0.9337207
105	0x3f4ff462	0.81232274
106	0x3f781885	0.96912414
107	0x3f73109e	0.9494723
108	0x3f3d3d98	0.7392211
109	0x3f5e04e2	0.867262
110	0x3f6bbb2f	0.92082494
111	0x3f826c95	1.0189387
112	0x3f4bfed4	0.7968571
113	0x3f88d186	1.0688941
114	0x3f24c5be	0.6436423
115	0x3f834ec4	1.0258412
116	0x3f69daf6	0.9134973
117	0x3f59a03a	0.8501011
118	0x3f04d7e8	0.51891947
119	0x3f80657d	1.0030972
120	0x3f616b52	0.8805438
121	0x3f81b0e1	1.0132104
122	0x3f6ba3db	0.920469
123	0x3f87d58d	1.0612046
124	0x3f31e4b2	0.69489586
125	0x3f28aa90	0.6588526
126	0x3f648d8d	0.8927849
127	0x3f494907	0.78627056
128	0x3f79f99e	0.9764651
129	0x3f84db71	1.0379468
130	0x3f7cbb7b	0.9872357
131	0x3f71f5b2	0.94515526
132	0x3f70f896	0.9412931
133	0x3f7119b5	0.9417985
134	0x3f7a1809	0.97692925
135	0x3f81bf3d	1.0136486
136	0x3f7ed457	0.99542755
137	0x3f744370	0.954154
138	0x3f55bdfe	0.8349303
139	0x3f93b415	1.1539332
140	0x3f7eb44c	0.9949386
141	0x3f7820a9	0.96924835
142	0x3f6353f1	0.8879996
143	0x3f82e5a7	1.0226334
144	0x3f82b6f6	1.0212085
145	0x3f7978a3	0.974497
146	0x3f4a9336	0.79130876
147	0x3f897ab5	1.0740572
148	0x3f4c688a	0.79847014
149	0x3f600aaa	0.8751627
150	0x3f44872e	0.7676877
151	0x3f6d23ce	0.9263276
152	0x3f487718	0.7830672
153	0x3f432601	0.76229864
154	0x3f862e59	1.0482894
155	0x3f3f3f1b	0.74705666
156	0x3f7b1582	0.98079693
157	0x3f8d295f	1.102825
158	0x3f2bb921	0.6707936
159	0x3f601cf5	0.87544185
160	0x3f8c3c9b	1.0955995
161	0x3f37be4f	0.7177476
162	0x3f4d1584	0.80110955
163	0x3f643f01	0.89158636
164	0x3f4ec55d	0.807699
165	0x3f722948	0.9459424
166	0x3f8df250	1.1089573
167	0x3f5300a7	0.8242287
168	0x3f466701	0.7750092
169	0x3f48efef	0.7849111
170	0x3f19bece	0.6005677
171	0x3f4d353d	0.8015936
172	0x3f8554f7	1.0416554
173	0x3f5d7309	0.86503655
174	0x3f44ee27	0.7692589
175	0x3f88edee	1.069761
176	0x3f55b6ae	0.8348187
177	0x3f30b127	0.69020313
178	0x3f722413	0.94586295
179	0x3f5484f7	0.8301539
180	0x3f857c65	1.0428587
181	0x3f50de31	0.8158904
182	0x3f669cd5	0.90083057
183	0x3f8e07d4	1.1096139
184	0x3f6e5099	0.9309173
185	0x3f37ff73	0.7187416
186	0x3f84162e	1.0319269
187	0x3f6af62a	0.91781867
188	0x3f59832b	0.8496577
189	0x3f8189e0	1.0120201
190	0x3f878ec4	1.0590444
191	0x3f8e81a4	1.1133313
192	0x3f1c559d	0.61068135
193	0x3f4106fb	0.75401276
194	0x3f622ec1	0.8835259
195	0x3f4e450c	0.8057411
196	0x3ef91adc	0.48653305
197	0x3f4870b3	0.78296965
198	0x3f815b43	1.0105976
199	0x3f7021a7	0.9380135

bn2.bias f4 [200]
0	0xbe5ee5a2	-0.21767285
1	0x3db52979	0.08845801
2	0xbe8d6398	-0.27615047
3	0x3c341297	0.01099076
4	0xbcaa592e	-0.020794477
5	0x3e69095d	0.22757478
6	0xbe83a8d4	-0.25714743
7	0x3e7bb6d0	0.24581456
8	0x3ec8c491	0.39212468
9	0xbeaf0fd9	-0.34191778
10	0x3ea1f323	0.3163081
11	0xbd171a18	-0.03689012
12	0x3d5b30e2	0.053513415
13	0x3c81d099	0.015846537
14	0xbefde0be	-0.49585527
15	0xbf1c2fc6	-0.61010396
16	0x3d765033	0.060135078
17	0xbe514425	-0.20436151
18	0xbe074733	-0.13210754
19	0xbd5b851d	-0.053593744
20	0xbec1102f	-0.3770766
21	0xbd5d6ed3	-0.05406077
22	0xbe4cf873	-0.20016651
23	0x3d3401b8	0.04394695
24	0xbda4b7ba	-0.080428556
25	0xbeff2682	-0.49834067
26	0x3c974d84	0.01846958
27	0xbd66e34e	-0.05636912
28	0xbf33639b	-0.7007386
29	0xbe21a0ca	-0.15783992
30	0x3f0d6fb4	0.5524857
31	0xbf550905	-0.8321689
32	0xbf1dcb3d	-0.6163824
33	0x3ded5ba6	0.11589746
34	0x3e37d143	0.17950921
35	0xbcba870f	-0.02276948
36	0xbd5f40e3	-0.05450524
37	0xbe429081	-0.19000436
38	0xbd5ed817	-0.054405298
39	0x3e0b297f	0.13590048
40	0xbe81174a	-0.2521308
41	0xbeb94f82	-0.36193472
42	0xbe5fff5f	-0.2187476
43	0xbf433ba8	-0.76262903
44	0xbd911a5c	-0.07085106
45	0x3e320c4a	0.173875
46	0xbe5741cd	-0.21021195
47	0xbdc72069	-0.097229786
48	0x3d4f9778	0.05068156
49	0xbe0d60a1	-0.13806392
50	0x3e79fd12	0.24412945
51	0xbdf292a1	-0.118443735
52	0x3ca722ad	0.020402277
53	0xbf598fdc	-0.84985137
54	0xbda34104	-0.07971385
55	0x3dad8797	0.08473127
56	0xbd464168	-0.04840222
57	0x3e9d98e7	0.30780718
58	0xbb88d563	-0.0041758283
59	0xbe4467e1	-0.19180252
60	0x3daa2207	0.083072715
61	0x3d08f587	0.033437278
62	0x3e7e26c3	0.24819474
63	0x3d89642c	0.067085594
64	0xbd74db5f	-0.05977952
65	0xbe48eff4	-0.19622785
66	0x3e000488	0.12501729
67	0xbea41995	-0.32050768
68	0xbde0f09d	-0.10983393
69	0xbce07e0b	-0.027403852
70	0xbef2649d	-0.47342387
71	0x3d1eb45c	0.038746223
72	0x3d66ff0e	0.056395583
73	0x3eaececf	0.34142157
74	0x3be39b04	0.0069459695
75	0x3e07755a	0.1322836
76	0x3d8f3b34	0.06993714
77	0x3d89b622	0.06724192
78	0x3e5b9425	0.21443231
79	0x3dd5cf7b	0.104399644
80	0x3e776b68	0.24162066
81	0x3ccae1f3	0.024765944
82	0x3cd5a7ba	0.026080955
83	0xbd51ee94	-0.051252916
84	0x3e8af050	0.2713647
85	0xbcc5d9c3	-0.024151688
86	0xbca76587	-0.020434154
87	0x3e83bdea	0.2573083
88	0xbc5d9f34	-0.0135267265
89	0x3c387f2f	0.011260792
90	0x3df57fde	0.11987279
91	0xbd524105	-0.05133154
92	0x3d85e866	0.06538467
93	0x3df38db5	0.11892263
94	0xbe219dc0	-0.15782833
95	0xbe1656c8	-0.14681542
96	0x3d006894	0.031349733
97	0xbd8004f7	-0.06250947
98	0x3ee24e43	0.44200334
99	0x3e9f76da	0.31145364
100	0xbf25efc0	-0.64818954
101	0xbe47e24e	-0.19519922
102	0xbd6501b0	-0.055909812
103	0x3f1e38e7	0.61805576
104	0x3c5498fb	0.0129759265
105	0xbe10595e	-0.14096591
106	0x3d4828e0	0.048867106
107	0x3c9abc02	0.018888477
108	0x3e37058d	0.17873211
109	0x3e6da695	0.23208077
110	0xbdeff089	-0.117158
111	0xbc912079	-0.01771568
112	0xbd57516a	-0.052567877
113	0xbe395fb2	-0.18102911
114	0x3da8fd90	0.08251488
115	0x3bdd8763	0.006760524
116	0xbf634350	-0.88774586
117	0xbe157538	-0.14595497
118	0x3f022127	0.50831836
119	0xbd8ef0bf	-0.069795124
120	0xbe2b2dd2	-0.16716698
121	0x3d4fb330	0.050707996
122	0xbe4f16b6	-0.20223507
123	0xbd5afbc8	-0.053462774
124	0x3ead2282	0.3381539
125	0x3e5576e9	0.20846142
126	0x3c51acae	0.012797518
127	0x3e5e7810	0.21725488
128	0xbd9cfe99	-0.07665748
129	0x3da04936	0.07826464
130	0x3e2642ae	0.16236374
131	0xbddd2b5a	-0.10799284
132	0x3d4956f9	0.04915521
133	0xbbfe6c26	-0.007764357
134	0x3dd10cdb	0.1020753
135	0xbd9fc152	-0.07800545
136	0x3af14076	0.0018406052
137	0x3d56a9db	0.05240808
138	0x3e6c4997	0.23074947
139	0xbe6d7588	-0.23189366
140	0xbbc9826a	-0.00614958
141	0x3c89e918	0.01683478
142	0xbe2d683d	-0.16934295
143	0x3d79e9fb	0.061014157
144	0x3b8a980a	0.0042295502
145	0x3db0311f	0.08603119
146	0xbe388a96	-0.18021616
147	0xbe21e0bc	-0.15808386
148	0x3e3751c0	0.17902279
149	0xbefe12b3	-0.4962364
150	0x3e2387e3	0.15969805
151	0x3c836a77	0.016041977
152	0x3e0cc3fd	0.13746639
153	0xbe460c52	-0.19340637
154	0x3b12c28f	0.0022393798
155	0xbd037224	-0.032091275
156	0xbcf81cd6	-0.030287188
157	0xbc11aad6	-0.008890828
158	0x3df2a806	0.11848454
159	0x3f16960e	0.58822715
160	0x3ef43ae8	0.47701192
161	0x3ecf6576	0.40507096
162	0x3ec7884c	0.38971174
163	0xbed7171c	-0.4200982
164	0xbee9effc	-0.45690906
165	0xbc30edd5	-0.010798891
166	0xbdac0592	-0.083995
167	0xbda3b80c	-0.079940885
168	0x3e6c64c7	0.23085319
169	0x3e9098d0	0.28241587
170	0x3e8ec90b	0.2788776
171	0xbeb2c10a	-0.34912902
172	0x3d470ec4	0.048598066
173	0xbf48161c	-0.78158736
174	0xbe61f465	-0.22065885
175	0xbcee32b1	-0.029076906
176	0x3eac1ce6	0.33615798
177	0x3ea1cf89	0.3160365
178	0xbd1ed150	-0.038773835
179	0x3da50ada	0.080587104
180	0x3d14e96f	0.036355432
181	0xbf3ee27e	-0.7456435
182	0xbd98995f	-0.07451128
183	0xbd722d84	-0.05912544
184	0xbe84b896	-0.25922078
185	0x3e575a56	0.21030554
186	0x3d13915b	0.036027294
187	0x3e005007	0.12530528
188	0x3df8b19c	0.12143251
189	0xbc8331a9	-0.01601489
190	0xbdad64f2	-0.084665194
191	0xbf0963d3	-0.53667945
192	0x3e706914	0.23477584
193	0xbdfde1f8	-0.12396616
194	0xbeaa915d	-0.33314028
195	0x3db6be4f	0.08923017
196	0x3f0646e2	0.5245191
197	0xbe91dd04	-0.28488934
198	0x3e03e79b	0.12881319
199	0x3d92925c	0.07156822

bn2.running_mean f4 [200]
0	0x3e3b4476	0.18287835
1	0xbf0314cf	-0.51203626
2	0xbe7d1ac8	-0.24717247
3	0xbf44ac66	-0.7682556
4	0x3dedab92	0.1160499
5	0xbd44df89	-0.048064742
6	0x3e1463c8	0.14491189
7	0xbdb5aa3d	-0.08870361
8	0xbe9f8ca4	-0.31161988
9	0x3e25748d	0.16157742
10	0xbe228eb1	-0.15874745
11	0x3e086a18	0.13321722
12	0x3ec6ce1f	0.38829133
13	0x3f36240f	0.7114877
14	0x3ec99aa1	0.39375785
15	0x3dbe7543	0.0929971
16	0xbc38e3cf	-0.011284783
17	0x3f5d9cb0	0.8656721
18	0xbc0b396d	-0.008497578
19	0x3efdd40d	0.49575844
20	0x3e5d767a	0.21627226
21	0xbeccb27d	-0.39979926
22	0xbf7ac62c	-0.97958636
23	0xbee34ca2	-0.44394404
24	0x3efca18f	0.4934201
25	0x3ed34c74	0.41269267
26	0xbf17214c	-0.5903518
27	0x3f3533af	0.7078199
28	0x3e575ecf	0.2103226
29	0x3ddf192c	0.10893473
30	0xbf07babe	-0.5301932
31	0x3e4debf0	0.20109534
32	0x3ed16563	0.40897664
33	0x3f0b6319	0.54448086
34	0xbe95b25c	-0.2923764
35	0x3dab5ac0	0.083669186
36	0xbe8b9f59	-0.2727001
37	0xbd1139a3	-0.035455357
38	0xbcc8e9d3	-0.024525559
39	0xbe247f42	-0.1606417
40	0x3e9eeb05	0.3103868
41	0xbe094666	-0.13405761
42	0x3ea07681	0.3134041
43	0x3e8ef312	0.27919823
44	0xbdb70ee8	-0.0893839
45	0x3e243ed3	0.1603959
46	0xbe4668c0	-0.19375896
47	0xbdb25058	-0.087067306
48	0xbe6b3c49	-0.22972216
49	0xbe9a8ed2	-0.30187088
50	0x3e0808bd	0.13284583
51	0x3eec6051	0.46167234
52	0x3e6526ad	0.22378035
53	0x3da24bf7	0.079246454
54	0xbdac7182	-0.084200874
55	0x3c8cc8a8	0.017185524
56	0xbf059259	-0.52176434
57	0x3e4f4440	0.20240879
58	0xbddc6d91	-0.10763086
59	0x3dec7d03	0.115472816
60	0xbe990d72	-0.2989307
61	0xbf9a2476	-1.2042377
62	0x3eb4ed44	0.3533727
63	0xbf118093	-0.56836814
64	0xbe7f015f	-0.24902867
65	0xbd6e78ca	-0.058220662
66	0x3e99c77e	0.30035013
67	0xbf0bb58b	-0.5457389
68	0xbe900a17	-0.28132698
69	0x3d873c46	0.06603293
70	0xbddd4f2e	-0.10806118
71	0xbbf20d60	-0.0073868483
72	0xbe3927d5	-0.18081601
73	0x3df02077	0.11724942
74	0x3e3e1fb8	0.18566787
75	0xbefe3813	-0.49652156
76	0xbf5ecab3	-0.87028044
77	0xbf189f9d	-0.5961855
78	0x3eb7f0f6	0.35926026
79	0x3e4caee8	0.19988596
80	0xbf05e629	-0.5230432
81	0xbc58f81a	-0.013242746
82	0xbf7c5928	-0.9857354
83	0x3e8439f0	0.25825453
84	0x3e17b084	0.14813429
85	0x3f401ada	0.7504097
86	0xbee33e1b	-0.4438332
87	0xbd215def	-0.039396223
88	0xbf809f14	-1.0048547
89	0xbe563b21	-0.20920993
90	0x3f5d2820	0.8638935
91	0xbf145ade	-0.5795115
92	0x3eaec8d4	0.34137595
93	0xbf72b8d3	-0.9481327
94	0xbd95c05d	-0.07312081
95	0x3ea02992	0.31281716
96	0xbf19226a	-0.59818137
97	0xbe86e4ff	-0.26346585
98	0xbef31285	-0.47475067
99	0x3e6e830e	0.23292181
100	0x3c8c1479	0.017099606
101	0xbf43ac21	-0.7643452
102	0x3e55e7c9	0.208892
103	0xbf2f7d12	-0.6855022
104	0x3e1cbffc	0.15307611
105	0x3e4c4268	0.19947207
106	0xbf1cbf4f	-0.61229414
107	0x3de0c4da	0.109750465
108	0xbf27d5a4	-0.65560365
109	0xbd6be99a	-0.057595827
110	0xbd815800	-0.06315613
111	0x3e813bd2	0.25240952
112	0xbf0bc886	-0.5460285
113	0x3e0994bd	0.13435645
114	0xbe85d9c7	-0.26142713
115	0x3b50abc5	0.0031840664
116	0x3ec50f1c	0.3848809
117	0x3ebc4736	0.3677308
118	0xbec9707c	-0.3934363
119	0xbca417ac	-0.020030819
120	0xbe60b583	-0.21944241
121	0x3e4f5038	0.20245445
122	0x3ee5d499	0.44888762
123	0xbe873885	-0.26410308
124	0xbd8ed45f	-0.069741
125	0xbf038017	-0.51367325
126	0xbda237bd	-0.079207875
127	0xbf06f309	-0.5271459
128	0xbeae6d94	-0.34067976
129	0x3f301798	0.68786
130	0x3d8a6b63	0.06758764
131	0xbe07515d	-0.13214631
132	0x3edf6922	0.43634897
133	0x3f3c4e28	0.73556757
134	0xbde8c77c	-0.113661736
135	0x3d312247	0.04324558
136	0xbc964492	-0.018343244
137	0xbd3b3fc2	-0.0457151
138	0xbe7505bb	-0.23927967
139	0x3e16860d	0.14699574
140	0x3c8b8089	0.017029064
141	0x3cab0f08	0.02088119
142	0xbeb5c498	-0.35501552
143	0xbf5da74e	-0.8658341
144	0x3f2ba16b	0.6704318
145	0xbd6c8744	-0.057746187
146	0xbf36d8dd	-0.7142466
147	0xbe815483	-0.2525979
148	0xbe8d3c81	-0.27585223
149	0x3e7a0903	0.244175
150	0xbe56d124	-0.20978218
151	0x3e0f74ef	0.1400945
152	0xbedf43f1	-0.43606523
153	0xbcc45f57	-0.023971243
154	0xbed583e5	-0.4170219
155	0x3e0d3116	0.13788256
156	0xbf54fb10	-0.8319559
157	0xbd87a46d	-0.066231586
158	0xbed75d19	-0.42063215
159	0xbdeba6b3	-0.11506405
160	0x3f0e8b72	0.55681527
161	0x3d683a16	0.05669602
162	0xbea56ee7	-0.32311174
163	0xbe91d252	-0.28480774
164	0x3f15a7dc	0.5845926
165	0xbe72145c	-0.23640579
166	0x3e63a84e	0.22232172
167	0x3f0b4d55	0.54414874
168	0xbe8aeb2b	-0.27132544
169	0x3e86ec0c	0.26351964
170	0xbe734041	-0.2375498
171	0x3db9622e	0.090519294
172	0xbf0dfe8d	-0.5546654
173	0xbdfa07c6	-0.12208514
174	0x3dadf8f2	0.08494748
175	0xbf6b46da	-0.91904986
176	0xbe5ed2e3	-0.21760134
177	0xbe2cd514	-0.16878158
178	0xbca84ac0	-0.020543456
179	0xbe97ad47	-0.29624388
180	0xbf12bd1a	-0.57319796
181	0x3e98ca58	0.29841876
182	0xbc0d07f4	-0.008607853
183	0xbf8acfe6	-1.0844696
184	0x3dcc4e71	0.09975899
185	0x3efc29fa	0.49250776
186	0xbc4dfc44	-0.012572352
187	0xbe4b1e7f	-0.19835852
188	0x3d916081	0.07098485
189	0x3caf91d5	0.021431843
190	0xbe8f3792	-0.27972084
191	0x3f535d79	0.825645
192	0x3f23d42f	0.6399564
193	0xbf2890a6	-0.65845716
194	0xbe89ebdc	-0.2693776
195	0xbb58b24c	-0.0033065258
196	0x3f2cdda6	0.6752571
197	0xbf152361	-0.5825711
198	0x3eb2e36d	0.34939137
199	0xbed57bea	-0.416961
