artifacts/890_walkerDynamics.pt (torch, 196730 bytes, 20 tensors)

linear1.weight f4 [100, 30]
0	0xbeb23773	-0.3480793
1	0xbd17ab8b	-0.03702883
2	0xbee3fd3f	-0.4452915
3	0x3ea1b06d	0.31579915
4	0xbdf53da5	-0.119746484
5	0xbe2c6b58	-0.16837823
6	0xbc462f07	-0.012096173
7	0xbde68fce	-0.11257897
8	0xbd5b0d57	-0.05347952
9	0x3e21a09a	0.15783921
10	0xbeada6b7	-0.33916256
11	0x3d8a9cf7	0.0676822
12	0x3ec50516	0.38480443
13	0xbe184edb	-0.14873831
14	0x3f32b41b	0.6980607
15	0x3cf4bd52	0.029875431
16	0x3c92db87	0.017926944
17	0x3c9cdd2d	0.019148434
18	0x3d8aee3f	0.06783723
19	0x3ced89a0	0.028996289
20	0xbcb34d32	-0.021887396
21	0xbd1b5f77	-0.03793284
22	0xbd0ccdf0	-0.034376085
23	0x3d680a9b	0.05665074
24	0x3e83c794	0.25738204
25	0x3ce2a6ce	0.02766743
26	0xbe9a2067	-0.30102846
27	0xbc103fbf	-0.008804261
28	0x3d983adc	0.074331015
29	0x3e6257ff	0.2210388
30	0x3eca4ce3	0.39511785
31	0xbbe013dd	-0.0068383054
32	0x3f091f1b	0.5356309
33	0xbeb0083f	-0.3438129
34	0x3dcc584e	0.0997778
35	0x3e50d065	0.20391996
36	0xbbf5f3d5	-0.0075058737
37	0x3e0fee1e	0.14055678
38	0xbd04024a	-0.032228746
39	0xbe81b66e	-0.25334495
40	0x3e9f7e71	0.31151155
41	0x3c2ac6a5	0.010423337
42	0xbecebb95	-0.4037749
43	0x3e2d9249	0.16950335
44	0xbf4c0d99	-0.7970825
45	0xbd1576ec	-0.036490366
46	0xbcf24d5d	-0.029577905
47	0xbbafc3bf	-0.005363911
48	0xbd9d637c	-0.07684991
49	0xbd124877	-0.03571364
50	0x3cbe77bd	0.023250455
51	0x3cfd0a1e	0.030888613
52	0x3d17704e	0.036972336
53	0xbd838b9c	-0.06423113
54	0xbe8b2786	-0.2717859
55	0xbbae43fd	-0.0053181634
56	0x3ea62dda	0.32456857
57	0x3c8c9d1c	0.01716476
58	0xbd8c7419	-0.06858081
59	0xbe62c63a	-0.2214593
60	0xbd7ce9fa	-0.061746575
61	0x3e512526	0.20424327
62	0x3d9d2e56	0.076748535
63	0xbd6e51b3	-0.058183383
64	0x3f0b1b30	0.5433836
65	0xbe0e00a9	-0.1386744
66	0x3d121484	0.035664096
67	0xbe4ce732	-0.20010069
68	0x3d240dea	0.040052332
69	0x3dcd30bb	0.1001906
70	0x3e2747ad	0.16335936
71	0x3e04b5c2	0.1295996
72	0x3e0a1102	0.1348305
73	0x3e6a484d	0.22879143
74	0xbee4b28c	-0.4466747
75	0x392da531	0.00016560104
76	0xbc308482	-0.01077378
77	0x3b925359	0.004465502
78	0x3b5942b3	0.0033151328
79	0x3d0f4706	0.034979843
80	0xbd1955fc	-0.037435517
81	0x3d9698df	0.073533766
82	0xbbf1b267	-0.0073760035
83	0xbcfc82e9	-0.030824142
84	0x3e793fa4	0.24340683
85	0xbe6a0f44	-0.22857386
86	0xbe88d2c0	-0.2672329
87	0x3e687921	0.22702457
88	0xbd781482	-0.060566433
89	0xbe1c8e1d	-0.15288587
90	0xbeee40be	-0.4653377
91	0x3e23eba1	0.16007854
92	0xbe7ea2ea	-0.24866834
93	0xbd9f2282	-0.07770254
94	0xbe880d87	-0.2657282
95	0x3d2e0baf	0.04249161
96	0xbc113a4d	-0.008863998
97	0x3d7e37ef	0.06206506
98	0x3ef755f8	0.48307776
99	0xbe4be5cb	-0.19911878
100	0xbf18b989	-0.59658104
101	0xbe276198	-0.16345823
102	0xbcfd678b	-0.030933162
103	0x3ed3c567	0.41361544
104	0x3e8476c0	0.2587185
105	0x3bf2c4dc	0.0074087214
106	0xbd89966f	-0.06718146
107	0xbc4d745f	-0.012539952
108	0x3c7984ae	0.015229387
109	0x3c33d0ca	0.010975072
110	0xba546439	-0.00081020925
111	0xbbf3ccec	-0.0074402
112	0x3bba1f49	0.005679999
113	0xbb123fdd	-0.0022315898
114	0x3da8dbb3	0.08245029
115	0xbcd4960e	-0.025950458
116	0xbc2025d1	-0.009774641
117	0x3e142a2f	0.14469217
118	0xbe41a0e4	-0.18909031
119	0xbdc3f567	-0.09568291
120	0xbeaf0bdb	-0.34188733
121	0x3d330bf1	0.04371256
122	0xbe5dd783	-0.21664242
123	0xbd3e7f80	-0.046508312
124	0xbeafdd16	-0.34348363
125	0x3e25ad46	0.1617938
126	0xbdb9c633	-0.090710066
127	0xbcaa9bed	-0.020826304
128	0x3e8d1920	0.2755823
129	0xbe28f15b	-0.1649832
130	0x3ed5cab7	0.41756222
131	0x3e882cc5	0.26596656
132	0xbdf323f0	-0.11872089
133	0x3e23e4ee	0.16005298
134	0x3e994ee6	0.29943007
135	0xbbf8dd90	-0.0075947717
136	0xbb165f19	-0.0022944866
137	0x3d6a8bd4	0.057262257
138	0xbcde7b9f	-0.027158557
139	0xbc75f25e	-0.015011398
140	0xba9c1f0b	-0.0011911107
141	0xbcca14fa	-0.024668206
142	0xbccf9640	-0.0253402
143	0xbca6cc95	-0.020361224
144	0x3d536467	0.051609423
145	0xbd2f38ce	-0.042778783
146	0xbdb4d84f	-0.0883032
147	0xbc150264	-0.009094808
148	0x3db8edc0	0.09029722
149	0xbe9ef950	-0.31049585
150	0xbd01e56a	-0.031712927
151	0x3d2732fc	0.040820107
152	0x3ee16b01	0.4402695
153	0xb9edf80b	-0.0004538897
154	0xbd3cac8d	-0.046062995
155	0x3e3dea49	0.18546404
156	0x3e595183	0.212225
157	0xbded6301	-0.11591149
158	0x3dbabdc8	0.09118229
159	0xbe4a8aa0	-0.19779444
160	0xbdc2e781	-0.09516812
161	0xbe572367	-0.21009599
162	0xbe289546	-0.16463193
163	0xbd6f7b4b	-0.05846719
164	0x3eeece4c	0.46641767
165	0xbe428cc1	-0.18999006
166	0xbe594844	-0.21218973
167	0xbdf96e81	-0.1217928
168	0x3d303128	0.04301563
169	0xbcc33be5	-0.02383227
170	0x3d3f17f4	0.046653703
171	0xbd5921ae	-0.053010635
172	0xbb101b47	-0.0021988915
173	0x3ce3c028	0.027801588
174	0xbebd7a2c	-0.37007272
175	0x3e51f49a	0.20503464
176	0x3e80fe0d	0.25193825
177	0xbeb72ef7	-0.3577802
178	0x3d91c485	0.07117561
179	0x3df0caa4	0.11757401
180	0xbd1b7208	-0.037950546
181	0xbe23c9ff	-0.15995024
182	0xbe45dc6d	-0.19322367
183	0xbca771fd	-0.020440096
184	0xb92e967b	-0.00016649991
185	0x3d28c4d0	0.04120332
186	0x3d9a672b	0.07539209
187	0xbd4f3e97	-0.0505968
188	0x3d3806d6	0.044928394
189	0x3e420ac0	0.18949413
190	0x3f646917	0.89222854
191	0xbdf38887	-0.11891275
192	0xbe020009	-0.12695326
193	0x3f349cd6	0.7055181
194	0xbc7edda7	-0.015555776
195	0xbc43dbe6	-0.011954283
196	0xbcc4216c	-0.023941718
197	0xbd820a43	-0.063496135
198	0xbcbead54	-0.023276009
199	0xbc387f59	-0.011260831
200	0xba8eabc0	-0.0010884926
201	0x3dab957f	0.083781235
202	0x3d80d130	0.06289899
203	0x3ca73d54	0.020414986
204	0xbcbe127c	-0.023202173
205	0x3c960ed0	0.01831761
206	0x3d3b9618	0.045797437
207	0xbdad8716	-0.08473031
208	0xbca3947d	-0.019968266
209	0x3e3d4b59	0.18485774
210	0x3e85b671	0.26115754
211	0x3dd686c9	0.10474927
212	0xbe71092a	-0.23538652
213	0x3e4a9b05	0.19785698
214	0xbf39b98f	-0.72548765
215	0x3d7f9949	0.062402043
216	0x3e9eaa91	0.30989507
217	0x3eb39227	0.35072443
218	0x3ec6b529	0.3881009
219	0x3e2be213	0.16785459
220	0xbe436f6b	-0.19085471
221	0xbcc6ce7f	-0.024268387
222	0x3da83d1c	0.08214781
223	0x3dc34d90	0.09536278
224	0x3e9915ab	0.29899344
225	0x3bfe46c2	0.0077599
226	0xbcc2757a	-0.023737658
227	0xbd247949	-0.04015473
228	0xbc773a3c	-0.015089568
229	0xbcb06faa	-0.02153762
230	0x3bffb4ca	0.007803534
231	0x3d2ad075	0.041702706
232	0x3c0d136f	0.00861059
233	0x3b3ba2d0	0.002863098
234	0x3cc15343	0.023599273
235	0xbd415a5b	-0.04720531
236	0x3cce1dfd	0.025160784
237	0x3d979109	0.0740071
238	0xbbdce50b	-0.0067411712
239	0xbc437157	-0.011928878
240	0x3e253d6b	0.1613671
241	0x3dfa63d0	0.12226069
242	0x3ea1f4b0	0.31631994
243	0xbe8d42f3	-0.2759014
244	0xbf561609	-0.8362737
245	0xbc846b52	-0.016164456
246	0x3e88a9a0	0.26691914
247	0xbde19616	-0.11014955
248	0xbd0f5a3a	-0.034998156
249	0xbdcb453e	-0.09925316
250	0xbc4ade3a	-0.0123820845
251	0xbc8a79a4	-0.016903706
252	0xbcaa584c	-0.020794056
253	0x3bc55326	0.006021875
254	0x3ea394fa	0.31949598
255	0x3d882318	0.066473186

linear1.bias f4 [100]
0	0x3dea80b8	0.114503324
1	0xbcd5167d	-0.0260117
2	0x3dc47437	0.09592479
3	0xbe2cd262	-0.1687713
4	0x3cf0ed4c	0.029410027
5	0x3d5a7cfc	0.05334185
6	0xbe13ced0	-0.14434361
7	0x3dfdc865	0.12391738
8	0x3e0e4034	0.13891679
9	0x3cfc9f26	0.030837607
10	0x3dff31c9	0.12460668
11	0x3e0a4019	0.13501014
12	0x3e33414c	0.17505378
13	0xbd011563	-0.031514537
14	0xbca7808f	-0.020447044
15	0x3e01c76f	0.12673734
16	0xbd801f0a	-0.0625592
17	0x3d9d6e17	0.076870136
18	0x3e1f83b1	0.1557758
19	0x3db7ebd6	0.08980529
20	0x3c6589f8	0.014009945
21	0xbd6c9b47	-0.05776527
22	0xbe2d2bfc	-0.1691131
23	0x3e0e4f5c	0.1389746
24	0xbe251505	-0.161213
25	0xbe0d6c7a	-0.13810912
26	0x3d508110	0.050904334
27	0xbe140ce2	-0.1445804
28	0x3db7f217	0.08981722
29	0x3e303998	0.1720947
30	0xbd51cdf3	-0.0512218
31	0x3e33dd6c	0.17564934
32	0xbe28afc9	-0.16473307
33	0x3d243b5e	0.04009568
34	0x3c7bd6a5	0.015370999
35	0x3e0a99e7	0.13535272
36	0x3e07a8bf	0.13247965
37	0xbc707d18	-0.014678262
38	0xbde5cb61	-0.11220432
39	0x3c4d93ee	0.012547476
40	0x3d40a932	0.047036357
41	0xbac73427	-0.0015198038
42	0x3dbe1de1	0.09283043
43	0xbdfde761	-0.12397648
44	0xbc356754	-0.011071999
45	0x3dcc9bf0	0.0999068
46	0x3e0fcf47	0.14043914
47	0x3d359992	0.04433591
48	0xbdfe2c38	-0.12410778
49	0xbc6672fb	-0.014065499
50	0xbd8777bb	-0.06614634
51	0xbc88dfb0	-0.016708225
52	0xbdce7718	-0.10081309
53	0xbdeea731	-0.11652983
54	0xbd5fc13f	-0.054627653
55	0xbe6c6caa	-0.23088327
56	0x3dbdde09	0.092708655
57	0x3d99d45f	0.0751121
58	0xbd5ef277	-0.05443045
59	0xbda16576	-0.0788068
60	0x3d894166	0.06701927
61	0xbde9d9e6	-0.11418514
62	0x3b64ef4e	0.0034932676
63	0x3e340bc2	0.1758261
64	0xbe301054	-0.17193729
65	0x3d99a26f	0.07501685
66	0x3d725198	0.059159845
67	0x3d723621	0.059133653
68	0xbcc9144f	-0.024545817
69	0x3c46d04e	0.012134625
70	0x3cc4ff68	0.024047568
71	0xbd92e563	-0.07172658
72	0x3d8caaeb	0.068685375
73	0x3e199f3f	0.15002154
74	0xbd39d45a	-0.04536853
75	0x3d5c16d8	0.053732723
76	0xbdde13bb	-0.10843607
77	0xbdd80076	-0.10546963
78	0xbe2f3c2e	-0.171128
79	0xbe2cacfe	-0.16862866
80	0xbd8cf411	-0.068824895
81	0x3d86d1b1	0.06582964
82	0xbdb58497	-0.0886318
83	0xbe0b1460	-0.13581991
84	0xbe170a1c	-0.1474995
85	0xbe20ae9d	-0.1569161
86	0xbd4c3fe3	-0.049865615
87	0xbd1dd0b9	-0.03852913
88	0xbc90de9d	-0.017684275
89	0x3c86eb74	0.016469695
90	0x3d9f3801	0.07774354
91	0xbabc2646	-0.0014354668
92	0x3db91299	0.0903675
93	0x3dbfdde2	0.09368493
94	0xbe3e191c	-0.18564266
95	0x3e1952f9	0.14973058
96	0xbe0e7bed	-0.13914461
97	0xbda942fa	-0.08264728
98	0xbe0c4d45	-0.13701351
99	0x3cc39739	0.02387582

bn1.weight f4 [100]
0	0x3f1b6460	0.60700035
1	0x3f202a36	0.6256441
2	0x3eeafa5d	0.45894137
3	0x3f729b3b	0.9476811
4	0x3f5cc63a	0.8623997
5	0x3f12751d	0.5720995
6	0x3f19b996	0.60048807
7	0x3faa5e04	1.3309941
8	0x3f28701b	0.6579606
9	0x3f0ba6c4	0.5455134
10	0x3f82e82b	1.0227102
11	0x3f9e2eb1	1.2357999
12	0x3fa433cb	1.2828306
13	0x3f1668eb	0.5875384
14	0x3fa18519	1.2618743
15	0x3f4009d5	0.75015
16	0x3f1cf6c1	0.61314017
17	0x3f02c1c1	0.51076895
18	0x3fa42480	1.2823639
19	0x3ef4562d	0.47721997
20	0x3f8acb2e	1.0843256
21	0x3f54537f	0.82939905
22	0x3f8894d8	1.0670424
23	0x3f2a0077	0.6640696
24	0x3faa50cb	1.3305906
25	0x3f85e150	1.0459385
26	0x3f133d14	0.5751507
27	0x3f8fdc23	1.1239055
28	0x3f9531aa	1.1655781
29	0x3f0e2dfc	0.55538917
30	0x3ed68a97	0.4190261
31	0x3f026bca	0.50945723
32	0x3f93da6e	1.1551034
33	0x3f9b55bb	1.2135538
34	0x3f614c07	0.88006634
35	0x3f499d8d	0.7875603
36	0x3f365ec7	0.7123837
37	0x3f540818	0.8282485
38	0x3f8bef60	1.0932426
39	0x3ee67e43	0.45018205
40	0x3f8b6e44	1.0893025
41	0x3f9c7779	1.222396
42	0x3f00a081	0.5024491
43	0x3f2f0e86	0.68381536
44	0x3f15148b	0.5823447
45	0x3f6c4626	0.9229454
46	0x3f758f0e	0.9592141
47	0x3f9727bd	1.1809002
48	0x3fa24010	1.26758
49	0x3f5e95ef	0.8694753
50	0x3f4edec7	0.8080868
51	0x3f9d0768	1.2267885
52	0x3f900697	1.1252011
53	0x3f25f020	0.64819527
54	0x3f4f1ffd	0.80908185
55	0x3fb6acc7	1.4271477
56	0x3f8a67d9	1.0812942
57	0x3f68bcb6	0.9091295
58	0x3f9fb1bd	1.2476116
59	0x3f3fc4c4	0.74909616
60	0x3f961b35	1.1727053
61	0x3eecb4ea	0.46231776
62	0x3f5ea67c	0.86972785
63	0x3f39caaf	0.72574896
64	0x3f8a3218	1.0796537
65	0x3f5a481c	0.8526628
66	0x3f469d5f	0.7758388
67	0x3efef79b	0.49798283
68	0x3f1a341b	0.60235757
69	0x3f891d03	1.0711979
70	0x3fa70578	1.3048544
71	0x3f0a2b47	0.53972286
72	0x3f22381a	0.63366854
73	0x3ed50bb3	0.41610488
74	0x3f2459e7	0.6419968
75	0x3f45b1e1	0.77224547
76	0x3f9b79d8	1.2146559
77	0x3eec646b	0.46170363
78	0x3f26f8a3	0.6522314
79	0x3f6b70b6	0.9196886
80	0x3f2f944f	0.68585676
81	0x3f504e9e	0.8136996
82	0x3f50ea57	0.81607574
83	0x3f5df9ca	0.8670927
84	0x3f1b56c5	0.60679275
85	0x3f6baa8a	0.92057097
86	0x3f400b40	0.75017166
87	0x3f31eda7	0.69503254
88	0x3f881dde	1.0634115
89	0x3f8fc725	1.1232649
90	0x3f399f0e	0.72508323
91	0x3f980473	1.1876358
92	0x3f1dd2c3	0.6164972
93	0x3f1e5d89	0.61861473
94	0x3f1e60cc	0.6186645
95	0x3f0d93e1	0.5530377
96	0x3f27e53e	0.6558417
97	0x3f065989	0.5248037
98	0x3f1d698e	0.6148919
99	0x3f9e1c5a	1.2352402

bn1.bias f4 [100]
0	0x3cec6146	0.028854977
1	0xbd085501	-0.03328419
2	0xbc9cd33f	-0.019143699
3	0x3e37a58c	0.17934245
4	0xbdd8c4bf	-0.10584401
5	0x3d49871f	0.049201127
6	0x3f447001	0.76733404
7	0x3d954d86	0.07290177
8	0x3ec644d5	0.3872439
9	0x3d0adbc5	0.033900995
10	0x3e2c985e	0.16854998
11	0x3f359507	0.7093052
12	0x3cbe9e8d	0.023268962
13	0x3c98812b	0.01861628
14	0x3e699c3b	0.22813503
15	0x3e845d16	0.2585227
16	0xbb48de5a	-0.003065011
17	0x3ef5ea76	0.48030442
18	0xbd6f44e7	-0.05841532
19	0x3daae3af	0.083442084
20	0x3ec35829	0.38153198
21	0xbe51b14b	-0.20477788
22	0x3e7c0724	0.24612099
23	0xbca1ac2d	-0.01973542
24	0xbe310c7d	-0.1728992
25	0x3e08c331	0.1335571
26	0xbd87860f	-0.066173665
27	0x3eccd94c	0.40009534
28	0xbdefc0e3	-0.11706712
29	0x3b8dd567	0.004328418
30	0xbcf52e47	-0.029929293
31	0x3d3d850e	0.04626947
32	0x3d96a366	0.073553845
33	0x3ee3e40e	0.4450993
34	0x3eda723e	0.42665285
35	0x3db1f2fa	0.08688922
36	0x3e0271dc	0.12738746
37	0x3e4d21dc	0.20032448
38	0x3e81a130	0.2531829
39	0x3d9de675	0.07709972
40	0x3dea8bf7	0.114524774
41	0x3e54016e	0.2070367
42	0xbc2d67c4	-0.010583822
43	0x3f975728	1.1823473
44	0x3fecc2fa	1.8497002
45	0x3e76a290	0.2408545
46	0x3ed9eb4a	0.42562324
47	0x3e057488	0.13032734
48	0xbde4214f	-0.111391656
49	0x3db71721	0.08939958
50	0x3f054777	0.5206217
51	0x3b6cca24	0.0036131227
52	0x3db8b648	0.090191424
53	0x3b8ca46a	0.0042920606
54	0x3f5d1ffd	0.86376935
55	0x3d89bb98	0.06725234
56	0x3e054e15	0.13018067
57	0x3dd1e887	0.10249429
58	0x3dfd8a52	0.12379898
59	0xbe2155ee	-0.15755436
60	0x3d73fe3f	0.05956864
61	0xbcc68b5b	-0.024236372
62	0xbdc7426c	-0.09729466
63	0x3e2316b8	0.15926635
64	0x3ce73a51	0.02822605
65	0x3e9d2aef	0.30696818
66	0x3e8216a2	0.25407892
67	0x40019cda	2.0251985
68	0xbd9827ac	-0.07429442
69	0xbc2f7cc2	-0.010710897
70	0x3e51144a	0.20417896
71	0x3eeff1a3	0.46864042
72	0x3ceef9d8	0.02917187
73	0x3bf17e83	0.0073698177
74	0xbd80dc6d	-0.06292043
75	0x3db69f8f	0.08917152
76	0x3cee4cce	0.029089358
77	0xbcae0587	-0.02124287
78	0x3e6c63f0	0.23084998
79	0x3dd31653	0.103069924
80	0xbe731e67	-0.23742066
81	0x3e2cf8c7	0.16891776
82	0x3da27fd4	0.079345375
83	0x3e907375	0.28213087
84	0xbda7d19c	-0.08194277
85	0x3d3e9f8a	0.046538867
86	0xbe14ce8f	-0.14531921
87	0x3e360ddd	0.17778726
88	0x3e3a7fac	0.18212765
89	0x3d7e2036	0.062042437
90	0x3d890476	0.06690304
91	0x3df0b15f	0.11752581
92	0x3f3c183a	0.73474467
93	0xbc839957	-0.01606433
94	0x3db29a29	0.0872081
95	0x3fb0bb50	1.3807163
96	0xbada5602	-0.0016657712
97	0x3ab84519	0.0014058679
98	0x3d98a24b	0.0745283
99	0x3e45d399	0.19319

bn1.running_mean f4 [100]
0	0x3edeec68	0.4353974
1	0xbecab4fc	-0.39591205
2	0x3de4c6b1	0.1117071
3	0xbe8a51e4	-0.27015603
4	0x3d47dba5	0.048793454
5	0xbc93716d	-0.017998422
6	0x3d1aef59	0.037825916
7	0x3e326b10	0.17423654
8	0xbb77441d	-0.0037729808
9	0xbde7075e	-0.11280702
10	0x3d6b14de	0.057392947
11	0xbe9e095b	-0.30866513
12	0x3e2b0274	0.16700155
13	0x3ce3ef11	0.027823957
14	0xbebd4675	-0.36967817
15	0x3e767e60	0.24071646
16	0xbe2601c5	-0.16211613
17	0xbd4cfe40	-0.05004716
18	0xbd9b22ef	-0.075750224
19	0x3d001405	0.031269092
20	0xbe8f7e51	-0.2802606
21	0xbe38f4da	-0.18062153
22	0x3d622df6	0.055219613
23	0x3d5e367a	0.05425117
24	0xbef8b41a	-0.48574907
25	0xbe5ec777	-0.21755777
26	0x3e579eba	0.21056643
27	0xbdc293e3	-0.095008634
28	0xbd9ba758	-0.07600278
29	0x3edeb48d	0.43497124
30	0x3dd5aff2	0.104339495
31	0x3e443d1b	0.19163935
32	0xbd0a9b59	-0.033839557
33	0x3e063686	0.13106737
34	0x3e7886aa	0.2427012
35	0x3dbb99ac	0.0916017
36	0x3e031fc7	0.12805091
37	0x3e5491ef	0.20758794
38	0x3dc6665e	0.09687494
39	0x3d1aa258	0.03775248
40	0x3e92b5b6	0.2865426
41	0x3e04dcf3	0.1297491
42	0x3e078524	0.13234383
43	0xbed32404	-0.41238415
44	0xbe085c42	-0.13316444
45	0x3e82413a	0.2544039
46	0xbea76c2b	-0.32699713
47	0x3e751ad5	0.23936017
48	0x3d0fd50f	0.035115298
49	0x3de52576	0.11188786
50	0x3da3b1a4	0.07992867
51	0xbe46bb1b	-0.19407313
52	0xbeef2f97	-0.46715996
53	0xbeaad2d1	-0.33363965
54	0x3e5f99ad	0.21835966
55	0xbe8618ba	-0.2619074
56	0xbe12208e	-0.14270231
57	0x3e6d9493	0.23201208
58	0xbd9e9bb9	-0.077445455
59	0xbe7a638a	-0.24452034
60	0x3ecb1157	0.39661667
61	0xbd01ba20	-0.031671643
62	0xbe2ea5d1	-0.17055441
63	0x3f06c1bb	0.5263936
64	0xbe893fa6	-0.26806372
65	0x3ec28ed0	0.37999582
66	0xbe98da35	-0.2985398
67	0x3c4b79e0	0.012419194
68	0xbdd9739c	-0.10617754
69	0x3d4a7b5c	0.04943405
70	0xbde2ef0a	-0.11080749
71	0xbccc1065	-0.024910161
72	0x3e52e6f2	0.20595911
73	0x3e7c5567	0.24641953
74	0x3d0be439	0.034153197
75	0xbcca118a	-0.024666566
76	0xbde5bbe9	-0.11217482
77	0x3dbf5df1	0.0934409
78	0xbe0b1069	-0.13580479
79	0xbe9244fc	-0.28568256
80	0x3e22c077	0.15893732
81	0x3dfd7d18	0.12377375
82	0xbe2315fb	-0.15926354
83	0xbe79e893	-0.24405126
84	0xbd78bd13	-0.06072719
85	0xbe368000	-0.17822266
86	0xbe03ff9e	-0.12890479
87	0x3e16b4e8	0.14717448
88	0x3e926d3f	0.28598973
89	0xbdab0943	-0.08351376
90	0x3d073ab3	0.033014964
91	0x3e6cd63b	0.23128597
92	0xbc97c474	-0.018526293
93	0x3dba2875	0.09089748
94	0xbe8e6a30	-0.2781539
95	0x3db44baa	0.08803494
96	0x3dab40c6	0.08361964
97	0xbe468630	-0.19387126
98	0xbd8c7eff	-0.0686016
99	0xbd9dbbe8	-0.07701856

bn1.running_var f4 [100]
0	0x3f34abde	0.7057475
1	0x3f64ba9b	0.8934724
2	0x3f502d6c	0.8131931
3	0x3f3b76d9	0.7322822
4	0x3e9fd069	0.31213692
5	0x3f6d7b16	0.9276594
6	0x3edba65c	0.4290036
7	0x3f7c754a	0.9861647
8	0x3e76b412	0.24092129
9	0x3f885501	1.0650941
10	0x3f681b48	0.9066663
11	0x3e1e82c0	0.15479565
12	0x3f06a76b	0.5259921
13	0x3f71c065	0.94434196
14	0x3f90ebc2	1.1321948
15	0x3f905b41	1.1277848
16	0x409da222	4.9260416
17	0x3e9d221f	0.30690095
18	0x3da39b5c	0.07988617
19	0x3feabdc9	1.8339168
20	0x3f6abf0f	0.9169778
21	0x3e9a6c78	0.3016088
22	0x3f4ab794	0.7918637
23	0x3f9d6dd3	1.2299141
24	0x3ee2424e	0.4419121
25	0x404a14d2	3.1575208
26	0x3fb5b4db	1.4195818
27	0x3ec246f8	0.3794477
28	0x3fb7bf5b	1.4355272
29	0x406ab221	3.6671221
30	0x3ec881df	0.39161584
31	0x3fcfafc4	1.6225514
32	0x3f5a4843	0.8526651
33	0x3ea18678	0.31547904
34	0x3e8c7d6e	0.27439445
35	0x3eaf742d	0.34268323
36	0x3e1161c7	0.14197455
37	0x3e0952d2	0.134105
38	0x3e620398	0.22071683
39	0x3fd0333c	1.6265635
40	0x3fc31090	1.523943
41	0x40226a0c	2.5377226
42	0x3e34ea40	0.17667484
43	0x3d53935b	0.0516542
44	0x3d9dcb84	0.07704833
45	0x3fbc10f2	1.4692671
46	0x3e0b0421	0.13575794
47	0x3fab676b	1.3390936
48	0x3f3d2c19	0.7389541
49	0x3ee24d65	0.44199672
50	0x3e549710	0.20760751
51	0x3ff944e9	1.9474155
52	0x3edfd02a	0.43713504
53	0x3fa65127	1.2993516
54	0x3f1fa9fc	0.6236875
55	0x3e32d369	0.17463459
56	0x3d89e30b	0.06732758
57	0x3f9ee0e8	1.2412386
58	0x3ea8dde3	0.32981786
59	0x3ec4ab94	0.38412154
60	0x3fb533f6	1.4156482
61	0x3faf66da	1.3703263
62	0x3fc6f5ff	1.5543822
63	0x3e83f8c8	0.25775743
64	0x3f6043bc	0.87603354
65	0x3fa76c3a	1.3079903
66	0x3e846e8c	0.2586559
67	0x3eaf0870	0.34186125
68	0x3f000388	0.5000539
69	0x3f950140	1.1641006
70	0x3f839128	1.0278673
71	0x3e562cfa	0.20915595
72	0x3f82ceb5	1.0219332
73	0x3f671de8	0.9028001
74	0x3f7a7def	0.9784841
75	0x3e85a641	0.26103404
76	0x3e8b915f	0.27259347
77	0x3eda7e75	0.42674604
78	0x3f31f0a2	0.695078
79	0x4084d330	4.1507797
80	0x3e8fc732	0.2808166
81	0x3f725c03	0.9467165
82	0x3efddd1d	0.4958276
83	0x3f0aa2b0	0.5415449
84	0x40620395	3.5314686
85	0x3fc90335	1.5704104
86	0x3f96a664	1.1769528
87	0x3edd73c4	0.43252385
88	0x3f862a97	1.0481747
89	0x40046827	2.068857
90	0x406bf249	3.686663
91	0x3f7980d1	0.97462183
92	0x3e8e3051	0.27771237
93	0x3f2acf7a	0.66722834
94	0x408e904e	4.4551153
95	0x3dd98dd8	0.10622758
96	0x3f911ea0	1.1337471
97	0x405c89a9	3.445902
98	0x3ec5c048	0.3862326
99	0x3f44bbe0	0.76849174

linear2.weight f4 [200, 100]
0	0x3d235f63	0.03988589
1	0xbd0fe092	-0.035126276
2	0x3bd84ddb	0.006601078
3	0xbcbb3b20	-0.022855341
4	0xbd242bc6	-0.040080808
5	0x3daed6e3	0.0853708
6	0xbdce2382	-0.10065366
7	0xbc8f417d	-0.017487282
8	0xbab3ae8f	-0.0013708639
9	0x3b90ddd3	0.0044209748
10	0x3d247e95	0.04015978
11	0xbd13ece9	-0.036114607
12	0x3dbc33cd	0.09189568
13	0xbd533f8a	-0.051574267
14	0x3e07dda2	0.1326814
15	0xbe0fbf2d	-0.14037772
16	0xbc066444	-0.008202616
17	0xbd2edded	-0.042692114
18	0xbc97325a	-0.018456627
19	0x3a8ddc63	0.0010823127
20	0xbd2bb5f8	-0.041921586
21	0xbd313e18	-0.043272108
22	0xbd43557d	-0.04768895
23	0x3d57a384	0.052646175
24	0xbcd25380	-0.025674582
25	0xbdec0ee2	-0.11526276
26	0x3be7ea15	0.0070774653
27	0xbc19ec26	-0.009394681
28	0x3bfadeda	0.0076559605
29	0xbc0f9e75	-0.008765806
30	0x3cba4a9d	0.022740657
31	0xbc924dbd	-0.017859334
32	0x3e22643d	0.1585855
33	0xbb81ae7f	-0.003957569
34	0xbe31bc48	-0.1735698
35	0x3c7f9bfa	0.015601153
36	0x3c83ad00	0.016073704
37	0x3c089e8a	0.00833858
38	0x3c4c2588	0.01246012
39	0x3c355b27	0.011069096
40	0xbd5fadd1	-0.054609124
41	0x3e1d7942	0.15378287
42	0xbd550adc	-0.05201231
43	0x3b646683	0.003485114
44	0xbd07d39a	-0.033160783
45	0xbdb1fe04	-0.08691028
46	0xbdea4415	-0.11438767
47	0xbe27bc9c	-0.16380543
48	0x3d2671a5	0.040635724
49	0x3d68addd	0.056806434
50	0xbcaee1d6	-0.021347921
51	0x3e434842	0.19070533
52	0x3d9a223c	0.07526061
53	0x3c294495	0.010331293
54	0xbcd326c1	-0.025775315
55	0x3d224c5b	0.0396236
56	0xbdaf650c	-0.08564195
57	0xbc34164f	-0.010991647
58	0x3cc4d582	0.02402759
59	0xbbf670f3	-0.007520789
60	0x3d1622bd	0.036654223
61	0x3cce97e9	0.02521892
62	0x3c3358a4	0.010946427
63	0xbd7020c3	-0.058624994
64	0xbc5117d0	-0.012762025
65	0x3cb8e2f0	0.02256915
66	0x3d594e9f	0.053053495
67	0x3e020556	0.12697348
68	0x3b8903da	0.0041813673
69	0xbcee67c7	-0.02910222
70	0xbde07186	-0.10959153
71	0x3ac55cbb	0.0015057543
72	0xbda02d56	-0.07821147
73	0xbc92a3a4	-0.017900296
74	0xbddd2c1f	-0.10799431
75	0x3bec8586	0.0072180657
76	0x3a4034f9	0.0007332112
77	0xbd0d0b71	-0.03443474
78	0xbc658481	-0.014008642
79	0x3d9e77de	0.077377066
80	0x3c52b11c	0.012859609
81	0x3e0240ba	0.12720004
82	0xbd269acb	-0.040674966
83	0xbcf44f89	-0.029823082
84	0xbb9b10a8	-0.00473221
85	0x3dede54f	0.11616003
86	0xbd7f2e05	-0.062299747
87	0x3d243fdf	0.040099975
88	0x3d48b772	0.049003072
89	0x3d7a8713	0.061163973
90	0x3d8997f3	0.06718435
91	0x3ccb1f93	0.02479533
92	0xbcc6e9fd	-0.024281496
93	0x3cbc66ea	0.022998292
94	0x3cab0117	0.020874543
95	0x3ca41a3a	0.020032037
96	0xbbc43ab3	-0.005988443
97	0x3cf9a56f	0.030474393
98	0xbcc68434	-0.024232961
99	0x3d54d170	0.051957548
100	0xbc8590e0	-0.016304433
101	0x3d56a3a7	0.052402165
102	0xbd5d3b0b	-0.054011386
103	0x3d9efac7	0.07762676
104	0x3db57eb5	0.08862058
105	0xbc8edfa8	-0.017440632
106	0x37e1db80	2.6924303e-05
107	0x3bdcd43c	0.0067391675
108	0xbcffd2aa	-0.031228382
109	0x3c693aef	0.014235242
110	0xbdb84a2a	-0.08998521
111	0xbd7ce11b	-0.061738115
112	0xbd9c32a9	-0.0762685
113	0x3ddd8162	0.108156934
114	0xbd8dd8cb	-0.069261156
115	0x3d695265	0.056963343
116	0x3d0f6718	0.035010427
117	0x3d91ed54	0.07125345
118	0xbd0e4fc3	-0.034744035
119	0xbd18abab	-0.03727309
120	0xbcee2aca	-0.029073138
121	0xbccea4cc	-0.025225066
122	0xbd86327f	-0.065526
123	0x3bbf8d71	0.0058457186
124	0xbd1e8c17	-0.03870782
125	0xbd59ddac	-0.05318992
126	0x3d33f640	0.043936014
127	0xbd05e7fd	-0.032691944
128	0xbe432953	-0.19058733
129	0xbd975ec2	-0.073911205
130	0xbda1e370	-0.079047084
131	0x3cb4bcd3	0.022062695
132	0x3cdc753e	0.026911374
133	0xbd67e978	-0.056619138
134	0xbdb4a226	-0.0881999
135	0xbdbb318a	-0.09140308
136	0x3bd78ee3	0.0065783127
137	0x3c56b4d6	0.013104638
138	0xbdbd1cc3	-0.092340015
139	0x3c80fc44	0.01574529
140	0x3da4ec46	0.08052878
141	0x3d1b9b3c	0.03798984
142	0x3da9c6ea	0.08289893
143	0x3b85219b	0.004062844
144	0x3d80bcf4	0.0628604
145	0xbd12fa87	-0.035883453
146	0xbda1bf6a	-0.078978375
147	0xbe23072e	-0.15920708
148	0x3ddf78ef	0.10911738
149	0xbdf4569b	-0.11930581
150	0xbcc46118	-0.02397208
151	0xbda35f57	-0.07977169
152	0xbd79a286	-0.06094601
153	0x3cef07ae	0.029178467
154	0x3c9f5600	0.019450188
155	0x3d7976e5	0.060904402
156	0xbdce995f	-0.10087847
157	0xbcc56697	-0.02409677
158	0xbd8f14a4	-0.06986359
159	0x3d257d33	0.040402602
160	0xbe88ce72	-0.26720005
161	0xbd80a67a	-0.06281753
162	0x3ce5d248	0.028054371
163	0x3c5a214f	0.013313605
164	0x3dec6ef0	0.11544597
165	0xbd95ffcb	-0.07324179
166	0xbd36fd41	-0.044675115
167	0xbce2be3b	-0.0276786
168	0xbc7c1c49	-0.015387603
169	0x3d973851	0.073837884
170	0x3dc4a441	0.096016414
171	0x3c648320	0.013947278
172	0x3c9c80f9	0.019104468
173	0x3d9287fc	0.07154843
174	0x3d104909	0.0352259
175	0xbc452a16	-0.01203396
176	0xbdca30f4	-0.09872618
177	0x3cfd8ed9	0.030951904
178	0xbc190951	-0.0093406
179	0xbd3c3499	-0.0459486
180	0x3d04ab39	0.032389853
181	0xbd468242	-0.048464067
182	0x3c013b95	0.007887741
183	0x3d139bef	0.03603738
184	0x3d40dd28	0.04708591
185	0x3de6df04	0.112730056
186	0x3d638218	0.05554399
187	0x3c35a066	0.011085605
188	0x3d67c764	0.056586638
189	0xbdcddcc8	-0.10051876
190	0xbd28decf	-0.04122811
191	0xbd084871	-0.03327221
192	0x39f8d72d	0.00047462565
193	0xbd674e16	-0.056470953
194	0xbcf5bef1	-0.029998275
195	0x3e19e472	0.15028551
196	0xbc4a3cf6	-0.012343636
197	0x3bd00c2e	0.006349108
198	0x3d1d981a	0.038475133
199	0xbdc19b7b	-0.09453484
200	0xbc89b5ee	-0.016810384
201	0x3c0bf91d	0.00854328
202	0xbd1f19c1	-0.03884292
203	0xbb7a5181	-0.0038195553
204	0x3bce5a56	0.00629739
205	0xbd066603	-0.03281213
206	0x3e29ce89	0.16582693
207	0x3cc4c447	0.024019374
208	0x3d576a03	0.052591335
209	0x3cfbb432	0.030725572
210	0xbe17c514	-0.14821273
211	0x3c338544	0.010957066
212	0xbdaf6fd5	-0.08566252
213	0xbc6dafa5	-0.014507209
214	0x3c8dbb59	0.017301248
215	0x3ba27f43	0.0049590184
216	0xbc999a22	-0.018750254
217	0xbc728c3f	-0.014803945
218	0xbc338811	-0.010957734
219	0x3cbbc186	0.022919428
220	0xbd81028a	-0.062993124
221	0x3cfdc79d	0.030978972
222	0x3bb9ce0d	0.005670315
223	0xbc8723b2	-0.016496513
224	0x3d28231e	0.041049115
225	0x3de4f9e4	0.11180475
226	0x3d5aa3bb	0.0533788
227	0x3c40ae23	0.011760267
228	0xbc5d3f15	-0.013503809
229	0xbc0cf8ba	-0.008604223
230	0xbcc55f9a	-0.024093438
231	0xbde0dc48	-0.10979515
232	0x3d6de9d4	0.058084324
233	0x3cd36990	0.025807172
234	0x3d7054c8	0.058674604
235	0x3ce8a78e	0.028400209
236	0xbce891fe	-0.028389927
237	0xbdaf5b6a	-0.08562358
238	0x3d5eb1fd	0.05436896
239	0xbd3aacf3	-0.045575093
240	0x3da5b278	0.08090681
241	0xbcc8bc32	-0.024503801
242	0xbc886ab6	-0.016652446
243	0xbc9855e6	-0.018595647
244	0xbd21c8b3	-0.039498042
245	0x3d2ea415	0.04263695
246	0x3d22f61b	0.039785486
247	0x3c3feab8	0.011713676
248	0x3d120443	0.035648596
249	0xbd701f51	-0.058623616
250	0x3d71b1c2	0.059007414
251	0xbcad6980	-0.02116847
252	0xbcbd6767	-0.023120595
253	0xbc6ab062	-0.0143242795
254	0xb9fa68f9	-0.00047761927
255	0xbf16fec5	-0.589825

linear2.bias f4 [200]
0	0x3c59b2ff	0.013287305
1	0x3d75f24a	0.060045518
2	0x3c9ef6a4	0.019404717
3	0xbdc6582c	-0.09684786
4	0xbd4fa8b7	-0.05069801
5	0x3d14919d	0.03627168
6	0x3d6be3da	0.057590343
7	0x3ce5c24e	0.028046753
8	0x3cddaf77	0.027061207
9	0x3d16f692	0.03685624
10	0x3d986d71	0.07442749
11	0xbb0b45b7	-0.002125127
12	0x3d973808	0.07383734
13	0x3d6efa52	0.058344193
14	0x3d5fb8dc	0.054619655
15	0xbda931f2	-0.082614794
16	0xbd5cd9ae	-0.053918533
17	0xbd3e9cfc	-0.04653643
18	0x3de7413a	0.11291738
19	0x3d5f2177	0.054475274
20	0xbdc48f01	-0.09597588
21	0x3c90e319	0.017686414
22	0x3d66a38a	0.056308307
23	0xbda1d149	-0.07901246
24	0x3d6e0e78	0.058119267
25	0x3dafcc4f	0.08583891
26	0xbd78e5e0	-0.0607661
27	0xbd3f281a	-0.046669103
28	0xbcde2c70	-0.027120799
29	0xbd45a842	-0.048256166
30	0xbc2f1cb3	-0.010687995
31	0x3cf346a1	0.029696764
32	0xbd48ed59	-0.049054477
33	0xbd7b323b	-0.0613272
34	0x3d8b215d	0.06793473
35	0xbdbb36b2	-0.09141292
36	0xbcfc5878	-0.030803904
37	0xbcf365d3	-0.02971164
38	0xbd819b79	-0.06328482
39	0xbd02526f	-0.031816896
40	0x3d24f486	0.04027226
41	0xbdeb3f60	-0.11486697
42	0xbd73d1c0	-0.059526205
43	0xbdc06dbf	-0.093959324
44	0x3cd08167	0.025452329
45	0xbabefb57	-0.0014570755
46	0xbc7a2609	-0.015267857
47	0x3ceabed4	0.028655447
48	0x3da5b05d	0.08090279
49	0x3d0561dd	0.032564033
50	0xbd076642	-0.033056505
51	0xbd79d9a8	-0.06099859
52	0xbd888a5b	-0.06667014
53	0x3c352afb	0.011057611
54	0xbd536bc1	-0.051616434
55	0xbcb53a51	-0.022122534
56	0x3bb15a31	0.005412363
57	0xbd06557a	-0.03279636
58	0xbd8d7851	-0.06907714
59	0xbd856a60	-0.0651443
60	0x3d5883d1	0.052860085
61	0x3ad14e73	0.0015968814
62	0xbc9b9d49	-0.018995898
63	0xbdbaf77e	-0.09129237
64	0xbd0a9d06	-0.033841155
65	0xbd86e379	-0.06586356
66	0x3ca325f4	0.019915558
67	0xbdb7c0d7	-0.08972328
68	0xbd3ac35c	-0.045596465
69	0x3dec128f	0.11526977
70	0x3d1cae9b	0.038252454
71	0x3a9ffc1f	0.0012205875
72	0xbd735d23	-0.059414994
73	0x3d77524b	0.060381215
74	0x3b867cc6	0.0041042296
75	0xbd4d3126	-0.0500957
76	0xbbd65642	-0.0065410445
77	0xbdc5362c	-0.09629473
78	0x3da22f39	0.07919163
79	0xbdd99b18	-0.10625285
80	0x3d8d92e5	0.069127835
81	0xbc27be9c	-0.010238316
82	0x3ddee2fa	0.10883136
83	0xbdd1c782	-0.10243131
84	0xbd14c2ae	-0.036318474
85	0x3d72cf63	0.05927981
86	0xbce4416a	-0.027863223
87	0x3d2b9ee4	0.041899577
88	0xbdbaacf6	-0.09115021
89	0xbd277625	-0.040884156
90	0xbd21a357	-0.039462414
91	0xbb053a27	-0.002032885
92	0x3c67a86a	0.014139274
93	0xbd201b5f	-0.039088603
94	0xbd85a9f6	-0.06526558
95	0xbddae72f	-0.10688626
96	0x3b6265b0	0.0034545474
97	0xbccd1203	-0.025033003
98	0xbd5c0e89	-0.0537248
99	0xbd17eb98	-0.037089914
100	0xbc954bc2	-0.0182246
101	0x3cc7f4dd	0.024408752
102	0x3d896748	0.067091525
103	0xbded1e98	-0.11578101
104	0x3de15507	0.11002546
105	0xbc031b68	-0.00800214
106	0x3d17f3ca	0.03709773
107	0xbd150018	-0.036377043
108	0xbcc55871	-0.024090024
109	0xbda6e1e5	-0.08148555
110	0xbcc92a92	-0.024556432
111	0xbb8914c5	-0.004183384
112	0x3ceb3ae5	0.028714607
113	0x3c43d8c5	0.011953537
114	0xbd38f208	-0.045152694
115	0x3d8c8b65	0.06862525
116	0x3bbb1f98	0.0057105534
117	0xbd3642b0	-0.044497192
118	0xbd3d0809	-0.04615024
119	0x3c92b902	0.017910484
120	0x3d4ece88	0.050489932
121	0x3cc938b9	0.02456318
122	0x3d314a80	0.04328394
123	0x3d13c6a8	0.036078125
124	0x3ca07497	0.019586844
125	0xbd2b1504	-0.04176809
126	0xbd9767cf	-0.07392847
127	0xbc8a6fbc	-0.016898982
128	0x3da70b01	0.08156396
129	0x3c8c5af1	0.017133208
130	0xbd84ef72	-0.06490983
131	0xbd0bb987	-0.03411248
132	0x3d6d0c76	0.05787321
133	0xbdb8d6c3	-0.090253375
134	0x3d04c095	0.032410223
135	0xbd09ff8e	-0.03369098
136	0xbd8ed373	-0.069739245
137	0x3dc9d366	0.09854774
138	0xbd8db899	-0.06919975
139	0x3da76778	0.08174032
140	0xbd0d1805	-0.034446735
141	0xbd49e387	-0.049289253
142	0x3d90a2f9	0.070623346
143	0x3cd3e1c2	0.025864486
144	0x3d62b503	0.055348407
145	0xbd9305bd	-0.07178829
146	0xbd0d84e4	-0.034550563
147	0x3ce86731	0.028369518
148	0x3d2e7e7d	0.042601097
149	0xba51686a	-0.0007988276
150	0xbdcec05e	-0.10095285
151	0x3d2fd16e	0.042924337
152	0x3dc63b0b	0.0967923
153	0x3c2796af	0.010228797
154	0x3d0ffb44	0.035151735
155	0xbd1adf46	-0.037810586
156	0x3d4e4215	0.05035599
157	0xbd5d14fe	-0.053975098
158	0x3dc6483f	0.096817486
159	0xbc7f9ce8	-0.015601374
160	0xbb70a867	-0.003672147
161	0xbd85040c	-0.064949125
162	0x3b8f828f	0.0043795775
163	0xbc11d0f2	-0.008899914
164	0x3dbc6281	0.09198476
165	0xbd08efcb	-0.03343181
166	0xbd395356	-0.04524549
167	0xbdc2197d	-0.09477518
168	0x3dcf2867	0.10115128
169	0xbd3bca2f	-0.045847114
170	0xbdcff980	-0.1015501
171	0x3d5de48e	0.054173045
172	0xbd99e7c8	-0.07514912
173	0xbd42acc7	-0.047528055
174	0xbc3bb93c	-0.011457738
175	0x3d0c516d	0.03425734
176	0xbd6f62ef	-0.05844396
177	0xbd7632c5	-0.06010701
178	0x3c617616	0.013761064
179	0x3dbe4f6c	0.09292492
180	0xbc752c91	-0.014964239
181	0x3db4ea44	0.08833745
182	0x3d8a4d3a	0.06753011
183	0x3d88f787	0.06687837
184	0x3dd1f557	0.10251873
185	0xbd181630	-0.037130535
186	0xbdf82fac	-0.12118468
187	0x3de17870	0.110093
188	0x3d4b6749	0.049659047
189	0x3d791117	0.060807314
190	0xbd6cad44	-0.057782426
191	0xbdc00c98	-0.09377402
192	0x3d09d536	0.0336506
193	0x3d31a3c5	0.043369073
194	0xbcee9c2e	-0.029127207
195	0x3d90d974	0.07072726
196	0x3dc11e0c	0.09429559
197	0xbd91909d	-0.07107661
198	0x3d48adb2	0.048993774
199	0xbc742811	-0.014902131

bn2.weight f4 [200]
0	0x3f5a9af0	0.85392666
1	0x3f6ea620	0.93222237
2	0x3f74bde1	0.9560223
3	0x3f9760de	1.1826437
4	0x3f6ef9f2	0.93350136
5	0x3f8d00b3	1.1015838
6	0x3f57fc44	0.843693
7	0x3f424d91	0.75899607
8	0x3f2183df	0.63091844
9	0x3fa3d269	1.2798587
10	0x3f373122	0.71559346
11	0x3f87c2e3	1.060635
12	0x3f5513bc	0.8323324
13	0x3f82df94	1.0224481
14	0x3f78624b	0.97024983
15	0x3f6c4c74	0.9230416
16	0x3f6d96b2	0.9280807
17	0x3f4b7b32	0.79484856
18	0x3f69fbef	0.91400045
19	0x3f71b986	0.9442371
20	0x3f7863ce	0.9702729
21	0x3f652bbb	0.8951985
22	0x3f6b8424	0.91998506
23	0x3f80ea56	1.0071514
24	0x3f856f39	1.0424567
25	0x3f869b25	1.0516096
26	0x3f099292	0.53739274
27	0x3f7d5409	0.9895635
28	0x3f71cd6c	0.94454074
29	0x3f6db592	0.9285518
30	0x3eec227f	0.46120068
31	0x3f8b3f2f	1.0878657
32	0x3f9078ff	1.1286925
33	0x3f2ab95e	0.666891
34	0x3f8d726d	1.1050545
35	0x3f70cd3f	0.9406318
36	0x3f7d9e8a	0.99070036
37	0x3f7f19d5	0.9964879
38	0x3f494230	0.7861662
39	0x3f838781	1.0275728
40	0x3f716447	0.94293636
41	0x3f74234f	0.95366377
42	0x3f80296a	1.0012639
43	0x3f561ccc	0.8363769
44	0x3f7de202	0.99172986
45	0x3f69e712	0.9136821
46	0x3f50f29b	0.81620187
47	0x3f824412	1.0177023
48	0x3f1fea62	0.62467015
49	0x3f7e8ea7	0.9943642
50	0x3f3cdbdc	0.7377298
51	0x3f6ae0bc	0.9174917
52	0x3f8c61c9	1.0967342
53	0x3f77b029	0.96753174
54	0x3f90e07f	1.1318511
55	0x3f728d9f	0.94747347
56	0x3f36a448	0.71344423
57	0x3f452853	0.77014655
58	0x3f7373db	0.95098656
59	0x3f68cecb	0.9094054
60	0x3f72a56a	0.9478365
61	0x3f7e5d34	0.99360967
62	0x3f876f60	1.0580864
63	0x3f286b88	0.6578908
64	0x3f76fbe2	0.9647809
65	0x3f8333c4	1.0250173
66	0x3f1c80dc	0.61134124
67	0x3f915290	1.1353321
68	0x3f651158	0.8947959
69	0x3f8d7249	1.1050502
70	0x3f495e45	0.7865947
71	0x3f82964f	1.020212
72	0x3f71ef51	0.9450579
73	0x3f1bd204	0.60867333
74	0x3f930755	1.1486613
75	0x3f314114	0.69239926
76	0x3f7df1b6	0.99196947
77	0x3f66b7c0	0.9012413
78	0x3f3d824b	0.74026936
79	0x3f8fc625	1.1232344
80	0x3f266200	0.64993286
81	0x3f80b1ae	1.0054224
82	0x3f75e05f	0.9604549
83	0x3f942570	1.1573925
84	0x3f5c85d1	0.8614169
85	0x3f8287b8	1.0197668
86	0x3f80022a	1.000066
87	0x3f416299	0.75541073
88	0x3f6be7e2	0.921507
89	0x3f8f6471	1.1202527
90	0x3f1f4b34	0.62224126
91	0x3f65566b	0.8958499
92	0x3f7b90f6	0.9826807
93	0x3f3338d8	0.7000861
94	0x3f856295	1.042071
95	0x3f83ff62	1.0312312
96	0x3f8eeef7	1.1166676
97	0x3f36507a	0.7121655
98	0x3f50e2d7	0.8159613
99	0x3f985769	1.1901675
100	0x3f6e3472	0.93048775
101	0x3f81da2b	1.0144705
102	0x3f77140a	0.9651495
103	0x3f3e154e	0.7425126
104	0x3f6f4a2b	0.93472546
105	0x3f504111	0.81349283
106	0x3f77c9be	0.9679221
107	0x3f747f8c	0.9550712
108	0x3f3baca3	0.733103
109	0x3f5d6adb	0.86491174
110	0x3f6b8b44	0.9200938
111	0x3f829549	1.0201808
112	0x3f4a1aa4	0.789469
113	0x3f890cef	1.0707072
114	0x3f2226ff	0.63340753
115	0x3f8362e3	1.0264553
116	0x3f68cda1	0.90938765
117	0x3f59805b	0.8496148
118	0x3f03d9d0	0.5150423
119	0x3f804c66	1.0023315
120	0x3f610c9a	0.87909853
121	0x3f81f3c6	1.0152519
122	0x3f6b6970	0.9195776
123	0x3f877edf	1.0585593
124	0x3f2ff96f	0.6873998
125	0x3f26577f	0.6497726
126	0x3f6245a0	0.8838749
127	0x3f494500	0.7862091
128	0x3f79541d	0.9739397
129	0x3f84c543	1.03727
130	0x3f7bcd4a	0.9836012
131	0x3f71c2fd	0.94438154
132	0x3f70f180	0.941185
133	0x3f7065c5	0.9390529
134	0x3f79e916	0.97621286
135	0x3f820a01	1.0159303
136	0x3f7f8456	0.99811304
137	0x3f73e793	0.9527523
138	0x3f558aac	0.8341472
139	0x3f93c6dd	1.1545063
140	0x3f7ea497	0.99469894
141	0x3f77e010	0.9682627
142	0x3f63171b	0.8870713
143	0x3f832d6f	1.024824
144	0x3f827dab	1.0194601
145	0x3f79b509	0.9754186
146	0x3f49f4f9	0.78889424
147	0x3f897c6a	1.0741093
148	0x3f4cf882	0.8006669
149	0x3f5f2cbe	0.87177646
150	0x3f41b9d8	0.756742
151	0x3f6c6f39	0.9235721
152	0x3f48bde5	0.78414756
153	0x3f40e06d	0.75342447
154	0x3f8642ab	1.0489095
155	0x3f3d009a	0.7382904
156	0x3f79df95	0.97606784
157	0x3f8d1891	1.1023122
158	0x3f2a8656	0.6661123
159	0x3f5e806f	0.86914724
160	0x3f8c9435	1.0982729
161	0x3f372370	0.7153845
162	0x3f4b9091	0.79517466
163	0x3f639069	0.8889223
164	0x3f4dc1c6	0.803738
165	0x3f71d8e6	0.94471586
166	0x3f8df0ea	1.1089146
167	0x3f51ec05	0.8200076
168	0x3f43150d	0.76203996
169	0x3f477beb	0.7792346
170	0x3f183c6a	0.59467185
171	0x3f4beb59	0.7965599
172	0x3f85adca	1.0443661
173	0x3f5cf93e	0.86317813
174	0x3f42b3f8	0.7605586
175	0x3f8912ca	1.0708859
176	0x3f544ab6	0.829265
177	0x3f2ffae1	0.68742186
178	0x3f716e85	0.94309264
179	0x3f520603	0.82040423
180	0x3f854781	1.0412446
181	0x3f4ff18f	0.81227964
182	0x3f664f08	0.8996434
183	0x3f8e347b	1.1109766
184	0x3f72dd6e	0.94869125
185	0x3f352e38	0.7077365
186	0x3f83fe27	1.0311936
187	0x3f6908d2	0.91029084
188	0x3f58f939	0.84755284
189	0x3f81afda	1.0131791
190	0x3f87bd5b	1.0604662
191	0x3f8d6058	1.1045027
192	0x3f1b3e3a	0.60641825
193	0x3f407253	0.75174445
194	0x3f620814	0.88293576
195	0x3f4d1c0b	0.80120915
196	0x3ef7ef0e	0.48424572
197	0x3f479b91	0.7797175
198	0x3f815af8	1.0105886
199	0x3f6f7a0e	0.93545616

bn2.bias f4 [200]
0	0xbe5ea677	-0.21743189
1	0x3d9fc237	0.078007154
2	0xbe8ee27a	-0.27907163
3	0x3bd40e10	0.006471403
4	0xbcaf2a68	-0.021382526
5	0x3e677f9b	0.22607271
6	0xbe8b14b7	-0.27164242
7	0x3e8217a3	0.25408658
8	0x3ec0da16	0.37666386
9	0xbeaebe7f	-0.34129712
10	0x3e9f8adc	0.3116063
11	0xbd18f7a3	-0.03734554
12	0x3d503dfd	0.050840367
13	0x3c801306	0.015634071
14	0xbf0147fd	-0.5050047
15	0xbf1d468c	-0.6143577
16	0x3d7eaf9f	0.062179204
17	0xbe535c2e	-0.20640633
18	0xbe0e530f	-0.13898872
19	0xbd5971b2	-0.053086944
20	0xbec1eaae	-0.3787436
21	0xbd7ac3dc	-0.061221942
22	0xbe52624a	-0.20545307
23	0x3d24f149	0.04026917
24	0xbdab70fb	-0.08371159
25	0xbf04caa7	-0.5187172
26	0x3c92e1d5	0.01792995
27	0xbd6a6481	-0.057224754
28	0xbf36c210	-0.71389866
29	0xbe21fdf1	-0.15819527
30	0x3f11c9a9	0.56948334
31	0xbf56838e	-0.83794487
32	0xbf1fb8f9	-0.6239162
33	0x3de2da88	0.11076838
34	0x3e366735	0.17812808
35	0xbccd12ef	-0.025033442
36	0xbd5d7f8a	-0.05407671
37	0xbe44cbbf	-0.19218348
38	0xbd4cd904	-0.05001165
39	0x3e06f3a8	0.13178885
40	0xbe844d8b	-0.2584041
41	0xbebdb3d7	-0.3705127
42	0xbe6574db	-0.22407858
43	0xbf434ca5	-0.76288825
44	0xbd8d4669	-0.06898195
45	0x3e2fa261	0.17151786
46	0xbe5d07d7	-0.21585022
47	0xbdca7ef4	-0.09887496
48	0x3d57aa89	0.05265287
49	0xbe12a916	-0.14322314
50	0x3e7b4fe3	0.24542193
51	0xbdfead37	-0.12435382
52	0x3cb2818e	0.021790292
53	0xbf5bec37	-0.8590731
54	0xbdb1d38d	-0.08682928
55	0x3dbca504	0.09211162
56	0xbd42093d	-0.04737209
57	0x3ea10e13	0.3145605
58	0xbbbf6e41	-0.0058420007
59	0xbe46acb1	-0.19401814
60	0x3db5fa01	0.08885575
61	0x3ce9f77b	0.02856039
62	0x3e7ca21e	0.24671218
63	0x3d826a57	0.06367939
64	0xbd7f0bbf	-0.06226706
65	0xbe47c132	-0.19507292
66	0x3e06e133	0.13171844
67	0xbea37a76	-0.31929368
68	0xbdf0744d	-0.117409326
69	0xbcf96f52	-0.03044859
70	0xbef8c9f9	-0.48591593
71	0x3d1eefdd	0.03880297
72	0x3d42d985	0.047570724
73	0x3eb154b6	0.34634942
74	0x3c45a02f	0.0120621165
75	0x3e01d6fd	0.12679668
76	0x3d92803b	0.07153364
77	0x3d89e8e4	0.067338735
78	0x3e5ab978	0.21359813
79	0x3dd27a9b	0.102772914
80	0x3e766463	0.24061732
81	0x3cd34b34	0.025792696
82	0x3ccae236	0.024766069
83	0xbd5b8d36	-0.053601466
84	0x3e88261b	0.26591572
85	0xbcd2fcbd	-0.02575528
86	0xbc990560	-0.01867932
87	0x3e84cdf1	0.2593837
88	0xbc7cb430	-0.015423819
89	0x3c171870	0.009222135
90	0x3dfb71ed	0.12277589
91	0xbd58c87c	-0.05292557
92	0x3d8b76bc	0.06809756
93	0x3de95426	0.11393003
94	0xbe2220fe	-0.15832898
95	0xbe14327e	-0.14472386
96	0x3cff72fe	0.031182762
97	0xbd8d37f4	-0.06895438
98	0x3edf57fe	0.4362182
99	0x3ea03fe0	0.31298733
100	0xbf2cc71c	-0.67491317
101	0xbe4d0ad6	-0.20023665
102	0xbd77d640	-0.06050706
103	0x3f1fad83	0.6237413
104	0x3c25dda1	0.010123641
105	0xbe223121	-0.15839054
106	0x3d3db2bb	0.04631303
107	0x3c31fa37	0.0108628785
108	0x3e3e3b49	0.18577303
109	0x3e6b7f94	0.22997886
110	0xbdf649d6	-0.12025802
111	0xbcb8197f	-0.022473095
112	0xbd6b83fc	-0.057498917
113	0xbe3dcb9e	-0.18534705
114	0x3dac1ceb	0.08403953
115	0x3c25cf17	0.010120175
116	0xbf64d340	-0.8938484
117	0xbe168759	-0.14700069
118	0x3f010708	0.50401354
119	0xbd91cee1	-0.07119537
120	0xbe358948	-0.1772815
121	0x3d49343c	0.04912208
122	0xbe5182b0	-0.2046001
123	0xbd581f16	-0.05276402
124	0x3eaa0016	0.3320319
125	0x3e618b2e	0.22025749
126	0x3c88039e	0.016603287
127	0x3e5d504f	0.21612667
128	0xbdaaf5fe	-0.083477005
129	0x3da20775	0.079115786
130	0x3e223b08	0.15842831
131	0xbde14886	-0.11000161
132	0x3d484c41	0.048900846
133	0xbc60cbf8	-0.013720505
134	0x3dd0228b	0.101628385
135	0xbda83c49	-0.082146235
136	0xb8bc3e51	-8.976146e-05
137	0x3d4a9029	0.049453888
138	0x3e6b04ba	0.22951022
139	0xbe7763dc	-0.24159187
140	0xbc241c9e	-0.0100165885
141	0x3caabd89	0.02084233
142	0xbe2f7384	-0.1713391
143	0x3d6a6145	0.05722167
144	0x3b7917d2	0.0038008583
145	0x3db05d3e	0.086115345
146	0xbe42b63a	-0.19014826
147	0xbe1f5d1a	-0.15562859
148	0x3e385989	0.18002905
149	0xbf016bd6	-0.5055517
150	0x3e27de14	0.1639331
151	0x3c8fcc8f	0.017553596
152	0x3e06ce48	0.13164628
153	0xbe42111d	-0.1895184
154	0xbbfdf744	-0.0077504236
155	0xbd135717	-0.035971727
156	0xbd0586c3	-0.032599222
157	0xbbf4ddba	-0.007472721
158	0x3df32b7b	0.118735276
159	0x3f189b8c	0.59612346
160	0x3ef62471	0.48074678
161	0x3ed2522b	0.41078314
162	0x3eccf63b	0.4003161
163	0xbee12e95	-0.43980852
164	0xbeedc4ad	-0.46439114
165	0xbc34fd18	-0.01104667
166	0xbdae8238	-0.08520931
167	0xbda3410b	-0.0797139
168	0x3e6bb631	0.2301872
169	0x3e8fc618	0.2808082
170	0x3e892f8a	0.26794082
171	0xbeb7b3ec	-0.35879457
172	0x3d42c702	0.04755307
173	0xbf48b261	-0.78397185
174	0xbe5caf99	-0.2155136
175	0xbcf7178b	-0.030162593
176	0x3eade7eb	0.33966002
177	0x3e9ef9b1	0.31049874
178	0xbd22c510	-0.039738715
179	0x3d9a9241	0.07547427
180	0x3d0350f2	0.032059617
181	0xbf434232	-0.7627288
182	0xbd980d5d	-0.07424424
183	0xbd678180	-0.056519985
184	0xbe93642f	-0.28787372
185	0x3e5918a7	0.2120081
186	0x3d0e6734	0.03476639
187	0x3e028e72	0.12749651
188	0x3e0233f5	0.12715133
189	0xbc798717	-0.015229962
190	0xbdb34a3f	-0.08754396
191	0xbf0f5dcd	-0.56002504
192	0x3e6de315	0.23231156
193	0xbdfc37f9	-0.123153634
194	0xbebb2c78	-0.36557364
195	0x3db03a55	0.08604876
196	0x3f074881	0.5284501
197	0xbe93a0d2	-0.28833634
198	0x3dfc38b0	0.123155
199	0x3d912cf8	0.07088655

bn2.running_mean f4 [200]
0	0x3e2ae570	0.16689086
1	0xbefd793e	-0.49506563
2	0xbe8c5e13	-0.27415523
3	0xbf43b368	-0.7644563
4	0x3dde090b	0.108415686
5	0xbd2776cf	-0.04088479
6	0x3def36c8	0.116803706
7	0xbdc0314a	-0.09384401
8	0xbe9ce5fc	-0.30644214
9	0x3e2e8e0c	0.17046374
10	0xbe348841	-0.17630102
11	0x3e135458	0.14387643
12	0x3ece77e4	0.40325844
13	0x3f35a0e1	0.70948607
14	0x3eca0daa	0.3946355
15	0x3dc17e26	0.09447889
16	0x3aa9a297	0.0012942132
17	0x3f5e0ec4	0.8674128
18	0xbca15f11	-0.019698652
19	0x3efed016	0.49768132
20	0x3e6c974e	0.23104593
21	0xbecf6dfa	-0.40513593
22	0xbf7ce755	-0.98790485
23	0xbeef94a0	-0.4679308
24	0x3ef8d4d2	0.4859987
25	0x3ecb16fe	0.3966598
26	0xbf166557	-0.5874838
27	0x3f3e18d7	0.7425665
28	0x3e3bedfb	0.18352501
29	0x3de40138	0.11133045
30	0xbf0fc617	-0.56161636
31	0x3e61a086	0.22033891
32	0x3ed1a130	0.4094329
33	0x3f0b8c6a	0.5451113
34	0xbe9acd17	-0.30234596
35	0x3d85b128	0.065279305
36	0xbe935213	-0.28773555
37	0xbd16320d	-0.036668826
38	0xbd32b649	-0.043630872
39	0xbe337628	-0.17525542
40	0x3ea7e3b7	0.3279092
41	0xbdf062fe	-0.11737631
42	0x3eaa9871	0.3331943
43	0x3e8975cb	0.2684768
44	0xbdb8444a	-0.089974
45	0x3e252d31	0.1613052
46	0xbe451df3	-0.19249706
47	0xbdbd423c	-0.09241149
48	0xbe6656b4	-0.22494012
49	0xbe9f4408	-0.3110659
50	0x3dc232dc	0.09482357
51	0x3eef329b	0.46718296
52	0x3e784215	0.24243958
53	0x3dae60e4	0.08514574
54	0xbd74444c	-0.059635445
55	0x3c07f9f3	0.008299339
56	0xbf02cfb2	-0.5109817
57	0x3e66f43c	0.22554106
58	0xbdc495cd	-0.09598885
59	0x3e03f2dc	0.12885612
60	0xbea1120e	-0.31459087
61	0xbf9af6d5	-1.2106577
62	0x3eb5efed	0.3553461
63	0xbf14622c	-0.579623
64	0xbe7fe39e	-0.24989173
65	0xbd0e0b28	-0.03467861
66	0x3e8eff42	0.2792912
67	0xbf0f0db9	-0.55880314
68	0xbe8d2959	-0.27570608
69	0x3d8be5f8	0.068309724
70	0xbe07c792	-0.13259724
71	0xbc3c84b2	-0.011506246
72	0xbe43cc60	-0.19120932
73	0x3df241fe	0.11828993
74	0x3e3da5fe	0.18520352
75	0xbf01dcd8	-0.50727606
76	0xbf5ba901	-0.85804754
77	0xbf174f0c	-0.5910499
78	0x3ec56d43	0.38559923
79	0x3e5d2e2b	0.21599643
80	0xbf0448ce	-0.5167359
81	0xbc138561	-0.009003968
82	0xbf80cbaa	-1.0062153
83	0x3e867d62	0.26267534
84	0x3e1067e4	0.14102131
85	0x3f3edcb8	0.7455554
86	0xbee96af1	-0.45589402
87	0x3b3f6991	0.002920721
88	0xbf81c9cc	-1.0139709
89	0xbe4dac8b	-0.20085351
90	0x3f612947	0.8795361
91	0xbf1dcef5	-0.61643916
92	0x3ea6a1f2	0.3254543
93	0xbf6bf155	-0.9216512
94	0xbd9e94a6	-0.07743196
95	0x3eb24eb1	0.34825662
96	0xbf1e3af5	-0.6180871
97	0xbe86496b	-0.26227888
98	0xbef94d20	-0.48691654
99	0x3e6effc6	0.23339757
100	0x3c866ae7	0.016408397
101	0xbf440bfb	-0.7658078
102	0x3e3bec71	0.18351914
103	0xbf31dc44	-0.69476724
104	0x3e115fbb	0.14196675
105	0x3e4459b7	0.19174848
106	0xbf1fc6bf	-0.6241264
107	0x3de8683c	0.11348006
108	0xbf1e1d52	-0.6176349
109	0xbd78e5ec	-0.060766146
110	0xbda39486	-0.07987313
111	0x3e81a151	0.25318387
112	0xbf12183e	-0.5706824
113	0x3dfcf385	0.12351135
114	0xbe80bbcc	-0.25143278
115	0x3c0419b5	0.00806277
116	0x3ec63e58	0.3871944
117	0x3eb3e898	0.35138392
118	0xbed355d8	-0.4127643
119	0xbd2b7495	-0.04185923
120	0xbe66b4f4	-0.22529966
121	0x3e6c6bca	0.23087993
122	0x3edb8ab1	0.4287925
123	0xbe80bd31	-0.25144342
124	0xbd75fab9	-0.06005356
125	0xbf06bf6d	-0.5263584
126	0xbd89d590	-0.06730187
127	0xbf089f4b	-0.5336806
128	0xbea920ef	-0.3303294
129	0x3f2e59d6	0.6810583
130	0x3d581d69	0.052762423
131	0xbe15f7ba	-0.14645281
132	0x3ee92e1c	0.4554299
133	0x3f3fe867	0.7496399
134	0xbdde492b	-0.108537994
135	0x3d4da66c	0.05020754
136	0xbc026612	-0.007958906
137	0xbcf206b6	-0.029544216
138	0xbe674bc2	-0.22587493
139	0x3e120b57	0.14262138
140	0x3c944cf2	0.018103097
141	0x3d09e43e	0.033664934
142	0xbeb832e7	-0.35976335
143	0xbf5bac88	-0.85810137
144	0x3f2af7cd	0.66784364
145	0xbd2ae3ac	-0.04172103
146	0xbf37564f	-0.7161607
147	0xbe80a5c7	-0.25126478
148	0xbe78505a	-0.24249402
149	0x3e6f4663	0.23366694
150	0xbe440a23	-0.19144492
151	0x3e0cf336	0.13764653
152	0xbedabd90	-0.4272275
153	0xbbf40cbc	-0.007447807
154	0xbecdd577	-0.40201923
155	0x3e248b12	0.16068676
156	0xbf53f19e	-0.82790554
157	0xbd7114a4	-0.058857575
158	0xbed69519	-0.41910627
159	0xbdf9f9ac	-0.12205824
160	0x3f14f06f	0.5817937
161	0x3db56780	0.08857632
162	0xbea4be3d	-0.3217639
163	0xbe7dae1a	-0.24773446
164	0x3f12af4f	0.5729875
165	0xbe6d2902	-0.23160174
166	0x3e71ef7d	0.23626514
167	0x3f11276e	0.5670079
168	0xbe815c58	-0.25265765
169	0x3e824b68	0.25448155
170	0xbe7f1bf0	-0.24913001
171	0x3dbb6a80	0.09151173
172	0xbf121efb	-0.5707852
173	0xbe01ba5a	-0.12668744
174	0x3d882738	0.066481054
175	0xbf7111f8	-0.94168043
176	0xbe3ff2ba	-0.18744937
177	0xbe255eb2	-0.16149405
178	0xbb8a70c0	-0.0042248666
179	0xbea3d091	-0.3199506
180	0xbf13bd77	-0.57710975
181	0x3e937618	0.28801036
182	0xbd10dd94	-0.035367563
183	0xbf8d0474	-1.1016984
184	0x3d2cd1e9	0.042192373
185	0x3ef7334e	0.4828133
186	0x3bb7a667	0.0056045535
187	0xbe5aa959	-0.21353664
188	0x3d9b5d06	0.07586102
189	0x3be69a31	0.007037424
190	0xbe8dba2c	-0.276811
191	0x3f5b7254	0.85721326
192	0x3f21dd0c	0.63227916
193	0xbf37e8be	-0.7183951
194	0xbe885f71	-0.26635316
195	0xbc941d29	-0.01808031
196	0x3f2a6e99	0.6657501
197	0xbf17a11b	-0.592302
198	0x3eb543f7	0.35403416
199	0xbedc55b0	-0.43034124
